Unity/results/ppo/My Behavior/My Behavior-4496.onnx (onnx, 72892 bytes, 7 tensors)

action_model._continuous_distribution.log_sigma f4 [1, 2]
000000 00 00 00 00 00 00 00 00
       0.0 0.0

action_model._continuous_distribution.mu.bias f4 [2]
000000 00 00 00 00 00 00 00 00
       0.0 0.0

action_model._continuous_distribution.mu.weight f4 [2, 128]
000000 07 49 c5 3b b3 a0 75 bc 1b 4f 15 bb f3 20 0d bd
       0.0060206684 -0.014991927 -0.0022782746 -0.03445525
000010 60 46 2d 3c 41 da ad 3c 07 a2 6b 3c da 2e f5 bc
       0.010575861 0.021222236 0.014381892 -0.029929567
000020 d4 45 8f bb b4 33 98 b8 e5 bb 0a 3c 99 ed 2b 3c
       -0.004372338 -7.257555e-05 0.008467649 0.010493659
000030 99 7c a6 bc 28 a7 8f bc a5 da d9 bb 6d 08 51 3c
       -0.020323085 -0.017535761 -0.006648379 0.0127583565
000040 13 3e c5 bb 68 e7 66 bc 3d 8d 75 3b 63 f5 45 bc
       -0.0060193627 -0.0140932575 0.0037468218 -0.0120824305
000050 df 5e 64 3c 7b 80 33 bc 1f 14 f9 bb 18 a4 e7 bc
       0.013938635 -0.010955925 -0.0076012756 -0.028276488
000060 80 27 d7 bb 19 0f bd 3c c6 e4 10 bd cc 82 94 bc
       -0.006565988 0.023078488 -0.035374425 -0.018128775
000070 bd 21 6c bc b7 c8 96 3c b4 d1 b4 3c 34 72 24 bc
       -0.014412341 0.018406255 0.02207265 -0.010036994
000080 05 9a dd 3b ed c1 09 bc 88 f4 d1 3c ed 67 d4 3a
       0.0067627453 -0.008408052 0.025629297 0.0016205289
000090 f2 41 71 3c 03 5d 0b bc 2a e0 1d bd 6b 89 9d 3c
       0.014725195 -0.008506062 -0.038543858 0.019230565
0000a0 8f 83 3c 3a 73 4d a4 3c 02 a5 62 bc 69 75 1a bc
       0.00071912346 0.020056462 -0.013833286 -0.009427407
0000b0 f3 d0 c7 3c fe 8b 93 bc 27 6c 8d 3b 3b 37 ae bc
       0.024391627 -0.01801109 0.0043158713 -0.02126657
0000c0 07 4b 55 3b 4b 5d b1 bc f4 38 83 bc 24 23 b6 3a
       0.003254594 -0.02165093 -0.016018368 0.0013895971
0000d0 23 54 b0 bc d4 57 17 bd 92 2c 5a bc 64 9e 12 3c
       -0.021524495 -0.036948994 -0.01331629 0.008948896
0000e0 33 48 11 bc 3e d0 07 bc 90 f3 6b bc ab 8b 13 3d
       -0.008867311 -0.008289395 -0.014401332 0.03602187
0000f0 a5 c4 48 bc 90 26 b2 ba 4f 37 db 3b 33 28 04 bc
       -0.012253915 -0.0013591815 0.006689943 -0.008066225
000100 39 c4 a3 3c ab 0f 1c bc 07 20 7a bb 7f 83 ee 3a
       0.019991027 -0.00952522 -0.0038166062 0.0018197148
000110 01 e6 16 bc 6b 36 b5 3c 23 ff dd 3c 61 f7 b4 3c
       -0.009210111 0.022120675 0.027099198 0.022090616
000120 b7 6b 5f bc ea 6a da 3c ab 11 2a bc 94 c0 9c 3c
       -0.013636521 0.026662309 -0.010380189 0.019134797
000130 0a db 93 bc 35 c7 9d bc f2 a7 a3 3b 07 21 7d 3b
       -0.018048782 -0.019260028 0.004994386 0.0038624422
000140 3e be 1e 3d 95 80 b1 3c 8e 7c 25 bb 10 8d 0f bc
       0.038755648 0.021667758 -0.0025251242 -0.008761659
000150 b3 eb d9 bb 92 54 95 ba e7 89 eb bc 6b ec b0 bc
       -0.006650412 -0.0011393002 -0.02875228 -0.021597108
000160 32 4b 71 3c e3 14 2d bb d5 c6 f5 bc 79 b7 a4 bb
       0.014727401 -0.0026410155 -0.030002037 -0.0050267545
000170 62 d0 0a 3b d7 05 3a bb 57 76 84 bc 8b 54 23 bc
       0.0021181335 -0.0028384828 -0.01616971 -0.009968887
000180 86 17 c2 ba e6 c7 0b 3c 59 21 c6 3b cf 03 c4 3c
       -0.0014808036 0.008531546 0.006046456 0.023927597
000190 d3 2a 09 bd b6 a4 a9 bc ed cd 97 bc 89 52 b6 bb
       -0.033488106 -0.020708423 -0.01853081 -0.005564038
0001a0 07 d9 66 bc 3a ec 00 3c 82 41 f5 3b 22 06 87 ba
       -0.014089829 0.007868821 0.007484616 -0.001030151
0001b0 5e fa ae 3c 43 bb 1c 3c ff 18 0d bc 13 80 c4 bc
       0.021359619 0.009566131 -0.008611917 -0.023986852
0001c0 09 b9 06 bd 34 fd 80 3c d8 4a 28 ba 17 41 79 3c
       -0.032891307 0.015745737 -0.0006419844 0.0152132725
0001d0 a8 bf 79 3b 18 af 59 3c 40 76 86 bc 30 c9 18 bd
       0.003810862 0.0132863745 -0.016413808 -0.037301242
0001e0 6f fd 2a 3d f2 05 9a 3c c2 d1 eb bc 2f cd a2 bc
       0.0417456 0.018801663 -0.028786544 -0.01987323
0001f0 00 f5 eb bc bb ab bc 3c 22 22 aa 3b da 28 84 3c
       -0.028803349 0.023031106 0.005192057 0.01613276
000200 87 ce c9 bc dd ba a9 3b 5b 6c b2 3c 5d e9 5e bb
       -0.024634613 0.0051797465 0.021780184 -0.0034013607
000210 5c ed c4 3b 8a b6 89 3b c5 f4 dd bc 7b 1e e9 3c
       0.0060097408 0.0042026686 -0.027094254 0.028456917
000220 68 16 a9 3c 05 12 8a bb 88 80 7c 3c d8 fc 75 bc
       0.020640567 -0.004213574 0.015411504 -0.015013896
000230 5c ed 14 3d 6d bd 21 3c ff 26 4f 3b e2 8b 7b ba
       0.036359176 0.009871823 0.0031608937 -0.00095957343
000240 ff 50 00 3b ca f7 36 bc 0d 34 65 bb 29 58 8c 3c
       0.0019579527 -0.011167476 -0.0034973652 0.017131882
000250 d0 9f b3 bc da 4d 7e bc 32 22 7b 3b b7 4c 1a bc
       -0.02192679 -0.015521491 0.0038319943 -0.009417704
000260 f8 a9 5c bd c8 ef 4c bb 64 d5 a6 bc da f1 3c bb
       -0.053873032 -0.003127085 -0.020365424 -0.0028830678
000270 12 13 73 3c fb 68 57 3c 57 f1 42 bc ab 0e aa 3c
       0.01483609 0.013147588 -0.01189836 0.020758947
000280 2b 3c 0b ba c4 ef 96 3c ac 50 31 3d cf ed 6c 3c
       -0.0005311395 0.018424876 0.043289825 0.014460995
000290 58 08 07 bb 98 ff 7f bb a1 50 83 3c f1 41 42 3c
       -0.0020604338 -0.0039062258 0.016029658 0.011856542
0002a0 78 fe 3a 3c 0c 16 96 3c ed d7 a7 bb 1a 42 7e 3b
       0.011413209 0.01832106 -0.005122176 0.0038796724
0002b0 32 d9 12 3c bd ac bb bb ab 13 e8 3c d2 3a 7b 3c
       0.008962916 -0.005727379 0.02832969 0.015333848
0002c0 90 da 5c 3c d7 3a ee 3b 44 88 81 3c b7 f8 fa ba
       0.013479844 0.007270198 0.015812047 -0.0019147609
0002d0 70 2e fe 3b f3 d2 f4 3a d6 b8 2f 3d 7e 9a 83 bc
       0.0077570006 0.001867859 0.042900883 -0.016064879
0002e0 4d 78 5d bc a2 6c e9 3c 0d 8f 00 3c 68 9f 3c 3d
       -0.0135174515 0.028494183 0.007846606 0.04605046
0002f0 b8 6e 84 bc 9f 8a 8d 3c dd a0 43 3c 26 54 a2 3c
       -0.016166076 0.017278014 0.011940208 0.019815516
000300 d4 7f af 3c d0 45 0a bd 13 b2 d2 bc f7 5d 8f 3c
       0.021423258 -0.033757985 -0.025719678 0.01750086
000310 4f d3 ae 3b 75 88 f1 bb d8 f1 e1 bb a7 3f 21 3c
       0.0053352485 -0.0073710033 -0.006895285 0.009841836
000320 45 81 04 bb db ff 57 bc 4a 90 b2 3c 4e f8 a8 bc
       -0.0020218652 -0.013183559 0.021797318 -0.020626213
000330 0a 1c 2d 3d 45 5e b3 bb 9b cd 18 bb ad 02 87 bc
       0.04226307 -0.0054738843 -0.002331591 -0.016480768
000340 a3 bd 2f 3c a4 da 2f 3c 1b 28 13 3c b0 3d 4c 3c
       0.010726365 0.01073328 0.00898173 0.012465879
000350 1e 60 1b 3b 7b ad bc bc 01 36 ad bc 10 57 c9 bc
       0.0023708413 -0.02303194 -0.021143915 -0.024577647
000360 3e a0 49 3c e7 6a 29 3d b0 f2 41 bc e6 bd c4 b9
       0.012306271 0.041361716 -0.011837646 -0.0003752552
000370 cb e6 2a 3b 1f 4a 2e 3b 4f 1a 68 3c 5e cf 8d bb
       0.0026077505 0.0026594473 0.014166429 -0.0043276986
000380 f5 23 19 bc 60 e9 de bb 9b 17 7b bb 68 cd 20 3c
       -0.009346952 -0.006802723 -0.003831363 0.009814598
000390 7b 7b 92 3c b3 6d 86 bc 48 44 32 bc 70 8a bb bb
       0.017881146 -0.01640973 -0.010880537 -0.00572329
0003a0 42 25 3e bc 8a 44 a8 3b 8d 7e 14 3c fb 7d 33 39
       -0.011605563 0.0051351236 0.009063375 0.00017117702
0003b0 0d 1c be 3c b9 cf 15 bc fd cf 07 3c cf 41 34 bc
       0.023206735 -0.009143763 0.008289334 -0.011002018
0003c0 49 c5 19 bb 27 4c bc bb 6f db c5 bc 5f 29 c7 3b
       -0.0023463538 -0.0057463828 -0.024152486 0.00607793
0003d0 d1 15 89 3b 6d 6a f1 3b 5c 2a 8e bb 0a e9 c1 bb
       0.004183509 0.0073674233 -0.0043385457 -0.005917673
0003e0 d2 82 6d ba 27 eb 29 bc 27 a8 c8 bc a3 c9 25 3c
       -0.0009060326 -0.010371006 -0.024494244 0.010118875
0003f0 93 01 eb bb 2b 66 0f bc a4 bc 1e bc cc 1a 92 bc
       -0.0071718185 -0.008752386 -0.00968853 -0.017835043

network_body.linear_encoder.seq_layers.0.bias f4 [128]
000000 00 00 00 00 00 00 00 00 00 00 00 00 00 00 00 00
       0.0 0.0 0.0 0.0
000010 00 00 00 00 00 00 00 00 00 00 00 00 00 00 00 00
       0.0 0.0 0.0 0.0
000020 00 00 00 00 00 00 00 00 00 00 00 00 00 00 00 00
       0.0 0.0 0.0 0.0
000030 00 00 00 00 00 00 00 00 00 00 00 00 00 00 00 00
       0.0 0.0 0.0 0.0
000040 00 00 00 00 00 00 00 00 00 00 00 00 00 00 00 00
       0.0 0.0 0.0 0.0
000050 00 00 00 00 00 00 00 00 00 00 00 00 00 00 00 00
       0.0 0.0 0.0 0.0
000060 00 00 00 00 00 00 00 00 00 00 00 00 00 00 00 00
       0.0 0.0 0.0 0.0
000070 00 00 00 00 00 00 00 00 00 00 00 00 00 00 00 00
       0.0 0.0 0.0 0.0
000080 00 00 00 00 00 00 00 00 00 00 00 00 00 00 00 00
       0.0 0.0 0.0 0.0
000090 00 00 00 00 00 00 00 00 00 00 00 00 00 00 00 00
       0.0 0.0 0.0 0.0
0000a0 00 00 00 00 00 00 00 00 00 00 00 00 00 00 00 00
       0.0 0.0 0.0 0.0
0000b0 00 00 00 00 00 00 00 00 00 00 00 00 00 00 00 00
       0.0 0.0 0.0 0.0
0000c0 00 00 00 00 00 00 00 00 00 00 00 00 00 00 00 00
       0.0 0.0 0.0 0.0
0000d0 00 00 00 00 00 00 00 00 00 00 00 00 00 00 00 00
       0.0 0.0 0.0 0.0
0000e0 00 00 00 00 00 00 00 00 00 00 00 00 00 00 00 00
       0.0 0.0 0.0 0.0
0000f0 00 00 00 00 00 00 00 00 00 00 00 00 00 00 00 00
       0.0 0.0 0.0 0.0
000100 00 00 00 00 00 00 00 00 00 00 00 00 00 00 00 00
       0.0 0.0 0.0 0.0
000110 00 00 00 00 00 00 00 00 00 00 00 00 00 00 00 00
       0.0 0.0 0.0 0.0
000120 00 00 00 00 00 00 00 00 00 00 00 00 00 00 00 00
       0.0 0.0 0.0 0.0
000130 00 00 00 00 00 00 00 00 00 00 00 00 00 00 00 00
       0.0 0.0 0.0 0.0
000140 00 00 00 00 00 00 00 00 00 00 00 00 00 00 00 00
       0.0 0.0 0.0 0.0
000150 00 00 00 00 00 00 00 00 00 00 00 00 00 00 00 00
       0.0 0.0 0.0 0.0
000160 00 00 00 00 00 00 00 00 00 00 00 00 00 00 00 00
       0.0 0.0 0.0 0.0
000170 00 00 00 00 00 00 00 00 00 00 00 00 00 00 00 00
       0.0 0.0 0.0 0.0
000180 00 00 00 00 00 00 00 00 00 00 00 00 00 00 00 00
       0.0 0.0 0.0 0.0
000190 00 00 00 00 00 00 00 00 00 00 00 00 00 00 00 00
       0.0 0.0 0.0 0.0
0001a0 00 00 00 00 00 00 00 00 00 00 00 00 00 00 00 00
       0.0 0.0 0.0 0.0
0001b0 00 00 00 00 00 00 00 00 00 00 00 00 00 00 00 00
       0.0 0.0 0.0 0.0
0001c0 00 00 00 00 00 00 00 00 00 00 00 00 00 00 00 00
       0.0 0.0 0.0 0.0
0001d0 00 00 00 00 00 00 00 00 00 00 00 00 00 00 00 00
       0.0 0.0 0.0 0.0
0001e0 00 00 00 00 00 00 00 00 00 00 00 00 00 00 00 00
       0.0 0.0 0.0 0.0
0001f0 00 00 00 00 00 00 00 00 00 00 00 00 00 00 00 00
       0.0 0.0 0.0 0.0

network_body.linear_encoder.seq_layers.0.weight f4 [128, 6]
000000 d0 c9 aa be 8d 0c 8f be 18 d9 30 3b 9d 64 d4 be
       -0.33357096 -0.27939263 0.0026984867 -0.41483012
000010 12 81 bb bd 1b 64 fd 3e 2d e1 ef bd a9 79 af 3e
       -0.091554776 0.49490437 -0.11712871 0.34272507
000020 82 ce f3 be df f9 4b 3e 45 73 9b 3d 2f 95 ca be
       -0.4761849 0.19919537 0.07590345 -0.39566943
000030 e4 63 12 bf 40 5c 0b be 45 3b c3 3d 22 e1 ee be
       -0.5718367 -0.1360941 0.09532789 -0.46656138
000040 c4 36 4c 3f d2 97 cc be d3 33 68 be 10 27 5c be
       0.79771066 -0.3995958 -0.2267602 -0.21499276
000050 7c 9e b1 3e eb f1 8e be 10 55 ce 3d ee b4 34 3f
       0.34691226 -0.27918944 0.10074818 0.70588577
000060 b5 66 31 3f 5a dd bf be 15 68 09 3f 4f cf f8 be
       0.69297343 -0.37473565 0.5367444 -0.48595664
000070 22 a0 b9 3e 9e a8 9a bc 57 3e 6e 3e 34 d3 aa be
       0.36254984 -0.018879231 0.23265968 -0.3336426
000080 96 3e 86 bd 6a 15 64 be 56 14 a1 be 46 92 99 3e
       -0.06554906 -0.22273794 -0.31460828 0.2999441
000090 2b f7 8e 3e e2 3c 0b 3f 41 17 f1 3d a7 87 5d bd
       0.2792295 0.54389775 0.117720135 -0.054084446
0000a0 89 58 6a 3d b2 35 1e be fc 75 8c 3f df df 60 3e
       0.05721334 -0.1545017 1.0973506 0.219604
0000b0 3a b3 d6 3d 09 93 56 be 95 82 7b bc c0 ed 15 3f
       0.104834035 -0.20954527 -0.015350957 0.585659
0000c0 46 7c e0 3e 83 8a 39 be 07 a5 62 bf d4 0c 83 be
       0.43844813 -0.18119244 -0.8853306 -0.25595725
0000d0 2f b8 78 3f 84 94 05 bd 0d bb 9e be 13 88 70 3d
       0.9715604 -0.03261234 -0.31002083 0.05872352
0000e0 1d 24 3d be 8b 38 05 be e2 12 98 be 98 4a 15 bf
       -0.18470807 -0.1300985 -0.29701906 -0.58316946
0000f0 72 7e 12 bf b7 ed ad be 3c dd 63 3e 65 cb 18 3f
       -0.5722419 -0.33970425 0.22252363 0.59685355
000100 6a 56 98 3e 13 ee 09 bf 67 d7 fd 3e 16 72 e0 3e
       0.2975343 -0.538789 0.495784 0.4383704
000110 ef dc 0a be 78 37 9f be 3a 93 81 bf 6c 5e 13 3f
       -0.13560842 -0.31097007 -1.0123055 0.5756595
000120 41 18 8a 3e 8f 43 f4 be 78 4a 9b 3d 35 bd 0e 3f
       0.2697163 -0.47707793 0.07582563 0.55757457
000130 05 51 89 be 19 d8 a7 3e e1 79 49 3e 08 38 5e bd
       -0.26819625 0.32782057 0.196754 -0.054252654
000140 3a 57 4c 3e 41 ac f7 3d ab 52 c4 be fa 58 4e be
       0.1995515 0.12093402 -0.3834432 -0.2015113
000150 c6 22 36 be b9 22 a0 3e 1b 8a a8 3d ff 40 02 3f
       -0.17786703 0.3127649 0.082294665 0.50880426
000160 ce bf 01 bf bb 1d 69 bf 55 34 ad 3e 2f 43 a2 bc
       -0.50683296 -0.9106099 0.3382899 -0.019807426
000170 f4 f4 f0 3c 0c f9 ae 3e 76 c7 c7 be a0 aa 00 3f
       0.029413678 0.34174383 -0.39019364 0.50260353
000180 57 e3 af 3e d1 f1 05 3f 01 4a 05 be bf 27 94 be
       0.34353134 0.5232211 -0.13016511 -0.28936574
000190 94 90 dd 3d 66 ab 24 3e 8d dd 16 be 9a 8c 11 be
       0.10818592 0.16081008 -0.14732952 -0.14213791
0001a0 73 6e 2a 3e 1c 0f bc be 23 5e ad 3d ac aa e5 3d
       0.16643696 -0.36730278 0.08465221 0.11214194
0001b0 51 1a 8b 3e 49 67 fc bd c3 75 82 bf 74 01 83 3e
       0.27168515 -0.123243876 -1.0192188 0.25587046
0001c0 10 74 32 3f 2e 41 b0 bd 40 56 9a be e5 c9 b7 3e
       0.6970835 -0.08606182 -0.3014393 0.3589622
0001d0 6f 95 1c 3f fa 69 05 3f 1e 39 14 be b9 7c 1c bf
       0.6116552 0.5211483 -0.14474913 -0.6112781
0001e0 89 89 ac 3e ab 10 10 bf 84 37 c8 3d 5a 09 76 be
       0.3369868 -0.56275433 0.09776214 -0.24027005
0001f0 3c f7 1b be 0d 9e ef be 1a 77 9a be 49 7f db 3e
       -0.15231031 -0.4680027 -0.30168992 0.42870548
000200 c8 86 75 3e d1 ec 80 be ab 77 39 3e 36 d0 ab bd
       0.23977196 -0.25180677 0.18112056 -0.083893225
000210 92 db 29 3f 41 cf 93 3d e5 9b 10 be 64 07 1a 3f
       0.6635066 0.07217265 -0.14121969 0.6016753
000220 38 76 4d bd c4 b7 04 bf c4 ff a0 3e 73 e1 e1 be
       -0.05016157 -0.51842904 0.31445134 -0.44117317
000230 45 68 06 bf c7 cb 98 3e 8f b2 b2 3d 72 d8 43 3f
       -0.5250285 0.2984297 0.087254636 0.76502144
000240 dd f5 6d bd f7 73 0e bd 04 b2 71 be 76 16 b5 be
       -0.0580958 -0.03477856 -0.23603064 -0.353687
000250 45 24 82 3e 8b 4a 66 3d cf 56 19 bd b7 30 16 bf
       0.25418296 0.056223433 -0.037436303 -0.5866808
000260 b3 dd b6 3e 67 79 de be c8 3c e1 be 07 32 e7 bd
       0.35716018 -0.43451998 -0.43991685 -0.11288839
000270 7e ff cf 3e 09 c2 7e 3e 9f 7e 30 3e 8e 2d bf 3e
       0.40624613 0.24878706 0.17235802 0.37339443
000280 d9 0e 14 3f ac a1 b5 3d 9d 6b 21 bf bb e1 68 be
       0.57835156 0.08868727 -0.6305483 -0.2274236
000290 52 80 4b 3f b2 99 af be e9 67 b1 bd c5 62 5c bf
       0.79492676 -0.34296948 -0.086623974 -0.8608821
0002a0 cf 23 6e 3e f8 ce af 3e 19 47 47 be 3f 9e ce be
       0.23255847 0.34337592 -0.19460715 -0.40355107
0002b0 4d 07 0e be fb 69 45 be 03 e7 9c be 7f e3 b6 bb
       -0.13869973 -0.1927871 -0.30644998 -0.005581319
0002c0 29 29 e0 bc 88 da 1c be 7a 47 97 3e 9c 96 d3 3b
       -0.027363377 -0.15317738 0.2954672 0.006457163
0002d0 f9 db 27 bf 7b 4e 31 bf f4 96 47 3e 74 42 c2 be
       -0.65570027 -0.69260377 0.19491178 -0.37941325
0002e0 6b 29 98 be 2e ae 84 3d 38 e7 89 3e 0e fb 3e 3c
       -0.297191 0.06478535 0.26934218 0.011656536
0002f0 97 7c 30 3f e4 64 25 be 10 b3 da 3e 9f c0 a5 3a
       0.6894011 -0.16151768 0.4271474 0.0012645907
000300 21 75 e9 3e bf 51 b8 3e 5f 64 eb 3e 4b 2c d0 be
       0.45597175 0.35999867 0.45975015 -0.40658793
000310 d5 6f 3a 3f 5f 23 be bd 5b 55 28 3f f0 a4 4a 3f
       0.7282689 -0.0928409 0.6575524 0.79157925
000320 48 fa 5f be 2c 11 a4 3e fb c0 39 3f 59 07 c3 be
       -0.21872818 0.3204435 0.7256009 -0.38091543
000330 3c 43 94 3e d2 9f 80 be 0d b6 6c be bc 28 03 3f
       0.28957546 -0.25121933 -0.23116322 0.5123403
000340 76 3e 00 3e 4b 42 35 3f d8 a8 2a 3e 04 c2 71 3e
       0.12523827 0.7080428 0.16665971 0.23609167
000350 2e da 10 bf eb de 1f 3f e6 cf 69 3d df 21 fb be
       -0.56582916 0.6244952 0.057083033 -0.4904928
000360 cb 66 00 3e ca 79 c4 bc a2 99 de 3e 6e 21 bc bd
       0.12539212 -0.023983855 0.43476588 -0.09186064
000370 6a fe 0e 3e 40 41 69 be 62 aa c7 bd d7 a7 60 bd
       0.13964239 -0.22778797 -0.09749295 -0.054847565
000380 e0 af 8e 3e 43 40 c4 be be d7 b0 be 57 a2 89 be
       0.27868557 -0.38330278 -0.34539598 -0.26881668
000390 5d 6a 03 3e e7 f6 00 3f f8 9d 40 be af 20 12 3f
       0.12833543 0.50376743 -0.1881026 0.5708112
0003a0 2d d0 cb 3d 4c 26 77 3e 2a 4d 1c 3f c8 3a 07 be
       0.09951816 0.24135703 0.61055243 -0.13206017
0003b0 da 10 e5 bd f6 62 14 3f 33 1f 1a 3f 5a 6f 82 be
       -0.11184855 0.579635 0.60203856 -0.2547558
0003c0 70 06 5b 3e b4 0f a6 be 67 72 5e bd cf ff 47 be
       0.21389174 -0.32433856 -0.05430832 -0.19531177
0003d0 d5 ba 9d 3e 6e d1 a2 3f 59 6c 09 be e1 60 89 be
       0.30806604 1.2720163 -0.13420238 -0.26831725
0003e0 6f 8e 39 3f fa b4 04 3e 79 91 45 3d ae be 35 be
       0.7248296 0.12959662 0.048234437 -0.1774852
0003f0 1a 33 ad be 6a 11 e7 3d be 7f f5 bd 40 9f af 3e
       -0.3382805 0.11282618 -0.119872555 0.34301186

network_body.linear_encoder.seq_layers.2.bias f4 [128]
000000 00 00 00 00 00 00 00 00 00 00 00 00 00 00 00 00
       0.0 0.0 0.0 0.0
000010 00 00 00 00 00 00 00 00 00 00 00 00 00 00 00 00
       0.0 0.0 0.0 0.0
000020 00 00 00 00 00 00 00 00 00 00 00 00 00 00 00 00
       0.0 0.0 0.0 0.0
000030 00 00 00 00 00 00 00 00 00 00 00 00 00 00 00 00
       0.0 0.0 0.0 0.0
000040 00 00 00 00 00 00 00 00 00 00 00 00 00 00 00 00
       0.0 0.0 0.0 0.0
000050 00 00 00 00 00 00 00 00 00 00 00 00 00 00 00 00
       0.0 0.0 0.0 0.0
000060 00 00 00 00 00 00 00 00 00 00 00 00 00 00 00 00
       0.0 0.0 0.0 0.0
000070 00 00 00 00 00 00 00 00 00 00 00 00 00 00 00 00
       0.0 0.0 0.0 0.0
000080 00 00 00 00 00 00 00 00 00 00 00 00 00 00 00 00
       0.0 0.0 0.0 0.0
000090 00 00 00 00 00 00 00 00 00 00 00 00 00 00 00 00
       0.0 0.0 0.0 0.0
0000a0 00 00 00 00 00 00 00 00 00 00 00 00 00 00 00 00
       0.0 0.0 0.0 0.0
0000b0 00 00 00 00 00 00 00 00 00 00 00 00 00 00 00 00
       0.0 0.0 0.0 0.0
0000c0 00 00 00 00 00 00 00 00 00 00 00 00 00 00 00 00
       0.0 0.0 0.0 0.0
0000d0 00 00 00 00 00 00 00 00 00 00 00 00 00 00 00 00
       0.0 0.0 0.0 0.0
0000e0 00 00 00 00 00 00 00 00 00 00 00 00 00 00 00 00
       0.0 0.0 0.0 0.0
0000f0 00 00 00 00 00 00 00 00 00 00 00 00 00 00 00 00
       0.0 0.0 0.0 0.0
000100 00 00 00 00 00 00 00 00 00 00 00 00 00 00 00 00
       0.0 0.0 0.0 0.0
000110 00 00 00 00 00 00 00 00 00 00 00 00 00 00 00 00
       0.0 0.0 0.0 0.0
000120 00 00 00 00 00 00 00 00 00 00 00 00 00 00 00 00
       0.0 0.0 0.0 0.0
000130 00 00 00 00 00 00 00 00 00 00 00 00 00 00 00 00
       0.0 0.0 0.0 0.0
000140 00 00 00 00 00 00 00 00 00 00 00 00 00 00 00 00
       0.0 0.0 0.0 0.0
000150 00 00 00 00 00 00 00 00 00 00 00 00 00 00 00 00
       0.0 0.0 0.0 0.0
000160 00 00 00 00 00 00 00 00 00 00 00 00 00 00 00 00
       0.0 0.0 0.0 0.0
000170 00 00 00 00 00 00 00 00 00 00 00 00 00 00 00 00
       0.0 0.0 0.0 0.0
000180 00 00 00 00 00 00 00 00 00 00 00 00 00 00 00 00
       0.0 0.0 0.0 0.0
000190 00 00 00 00 00 00 00 00 00 00 00 00 00 00 00 00
       0.0 0.0 0.0 0.0
0001a0 00 00 00 00 00 00 00 00 00 00 00 00 00 00 00 00
       0.0 0.0 0.0 0.0
0001b0 00 00 00 00 00 00 00 00 00 00 00 00 00 00 00 00
       0.0 0.0 0.0 0.0
0001c0 00 00 00 00 00 00 00 00 00 00 00 00 00 00 00 00
       0.0 0.0 0.0 0.0
0001d0 00 00 00 00 00 00 00 00 00 00 00 00 00 00 00 00
       0.0 0.0 0.0 0.0
0001e0 00 00 00 00 00 00 00 00 00 00 00 00 00 00 00 00
       0.0 0.0 0.0 0.0
0001f0 00 00 00 00 00 00 00 00 00 00 00 00 00 00 00 00
       0.0 0.0 0.0 0.0

network_body.linear_encoder.seq_layers.2.weight f4 [128, 128]
000000 81 65 3d bc 06 04 06 3e ce 51 37 bd 31 98 c4 bd
       -0.011559845 0.13087472 -0.04475575 -0.09599341
000010 e5 b9 45 be 44 aa 3b bc b1 1e 2f 3d f5 e3 aa 3d
       -0.19309194 -0.011454169 0.04275388 0.083442606
000020 30 5b b2 bd 70 fb c9 bd d4 4c ed bd bf 33 39 3e
       -0.08708799 -0.09862411 -0.115869194 0.18086146
000030 b5 9b 1e 3d bd 06 61 bd 48 ce a4 3d 95 96 13 3e
       0.038722713 -0.054938067 0.080471575 0.14412911
000040 25 42 45 3c 1a 56 f3 3d 0b 0c aa bd 8c 95 cb bd
       0.012039696 0.11881657 -0.08303078 -0.09940633
000050 b9 f1 47 bd 9d e7 41 3c 57 5f 23 3c 16 11 61 bd
       -0.04881451 0.011835006 0.009971461 -0.054947935
000060 38 18 47 bd 7e a2 36 3e 22 a5 bf bc d0 b6 20 bd
       -0.04860708 0.17835423 -0.023394171 -0.039236844
000070 80 0c 33 3c fd 5c 74 3c 91 ea df 3c ff c6 01 3e
       0.010928273 0.014914748 0.02733353 0.12673567
000080 72 50 bd 3d c6 ce b9 3d cc 87 28 bd 5c 3d 3e 3d
       0.09243859 0.09072642 -0.04114513 0.046445236
000090 09 9f f8 3c 4c 4a 7b bc 33 45 08 bd 78 dd 65 bb
       0.030349271 -0.015337538 -0.03326912 -0.0035074633
0000a0 c4 1e d0 bc 72 7f 5d 3d 76 72 b2 3d 52 df 17 be
       -0.025405295 0.05407662 0.08713238 -0.14831284
0000b0 8b 68 05 3d 24 c0 e0 bd cd a3 be 3c 37 7d d2 bd
       0.032570403 -0.10974148 0.023271466 -0.10277789
0000c0 9a bf dd 3d af 8c 46 3d be 29 a9 bc 1f c4 8b 3c
       0.10827561 0.04847401 -0.020649787 0.017061291
0000d0 35 13 22 3e c6 99 35 bc a1 05 13 3c cd 02 6d 3e
       0.1582764 -0.011084026 0.00897351 0.231456
0000e0 f0 b8 5f bd 66 2f dc 3d 0f cd 48 be ce 45 2e bd
       -0.05461973 0.10751228 -0.19609474 -0.04254704
0000f0 53 a4 21 3d c6 e1 ad 3d 65 e4 5f be 69 80 fc 3c
       0.039463352 0.084903285 -0.2186447 0.03082295
000100 e7 a4 18 bd 4a 15 d6 bd 29 00 01 bd f7 f5 6d be
       -0.037266638 -0.10453279 -0.031494293 -0.2323836
000110 d0 ff cc 3d 13 bd 9b bc 7f 79 71 3d 64 9d 85 3c
       0.1000973 -0.019011056 0.05895376 0.016310401
000120 55 0b fe 3d 1f 81 4e bd 02 6d fc 3c e6 99 02 be
       0.12404505 -0.05041611 0.030813698 -0.1275402
000130 43 cc 12 bd 8a 8f 2d 3e 0d 91 11 be 4f bf aa 3d
       -0.03583933 0.16949287 -0.14215489 0.083372705
000140 37 65 af bb c1 81 b8 3d e9 a2 34 bd 82 f0 ea bd
       -0.005352642 0.090091236 -0.044100676 -0.114716545
000150 26 93 45 3d 30 52 9d bd 3e 0f fd 3c 2e 05 33 bd
       0.048236035 -0.07681692 0.030891057 -0.04370611
000160 b9 ba 07 3d e8 13 61 3d c4 04 c6 3d b2 e5 a1 bd
       0.033137057 0.054950625 0.09668878 -0.07905139
000170 c6 df 8f bd f7 3d f7 bc 81 e6 ca bd 8c e1 2f 3c
       -0.07025103 -0.030180914 -0.099072464 0.010734927
000180 ee b1 b6 bd 86 8d f8 3d 05 84 be bd 05 67 8c bd
       -0.08920656 0.121363685 -0.093025245 -0.06855587
000190 03 59 ad bd 98 7a 9c bd b3 5b d9 3c bc 6d 00 3c
       -0.08464243 -0.076405704 0.026532983 0.007838663
0001a0 82 44 77 bd bb 6a 06 bc 76 df ef bd 50 e4 f6 ba
       -0.06036807 -0.008204157 -0.11712544 -0.0018836353
0001b0 26 2f 26 3e 74 fc ab bd 3b 1b 1e be d4 cf d7 3c
       0.16228923 -0.08397761 -0.15440075 0.026344217
0001c0 e9 02 32 3d 25 b5 9a 3e 6e b6 11 3e d2 15 5b 3c
       0.043459807 0.30216327 0.14229748 0.013371902
0001d0 58 6b 2c 3e 7d 03 fa bd a6 e2 82 3d 2a a9 02 be
       0.16837823 -0.122076966 0.06390886 -0.12759843
0001e0 8a f9 03 be a0 ca 08 3e 12 43 e0 3d 3c c3 06 bd
       -0.1288816 0.13358545 0.10950293 -0.032901034
0001f0 ae 75 ad 3d e4 4b 98 3d ae 7e 47 3c ec 68 82 3d
       0.08469711 0.0743635 0.012176199 0.063676685
000200 79 c5 c0 3d b1 fb 51 bd 03 06 c0 bd eb 69 ae 3d
       0.09412665 -0.051265422 -0.09376147 0.08516296
000210 13 64 ea 3d 87 b6 7a 3d da a7 7d bd 6f fc 9a bd
       0.11444869 0.061209228 -0.061927654 -0.07567679
000220 c0 9b 1e be 82 ae a2 3d b5 ac e1 3d f0 9d 2e 3b
       -0.15489101 0.07943441 0.110192694 0.002664443
000230 d1 c0 aa 3c eb 20 2b 3d 5d 02 08 be 7d 53 0d 3c
       0.020843895 0.04177944 -0.13282152 0.008625862
000240 4d e4 a6 3d fa 99 de bd 4c c1 01 be 08 38 49 be
       0.08149014 -0.108692124 -0.12671393 -0.1965028
000250 3f 68 6e bc 0f d1 5c bc 0a 75 9a bd d0 32 c8 bc
       -0.014551221 -0.013477578 -0.07541855 -0.024438292
000260 b6 b7 87 3c 06 01 99 3d 05 f7 15 bd 9f 75 2d 3d
       0.016567092 0.07470898 -0.03661253 0.0423485
000270 79 9a 13 3e 78 e8 b0 3d ef 1d d6 bd 43 0e c9 bc
       0.14414395 0.0863809 -0.10454928 -0.024542933
000280 37 f0 d6 bd 5f d6 6d bd 17 15 8d 3d e2 1a 54 3d
       -0.10495036 -0.05806577 0.06888788 0.05178345
000290 c6 f7 b9 3d 35 32 b9 3d 9a e7 31 3d 5a 2a e9 bd
       0.09080462 0.09042779 0.043433763 -0.11385031
0002a0 09 c7 42 3e 5e bb 46 3d 82 ac cd 3d 4e a9 87 3d
       0.19021238 0.04851853 0.10042669 0.06624089
0002b0 fe af db bd 9a c0 15 3d 37 d4 52 be 53 05 f1 bd
       -0.10726927 0.036560632 -0.20588766 -0.11768594
0002c0 b4 e5 42 3d 26 a7 4f bd bc a4 8a bb e8 2c 5f bd
       0.047582343 -0.050696515 -0.0042310636 -0.054486185
0002d0 80 e2 aa bc 2c 3e 58 bd 5d ce af bd db 4d ba 3d
       -0.020859957 -0.052793667 -0.085842825 0.09096881
0002e0 cf f5 05 bd 5e 9c 13 3e 38 13 85 3d b3 72 49 be
       -0.032705124 0.14415118 0.06497806 -0.1967266
0002f0 4b 6f 81 3d 54 81 63 3e 25 4c 52 bd 6a 4f 6f bd
       0.063200556 0.22217304 -0.05134215 -0.058425345
000300 b5 1c ea bd 75 de 66 3d 7a 71 99 bd 3b 43 8e bc
       -0.11431257 0.056364495 -0.07492347 -0.017366042
000310 6e 65 e0 3d f0 52 18 3d 6a 71 e5 3d ad 5f e5 3d
       0.10956846 0.03718847 0.11203273 0.11199889
000320 3c c8 c3 3c 28 72 3b 3d fb 56 01 be 51 be c6 bd
       0.02389919 0.045763165 -0.12630837 -0.09704269
000330 fb 66 6a bd 7c 73 35 3d 1a 8a 3a 38 15 b1 ac bd
       -0.057227116 0.044299588 4.4474473e-05 -0.08432213
000340 51 1f 85 3e e6 6d 23 3e 4c 1b 79 3d 74 6f 03 bd
       0.26000455 0.15959892 0.060817048 -0.03208871
000350 36 81 fd bc dd 4e f0 bc 4e 48 40 be 09 00 23 3e
       -0.030945402 -0.02933448 -0.18777582 0.15917982
000360 71 ab 17 be 31 30 0f 3c 99 bc dd bd 9e 13 1b bd
       -0.14811493 0.008739517 -0.10826988 -0.037860505
000370 fc 12 20 bd f3 7e 36 3a 38 c9 3c 3e 5c 29 19 be
       -0.039080605 0.0006961666 0.18436134 -0.14957184
000380 be 17 ab 3b 85 ef e9 3c 96 67 46 bb 0d 40 96 bd
       0.005221336 0.028556595 -0.0030274144 -0.073364355
000390 b0 97 11 3d 4d 72 33 3d f7 c9 82 3d 7f 62 e9 bc
       0.03554505 0.043810178 0.06386178 -0.02848935
0003a0 69 6e 1d bc 71 98 10 be bb 16 6c 3d 82 6b 92 3d
       -0.009608843 -0.14120652 0.057638865 0.07149412
0003b0 27 d9 f2 bd 83 d3 c9 bd d6 8a b9 bc 73 17 c3 3c
       -0.11857825 -0.09854796 -0.02264921 0.023814892
0003c0 58 01 de bd 0b 0c 5f 3d 38 44 a7 3d 77 cc f6 bb
       -0.108401 0.054454844 0.081673086 -0.0075316983
0003d0 59 9b ce 3d ba e4 73 3d 1e ad 0e bd 3f 3f a7 bd
       0.10088224 0.059544303 -0.034833066 -0.0816636
0003e0 5a 35 fe 3d 84 7f 25 3e 8a 34 ca bd 31 cd 01 bc
       0.1241252 0.16161925 -0.09873302 -0.007922457
0003f0 88 81 4b 3d f7 9a b1 3d 81 26 8f bd d2 23 e2 bd
       0.049684078 0.08672135 -0.06989766 -0.110419884
