Unity/results/ppo/My Behavior/My Behavior-4496.pt (torch, 149199 bytes, 12 tensors)

network_body.linear_encoder.seq_layers.0.weight f4 [128, 6]
0	0xbeaac9d0	-0.33357096
1	0xbe8f0c8d	-0.27939263
2	0x3b30d918	0.0026984867
3	0xbed4649d	-0.41483012
4	0xbdbb8112	-0.091554776
5	0x3efd641b	0.49490437
6	0xbdefe12d	-0.11712871
7	0x3eaf79a9	0.34272507
8	0xbef3ce82	-0.4761849
9	0x3e4bf9df	0.19919537
10	0x3d9b7345	0.07590345
11	0xbeca952f	-0.39566943
12	0xbf1263e4	-0.5718367
13	0xbe0b5c40	-0.1360941
14	0x3dc33b45	0.09532789
15	0xbeeee122	-0.46656138
16	0x3f4c36c4	0.79771066
17	0xbecc97d2	-0.3995958
18	0xbe6833d3	-0.2267602
19	0xbe5c2710	-0.21499276
20	0x3eb19e7c	0.34691226
21	0xbe8ef1eb	-0.27918944
22	0x3dce5510	0.10074818
23	0x3f34b4ee	0.70588577
24	0x3f3166b5	0.69297343
25	0xbebfdd5a	-0.37473565
26	0x3f096815	0.5367444
27	0xbef8cf4f	-0.48595664
28	0x3eb9a022	0.36254984
29	0xbc9aa89e	-0.018879231
30	0x3e6e3e57	0.23265968
31	0xbeaad334	-0.3336426
32	0xbd863e96	-0.06554906
33	0xbe64156a	-0.22273794
34	0xbea11456	-0.31460828
35	0x3e999246	0.2999441
36	0x3e8ef72b	0.2792295
37	0x3f0b3ce2	0.54389775
38	0x3df11741	0.117720135
39	0xbd5d87a7	-0.054084446
40	0x3d6a5889	0.05721334
41	0xbe1e35b2	-0.1545017
42	0x3f8c75fc	1.0973506
43	0x3e60dfdf	0.219604
44	0x3dd6b33a	0.104834035
45	0xbe569309	-0.20954527
46	0xbc7b8295	-0.015350957
47	0x3f15edc0	0.585659
48	0x3ee07c46	0.43844813
49	0xbe398a83	-0.18119244
50	0xbf62a507	-0.8853306
51	0xbe830cd4	-0.25595725
52	0x3f78b82f	0.9715604
53	0xbd059484	-0.03261234
54	0xbe9ebb0d	-0.31002083
55	0x3d708813	0.05872352
56	0xbe3d241d	-0.18470807
57	0xbe05388b	-0.1300985
58	0xbe9812e2	-0.29701906
59	0xbf154a98	-0.58316946
60	0xbf127e72	-0.5722419
61	0xbeadedb7	-0.33970425
62	0x3e63dd3c	0.22252363
63	0x3f18cb65	0.59685355
64	0x3e98566a	0.2975343
65	0xbf09ee13	-0.538789
66	0x3efdd767	0.495784
67	0x3ee07216	0.4383704
68	0xbe0adcef	-0.13560842
69	0xbe9f3778	-0.31097007
70	0xbf81933a	-1.0123055
71	0x3f135e6c	0.5756595
72	0x3e8a1841	0.2697163
73	0xbef4438f	-0.47707793
74	0x3d9b4a78	0.07582563
75	0x3f0ebd35	0.55757457
76	0xbe895105	-0.26819625
77	0x3ea7d819	0.32782057
78	0x3e4979e1	0.196754
79	0xbd5e3808	-0.054252654
80	0x3e4c573a	0.1995515
81	0x3df7ac41	0.12093402
82	0xbec452ab	-0.3834432
83	0xbe4e58fa	-0.2015113
84	0xbe3622c6	-0.17786703
85	0x3ea022b9	0.3127649
86	0x3da88a1b	0.082294665
87	0x3f0240ff	0.50880426
88	0xbf01bfce	-0.50683296
89	0xbf691dbb	-0.9106099
90	0x3ead3455	0.3382899
91	0xbca2432f	-0.019807426
92	0x3cf0f4f4	0.029413678
93	0x3eaef90c	0.34174383
94	0xbec7c776	-0.39019364
95	0x3f00aaa0	0.50260353
96	0x3eafe357	0.34353134
97	0x3f05f1d1	0.5232211
98	0xbe054a01	-0.13016511
99	0xbe9427bf	-0.28936574
100	0x3ddd9094	0.10818592
101	0x3e24ab66	0.16081008
102	0xbe16dd8d	-0.14732952
103	0xbe118c9a	-0.14213791
104	0x3e2a6e73	0.16643696
105	0xbebc0f1c	-0.36730278
106	0x3dad5e23	0.08465221
107	0x3de5aaac	0.11214194
108	0x3e8b1a51	0.27168515
109	0xbdfc6749	-0.123243876
110	0xbf8275c3	-1.0192188
111	0x3e830174	0.25587046
112	0x3f327410	0.6970835
113	0xbdb0412e	-0.08606182
114	0xbe9a5640	-0.3014393
115	0x3eb7c9e5	0.3589622
116	0x3f1c956f	0.6116552
117	0x3f0569fa	0.5211483
118	0xbe14391e	-0.14474913
119	0xbf1c7cb9	-0.6112781
120	0x3eac8989	0.3369868
121	0xbf1010ab	-0.56275433
122	0x3dc83784	0.09776214
123	0xbe76095a	-0.24027005
124	0xbe1bf73c	-0.15231031
125	0xbeef9e0d	-0.4680027
126	0xbe9a771a	-0.30168992
127	0x3edb7f49	0.42870548
128	0x3e7586c8	0.23977196
129	0xbe80ecd1	-0.25180677
130	0x3e3977ab	0.18112056
131	0xbdabd036	-0.083893225
132	0x3f29db92	0.6635066
133	0x3d93cf41	0.07217265
134	0xbe109be5	-0.14121969
135	0x3f1a0764	0.6016753
136	0xbd4d7638	-0.05016157
137	0xbf04b7c4	-0.51842904
138	0x3ea0ffc4	0.31445134
139	0xbee1e173	-0.44117317
140	0xbf066845	-0.5250285
141	0x3e98cbc7	0.2984297
142	0x3db2b28f	0.087254636
143	0x3f43d872	0.76502144
144	0xbd6df5dd	-0.0580958
145	0xbd0e73f7	-0.03477856
146	0xbe71b204	-0.23603064
147	0xbeb51676	-0.353687
148	0x3e822445	0.25418296
149	0x3d664a8b	0.056223433
150	0xbd1956cf	-0.037436303
151	0xbf1630b7	-0.5866808
152	0x3eb6ddb3	0.35716018
153	0xbede7967	-0.43451998
154	0xbee13cc8	-0.43991685
155	0xbde73207	-0.11288839
156	0x3ecfff7e	0.40624613
157	0x3e7ec209	0.24878706
158	0x3e307e9f	0.17235802
159	0x3ebf2d8e	0.37339443
160	0x3f140ed9	0.57835156
161	0x3db5a1ac	0.08868727
162	0xbf216b9d	-0.6305483
163	0xbe68e1bb	-0.2274236
164	0x3f4b8052	0.79492676
165	0xbeaf99b2	-0.34296948
166	0xbdb167e9	-0.086623974
167	0xbf5c62c5	-0.8608821
168	0x3e6e23cf	0.23255847
169	0x3eafcef8	0.34337592
170	0xbe474719	-0.19460715
171	0xbece9e3f	-0.40355107
172	0xbe0e074d	-0.13869973
173	0xbe4569fb	-0.1927871
174	0xbe9ce703	-0.30644998
175	0xbbb6e37f	-0.005581319
176	0xbce02929	-0.027363377
177	0xbe1cda88	-0.15317738
178	0x3e97477a	0.2954672
179	0x3bd3969c	0.006457163
180	0xbf27dbf9	-0.65570027
181	0xbf314e7b	-0.69260377
182	0x3e4796f4	0.19491178
183	0xbec24274	-0.37941325
184	0xbe98296b	-0.297191
185	0x3d84ae2e	0.06478535
186	0x3e89e738	0.26934218
187	0x3c3efb0e	0.011656536
188	0x3f307c97	0.6894011
189	0xbe2564e4	-0.16151768
190	0x3edab310	0.4271474
191	0x3aa5c09f	0.0012645907
192	0x3ee97521	0.45597175
193	0x3eb851bf	0.35999867
194	0x3eeb645f	0.45975015
195	0xbed02c4b	-0.40658793
196	0x3f3a6fd5	0.7282689
197	0xbdbe235f	-0.0928409
198	0x3f28555b	0.6575524
199	0x3f4aa4f0	0.79157925
200	0xbe5ffa48	-0.21872818
201	0x3ea4112c	0.3204435
202	0x3f39c0fb	0.7256009
203	0xbec30759	-0.38091543
204	0x3e94433c	0.28957546
205	0xbe809fd2	-0.25121933
206	0xbe6cb60d	-0.23116322
207	0x3f0328bc	0.5123403
208	0x3e003e76	0.12523827
209	0x3f35424b	0.7080428
210	0x3e2aa8d8	0.16665971
211	0x3e71c204	0.23609167
212	0xbf10da2e	-0.56582916
213	0x3f1fdeeb	0.6244952
214	0x3d69cfe6	0.057083033
215	0xbefb21df	-0.4904928
216	0x3e0066cb	0.12539212
217	0xbcc479ca	-0.023983855
218	0x3ede99a2	0.43476588
219	0xbdbc216e	-0.09186064
220	0x3e0efe6a	0.13964239
221	0xbe694140	-0.22778797
222	0xbdc7aa62	-0.09749295
223	0xbd60a7d7	-0.054847565
224	0x3e8eafe0	0.27868557
225	0xbec44043	-0.38330278
226	0xbeb0d7be	-0.34539598
227	0xbe89a257	-0.26881668
228	0x3e036a5d	0.12833543
229	0x3f00f6e7	0.50376743
230	0xbe409df8	-0.1881026
231	0x3f1220af	0.5708112
232	0x3dcbd02d	0.09951816
233	0x3e77264c	0.24135703
234	0x3f1c4d2a	0.61055243
235	0xbe073ac8	-0.13206017
236	0xbde510da	-0.11184855
237	0x3f1462f6	0.579635
238	0x3f1a1f33	0.60203856
239	0xbe826f5a	-0.2547558
240	0x3e5b0670	0.21389174
241	0xbea60fb4	-0.32433856
242	0xbd5e7267	-0.05430832
243	0xbe47ffcf	-0.19531177
244	0x3e9dbad5	0.30806604
245	0x3fa2d16e	1.2720163
246	0xbe096c59	-0.13420238
247	0xbe8960e1	-0.26831725
248	0x3f398e6f	0.7248296
249	0x3e04b4fa	0.12959662
250	0x3d459179	0.048234437
251	0xbe35beae	-0.1774852
252	0xbead331a	-0.3382805
253	0x3de7116a	0.11282618
254	0xbdf57fbe	-0.119872555
255	0x3eaf9f40	0.34301186

network_body.linear_encoder.seq_layers.0.bias f4 [128]
0	0x00000000	0.0
1	0x00000000	0.0
2	0x00000000	0.0
3	0x00000000	0.0
4	0x00000000	0.0
5	0x00000000	0.0
6	0x00000000	0.0
7	0x00000000	0.0
8	0x00000000	0.0
9	0x00000000	0.0
10	0x00000000	0.0
11	0x00000000	0.0
12	0x00000000	0.0
13	0x00000000	0.0
14	0x00000000	0.0
15	0x00000000	0.0
16	0x00000000	0.0
17	0x00000000	0.0
18	0x00000000	0.0
19	0x00000000	0.0
20	0x00000000	0.0
21	0x00000000	0.0
22	0x00000000	0.0
23	0x00000000	0.0
24	0x00000000	0.0
25	0x00000000	0.0
26	0x00000000	0.0
27	0x00000000	0.0
28	0x00000000	0.0
29	0x00000000	0.0
30	0x00000000	0.0
31	0x00000000	0.0
32	0x00000000	0.0
33	0x00000000	0.0
34	0x00000000	0.0
35	0x00000000	0.0
36	0x00000000	0.0
37	0x00000000	0.0
38	0x00000000	0.0
39	0x00000000	0.0
40	0x00000000	0.0
41	0x00000000	0.0
42	0x00000000	0.0
43	0x00000000	0.0
44	0x00000000	0.0
45	0x00000000	0.0
46	0x00000000	0.0
47	0x00000000	0.0
48	0x00000000	0.0
49	0x00000000	0.0
50	0x00000000	0.0
51	0x00000000	0.0
52	0x00000000	0.0
53	0x00000000	0.0
54	0x00000000	0.0
55	0x00000000	0.0
56	0x00000000	0.0
57	0x00000000	0.0
58	0x00000000	0.0
59	0x00000000	0.0
60	0x00000000	0.0
61	0x00000000	0.0
62	0x00000000	0.0
63	0x00000000	0.0
64	0x00000000	0.0
65	0x00000000	0.0
66	0x00000000	0.0
67	0x00000000	0.0
68	0x00000000	0.0
69	0x00000000	0.0
70	0x00000000	0.0
71	0x00000000	0.0
72	0x00000000	0.0
73	0x00000000	0.0
74	0x00000000	0.0
75	0x00000000	0.0
76	0x00000000	0.0
77	0x00000000	0.0
78	0x00000000	0.0
79	0x00000000	0.0
80	0x00000000	0.0
81	0x00000000	0.0
82	0x00000000	0.0
83	0x00000000	0.0
84	0x00000000	0.0
85	0x00000000	0.0
86	0x00000000	0.0
87	0x00000000	0.0
88	0x00000000	0.0
89	0x00000000	0.0
90	0x00000000	0.0
91	0x00000000	0.0
92	0x00000000	0.0
93	0x00000000	0.0
94	0x00000000	0.0
95	0x00000000	0.0
96	0x00000000	0.0
97	0x00000000	0.0
98	0x00000000	0.0
99	0x00000000	0.0
100	0x00000000	0.0
101	0x00000000	0.0
102	0x00000000	0.0
103	0x00000000	0.0
104	0x00000000	0.0
105	0x00000000	0.0
106	0x00000000	0.0
107	0x00000000	0.0
108	0x00000000	0.0
109	0x00000000	0.0
110	0x00000000	0.0
111	0x00000000	0.0
112	0x00000000	0.0
113	0x00000000	0.0
114	0x00000000	0.0
115	0x00000000	0.0
116	0x00000000	0.0
117	0x00000000	0.0
118	0x00000000	0.0
119	0x00000000	0.0
120	0x00000000	0.0
121	0x00000000	0.0
122	0x00000000	0.0
123	0x00000000	0.0
124	0x00000000	0.0
125	0x00000000	0.0
126	0x00000000	0.0
127	0x00000000	0.0

network_body.linear_encoder.seq_layers.2.weight f4 [128, 128]
0	0xbc3d6581	-0.011559845
1	0x3e060406	0.13087472
2	0xbd3751ce	-0.04475575
3	0xbdc49831	-0.09599341
4	0xbe45b9e5	-0.19309194
5	0xbc3baa44	-0.011454169
6	0x3d2f1eb1	0.04275388
7	0x3daae3f5	0.083442606
8	0xbdb25b30	-0.08708799
9	0xbdc9fb70	-0.09862411
10	0xbded4cd4	-0.115869194
11	0x3e3933bf	0.18086146
12	0x3d1e9bb5	0.038722713
13	0xbd6106bd	-0.054938067
14	0x3da4ce48	0.080471575
15	0x3e139695	0.14412911
16	0x3c454225	0.012039696
17	0x3df3561a	0.11881657
18	0xbdaa0c0b	-0.08303078
19	0xbdcb958c	-0.09940633
20	0xbd47f1b9	-0.04881451
21	0x3c41e79d	0.011835006
22	0x3c235f57	0.009971461
23	0xbd611116	-0.054947935
24	0xbd471838	-0.04860708
25	0x3e36a27e	0.17835423
26	0xbcbfa522	-0.023394171
27	0xbd20b6d0	-0.039236844
28	0x3c330c80	0.010928273
29	0x3c745cfd	0.014914748
30	0x3cdfea91	0.02733353
31	0x3e01c6ff	0.12673567
32	0x3dbd5072	0.09243859
33	0x3db9cec6	0.09072642
34	0xbd2887cc	-0.04114513
35	0x3d3e3d5c	0.046445236
36	0x3cf89f09	0.030349271
37	0xbc7b4a4c	-0.015337538
38	0xbd084533	-0.03326912
39	0xbb65dd78	-0.0035074633
40	0xbcd01ec4	-0.025405295
41	0x3d5d7f72	0.05407662
42	0x3db27276	0.08713238
43	0xbe17df52	-0.14831284
44	0x3d05688b	0.032570403
45	0xbde0c024	-0.10974148
46	0x3cbea3cd	0.023271466
47	0xbdd27d37	-0.10277789
48	0x3dddbf9a	0.10827561
49	0x3d468caf	0.04847401
50	0xbca929be	-0.020649787
51	0x3c8bc41f	0.017061291
52	0x3e221335	0.1582764
53	0xbc3599c6	-0.011084026
54	0x3c1305a1	0.00897351
55	0x3e6d02cd	0.231456
56	0xbd5fb8f0	-0.05461973
57	0x3ddc2f66	0.10751228
58	0xbe48cd0f	-0.19609474
59	0xbd2e45ce	-0.04254704
60	0x3d21a453	0.039463352
61	0x3dade1c6	0.084903285
62	0xbe5fe465	-0.2186447
63	0x3cfc8069	0.03082295
64	0xbd18a4e7	-0.037266638
65	0xbdd6154a	-0.10453279
66	0xbd010029	-0.031494293
67	0xbe6df5f7	-0.2323836
68	0x3dccffd0	0.1000973
69	0xbc9bbd13	-0.019011056
70	0x3d71797f	0.05895376
71	0x3c859d64	0.016310401
72	0x3dfe0b55	0.12404505
73	0xbd4e811f	-0.05041611
74	0x3cfc6d02	0.030813698
75	0xbe0299e6	-0.1275402
76	0xbd12cc43	-0.03583933
77	0x3e2d8f8a	0.16949287
78	0xbe11910d	-0.14215489
79	0x3daabf4f	0.083372705
80	0xbbaf6537	-0.005352642
81	0x3db881c1	0.090091236
82	0xbd34a2e9	-0.044100676
83	0xbdeaf082	-0.114716545
84	0x3d459326	0.048236035
85	0xbd9d5230	-0.07681692
86	0x3cfd0f3e	0.030891057
87	0xbd33052e	-0.04370611
88	0x3d07bab9	0.033137057
89	0x3d6113e8	0.054950625
90	0x3dc604c4	0.09668878
91	0xbda1e5b2	-0.07905139
92	0xbd8fdfc6	-0.07025103
93	0xbcf73df7	-0.030180914
94	0xbdcae681	-0.099072464
95	0x3c2fe18c	0.010734927
96	0xbdb6b1ee	-0.08920656
97	0x3df88d86	0.121363685
98	0xbdbe8405	-0.093025245
99	0xbd8c6705	-0.06855587
100	0xbdad5903	-0.08464243
101	0xbd9c7a98	-0.076405704
102	0x3cd95bb3	0.026532983
103	0x3c006dbc	0.007838663
104	0xbd774482	-0.06036807
105	0xbc066abb	-0.008204157
106	0xbdefdf76	-0.11712544
107	0xbaf6e450	-0.0018836353
108	0x3e262f26	0.16228923
109	0xbdabfc74	-0.08397761
110	0xbe1e1b3b	-0.15440075
111	0x3cd7cfd4	0.026344217
112	0x3d3202e9	0.043459807
113	0x3e9ab525	0.30216327
114	0x3e11b66e	0.14229748
115	0x3c5b15d2	0.013371902
116	0x3e2c6b58	0.16837823
117	0xbdfa037d	-0.122076966
118	0x3d82e2a6	0.06390886
119	0xbe02a92a	-0.12759843
120	0xbe03f98a	-0.1288816
121	0x3e08caa0	0.13358545
122	0x3de04312	0.10950293
123	0xbd06c33c	-0.032901034
124	0x3dad75ae	0.08469711
125	0x3d984be4	0.0743635
126	0x3c477eae	0.012176199
127	0x3d8268ec	0.063676685
128	0x3dc0c579	0.09412665
129	0xbd51fbb1	-0.051265422
130	0xbdc00603	-0.09376147
131	0x3dae69eb	0.08516296
132	0x3dea6413	0.11444869
133	0x3d7ab687	0.061209228
134	0xbd7da7da	-0.061927654
135	0xbd9afc6f	-0.07567679
136	0xbe1e9bc0	-0.15489101
137	0x3da2ae82	0.07943441
138	0x3de1acb5	0.110192694
139	0x3b2e9df0	0.002664443
140	0x3caac0d1	0.020843895
141	0x3d2b20eb	0.04177944
142	0xbe08025d	-0.13282152
143	0x3c0d537d	0.008625862
144	0x3da6e44d	0.08149014
145	0xbdde99fa	-0.108692124
146	0xbe01c14c	-0.12671393
147	0xbe493808	-0.1965028
148	0xbc6e683f	-0.014551221
149	0xbc5cd10f	-0.013477578
150	0xbd9a750a	-0.07541855
151	0xbcc832d0	-0.024438292
152	0x3c87b7b6	0.016567092
153	0x3d990106	0.07470898
154	0xbd15f705	-0.03661253
155	0x3d2d759f	0.0423485
156	0x3e139a79	0.14414395
157	0x3db0e878	0.0863809
158	0xbdd61def	-0.10454928
159	0xbcc90e43	-0.024542933
160	0xbdd6f037	-0.10495036
161	0xbd6dd65f	-0.05806577
162	0x3d8d1517	0.06888788
163	0x3d541ae2	0.05178345
164	0x3db9f7c6	0.09080462
165	0x3db93235	0.09042779
166	0x3d31e79a	0.043433763
167	0xbde92a5a	-0.11385031
168	0x3e42c709	0.19021238
169	0x3d46bb5e	0.04851853
170	0x3dcdac82	0.10042669
171	0x3d87a94e	0.06624089
172	0xbddbaffe	-0.10726927
173	0x3d15c09a	0.036560632
174	0xbe52d437	-0.20588766
175	0xbdf10553	-0.11768594
176	0x3d42e5b4	0.047582343
177	0xbd4fa726	-0.050696515
178	0xbb8aa4bc	-0.0042310636
179	0xbd5f2ce8	-0.054486185
180	0xbcaae280	-0.020859957
181	0xbd583e2c	-0.052793667
182	0xbdafce5d	-0.085842825
183	0x3dba4ddb	0.09096881
184	0xbd05f5cf	-0.032705124
185	0x3e139c5e	0.14415118
186	0x3d851338	0.06497806
187	0xbe4972b3	-0.1967266
188	0x3d816f4b	0.063200556
189	0x3e638154	0.22217304
190	0xbd524c25	-0.05134215
191	0xbd6f4f6a	-0.058425345
192	0xbdea1cb5	-0.11431257
193	0x3d66de75	0.056364495
194	0xbd99717a	-0.07492347
195	0xbc8e433b	-0.017366042
196	0x3de0656e	0.10956846
197	0x3d1852f0	0.03718847
198	0x3de5716a	0.11203273
199	0x3de55fad	0.11199889
200	0x3cc3c83c	0.02389919
201	0x3d3b7228	0.045763165
202	0xbe0156fb	-0.12630837
203	0xbdc6be51	-0.09704269
204	0xbd6a66fb	-0.057227116
205	0x3d35737c	0.044299588
206	0x383a8a1a	4.4474473e-05
207	0xbdacb115	-0.08432213
208	0x3e851f51	0.26000455
209	0x3e236de6	0.15959892
210	0x3d791b4c	0.060817048
211	0xbd036f74	-0.03208871
212	0xbcfd8136	-0.030945402
213	0xbcf04edd	-0.02933448
214	0xbe40484e	-0.18777582
215	0x3e230009	0.15917982
216	0xbe17ab71	-0.14811493
217	0x3c0f3031	0.008739517
218	0xbdddbc99	-0.10826988
219	0xbd1b139e	-0.037860505
220	0xbd2012fc	-0.039080605
221	0x3a367ef3	0.0006961666
222	0x3e3cc938	0.18436134
223	0xbe19295c	-0.14957184
224	0x3bab17be	0.005221336
225	0x3ce9ef85	0.028556595
226	0xbb466796	-0.0030274144
227	0xbd96400d	-0.073364355
228	0x3d1197b0	0.03554505
229	0x3d33724d	0.043810178
230	0x3d82c9f7	0.06386178
231	0xbce9627f	-0.02848935
232	0xbc1d6e69	-0.009608843
233	0xbe109871	-0.14120652
234	0x3d6c16bb	0.057638865
235	0x3d926b82	0.07149412
236	0xbdf2d927	-0.11857825
237	0xbdc9d383	-0.09854796
238	0xbcb98ad6	-0.02264921
239	0x3cc31773	0.023814892
240	0xbdde0158	-0.108401
241	0x3d5f0c0b	0.054454844
242	0x3da74438	0.081673086
243	0xbbf6cc77	-0.0075316983
244	0x3dce9b59	0.10088224
245	0x3d73e4ba	0.059544303
246	0xbd0ead1e	-0.034833066
247	0xbda73f3f	-0.0816636
248	0x3dfe355a	0.1241252
249	0x3e257f84	0.16161925
250	0xbdca348a	-0.09873302
251	0xbc01cd31	-0.007922457
252	0x3d4b8188	0.049684078
253	0x3db19af7	0.08672135
254	0xbd8f2681	-0.06989766
255	0xbde223d2	-0.110419884

network_body.linear_encoder.seq_layers.2.bias f4 [128]
0	0x00000000	0.0
1	0x00000000	0.0
2	0x00000000	0.0
3	0x00000000	0.0
4	0x00000000	0.0
5	0x00000000	0.0
6	0x00000000	0.0
7	0x00000000	0.0
8	0x00000000	0.0
9	0x00000000	0.0
10	0x00000000	0.0
11	0x00000000	0.0
12	0x00000000	0.0
13	0x00000000	0.0
14	0x00000000	0.0
15	0x00000000	0.0
16	0x00000000	0.0
17	0x00000000	0.0
18	0x00000000	0.0
19	0x00000000	0.0
20	0x00000000	0.0
21	0x00000000	0.0
22	0x00000000	0.0
23	0x00000000	0.0
24	0x00000000	0.0
25	0x00000000	0.0
26	0x00000000	0.0
27	0x00000000	0.0
28	0x00000000	0.0
29	0x00000000	0.0
30	0x00000000	0.0
31	0x00000000	0.0
32	0x00000000	0.0
33	0x00000000	0.0
34	0x00000000	0.0
35	0x00000000	0.0
36	0x00000000	0.0
37	0x00000000	0.0
38	0x00000000	0.0
39	0x00000000	0.0
40	0x00000000	0.0
41	0x00000000	0.0
42	0x00000000	0.0
43	0x00000000	0.0
44	0x00000000	0.0
45	0x00000000	0.0
46	0x00000000	0.0
47	0x00000000	0.0
48	0x00000000	0.0
49	0x00000000	0.0
50	0x00000000	0.0
51	0x00000000	0.0
52	0x00000000	0.0
53	0x00000000	0.0
54	0x00000000	0.0
55	0x00000000	0.0
56	0x00000000	0.0
57	0x00000000	0.0
58	0x00000000	0.0
59	0x00000000	0.0
60	0x00000000	0.0
61	0x00000000	0.0
62	0x00000000	0.0
63	0x00000000	0.0
64	0x00000000	0.0
65	0x00000000	0.0
66	0x00000000	0.0
67	0x00000000	0.0
68	0x00000000	0.0
69	0x00000000	0.0
70	0x00000000	0.0
71	0x00000000	0.0
72	0x00000000	0.0
73	0x00000000	0.0
74	0x00000000	0.0
75	0x00000000	0.0
76	0x00000000	0.0
77	0x00000000	0.0
78	0x00000000	0.0
79	0x00000000	0.0
80	0x00000000	0.0
81	0x00000000	0.0
82	0x00000000	0.0
83	0x00000000	0.0
84	0x00000000	0.0
85	0x00000000	0.0
86	0x00000000	0.0
87	0x00000000	0.0
88	0x00000000	0.0
89	0x00000000	0.0
90	0x00000000	0.0
91	0x00000000	0.0
92	0x00000000	0.0
93	0x00000000	0.0
94	0x00000000	0.0
95	0x00000000	0.0
96	0x00000000	0.0
97	0x00000000	0.0
98	0x00000000	0.0
99	0x00000000	0.0
100	0x00000000	0.0
101	0x00000000	0.0
102	0x00000000	0.0
103	0x00000000	0.0
104	0x00000000	0.0
105	0x00000000	0.0
106	0x00000000	0.0
107	0x00000000	0.0
108	0x00000000	0.0
109	0x00000000	0.0
110	0x00000000	0.0
111	0x00000000	0.0
112	0x00000000	0.0
113	0x00000000	0.0
114	0x00000000	0.0
115	0x00000000	0.0
116	0x00000000	0.0
117	0x00000000	0.0
118	0x00000000	0.0
119	0x00000000	0.0
120	0x00000000	0.0
121	0x00000000	0.0
122	0x00000000	0.0
123	0x00000000	0.0
124	0x00000000	0.0
125	0x00000000	0.0
126	0x00000000	0.0
127	0x00000000	0.0

action_model._continuous_distribution.log_sigma f4 [1, 2]
0	0x00000000	0.0
1	0x00000000	0.0

action_model._continuous_distribution.mu.weight f4 [2, 128]
0	0x3bc54907	0.0060206684
1	0xbc75a0b3	-0.014991927
2	0xbb154f1b	-0.0022782746
3	0xbd0d20f3	-0.03445525
4	0x3c2d4660	0.010575861
5	0x3cadda41	0.021222236
6	0x3c6ba207	0.014381892
7	0xbcf52eda	-0.029929567
8	0xbb8f45d4	-0.004372338
9	0xb89833b4	-7.257555e-05
10	0x3c0abbe5	0.008467649
11	0x3c2bed99	0.010493659
12	0xbca67c99	-0.020323085
13	0xbc8fa728	-0.017535761
14	0xbbd9daa5	-0.006648379
15	0x3c51086d	0.0127583565
16	0xbbc53e13	-0.0060193627
17	0xbc66e768	-0.0140932575
18	0x3b758d3d	0.0037468218
19	0xbc45f563	-0.0120824305
20	0x3c645edf	0.013938635
21	0xbc33807b	-0.010955925
22	0xbbf9141f	-0.0076012756
23	0xbce7a418	-0.028276488
24	0xbbd72780	-0.006565988
25	0x3cbd0f19	0.023078488
26	0xbd10e4c6	-0.035374425
27	0xbc9482cc	-0.018128775
28	0xbc6c21bd	-0.014412341
29	0x3c96c8b7	0.018406255
30	0x3cb4d1b4	0.02207265
31	0xbc247234	-0.010036994
32	0x3bdd9a05	0.0067627453
33	0xbc09c1ed	-0.008408052
34	0x3cd1f488	0.025629297
35	0x3ad467ed	0.0016205289
36	0x3c7141f2	0.014725195
37	0xbc0b5d03	-0.008506062
38	0xbd1de02a	-0.038543858
39	0x3c9d896b	0.019230565
40	0x3a3c838f	0.00071912346
41	0x3ca44d73	0.020056462
42	0xbc62a502	-0.013833286
43	0xbc1a7569	-0.009427407
44	0x3cc7d0f3	0.024391627
45	0xbc938bfe	-0.01801109
46	0x3b8d6c27	0.0043158713
47	0xbcae373b	-0.02126657
48	0x3b554b07	0.003254594
49	0xbcb15d4b	-0.02165093
50	0xbc8338f4	-0.016018368
51	0x3ab62324	0.0013895971
52	0xbcb05423	-0.021524495
53	0xbd1757d4	-0.036948994
54	0xbc5a2c92	-0.01331629
55	0x3c129e64	0.008948896
56	0xbc114833	-0.008867311
57	0xbc07d03e	-0.008289395
58	0xbc6bf390	-0.014401332
59	0x3d138bab	0.03602187
60	0xbc48c4a5	-0.012253915
61	0xbab22690	-0.0013591815
62	0x3bdb374f	0.006689943
63	0xbc042833	-0.008066225
64	0x3ca3c439	0.019991027
65	0xbc1c0fab	-0.00952522
66	0xbb7a2007	-0.0038166062
67	0x3aee837f	0.0018197148
68	0xbc16e601	-0.009210111
69	0x3cb5366b	0.022120675
70	0x3cddff23	0.027099198
71	0x3cb4f761	0.022090616
72	0xbc5f6bb7	-0.013636521
73	0x3cda6aea	0.026662309
74	0xbc2a11ab	-0.010380189
75	0x3c9cc094	0.019134797
76	0xbc93db0a	-0.018048782
77	0xbc9dc735	-0.019260028
78	0x3ba3a7f2	0.004994386
79	0x3b7d2107	0.0038624422
80	0x3d1ebe3e	0.038755648
81	0x3cb18095	0.021667758
82	0xbb257c8e	-0.0025251242
83	0xbc0f8d10	-0.008761659
84	0xbbd9ebb3	-0.006650412
85	0xba955492	-0.0011393002
86	0xbceb89e7	-0.02875228
87	0xbcb0ec6b	-0.021597108
88	0x3c714b32	0.014727401
89	0xbb2d14e3	-0.0026410155
90	0xbcf5c6d5	-0.030002037
91	0xbba4b779	-0.0050267545
92	0x3b0ad062	0.0021181335
93	0xbb3a05d7	-0.0028384828
94	0xbc847657	-0.01616971
95	0xbc23548b	-0.009968887
96	0xbac21786	-0.0014808036
97	0x3c0bc7e6	0.008531546
98	0x3bc62159	0.006046456
99	0x3cc403cf	0.023927597
100	0xbd092ad3	-0.033488106
101	0xbca9a4b6	-0.020708423
102	0xbc97cded	-0.01853081
103	0xbbb65289	-0.005564038
104	0xbc66d907	-0.014089829
105	0x3c00ec3a	0.007868821
106	0x3bf54182	0.007484616
107	0xba870622	-0.001030151
108	0x3caefa5e	0.021359619
109	0x3c1cbb43	0.009566131
110	0xbc0d18ff	-0.008611917
111	0xbcc48013	-0.023986852
112	0xbd06b909	-0.032891307
113	0x3c80fd34	0.015745737
114	0xba284ad8	-0.0006419844
115	0x3c794117	0.0152132725
116	0x3b79bfa8	0.003810862
117	0x3c59af18	0.0132863745
118	0xbc867640	-0.016413808
119	0xbd18c930	-0.037301242
120	0x3d2afd6f	0.0417456
121	0x3c9a05f2	0.018801663
122	0xbcebd1c2	-0.028786544
123	0xbca2cd2f	-0.01987323
124	0xbcebf500	-0.028803349
125	0x3cbcabbb	0.023031106
126	0x3baa2222	0.005192057
127	0x3c8428da	0.01613276
128	0xbcc9ce87	-0.024634613
129	0x3ba9badd	0.0051797465
130	0x3cb26c5b	0.021780184
131	0xbb5ee95d	-0.0034013607
132	0x3bc4ed5c	0.0060097408
133	0x3b89b68a	0.0042026686
134	0xbcddf4c5	-0.027094254
135	0x3ce91e7b	0.028456917
136	0x3ca91668	0.020640567
137	0xbb8a1205	-0.004213574
138	0x3c7c8088	0.015411504
139	0xbc75fcd8	-0.015013896
140	0x3d14ed5c	0.036359176
141	0x3c21bd6d	0.009871823
142	0x3b4f26ff	0.0031608937
143	0xba7b8be2	-0.00095957343
144	0x3b0050ff	0.0019579527
145	0xbc36f7ca	-0.011167476
146	0xbb65340d	-0.0034973652
147	0x3c8c5829	0.017131882
148	0xbcb39fd0	-0.02192679
149	0xbc7e4dda	-0.015521491
150	0x3b7b2232	0.0038319943
151	0xbc1a4cb7	-0.009417704
152	0xbd5ca9f8	-0.053873032
153	0xbb4cefc8	-0.003127085
154	0xbca6d564	-0.020365424
155	0xbb3cf1da	-0.0028830678
156	0x3c731312	0.01483609
157	0x3c5768fb	0.013147588
158	0xbc42f157	-0.01189836
159	0x3caa0eab	0.020758947
160	0xba0b3c2b	-0.0005311395
161	0x3c96efc4	0.018424876
162	0x3d3150ac	0.043289825
163	0x3c6cedcf	0.014460995
164	0xbb070858	-0.0020604338
165	0xbb7fff98	-0.0039062258
166	0x3c8350a1	0.016029658
167	0x3c4241f1	0.011856542
168	0x3c3afe78	0.011413209
169	0x3c96160c	0.01832106
170	0xbba7d7ed	-0.005122176
171	0x3b7e421a	0.0038796724
172	0x3c12d932	0.008962916
173	0xbbbbacbd	-0.005727379
174	0x3ce813ab	0.02832969
175	0x3c7b3ad2	0.015333848
176	0x3c5cda90	0.013479844
177	0x3bee3ad7	0.007270198
178	0x3c818844	0.015812047
179	0xbafaf8b7	-0.0019147609
180	0x3bfe2e70	0.0077570006
181	0x3af4d2f3	0.001867859
182	0x3d2fb8d6	0.042900883
183	0xbc839a7e	-0.016064879
184	0xbc5d784d	-0.0135174515
185	0x3ce96ca2	0.028494183
186	0x3c008f0d	0.007846606
187	0x3d3c9f68	0.04605046
188	0xbc846eb8	-0.016166076
189	0x3c8d8a9f	0.017278014
190	0x3c43a0dd	0.011940208
191	0x3ca25426	0.019815516
192	0x3caf7fd4	0.021423258
193	0xbd0a45d0	-0.033757985
194	0xbcd2b213	-0.025719678
195	0x3c8f5df7	0.01750086
196	0x3baed34f	0.0053352485
197	0xbbf18875	-0.0073710033
198	0xbbe1f1d8	-0.006895285
199	0x3c213fa7	0.009841836
200	0xbb048145	-0.0020218652
201	0xbc57ffdb	-0.013183559
202	0x3cb2904a	0.021797318
203	0xbca8f84e	-0.020626213
204	0x3d2d1c0a	0.04226307
205	0xbbb35e45	-0.0054738843
206	0xbb18cd9b	-0.002331591
207	0xbc8702ad	-0.016480768
208	0x3c2fbda3	0.010726365
209	0x3c2fdaa4	0.01073328
210	0x3c13281b	0.00898173
211	0x3c4c3db0	0.012465879
212	0x3b1b601e	0.0023708413
213	0xbcbcad7b	-0.02303194
214	0xbcad3601	-0.021143915
215	0xbcc95710	-0.024577647
216	0x3c49a03e	0.012306271
217	0x3d296ae7	0.041361716
218	0xbc41f2b0	-0.011837646
219	0xb9c4bde6	-0.0003752552
220	0x3b2ae6cb	0.0026077505
221	0x3b2e4a1f	0.0026594473
222	0x3c681a4f	0.014166429
223	0xbb8dcf5e	-0.0043276986
224	0xbc1923f5	-0.009346952
225	0xbbdee960	-0.006802723
226	0xbb7b179b	-0.003831363
227	0x3c20cd68	0.009814598
228	0x3c927b7b	0.017881146
229	0xbc866db3	-0.01640973
230	0xbc324448	-0.010880537
231	0xbbbb8a70	-0.00572329
232	0xbc3e2542	-0.011605563
233	0x3ba8448a	0.0051351236
234	0x3c147e8d	0.009063375
235	0x39337dfb	0.00017117702
236	0x3cbe1c0d	0.023206735
237	0xbc15cfb9	-0.009143763
238	0x3c07cffd	0.008289334
239	0xbc3441cf	-0.011002018
240	0xbb19c549	-0.0023463538
241	0xbbbc4c27	-0.0057463828
242	0xbcc5db6f	-0.024152486
243	0x3bc7295f	0.00607793
244	0x3b8915d1	0.004183509
245	0x3bf16a6d	0.0073674233
246	0xbb8e2a5c	-0.0043385457
247	0xbbc1e90a	-0.005917673
248	0xba6d82d2	-0.0009060326
249	0xbc29eb27	-0.010371006
250	0xbcc8a827	-0.024494244
251	0x3c25c9a3	0.010118875
252	0xbbeb0193	-0.0071718185
253	0xbc0f662b	-0.008752386
254	0xbc1ebca4	-0.00968853
255	0xbc921acc	-0.017835043

action_model._continuous_distribution.mu.bias f4 [2]
0	0x00000000	0.0
1	0x00000000	0.0

critic.network_body.linear_encoder.seq_layers.0.weight f4 [128, 6]
0	0xbdf00cbd	-0.1172118
1	0x3f12d70d	0.5735939
2	0x3f3fa956	0.7486776
3	0xbe7168a7	-0.23575078
4	0x3f066704	0.5250094
5	0xbdd7782f	-0.1052097
6	0x3ebece42	0.37266737
7	0x3e046e36	0.12932667
8	0xbd268212	-0.04065139
9	0x3db697d2	0.08915676
10	0xbf022913	-0.50843924
11	0x3e87efa9	0.26550034
12	0x3e9aae6d	0.302112
13	0xbeb63ba4	-0.35592377
14	0xbe455dc3	-0.19274049
15	0xbe9cadde	-0.306014
16	0x3f59a509	0.8501745
17	0xbe5f8983	-0.218298
18	0xbf1835f7	-0.59457344
19	0xbf164175	-0.5869363
20	0xbf269268	-0.6506715
21	0xbf2bbd3a	-0.6708561
22	0xbe1f39de	-0.15549418
23	0xbe90d930	-0.282907
24	0x3e3b9130	0.18317103
25	0xbb33906e	-0.002739932
26	0xbf346246	-0.70462453
27	0xbe146644	-0.14492136
28	0xbe4e346b	-0.20137183
29	0xbf5f76f4	-0.87290883
30	0x3e500fb1	0.20318486
31	0x3e971985	0.29511657
32	0xbe8ed19f	-0.27894303
33	0x3db84234	0.08997002
34	0xbeee2f87	-0.46520635
35	0xbe291808	-0.16513073
36	0xbc9359cd	-0.017987156
37	0xbd248849	-0.040169034
38	0xbe25c486	-0.16188249
39	0x3f1e03b6	0.6172441
40	0xbf0367c1	-0.5133019
41	0xbef9db0d	-0.48799935
42	0x3eac9768	0.33709264
43	0x3f27f32a	0.65605414
44	0x3eb27e6d	0.3486208
45	0x3ee6ed9f	0.45103166
46	0xbe83ea1e	-0.25764555
47	0xbecd1f36	-0.40062875
48	0x3f04f1af	0.5193128
49	0x3dec7061	0.11544872
50	0x3ee79ad7	0.4523532
51	0x3b1f28dc	0.0024285829
52	0xbfb0a60c	-1.3800673
53	0x3f026257	0.50931305
54	0x3eb139b1	0.34614328
55	0x3dd6c33f	0.10486459
56	0xbe867362	-0.26259905
57	0x3d322667	0.043493655
58	0xbedf27e2	-0.43585116
59	0xbe68b1a9	-0.22724022
60	0xbdbb0530	-0.09131849
61	0xbee79a94	-0.4523512
62	0x3e28a778	0.16470134
63	0x3e5ed42e	0.21760628
64	0xbed2a277	-0.41139576
65	0x3eadff0b	0.33983645
66	0x3f3cd591	0.73763376
67	0xbe8dab0b	-0.27669558
68	0xbead6cb1	-0.33871987
69	0x3d66d39a	0.056354143
70	0x3d86fa3b	0.065906964
71	0xbb4f7416	-0.0031654886
72	0xbf1e4ad8	-0.6183295
73	0x3ce74d68	0.028235152
74	0x3d1bd14b	0.038041394
75	0xbda8c872	-0.08241357
76	0xbeca8440	-0.39554024
77	0x3e1ac65b	0.15114729
78	0x3d8bfad8	0.06834954
79	0xbf370833	-0.71496886
80	0xbf13ceeb	-0.57737607
81	0x3f9628c5	1.1731192
82	0x3cc175a9	0.023615675
83	0xbe8aa5db	-0.27079663
84	0x3e66983f	0.22519015
85	0xbd1f92e4	-0.038958445
86	0xbe745e3b	-0.23864071
87	0x3f0ed684	0.55796075
88	0xbf37fd81	-0.7187119
89	0xbebd1c90	-0.36935854
90	0x3f497750	0.7869768
91	0xbe4f36c6	-0.20235738
92	0x3e388ad3	0.18021707
93	0xbe370250	-0.17871976
94	0xbedd6ff2	-0.4324947
95	0x3e7b8d2f	0.24565576
96	0x3eb411cb	0.35169825
97	0xbeae9178	-0.3409536
98	0xbe9926ae	-0.29912323
99	0x3c7e03be	0.015503822
100	0xbf144d2c	-0.57930255
101	0x3d61b71c	0.055106267
102	0x3df5946c	0.119912
103	0xbec391ca	-0.38197166
104	0xbe79c57c	-0.2439174
105	0x3b8b8bff	0.004258632
106	0xbd71597b	-0.058923226
107	0xbafb8786	-0.0019190169
108	0xbd5eb934	-0.054375842
109	0x3e649d7a	0.22325698
110	0x3ed61012	0.41809136
111	0xbe4eb8f2	-0.20187739
112	0x3f04f24f	0.51932234
113	0x3f267435	0.6502107
114	0x3cdc0e8e	0.026862409
115	0x3d9331e5	0.07187251
116	0x3e7ebc0f	0.24876426
117	0x3dc73a91	0.097279675
118	0xbd0b1f86	-0.03396561
119	0xbef1b952	-0.472117
120	0x3eb17202	0.34657294
121	0xbe0b2d9e	-0.1359162
122	0xbea991b1	-0.33118966
123	0x3e15a405	0.1461335
124	0x3e8b374d	0.2719063
125	0x3f4d02a4	0.80082154
126	0x3d17260d	0.036901522
127	0xbed64c5b	-0.4185513
128	0x3f3f57aa	0.7474314
129	0xbe276c8b	-0.1635
130	0x3f220f6a	0.6330477
131	0x3e971a67	0.2951233
132	0xbdfa28f9	-0.12214846
133	0x3e8ed876	0.27899522
134	0x3d64f4a1	0.05589736
135	0x3e3a02f9	0.18165196
136	0xbe85f758	-0.2616527
137	0xbeb81d46	-0.35959834
138	0xbf6833a0	-0.90703773
139	0xbf2ee239	-0.6831394
140	0x3e4cc878	0.19998348
141	0xbef93637	-0.48674175
142	0x3e2efef7	0.17089449
143	0x3db8af3b	0.090177976
144	0xbebd711b	-0.37000355
145	0xbe194552	-0.1496785
146	0x3f04cfe2	0.51879704
147	0x3f8b7b91	1.0897084
148	0xbec96009	-0.39331082
149	0xbe3d724f	-0.18500637
150	0x3ecc1e2b	0.39866766
151	0x3f007212	0.5017406
152	0x3ed2fe5f	0.41209695
153	0x3ebb6ebe	0.36607927
154	0xbe9e902b	-0.30969366
155	0xbe08bc36	-0.13353047
156	0x3e88f869	0.26752022
157	0xbf64cbae	-0.8937329
158	0x3e4d6fd4	0.2006219
159	0x3e632a12	0.22184017
160	0x3eb2e818	0.34942698
161	0x3f073f2a	0.52830756
162	0x3ed8c986	0.4234125
163	0x3dd3532a	0.10318597
164	0xbe113acf	-0.1418259
165	0x3eb79d45	0.35862175
166	0xbe67331d	-0.22578092
167	0xbf5cfba8	-0.86321497
168	0x3ef2d2b8	0.4742639
169	0x3c9ab7fe	0.018886562
170	0x3e1f6265	0.15564878
171	0x3f13a7e1	0.5767804
172	0x3ea97ee1	0.33104613
173	0x3c463a5d	0.012098876
174	0xbe515b9f	-0.20445107
175	0x3e29b05a	0.16571179
176	0xbdf6d723	-0.12052753
177	0x3f72b933	0.9481384
178	0x3dbeaaf0	0.093099475
179	0xbe2e80a1	-0.17041256
180	0xbe04558b	-0.12923257
181	0x3f44a54d	0.7681473
182	0xbe9c97b6	-0.30584496
183	0xbe77314d	-0.241399
184	0xbf47065e	-0.7774409
185	0x3efa177a	0.48846036
186	0x3e853170	0.2601428
187	0xbd057e04	-0.03259088
188	0xbdd4ce49	-0.10390908
189	0xbea67830	-0.3251357
190	0xbeb651eb	-0.35609373
191	0xbe37cd9f	-0.17949532
192	0xbced58cf	-0.028973011
193	0xbf283583	-0.6570665
194	0xbf534405	-0.82525665
195	0x3f05edce	0.52315986
196	0xbe828f3c	-0.25499904
197	0xbee479fa	-0.4462431
198	0xbe1fabce	-0.15592882
199	0x3efd3a42	0.4945851
200	0x3e25dd22	0.16197637
201	0x3e08d8c6	0.13363943
202	0x3e6edf97	0.2332748
203	0xbe09f9ea	-0.13474241
204	0xbea94945	-0.33063713
205	0x3e3657fd	0.17807002
206	0xbdd650d2	-0.10464634
207	0x3d94e348	0.07269913
208	0xbe71e130	-0.23621058
209	0x3eb50e08	0.35362267
210	0xbf12dc07	-0.57366985
211	0xbe30ec85	-0.17277725
212	0x3e7f0bee	0.24906895
213	0xbe3d57ee	-0.18490574
214	0xbe45debf	-0.19323252
215	0x3eb16466	0.3464691
216	0xbe8419e9	-0.25801018
217	0xbdccdc04	-0.10002902
218	0xbe927f65	-0.2861282
219	0xbe86cdf6	-0.2632901
220	0xbf44ecd5	-0.76923877
221	0xbe9aa522	-0.3020411
222	0x3f171385	0.5901416
223	0x3f3f8654	0.74814343
224	0x3e923f3a	0.28563863
225	0xbf00039f	-0.50005525
226	0x3d99788f	0.07493698
227	0x3e860f19	0.26183394
228	0xbf348bb8	-0.70525694
229	0x3d344664	0.044012442
230	0x3d579480	0.052631855
231	0xbe996297	-0.2995803
232	0x3e0bf739	0.13668527
233	0xbf19bde8	-0.600554
234	0x3e0a5181	0.13507654
235	0x3f1c980f	0.61169523
236	0xbeaa598e	-0.3327145
237	0x3d8c09b4	0.06837788
238	0xbeb16c81	-0.34653094
239	0xbe963e45	-0.29344383
240	0xbf069e6b	-0.52585477
241	0x3edd9750	0.43279505
242	0xbf2bc97f	-0.67104334
243	0x3e842c54	0.2581507
244	0xbd5d315c	-0.05400215
245	0x3e3559ef	0.17710088
246	0xbe848d5a	-0.25889093
247	0x3e40ae10	0.188164
248	0xbe4e00f8	-0.20117557
249	0x3df2ccaf	0.118554465
250	0x3ea67e79	0.32518366
251	0xbd9d0353	-0.0766665
252	0x3edd32d5	0.43202844
253	0x3eb005d9	0.3437946
254	0xbeb5269e	-0.35381025
255	0xbf1ecdac	-0.6203258

critic.network_body.linear_encoder.seq_layers.0.bias f4 [128]
0	0x00000000	0.0
1	0x00000000	0.0
2	0x00000000	0.0
3	0x00000000	0.0
4	0x00000000	0.0
5	0x00000000	0.0
6	0x00000000	0.0
7	0x00000000	0.0
8	0x00000000	0.0
9	0x00000000	0.0
10	0x00000000	0.0
11	0x00000000	0.0
12	0x00000000	0.0
13	0x00000000	0.0
14	0x00000000	0.0
15	0x00000000	0.0
16	0x00000000	0.0
17	0x00000000	0.0
18	0x00000000	0.0
19	0x00000000	0.0
20	0x00000000	0.0
21	0x00000000	0.0
22	0x00000000	0.0
23	0x00000000	0.0
24	0x00000000	0.0
25	0x00000000	0.0
26	0x00000000	0.0
27	0x00000000	0.0
28	0x00000000	0.0
29	0x00000000	0.0
30	0x00000000	0.0
31	0x00000000	0.0
32	0x00000000	0.0
33	0x00000000	0.0
34	0x00000000	0.0
35	0x00000000	0.0
36	0x00000000	0.0
37	0x00000000	0.0
38	0x00000000	0.0
39	0x00000000	0.0
40	0x00000000	0.0
41	0x00000000	0.0
42	0x00000000	0.0
43	0x00000000	0.0
44	0x00000000	0.0
45	0x00000000	0.0
46	0x00000000	0.0
47	0x00000000	0.0
48	0x00000000	0.0
49	0x00000000	0.0
50	0x00000000	0.0
51	0x00000000	0.0
52	0x00000000	0.0
53	0x00000000	0.0
54	0x00000000	0.0
55	0x00000000	0.0
56	0x00000000	0.0
57	0x00000000	0.0
58	0x00000000	0.0
59	0x00000000	0.0
60	0x00000000	0.0
61	0x00000000	0.0
62	0x00000000	0.0
63	0x00000000	0.0
64	0x00000000	0.0
65	0x00000000	0.0
66	0x00000000	0.0
67	0x00000000	0.0
68	0x00000000	0.0
69	0x00000000	0.0
70	0x00000000	0.0
71	0x00000000	0.0
72	0x00000000	0.0
73	0x00000000	0.0
74	0x00000000	0.0
75	0x00000000	0.0
76	0x00000000	0.0
77	0x00000000	0.0
78	0x00000000	0.0
79	0x00000000	0.0
80	0x00000000	0.0
81	0x00000000	0.0
82	0x00000000	0.0
83	0x00000000	0.0
84	0x00000000	0.0
85	0x00000000	0.0
86	0x00000000	0.0
87	0x00000000	0.0
88	0x00000000	0.0
89	0x00000000	0.0
90	0x00000000	0.0
91	0x00000000	0.0
92	0x00000000	0.0
93	0x00000000	0.0
94	0x00000000	0.0
95	0x00000000	0.0
96	0x00000000	0.0
97	0x00000000	0.0
98	0x00000000	0.0
99	0x00000000	0.0
100	0x00000000	0.0
101	0x00000000	0.0
102	0x00000000	0.0
103	0x00000000	0.0
104	0x00000000	0.0
105	0x00000000	0.0
106	0x00000000	0.0
107	0x00000000	0.0
108	0x00000000	0.0
109	0x00000000	0.0
110	0x00000000	0.0
111	0x00000000	0.0
112	0x00000000	0.0
113	0x00000000	0.0
114	0x00000000	0.0
115	0x00000000	0.0
116	0x00000000	0.0
117	0x00000000	0.0
118	0x00000000	0.0
119	0x00000000	0.0
120	0x00000000	0.0
121	0x00000000	0.0
122	0x00000000	0.0
123	0x00000000	0.0
124	0x00000000	0.0
125	0x00000000	0.0
126	0x00000000	0.0
127	0x00000000	0.0

critic.network_body.linear_encoder.seq_layers.2.weight f4 [128, 128]
0	0xbda61650	-0.081097245
1	0x3d12c250	0.035829842
2	0x3d129c57	0.03579363
3	0x3d559c10	0.052150786
4	0x3de7acdd	0.11312268
5	0x3ddb324b	0.10702952
6	0x3d54bc3a	0.05193732
7	0x3dd1303f	0.1021428
8	0x3e6cf552	0.23140457
9	0x3e27277e	0.16323659
10	0xbd63014f	-0.05542117
11	0x3d98b7f4	0.07456961
12	0x3b6a0c8c	0.0035713045
13	0x3e590bc0	0.21195889
14	0x3dde5235	0.108555235
15	0x3d62836b	0.05530111
16	0xbd7abc1a	-0.061214544
17	0x3d170a1d	0.03687488
18	0x3ca33a4d	0.01992526
19	0x3ccef601	0.025263788
20	0xbb3ba3e2	-0.0028631617
21	0xbd616aad	-0.055033375
22	0x3c422500	0.011849642
23	0xbcf063d3	-0.029344475
24	0x3d6b5b30	0.05746001
25	0xbd90de23	-0.07073619
26	0xbd874cc8	-0.06606442
27	0xbe225c35	-0.15855487
28	0xbd8b64d8	-0.06806344
29	0xbe1abb27	-0.15110455
30	0x3d7f6734	0.06235428
31	0x3da7698b	0.081744276
32	0x3cea3fe3	0.028594917
33	0x3dca2f0d	0.098722555
34	0x3d9be390	0.076117635
35	0xbccc1d31	-0.024916263
36	0xbd78d66c	-0.060751364
37	0xbde0dc63	-0.109795354
38	0x3d130152	0.03588993
39	0xbc21d1f4	-0.009876717
40	0xbe3fec38	-0.18742454
41	0xbaad9973	-0.0013244584
42	0xbd8d023f	-0.06885194
43	0xbd99fe76	-0.07519238
44	0x3dd793f6	0.10526268
45	0xbdb88973	-0.09010591
46	0xbd0e7133	-0.034775924
47	0xbbc05aa1	-0.005870179
48	0x3db41f98	0.087950885
49	0xbdfd1866	-0.12358169
50	0xbc366dc3	-0.011134568
51	0xbdb21ddf	-0.08697104
52	0xba3705ed	-0.0006981779
53	0x3d91c2d3	0.07117238
54	0x3c18def8	0.009330504
55	0xbb9c426e	-0.004768661
56	0xbdc466c6	-0.09589915
57	0x3c299a31	0.0103517035
58	0x3d9ee1ba	0.07757898
59	0xbe63a5f2	-0.22231272
60	0x3ad156b7	0.0015971278
61	0x3bed1c0a	0.0072360085
62	0x3e1b7e39	0.15184869
63	0xbe0b8fdb	-0.13629095
64	0xbb5e7bad	-0.0033948228
65	0x3e6ab39c	0.22920078
66	0xbda67b7c	-0.081290215
67	0xbda87d00	-0.08226967
68	0x3ded23df	0.115791075
69	0x3d4dca06	0.050241493
70	0xbd6a13b2	-0.05714769
71	0xba08bb09	-0.00052158587
72	0x3d1d45a6	0.0383965
73	0xbdcc9b8b	-0.09990605
74	0xbbf030f9	-0.0073300567
75	0x3c92aa78	0.017903551
76	0x3ca72002	0.020401005
77	0x3de42d10	0.111414075
78	0x3de06760	0.10957217
79	0xbdf6fd16	-0.12059991
80	0xbe330cb4	-0.17485315
81	0xbca691ae	-0.020333137
82	0x3dafeb91	0.085898526
83	0xbc1d7261	-0.00960979
84	0xbe262f55	-0.16228993
85	0xbbca906d	-0.0061817677
86	0x3d26951f	0.040669557
87	0x3d50eb37	0.05100557
88	0x3e85ef24	0.26159012
89	0x3c87489b	0.016514113
90	0xbbcd3fba	-0.0062637003
91	0xbddaa9aa	-0.10676892
92	0xbe0ef83b	-0.1396188
93	0x3de9e612	0.114208356
94	0xbdae1a7d	-0.08501146
95	0xbe30a2ad	-0.17249556
96	0x3e7c973b	0.24667065
97	0x3d1e40aa	0.038635887
98	0xbe0fddcd	-0.14049454
99	0xbd8c3a8f	-0.06847107
100	0x3cf87178	0.030327544
101	0xbb78f3cc	-0.003798711
102	0xbd0af29c	-0.033922777
103	0xbdbf1f3f	-0.093321316
104	0xb9b35e64	-0.00034211867
105	0xbe240e29	-0.16021027
106	0x3dd7f8e9	0.10545523
107	0x3c3d8380	0.011566997
108	0x3e05bd24	0.13060433
109	0x3d2c224b	0.04202489
110	0xbde811d0	-0.113315225
111	0xbd534d45	-0.05158736
112	0xbe2f7f7d	-0.17138477
113	0xbe1f64ab	-0.15565746
114	0xbc5ec2bc	-0.013596233
115	0x3d491160	0.049088836
116	0xbc864b97	-0.016393466
117	0xbd8818ab	-0.0664533
118	0xbda80736	-0.082045004
119	0xbaf5c6a4	-0.0018751216
120	0xbde7c4c0	-0.11316824
121	0xbd3e87b9	-0.046516154
122	0xbcf93682	-0.0304215
123	0xbc900408	-0.017580047
124	0xbd736e1f	-0.05943119
125	0x3df9eb9d	0.12203143
126	0xbd30f347	-0.043200757
127	0x3c2cdb17	0.010550282
128	0xbd04c2c5	-0.03241231
129	0xbda32066	-0.07965164
130	0xbca2015f	-0.019776044
131	0xbd8965aa	-0.06708844
132	0xbdb4c0f9	-0.08825869
133	0x3d9efc6b	0.07762989
134	0xbda94a53	-0.08266129
135	0x3d4b5d22	0.049649365
136	0x3d408e54	0.047010735
137	0xbdd743c5	-0.10510973
138	0x3df1a66e	0.11799322
139	0x3d822280	0.063542366
140	0x3dccc45e	0.099983916
141	0x3d823934	0.06358567
142	0xbe203e71	-0.1564882
143	0x3d07fbfa	0.033199288
144	0xbe0644e5	-0.13112219
145	0xbde6adee	-0.11263643
146	0x3ce60615	0.028079072
147	0x3d8f4288	0.06995112
148	0x3d38d5e9	0.045125876
149	0xbd491e83	-0.049101364
150	0xbd62d1e1	-0.055375937
151	0xbdf9a8e8	-0.121904194
152	0x3e29fb8f	0.16599868
153	0x3c4810fa	0.012211079
154	0xbe04d136	-0.12970433
155	0x3d87e77b	0.06635948
156	0xbde20a92	-0.110371724
157	0x3b237287	0.002494009
158	0x3dc30469	0.095223255
159	0xbdbb7563	-0.09153249
160	0xbdb97667	-0.090557866
161	0xbd826ec6	-0.063687846
162	0xbdf7fecc	-0.121091455
163	0x3e30aa27	0.17252408
164	0xbdfbb103	-0.12289622
165	0xbce80810	-0.028324157
166	0xbd34a378	-0.04410121
167	0x3d440750	0.047858536
168	0x3dff9278	0.124791086
169	0xbdfa5ce9	-0.122247525
170	0xbd004a11	-0.031320635
171	0xbc50784e	-0.012723995
172	0x3d95d350	0.07315695
173	0xbcf0648a	-0.029344816
174	0xbd5c33ab	-0.053760212
175	0xbda56c87	-0.080773406
176	0x3d78d843	0.06075312
177	0xbdf7b519	-0.120950885
178	0xbe8e923d	-0.27845946
179	0xbd093990	-0.03350216
180	0xbae8183a	-0.0017707415
181	0x3d6777e4	0.05651082
182	0xbd27bd16	-0.04095181
183	0x3df791f7	0.120883875
184	0xbe15be14	-0.1462329
185	0x3e107737	0.14107977
186	0x3e16dac1	0.14731885
187	0xbd230eeb	-0.03980915
188	0x3dd5256e	0.1040753
189	0x3ce0a360	0.027421653
190	0x3df64a74	0.120259196
191	0xbe40a149	-0.18811525
192	0x3ce53af5	0.027982214
193	0xbcc76fc4	-0.024345286
194	0xbd14c14c	-0.036317155
195	0x3d0b5ef8	0.034026116
196	0xbce2af20	-0.027671397
197	0xbc1936bb	-0.009351428
198	0xbdfe7c23	-0.12426021
199	0xbcdd3be6	-0.0270061
200	0x3dd84dd7	0.10561722
201	0x3d9df6e6	0.07713108
202	0x3b805802	0.0039167413
203	0xbd608e32	-0.054823108
204	0x3d877131	0.066133864
205	0x3c37bfd5	0.01121517
206	0xbdc13dc4	-0.09435609
207	0xbe09cf1d	-0.13457914
208	0x3c11e517	0.008904717
209	0xbd9d2532	-0.0767311
210	0xbe280ad7	-0.16410385
211	0xbd80ffe4	-0.06298807
212	0x3e0061b4	0.12537271
213	0xbcd13caa	-0.025541622
214	0x3df956be	0.12174748
215	0xbd1bb998	-0.038018793
216	0xbc932958	-0.01796405
217	0xba53215d	-0.0008053983
218	0x3d53ef15	0.05174168
219	0xbe33464b	-0.17507283
220	0x3c9e2e2f	0.019309131
221	0x3e2a1150	0.16608167
222	0xbbddbdb7	-0.0067670005
223	0x3c26273d	0.010141191
224	0x3caefa5a	0.021359611
225	0xbc92bdf7	-0.017912848
226	0xbd07e954	-0.033181503
227	0xbcda5c40	-0.026655316
228	0x3d2d4c92	0.04230935
229	0x3bb95761	0.0056561683
230	0x3d629e12	0.05532653
231	0x3e27ce22	0.16387227
232	0x3c314641	0.0108199725
233	0x3d870b83	0.065939926
234	0xbd908c88	-0.07058054
235	0xbdd8a2f7	-0.10577958
236	0xbd069074	-0.032852605
237	0x3d4968e4	0.049172297
238	0xbe3b8620	-0.18312883
239	0xbd9afc43	-0.07567646
240	0xbdfee64e	-0.12446271
241	0x3decb90a	0.11558731
242	0x3e13136a	0.14362875
243	0x3d93f7ac	0.07224974
244	0xbc933bda	-0.017972875
245	0xbcbf8666	-0.023379516
246	0xbd94e750	-0.07270682
247	0x3d6a155d	0.05714928
248	0xbc8cff8b	-0.017211696
249	0xbd8eecf9	-0.06978793
250	0x3cd16b88	0.02556397
251	0xbe61ca13	-0.22049741
252	0xbd98afd1	-0.07455409
253	0xbd9fa155	-0.077944435
254	0x3e1cf0ae	0.15326187
255	0x3da9b902	0.082872406

critic.network_body.linear_encoder.seq_layers.2.bias f4 [128]
0	0x00000000	0.0
1	0x00000000	0.0
2	0x00000000	0.0
3	0x00000000	0.0
4	0x00000000	0.0
5	0x00000000	0.0
6	0x00000000	0.0
7	0x00000000	0.0
8	0x00000000	0.0
9	0x00000000	0.0
10	0x00000000	0.0
11	0x00000000	0.0
12	0x00000000	0.0
13	0x00000000	0.0
14	0x00000000	0.0
15	0x00000000	0.0
16	0x00000000	0.0
17	0x00000000	0.0
18	0x00000000	0.0
19	0x00000000	0.0
20	0x00000000	0.0
21	0x00000000	0.0
22	0x00000000	0.0
23	0x00000000	0.0
24	0x00000000	0.0
25	0x00000000	0.0
26	0x00000000	0.0
27	0x00000000	0.0
28	0x00000000	0.0
29	0x00000000	0.0
30	0x00000000	0.0
31	0x00000000	0.0
32	0x00000000	0.0
33	0x00000000	0.0
34	0x00000000	0.0
35	0x00000000	0.0
36	0x00000000	0.0
37	0x00000000	0.0
38	0x00000000	0.0
39	0x00000000	0.0
40	0x00000000	0.0
41	0x00000000	0.0
42	0x00000000	0.0
43	0x00000000	0.0
44	0x00000000	0.0
45	0x00000000	0.0
46	0x00000000	0.0
47	0x00000000	0.0
48	0x00000000	0.0
49	0x00000000	0.0
50	0x00000000	0.0
51	0x00000000	0.0
52	0x00000000	0.0
53	0x00000000	0.0
54	0x00000000	0.0
55	0x00000000	0.0
56	0x00000000	0.0
57	0x00000000	0.0
58	0x00000000	0.0
59	0x00000000	0.0
60	0x00000000	0.0
61	0x00000000	0.0
62	0x00000000	0.0
63	0x00000000	0.0
64	0x00000000	0.0
65	0x00000000	0.0
66	0x00000000	0.0
67	0x00000000	0.0
68	0x00000000	0.0
69	0x00000000	0.0
70	0x00000000	0.0
71	0x00000000	0.0
72	0x00000000	0.0
73	0x00000000	0.0
74	0x00000000	0.0
75	0x00000000	0.0
76	0x00000000	0.0
77	0x00000000	0.0
78	0x00000000	0.0
79	0x00000000	0.0
80	0x00000000	0.0
81	0x00000000	0.0
82	0x00000000	0.0
83	0x00000000	0.0
84	0x00000000	0.0
85	0x00000000	0.0
86	0x00000000	0.0
87	0x00000000	0.0
88	0x00000000	0.0
89	0x00000000	0.0
90	0x00000000	0.0
91	0x00000000	0.0
92	0x00000000	0.0
93	0x00000000	0.0
94	0x00000000	0.0
95	0x00000000	0.0
96	0x00000000	0.0
97	0x00000000	0.0
98	0x00000000	0.0
99	0x00000000	0.0
100	0x00000000	0.0
101	0x00000000	0.0
102	0x00000000	0.0
103	0x00000000	0.0
104	0x00000000	0.0
105	0x00000000	0.0
106	0x00000000	0.0
107	0x00000000	0.0
108	0x00000000	0.0
109	0x00000000	0.0
110	0x00000000	0.0
111	0x00000000	0.0
112	0x00000000	0.0
113	0x00000000	0.0
114	0x00000000	0.0
115	0x00000000	0.0
116	0x00000000	0.0
117	0x00000000	0.0
118	0x00000000	0.0
119	0x00000000	0.0
120	0x00000000	0.0
121	0x00000000	0.0
122	0x00000000	0.0
123	0x00000000	0.0
124	0x00000000	0.0
125	0x00000000	0.0
126	0x00000000	0.0
127	0x00000000	0.0

critic.value_heads.value_heads.extrinsic.weight f4 [1, 128]
0	0xbe2d912b	-0.16949908
1	0xbe041589	-0.1289884
2	0xbe1f9149	-0.15582766
3	0x3ddc9efc	0.10772511
4	0x3e41b178	0.18915355
5	0x3e4a9558	0.19783533
6	0xbe57cdb2	-0.2107456
7	0xbe415172	-0.18878725
8	0xbda735fc	-0.081645936
9	0xbe1156a8	-0.14193213
10	0xbe3eea8f	-0.18644165
11	0xbd8ab6f4	-0.06773177
12	0x3a465000	0.00075650215
13	0xbe08ee6f	-0.13372205
14	0xbd85aef2	-0.06527509
15	0x3e0313d6	0.12800536
16	0x3d669c90	0.056301653
17	0xbc377d90	-0.01119937
18	0xbe0034e6	-0.12520179
19	0xbe45757e	-0.19283101
20	0x3e3142e4	0.17310673
21	0x3e08118e	0.13287947
22	0xbdad7dc6	-0.08471255
23	0x3dc09098	0.09402579
24	0xbe14b43b	-0.14521877
25	0x3ca7b4d0	0.02047196
26	0xbdbadbd2	-0.09123959
27	0x3e2ac82c	0.16677922
28	0x3dcec320	0.10095811
29	0x3ded2cec	0.11580834
30	0x3d8d0604	0.06885913
31	0x3e310c94	0.17289954
32	0x3dcc36e8	0.0997141
33	0xbe034cd8	-0.12822282
34	0x3d4403a8	0.04785505
35	0x3e48c9aa	0.19608179
36	0x3dba53e4	0.09098032
37	0xbdd324f2	-0.10309781
38	0xbe0fa39c	-0.14027256
39	0x3e339540	0.17537403
40	0x3c0be8a0	0.008539349
41	0x3dbbc0c4	0.091676265
42	0x3cafe780	0.021472692
43	0x3e3b9908	0.18320096
44	0xbe1e75e2	-0.15474656
45	0x3e2a73ca	0.16645733
46	0x3de4d7ec	0.11173996
47	0xbe2dbfdc	-0.1696772
48	0xbe39c317	-0.18140827
49	0x3d9982c8	0.07495648
50	0x3e3eb19c	0.1862244
51	0x3c2f5db0	0.010703489
52	0xbe56ffdf	-0.20996045
53	0xbdc57ced	-0.09642968
54	0x3bc59e20	0.006030813
55	0x3d46b4c0	0.04851222
56	0x3dd4a590	0.10383141
57	0x3e58ad46	0.21159849
58	0x3c292a50	0.0103250295
59	0x3dc561e4	0.09637812
60	0xbe1f9490	-0.15584016
61	0x3c716890	0.014734402
62	0xbb6ea040	-0.0036411434
63	0x3e3fe9e6	0.18741569
64	0xbe19de8d	-0.15026303
65	0xbd9588d2	-0.07301487
66	0x3c865b40	0.016400933
67	0xbdb220b4	-0.08697644
68	0x3e1798be	0.1480436
69	0xbdb4dffa	-0.08831783
70	0xbe2c2ee6	-0.16814765
71	0xbe401d58	-0.18761194
72	0xbe1c3c66	-0.15257415
73	0xbdd73dc4	-0.10509828
74	0x3bec5ea0	0.0072134286
75	0xbdf758cf	-0.12077486
76	0xbd93d5f2	-0.07218541
77	0x3e273294	0.16327888
78	0xba5bb200	-0.0008380711
79	0xbe21ec8e	-0.15812895
80	0xbc44d050	-0.012012556
81	0x3e3fd4ee	0.1873357
82	0xbe1b5670	-0.15169692
83	0x3e42fb78	0.1904124
84	0x3d1f3850	0.038872063
85	0x3e36a2ea	0.17835584
86	0x3d8a2e64	0.067471296
87	0xbddccba6	-0.1078103
88	0xbd447300	-0.047961235
89	0x3b6dac00	0.003626585
90	0xbdc16886	-0.094437644
91	0x3df0f5d4	0.11765638
92	0xbe585e04	-0.21129614
93	0xbe112fb2	-0.1417835
94	0x3cf42978	0.02980493
95	0x3df1fa48	0.118153155
96	0x3d68b618	0.056814283
97	0xbe128e1c	-0.14312023
98	0x3ca04e20	0.019568503
99	0x3dd34e48	0.10317665
100	0xbe19f1ae	-0.150336
101	0x3e2d2fc0	0.16912746
102	0xbdbae0ed	-0.091249324
103	0xbe10d85e	-0.14145038
104	0x3d5b2a30	0.05350703
105	0x3dfe7950	0.12425482
106	0x3d533958	0.05156836
107	0x3d8b55b4	0.06803456
108	0x3d47dee0	0.048796535
109	0x3e40dc28	0.18833983
110	0x3dd42414	0.10358444
111	0x3e30e7bc	0.172759
112	0xbe35b700	-0.1774559
113	0xbe509405	-0.20368965
114	0xbd10319c	-0.03520356
115	0xbd7ace70	-0.06123203
116	0x3e0926a8	0.13393652
117	0x3dbcb110	0.092134595
118	0xbdd15460	-0.102211714
119	0xbe0eeda6	-0.13957843
120	0xbccc7f18	-0.024962947
121	0x3e24c416	0.16090426
122	0xbba42300	-0.005009055
123	0x3dca9ddc	0.098933905
124	0xbbb8aa20	-0.005635515
125	0xbe569394	-0.20954734
126	0x3dba70ec	0.091035694
127	0xbcabb880	-0.020962
