Unity/results/ppo/My Behavior/My Behavior-640.onnx (onnx, 73046 bytes, 7 tensors)

action_model._continuous_distribution.mu.weight f4 [1, 128]
0	0x3b7ebcb5	0.0038869802
1	0xbb9e2d16	-0.004827152
2	0x3c06c6bb	0.008226092
3	0xbc8a3f1d	-0.016875798
4	0x3b85b5a9	0.0040804935
5	0xbc2cb9db	-0.010542358
6	0x3b7d4b08	0.0038649458
7	0xbcd47b82	-0.0259378
8	0x3b4754b9	0.003041549
9	0xbd42f751	-0.04759914
10	0xbb8939a9	-0.004187782
11	0x3d075f9b	0.03305016
12	0xbc42d15a	-0.011890734
13	0x3c5f800d	0.0136413695
14	0xbd04bda3	-0.032407414
15	0x3c19401f	0.009353667
16	0x3ce88888	0.028385416
17	0x3c334653	0.01094206
18	0x3bccdf6f	0.0062522213
19	0xbcb88eba	-0.022528995
20	0xbc9f82e5	-0.019471595
21	0xbca368e4	-0.019947477
22	0xbcadddc6	-0.021223914
23	0x3a1f5000	0.00060772896
24	0xbc790c18	-0.015200637
25	0x3c437e27	0.0119319325
26	0x3c3d9256	0.011570534
27	0x3bcde568	0.006283451
28	0xbc845595	-0.01615409
29	0x3c0d12e6	0.008610463
30	0x3c167959	0.009184205
31	0x3ca7d963	0.0204894
32	0x3c774b35	0.015093614
33	0xbbf56008	-0.0074882545
34	0xbbd1f24d	-0.0064070583
35	0x3d0f6987	0.035012748
36	0x3cbf5786	0.023357164
37	0x3c044dbc	0.008075174
38	0xbc305b08	-0.010763891
39	0x3c9d22f8	0.019181713
40	0xbc6c916d	-0.014438969
41	0x3c824b1a	0.015904952
42	0xbad0c47f	-0.0015927701
43	0xbc1f0963	-0.009706828
44	0x3cf08f4b	0.029365202
45	0xbc295f76	-0.010337701
46	0x3c3b6053	0.01143654
47	0x3ad076d8	0.0015904559
48	0xbc4268eb	-0.011865835
49	0x3d1416b2	0.036154456
50	0x3c5df42b	0.013546984
51	0x3d0dc864	0.034614936
52	0xbaae7625	-0.0013310356
53	0xbb2e7cb7	-0.0026624629
54	0x3c843ac0	0.016141295
55	0xbc810c05	-0.015752802
56	0x3cae820c	0.021302246
57	0x3c2d396c	0.0105727725
58	0x3c03ecaf	0.008052035
59	0x3acea735	0.0015766384
60	0xbb8669a3	-0.0041019483
61	0x3b91234d	0.004429257
62	0x3cb95bf8	0.022626862
63	0x3cbffff8	0.023437485
64	0xbbd9de57	-0.0066488194
65	0xbc021e83	-0.007941845
66	0x3c484f17	0.012225888
67	0x3c2dd9f6	0.010611048
68	0xbce24330	-0.027619928
69	0xbbe3ceaa	-0.0069521265
70	0xbb1a17b9	-0.0023512675
71	0x3a091d7a	0.00052305276
72	0x3cee84b2	0.029116008
73	0x3c5ef46f	0.013608082
74	0xbc2a3e06	-0.010390764
75	0x3b99fdfa	0.004699466
76	0xbc5bcf7a	-0.0134161655
77	0xbc3d4f5f	-0.011554568
78	0xbb20896f	-0.002449598
79	0x3ca13188	0.019676939
80	0xbd14e41f	-0.036350366
81	0x3c90d927	0.017681671
82	0xbc13829f	-0.00900331
83	0x3cb31212	0.021859203
84	0x3c647d07	0.0139458245
85	0xbbf59b9f	-0.007495358
86	0x3c3cc64f	0.01152189
87	0xbb4d6c62	-0.0031345119
88	0xbc925f4c	-0.017867707
89	0xbcd95892	-0.026531491
90	0xbb69530f	-0.0035602485
91	0x3b9e809c	0.004837109
92	0xba279551	-0.00063927943
93	0xbb45d10c	-0.0030184416
94	0x3d0a9b11	0.03383929
95	0x3c004e45	0.007831161
96	0xbd31e4fe	-0.043431275
97	0xbc8e89e6	-0.01739974
98	0x3b8164bd	0.0039487765
99	0xba37b6d8	-0.0007008142
100	0x3add2ea5	0.0016874863
101	0xbc1048aa	-0.008806387
102	0xbc9c626f	-0.019089906
103	0xbcea1118	-0.028572604
104	0xbc5928a7	-0.013254321
105	0x3b5abe97	0.003337776
106	0xbc08a0ba	-0.008339101
107	0xbd5208bd	-0.051277865
108	0x3bce77ff	0.0063009257
109	0x3c519b88	0.012793429
110	0x3c6b0bf3	0.014346111
111	0xbc6bba72	-0.014387714
112	0xbd19a3fe	-0.03750991
113	0xbc9c5d3b	-0.019087425
114	0xbccd1975	-0.025036553
115	0x3bb60efa	0.0055559846
116	0xbc1325c1	-0.008981169
117	0xbc26053f	-0.010133087
118	0x3b7e2c4b	0.0038783725
119	0xbc5aacd2	-0.013346868
120	0x395fae10	0.0002133178
121	0xbc305fa8	-0.010764994
122	0x3c81efdc	0.015861444
123	0xbc991793	-0.018687999
124	0x3c673a62	0.014113041
125	0xbcab54aa	-0.020914394
126	0x3bf70602	0.007538558
127	0xbc971907	-0.018444551

action_model._discrete_distribution.branches.0.bias f4 [5]
0	0x00000000	0.0
1	0x00000000	0.0
2	0x00000000	0.0
3	0x00000000	0.0
4	0x00000000	0.0

action_model._discrete_distribution.branches.0.weight f4 [5, 128]
0	0xba839418	-0.0010038642
1	0xbc4ee0e8	-0.012626864
2	0x3bea4e37	0.007150437
3	0xbabf7a93	-0.0014608674
4	0xbbec3e3b	-0.007209567
5	0xbb9c7037	-0.0047741192
6	0x39dcddcf	0.0004212693
7	0xba4ea92d	-0.00078834855
8	0x3b590e1b	0.003311998
9	0x3bc4fce0	0.0060115904
10	0xba4477ad	-0.000749464
11	0x3b51ec28	0.003203163
12	0xbbe4b7e2	-0.0069799284
13	0x3a12ab50	0.00055949856
14	0x3bb15525	0.0054117613
15	0xbb40fadc	-0.00294464
16	0x3a8fb633	0.0010964334
17	0x39267c84	0.0001587738
18	0x3c0b7a10	0.008512989
19	0xbad4515b	-0.0016198562
20	0x3b6350cf	0.0034685617
21	0x3bff155f	0.00778453
22	0xbafb2687	-0.0019161262
23	0xbb7ef092	-0.0038900715
24	0xbb9295eb	-0.004473438
25	0x3b8084e4	0.003922092
26	0x3b7ed3ca	0.003888356
27	0xbca827c9	-0.020526784
28	0x3c0d6d75	0.008632054
29	0x3b1f486a	0.0024304637
30	0x3bc1b3fd	0.005911349
31	0x3bf1691b	0.007367266
32	0x3bc65bf2	0.006053441
33	0x3b569afd	0.0032746189
34	0x3c23d160	0.009998649
35	0xbbf1b718	-0.007376563
36	0x3b9ccca8	0.004785139
37	0xbb89e953	-0.0042087226
38	0x3b995f75	0.004680569
39	0x3a3b97bc	0.0007156094
40	0xbc22e915	-0.009943266
41	0x3ac89cda	0.0015305534
42	0xbc286537	-0.010278038
43	0xbc0667ca	-0.008203456
44	0x3c775367	0.015095568
45	0xbc1ac6a4	-0.009446774
46	0xbbfb6537	-0.007671978
47	0xbb3ff96e	-0.0029292959
48	0x3b95f6eb	0.004576554
49	0x3c41ffe1	0.011840791
50	0xbc46e54f	-0.012139632
51	0xbbc8263a	-0.0061080726
52	0xbc07e647	-0.0082946485
53	0x3c29814d	0.010345769
54	0x3c07c8d8	0.008287631
55	0x3a488abb	0.0007650067
56	0xbbf8691d	-0.00758089
57	0x3c16f0eb	0.009212713
58	0xbc134219	-0.008987927
59	0x3bd2019a	0.0064088823
60	0xbc33191e	-0.010931281
61	0xbbfb9c95	-0.007678578
62	0x3bad3eab	0.0052870116
63	0x3c4b3f26	0.0124051925
64	0xbbe6585a	-0.0070295753
65	0x3bd55602	0.006510497
66	0x3ab5a3bc	0.0013858001
67	0xbb99a075	-0.0046883174
68	0x3b12d3f5	0.0022404168
69	0xbc64d988	-0.013967879
70	0xbc885559	-0.01664226
71	0x3b837f10	0.0040129498
72	0xbc441f6f	-0.011970385
73	0xba72a777	-0.00092565216
74	0xbbe9e7d5	-0.0071382322
75	0xbb645903	-0.0034843094
76	0xbb8cbd67	-0.0042950395
77	0x3b152238	0.0022755992
78	0x3b6b3507	0.003588976
79	0x3abfd89b	0.0014636697
80	0x3bf086ff	0.0073403115
81	0xbbf67bcb	-0.0075220815
82	0xbbca087f	-0.0061655636
83	0x3c71d85f	0.01476106
84	0x3b9a0b97	0.0047010886
85	0x3b3b845f	0.0028612835
86	0xbb798fe3	-0.0038080148
87	0xbc315cc4	-0.01082534
88	0xbc4fde2f	-0.01268725
89	0xbc23617b	-0.009971972
90	0xba3192ab	-0.00067738694
91	0x3aa30a04	0.0012438898
92	0xbc1bdf68	-0.009513713
93	0xbc60ddf7	-0.013724796
94	0x3a219f9f	0.0006165448
95	0x3bc4e2ae	0.0060084676
96	0x3a883333	0.0010391235
97	0x3bb03850	0.0053778067
98	0xbc1df561	-0.009641022
99	0xbc99875b	-0.0187413
100	0xbc4b0153	-0.012390452
101	0x3ab57dae	0.001384666
102	0x3bc715d9	0.0060756025
103	0xba8468b2	-0.0010102002
104	0x3b417cf5	0.0029523943
105	0xbbadb977	-0.00530165
106	0xbab494b5	-0.0013777228
107	0xbbc951c2	-0.0061437795
108	0xbc1b1932	-0.009466456
109	0x3ba96d08	0.0051704682
110	0xbc1322df	-0.008980482
111	0x3a8c3e63	0.0010699745
112	0xbb5fb555	-0.0034135182
113	0x3bb03482	0.005377353
114	0xbbd6e745	-0.006558331
115	0xbbd69a05	-0.0065491223
116	0x3c9f74eb	0.01946493
117	0x3b85f329	0.004087825
118	0x3b275d10	0.0025537647
119	0xbaa1b45a	-0.0012337074
120	0xbab77e3b	-0.0013999412
121	0xbbd761c5	-0.0065729343
122	0x393af894	0.00017830945
123	0xbcd1ce0a	-0.025610942
124	0x3c035133	0.008014965
125	0x3c4494fe	0.011998413
126	0x3b7a5238	0.003819598
127	0xbc7277f0	-0.014799103
128	0xbba9dedc	-0.0051840376
129	0x3c89f90b	0.016842386
130	0x3b9cba27	0.0047829333
131	0x3bcaf4b2	0.0061937207
132	0x3be9d322	0.0071357647
133	0xbc12a137	-0.008949569
134	0xba877604	-0.0010334854
135	0x3c5a1892	0.013311522
136	0x3ad5dded	0.0016316749
137	0x3bbdd5ba	0.0057933005
138	0x3acf5048	0.0015816772
139	0xbbba0527	-0.0056768837
140	0x3b3441df	0.0027505083
141	0x3c16e1f0	0.009209141
142	0xba2b7337	-0.00065403007
143	0x3a57db32	0.0008234262
144	0x3b4ffe92	0.003173743
145	0xbc4b44b7	-0.01240652
146	0x3b12d1a3	0.0022402785
147	0x3c323e10	0.010879055
148	0x3ba69858	0.0050840788
149	0x3b797ed8	0.003806999
150	0x3b8a5005	0.004220965
151	0xbb13c0c7	-0.0022545324
152	0xbc32ac23	-0.010905298
153	0x3a8e3956	0.0010850828
154	0xbb67d91f	-0.0035377217
155	0xbc1c1adb	-0.009527887
156	0x3aed4cdf	0.0018104574
157	0xbc0891b6	-0.008335521
158	0x3c919d66	0.017775249
159	0x3b59cd82	0.0033234064
160	0x3bc4c9f7	0.0060055214
161	0x3b44f8a6	0.0030055433
162	0xbc2e3d41	-0.010634721
163	0x3aa71e63	0.0012750145
164	0x3b4dbe5b	0.0031393978
165	0x3a249d81	0.00062795734
166	0xbbef1c1d	-0.0072970525
167	0xbc3d3ee1	-0.011550636
168	0xbad6b213	-0.0016379975
169	0x3c88de41	0.016707541
170	0xbc026cab	-0.007960479
171	0xbbed2125	-0.007236617
172	0x3c0fdaba	0.008780176
173	0xbca5dc5b	-0.020246675
174	0xbb77e4ab	-0.0037825506
175	0xbb875f65	-0.004131245
176	0xbc204715	-0.009782572
177	0xbb2c7345	-0.0026313823
178	0xbca51d3b	-0.02015554
179	0x3a122f49	0.0005576504
180	0x3c1db271	0.009625063
181	0x3b416c1f	0.0029513908
182	0xbc295468	-0.010335065
183	0xbc44c63a	-0.0120101515
184	0x3c3d4696	0.0115524735
185	0xbb52f3e5	-0.003218883
186	0x3b34ecd1	0.0027606974
187	0xbc21645f	-0.0098505905
188	0xbc18ad03	-0.009318593
189	0xbc298837	-0.010347418
190	0x3baa5e77	0.0051992494
191	0x3b901195	0.004396627
192	0xbcdb8f03	-0.026801592
193	0x3c4f5eeb	0.012656908
194	0xbb539a38	-0.0032287966
195	0xbba286be	-0.00495991
196	0x3c889486	0.016672384
197	0xbc3d7546	-0.011563605
198	0x3c824dc3	0.01590622
199	0xbc8e8cd0	-0.017401129
200	0x3c09b678	0.00840532
201	0x3c5dc657	0.013536057
202	0x39e50470	0.0004368159
203	0xba5d2ab7	-0.0008436846
204	0xba06b825	-0.0005139134
205	0x3c2a3893	0.010389465
206	0x3b256d09	0.0025241992
207	0xbb6d7038	-0.0036230218
208	0x3c65a778	0.014016978
209	0x3b47709b	0.0030432108
210	0xbb6a2c67	-0.0035732032
211	0x3c22c713	0.009935158
212	0x3c002833	0.007822084
213	0xbc06da6f	-0.00823079
214	0xbc9b1332	-0.018930051
215	0x3bd98b53	0.006638923
216	0x39a4954b	0.0003139175
217	0x3a54e1c8	0.0008120802
218	0x3c87b40b	0.016565343
219	0x3c790b02	0.015200378
220	0xbc0b2c42	-0.008494439
221	0x3a937bf5	0.0011252152
222	0xbca01047	-0.019539012
223	0xbb9bcb20	-0.004754439
224	0xbabce968	-0.0014412822
225	0xba323245	-0.0006797652
226	0xbbee4ec2	-0.0072725723
227	0xbc1df91b	-0.009641911
228	0x3c0b3648	0.008496828
229	0xbc4405c1	-0.011964262
230	0x3b9ae77f	0.0047273035
231	0x3c62b023	0.01383594
232	0xbba9e8ef	-0.0051852386
233	0xbb9c981c	-0.004778875
234	0x3cb7e799	0.022449302
235	0x3bd5f6b7	0.006529655
236	0xba8c67c7	-0.001071208
237	0xbc096a6f	-0.008387192
238	0x3b827113	0.0039807647
239	0xbb0902f8	-0.002090631
240	0xbc8b4f10	-0.017005473
241	0x3c27eacb	0.01024885
242	0x3b8e7d71	0.00434845
243	0x3b978474	0.004623944
244	0xbafc1bf2	-0.0019234403
245	0xbc6d021a	-0.014465833
246	0x3bea3237	0.0071470994
247	0xba0b1e53	-0.0005306948
248	0x3b1b249f	0.002367295
249	0xbb0e7c31	-0.0021741504
250	0xba22b844	-0.0006207267
251	0xbb673f63	-0.0035285584
252	0xbb304ab1	-0.0026899988
253	0x3a341777	0.00068699516
254	0xbc4b2fbb	-0.012401517
255	0xbbf8a887	-0.0075884494

network_body.linear_encoder.seq_layers.0.bias f4 [128]
0	0x00000000	0.0
1	0x00000000	0.0
2	0x00000000	0.0
3	0x00000000	0.0
4	0x00000000	0.0
5	0x00000000	0.0
6	0x00000000	0.0
7	0x00000000	0.0
8	0x00000000	0.0
9	0x00000000	0.0
10	0x00000000	0.0
11	0x00000000	0.0
12	0x00000000	0.0
13	0x00000000	0.0
14	0x00000000	0.0
15	0x00000000	0.0
16	0x00000000	0.0
17	0x00000000	0.0
18	0x00000000	0.0
19	0x00000000	0.0
20	0x00000000	0.0
21	0x00000000	0.0
22	0x00000000	0.0
23	0x00000000	0.0
24	0x00000000	0.0
25	0x00000000	0.0
26	0x00000000	0.0
27	0x00000000	0.0
28	0x00000000	0.0
29	0x00000000	0.0
30	0x00000000	0.0
31	0x00000000	0.0
32	0x00000000	0.0
33	0x00000000	0.0
34	0x00000000	0.0
35	0x00000000	0.0
36	0x00000000	0.0
37	0x00000000	0.0
38	0x00000000	0.0
39	0x00000000	0.0
40	0x00000000	0.0
41	0x00000000	0.0
42	0x00000000	0.0
43	0x00000000	0.0
44	0x00000000	0.0
45	0x00000000	0.0
46	0x00000000	0.0
47	0x00000000	0.0
48	0x00000000	0.0
49	0x00000000	0.0
50	0x00000000	0.0
51	0x00000000	0.0
52	0x00000000	0.0
53	0x00000000	0.0
54	0x00000000	0.0
55	0x00000000	0.0
56	0x00000000	0.0
57	0x00000000	0.0
58	0x00000000	0.0
59	0x00000000	0.0
60	0x00000000	0.0
61	0x00000000	0.0
62	0x00000000	0.0
63	0x00000000	0.0
64	0x00000000	0.0
65	0x00000000	0.0
66	0x00000000	0.0
67	0x00000000	0.0
68	0x00000000	0.0
69	0x00000000	0.0
70	0x00000000	0.0
71	0x00000000	0.0
72	0x00000000	0.0
73	0x00000000	0.0
74	0x00000000	0.0
75	0x00000000	0.0
76	0x00000000	0.0
77	0x00000000	0.0
78	0x00000000	0.0
79	0x00000000	0.0
80	0x00000000	0.0
81	0x00000000	0.0
82	0x00000000	0.0
83	0x00000000	0.0
84	0x00000000	0.0
85	0x00000000	0.0
86	0x00000000	0.0
87	0x00000000	0.0
88	0x00000000	0.0
89	0x00000000	0.0
90	0x00000000	0.0
91	0x00000000	0.0
92	0x00000000	0.0
93	0x00000000	0.0
94	0x00000000	0.0
95	0x00000000	0.0
96	0x00000000	0.0
97	0x00000000	0.0
98	0x00000000	0.0
99	0x00000000	0.0
100	0x00000000	0.0
101	0x00000000	0.0
102	0x00000000	0.0
103	0x00000000	0.0
104	0x00000000	0.0
105	0x00000000	0.0
106	0x00000000	0.0
107	0x00000000	0.0
108	0x00000000	0.0
109	0x00000000	0.0
110	0x00000000	0.0
111	0x00000000	0.0
112	0x00000000	0.0
113	0x00000000	0.0
114	0x00000000	0.0
115	0x00000000	0.0
116	0x00000000	0.0
117	0x00000000	0.0
118	0x00000000	0.0
119	0x00000000	0.0
120	0x00000000	0.0
121	0x00000000	0.0
122	0x00000000	0.0
123	0x00000000	0.0
124	0x00000000	0.0
125	0x00000000	0.0
126	0x00000000	0.0
127	0x00000000	0.0

network_body.linear_encoder.seq_layers.0.weight f4 [128, 1]
0	0xbecba8d0	-0.3977723
1	0x3e271d37	0.16319738
2	0x3f2aac10	0.66668797
3	0xbeaa20e6	-0.33228225
4	0x3f610fad	0.87914544
5	0x3ef6f34f	0.48232505
6	0xbed1c514	-0.4097067
7	0x3f4d02d8	0.80082464
8	0xbefeab0f	-0.49739882
9	0x3f903143	1.1265033
10	0x3fa2ed2b	1.2728628
11	0xbed193c5	-0.40933052
12	0xbf8ea236	-1.1143253
13	0xc01d5f39	-2.458937
14	0xbe9d91a3	-0.30775174
15	0xbf837c35	-1.027228
16	0x3ef451af	0.4771857
17	0x3f24c875	0.64368373
18	0x3ff859a0	1.9402351
19	0x3e4b91ba	0.19879809
20	0xbf29c0c2	-0.6630975
21	0x3e3cce09	0.18437971
22	0xbf3b3af9	-0.7313686
23	0xbf45309d	-0.77027303
24	0x3effa7e7	0.49932787
25	0xbdbee02f	-0.093201034
26	0xbfb9a428	-1.4503222
27	0xbeae0058	-0.33984637
28	0x3ee7f523	0.45304212
29	0x40111cbf	2.2673795
30	0xbd32e925	-0.043679375
31	0x3f9d817b	1.2305139
32	0x3f021eb3	0.50828093
33	0x3dabcc77	0.08388608
34	0xbe393667	-0.18087159
35	0xbedaeb7f	-0.42757794
36	0xbfabf748	-1.3434839
37	0xbfb08f4a	-1.3793728
38	0x3ee0a435	0.4387528
39	0xbeefa2c9	-0.46803883
40	0xbfa79162	-1.3091242
41	0x3fc7a122	1.5596049
42	0x4019b3d1	2.4016001
43	0x3f095f7b	0.53661317
44	0xbfe44a20	-1.7835121
45	0xbf149205	-0.5803531
46	0x3ecb79c7	0.39741346
47	0x3fa2abdf	1.2708701
48	0xbfa12f23	-1.259251
49	0xbd7fb6c9	-0.062430177
50	0x3f38dca3	0.72211665
51	0x3f0433bd	0.51641446
52	0x3fcb68a0	1.5891304
53	0x3f942b31	1.1575681
54	0xbe908934	-0.28229678
55	0xbf86b204	-1.0523076
56	0xc0345371	-2.8175929
57	0xbfa7e4ab	-1.3116659
58	0x3fbe9a40	1.4890823
59	0x3fe50673	1.7892593
60	0xbe4ca30a	-0.1998407
61	0xc044974d	-3.0717347
62	0xbeabce51	-0.33555844
63	0x3ebc5216	0.36781377
64	0x3edeb5a7	0.43497965
65	0xbf84410e	-1.0332353
66	0x3e8d0011	0.27539113
67	0x3eff91ed	0.4991602
68	0x3f8d7a35	1.105292
69	0x3f61eedb	0.8825509
70	0x3efc41b0	0.49268866
71	0x40079b50	2.1188545
72	0x3e12e896	0.14346537
73	0xbf4c7077	-0.7985911
74	0xbf3acd2f	-0.72969335
75	0x3f923d21	1.1424905
76	0xbdc89286	-0.09793572
77	0x3fa03622	1.251652
78	0x3eb42080	0.35181046
79	0x3f934b24	1.1507306
80	0xbf02a579	-0.5103374
81	0xbf8f7e1c	-1.121036
82	0xc01f4595	-2.488622
83	0x3fc50211	1.5391256
84	0x3fb0ff34	1.3827882
85	0x3e23f2a7	0.16010533
86	0xbed36b72	-0.41292912
87	0xbf671a32	-0.90274346
88	0x3f46455d	0.7744959
89	0xbe6344ac	-0.22194165
90	0x3f560d7b	0.8361432
91	0xbfff5afc	-1.9949641
92	0x3c7aed81	0.015315414
93	0xbf0a67d8	-0.54064703
94	0xc007e24a	-2.1231866
95	0xbf49972a	-0.78746283
96	0x3f24a0db	0.64307946
97	0xbfe6813c	-1.8008189
98	0x3f3c18e6	0.7347549
99	0xbf12ca20	-0.5733967
100	0x3e7f472a	0.2492949
101	0x3f056140	0.52101517
102	0xbd49c835	-0.049263198
103	0xbfa448cd	-1.2834717
104	0x3f0c9cb1	0.5492659
105	0x3eed9663	0.46403798
106	0x3ec7ad25	0.38999286
107	0xbf23ec33	-0.64032286
108	0x3e3cdcab	0.18443553
109	0xbe94a4da	-0.29032022
110	0x3fb3f3be	1.4058759
111	0x3f872572	1.0558302
112	0x3efe636f	0.49685237
113	0xbe617773	-0.22018223
114	0x3faa3dd2	1.3300116
115	0xbe0efac2	-0.13962844
116	0xbea6a07c	-0.32544315
117	0xbe796fe2	-0.24359086
118	0xbf31014f	-0.6914262
119	0xbb3bc183	-0.0028649278
120	0x3ecd67d3	0.40118274
121	0x3f11b33a	0.56914103
122	0xbeee1bfd	-0.46505728
123	0x3fd7f5cd	1.6871887
124	0xc003c8d1	-2.0591319
125	0xbf9fc113	-1.2480797
126	0x3ef3ec1b	0.47641072
127	0xbf9822f8	-1.1885672

network_body.linear_encoder.seq_layers.2.bias f4 [128]
0	0x00000000	0.0
1	0x00000000	0.0
2	0x00000000	0.0
3	0x00000000	0.0
4	0x00000000	0.0
5	0x00000000	0.0
6	0x00000000	0.0
7	0x00000000	0.0
8	0x00000000	0.0
9	0x00000000	0.0
10	0x00000000	0.0
11	0x00000000	0.0
12	0x00000000	0.0
13	0x00000000	0.0
14	0x00000000	0.0
15	0x00000000	0.0
16	0x00000000	0.0
17	0x00000000	0.0
18	0x00000000	0.0
19	0x00000000	0.0
20	0x00000000	0.0
21	0x00000000	0.0
22	0x00000000	0.0
23	0x00000000	0.0
24	0x00000000	0.0
25	0x00000000	0.0
26	0x00000000	0.0
27	0x00000000	0.0
28	0x00000000	0.0
29	0x00000000	0.0
30	0x00000000	0.0
31	0x00000000	0.0
32	0x00000000	0.0
33	0x00000000	0.0
34	0x00000000	0.0
35	0x00000000	0.0
36	0x00000000	0.0
37	0x00000000	0.0
38	0x00000000	0.0
39	0x00000000	0.0
40	0x00000000	0.0
41	0x00000000	0.0
42	0x00000000	0.0
43	0x00000000	0.0
44	0x00000000	0.0
45	0x00000000	0.0
46	0x00000000	0.0
47	0x00000000	0.0
48	0x00000000	0.0
49	0x00000000	0.0
50	0x00000000	0.0
51	0x00000000	0.0
52	0x00000000	0.0
53	0x00000000	0.0
54	0x00000000	0.0
55	0x00000000	0.0
56	0x00000000	0.0
57	0x00000000	0.0
58	0x00000000	0.0
59	0x00000000	0.0
60	0x00000000	0.0
61	0x00000000	0.0
62	0x00000000	0.0
63	0x00000000	0.0
64	0x00000000	0.0
65	0x00000000	0.0
66	0x00000000	0.0
67	0x00000000	0.0
68	0x00000000	0.0
69	0x00000000	0.0
70	0x00000000	0.0
71	0x00000000	0.0
72	0x00000000	0.0
73	0x00000000	0.0
74	0x00000000	0.0
75	0x00000000	0.0
76	0x00000000	0.0
77	0x00000000	0.0
78	0x00000000	0.0
79	0x00000000	0.0
80	0x00000000	0.0
81	0x00000000	0.0
82	0x00000000	0.0
83	0x00000000	0.0
84	0x00000000	0.0
85	0x00000000	0.0
86	0x00000000	0.0
87	0x00000000	0.0
88	0x00000000	0.0
89	0x00000000	0.0
90	0x00000000	0.0
91	0x00000000	0.0
92	0x00000000	0.0
93	0x00000000	0.0
94	0x00000000	0.0
95	0x00000000	0.0
96	0x00000000	0.0
97	0x00000000	0.0
98	0x00000000	0.0
99	0x00000000	0.0
100	0x00000000	0.0
101	0x00000000	0.0
102	0x00000000	0.0
103	0x00000000	0.0
104	0x00000000	0.0
105	0x00000000	0.0
106	0x00000000	0.0
107	0x00000000	0.0
108	0x00000000	0.0
109	0x00000000	0.0
110	0x00000000	0.0
111	0x00000000	0.0
112	0x00000000	0.0
113	0x00000000	0.0
114	0x00000000	0.0
115	0x00000000	0.0
116	0x00000000	0.0
117	0x00000000	0.0
118	0x00000000	0.0
119	0x00000000	0.0
120	0x00000000	0.0
121	0x00000000	0.0
122	0x00000000	0.0
123	0x00000000	0.0
124	0x00000000	0.0
125	0x00000000	0.0
126	0x00000000	0.0
127	0x00000000	0.0

network_body.linear_encoder.seq_layers.2.weight f4 [128, 128]
0	0xbda78a1f	-0.081806414
1	0xbe1c3f0d	-0.15258427
2	0xbc040d63	-0.008059832
3	0xbcba5fb8	-0.02275072
4	0xbd75df86	-0.06002762
5	0xbd291e60	-0.041288733
6	0x3de3deb2	0.1112646
7	0xbcbbb1cd	-0.02291193
8	0x3dcca24c	0.09991893
9	0x3daf5d94	0.085627705
10	0x3d3b6dbe	0.045758955
11	0x3d862b4a	0.065512255
12	0xbc6f5a8b	-0.0146089895
13	0x3da110a0	0.07864499
14	0x3ce43edd	0.027862007
15	0xbd89f4d6	-0.06736152
16	0x3dc76a52	0.09737076
17	0x3d5e143f	0.054218527
18	0xbc91b9dd	-0.017788822
19	0x3d89818e	0.06714164
20	0xbdaa6019	-0.083191104
21	0x3d81a19a	0.06329651
22	0x3d702af0	0.0586347
23	0xbe4ab5d6	-0.19795927
24	0xbb85ea66	-0.0040867804
25	0x3d901bb2	0.070365325
26	0xbc01c973	-0.007921564
27	0xbd2def44	-0.04246451
28	0xbc0a6455	-0.008446773
29	0xbdb0264c	-0.086010545
30	0x3b690fc1	0.0035562369
31	0xbd9ba2ca	-0.07599409
32	0x3ceb03ba	0.0286883
33	0xbc897e11	-0.016783746
34	0x3d896565	0.067087926
35	0x3d8f3c16	0.06993882
36	0x3d3bf414	0.045887068
37	0xbdcf648b	-0.10126599
38	0xbce3344e	-0.027734902
39	0x3e339d52	0.17540482
40	0xbcd3eb30	-0.025868982
41	0xbc0e71a1	-0.008694083
42	0x3d617dfd	0.055051792
43	0xbd9a5a87	-0.07536798
44	0x3d7846c6	0.06061437
45	0x3c8d29a1	0.017231764
46	0xbe0da534	-0.13832551
47	0x3e1790c6	0.1480132
48	0x3d85ac48	0.06527001
49	0xbe71cda2	-0.23613599
50	0x3d807024	0.06271389
51	0xbc5a27b8	-0.013315134
52	0xbe33e41b	-0.17567484
53	0xbda1e9dc	-0.07905933
54	0x3d9dd58b	0.07706746
55	0x3e351e58	0.17687356
56	0x3dc43f98	0.09582442
57	0x3d0020d4	0.031281307
58	0xbd85f900	-0.065416336
59	0xbdb1a5f8	-0.08674234
60	0xbe158dc0	-0.14604855
61	0xbcd79bd9	-0.026319431
62	0xbd117fbe	-0.035522215
63	0xbd0aba9a	-0.033869363
64	0x3e495edb	0.1966509
65	0xbd4f3210	-0.050584853
66	0xbd3282ae	-0.043581657
67	0xbda0b6ac	-0.07847342
68	0xbd00aad6	-0.03141292
69	0xbc36ca5b	-0.011156644
70	0xbcfc750c	-0.030817531
71	0x3de018c4	0.10942224
72	0xbd849812	-0.064743176
73	0x3e25b4cf	0.16182254
74	0xbe0f78b2	-0.14010885
75	0x3de59efc	0.112119645
76	0x3cc3d99b	0.023907473
77	0xbd7d115e	-0.06178414
78	0xbd9d38ea	-0.07676871
79	0x3d06e790	0.03293568
80	0xbe0d88cd	-0.13821717
81	0xbd9fe9ed	-0.0780829
82	0xbd2e1ed4	-0.04250987
83	0xbc9172c7	-0.017754925
84	0x3cc72452	0.024309311
85	0x3d702ad1	0.058634583
86	0x3df3e8cc	0.11909637
87	0x3e208d7d	0.15678973
88	0x3dcec2e1	0.10095764
89	0x3df5e55d	0.12006638
90	0x3bba2e5f	0.0056817974
91	0x3e0ac425	0.13551386
92	0xbc0c1072	-0.008548843
93	0xbb95f714	-0.004576573
94	0x3d73211a	0.05935774
95	0x3df76e18	0.120815456
96	0x3cbb4356	0.022859257
97	0xbddd50a0	-0.108063936
98	0x3d6065e7	0.05478468
99	0xbdab8060	-0.08374095
100	0x3c4be1ed	0.012444002
101	0xba4cfc74	-0.0007819601
102	0xbc486ee3	-0.012233469
103	0xbdfe1f70	-0.1240834
104	0xbe2ccd25	-0.16875131
105	0xbe12bc44	-0.1432963
106	0xbde834a2	-0.11338164
107	0x3d91dcc9	0.071221896
108	0x3e0b7350	0.13618207
109	0xbc5a583b	-0.0133267
110	0x3e2ded37	0.16985022
111	0xbe03a335	-0.12855227
112	0xbde2eac0	-0.11079931
113	0xbd460aaa	-0.048350014
114	0xbb9117e5	-0.0044278973
115	0x3e2035d1	0.1564553
116	0x3c8b3d8e	0.016997125
117	0xbdb8b527	-0.09018927
118	0x3dd4e047	0.1039434
119	0x3db973c7	0.09055286
120	0x3cd801fb	0.026368132
121	0x3d456bcb	0.048198503
122	0xbda1a8e5	-0.07893542
123	0x3c7f221b	0.015572096
124	0xbcd84020	-0.026397765
125	0x3d990c1e	0.07473014
126	0x3d93dcc4	0.07219842
127	0x3d411017	0.047134485
128	0x3da2b1e7	0.079440884
129	0x3d4b64c9	0.049656663
130	0xbc5cfa00	-0.013487339
131	0xbc9c8b2a	-0.019109327
132	0x3dc24704	0.094862014
133	0xba861201	-0.0010228754
134	0x3d8f8f4f	0.07009756
135	0xbe10693b	-0.14102642
136	0x3d80f10e	0.062959775
137	0x3d3b62cd	0.04574852
138	0x3dd18085	0.10229591
139	0xbdee82b5	-0.11646024
140	0xbe2cd6a6	-0.16878757
141	0xbe09564b	-0.13411824
142	0xbe619a7d	-0.22031589
143	0xbb4859f6	-0.00305712
144	0xbd6620e3	-0.056183707
145	0x3e4774b7	0.19478117
146	0xbd79174f	-0.060813244
147	0x3dc30881	0.09523106
148	0x3e159e60	0.14611197
149	0xbe7e0916	-0.24808154
150	0x3caa9899	0.020824717
151	0xbd37c476	-0.044865094
152	0x3cbf0793	0.023319041
153	0x3d674d15	0.056469996
154	0xbe280e41	-0.16411687
155	0xbdf547a8	-0.11976558
156	0xbe2195b6	-0.15779766
157	0x3caa6253	0.020798838
158	0x3c0502bd	0.008118329
159	0xbd1ecc11	-0.03876883
160	0x3cecd89c	0.028911881
161	0xbd0a3f3b	-0.033751708
162	0x3be486be	0.0069740703
163	0xbc96a7f8	-0.01839064
164	0xbd918a57	-0.07106464
165	0xbd1a2e40	-0.037641764
166	0x3ba236ef	0.0049503963
167	0xbca75975	-0.020428399
168	0xbe15eae7	-0.1464039
169	0x3d9f1896	0.07768361
170	0x3dc54761	0.09632755
171	0xbd90cb21	-0.07069994
172	0x3dc69004	0.096954376
173	0xbe3e6a6d	-0.18595286
174	0xbda83541	-0.082132824
175	0xbd29163f	-0.04128098
176	0xbcae1b0f	-0.021253137
177	0x3dc97391	0.09836496
178	0xbd73b4d9	-0.05949864
179	0xbda0e76c	-0.0785664
180	0x3db42383	0.08795836
181	0xbd588cb5	-0.052868564
182	0x3d82c4a1	0.0638516
183	0xbd84c3ac	-0.06482634
184	0xbcf4c113	-0.029877221
185	0x3e3c75d0	0.18404317
186	0x3e2a0923	0.16605048
187	0x3e20e89c	0.15713733
188	0x3d33de0f	0.043912943
189	0xbc9dbb89	-0.019254463
190	0xbac8ce74	-0.0015320317
191	0x3cc22aac	0.023701988
192	0xbcc486d0	-0.023990065
193	0x3e0c3749	0.13692965
194	0x3d088560	0.03333032
195	0x3e0fec12	0.14054897
196	0xbd42475c	-0.047431335
197	0xbcaf704b	-0.02141585
198	0xbd22ba96	-0.039728723
199	0xbde3ff47	-0.11132675
200	0x3d49918e	0.049211077
201	0xbd079cfd	-0.0331087
202	0xbc553677	-0.013013474
203	0xbdf957ac	-0.12174925
204	0xbacb6a08	-0.0015519271
205	0x3e04c161	0.12964393
206	0x3c355f0e	0.011070026
207	0xbd31dc81	-0.04342318
208	0xbdb0f217	-0.08639925
209	0xbcbe6828	-0.023243025
210	0x3daa4183	0.083132766
211	0xbdc73579	-0.09726996
212	0x3b5bf6a5	0.003356376
213	0x3c7597eb	0.014989833
214	0xbdf89a2e	-0.121387824
215	0x3db454bc	0.08805224
216	0x3dd7c55d	0.10535691
217	0x3aa6857d	0.0012704578
218	0x3d335e1c	0.04379092
219	0xbbe195de	-0.0068843206
220	0xbdf5d578	-0.120036066
221	0xbc8f3295	-0.017480174
222	0x3d3e6b51	0.046489064
223	0x3d2eecd0	0.04270631
224	0xbd261274	-0.040544942
225	0xbcfc1d8d	-0.03077581
226	0x3d9d4c8e	0.07680617
227	0x3d1df3ad	0.038562465
228	0xbe54c831	-0.20779492
229	0x3e034ee7	0.12823068
230	0x3d4ce111	0.050019328
231	0x3bec4905	0.007210853
232	0x3d9f079a	0.07765122
233	0xbe030bf9	-0.12797536
234	0x3bde5d0d	0.006785995
235	0xbdc66d23	-0.09688785
236	0xbe618ede	-0.22027156
237	0xbc8f4008	-0.017486587
238	0xbd986104	-0.07440379
239	0x3e5b1a29	0.21396698
240	0xbd8cd430	-0.06876409
241	0x3d939115	0.072054066
242	0x3dd74bd7	0.10512512
243	0xbd46bebe	-0.04852175
244	0x3e1197b9	0.14218034
245	0x3e59f55c	0.21285003
246	0xbcb2bf91	-0.021819862
247	0x3c88b0da	0.016685892
248	0xbd8cd846	-0.068771884
249	0xbd131600	-0.035909653
250	0xbe3dd28a	-0.18537346
251	0xbe48796e	-0.19577572
252	0x3d7caf6a	0.061690725
253	0x3e4326a8	0.19057715
254	0x3dfc6f2b	0.12325891
255	0xbdf70ea4	-0.12063339
