Unity/results/ppo/My Behavior/My Behavior-7818.onnx (onnx, 72892 bytes, 7 tensors)

action_model._continuous_distribution.log_sigma f4 [1, 2]
0.0 0.0
00000000: 0000 0000 0000 0000

action_model._continuous_distribution.mu.bias f4 [2]
0.0 0.0
00000000: 0000 0000 0000 0000

action_model._continuous_distribution.mu.weight f4 [2, 128]
0.016818708 -0.0072044097 0.013955983 0.017707748 -0.008314485 0.01108937 0.022728896 0.0045115533
-0.008054094 -0.014448817 -0.02167922 0.0044226227 -0.0059130457 -0.006001844 0.008865167 -0.007907233
-0.0044283653 0.0053154356 0.037636723 0.03156355 0.019857941 -0.018597448 0.0012988978 0.009979541
-0.0016367575 0.028451735 -0.0127033815 0.013061463 0.053959787 0.011897625 -0.0031455685 0.013345027
0.014306188 -0.011933136 -0.021034209 0.012875392 0.015375941 -0.02502634 0.015491219 -0.022273941
0.007449966 0.0032894507 -0.019930681 0.021506552 -0.020083483 -0.030069945 -0.018198185 -0.0075993314
0.03432485 0.011590903 0.026909733 -0.014926769 -0.01520208 -0.0036873294 0.009525935 -0.014813612
0.0039307354 -0.015549677 0.024979098 -0.041220125 0.002319833 -0.025086466 0.008316 0.035708893
0.034859605 -0.0275267 -0.0038571719 -0.001494855 0.008788416 -0.00417799 -0.022360915 0.04763487
-0.0048443913 -0.020170076 -0.0041782493 0.0021365432 0.01617107 -0.000523071 -0.016027812 -0.004079123
-0.043488424 -2.6206026e-05 -0.0025017634 0.029522706 -0.00067311124 0.025958566 -0.042615887 -0.0030938245
0.012763095 0.011716629 0.006022521 -0.012579337 0.021879107 0.007953849 0.021524096 0.0067614727
0.016017722 -0.01622073 -0.003586029 0.0019151217 -0.0039692284 0.00548887 0.0020387035 -0.005280843
0.0015544979 0.029396668 -0.022798944 0.0115985265 0.011442048 -0.014493856 0.035478063 0.0023030282
-0.013062392 0.017199354 0.015513429 0.008121418 -0.011437103 0.011761489 0.014460861 -0.0009197527
-0.026984757 -0.007376016 -0.011172493 0.013812936 -0.010824359 0.019925697 0.023477152 0.030570686
0.0064460817 -0.02076687 -0.0095728515 -0.024578284 -0.0072882785 0.004913246 0.0075266357 0.008030706
0.021903679 -0.0027760514 -0.031137316 0.023360943 0.012579577 0.032238405 -0.0025576556 -0.009002321
-0.017022125 -0.04205984 -0.0146978265 0.006861744 -0.012983459 0.0011697112 -0.01162386 -0.00092565856
-0.005913572 -0.0064533525 0.0067121917 -0.024391593 -0.01738112 -0.0118237585 -0.0028776703 0.029464388
-0.013222274 0.018802293 0.023002591 0.022289192 -0.022942577 0.002605479 0.022974357 -0.02253557
-0.03853434 0.01926699 0.030326644 0.043530073 0.01567602 -0.04710903 0.008419502 0.018055093
0.0311328 0.03428771 -0.011117653 0.004262194 0.024827778 -0.04798106 0.01809504 0.027600557
-0.003860519 0.009428303 0.012605405 0.019440347 0.013503857 -0.034692284 0.01305744 0.009194708
0.027149027 0.028091654 -0.016372709 -0.011555597 -0.01791667 -0.011558277 0.021917898 0.02807012
-0.008928233 -0.012992146 -0.023697853 -2.495371e-05 0.029473184 0.004753915 -0.03163611 -0.015521479
-0.001309021 -0.00061129004 -0.008693161 0.016141258 -0.027879631 -0.01234296 0.008624724 0.0146298325
0.014215563 0.00042179474 -0.017096838 0.0063796677 0.02374777 -0.011125436 0.024749253 -0.0034439806
-0.035441533 -0.006373055 0.002143734 -0.014991688 -0.0027112456 0.035457395 -0.015382612 0.030114045
-0.020595307 -0.017475776 -0.013528399 0.010424027 -0.015196514 -0.004088478 -0.0033547895 -0.0017634716
-0.00063884346 0.008313593 0.035081986 -0.0078259045 -0.0030221003 0.0038414367 -0.0077965767 -0.00038168766
-0.024155822 -0.0038948418 -0.005479691 -0.009797986 0.030961199 -0.0051286262 -0.005752289 -0.0089873895
00000000: 63c7 893c f812 ecbb a3a7 643c d70f 913c
00000010: 7a39 08bc 30b0 353c f331 ba3c a7d5 933b
00000020: 52f5 03bc bbba 6cbc 9f98 b1bc a6eb 903b
00000030: 39c2 c1bb 1eab c4bb 353f 113c 578d 01bc
00000040: d21b 91bb 1b2d ae3b f728 1a3d c848 013d
00000050: 1fad a23c ad59 98bc c73f aa3a 3b81 233c
00000060: 7888 d6ba 9d13 e93c d821 50bc bfff 553c
00000070: f004 5d3d 42ee 423c e225 4ebb 1aa5 5a3c
00000080: 8064 6a3c 3383 43bc ef4f acbc 4ff3 523c
00000090: 5feb 7b3c 0a04 cdbc e2ce 7d3c d777 b6bc
000000a0: d81e f43b d393 573b ab45 a3bc 822e b03c
000000b0: 1e86 a4bc 3f55 f6bc 5c14 95bc d003 f9bb
000000c0: 3798 0c3d c5e7 3d3c cd71 dc3c 688f 74bc
000000d0: 2512 79bc 1fa7 71bb ab12 1c3c cbb4 72bc
000000e0: 66cd 803b 13c4 7ebc f7a0 cc3c 6fd6 28bd
000000f0: 5708 183b 2282 cdbc d53f 083c 7d43 123d
00000100: f2c8 0e3d ad7f e1bc 9bc8 7cbb 03ef c3ba
00000110: 4afd 0f3c 85e7 88bb 3d2e b7bc c81c 433d
00000120: b3bd 9ebb b73b a5bc b2e9 88bb 3f05 0c3b
00000130: 3179 843c b31e 09ba c24c 83bc 2aaa 85bb
00000140: eb20 32bd 03d5 dbb7 a0f4 23bb 9ad9 f13c
00000150: bb73 30ba 0fa7 d43c ff8d 2ebd c3c1 4abb
00000160: 4d1c 513c 1bf7 3f3c 9158 c53b 9019 4ebc
00000170: d03b b33c dc50 023c 4d53 b03c 588f dd3b
00000180: 9937 833c 56e1 84bc 9503 6bbb d204 fb3a
00000190: 4d10 82bb fbdb b33b c59b 053b ec0a adbb
000001a0: 4bc0 cb3a 48d1 f03c dac4 babc bf07 3e3c
000001b0: 6d77 3b3c a377 6dbc 7251 113d 67ee 163b
000001c0: a503 56bc a9e5 8c3c 0a2c 7e3c b20f 053c
000001d0: b062 3bbc 43b3 403c 3fed 6c3c 8f1b 71ba
000001e0: 230f ddbc 82b2 f1bb d50c 37bc a74f 623c
000001f0: a758 31bc 373b a33c 2853 c03c 606f fa3c
00000200: a739 d33b 481f aabc 73d7 1cbc 6658 c9bc
00000210: 83d2 eebb 4bff a03b ffa1 f63b 3993 033c
00000220: 586f b33c 6aee 35bb af13 ffbc 735f bf3c
00000230: 921a 4e3c 6b0c 043d 579e 27bb 797e 13bc
00000240: fc71 8bbc f046 2cbd 27cf 70bc 7bd8 e03b
00000250: 93b8 54bc ff50 993a 0172 3ebc e5a7 72ba
00000260: a3c6 c1bb a576 d3bb f2f1 db3b e1d0 c7bc
00000270: da62 8ebc 70b8 41bc 4c97 3cbb 4d5f f13c
00000280: 3da2 58bc 4407 9a3c ee6f bc3c d397 b63c
00000290: 12f2 bbbc afc0 2a3b b834 bc3c 849c b8bc
000002a0: 2fd6 1dbd ced5 9d3c 956f f83c 974c 323d
000002b0: ff6a 803c 66f5 40bd f3f1 093c 46e8 933c
000002c0: 370a ff3c 4571 0c3d d126 36bc e0a9 8b3b
000002d0: a063 cb3c ca87 44bd 0d3c 943c 901a e23c
000002e0: c300 7dbb 2b79 1a3c e786 4e3c 5d41 9f3c
000002f0: 483f 5d3c 7f19 0ebd dfee 553c 67a5 163c
00000300: a367 de3c 7820 e63c 0f20 86bc b053 3dbc
00000310: fbc5 92bc ed5e 3dbc 2a8d b33c 4ff3 e53c
00000320: b947 12bc 03dd 54bc 0022 c2bc af53 d1b7
00000330: bf71 f13c bbc6 9b3b de94 01bd cd4d 7ebc
00000340: 7593 abba fb3e 20ba c36d 0ebc ac3a 843c
00000350: d363 e4bc 203a 4abc b74e 0d3c f7b1 6f3c
00000360: 65e8 683c 5524 dd39 ab0e 8cbc 880c d13b
00000370: af8a c23c 7647 36bc f2be ca3c 68b4 61bb
00000380: 242b 11bd 0fd5 d0bb e37d 0c3b b29f 75bc
00000390: 27af 31bb c63b 113d 5a07 7cbc bbb1 f63c
000003a0: 7db7 a8bc 5c29 8fbc 38a6 5dbc 8ac9 2a3c
000003b0: cdfa 78bc a4f8 85bb 07dc 5bbb 4a24 e7ba
000003c0: 0f78 27ba bd35 083c 21b2 0f3d 3938 00bc
000003d0: 6e0e 46bb 9dc0 7b3b 6d7a ffbb 401d c8b9
000003e0: 6ee2 c5bc 9a40 7fbb fb8e b3bb bb87 20bc
000003f0: 57a2 fd3c 090e a8bb b37d bcbb d83f 13bc

network_body.linear_encoder.seq_layers.0.bias f4 [128]
0.0 0.0 0.0 0.0 0.0 0.0 0.0 0.0
0.0 0.0 0.0 0.0 0.0 0.0 0.0 0.0
0.0 0.0 0.0 0.0 0.0 0.0 0.0 0.0
0.0 0.0 0.0 0.0 0.0 0.0 0.0 0.0
0.0 0.0 0.0 0.0 0.0 0.0 0.0 0.0
0.0 0.0 0.0 0.0 0.0 0.0 0.0 0.0
0.0 0.0 0.0 0.0 0.0 0.0 0.0 0.0
0.0 0.0 0.0 0.0 0.0 0.0 0.0 0.0
0.0 0.0 0.0 0.0 0.0 0.0 0.0 0.0
0.0 0.0 0.0 0.0 0.0 0.0 0.0 0.0
0.0 0.0 0.0 0.0 0.0 0.0 0.0 0.0
0.0 0.0 0.0 0.0 0.0 0.0 0.0 0.0
0.0 0.0 0.0 0.0 0.0 0.0 0.0 0.0
0.0 0.0 0.0 0.0 0.0 0.0 0.0 0.0
0.0 0.0 0.0 0.0 0.0 0.0 0.0 0.0
0.0 0.0 0.0 0.0 0.0 0.0 0.0 0.0
00000000: 0000 0000 0000 0000 0000 0000 0000 0000
00000010: 0000 0000 0000 0000 0000 0000 0000 0000
00000020: 0000 0000 0000 0000 0000 0000 0000 0000
00000030: 0000 0000 0000 0000 0000 0000 0000 0000
00000040: 0000 0000 0000 0000 0000 0000 0000 0000
00000050: 0000 0000 0000 0000 0000 0000 0000 0000
00000060: 0000 0000 0000 0000 0000 0000 0000 0000
00000070: 0000 0000 0000 0000 0000 0000 0000 0000
00000080: 0000 0000 0000 0000 0000 0000 0000 0000
00000090: 0000 0000 0000 0000 0000 0000 0000 0000
000000a0: 0000 0000 0000 0000 0000 0000 0000 0000
000000b0: 0000 0000 0000 0000 0000 0000 0000 0000
000000c0: 0000 0000 0000 0000 0000 0000 0000 0000
000000d0: 0000 0000 0000 0000 0000 0000 0000 0000
000000e0: 0000 0000 0000 0000 0000 0000 0000 0000
000000f0: 0000 0000 0000 0000 0000 0000 0000 0000
00000100: 0000 0000 0000 0000 0000 0000 0000 0000
00000110: 0000 0000 0000 0000 0000 0000 0000 0000
00000120: 0000 0000 0000 0000 0000 0000 0000 0000
00000130: 0000 0000 0000 0000 0000 0000 0000 0000
00000140: 0000 0000 0000 0000 0000 0000 0000 0000
00000150: 0000 0000 0000 0000 0000 0000 0000 0000
00000160: 0000 0000 0000 0000 0000 0000 0000 0000
00000170: 0000 0000 0000 0000 0000 0000 0000 0000
00000180: 0000 0000 0000 0000 0000 0000 0000 0000
00000190: 0000 0000 0000 0000 0000 0000 0000 0000
000001a0: 0000 0000 0000 0000 0000 0000 0000 0000
000001b0: 0000 0000 0000 0000 0000 0000 0000 0000
000001c0: 0000 0000 0000 0000 0000 0000 0000 0000
000001d0: 0000 0000 0000 0000 0000 0000 0000 0000
000001e0: 0000 0000 0000 0000 0000 0000 0000 0000
000001f0: 0000 0000 0000 0000 0000 0000 0000 0000

network_body.linear_encoder.seq_layers.0.weight f4 [128, 6]
-0.14278986 0.05533866 -0.81750333 0.6092066 0.24325864 0.050399583 0.23739947 -0.015776888
0.3084982 -0.1038104 0.7224142 0.40730938 -0.30432618 -0.861142 -0.023365488 -0.655611
-0.42352396 0.20658208 -1.2877129 -0.80155516 -0.05111116 0.58869463 0.3530833 -0.13289155
-0.58008814 0.2888909 0.35379353 -0.45476362 0.45246795 0.5109505 0.05683763 0.8079216
0.025824578 0.14070338 -0.25344142 -0.050419167 0.4254014 0.107103504 -0.081414394 0.71002567
-0.18036331 -0.2724523 -1.3302815 -0.41640386 -0.25099996 -0.85201585 0.3915947 -0.4040394
0.15993778 0.4892328 0.6979382 -0.26627135 0.06357074 1.1360737 -0.22364852 0.47478893
0.4853142 -0.022512097 0.06227452 -0.31605858 0.61132973 -0.32590657 -0.46640944 -0.41367352
0.3447639 -0.016742641 0.4642044 -0.56203586 0.070218265 -0.19308987 -0.073494546 -0.7912413
-0.06202164 0.110418044 0.07616306 0.04591865 -0.019248951 0.3618096 0.180293 0.70653987
-0.42053768 -0.124032535 0.33821905 -0.31639835 -0.65328985 -0.20215032 0.24781105 0.06915868
-0.34828857 -0.1455689 0.13343722 -0.033525117 0.13406973 0.33818975 -0.4201252 0.6066043
-0.18109739 -0.0660769 0.25034666 0.38587895 -0.45084667 -0.38486862 -0.5145017 -0.18532366
-0.36469707 -0.5514179 0.20880003 0.041253388 0.26666245 0.17231636 -0.13238963 0.34967846
0.18111466 0.37332365 -0.19746059 -0.2517545 -0.19507186 -0.24115252 0.89750445 -0.42209965
-0.4448086 0.27735838 0.039142586 -0.26738456 -0.0037575988 0.31747225 -0.1642751 -0.16887686
-0.15900597 0.81551504 0.4684524 1.0124197 0.19190264 0.17353737 0.3705994 0.22534892
0.8463512 -0.009345928 0.44681013 -0.656367 0.69795084 -0.005150708 0.19020863 -0.64453727
-0.31796566 0.2049606 -0.23074317 0.13101792 -0.1894122 0.09897617 -0.4569039 0.75239754
0.0414181 0.32865596 0.22860998 -0.34544832 -0.75865966 -0.14234543 0.11035089 0.655844
-0.23193572 -0.052112978 0.30648866 1.3790913 0.101283096 0.086128175 -0.2145703 -0.16320282
0.044002015 -0.061727643 -0.25409082 0.050959922 0.18560614 -0.313949 0.3728443 0.20504299
0.47944048 0.2967026 0.13766205 0.69174546 -0.24301787 0.51694006 0.23125371 0.54027927
-0.2587316 -0.539598 0.034390848 -0.5810503 -0.0792581 0.9681191 -0.013182589 0.05942575
-0.47920668 -0.016443854 -0.04648929 0.28861603 -0.12697047 -0.38682568 0.614699 -0.44922787
0.09800657 -0.5212962 0.013741087 0.038713735 0.004907573 0.5947471 0.099598944 -0.5990464
0.424425 -0.14903487 -0.25780815 0.28288716 -0.47462463 -0.3714267 -0.10445098 0.6374263
0.35091048 -0.08880763 -0.056851104 -0.3821878 0.24096541 0.16645616 0.494902 -0.23528261
-0.5060196 0.079923496 -0.5364812 -0.030498547 0.13895303 0.3453559 0.9325893 0.079249054
0.43006775 0.2643064 -0.071180016 -0.4788394 -0.3403469 -1.0425925 0.21633075 -0.44417575
-0.07176632 -0.2887977 0.059672907 0.8259934 0.81960344 0.14428812 0.17977864 0.16654049
0.51812893 -0.01312381 0.5741116 -0.34471765 0.023989247 0.09574058 -0.30087906 0.72154474
00000000: 8137 12be caaa 623d e647 51bf f7f4 1b3f
00000010: cb18 793e cb6f 4e3d d918 733e 883e 81bc
00000020: 7af3 9d3e 8c9a d4bd 23f0 383f db8a d03e
00000030: a4d0 9bbe cd73 5cbf fb68 bfbc 1fd6 27bf
00000040: 22d8 d8be 418a 533e c7d3 a4bf b832 4dbf
00000050: f059 51bd b1b4 163f 56c7 b43e b914 08be
00000060: a880 14bf 82e9 933e 6d24 b53e c7d6 e8be
00000070: e1a9 e73e a7cd 023f 93ce 683d f3d3 4e3f
00000080: 118e d33c 8c14 103e 13c3 81be 5484 4ebd
00000090: 36ce d93e 1559 db3d 97bc a6bd 3ec4 353f
000000a0: 29b1 38be de7e 8bbe aa46 aabf e332 d5be
000000b0: 1183 80be b61d 5abf 1a7f c83e 41de cebe
000000c0: bbc6 233e b97c fa3e 14ac 323f b854 88be
000000d0: 6031 823d dd6a 913f 1e04 65be 8917 f33e
000000e0: 1a7b f83e 4a6b b8bc 9113 7f3d 6ed2 a1be
000000f0: 1b80 1c3f 3add a6be 38cd eebe 04cd d3be
00000100: e584 b03e dd27 89bc 33ac ed3e 95e1 0fbf
00000110: 98ce 8f3d 5ab9 45be 4f84 96bd ca8e 4abf
00000120: 670a 7ebd db22 e23d 61fb 9b3d 3215 3c3d
00000130: faaf 9dbc 1c3f b93e ba9e 383e ccdf 343f
00000140: b750 d7be c504 febd 0c2b ad3e f7fe a1be
00000150: 013e 27bf 7e00 4fbe 2ec2 7d3e 11a3 8d3d
00000160: e152 b2be 0410 15be c4a3 083e a251 09bd
00000170: 9349 093e 3527 ad3e a61a d7be 6b4a 1b3f
00000180: 9871 39be 5353 87bd 702d 803e ed91 c53e
00000190: 60d5 e6be 800d c5be 62b6 03bf 7cc5 3dbe
000001a0: 93b9 babe b929 0dbf adcf 553e 50f9 283d
000001b0: fb87 883e b373 303e 2691 07be 0e09 b33e
000001c0: 1f76 393e 4724 bf3e 1c33 4abe f7e5 80be
000001d0: ebc0 47be b0f0 76be dac2 653f 721d d8be
000001e0: f4bd e3be eb01 8e3e fa53 203d a1e6 88be
000001f0: 0c42 76bb b98b a23e bb37 28be 0eee 2cbe
00000200: 76d2 22be 98c5 503f fed8 ef3e f896 813f
00000210: 2082 443e c8b3 313e 34bf bd3e dec1 663e
00000220: 79aa 583f aa1f 19bc 4cc4 e43e ab07 28bf
00000230: e8ac 323f 45c7 a8bb 0dc6 423e 6500 25bf
00000240: 65cc a2be 31e1 513e f047 6cbe 9029 063e
00000250: 46f5 41be 05b4 ca3d 4fef e9be 209d 403f
00000260: 07a6 293d 9845 a83e bc18 6a3e 9ade b0be
00000270: 8537 42bf 00c3 11be a6ff e13d 64e5 273f
00000280: 8f80 6dbe 6b74 55bd 15ec 9c3e 1086 b03f
00000290: 836d cf3d f863 b03d 51b8 5bbe a41e 27be
000002a0: 753b 343d 20d6 7cbd 3118 82be 5abb 503d
000002b0: 890f 3e3e ecbd a0be 73e5 be3e caf6 513e
000002c0: 3979 f53e 67e9 973e 48f7 0c3e 3b16 313f
000002d0: add9 78be 2f56 043f c6cd 6c3e be4f 0a3f
000002e0: 7878 84be 1823 0abf 6bdd 0c3d b6bf 14bf
000002f0: 1252 a2bd a7d6 773f c9fb 57bc 6a68 733d
00000300: 945a f5be 43b5 86bc 8e6b 3ebd 7bc5 933e
00000310: 8c04 02be 040e c6be ea5c 1d3f 3201 e6be
00000320: abb7 c83d ab73 05bf 4c22 613c 4b92 1e3d
00000330: b5cf a03b 5941 183f 88fa cb3d 1b5b 19bf
00000340: 3c4e d93e 999c 18be 6eff 83be 96d6 903e
00000350: 0002 f3be a42b bebe 65ea d5bd 5f2e 233f
00000360: 8aaa b33e c6e0 b5bd b4dc 68bd 1fae c3be
00000370: a3bf 763e 7c73 2a3e cc63 fd3e eded 70be
00000380: 808a 01bf eeae a33d d556 09bf 17d8 f9bc
00000390: b449 0e3e 7dd2 b03e 2cbe 6e3f 544d a23d
000003a0: d731 dc3e 2b53 873e d4c6 91bd 702a f5be
000003b0: f341 aebe ac73 85bf cf85 5d3e 016b e3be
000003c0: 38fa 92bd 4bdd 93be 946b 743d 4e74 533f
000003d0: 88d1 513f 44c0 133e e417 383e 9789 2a3e
000003e0: 19a4 043f 4005 57bc faf8 123f d57e b0be
000003f0: 1985 c43c a313 c43d d20c 9abe 28b7 383f

network_body.linear_encoder.seq_layers.2.bias f4 [128]
0.0 0.0 0.0 0.0 0.0 0.0 0.0 0.0
0.0 0.0 0.0 0.0 0.0 0.0 0.0 0.0
0.0 0.0 0.0 0.0 0.0 0.0 0.0 0.0
0.0 0.0 0.0 0.0 0.0 0.0 0.0 0.0
0.0 0.0 0.0 0.0 0.0 0.0 0.0 0.0
0.0 0.0 0.0 0.0 0.0 0.0 0.0 0.0
0.0 0.0 0.0 0.0 0.0 0.0 0.0 0.0
0.0 0.0 0.0 0.0 0.0 0.0 0.0 0.0
0.0 0.0 0.0 0.0 0.0 0.0 0.0 0.0
0.0 0.0 0.0 0.0 0.0 0.0 0.0 0.0
0.0 0.0 0.0 0.0 0.0 0.0 0.0 0.0
0.0 0.0 0.0 0.0 0.0 0.0 0.0 0.0
0.0 0.0 0.0 0.0 0.0 0.0 0.0 0.0
0.0 0.0 0.0 0.0 0.0 0.0 0.0 0.0
0.0 0.0 0.0 0.0 0.0 0.0 0.0 0.0
0.0 0.0 0.0 0.0 0.0 0.0 0.0 0.0
00000000: 0000 0000 0000 0000 0000 0000 0000 0000
00000010: 0000 0000 0000 0000 0000 0000 0000 0000
00000020: 0000 0000 0000 0000 0000 0000 0000 0000
00000030: 0000 0000 0000 0000 0000 0000 0000 0000
00000040: 0000 0000 0000 0000 0000 0000 0000 0000
00000050: 0000 0000 0000 0000 0000 0000 0000 0000
00000060: 0000 0000 0000 0000 0000 0000 0000 0000
00000070: 0000 0000 0000 0000 0000 0000 0000 0000
00000080: 0000 0000 0000 0000 0000 0000 0000 0000
00000090: 0000 0000 0000 0000 0000 0000 0000 0000
000000a0: 0000 0000 0000 0000 0000 0000 0000 0000
000000b0: 0000 0000 0000 0000 0000 0000 0000 0000
000000c0: 0000 0000 0000 0000 0000 0000 0000 0000
000000d0: 0000 0000 0000 0000 0000 0000 0000 0000
000000e0: 0000 0000 0000 0000 0000 0000 0000 0000
000000f0: 0000 0000 0000 0000 0000 0000 0000 0000
00000100: 0000 0000 0000 0000 0000 0000 0000 0000
00000110: 0000 0000 0000 0000 0000 0000 0000 0000
00000120: 0000 0000 0000 0000 0000 0000 0000 0000
00000130: 0000 0000 0000 0000 0000 0000 0000 0000
00000140: 0000 0000 0000 0000 0000 0000 0000 0000
00000150: 0000 0000 0000 0000 0000 0000 0000 0000
00000160: 0000 0000 0000 0000 0000 0000 0000 0000
00000170: 0000 0000 0000 0000 0000 0000 0000 0000
00000180: 0000 0000 0000 0000 0000 0000 0000 0000
00000190: 0000 0000 0000 0000 0000 0000 0000 0000
000001a0: 0000 0000 0000 0000 0000 0000 0000 0000
000001b0: 0000 0000 0000 0000 0000 0000 0000 0000
000001c0: 0000 0000 0000 0000 0000 0000 0000 0000
000001d0: 0000 0000 0000 0000 0000 0000 0000 0000
000001e0: 0000 0000 0000 0000 0000 0000 0000 0000
000001f0: 0000 0000 0000 0000 0000 0000 0000 0000

network_body.linear_encoder.seq_layers.2.weight f4 [128, 128]
0.04086016 -0.026389912 -0.034565616 -0.018062245 0.038811173 -0.11558012 0.08717424 -0.21575804
-0.081130125 -0.076381944 0.11921917 0.03583899 -0.050924394 0.026818901 0.07561035 0.048315898
0.042603604 0.074294075 -0.009832197 -0.12885693 0.015905788 0.06278465 -0.08837154 -0.027133595
0.05158821 -0.011888702 0.089799486 0.06606767 0.076128446 -0.016076706 0.15876438 0.036185164
0.008798613 0.07853203 -0.11535605 0.03361434 0.060752686 0.16117397 0.08644276 -0.118699245
-0.019369936 -0.054229986 -0.0752974 0.11312111 0.08729111 -0.035736974 0.096736595 0.0427
-0.070574835 -0.11766421 -0.092105225 -0.029041965 0.17982459 0.042945668 -0.10014262 0.04974225
0.10478502 -0.09076883 -0.034943286 -0.16104737 -0.17105873 0.019298194 0.107609406 -0.062760875
-0.06917052 0.054004878 0.016775882 0.06937031 -0.16898926 0.030785846 0.036852393 0.08039673
0.010150416 0.019708646 -0.0083082 0.009371773 -0.005250264 -0.09159141 -0.005823098 0.11671367
-0.05139148 -0.07134009 0.09359388 -0.07175658 0.063734785 -0.13828255 -0.072206706 0.19004661
0.110284254 -0.10707117 0.021869851 -0.18535718 -0.08016514 0.04264906 -0.051414065 0.08198468
0.1256814 0.09126367 -0.02929174 0.032702316 0.17193358 0.08243282 -0.041623328 0.00022493114
0.11157005 -0.09518066 0.057892542 -0.07055583 -0.08354021 -0.10699349 -0.011879156 0.014921874
-0.061813843 -0.035527088 0.0149963545 0.0664408 0.11168687 0.058160644 -0.03160301 0.08815506
-0.03682097 -0.062043242 -0.09152186 0.025967445 -0.047768377 0.022283057 0.058779754 0.053194832
0.079217315 0.07252051 -0.06372349 0.10488715 0.07137423 0.01587921 -0.06492864 -0.13005504
0.0072461776 0.049610954 0.11323909 0.07818433 -0.017302971 0.03639759 0.10416171 -0.00074562686
0.06695979 0.0077007664 0.06981911 0.024847021 -0.18609376 -0.015153497 0.13797542 0.08807876
0.207951 0.03980036 0.11436261 -0.10314287 0.080031835 0.01175535 0.1519359 0.101195246
-0.17529139 -0.007119724 0.031084636 -0.08736528 -0.22544122 -0.008664801 -0.046587836 -0.041617263
-0.008324772 -0.0072725597 -0.05268316 -0.044586565 0.007902438 -0.050238922 -0.06729027 0.05133612
-0.061167374 0.025763141 0.0868224 0.07206824 0.0021518772 -0.12627806 -0.028610684 0.071192935
0.04486071 0.041936085 0.18175133 0.08771702 0.005620789 -0.004123128 0.0068663293 -0.12540747
0.13423774 -0.004896856 0.09128677 -0.017043516 -0.21332419 -0.020363899 -0.025436172 0.06267589
-0.01138398 -0.0112102395 -0.022607267 -0.008236985 0.031009896 -0.06058445 -0.09292655 -0.011911555
0.097104184 0.0025158154 0.16195895 0.12760995 -0.1419725 -0.12640558 -0.06598061 -0.022348667
0.013185404 0.024200894 0.12736821 0.03160335 0.16498815 -0.043277897 -0.0033905627 -0.015780127
0.06694052 -0.07148989 -0.028688198 -0.1394661 0.029956073 0.023927016 -0.041601107 -0.011743429
-0.07536463 0.041316155 0.076024145 0.10379006 0.15748559 0.017863968 -0.0023403717 0.016566887
-0.0074159047 0.011719683 -0.10739357 0.06537256 -0.08887728 0.026158521 -0.035837837 0.11031185
0.15494889 0.19051309 0.077680655 0.10918397 -0.028270299 -0.07944911 -0.023216061 0.07973233
00000000: fc5c 273d a82f d8bc ad94 0dbd 46f7 93bc
00000010: 77f8 1e3d 45b5 ecbd 6888 b23d adef 5cbe
00000020: 8d27 a6bd 236e 9cbd 2e29 f43d e8cb 123d
00000030: 1996 50bd 50b3 db3c 99d9 9a3d e4e6 453d
00000040: 1e81 2e3d 7e27 983d 3917 21bc 12f3 03be
00000050: db4c 823c 3d95 803d 23fc b4bd 4647 debc
00000060: 294e 533d d5c8 42bc cbe8 b73d 7d4e 873d
00000070: 3be9 9b3d 4cb3 83bc 2193 223e e536 143d
00000080: 0f28 103c 67d5 a03d cb3f ecbd 31af 093d
00000090: cfd7 783d ca0a 253e e708 b13d 9718 f3bd
000000a0: b3ad 9ebc 4320 5ebd 8635 9abd 0aac e73d
000000b0: aec5 b23d ef60 12bd d61d c63d 32e6 2e3d
000000c0: 8a89 90bd eff9 f0bd aaa1 bcbd 6ae9 edbc
000000d0: f023 383e cce7 2f3d 9317 cdbd 88be 4b3d
000000e0: 8799 d63d 02e5 b9bd b120 0fbd 9ae9 24be
000000f0: 052a 2fbe 3f17 9e3c 5262 dc3d c688 80bd
00000100: 46a9 8dbd 3834 5d3d 936d 893c 0512 8e3d
00000110: 850b 2dbe 9932 fc3c 89f2 163d 0aa7 a43d
00000120: ee4d 263c 0774 a13c 1e1f 08bc 118c 193c
00000130: 680a acbb 4794 bbbd b0cf bebb 9407 ef3d
00000140: df7f 52bd c11a 92bd 26ae bf3d 1df5 92bd
00000150: 6287 823d f199 0dbe 1ce1 93bd 949b 423e
00000160: b6dc e13d 2148 dbbd 6728 b33c 46ce 3dbe
00000170: 9f2d a4bd c8b0 2e3d 8e97 52bd 95e7 a73d
00000180: a0b2 003e 72e8 ba3d 3bf5 efbc ddf2 053d
00000190: 5b0f 303e 8ad2 a83d 397d 2abd 7edb 6b39
000001a0: d77e e43d 14ee c2bd bb20 6d3d 937f 90bd
000001b0: 2117 abbd 671f dbbd cba0 42bc e07a 743c
000001c0: 8330 7dbd da84 11bd 45b3 753c 1d12 883d
000001d0: 16bc e43d db39 6e3d 2872 01bd a48a b43d
000001e0: 96d1 16bd 0e21 7ebd d06f bbbd aeb9 d43c
000001f0: c6a8 43bd f58a b63c 0ac3 703d d3e2 593d
00000200: b03c a23d a285 943d 7681 82bd 13cf d63d
00000210: a72c 923d 1e15 823c 4ff9 84bd 262d 05be
00000220: 5871 ed3b db34 4b3d e5e9 e73d 1b1f a03d
00000230: f6be 8dbc a415 153d bc52 d53d 2c76 43ba
00000240: 3722 893d b656 fc3b 52fd 8e3d fb8b cb3c
00000250: 5d8f 3ebe 6046 78bc 6e49 0d3e a362 b43d
00000260: 1bf1 543e b405 233d f236 ea3d 923c d3bd
00000270: bbe7 a33d 8399 403c 1695 1b3e 743f cf3d
00000280: 967f 33be 934c e9bb 35a5 fe3c 91ec b2bd
00000290: 10da 66be cff6 0dbc e3d2 3ebd dd76 2abd
000002a0: a064 08bc a74e eebb 4cca 57bd 67a0 36bd
000002b0: 3a79 013c 54c7 4dbd 7bcf 89bd d345 523d
000002c0: a48a 7abd 390d d33c f1cf b13d 8398 933d
000002d0: 8206 0d3b 094f 01be f460 eabc 9acd 913d
000002e0: ddbf 373d 2cc5 2b3d 051d 3a3e fba4 b33d
000002f0: 982e b83b 4e1b 87bb f2fe e03b d16a 00be
00000300: 9e75 093e ce75 a0bb 8ff4 ba3d d89e 8bbc
00000310: a871 5abe 31d2 a6bc 855f d0bc 385c 803d
00000320: df83 3abc 27ab 37bc e032 b9bc 6bf4 06bc
00000330: 7708 fe3c 6627 78bd 4650 bebd af28 43bc
00000340: 8fde c63d 61e0 243b 91d8 253e 2fac 023e
00000350: 3d61 11be 7770 01be d820 87bd 8d14 b7bc
00000360: 9807 583c f440 c63c d06c 023e 8472 013d
00000370: a7f2 283e 2a44 31bd 3434 5ebb 5345 81bc
00000380: 1d18 893d 4b69 92bd 8303 ebbc 34d0 0ebe
00000390: 7066 f53c 9702 c43c ec65 2abd 8367 40bc
000003a0: c558 9abd 213b 293d 8cb2 9b3d e28f d43d
000003b0: e743 213e 7557 923c ec60 19bb 48b7 873c
000003c0: 1e01 f3bb ea03 403c 29f1 dbbd 0ce2 853d
000003d0: 4b05 b6bd 654a d63c b2ca 12bd 2eeb e13d
000003e0: ecaa 1e3e dd15 433e 0917 9f3d d89b df3d
000003f0: 1d97 e7bc 37b6 a2bd 9c2f bebc b44a a33d
