Unity/results/ScoreGoal0/ArcBehaviour.onnx (onnx, 76508 bytes, 7 tensors)

action_model._continuous_distribution.log_sigma f4 [1, 6]
0	0xbca3f5d7	-0.020014687
1	0xbc8ead9f	-0.017416773
2	0xbccb59b6	-0.024823051
3	0xbcabdea5	-0.020980189
4	0xbc11e5a7	-0.008904851
5	0xbb86c185	-0.004112425

action_model._continuous_distribution.mu.bias f4 [6]
0	0xb99db3f3	-0.00030079446
1	0x38b91f3d	8.827306e-05
2	0x393d7e13	0.00018071411
3	0xb942a58b	-0.00018562951
4	0xb88a8e41	-6.60685e-05
5	0xb9991f85	-0.00029205918

action_model._continuous_distribution.mu.weight f4 [6, 128]
0	0x3b51132a	0.0031902292
1	0x3b47b762	0.0030474295
2	0xbc1f26a9	-0.009713807
3	0x3c894936	0.016758543
4	0x3c06ee2b	0.008235495
5	0x3c6628b5	0.014047791
6	0x3c1ee77e	0.009698747
7	0xbbe9fb03	-0.0071405186
8	0xbb4b9558	-0.0031064358
9	0xbcd77f95	-0.026305953
10	0xbc62a64b	-0.013833593
11	0xbbbed01c	-0.0058231484
12	0xbbac9443	-0.0052666976
13	0xbd155970	-0.036462247
14	0xbbd64745	-0.0065392577
15	0x3baf4910	0.005349286
16	0xbd1bef36	-0.038069926
17	0xbc946212	-0.01811317
18	0x3ccfb187	0.025353206
19	0x3ce6977c	0.028148405
20	0xbc1d27ec	-0.009592038
21	0xba9330b8	-0.0011229729
22	0x3c874a95	0.016515056
23	0xbb390bb8	-0.0028235745
24	0xbc2cf8ef	-0.010557397
25	0xbbf8a5fb	-0.007588146
26	0xbb0f7b02	-0.0021893387
27	0xbb1c0519	-0.002380675
28	0xbad7a1fa	-0.0016451471
29	0x3a98488e	0.0011618303
30	0xbc983006	-0.018577587
31	0x3b369727	0.002786109
32	0xbc97c314	-0.018525638
33	0x3a89fe6d	0.0010528095
34	0xbc126a96	-0.008936545
35	0xbd183127	-0.03715625
36	0xbbc7ae7f	-0.0060937996
37	0xbc126667	-0.008935547
38	0xbd047f6e	-0.03234809
39	0x3ce388a1	0.02777511
40	0x3ca87ac8	0.02056636
41	0xbc44c8c0	-0.012010753
42	0xbc388d10	-0.011264101
43	0xbc935c90	-0.017988473
44	0x3c2ee012	0.01067354
45	0xbc0181f7	-0.007904521
46	0x3c9a161c	0.01880937
47	0x3cbb1ef4	0.022841908
48	0x3be73613	0.0070560067
49	0xbb8b1f5a	-0.0042456808
50	0x3bc2eaee	0.005948416
51	0x3c8c9da1	0.017165007
52	0xbd2e490d	-0.042550135
53	0xbd16d611	-0.036825243
54	0xbc484e96	-0.012225768
55	0xbb947c95	-0.004531453
56	0x3c521032	0.012821244
57	0x3c00b00b	0.007854472
58	0xbb8f7e78	-0.00437909
59	0xbbd896a7	-0.006609756
60	0x3c836c57	0.016042871
61	0x3c201b4a	0.009772131
62	0xb7006729	-7.653413e-06
63	0xbb5d08f0	-0.003372725
64	0x3ab3e6b1	0.0013725368
65	0x3cc8d813	0.024517095
66	0x3b0eae38	0.0021771323
67	0x3cf3c033	0.029754734
68	0xbcbd3424	-0.023096152
69	0xbd008e78	-0.03138587
70	0xbbc758a3	-0.0060835644
71	0x3c916ff0	0.017753571
72	0x3bc9f5b5	0.0061633238
73	0xbc8a8c8e	-0.016912725
74	0x3af18209	0.0018425594
75	0x3bb909e4	0.005646931
76	0x3d1251a4	0.03572239
77	0xbcb53b91	-0.02212313
78	0x3c977719	0.018489407
79	0x3bbaa8a4	0.005696373
80	0x3c218235	0.009857704
81	0xbc1e2555	-0.009652455
82	0x3a943f68	0.00113104
83	0x3cb9d874	0.02268622
84	0xbc8a767d	-0.016902203
85	0xbbafa5de	-0.005360349
86	0x3c55521b	0.013020064
87	0xbc29bb27	-0.010359562
88	0xbd2cf9b5	-0.042230327
89	0xbb888c6f	-0.0041671316
90	0x3ac9b13c	0.0015387903
91	0xbb5be241	-0.0033551606
92	0xbd069d65	-0.032864947
93	0x3ca61681	0.020274403
94	0xbc184a00	-0.009294987
95	0x3c54d5f4	0.0129904635
96	0xbbd96786	-0.0066346554
97	0x3b82f0b2	0.0039959783
98	0xbbd93023	-0.006628053
99	0x3c9d46d0	0.019198805
100	0x39e352e1	0.00043358564
101	0x3b4c0941	0.0031133445
102	0xbcc3b228	-0.023888662
103	0xbce6181a	-0.028087664
104	0xbcc39d0b	-0.023878595
105	0x3cb628b3	0.022236204
106	0x3c594ab4	0.0132624395
107	0x3c5e761b	0.013577963
108	0xbc2abac6	-0.010420507
109	0x3c485df4	0.012229431
110	0xbbe4d50f	-0.0069834064
111	0xbbe1537b	-0.0068764067
112	0x3bf799d1	0.007556178
113	0xbb82081f	-0.0039682533
114	0xbc201518	-0.009770654
115	0xbcc3bb49	-0.023893015
116	0xbc6862a5	-0.014183675
117	0x3cb47168	0.022026733
118	0xbc4618ac	-0.012090843
119	0xbc9a2d3b	-0.018820396
120	0xbaa9419d	-0.0012913231
121	0x3c66bb25	0.014082705
122	0x3d05c082	0.032654293
123	0x3c2e76f0	0.010648474
124	0xbc7b5b51	-0.015341596
125	0x3c8966ff	0.016772745
126	0xbbfd8217	-0.007736455
127	0x3c33de48	0.010978289
128	0x3cd1a2ff	0.025590418
129	0xbca49321	-0.020089688
130	0x3b651736	0.0034956462
131	0x3ce61197	0.02808456
132	0xbc3931f5	-0.011303415
133	0xb8898057	-6.556574e-05
134	0x3c807042	0.015678529
135	0x3ca1ebd2	0.019765768
136	0x3c3db5c6	0.011578983
137	0x39b23d80	0.00033996627
138	0xbb3135c8	-0.0027040113
139	0x3a443843	0.000748519
140	0x3cc16a71	0.023610326
141	0x3c56c3a8	0.0131081715
142	0xbb843154	-0.0040342007
143	0x3c4f6aeb	0.012659769
144	0x3bfae495	0.0076566436
145	0xbcf852df	-0.030312954
146	0x3cc2fe7c	0.023802988
147	0x3c2493cc	0.010045003
148	0x3b867f05	0.0041044974
149	0xbb32fabc	-0.0027310094
150	0x3c03b1c1	0.008037985
151	0x3b070419	0.0020601808
152	0xbc132a3e	-0.008982239
153	0xbc3598cb	-0.011083792
154	0x3bf3f560	0.0074450225
155	0xbc89fb3c	-0.01684343
156	0x3c104081	0.008804441
157	0xbc42fcc1	-0.011901082
158	0x3b9cd624	0.0047862697
159	0x3be78f77	0.007066663
160	0x3d34d0ef	0.044144567
161	0xbbb5b7c2	-0.0055455873
162	0xbcda5073	-0.02664969
163	0xbcbfc2c5	-0.023408303
164	0xbc82e934	-0.01598034
165	0xbcb62da8	-0.022238567
166	0x3b9a34dc	0.0047060084
167	0xbc6914dc	-0.014226165
168	0x3c89aa7b	0.016804924
169	0x3b1b5a67	0.0023705007
170	0x3b29b281	0.002589375
171	0x3bd02a0f	0.00635267
172	0x3bd79546	0.006579074
173	0x3d00bcd5	0.031430084
174	0x3c52c4eb	0.012864332
175	0x3cc76733	0.024341201
176	0x3c4c0f76	0.012454858
177	0xbbc7f751	-0.0061024805
178	0x3d67316b	0.056443613
179	0xbcb6742d	-0.022272194
180	0xbc6d83b5	-0.014496733
181	0x3ccf2939	0.025288211
182	0xbd0b351d	-0.0339862
183	0x3aa79c1a	0.0012787611
184	0xbcabddf5	-0.02097986
185	0x3afd7387	0.0019336798
186	0x3d184b59	0.037181232
187	0xbb477b73	-0.0030438572
188	0xba5a4e31	-0.00083276915
189	0x3c6e3c95	0.014540811
190	0xbc6fe98d	-0.014643085
191	0x3c9cd55f	0.019144712
192	0xbb5b759e	-0.0033486853
193	0xbc9a1f24	-0.018813677
194	0xbc420a15	-0.011843224
195	0xbc6cb837	-0.014448217
196	0xbaffa077	-0.0019502778
197	0xbc3c7f43	-0.011504951
198	0x3b85d27b	0.004083929
199	0xbc9fa95a	-0.019489933
200	0xba6b6ed4	-0.0008981053
201	0x3b4bf9bd	0.0031124197
202	0x3cea8ca1	0.02863151
203	0xbc929549	-0.01789345
204	0xbcd90118	-0.02648978
205	0x3c12dd1d	0.00896385
206	0x3c811bbf	0.0157603
207	0xbd244db3	-0.040113162
208	0x3cb7ca5c	0.02243536
209	0xbd14cef7	-0.03633019
210	0x3c746819	0.014917397
211	0xbceef092	-0.029167447
212	0x3ca330a6	0.019920658
213	0xb9a1d3fe	-0.0003086626
214	0x3c2b1fe6	0.010444617
215	0x3c0fdfaa	0.008781353
216	0x3b98be85	0.0046613836
217	0xbb535337	-0.0032245645
218	0x3c3b0741	0.011415304
219	0xbcb50833	-0.022098636
220	0xbc98e1fe	-0.018662449
221	0xbbf0ff00	-0.007354617
222	0x3cd10171	0.025513383
223	0xbbff8585	-0.007797899
224	0x3bdc4779	0.0067223874
225	0xbce7f9a3	-0.028317278
226	0xbca93647	-0.020655764
227	0xbbbfc355	-0.005852143
228	0x3c812851	0.015766295
229	0xbbfdd6dd	-0.007746561
230	0x3be5d422	0.0070138136
231	0xbcc647ce	-0.024204161
232	0x3c92313c	0.017845742
233	0x3ca19a0f	0.019726781
234	0x3c4b0a88	0.012392648
235	0x3d06c809	0.032905612
236	0x3c55b48a	0.013043532
237	0x3c7a433f	0.015274822
238	0xbc033ce2	-0.008010121
239	0xbd07067b	-0.032965165
240	0xbc10a1e3	-0.008827659
241	0xbc72afb0	-0.014812395
242	0x3c1aa8a3	0.00943962
243	0x3c2758f7	0.010214082
244	0x3c2e34f4	0.010632742
245	0x3a4d2f26	0.0007827155
246	0x3c113348	0.008862324
247	0xbb944934	-0.004525328
248	0xbb069b04	-0.0020539174
249	0x3ca9efdc	0.020744257
250	0xbc266be3	-0.010157558
251	0xbcacae00	-0.021079063
252	0xbc871958	-0.016491577
253	0xbd21d1da	-0.03950677
254	0xbc7cacd4	-0.015422065
255	0xbc7c9668	-0.015416719

network_body.linear_encoder.seq_layers.0.bias f4 [128]
0	0x3b3973d5	0.00282978
1	0x317d8f33	3.6897745e-09
2	0xba392543	-0.00070627424
3	0xbb0b014f	-0.0021210497
4	0x3b0f42cd	0.0021859885
5	0xbb1172f5	-0.0022193764
6	0xbb1bfdb8	-0.0023802351
7	0xbb2defb4	-0.002654058
8	0xbb0f7c71	-0.0021894241
9	0x30fa995e	1.8233484e-09
10	0xbac7781a	-0.0015218288
11	0xba513739	-0.0007980946
12	0xb9cf3866	-0.00039524137
13	0x314e89ee	3.005535e-09
14	0x3ae159a3	0.0017192852
15	0xb8a80ae7	-8.012895e-05
16	0x391e9c20	0.00015126215
17	0xbaef10c9	-0.0018239255
18	0x3aa89862	0.0012862796
19	0x394053a5	0.00018341707
20	0xb9585a22	-0.00020632942
21	0x3a4278cf	0.00074185146
22	0x3a3fc097	0.000731477
23	0xbaaf3c87	-0.0013369479
24	0x3ab81c47	0.0014046513
25	0xba5ddcae	-0.0008463365
26	0xbacefd49	-0.0015792038
27	0xbb492f59	-0.0030698387
28	0xba7707e9	-0.0009423481
29	0xba807fa0	-0.000980366
30	0xb81afdf0	-3.695296e-05
31	0xbab02218	-0.0013437895
32	0xbaf16aa8	-0.0018418627
33	0xbb1fea8a	-0.002440127
34	0xbb5a8fdc	-0.0033349907
35	0xbac6d715	-0.0015170301
36	0xbad1b29e	-0.0015998667
37	0xbb27b0b4	-0.00255875
38	0xbab1b340	-0.0013557449
39	0xbab1cbd3	-0.0013564773
40	0x3a9eba14	0.0012109899
41	0xb9dd29e0	-0.00042183604
42	0xbb29d2ad	-0.0025912926
43	0x3b7f6ca0	0.0038974658
44	0x39cb8746	0.00038819964
45	0xb9487254	-0.00019116077
46	0xb9cd6ff7	-0.00039184067
47	0xbbeb3eab	-0.0071791015
48	0x3ac088dd	0.0014689226
49	0xb9e94e99	-0.00044499783
50	0xbaa657d0	-0.0012690965
51	0x396117fd	0.00021466608
52	0xba6dad13	-0.00090666226
53	0xba97eb4f	-0.0011590513
54	0xb3bd5f41	-8.818325e-08
55	0xbaedabda	-0.0018132881
56	0xbb3a820e	-0.0028458866
57	0xbb63744a	-0.0034706765
58	0x386fe579	5.7195753e-05
59	0xbb1271d4	-0.002234568
60	0xba637353	-0.00086765474
61	0xbab74b1a	-0.0013984174
62	0xba5ae373	-0.00083499326
63	0xbb048a4e	-0.0020224038
64	0xbbc432c5	-0.0059874975
65	0xbaa7a941	-0.001279153
66	0xbb83fc31	-0.0040278663
67	0x396fda09	0.0002287404
68	0x3b1ff9ee	0.0024410444
69	0xbb9e23fc	-0.004826067
70	0xbb02a5ff	-0.0019935367
71	0xba72f07d	-0.0009267403
72	0x9d1a7087	-2.0439906e-21
73	0x94245548	-8.296703e-27
74	0x3b49d66f	0.0030797978
75	0xb9c3f376	-0.0003737469
76	0xbb219770	-0.0024656914
77	0x39c9baf9	0.00038477013
78	0xba915954	-0.0011089244
79	0xbabbe634	-0.0014335574
80	0xb9ac41e4	-0.0003285549
81	0x3aa97853	0.0012929536
82	0xbacfeb65	-0.0015863
83	0xbb11a83a	-0.0022225515
84	0x3bce47f3	0.006295198
85	0x38f29e5d	0.00011568957
86	0x3aac2b32	0.0013135432
87	0x3a918063	0.0011100884
88	0x3a5935f1	0.0008285931
89	0x39af39a4	0.00033421547
90	0x3a668d46	0.0008794855
91	0x38119f2e	3.471894e-05
92	0xb9d6e041	-0.00040984343
93	0x3b62296b	0.003450955
94	0xb8580602	-5.150401e-05
95	0xbb05d377	-0.0020420232
96	0xb805ba7e	-3.1883355e-05
97	0xbae601fc	-0.0017548199
98	0xbbf02326	-0.007328409
99	0x8cf2c9aa	-3.7407376e-31
100	0xbb7569d2	-0.0037447107
101	0xbb255ea2	-0.0025233408
102	0xbbc86dc6	-0.0061166016
103	0x38dfda8d	0.00010674177
104	0x3a02da95	0.00049916777
105	0xbc2cefe1	-0.010555238
106	0xbbd79c44	-0.0065799076
107	0x3964a9f4	0.00021807087
108	0xbb24f6fd	-0.002517163
109	0xb984f488	-0.00025359192
110	0x3b896bdb	0.0041937656
111	0xbbd8f3a4	-0.006620841
112	0xba883414	-0.0010391497
113	0xbb36d84a	-0.0027899914
114	0xbacbe8c7	-0.0015557044
115	0xba661d3c	-0.000877816
116	0x3a820b66	0.000992161
117	0xba930d28	-0.0011219131
118	0xbaceb978	-0.0015771827
119	0xbb829a7b	-0.0039857007
120	0x3af694e4	0.0018812683
121	0xbb083e74	-0.0020789178
122	0xb9777138	-0.00023597933
123	0xbb04e131	-0.0020275826
124	0xbadf8994	-0.0017054551
125	0xb8cbfb1d	-9.726568e-05
126	0x3be9b765	0.007132458
127	0xba75ffc5	-0.0009384121

network_body.linear_encoder.seq_layers.0.weight f4 [128, 9]
0	0x3d2286c4	0.039679304
1	0xbeb05b1a	-0.34444505
2	0x3dd5ccc8	0.104394495
3	0xbebe5b62	-0.37179095
4	0x3ec05dea	0.3757165
5	0x3f513374	0.81719136
6	0x3eb4b22a	0.35292178
7	0x3ea8623b	0.32887444
8	0xbe85d5c9	-0.26139668
9	0xbe1407e1	-0.1445613
10	0x3e5af87c	0.21383852
11	0x3eafbacc	0.34322202
12	0x3e952c81	0.29135516
13	0x3dc6ac44	0.09700826
14	0x3dfd593f	0.12370538
15	0xbf11afe8	-0.56909037
16	0x3d9c5300	0.076330185
17	0xbdc9b8a0	-0.098496675
18	0x3f072fff	0.5280761
19	0x3ef62349	0.48073795
20	0xbe779d38	-0.24181068
21	0x3ed83de0	0.42234707
22	0x3ca4b7b0	0.02010712
23	0xbed51cf6	-0.41623658
24	0xbe26dea1	-0.16295864
25	0xbea63d9b	-0.32468876
26	0x3e38cf21	0.18047763
27	0x3e2f819a	0.17139283
28	0x3e9fa84e	0.31183094
29	0x3e37b477	0.17939936
30	0x3efbd7f1	0.49188188
31	0x3ed4f91d	0.41596308
32	0x3f179fc3	0.5922815
33	0x3c28ff73	0.01031481
34	0x3eb0300f	0.34411666
35	0x3e283371	0.16425873
36	0xbcd58713	-0.026065385
37	0x3f87cca5	1.0609328
38	0xbdc8e125	-0.09808568
39	0xbea987e1	-0.3311148
40	0xbee0a161	-0.43873122
41	0x3e25a93e	0.16177842
42	0xbdb36b8f	-0.087607495
43	0xbed1ee24	-0.41002
44	0x3e895f02	0.26830298
45	0xbd98cfbb	-0.074614964
46	0xbdc2e096	-0.095154926
47	0x3e13c1b8	0.14429367
48	0xbefcc121	-0.49366096
49	0xbe8fe6dd	-0.28105822
50	0xbd987bd1	-0.07445491
51	0x3e399699	0.18123855
52	0xbd2e80be	-0.042603247
53	0x3e505477	0.20344721
54	0xbe917d61	-0.2841597
55	0x3e46c76c	0.19412011
56	0x3e4b6b15	0.19865067
57	0xbee0461e	-0.43803495
58	0xbd4e8051	-0.05041534
59	0xbead3ad4	-0.33833945
60	0x3e0ded75	0.13860114
61	0xbb4bb22b	-0.0031081538
62	0xbef20aed	-0.4727396
63	0x3ecfad10	0.40561724
64	0xbe0da988	-0.13834202
65	0xbea5ff4a	-0.32421333
66	0x3ebf9a0b	0.37422213
67	0x3de7d963	0.1132076
68	0x3e37c565	0.17946394
69	0xbd4fbe2f	-0.050718483
70	0x3f000963	0.50014323
71	0xbeb5e7c1	-0.35528377
72	0x3e495d5b	0.19664519
73	0x3f4f360c	0.80941844
74	0xbeac9753	-0.337092
75	0x3f39587b	0.72400635
76	0x3e60c41c	0.2194981
77	0xbce6e580	-0.028185606
78	0xbde46698	-0.11152381
79	0xbe87410d	-0.26416817
80	0x3e76c623	0.2409902
81	0xbd58b749	-0.05290917
82	0x3e94361e	0.28947538
83	0xbdde6fca	-0.10861166
84	0x3d85ef6e	0.06539808
85	0x3de93147	0.11386352
86	0xbd96b839	-0.073593564
87	0xbe9f40ee	-0.31104225
88	0x3d628ac7	0.05530813
89	0xbeee7662	-0.46574694
90	0x3e54d474	0.2078417
91	0xbf048a14	-0.5177319
92	0xbe704fd8	-0.23467958
93	0x3d1cf6ae	0.03832119
94	0xbe1460f7	-0.14490114
95	0xbf363ade	-0.71183574
96	0x3e64f2f7	0.22358309
97	0xbda12ca5	-0.078698434
98	0xbe19899e	-0.14993903
99	0x3e44377b	0.19161789
100	0x3cfd5ecd	0.030928994
101	0xbe02a5c1	-0.12758543
102	0x3f0bf004	0.5466311
103	0xbd9a3a8a	-0.07530697
104	0x3ecafbc3	0.39645204
105	0xbe5d8222	-0.21631673
106	0x3f0d0653	0.55087775
107	0xbf07117b	-0.5276105
108	0xbf2e8bd5	-0.68182117
109	0x3e8eb801	0.2787476
110	0xbdd42687	-0.10358911
111	0xbe568bc3	-0.20951752
112	0xbe6b48a6	-0.22976932
113	0x3dcc3cfc	0.09972569
114	0x3f53244d	0.82477266
115	0x3e8173bf	0.2528362
116	0x3d876b4c	0.06612262
117	0xbf19c218	-0.6006179
118	0x3eb1a193	0.34693584
119	0xbd8e72be	-0.06955479
120	0x3e5f8284	0.21827132
121	0x3d07fb78	0.033198804
122	0x3d47e586	0.048802875
123	0xbebdfe96	-0.37108296
124	0x3eb4a937	0.3528535
125	0xbe7cecb6	-0.24699673
126	0x3ec87552	0.39152008
127	0x3df6d714	0.12052742
128	0x3e8a012f	0.26954028
129	0xbe824424	-0.25442612
130	0xbe73f34b	-0.23823278
131	0x3c9513a6	0.018197846
132	0x3e540119	0.20703544
133	0x3e3426fa	0.17592993
134	0xbe5a3911	-0.21310832
135	0xbe868380	-0.26272202
136	0x3d80c80c	0.06288156
137	0x3d4ad3e4	0.04951848
138	0x3eb53b44	0.3539678
139	0xbe35feb0	-0.17772937
140	0xbec791dd	-0.38978472
141	0xbdcc9f1c	-0.09991285
142	0x3eac6ba2	0.33675867
143	0xbe2ef46f	-0.17085432
144	0xbc1a1f4f	-0.009406879
145	0x3e8f11f7	0.27943394
146	0xbf4c8fc1	-0.7990685
147	0x3e41ce48	0.18926346
148	0x3cfe1f16	0.031020682
149	0xbe9cf10c	-0.30652654
150	0x3e2a48d8	0.1662935
151	0xbe833efb	-0.25633988
152	0x3eaab4eb	0.33341154
153	0x3ee695ec	0.45036256
154	0xbe01f565	-0.12691267
155	0x3ecdd183	0.40198907
156	0x3df60a3a	0.12013669
157	0xbe998502	-0.2998429
158	0x3d70c452	0.058780976
159	0xbe35de2d	-0.17760535
160	0x3da261ff	0.079288475
161	0xbee64e93	-0.44981822
162	0xbf60cfb0	-0.87816906
163	0xbe356a4a	-0.17716327
164	0xbf2e9d9d	-0.6820925
165	0x3e9374fe	0.28800195
166	0xbf294a2d	-0.6612881
167	0x3e491210	0.19635797
168	0x3e38ef7a	0.18060103
169	0x3e41fc77	0.18943964
170	0xbe9ba6dd	-0.30400744
171	0x3edd23b0	0.4319129
172	0x3f0b4101	0.54396063
173	0x3c9e61e1	0.019333782
174	0xbd4c7499	-0.049915884
175	0xbea9b42d	-0.33145276
176	0x3f41fcc5	0.7577632
177	0x3e0ff1a1	0.14057018
178	0x3e718b80	0.23588371
179	0x3e824091	0.25439885
180	0x3ee74b3d	0.4517459
181	0xbcd01f0f	-0.025405435
182	0x3e1ed12e	0.15509483
183	0xbef4ccfd	-0.47812644
184	0x3dc7120f	0.09720241
185	0xbf23fde9	-0.6405931
186	0xbd2e469a	-0.0425478
187	0x3f0ef8e4	0.55848527
188	0x3b8ee091	0.0043602665
189	0xbf1becfd	-0.6090849
190	0xbe61d028	-0.22052062
191	0xbf399c59	-0.7250419
192	0x3dfbc953	0.12294259
193	0xbec78e0a	-0.38975555
194	0xbeb19475	-0.34683576
195	0x3d0b9aed	0.034083296
196	0x3ea65653	0.32487735
197	0x3e2371ba	0.15961352
198	0x3dd826a9	0.10554249
199	0xbdb35611	-0.0875665
200	0x3e0c9926	0.13730296
201	0x3e08c2eb	0.13355605
202	0xbe32f957	-0.17477928
203	0xbe878b53	-0.26473483
204	0xbe062576	-0.13100228
205	0x3f0b5656	0.54428613
206	0xbee8aa03	-0.4544221
207	0xbe0df3eb	-0.13862579
208	0xbde298a7	-0.110642724
209	0xbf214756	-0.62999475
210	0x3eaf110a	0.34192687
211	0x3ecd2de3	0.4007407
212	0x3e1ec00d	0.15502949
213	0x3e8a3394	0.26992476
214	0xbe43c946	-0.19119748
215	0xbf16e738	-0.5894656
216	0xbf0a7758	-0.54088354
217	0x3e3e02d4	0.18555766
218	0xbe36cebe	-0.17852303
219	0xbd0e5965	-0.034753222
220	0x3f1ae805	0.60510284
221	0xbe8c2c6d	-0.27377644
222	0x3eb1c02c	0.34716928
223	0xbf1365bd	-0.57577115
224	0x3f044248	0.5166364
225	0x3d6bd72b	0.057578247
226	0xbe8013dc	-0.25015152
227	0xbe4f7ee5	-0.2026325
228	0x3dac769a	0.08421059
229	0xbcfe8b15	-0.031072179
230	0xbe68f025	-0.22747858
231	0x3de7cc34	0.113182455
232	0x3d9273fd	0.07151029
233	0x3d2c435c	0.042056426
234	0xbd42b782	-0.047538288
235	0x3eaa58a2	0.33270746
236	0xbef13eaf	-0.47118136
237	0x3e23bfa7	0.15991078
238	0x3eb4c3b9	0.35305575
239	0x3e93b2e9	0.28847435
240	0x3d59ab11	0.053141657
241	0x3de4f902	0.11180307
242	0xbed41304	-0.41420758
243	0xbe0eef6e	-0.13958523
244	0x3e9ae96e	0.30256218
245	0xbe656088	-0.22400105
246	0xbe8b592f	-0.2721648
247	0x3e32cf06	0.17461786
248	0xbecf4565	-0.4048263
249	0x3e0b66b8	0.13613403
250	0xbe7473cd	-0.238723
251	0x3e025a6f	0.1272981
252	0x3e82bd1c	0.25534904
253	0xbec3f210	-0.38270617
254	0xbf4a2712	-0.78965867
255	0xbe60fc12	-0.21971157

network_body.linear_encoder.seq_layers.2.bias f4 [128]
0	0xa72492e7	-2.2839208e-15
1	0xbb25177f	-0.0025191007
2	0x30778ec8	9.006098e-10
3	0xbb1198b3	-0.002221626
4	0xbb953f73	-0.004554683
5	0xbaaaa602	-0.0013019445
6	0xbaa0a0f2	-0.0012254997
7	0xb59c2afd	-1.1635417e-06
8	0xb9bd246f	-0.00036076034
9	0xbb5b9270	-0.0033504032
10	0xa86c65a7	-1.3122674e-14
11	0x394495f9	0.00018747886
12	0x3ba03f24	0.0048903394
13	0xb8ccafd2	-9.760227e-05
14	0xba526919	-0.0008026525
15	0xba17a01b	-0.00057840504
16	0xba962688	-0.0011455575
17	0xb9ddb1b3	-0.000422848
18	0x3a7276f5	0.00092492934
19	0x3a903f37	0.0011005168
20	0xb9da5154	-0.00041640794
21	0x2e292d68	3.846648e-11
22	0xba17c799	-0.0005789935
23	0x3a9788a9	0.0011561114
24	0xbb5b3f56	-0.00334545
25	0x2bc19a85	1.3756363e-12
26	0xba03a356	-0.00050215924
27	0xbb35cd43	-0.0027740754
28	0xb996c460	-0.0002875654
29	0xb9e3d95d	-0.00043458762
30	0xba5b5865	-0.0008367359
31	0xbb028a2c	-0.0019918783
32	0x38fc1b13	0.00012021339
33	0xaef5e800	-1.11825216e-10
34	0x3a1108d5	0.0005532627
35	0xba62c632	-0.0008650749
36	0xbaba1854	-0.0014197924
37	0xb9a22562	-0.000309269
38	0xb904c66e	-0.00012662422
39	0xba56f2a0	-0.0008199606
40	0xba20c995	-0.00061335537
41	0xba82e6ba	-0.0009986975
42	0xbad7b223	-0.0016456287
43	0xbaf90cff	-0.0019001066
44	0xb96c5650	-0.00022538868
45	0xba3ed710	-0.00072799716
46	0xba25b12f	-0.0006320653
47	0x3a8c8a53	0.0010722376
48	0xb978490e	-0.00023678338
49	0xba79e217	-0.0009532286
50	0xba6a5713	-0.00089393667
51	0xbae7fd30	-0.0017699357
52	0x39a259b9	0.00030965896
53	0xb9c93fba	-0.00038385188
54	0xb9bc18de	-0.00035876682
55	0xb9384db5	-0.00017576556
56	0x37a45d00	1.959363e-05
57	0x393523cf	0.00017274845
58	0xb9e8247f	-0.0004427768
59	0xbaf3493e	-0.0018561257
60	0xbc0e5be8	-0.008688904
61	0xbb5117c7	-0.0031905042
62	0xba55a1b3	-0.00081494
63	0xbb5c32c7	-0.0033599602
64	0xb5b3e370	-1.3402732e-06
65	0xbb1af376	-0.002364365
66	0xba79d8f0	-0.00095309224
67	0xb9613a9d	-0.00021479507
68	0xba28af28	-0.0006434792
69	0xbb09f182	-0.002104849
70	0xbb8507b7	-0.0040597576
71	0xbb587636	-0.0033029444
72	0x31d4f62d	6.197999e-09
73	0xb98516b6	-0.00025384658
74	0x3981c065	0.00024748142
75	0xb9d7684a	-0.00041085697
76	0x3a1b1cef	0.0005917092
77	0xba8d7b53	-0.00107942
78	0xbab5541d	-0.0013834272
79	0xba44c06e	-0.0007505481
80	0xbaee2b32	-0.0018170832
81	0xb9f541f0	-0.0004677917
82	0xba91c801	-0.0011122228
83	0xba49b093	-0.0007693853
84	0xbb731bca	-0.003709542
85	0xbad2de38	-0.0016087955
86	0xbab47107	-0.0013766595
87	0xbb385639	-0.0028127565
88	0xb8b36c39	-8.555543e-05
89	0xba4ad194	-0.0007736918
90	0xb88839d8	-6.4957596e-05
91	0xb9f910a3	-0.00047505376
92	0x3b4e78c3	0.0031505085
93	0xbaa0c7dd	-0.0012266595
94	0xba736587	-0.0009284843
95	0xba780b55	-0.0009462138
96	0xba8b4776	-0.0010626155
97	0xba572045	-0.00082064077
98	0xbb56085d	-0.0032658793
99	0xba3471c3	-0.0006883407
100	0xbba12933	-0.0049182414
101	0xba27781e	-0.0006388443
102	0x355ea480	8.2940824e-07
103	0xbb356d70	-0.0027683638
104	0x3936b6b1	0.0001742493
105	0xb9d39195	-0.00040353523
106	0xba6d4a9a	-0.0009051949
107	0xb9deaa23	-0.000424699
108	0x2676ef3b	8.5672613e-16
109	0xb9645bc2	-0.00021777957
110	0xba42fb35	-0.00074379455
111	0xb9b33794	-0.0003418295
112	0xbaa3f584	-0.0012509082
113	0xb9e5d3a4	-0.00043835968
114	0x3ae504d6	0.0017472755
115	0xbacaeba6	-0.0015481606
116	0xba8322d2	-0.0010004884
117	0xbb5e8213	-0.0033952042
118	0xb87ea1dd	-6.0709066e-05
119	0x3b41b4f9	0.002955733
120	0xbacacb8d	-0.001547204
121	0xb9c80f26	-0.0003815826
122	0x3960b66c	0.00021430262
123	0x05d6939e	2.0178689e-35
124	0xb9d52d6a	-0.00040660362
125	0x3aa4b5ee	0.0012566426
126	0xba2b1c53	-0.0006527353
127	0x311b6c1e	2.2616926e-09

network_body.linear_encoder.seq_layers.2.weight f4 [128, 128]
0	0x3c99cdd3	0.018774902
1	0x3d5f50e6	0.05452051
2	0xbd8a3c6c	-0.06749806
3	0xbe1e7ec9	-0.15478052
4	0x3e219b8a	0.1578199
5	0xbd1fa197	-0.038972463
6	0xbe43c21c	-0.19117016
7	0xbdd55c29	-0.10417969
8	0x3cd31897	0.025768561
9	0x3df815bc	0.121135205
10	0xbdf3ed21	-0.11910463
11	0xbd5494ad	-0.0518996
12	0x3db8043e	0.08985184
13	0x3e480952	0.19534805
14	0x3d2456a0	0.040121675
15	0xbe02acad	-0.12761183
16	0x3d2a921d	0.04164325
17	0x3d7e5463	0.062092196
18	0xbc8fd41a	-0.017557193
19	0xbdaf85e9	-0.08570463
20	0x3d416604	0.04721643
21	0xbd561592	-0.052266665
22	0x3deff43e	0.117165074
23	0xbdb30cfd	-0.08742712
24	0xbc98c85a	-0.018650223
25	0x3c9b5f85	0.018966446
26	0xbdb5e9be	-0.088824734
27	0xbe3a0e27	-0.18169461
28	0xbe0547c2	-0.13015655
29	0x3dfcc678	0.123425424
30	0x3dd0fea0	0.10204816
31	0xbbaf5736	-0.0053509725
32	0x3c81ba0d	0.015835786
33	0xbdf53a69	-0.119740315
34	0x3d92cdd7	0.07168167
35	0x3dd21f26	0.10259847
36	0xbda06ac4	-0.07832864
37	0xbd1ce7c2	-0.03830696
38	0xbcdce368	-0.026963905
39	0x3dd1628a	0.10223873
40	0x3db50d6a	0.08840449
41	0x3ceab945	0.028652797
42	0x3caaeca6	0.020864796
43	0xbcecd0c1	-0.028908135
44	0xbe29e426	-0.16590938
45	0x3cf35c22	0.029707018
46	0xbd2da5b3	-0.04239435
47	0x3e1a3b8b	0.15061776
48	0xbd9dcaa4	-0.07704666
49	0xbeab23ea	-0.33425838
50	0x3dd56992	0.104205266
51	0x3dd67e93	0.10473361
52	0x3cce59d5	0.02518932
53	0xbe20284b	-0.1564037
54	0xbdd2a4ab	-0.10285314
55	0xbda3fd05	-0.08007244
56	0xbdcb8ab1	-0.09938563
57	0x3e1f60e2	0.15564302
58	0x3d0a4e7e	0.033766262
59	0xbdd527fa	-0.104080155
60	0xbd9e1e44	-0.077206165
61	0xbd8ff108	-0.07028395
62	0x3b9a9507	0.0047174725
63	0xbdd59184	-0.104281455
64	0x3db2241f	0.08698296
65	0x3c3c027a	0.0114752
66	0x3e454e59	0.19268169
67	0x3c58adf2	0.013225066
68	0xbd65be3f	-0.056089636
69	0x3d77536b	0.060382288
70	0xbdf2498b	-0.118304335
71	0x3d8971e9	0.0671118
72	0xbdbbfe93	-0.091794156
73	0x3c2d7959	0.010588014
74	0xbe11f1e8	-0.14252436
75	0x3e4bb53d	0.19893356
76	0x3cd75159	0.026283907
77	0x3d78fc4b	0.06078748
78	0x3d9ee4fa	0.077585176
79	0x3cc8137a	0.02442335
80	0xb8de6f93	-0.00010606567
81	0xbc3fc994	-0.011705775
82	0xbc08521c	-0.008320358
83	0xbc9ca92f	-0.019123642
84	0xbd9e2160	-0.077212095
85	0x3d62fb6d	0.05541556
86	0xbe01fd30	-0.1269424
87	0x3d3cbfa8	0.046081215
88	0xbdf61cd9	-0.12017221
89	0xbd1c883e	-0.03821587
90	0x3c98133e	0.018563863
91	0x3dbf7a64	0.09349516
92	0xbe0db407	-0.13838206
93	0x3cbf6aeb	0.023366412
94	0xbd9db888	-0.07701212
95	0xbd2b602c	-0.041839764
96	0x3cf8c895	0.030369082
97	0x3d8defc6	0.06930499
98	0xbdc2e3c9	-0.09516103
99	0xbdad3d44	-0.08458951
100	0x3d5288f8	0.051400155
101	0xbc28db1e	-0.010306148
102	0x3c8643f9	0.016389834
103	0xbd75b168	-0.05998364
104	0xbc18da7b	-0.009329434
105	0x3cfe54a4	0.03104622
106	0xbd45be8c	-0.048277423
107	0xbdd05de1	-0.10174156
108	0x3c9f7eb3	0.019469595
109	0xbd9406ad	-0.07227836
110	0x3c8a4dfa	0.016882885
111	0x3c19a719	0.009378218
112	0x3d0b79d0	0.034051716
113	0x3ca517ea	0.020153005
114	0xbe29cd46	-0.16582212
115	0x3dd548d3	0.10414281
116	0x3dcdc1bf	0.1004672
117	0x3d1894ca	0.03725127
118	0x3d0e0aef	0.034678396
119	0xbd200b48	-0.03907326
120	0xbe0f1116	-0.13971362
121	0xbbb2907a	-0.005449352
122	0x3e5fbbcf	0.21848987
123	0xbdc6397d	-0.09678934
124	0xbe194aa8	-0.14969885
125	0xbdd05f05	-0.101743735
126	0xbe056d17	-0.13029896
127	0x3d9410e4	0.07229784
128	0xbc275a24	-0.010214362
129	0x3b8b8f9c	0.004259063
130	0x3db49112	0.088167325
131	0x3da138be	0.07872151
132	0x3d38932f	0.04506224
133	0xbda6eadc	-0.081502646
134	0xbdabbe52	-0.0838591
135	0x3e44cb16	0.19218096
136	0xbe18e164	-0.1492973
137	0xbe1b9502	-0.1519356
138	0xbe98ed48	-0.2986853
139	0xbdb14ff5	-0.08657829
140	0x3cdf9301	0.027291777
141	0xbd3620bf	-0.044464823
142	0xbcccee9f	-0.025016127
143	0xbdf19575	-0.11796085
144	0xbe0d37f3	-0.13790874
145	0x3abd295a	0.0014431879
146	0x3deb0e0c	0.114772886
147	0xbc30af72	-0.010784017
148	0x3bfb84e0	0.007675752
149	0x3cab3a88	0.020901933
150	0x3c137a25	0.0090012895
151	0x3c98784d	0.018612051
152	0xbd563fc1	-0.052306894
153	0x3dd7583b	0.105148755
154	0x3c95e363	0.018296903
155	0x3db24c23	0.08705928
156	0xbdf1d9b8	-0.11809105
157	0xbe0309bb	-0.1279668
158	0xbdf6e1c6	-0.120547816
159	0xbca7c420	-0.020479262
160	0xbdb4ea4d	-0.08833752
161	0x3e160b9a	0.14652863
162	0xbdc56f98	-0.096404254
163	0x3cda89e0	0.026677072
164	0x3e11d45b	0.14241163
165	0xbdc62bb7	-0.09676307
166	0x3dde2959	0.1084773
167	0xb9849a15	-0.00025291802
168	0x3de0e291	0.10980714
169	0xbdb540cd	-0.088502504
170	0xbe8a9685	-0.27067962
171	0x3ccc7370	0.024957389
172	0x3d15bff8	0.03656003
173	0xbdf518a6	-0.11967592
174	0x3d13e5dd	0.036107887
175	0x3e5aee04	0.21379858
176	0x3cd70d17	0.026251359
177	0x3d92d5ab	0.0716966
178	0x3e17c48d	0.14821072
179	0xbd5c306e	-0.053757124
180	0xbcd1de43	-0.025618678
181	0x3e205ce4	0.15660435
182	0xbdcab157	-0.09897106
183	0x3d820728	0.06349021
184	0xbcb196c8	-0.021678343
185	0x3d71f5cc	0.0590723
186	0xbd55a48a	-0.05215887
187	0x3d6f038e	0.058353
188	0xbdd57199	-0.10422058
189	0xbb43fbd3	-0.0029904738
190	0x3dd916e0	0.10600066
191	0x3d63492c	0.055489704
192	0xbdb1f437	-0.086891584
193	0x3d8f16cc	0.0698677
194	0x3dc15d50	0.09441626
195	0x3e1c5aca	0.15269008
196	0x3e0836ba	0.13302127
197	0xbdd192d6	-0.10233085
198	0xbc5b986a	-0.013403038
199	0x3cd15515	0.025553266
200	0x3cae13a6	0.021249603
201	0x3ce663ba	0.028123725
202	0xbe697e22	-0.22802022
203	0x3b949bed	0.0045351894
204	0xbd4255b6	-0.04744502
205	0x3d1cb277	0.038256135
206	0x3d460488	0.048344165
207	0x3e8aabfd	0.27084342
208	0x3c20e706	0.009820705
209	0xbe1a52ff	-0.15070723
210	0x3d402508	0.046910316
211	0x3dc5705a	0.0964057
212	0xbd57f3fc	-0.052722916
213	0x3d220d16	0.03956326
214	0xbd6751a2	-0.056474335
215	0xbdf7e370	-0.12103927
216	0xbc9f0176	-0.019409876
217	0xbe2ffb2c	-0.17185658
218	0xbe273214	-0.16327697
219	0x3cb59787	0.02216698
220	0x3d148001	0.036254887
221	0xbced9dcf	-0.029005913
222	0xbd7ea1cb	-0.062166017
223	0xbde26e76	-0.11056225
224	0xbd9ba5c9	-0.075999804
225	0x3e1d2685	0.15346725
226	0x3d7cd8d3	0.061730217
227	0xbd9095ba	-0.07059808
228	0x3e665d3c	0.22496504
229	0x3da3f910	0.08006489
230	0x3e520ace	0.20511934
231	0x3d9bdc31	0.076103576
232	0x39e95153	0.00044501814
233	0xbda2db6a	-0.07952006
234	0x3c566216	0.013084909
235	0x3da42811	0.080154546
236	0x3d6818f9	0.05666444
237	0xbde4b6c5	-0.11167673
238	0x3ddcf2ed	0.10788522
239	0xbdd5b29a	-0.10434456
240	0xbda22398	-0.07916945
241	0x3d71f6ef	0.059073385
242	0xbc7e5542	-0.015523257
243	0xbd885d86	-0.06658463
244	0x3ded7f57	0.11596554
245	0xbcb5f99e	-0.022213753
246	0xbd111bb7	-0.03542682
247	0xbdf3c6fa	-0.11903186
248	0xbd8a42fc	-0.067510575
249	0xbe05ac12	-0.13053921
250	0x3c4bcd46	0.012439078
251	0xbe033570	-0.12813354
252	0x3d278efd	0.04090785
253	0xbdf1b0dd	-0.11801312
254	0xbce2b121	-0.027672352
255	0x3ce2d2ad	0.027688349
