Unity - Crypto Ball/results/ScoreGoal0/My Behavior/My Behavior-3128.pt (torch, 153807 bytes, 12 tensors)

network_body.linear_encoder.seq_layers.0.weight f4 [128, 9]
00000000: dbfb 743d 4479 213f 6669 f1bd f7d2 a6bd
00000010: ee7c 5bbe aae3 82be 28e5 b43e bb75 de3e
00000020: f80c 823e 9b77 2b3d 4c3d af3e 028e ba3d
00000030: 4ad5 263f 3a49 aebe ceb7 b83d 63dd aa3e
00000040: 9d2e 09bd d945 13be cc72 58be 112b 17be
00000050: 9eb0 6d3e e31d 753a c8db 483d 22bf 92be
00000060: 96b9 fc3e 18eb 833d d168 8dbe 1333 2cbf
00000070: a996 883e 284c 0d3e 5294 1a3e 2ebd cbbe
00000080: 362f 01be c701 99be cec1 333d a2aa 5bbe
00000090: 2ea0 6d3e 6a40 c83d 4c19 d8be b787 3e3e
000000a0: 8e2f 8ebe c052 bebd 878d ddbd d0f1 d8be
000000b0: cfc2 e13e f300 ae3c 4703 2a3e e013 7dbe
000000c0: 0282 e53e d752 2c3d 7acc 543e f8db 253e
000000d0: fab5 933d 2fff 89be af4a f6bc b3da 4e3c
000000e0: 6e5a 043f 3e96 a0be 2033 59be b7df 15bf
000000f0: 0640 9ebe 945c 90be b417 f93e fbeb 3f3b
00000100: 3270 253f 261a a6be 347e 21bf 52ee 8abd
00000110: baa1 37be e346 b7bd 1698 673d 51ad 94be
00000120: 23ba 453b 524f 1cbe 8687 c9be 605a 2bbe
00000130: cabb a43e 1bb5 a0be f648 81be 4c5c 053e
00000140: c0db dabe e73f e7be 0b27 64bd efb9 dabd
00000150: 28cf 9bbe 6bcc ae3d cf6e 6dbe 6f06 df3d
00000160: 06b7 1dbd 9a12 71be e034 953e 8779 5ebd
00000170: f05b 773e 46e3 45be 1e5f b63c 967f 1e3f
00000180: f65f 063f 8abf 32be 787a 453f 5e0a 8c3e
00000190: a6a4 303e ccbc efbd 3b89 8c3d 03eb 563e
000001a0: 2851 f73e b091 ed3d d340 2e3e 22c8 5e3d
000001b0: c6a3 5c3e baf2 a1be 0ce5 823d d1e9 0cbf
000001c0: 63f0 b0bc 9a7b 993e 285a fbbe 2634 d53c
000001d0: c307 c3bd 8bf8 a4be 8e57 94bd 5ef5 b5bc
000001e0: 8e1b cfbe 97ea e73e 7f37 37be 7c4b 15bf
000001f0: d2f9 b7bd 5a91 3c3d eb0b 42bd da3c 3c3f
00000200: f464 bfbc 66df 52bd b8f0 fb3e aba8 4d3a
00000210: 68dc bbbb 4f04 e03e ccf5 9e3e 5b76 04bf
00000220: 1c0e 9cbe 4649 64be 74be af3e 9019 1dbe
00000230: 2e5c 053e f6dc a7be e6de d13c 9476 9abc
00000240: cfd1 74be e858 30be e6d2 04bf 44e4 d13d
00000250: e4f4 b13e 3720 aa3e 9295 eebd 8c7f 4e3e
00000260: a281 ee3d 92ae 343e 7f09 36bc 7c66 88be
00000270: f9cb 29be b224 c0be aa8a 52be 2eab 7a3e
00000280: 981c c9be db5f dcbe d231 c33e 4980 8ebf
00000290: e28a 723c ebb6 c4bd f795 dc3e 247c 3dbd
000002a0: e2eb 32bd 366b e8be 1f4e 0abe 47ff a5bc
000002b0: cc84 18bd 390c 203f 572b b1bc 1246 a6be
000002c0: 498e 98be 6fbc 533e a729 f53e ec84 a0be
000002d0: dc50 70bd a09c bc3d f232 98ba 066b bb3e
000002e0: 103b 02bf 9260 4cbe 841c e53d d4bf f53e
000002f0: 7899 f73e de29 3b3c b2ae f93e cfc2 713e
00000300: 382d 9fba c615 7dbe 38bf 123f 5028 5c3e
00000310: 1446 5cbc 1d3c 0b3e 026a 15be 4522 07be
00000320: 3ff4 a73e 5800 a9bd 243b b23e 2d1c a93e
00000330: b89e 6c3e be8c e3be b6db 1d3f d233 09be
00000340: 96d7 183e d223 963e c25f fabe e15b aabe
00000350: 0efb 27bd 3650 c23c b7df e03e 388e f8bd
00000360: 3c2c bc3e f27f 91be be9d a2bd 6bce 663e
00000370: 98ee a93d 1469 d1bd ef79 313e d0d0 1abf
00000380: 17cf 5ebe 6044 d63e 77a7 53bd 56ec a3bd
00000390: 167b 4ebf 5faa 0c3f ca01 653e 745e 2f3e
000003a0: 1d87 8c3e ef7c e33d 8c0d 50be 4c28 e13e
000003b0: 8c3c 13be 9885 49bc 3f42 57be 9f8a 59bf
000003c0: 746f 293e 41cd 873e 4bb3 02be 1234 013f
000003d0: 7e95 2b3e 9eb2 753e d0a4 b6be 4adf 1cbe
000003e0: 2637 81bf 6202 2cbb 70c3 a13d 3e2b a53d
000003f0: f3dd 963e 7f4f 62be 0afb e83d 5068 2bbc
0.0598105 0.6307566 -0.11787681 -0.08145707 -0.21434376 -0.2556432 0.35331082 0.43449196
0.2540052 0.04186211 0.34226453 0.09109117 0.65169203 -0.34040242 0.09019433 0.3337203
-0.03349172 -0.14382114 -0.21137542 -0.14762522 0.23211905 0.0009350462 0.049037725 -0.28661448
0.4936034 0.06441325 -0.2761903 -0.67265433 0.26677445 0.13798583 0.15095642 -0.3979277
-0.12615666 -0.29884169 0.043886 -0.2145181 0.23205635 0.09777911 -0.422068 0.18606459
-0.27770656 -0.09293127 -0.1081801 -0.42371988 0.4409394 0.021240687 0.16602813 -0.24714613
0.4482575 0.04207119 0.20781127 0.16197193 0.07212444 -0.26952502 -0.030064909 0.012625384
0.51700485 -0.31364626 -0.21210909 -0.58544487 -0.3090822 -0.28195632 0.48650897 0.0029284942
0.6462432 -0.32441825 -0.63083196 -0.06783737 -0.17932788 -0.089490674 0.056541525 -0.2903848
0.003017076 -0.15264633 -0.3936121 -0.16733694 0.32174522 -0.31388173 -0.25250977 0.1302349
-0.4274578 -0.4516594 -0.055701297 -0.10679995 -0.30431485 0.085350834 -0.23186801 0.10889899
-0.038504623 -0.23542252 0.29141903 -0.054315116 0.24156165 -0.19324979 0.022262152 0.6191343
0.52490175 -0.17455879 0.7714 0.2735166 0.17250308 -0.11705932 0.06862112 0.20988087
0.48304105 0.11600053 0.17016916 0.05439008 0.2154685 -0.31630498 0.063913435 -0.55044276
-0.021599 0.29977113 -0.4909222 0.026025843 -0.09522965 -0.32220873 -0.07243262 -0.022211727
-0.4045071 0.45296165 -0.17892264 -0.58318305 -0.08983196 0.046037056 -0.047374647 0.7353035
-0.023363568 -0.05148258 0.4920709 0.0007845263 -0.0057330616 0.43753287 0.31046903 -0.51743096
-0.30479515 -0.22293577 0.34324992 -0.15341783 0.13023445 -0.32785767 0.025618982 -0.01885537
-0.2390816 -0.17221415 -0.51884305 0.10248616 0.3475715 0.33227703 -0.11649622 0.20165843
0.11645819 0.17644718 -0.0111106625 -0.2664069 -0.16581716 -0.37527996 -0.20560709 0.24479362
-0.39279628 -0.43041882 0.38123947 -1.11329 0.01480362 -0.09605201 0.43083164 -0.046260968
-0.043681987 -0.45394295 -0.13506363 -0.020263327 -0.03723602 0.6251865 -0.021627111 -0.32475334
-0.29796055 0.2067735 0.4788334 -0.3135141 -0.058670864 0.09209561 -0.0011611863 0.3660509
-0.5087137 -0.19958714 0.111870795 0.47997916 0.48359275 0.011423556 0.48766094 0.2360947
-0.0012144214 -0.24715337 0.57323027 0.21499753 -0.013444442 0.1359715 -0.1459122 -0.13196667
0.32803532 -0.08252019 0.34810746 0.3302931 0.23107421 -0.44443315 0.6166338 -0.13398674
0.1492599 0.29324204 -0.48901182 -0.33273223 -0.04101091 0.023719888 0.4392068 -0.12136501
0.36752498 -0.28417927 -0.07940243 0.2253968 0.08297461 -0.1022512 0.1733167 -0.6047487
-0.21758686 0.4184904 -0.05167338 -0.08004062 -0.80656564 0.54947466 0.22363964 0.17125875
0.27446833 0.111078136 -0.20317668 0.43976057 -0.14378566 -0.012299918 -0.21021365 -0.84977144
0.16546422 0.26523784 -0.12763707 0.5047008 0.16756245 0.23993918 -0.35672617 -0.15319553
-1.0094955 -0.0026246537 0.07898605 0.080648884 0.2946621 -0.22100638 0.11376007 -0.010461882

network_body.linear_encoder.seq_layers.0.bias f4 [128]
00000000: 0000 0000 0000 0000 0000 0000 0000 0000
00000010: 0000 0000 0000 0000 0000 0000 0000 0000
00000020: 0000 0000 0000 0000 0000 0000 0000 0000
00000030: 0000 0000 0000 0000 0000 0000 0000 0000
00000040: 0000 0000 0000 0000 0000 0000 0000 0000
00000050: 0000 0000 0000 0000 0000 0000 0000 0000
00000060: 0000 0000 0000 0000 0000 0000 0000 0000
00000070: 0000 0000 0000 0000 0000 0000 0000 0000
00000080: 0000 0000 0000 0000 0000 0000 0000 0000
00000090: 0000 0000 0000 0000 0000 0000 0000 0000
000000a0: 0000 0000 0000 0000 0000 0000 0000 0000
000000b0: 0000 0000 0000 0000 0000 0000 0000 0000
000000c0: 0000 0000 0000 0000 0000 0000 0000 0000
000000d0: 0000 0000 0000 0000 0000 0000 0000 0000
000000e0: 0000 0000 0000 0000 0000 0000 0000 0000
000000f0: 0000 0000 0000 0000 0000 0000 0000 0000
00000100: 0000 0000 0000 0000 0000 0000 0000 0000
00000110: 0000 0000 0000 0000 0000 0000 0000 0000
00000120: 0000 0000 0000 0000 0000 0000 0000 0000
00000130: 0000 0000 0000 0000 0000 0000 0000 0000
00000140: 0000 0000 0000 0000 0000 0000 0000 0000
00000150: 0000 0000 0000 0000 0000 0000 0000 0000
00000160: 0000 0000 0000 0000 0000 0000 0000 0000
00000170: 0000 0000 0000 0000 0000 0000 0000 0000
00000180: 0000 0000 0000 0000 0000 0000 0000 0000
00000190: 0000 0000 0000 0000 0000 0000 0000 0000
000001a0: 0000 0000 0000 0000 0000 0000 0000 0000
000001b0: 0000 0000 0000 0000 0000 0000 0000 0000
000001c0: 0000 0000 0000 0000 0000 0000 0000 0000
000001d0: 0000 0000 0000 0000 0000 0000 0000 0000
000001e0: 0000 0000 0000 0000 0000 0000 0000 0000
000001f0: 0000 0000 0000 0000 0000 0000 0000 0000
0.0 0.0 0.0 0.0 0.0 0.0 0.0 0.0
0.0 0.0 0.0 0.0 0.0 0.0 0.0 0.0
0.0 0.0 0.0 0.0 0.0 0.0 0.0 0.0
0.0 0.0 0.0 0.0 0.0 0.0 0.0 0.0
0.0 0.0 0.0 0.0 0.0 0.0 0.0 0.0
0.0 0.0 0.0 0.0 0.0 0.0 0.0 0.0
0.0 0.0 0.0 0.0 0.0 0.0 0.0 0.0
0.0 0.0 0.0 0.0 0.0 0.0 0.0 0.0
0.0 0.0 0.0 0.0 0.0 0.0 0.0 0.0
0.0 0.0 0.0 0.0 0.0 0.0 0.0 0.0
0.0 0.0 0.0 0.0 0.0 0.0 0.0 0.0
0.0 0.0 0.0 0.0 0.0 0.0 0.0 0.0
0.0 0.0 0.0 0.0 0.0 0.0 0.0 0.0
0.0 0.0 0.0 0.0 0.0 0.0 0.0 0.0
0.0 0.0 0.0 0.0 0.0 0.0 0.0 0.0
0.0 0.0 0.0 0.0 0.0 0.0 0.0 0.0

network_body.linear_encoder.seq_layers.2.weight f4 [128, 128]
00000000: c617 843c a302 763c bcd0 393c a82b 55bb
00000010: e2f3 523d 4909 09be 1090 9c3b 726c 313d
00000020: 5b44 273e 2e06 293d af2d c73d 2bc3 943c
00000030: 3c8e 6abc ed53 8a3d e66e 5dbc 220a cbbc
00000040: 06c0 843d 773f b1bd 6864 53bd 33a0 e13c
00000050: 154c f7bd 8b25 663d c814 57bd ad70 26be
00000060: f049 81bd 193e a6bd 9536 653d 09ed e5bc
00000070: 8c4e 243d 28ec df3d 4aa8 81bb a931 d73b
00000080: d1c3 72bc bf20 9d3d a72d 893d 54cc 18bd
00000090: 7b64 2d3d ae1e 723c 6fad 2b3d 31cc 7abc
000000a0: d52c 813d e8ba 6eba f390 263e 03ff 943d
000000b0: 98b9 ae3b 3d69 2cbd 6be3 bfbb c415 f7bc
000000c0: 9409 0e3e c13f 92bc 637d 883c 6023 713d
000000d0: 02a7 3ebe 4a7b 36bd d3b8 103d e428 98bc
000000e0: 8d49 613c c955 ac3d 8186 0cbd 68c7 263e
000000f0: bf25 2ebc ac62 acbd 5ac8 b03d 4f8e 2a3e
00000100: 77d8 a53d eb96 63bd 6654 dcbb 182e 2d3d
00000110: f78b a2bd e40a 2a3c 057c 6c3c 62d1 1abc
00000120: 5cab 90bc 8516 0cbe 5371 063e 9070 523d
00000130: dd32 aa3d 3d81 72bd b5e7 153e 4dc9 743e
00000140: f824 b83d e35b 843d 8960 313d 8284 78bd
00000150: 6819 37be f1f8 e13d 8c91 dfbc 4cca eb3c
00000160: 24aa 80bd 5c6f e73d 1333 9bbd eb53 9bbd
00000170: 9282 043e 9a48 ac3d a923 e83d 1a3a e93d
00000180: f983 bf3d 601d d9bd 3a57 74bd 5ba5 3ebe
00000190: 73f2 82bc aa89 26bc 25ec 6bbc 03f3 02bd
000001a0: badf 4c3e 7b09 cd3c 9f9a 593c 623d c43d
000001b0: 6c40 0abc 9240 a0bd 7caf 9e3c f618 d43b
000001c0: 01b6 0c3e 951d 4a3d 7fd2 49bd 2426 83bc
000001d0: 504b 603b 30f3 c4bd c44f 8c3d f37c 0dbd
000001e0: 3ed0 36bd 1dc0 363c a635 b9bd 547e 25bc
000001f0: 4a93 07bd d2e6 4fbd acad 5abc 7957 2b3c
00000200: 8110 10bc 2e50 8b3d ca5a 04bd 008d 703c
00000210: ae59 863d e4f7 603d 0ed5 b2ba a0fc e13c
00000220: da97 62bd c015 2a3e ebea 53be 043d a6bd
00000230: 171d 973d 15de f3bd 3dec 19bb 5dcf 983d
00000240: a589 073c b13b 843c da06 203c 3cbd 093e
00000250: f348 bf3b 23bb c43c 611d a83d 23f1 45bd
00000260: cb4a cabd c5aa 163e f91b 943d 4342 aabd
00000270: 8deb fb3d da02 063b bea4 843d 1c3b c93c
00000280: 0ca3 b6bd d59b 803d e7a9 fabd 0c6f a13d
00000290: 903a ca3d 6b6a e7bd 90f4 dd3c 7e40 6dbd
000002a0: 9485 4eba 760c 59bc f446 273c 9c9d fcbc
000002b0: 37c3 4abd 14c6 343e 8d5d d23d 1baa 7ebc
000002c0: e108 6a3d e50b e2bd f879 d63d fc39 2b3d
000002d0: 84c9 07bd 75c5 813c c373 85be c179 75bd
000002e0: bc23 2b3d aafb dbbc 6e1c 26bc b5d4 4c3d
000002f0: 31a7 1c3c d738 833d e10b 3e3d af65 c93d
00000300: c34e 45bd 7011 a0bc 0acc e33d 02f7 0c3e
00000310: c35b 0cbd 6016 c1bd fd64 ecbd 6e60 97bd
00000320: a197 f03c 5b5a f0bb 390e e9bd 7d7f 093e
00000330: 6ba2 ec3c 6d43 6b3e fbe1 80bd 77eb dbbc
00000340: 8983 213d bb6d 56bd 8d38 c7bd 56fc fe3b
00000350: d90c 7fbd 520a bcbd 4abc 4a3e 7096 5c3d
00000360: d6bb b7bd 1ef4 a63c 3372 a5bc bbcd b63d
00000370: fb18 263e f0fe b23e 292c 6c3c c3d4 c7bd
00000380: f02f c63d f8f9 8ebd 8b53 37bd 7baa 57bd
00000390: d5f0 e93c 768e 84bd ed7d a83d b1fa 6ebd
000003a0: 945d ae3d 4ea5 2bbe fc3d c0bc 6dbb 05bd
000003b0: 4859 43bb 8b7a 7ebd 2334 4dbd 5488 763c
000003c0: b7b5 583d ee4c 2dbc 752b d4bd ffb1 99bd
000003d0: 848d 39bd 83ba 15bc 7e67 f5bc e145 1ebd
000003e0: 2539 a93c 351c 92bd 6bcb 01be 1821 7b3d
000003f0: e8ef 2a3e 6615 8abb 02b4 483d 625f 78bd
0.016124617 0.015015277 0.01134127 -0.0032527242 0.051502116 -0.13382448 0.004777916 0.043316312
0.1633467 0.04126566 0.0972551 0.01815947 -0.014316138 0.06754289 -0.01351521 -0.024785105
0.06481938 -0.08654683 -0.051609427 0.02754221 -0.12075058 0.056188148 -0.052510053 -0.1625392
-0.063129306 -0.08117313 0.055960257 -0.028067129 0.04011397 0.10933715 -0.003956829 0.0065671992
-0.014817194 0.076722614 0.066981606 -0.037304237 0.042332154 0.014777822 0.041913446 -0.015307472
0.06307379 -0.00091068307 0.16266231 0.07275202 0.005332183 -0.04209255 -0.0058559678 -0.030161746
0.13870841 -0.017852666 0.016661352 0.058871627 -0.18618396 -0.04455117 0.035332512 -0.018574186
0.013750446 0.084148 -0.03430796 0.16287005 -0.010629117 -0.08417258 0.08631964 0.16655849
0.08097928 -0.05556385 -0.0067239283 0.042280287 -0.079368524 0.010378573 0.014433865 -0.009449335
-0.017659836 -0.13680466 0.13129167 0.05137688 0.08310483 -0.059205282 0.1463917 0.23904915
0.08991426 0.064628385 0.043304954 -0.060673244 -0.17880785 0.1103381 -0.027291082 0.028782986
-0.06282452 0.11300537 -0.07578101 -0.075843655 0.12940434 0.08412285 0.11334927 0.11388035
0.09351344 -0.10601306 -0.0596535 -0.18617766 -0.01598475 -0.010164658 -0.014399563 -0.031970035
0.2000722 0.025028935 0.013281493 0.0958202 -0.008438211 -0.07824816 0.019370787 0.006472702
0.13741304 0.049344618 -0.04927301 -0.016009398 0.0034224577 -0.09616697 0.068511516 -0.03454299
-0.04463219 0.011154202 -0.09043436 -0.01010092 -0.03309945 -0.050757237 -0.013347071 0.010457867
-0.008792997 0.068024024 -0.032313146 0.0146820545 0.06560074 0.054923907 -0.0013643818 0.027586281
-0.0553206 0.1660986 -0.20695083 -0.081171066 0.07378595 -0.11907593 -0.0023486756 0.074614264
0.008272563 0.016141744 0.009767259 0.13451093 0.0058375536 0.024015015 0.082087286 -0.04832567
-0.09877547 0.14713581 0.07231898 -0.0831342 0.12300787 0.0020448477 0.064767346 0.024564318
-0.089178175 0.062797226 -0.122394376 0.07882509 0.09874451 -0.112995945 0.027094156 -0.057922833
-0.0007878181 -0.0132476 0.010209788 -0.030836873 -0.049502578 0.17653686 0.1027175 -0.015543486
0.057137374 -0.11037425 0.104724824 0.041803345 -0.033151165 0.015841225 -0.26064882 -0.059930567
0.041782126 -0.026853401 -0.010138614 0.05000754 0.009561346 0.06407326 0.046398047 0.09833848
-0.048170816 -0.019539565 0.11122902 0.13766101 -0.0342672 -0.09428096 -0.115426995 -0.073914394
0.029369177 -0.00733499 -0.11379666 0.13427539 0.02888604 0.2297494 -0.06293102 -0.026845677
0.039432082 -0.05235074 -0.09727583 0.0077815456 -0.06226811 -0.09181656 0.19798389 0.053854406
-0.08971374 0.020380076 -0.020196056 0.08925959 0.16220467 0.34960127 0.0144148255 -0.09757378
0.09677112 -0.069812715 -0.044757407 -0.052652817 0.02855722 -0.06472485 0.082271434 -0.058344547
0.08513942 -0.16762277 -0.023467056 -0.032649446 -0.0029807854 -0.062128585 -0.05009855 0.015047152
0.05290767 -0.0105774235 -0.10359851 -0.07504653 -0.045300975 -0.009138706 -0.029956575 -0.03864086
0.020657131 -0.07134286 -0.12675254 0.061310858 0.1669308 -0.0042139767 0.048999794 -0.06063784

network_body.linear_encoder.seq_layers.2.bias f4 [128]
00000000: 0000 0000 0000 0000 0000 0000 0000 0000
00000010: 0000 0000 0000 0000 0000 0000 0000 0000
00000020: 0000 0000 0000 0000 0000 0000 0000 0000
00000030: 0000 0000 0000 0000 0000 0000 0000 0000
00000040: 0000 0000 0000 0000 0000 0000 0000 0000
00000050: 0000 0000 0000 0000 0000 0000 0000 0000
00000060: 0000 0000 0000 0000 0000 0000 0000 0000
00000070: 0000 0000 0000 0000 0000 0000 0000 0000
00000080: 0000 0000 0000 0000 0000 0000 0000 0000
00000090: 0000 0000 0000 0000 0000 0000 0000 0000
000000a0: 0000 0000 0000 0000 0000 0000 0000 0000
000000b0: 0000 0000 0000 0000 0000 0000 0000 0000
000000c0: 0000 0000 0000 0000 0000 0000 0000 0000
000000d0: 0000 0000 0000 0000 0000 0000 0000 0000
000000e0: 0000 0000 0000 0000 0000 0000 0000 0000
000000f0: 0000 0000 0000 0000 0000 0000 0000 0000
00000100: 0000 0000 0000 0000 0000 0000 0000 0000
00000110: 0000 0000 0000 0000 0000 0000 0000 0000
00000120: 0000 0000 0000 0000 0000 0000 0000 0000
00000130: 0000 0000 0000 0000 0000 0000 0000 0000
00000140: 0000 0000 0000 0000 0000 0000 0000 0000
00000150: 0000 0000 0000 0000 0000 0000 0000 0000
00000160: 0000 0000 0000 0000 0000 0000 0000 0000
00000170: 0000 0000 0000 0000 0000 0000 0000 0000
00000180: 0000 0000 0000 0000 0000 0000 0000 0000
00000190: 0000 0000 0000 0000 0000 0000 0000 0000
000001a0: 0000 0000 0000 0000 0000 0000 0000 0000
000001b0: 0000 0000 0000 0000 0000 0000 0000 0000
000001c0: 0000 0000 0000 0000 0000 0000 0000 0000
000001d0: 0000 0000 0000 0000 0000 0000 0000 0000
000001e0: 0000 0000 0000 0000 0000 0000 0000 0000
000001f0: 0000 0000 0000 0000 0000 0000 0000 0000
0.0 0.0 0.0 0.0 0.0 0.0 0.0 0.0
0.0 0.0 0.0 0.0 0.0 0.0 0.0 0.0
0.0 0.0 0.0 0.0 0.0 0.0 0.0 0.0
0.0 0.0 0.0 0.0 0.0 0.0 0.0 0.0
0.0 0.0 0.0 0.0 0.0 0.0 0.0 0.0
0.0 0.0 0.0 0.0 0.0 0.0 0.0 0.0
0.0 0.0 0.0 0.0 0.0 0.0 0.0 0.0
0.0 0.0 0.0 0.0 0.0 0.0 0.0 0.0
0.0 0.0 0.0 0.0 0.0 0.0 0.0 0.0
0.0 0.0 0.0 0.0 0.0 0.0 0.0 0.0
0.0 0.0 0.0 0.0 0.0 0.0 0.0 0.0
0.0 0.0 0.0 0.0 0.0 0.0 0.0 0.0
0.0 0.0 0.0 0.0 0.0 0.0 0.0 0.0
0.0 0.0 0.0 0.0 0.0 0.0 0.0 0.0
0.0 0.0 0.0 0.0 0.0 0.0 0.0 0.0
0.0 0.0 0.0 0.0 0.0 0.0 0.0 0.0

action_model._continuous_distribution.log_sigma f4 [1, 5]
00000000: 0000 0000 0000 0000 0000 0000 0000 0000
00000010: 0000 0000
0.0 0.0 0.0 0.0 0.0

action_model._continuous_distribution.mu.weight f4 [5, 128]
00000000: 9729 4f3c 50bf 43bc 2d68 8bbc 0fcf 693a
00000010: 7eb2 3fbb 6b45 90bb 20ee 4f3c 17e8 483d
00000020: 1756 c2bb ef06 33bc 83f4 c53a e501 5ebb
00000030: 4e8f 0abd 1b74 7c3c 1aa4 30bb d5f9 3c3d
00000040: b763 7a3c fe63 043c 4ac6 14bc 4787 8abc
00000050: fb9c fcbc 6238 1cbb b029 013b d556 88bc
00000060: 1db8 6f3b 1907 2cbc e20c 9bbc cfe1 9d3c
00000070: c3a7 493c 4e58 3fbc 83c6 a0bc bbb9 17bc
00000080: 0bb2 adbc c975 9cbc 1025 183c 47d8 9fbb
00000090: 1828 dfbb 2df7 e83c 6f20 99bc 187d e53a
000000a0: 5bab 00bb 1293 f23b a971 b2bc df43 a5bb
000000b0: 1912 9bbc b56f ca3a f804 8ebb f3ce bc3b
000000c0: 3fd0 653c 4bcc 09bc 077a 84bc 539c 7fbb
000000d0: 4d5f df3b 189d 503c 5a81 adbc 93f7 163c
000000e0: c7eb f1bc 20eb 5c3b aa51 ba3a b6aa 0abc
000000f0: 6c12 12bc 5d5f bdbb 4277 c73b 7d36 0abc
00000100: f48e 32bc df15 c33c 65b9 d0bb 8fe2 683c
00000110: 9b0a 993c 5b90 233c 933c fd3a 8c2a a73c
00000120: 932b c338 3202 743c 7173 8fb9 ebc0 4cbc
00000130: 87d2 38bc 5255 f4bc dd5a b5bc 131b f7bc
00000140: 2e6f c1bc 8a34 363b f89a cd3c 9395 993b
00000150: 1517 823c 938a 09bc 92d5 e13b 15de 22bc
00000160: e344 0f3d b6f7 a33b 836a f7ba 2da8 78bc
00000170: 1a50 80bc 138f e5bc 8860 6b3b f898 d8bb
00000180: 0f42 043d 9ea7 a9bc a1ac 1cbc b3b4 bcba
00000190: 6794 a43b 7ba5 0e3b 5da8 443b 70be d23b
000001a0: a5f6 023c 9a50 62bc 784e 11bc 65aa f7bb
000001b0: 98d9 843c a815 85bb df1f b03b c6d5 2bbc
000001c0: e57e 643c f58e a8ba f58c 3fbc 8465 ac3c
000001d0: b8ef 1d3c c8e1 ff3a 47fa 063d d771 d83c
000001e0: cd6b cebb 8063 fb3c 2fbd a1bc b5cb 4d3b
000001f0: 9fbf 30bd c4d5 bcbc f219 76bc d70c 9cbb
00000200: 99f9 22bc 8a9f b53c 2419 063d 5730 de39
00000210: dbed 83bb 7277 e2bc 2bd1 eabc efa1 d8bc
00000220: aaca 0abc c727 15bc 320d 5f3c 3559 aabc
00000230: b541 42bc d775 65bb 6dc5 663c 5255 8cbc
00000240: 1352 0abb 45b4 243b ab02 14bd 58d5 f038
00000250: a35a e13c 97f6 4dbc 02c7 2ebc cd7f c4bc
00000260: 6808 0a3c 8bfe 363c 2fae c5bc d06c 6bbc
00000270: f102 8fbc 55c0 22bc 634c f3bb 0b16 6bbc
00000280: 9891 87bc bbd6 c7bc b8db 88bc 4402 4a3a
00000290: cb28 473c b814 6c3c 87cf 8fbc f744 9a3c
000002a0: 04b9 12bc f46f 9e3c cbf7 403b c638 9e3c
000002b0: 9735 423c 0fa3 873c 152d bdb9 f7d9 aebb
000002c0: 250d 853c 4def ee3b 866b 903c 85d6 7dbb
000002d0: f256 65bb 523e 84bc 95f2 95bb 4d35 01bc
000002e0: 5f64 9c3c 201a 07bc fbc6 05bd 4839 1f3b
000002f0: 50c3 c8bc 3fb6 87bc abc5 183d d27b 83bc
00000300: 5e18 2d3d 4fdb 85ba 5676 133c f091 803b
00000310: a3f9 80bb f6fd 0cbd 04fe 153c b47f 81bc
00000320: da67 2cbb 8d57 d63b 2f35 c23c a299 ecbc
00000330: 1a4a 513c 2fe3 893c d181 cbbb 8043 b23b
00000340: 436a 9bbc 7b86 73bc aeef 4abc d7ad b23c
00000350: e556 fc3b ca30 67bb 0077 423c 7039 fdbc
00000360: e8a5 0cba d8c4 653c 9bb5 2bbc b6db bd3b
00000370: 5f2a dbbb 9fba 9ebc 5ad5 783c 70a1 7bbc
00000380: b5e0 e53c 79cf 833c 1afe 593c 154e 913c
00000390: 5f22 323c 8029 743c 9ff3 a13b f2eb afbc
000003a0: ec98 b8bc 48dc 673c b3aa 803c 3a4d 803a
000003b0: 3d4c e93b 4511 33bc b374 373a ada7 2d3c
000003c0: b12e 1fbd f5e8 dc3c 4cf7 2bbd 9384 073b
000003d0: badc ebbc e87f 62bc 6070 26bd 37e8 8d3c
000003e0: 0031 723c 772d d5bc 5baf abbc 8c8d a23c
000003f0: 9f72 d8bc 4865 56bb 0f89 86bb a561 503b
0.012644193 -0.011947468 -0.017017448 0.0008919099 -0.0029250677 -0.0044028065 0.012691051 0.049049463
-0.005930673 -0.010926946 0.0015102777 -0.003387564 -0.033828072 0.015408541 -0.002695328 0.046136696
0.015282563 0.008080481 -0.009080479 -0.016910208 -0.030836573 -0.0023837318 0.0019708686 -0.016642967
0.0036578246 -0.010499739 -0.018927041 0.019272713 0.012308064 -0.011678768 -0.019625908 -0.00926059
-0.021203062 -0.019099133 0.00928618 -0.004878077 -0.0068101995 0.028438175 -0.018692223 0.0017508594
-0.0019633386 0.007402786 -0.021782713 -0.0050434913 -0.018929528 0.0015444668 -0.0043340884 0.005761975
0.0140267005 -0.008410524 -0.016171468 -0.0039003089 0.0068167807 0.012732767 -0.021179844 0.0092143
-0.029531373 0.0033709481 0.0014215012 -0.008463552 -0.008915525 -0.0057791905 0.0060872147 -0.008435843
-0.0108983405 0.02381414 -0.006369757 0.014214172 0.018681815 0.0099831475 0.0019320421 0.02040603
9.306441e-05 0.0148931015 -0.00027361096 -0.012497167 -0.011280662 -0.02982584 -0.022138054 -0.030164277
-0.023612585 0.0027802312 0.025098309 0.00468702 0.015880147 -0.008394855 0.0068919146 -0.009940644
0.034977805 0.0050038947 -0.0018876347 -0.015176815 -0.015663195 -0.028022325 0.0035915691 -0.006610032
0.03228956 -0.020709809 -0.009562642 -0.0014397114 0.0050225738 0.0021766115 0.003000758 0.0064313933
0.007993375 -0.013813162 -0.008868806 -0.0075581544 0.016217038 -0.0040614195 0.005374893 -0.010487979
0.01394627 -0.0012859987 -0.011691322 0.0210445 0.009639673 0.0019522244 0.032953527 0.02642147
-0.006299472 0.030687094 -0.01974353 0.0031401936 -0.043151494 -0.02305115 -0.015020834 -0.004762273
-0.009947204 0.0221708 0.03273882 0.00042379156 -0.0040261573 -0.027644847 -0.028664192 -0.026444403
-0.00847117 -0.009103722 0.013613986 -0.02079449 -0.011856486 -0.0035012865 0.014085156 -0.017130528
-0.002110605 0.0025131863 -0.036135357 0.0001148383 0.02750904 -0.012570999 -0.010667564 -0.023986721
0.008424856 0.011169086 -0.024130909 -0.014369205 -0.017457457 -0.009933551 -0.0074248775 -0.014348517
-0.016548917 -0.024394384 -0.016706333 0.0007706026 0.012155722 0.014409237 -0.017555011 0.018831713
-0.008955244 0.019340493 0.002944457 0.019314181 0.011853597 0.016557245 -0.00036082478 -0.005336042
0.01624162 0.0072917105 0.017629396 -0.00387326 -0.003499445 -0.016142998 -0.004576037 -0.007886243
0.01909083 -0.008245975 -0.032660466 0.0024295617 -0.024507195 -0.016566394 0.037297886 -0.016050253
0.042259566 -0.0010212454 0.009000381 0.003923647 -0.003936009 -0.034421884 0.0091548 -0.015807964
-0.0026307018 0.0065411986 0.023707 -0.028881852 0.012774015 0.016831962 -0.0062105437 0.0054401755
-0.018971568 -0.014863606 -0.012386246 0.021811409 0.0077007883 -0.0035276883 0.011869192 -0.030911177
-0.0005365298 0.014023982 -0.01048031 0.005794014 -0.0066884006 -0.019376097 0.015187586 -0.015358314
0.02806125 0.016090142 0.013305211 0.017737428 0.0108724525 0.0149024725 0.004942372 -0.021474812
-0.022533856 0.01415164 0.015706396 0.000978864 0.007119684 -0.01092941 0.00069982855 0.010599059
-0.038862888 0.026966551 -0.041983888 0.0020678386 -0.028791774 -0.013824441 -0.040634513 0.017322643
0.01478219 -0.026022656 -0.02095764 0.019842885 -0.026421843 -0.0032714177 -0.004105694 0.0031796482

action_model._continuous_distribution.mu.bias f4 [5]
00000000: 0000 0000 0000 0000 0000 0000 0000 0000
00000010: 0000 0000
0.0 0.0 0.0 0.0 0.0

critic.network_body.linear_encoder.seq_layers.0.weight f4 [128, 9]
00000000: 864c d63d 86cb ebbe b854 27be 3ff1 bc3d
00000010: c3c3 c43e af72 51be 2b4f 3d3e 70a0 853e
00000020: 0e12 163e 32ab d33e c8a1 6cbe 03c9 c3be
00000030: aafe fc3d 1f01 12bd 8f9d 9a3e d832 afbd
00000040: d306 06bf be46 34be 8402 8d3d 2841 9f3e
00000050: 0e29 9e3e 6fae debd ccc2 03be 1ef7 0fbe
00000060: 2f75 2bbe 2e05 87be 547f 4abf b746 e13e
00000070: 3eec be3d 9463 1bbf 72cc 0abf b798 6ebe
00000080: 76da b6be 87a9 cabb 9efd 213c 364d d03e
00000090: 1486 e7be 5631 4b3d 5cf3 c8be 6960 943e
000000a0: 532c c13e c7ab 7d3d 7294 32bf 64e2 e43d
000000b0: 5416 04bd 068e d13d faf4 de3b 43a1 2e3e
000000c0: e678 413d faba 113e dfef 113f 38cc 48bf
000000d0: dbbd 2a3e cb1e a2be e49a 14bf 5cd2 51be
000000e0: be58 7f3c 627b aa3e 4396 293e f63e 7b3e
000000f0: 4337 8a3c 9e14 98be f40c 99bd 7623 933d
00000100: cc2d 2c3e dc13 89be 2b3e f2bd 826e f23d
00000110: b881 1b3e f321 d1be d0a7 c33d 95af 1e3f
00000120: e650 0cbf 4b11 4bbe 2a75 243e bff5 e2bd
00000130: f599 0dbe b85d 5b3d a216 fd3d 5506 90be
00000140: 222a b3bd bc01 cc3e 4471 a83e c454 ae3e
00000150: 1a5c 273d 222d e9bd 1c79 c73d 5aec 21bf
00000160: e6c0 a63e 9a0e 7abe 1a16 15bd d945 093e
00000170: b81e 7f3e 923d e3be 94e6 90be 92bd d23e
00000180: 988c 943e 877d 57bd d611 133f a7f9 d0be
00000190: 7384 00bf 16d1 ce3e 6e16 bc3d e09a 13bf
000001a0: b173 853d 73ae 0cbf 4cd6 1e3e cedb 2e3e
000001b0: 1b5b b63e c4f3 f83d 2277 a73e b6be d0bd
000001c0: f240 aebe ff49 283d 6729 5abe 78fb a9be
000001d0: e3de bebe 4305 333f a2ae 25bf 160a 08bf
000001e0: 1f4a 24bf bfd2 f63e 9875 00be 4aa4 a93d
000001f0: 25f6 193d 2082 2c3e 13c6 4ebf 3c88 53bd
00000200: 7a0a c93e 3427 ff3d a0f2 b2bd 0298 42be
00000210: 2f72 053f 3277 65bd 823d ed3e 75ea 1abc
00000220: 222e 99be d6e2 85be e228 faba 76d3 c33d
00000230: 160c c23e c6d4 0fbf ae82 153d ccbe 1f3e
00000240: 39d9 1abd a39d d63e cb34 a63e c363 a1be
00000250: 2f4a ae3e acab 423e b666 47be 7c7e 863d
00000260: 9c9b 803c ac82 cebd 0caf b93e 5215 74be
00000270: b019 d23e 8745 e6be 47fe 13be bc8c ffbc
00000280: c0b9 243f 6423 a9be b788 f6be 2c56 2d3e
00000290: 6161 11be 353d a2bd 5bfb 423d a3ad f7bc
000002a0: 6323 78be 6d3b 1b3f 809c 723f 26d7 133d
000002b0: 9a12 07be 4a2e d4be 6b58 44bf a25e 3c3e
000002c0: b839 70bd 089c 5bbe 7b0c 253e 7498 9a3d
000002d0: e2ff 153e fc7a 6dbe 038a 42bd 2483 c3bd
000002e0: 43f7 ab3b 22f0 fb3e 34c9 5f3e a61a 47be
000002f0: edf5 a03e 4eb0 0dbf 574f 5cbd 4baf 5e3e
00000300: 1f43 263e 7892 2b3e 88ec 383c c727 c1bd
00000310: 933f 0d3e 2b93 c7be fe11 01be 47af c5be
00000320: 2a4e cb3e a0c8 d33e a030 02be 1df6 133f
00000330: 7002 123e e6ed 6dbe 7fcd 323e bb22 f13e
00000340: d13d 853e 6f4e f33d a6ce 49be c2ef 113e
00000350: 97a7 9f3e 9a41 b0bd 7666 f7be 5271 42be
00000360: c4ac 063f e025 953e fe2b b9bd 33e3 1dbf
00000370: f730 ae3a 5624 22be 1cf7 043e c412 013d
00000380: 2f74 b13e 885d aa3d 32f9 04be 9c80 babd
00000390: 38ac f63e 872c c9bd 231c 453f 433e 9c3e
000003a0: ce26 0cbf 6e53 b1be d4a6 923e 48eb 31bf
000003b0: 5359 4ebe 0f40 f8bd 8fd2 46be abb5 9ebc
000003c0: c8e4 903d fb09 503e cea9 6b3e 1e55 43bd
000003d0: c798 14bf 7ce5 083f cc6a d93e 1cef 403d
000003e0: c360 b5bd bf48 e9bd 42d3 42be 86b9 89bb
000003f0: a2de 06bf aad9 7a3c ac33 233d d614 a9be
0.104638144 -0.46053714 -0.16340911 0.092257015 0.38430604 -0.20453905 0.18487231 0.26098967
0.14655325 0.4134155 -0.2310859 -0.38239297 0.12353261 -0.0356456 0.30198333 -0.085546196
-0.5235416 -0.17605111 0.068852454 0.31104398 0.30890697 -0.10873114 -0.12867278 -0.14059111
-0.1674392 -0.2637114 -0.7910054 0.43999264 0.09322403 -0.6069882 -0.5421821 -0.23300444
-0.35713547 -0.00618476 0.009887127 0.40683907 -0.4521948 0.049607597 -0.39248168 0.28979805
0.3772913 0.061931398 -0.6975776 0.11175993 -0.032247856 0.10232167 0.006804106 0.17053704
0.04723444 0.14231482 0.5700664 -0.78436613 0.16673987 -0.31664118 -0.58048844 -0.20490402
0.015585123 0.3329726 0.16561227 0.24535736 0.016872054 -0.2970323 -0.07473174 0.07184498
0.16814345 -0.26772964 -0.11828264 0.11837484 0.15186203 -0.40846214 0.09553492 0.61986667
-0.5481094 -0.19830815 0.1606032 -0.110820286 -0.13828261 0.053556174 0.123578325 -0.2812983
-0.087482706 0.39845073 0.32898915 0.34049046 0.04085932 -0.113855615 0.09739897 -0.6325127
0.32569045 -0.24419633 -0.03639803 0.13405551 0.24914062 -0.44382912 -0.28300917 0.41160256
0.29013515 -0.052609947 0.5744909 -0.4081547 -0.502021 0.40393895 0.091839656 -0.57658195
0.06516207 -0.5495369 0.15511435 0.17076036 0.35616383 0.121558696 0.3270808 -0.10192625
-0.34033924 0.041086193 -0.21304856 -0.33199668 -0.37279424 0.69929904 -0.64719594 -0.5314039
-0.641756 0.48207662 -0.12544858 0.08283289 0.037588257 0.16846514 -0.8077099 -0.051643595
0.39265805 0.12458649 -0.08737683 -0.19003299 0.52127355 -0.056021877 0.4633599 -0.009455313
-0.2991801 -0.26149625 -0.001908567 0.09561817 0.37899846 -0.5618404 0.03650158 0.15600127
-0.037804816 0.41917142 0.32462153 -0.31521425 0.34040973 0.190108 -0.19472775 0.06567094
0.0156992 -0.100835174 0.36266363 -0.23836258 0.41035223 -0.4497492 -0.14452468 -0.031195037
0.6434593 -0.33034813 -0.4815118 0.16927403 -0.14197303 -0.079218306 0.047602993 -0.030234164
-0.24232249 0.6063755 0.9477005 0.036093853 -0.1319069 -0.41441566 -0.76697415 0.18395475
-0.058648795 -0.2144624 0.16118042 0.075486094 0.14648393 -0.23191446 -0.0474949 -0.095464975
0.0052479818 0.49206644 0.21854097 -0.1944376 0.31437626 -0.55347145 -0.053786602 0.21746556
0.16236542 0.16755092 0.011286862 -0.09431415 0.13793783 -0.38979468 -0.1260452 -0.38610289
0.39708072 0.41364002 -0.12713861 0.57797414 0.14258742 -0.23235282 0.17461203 0.4709681
0.26023725 0.118801944 -0.19707736 0.14251617 0.31182548 -0.086062625 -0.4832036 -0.18988541
0.5260737 0.2913046 -0.09041594 -0.61674803 0.0013289739 -0.15834174 0.1298489 0.031512037
0.34658954 0.08318621 -0.12985685 -0.091065615 0.48178267 -0.09822946 0.7699606 0.30516252
-0.5474671 -0.34633964 0.28642905 -0.69499636 -0.20151262 -0.12121593 -0.19416259 -0.019373735
0.070748866 0.20316307 0.23013994 -0.047688596 -0.5804562 0.53475165 0.42464292 0.047103032
-0.088563465 -0.11390828 -0.19025901 -0.0042030243 -0.5268346 0.015310684 0.0398442 -0.3302371

critic.network_body.linear_encoder.seq_layers.0.bias f4 [128]
00000000: 0000 0000 0000 0000 0000 0000 0000 0000
00000010: 0000 0000 0000 0000 0000 0000 0000 0000
00000020: 0000 0000 0000 0000 0000 0000 0000 0000
00000030: 0000 0000 0000 0000 0000 0000 0000 0000
00000040: 0000 0000 0000 0000 0000 0000 0000 0000
00000050: 0000 0000 0000 0000 0000 0000 0000 0000
00000060: 0000 0000 0000 0000 0000 0000 0000 0000
00000070: 0000 0000 0000 0000 0000 0000 0000 0000
00000080: 0000 0000 0000 0000 0000 0000 0000 0000
00000090: 0000 0000 0000 0000 0000 0000 0000 0000
000000a0: 0000 0000 0000 0000 0000 0000 0000 0000
000000b0: 0000 0000 0000 0000 0000 0000 0000 0000
000000c0: 0000 0000 0000 0000 0000 0000 0000 0000
000000d0: 0000 0000 0000 0000 0000 0000 0000 0000
000000e0: 0000 0000 0000 0000 0000 0000 0000 0000
000000f0: 0000 0000 0000 0000 0000 0000 0000 0000
00000100: 0000 0000 0000 0000 0000 0000 0000 0000
00000110: 0000 0000 0000 0000 0000 0000 0000 0000
00000120: 0000 0000 0000 0000 0000 0000 0000 0000
00000130: 0000 0000 0000 0000 0000 0000 0000 0000
00000140: 0000 0000 0000 0000 0000 0000 0000 0000
00000150: 0000 0000 0000 0000 0000 0000 0000 0000
00000160: 0000 0000 0000 0000 0000 0000 0000 0000
00000170: 0000 0000 0000 0000 0000 0000 0000 0000
00000180: 0000 0000 0000 0000 0000 0000 0000 0000
00000190: 0000 0000 0000 0000 0000 0000 0000 0000
000001a0: 0000 0000 0000 0000 0000 0000 0000 0000
000001b0: 0000 0000 0000 0000 0000 0000 0000 0000
000001c0: 0000 0000 0000 0000 0000 0000 0000 0000
000001d0: 0000 0000 0000 0000 0000 0000 0000 0000
000001e0: 0000 0000 0000 0000 0000 0000 0000 0000
000001f0: 0000 0000 0000 0000 0000 0000 0000 0000
0.0 0.0 0.0 0.0 0.0 0.0 0.0 0.0
0.0 0.0 0.0 0.0 0.0 0.0 0.0 0.0
0.0 0.0 0.0 0.0 0.0 0.0 0.0 0.0
0.0 0.0 0.0 0.0 0.0 0.0 0.0 0.0
0.0 0.0 0.0 0.0 0.0 0.0 0.0 0.0
0.0 0.0 0.0 0.0 0.0 0.0 0.0 0.0
0.0 0.0 0.0 0.0 0.0 0.0 0.0 0.0
0.0 0.0 0.0 0.0 0.0 0.0 0.0 0.0
0.0 0.0 0.0 0.0 0.0 0.0 0.0 0.0
0.0 0.0 0.0 0.0 0.0 0.0 0.0 0.0
0.0 0.0 0.0 0.0 0.0 0.0 0.0 0.0
0.0 0.0 0.0 0.0 0.0 0.0 0.0 0.0
0.0 0.0 0.0 0.0 0.0 0.0 0.0 0.0
0.0 0.0 0.0 0.0 0.0 0.0 0.0 0.0
0.0 0.0 0.0 0.0 0.0 0.0 0.0 0.0
0.0 0.0 0.0 0.0 0.0 0.0 0.0 0.0

critic.network_body.linear_encoder.seq_layers.2.weight f4 [128, 128]
00000000: a2c6 fc3c 36e0 fdbd b559 423d f8c2 e43c
00000010: ad60 223a 818a 233e d280 efbc 35ad 9bbb
00000020: afb7 2bbe 19c1 823d 9f36 8a3d a4ad 44bd
00000030: 2fb5 083e c319 313d 240d 8b3d ff53 44bd
00000040: 0f77 4b3d 8bbe 06be c947 933c 9ab6 7e3c
00000050: df8a e1bd a26e 95bc 2755 8f3d f4b2 62bd
00000060: d429 3f3d c2f0 97b8 2c91 61bc 1352 753c
00000070: 61f0 a1bd 2722 743b 7960 00bd 1dd2 66bd
00000080: 02f5 5e3c 5fce 9fbd 20b2 a7bd a9d1 a23d
00000090: 877f 2d3d f5e2 6b3d 27cc 70be 853d 4e3d
000000a0: 3835 24bc 2a86 0e3e 1b72 9b3d 559b 333d
000000b0: 580c 69bd 672e 05be 2888 b5bd 49ef 04bd
000000c0: b272 22bd ade1 7bbd d6d6 183c 737c ffbb
000000d0: 127a 0d3e 7f07 1bbe 0732 b4bc 64ff 42bd
000000e0: 2a58 6e3d f44b 9d3c ebf5 063d ba7c b13d
000000f0: 19f9 7d3b fb65 d6bd 9f59 313e 29d8 b8bc
00000100: ed1b 8dbc ff86 613c 9dc6 963d f6fb 813e
00000110: 4c9d 38bd a480 143d 7548 e63c ef87 c33d
00000120: 9512 5f3d 8612 803d 384c dfbd 14b6 48bd
00000130: 905a d2bd 1fee d13d 9105 8b3c 421e d2bd
00000140: 05ab e03c 9c52 4f3c 3c6c fbbc 9f90 cbbd
00000150: 1116 32bd cadb 79bd cffe 413d 144d 81bd
00000160: 7c98 b6bc cd11 d83d f57a c83c b5e9 8abd
00000170: ac7e e4bd 5e5a 9c3d 48dc 723a 502f 5c3d
00000180: f8fe 86bc df2a 6ebd a831 c43b d027 7f3d
00000190: fc0b c3bb cde8 68bd dbff 243c eb00 77bd
000001a0: b45d 173e 6edf 0ebc 436b 83bd a52c ee3d
000001b0: 73ba 19be faf5 c3bd 2741 15bd 9c66 f4bd
000001c0: d724 0ebd 5adf 493a bd06 293d 41c0 00be
000001d0: d1d8 a5bc 2a70 b03c a327 c9bb ef53 013e
000001e0: 46fa 6abc b091 d53d 7ad1 cfbd 7b01 e43d
000001f0: 7ad4 08bd 3a94 39bd 2280 5b3d f4d0 6ebe
00000200: c0ab 093e 68ac 363d 21a5 a03d d42a a4bc
00000210: 2aaf 8e3d 078b 003c 25fc 65bd baa0 10be
00000220: 5a8a 183e ecb9 633d 749b 48bc 722b 123d
00000230: 4e57 c4bd a35b f73c 44d9 963b ab2d 573d
00000240: 8fd0 fdbc 9dd9 9ebd 7cdb 723d c69d a83d
00000250: 7a4b e13c 51cc 793d c6b6 213e 2506 63bd
00000260: 820e 84bb 63c9 313d b5c9 b9bc 0de4 e93d
00000270: 3c43 0dbe c47d b13d ff89 013e 11a9 bdbc
00000280: ae44 ae3d 7e7c 9c3d 7c26 283c 603a 3bbe
00000290: b335 de3a c762 08be ce7e 96bd 151e 2f3c
000002a0: bf28 303d e338 0b3d 834c 1ebe ebfc be3d
000002b0: 7f6e f5bc 4a33 01bd e3c6 283d 28eb 25bc
000002c0: 353d 18bd 2d21 a7bd f772 6a3a 4ea3 18bd
000002d0: f2b4 f03c f89d 573d 1a99 e73c 82ed 8f3a
000002e0: f986 243d a8f7 073d 6379 543d 69b2 cbbb
000002f0: bff0 833d 88d4 fc3c 2a80 343d b5d1 12be
00000300: 747f c1ba 863b b5bc 84d0 9d3c 01f3 64bd
00000310: 021f 98bd 6825 acbd e373 eebb 9c9b edbd
00000320: 74cb 213d 4c68 383d 8bb9 2c3d a556 6dbd
00000330: 64e3 133e b834 653d fdf1 83bc e423 b33d
00000340: aff8 21bd 87a2 d6bd b455 633d 736e 1bbe
00000350: f444 15be 4072 913d 0ec9 1bbe 7052 6bbd
00000360: 1f4d e5ba f281 a73d ef31 d03d b089 09bc
00000370: ea3b a1bb 347c a1bd 8230 083e 64f3 cebc
00000380: 7c17 2abe f2bd 153e ce2c d03d 37a2 f63d
00000390: b5db 643d 17b7 c13d 2874 9f3d 0c1c 083c
000003a0: 8f06 f4bd 8480 c43a 20fc 463c c21d dabd
000003b0: 1aeb 9abc 3149 67bd b898 4dbd 8b28 0bbe
000003c0: 1469 f9bd 21f9 e73d fb49 13bd c918 653d
000003d0: 54e2 82bd cd97 053e dc1e 7d3c cf06 5abd
000003e0: 37b2 c33d 9eaf d23d 942b 31bc b088 dd3c
000003f0: 972f a13d 6d19 fc3d 3fda cc3c a493 d73c
0.030856434 -0.123962805 0.047448833 0.027925 0.00061942154 0.15970804 -0.029236231 -0.0047508725
-0.16769288 0.06384487 0.067486994 -0.04801716 0.13350366 0.04323746 0.06789616 -0.047931667
0.04967409 -0.13158624 0.017978566 0.015546465 -0.11012816 -0.01824123 0.069986634 -0.055346444
0.04667075 -7.245086e-05 -0.013767522 0.014973181 -0.07907177 0.0037251802 -0.031342003 -0.056352723
0.013608219 -0.07803034 -0.081882715 0.07950146 0.042357948 0.05758949 -0.23515378 0.05035164
-0.010022454 0.13918367 0.07590123 0.043849308 -0.056896538 -0.13005982 -0.0886386 -0.032454763
-0.039660163 -0.061494518 0.009328565 -0.007796818 0.13816097 -0.15139578 -0.021996511 -0.04760684
0.05818955 0.019201256 0.03294937 0.08666368 0.003875321 -0.1046867 0.17319344 -0.02256401
-0.01722523 0.013765096 0.07362101 0.25387543 -0.045071885 0.036255494 0.028110722 0.09547412
0.05446108 0.06253533 -0.109032094 -0.04900177 -0.1027118 0.10250496 0.016970428 -0.102596775
0.027425298 0.012653973 -0.030691259 -0.09939694 -0.043478075 -0.061000623 0.047362145 -0.063135296
-0.022289507 0.1055027 0.024472693 -0.06782857 -0.11156973 0.07634424 0.0009264392 0.05375606
-0.016479 -0.058146354 0.005987365 0.062293828 -0.0059523564 -0.05686264 0.010070766 -0.06030361
0.14781839 -0.008720262 -0.06416943 0.11629609 -0.15012531 -0.09568401 -0.036439087 -0.11933634
-0.034703102 0.00077008235 0.04126619 -0.12573339 -0.020244988 0.021537859 -0.0061387583 0.12629674
-0.014341896 0.10428178 -0.10147376 0.11133095 -0.03340576 -0.045307375 0.053588994 -0.23321897
0.13444424 0.044598013 0.07843996 -0.020039953 0.06967004 0.007845647 -0.056148667 -0.14123812
0.14896527 0.05559723 -0.012244094 0.035685964 -0.095869645 0.030195063 0.004603537 0.052533787
-0.030983238 -0.0775635 0.059291348 0.08233218 0.02750181 0.060985867 0.15792379 -0.05542578
-0.00403005 0.043404948 -0.02267919 0.1142045 -0.13795179 0.08666566 0.12650298 -0.023151906
0.08509193 0.076409325 0.010263082 -0.18283987 0.001695326 -0.1331893 -0.07348405 0.010688324
0.04300761 0.0339898 -0.15458874 0.09325584 -0.029959915 -0.031543054 0.0412053 -0.010126866
-0.037167747 -0.08160625 0.00089435227 -0.037265114 0.029383156 0.052640885 0.028271247 0.0010980817
0.040167782 0.033195168 0.051873576 -0.0062163365 0.06442403 0.030863062 0.04406754 -0.1433781
-0.0014762715 -0.02212311 0.019264467 -0.05589581 -0.07427789 -0.08405572 -0.0072769984 -0.11601946
0.03950067 0.04502134 0.042169135 -0.05794396 0.14442211 0.05595848 -0.0161066 0.0874708
-0.039543804 -0.104802184 0.055501655 -0.15178852 -0.14577085 0.071018696 -0.15213415 -0.057451665
-0.0017494297 0.08179082 0.10165774 -0.008394644 -0.0049204724 -0.07885018 0.13299754 -0.025262542
-0.16610521 0.1462324 0.10164796 0.12042659 0.05587359 0.0945875 0.07785827 0.008307468
-0.119153135 0.0014991914 0.012145072 -0.10650207 -0.018910933 -0.056466285 -0.050194472 -0.13589685
-0.12178245 0.113268144 -0.035959225 0.05593184 -0.06390825 0.13046189 0.015449252 -0.05322915
0.09555476 0.102874026 -0.0108136125 0.027042717 0.07870405 0.12309537 0.025006412 0.026315518

critic.network_body.linear_encoder.seq_layers.2.bias f4 [128]
00000000: 0000 0000 0000 0000 0000 0000 0000 0000
00000010: 0000 0000 0000 0000 0000 0000 0000 0000
00000020: 0000 0000 0000 0000 0000 0000 0000 0000
00000030: 0000 0000 0000 0000 0000 0000 0000 0000
00000040: 0000 0000 0000 0000 0000 0000 0000 0000
00000050: 0000 0000 0000 0000 0000 0000 0000 0000
00000060: 0000 0000 0000 0000 0000 0000 0000 0000
00000070: 0000 0000 0000 0000 0000 0000 0000 0000
00000080: 0000 0000 0000 0000 0000 0000 0000 0000
00000090: 0000 0000 0000 0000 0000 0000 0000 0000
000000a0: 0000 0000 0000 0000 0000 0000 0000 0000
000000b0: 0000 0000 0000 0000 0000 0000 0000 0000
000000c0: 0000 0000 0000 0000 0000 0000 0000 0000
000000d0: 0000 0000 0000 0000 0000 0000 0000 0000
000000e0: 0000 0000 0000 0000 0000 0000 0000 0000
000000f0: 0000 0000 0000 0000 0000 0000 0000 0000
00000100: 0000 0000 0000 0000 0000 0000 0000 0000
00000110: 0000 0000 0000 0000 0000 0000 0000 0000
00000120: 0000 0000 0000 0000 0000 0000 0000 0000
00000130: 0000 0000 0000 0000 0000 0000 0000 0000
00000140: 0000 0000 0000 0000 0000 0000 0000 0000
00000150: 0000 0000 0000 0000 0000 0000 0000 0000
00000160: 0000 0000 0000 0000 0000 0000 0000 0000
00000170: 0000 0000 0000 0000 0000 0000 0000 0000
00000180: 0000 0000 0000 0000 0000 0000 0000 0000
00000190: 0000 0000 0000 0000 0000 0000 0000 0000
000001a0: 0000 0000 0000 0000 0000 0000 0000 0000
000001b0: 0000 0000 0000 0000 0000 0000 0000 0000
000001c0: 0000 0000 0000 0000 0000 0000 0000 0000
000001d0: 0000 0000 0000 0000 0000 0000 0000 0000
000001e0: 0000 0000 0000 0000 0000 0000 0000 0000
000001f0: 0000 0000 0000 0000 0000 0000 0000 0000
0.0 0.0 0.0 0.0 0.0 0.0 0.0 0.0
0.0 0.0 0.0 0.0 0.0 0.0 0.0 0.0
0.0 0.0 0.0 0.0 0.0 0.0 0.0 0.0
0.0 0.0 0.0 0.0 0.0 0.0 0.0 0.0
0.0 0.0 0.0 0.0 0.0 0.0 0.0 0.0
0.0 0.0 0.0 0.0 0.0 0.0 0.0 0.0
0.0 0.0 0.0 0.0 0.0 0.0 0.0 0.0
0.0 0.0 0.0 0.0 0.0 0.0 0.0 0.0
0.0 0.0 0.0 0.0 0.0 0.0 0.0 0.0
0.0 0.0 0.0 0.0 0.0 0.0 0.0 0.0
0.0 0.0 0.0 0.0 0.0 0.0 0.0 0.0
0.0 0.0 0.0 0.0 0.0 0.0 0.0 0.0
0.0 0.0 0.0 0.0 0.0 0.0 0.0 0.0
0.0 0.0 0.0 0.0 0.0 0.0 0.0 0.0
0.0 0.0 0.0 0.0 0.0 0.0 0.0 0.0
0.0 0.0 0.0 0.0 0.0 0.0 0.0 0.0

critic.value_heads.value_heads.extrinsic.weight f4 [1, 128]
00000000: 6ca8 bf3d 8078 5a3b 8d25 2cbe 22b0 383e
00000010: 80f9 463b 7068 a23c 52e0 cdbd 6c7d 403e
00000020: d2a8 4a3e 10b1 3fbc 6878 623d 00eb efbd
00000030: bc4a 1b3e 8821 e2bc 509e 5b3e ef96 46be
00000040: dc02 3e3e bc2d c8bd d04d 4f3c acb6 a73d
00000050: 4023 ee3c e4a0 373e 963e 1fbe 4ab3 193e
00000060: 28f8 45be ca6a 1cbe 3203 4abe bef8 1e3e
00000070: 90ed 55bc 8019 fc3a d5dc 05be bc0f ac3d
00000080: 18aa 5f3d 0c33 ddbd c03e 26be 2873 4cbe
00000090: 084e 423e f67f d2bd 84fa 2abd 489e 303e
000000a0: 0064 25be 482c 9ebc 9c29 9f3d b8ef 27be
000000b0: a910 32be a4fb 58be f024 213d 0203 a4bd
000000c0: c43f cd3d b233 2fbe 4deb 24be e077 ffbd
000000d0: 90ba 03bc dc11 2dbe d9c2 26be 4c01 77bd
000000e0: c084 fd3d 80af 2cbe 34da 23be 10be 0a3d
000000f0: 4043 473d 1f47 06be 4097 64bd 8cd7 f73d
00000100: 40a2 98bb acc9 54bd 688f 453d a841 efbc
00000110: 1026 71bc 4ad5 0e3e 99ab 08be 0054 3a3e
00000120: 7008 2c3d 7c38 e83d d000 6cbd 846a 0d3e
00000130: f422 9c3d 6a4d 0c3e 280a 843d 945f 003e
00000140: 80a5 493d 3439 11be fd44 55be 54ce 903d
00000150: 00d0 f23d 3a33 2dbe 5a35 1ebe 846f 14be
00000160: c6da 09be de2a 4c3e 12eb 08be faeb 553e
00000170: 308a 67bd b857 123d 3a8b 1cbe 6c2b b53d
00000180: 7c2e ed3d 5414 073e 8649 8bbd 7e21 f1bd
00000190: ac5f b53d 0cda 9d3d b812 4e3e 908a 403d
000001a0: 7f7a c0bd 387b e13c edcf 43be 00ac 013b
000001b0: 00b9 1cbb 24a6 393e c48a 24be d0d3 2d3e
000001c0: e79e 3fbe 603c acbb 80eb 3b3e 5c9a ea3d
000001d0: a028 d2bb 06c4 103e 88a9 323e 5823 a93d
000001e0: 5cc9 c33d 508c 1a3e 3ea7 18be 4f42 0abe
000001f0: 913e 56be 10b1 483d 3855 193d 0095 193e
0.09358296 0.0033335984 -0.168112 0.1803594 0.0030361116 0.01982519 -0.10052551 0.18797845
0.19790962 -0.01169993 0.05529061 -0.117147446 0.15165228 -0.02760388 0.2144711 -0.19393514
0.18555778 -0.09774348 0.012652829 0.08189139 0.029069543 0.17932469 -0.15551218 0.150098
-0.19332945 -0.15275112 -0.19727781 0.15524575 -0.013057128 0.0019233674 -0.13072522 0.084014386
0.054605573 -0.10800752 -0.16234875 -0.19965804 0.18975079 -0.10278313 -0.041742817 0.1724788
-0.16151428 -0.019308224 0.07771608 -0.16400039 -0.17389168 -0.21189743 0.039341867 -0.08008386
0.10021928 -0.17109564 -0.16105385 -0.12474036 -0.008040085 -0.16901344 -0.16285266 -0.06030397
0.12378836 -0.16863823 -0.16001207 0.033872664 0.04864812 -0.13113068 -0.055808306 0.12101659
-0.0046580136 -0.05195014 0.048232466 -0.029206112 -0.014718547 0.13948551 -0.1334671 0.18196106
0.042000234 0.113388985 -0.057617962 0.13810164 0.07623854 0.13701406 0.0644725 0.1253646
0.0492301 -0.14181978 -0.20827098 0.07070604 0.11856079 -0.16914073 -0.1545004 -0.14495665
-0.13462362 0.19938228 -0.13370922 0.20890799 -0.05652827 0.035728186 -0.15287486 0.08846173
0.11581132 0.13191348 -0.06801133 -0.11773966 0.088561386 0.07707605 0.20124328 0.047007143
-0.09398364 0.027524576 -0.19122286 0.0019786358 -0.002391398 0.18129784 -0.1606856 0.16975331
-0.1871296 -0.0052562207 0.18351555 0.11455223 -0.0064135343 0.14137277 0.17447484 0.082586944
0.09559891 0.15092587 -0.14907548 -0.13501857 -0.20922305 0.048996985 0.037434787 0.14998245
