Unity - Crypto Ball/results/ScoreGoal0/My Behavior/My Behavior-740.pt (torch, 153807 bytes, 12 tensors)

network_body.linear_encoder.seq_layers.0.weight f4 [128, 9]
000000 4f 2b e2 bc 9f 0b b5 bd 8c 6c 65 be 93 68 2b be
       -0.027608542 -0.08840107 -0.22404689 -0.1673911
000010 3a a8 ef be 9f f0 cf 3d f2 ee b7 bd a2 99 c8 be
       -0.46808034 0.10153317 -0.08981122 -0.39179713
000020 e0 42 1b bd 18 a0 81 be ee 4e 0a bd c6 db a0 3e
       -0.037905574 -0.25317454 -0.03376668 0.31417674
000030 4a c6 8b 3e 76 8d 25 bf bc 67 48 be 23 42 e5 3e
       0.2729972 -0.6466898 -0.19570822 0.4477702
000040 93 39 5a 3e 4a 45 24 be 20 5a c2 bd 88 04 f5 3c
       0.21311025 -0.16042057 -0.09489846 0.029909387
000050 48 f5 4b 3e b2 5e d8 bc 60 78 04 bf 30 f1 a9 be
       0.19917786 -0.026412342 -0.5174618 -0.33191824
000060 93 82 da 3e d2 d5 e4 3e 9c a9 45 bc ac 1f 86 bd
       0.42677745 0.44694382 -0.012064364 -0.0654901
000070 dc e2 34 3d 1b 73 0a be ea c2 bc be 54 f1 74 3e
       0.044161662 -0.13520472 -0.36867458 0.23920184
000080 51 68 02 bf 2f d5 3c bd 07 9a b2 3d 54 e4 1d 3d
       -0.50940424 -0.046101745 0.08720785 0.03854783
000090 e8 56 af 3e ae 85 bd be fc 10 3e 3e cc 58 ec bd
       0.34245992 -0.37016052 0.18561167 -0.11540374
0000a0 4d a9 81 3e 03 38 97 be 5e bd 84 3c a6 4c f7 3e
       0.2532448 -0.2953492 0.016203579 0.48300666
0000b0 2c c0 9f bd 26 5b 3a bf f3 34 4f 3d ef ce 29 3f
       -0.07800326 -0.7279533 0.050587606 0.6633138
0000c0 07 c1 e9 3e be 38 b9 3a e2 82 2f bf ef 30 e0 be
       0.4565508 0.001413129 -0.68559086 -0.43787333
0000d0 87 fd 4d 3d 29 ef a0 be e8 43 3b 3d 8c a1 fc bd
       0.05029061 -0.31432465 0.045719057 -0.123355
0000e0 eb 55 f6 bd 78 3e 2f 3d 54 9f f7 be 84 cd 42 bf
       -0.12028106 0.042784184 -0.48363745 -0.7609484
0000f0 30 31 69 be 12 ca 73 be fe c2 19 be c0 69 33 bd
       -0.2277267 -0.23807552 -0.1501579 -0.043802023
000100 f6 44 38 3e 89 1e 99 bc 75 e0 0f be b6 ff e5 3d
       0.17995057 -0.018691318 -0.14050467 0.112304136
000110 ac 13 80 3d 8f 55 6f 3e 43 a7 4b 3e 56 2e 05 3f
       0.06253752 0.23372482 0.19888024 0.5202383
000120 7b e3 c7 3e 66 70 60 3e ca 94 e5 3d f1 df 07 3f
       0.3904074 0.21917877 0.1121002 0.5307608
000130 d6 5f 4e be 5e ac f0 be a7 c6 c9 be cc 90 d9 3c
       -0.20153746 -0.47006506 -0.39409372 0.026558302
000140 ce 34 12 be 9e 51 f9 be 94 db 18 be 4c cb 77 3c
       -0.14277956 -0.4869508 -0.14927512 0.015124153
000150 fa f8 1d 3d d6 34 28 3f 64 8d 2b 3d 10 08 88 be
       0.03856752 0.6570562 0.041882887 -0.2656865
000160 9e 88 7b bf a2 4b ca 3e 0f 07 05 bf ec 57 6e 3e
       -0.98255336 0.39510828 -0.51963896 0.23275727
000170 fc b5 59 3f 2b 16 e2 3e 9a b3 5d 3e cc 6e 37 3e
       0.8504331 0.44157538 0.21650544 0.1791336
000180 bb d4 0c bf 66 48 4a be ef 0c 52 be 4b c0 df be
       -0.550121 -0.1975418 -0.20512746 -0.43701395
000190 32 39 c0 be f2 2c e7 be 73 ce ab 3d ae 58 73 3e
       -0.37543637 -0.45151478 0.083889864 0.23764297
0001a0 f6 ea d7 3e 02 8c fa 3e 07 3e 11 3f 7b 49 ef be
       0.42171448 0.48934942 0.5673527 -0.4673575
0001b0 a6 f3 e6 3e 9f e6 ad bd 29 fb 91 3d 59 9d 98 bd
       0.45107764 -0.08491253 0.07127983 -0.07451887
0001c0 14 f0 86 3c 42 63 cf 3d 8a 26 13 bf 62 e1 10 3e
       0.0164719 0.10126354 -0.5748068 0.14148477
0001d0 98 e2 54 bc 82 b1 b2 3e 61 fd 1b be c0 3b 2c 3d
       -0.012993477 0.34901053 -0.15233375 0.04204917
0001e0 cc ae 32 bc 9a 82 80 bf 43 57 76 3e 4e 48 53 3e
       -0.010905933 -1.0039856 0.24056725 0.20633051
0001f0 80 03 ca bd fc 4d 1a 3e 73 3c e8 bd 32 be 03 3f
       -0.09863949 0.15068811 -0.11339655 0.5146209
000200 f8 34 62 bd c5 53 03 3f 43 45 c9 be 9a c9 5e be
       -0.055226296 0.512997 -0.39310655 -0.21756592
000210 03 63 c4 be 2c fb 44 3f 12 ee c5 3d 67 64 3f be
       -0.3835679 0.7694576 0.09664549 -0.18690644
000220 ec ed 3b be 72 d4 b0 be ec e0 ac 3e 61 03 aa be
       -0.18352479 -0.34537083 0.33765352 -0.33205703
000230 f2 57 bb be f2 7f b9 bd 9a ad c6 3e 8c 68 60 be
       -0.36590534 -0.09057607 0.38804322 -0.21914881
000240 ab 7d 14 3e 28 fe 0e 3c ff cc a0 bd ee 00 48 be
       0.14501064 0.008727588 -0.078516 -0.19531605
000250 8a 73 28 3f db cf e4 3e c5 f3 9b 3e ea a7 08 be
       0.658013 0.4468983 0.3045942 -0.13345304
000260 5a c8 ee 3c 4c ce fd bd 9f ef db be 48 87 b9 3e
       0.02914827 -0.12392864 -0.42956254 0.36236024
000270 48 85 a9 bd 0a 41 5f be 25 63 00 be 00 01 48 be
       -0.082773745 -0.21802154 -0.1253782 -0.19531631
000280 ce 11 90 be 38 09 3a 3e 66 a0 41 be bc 0d e9 3c
       -0.28138584 0.18167579 -0.18908843 0.028448932
000290 c7 97 00 3e 43 bb bf 3d 5c 69 31 3e db fe 1e 3c
       0.12557898 0.09361889 0.17325348 0.009704317
0002a0 5b 65 fa be fc e4 46 3d 97 89 08 3e 20 1f 1d bf
       -0.48905453 0.04855822 0.13333736 -0.6137562
0002b0 da ba 9d 3e e2 24 fc be af 8b e2 bd 5e 74 ea 3d
       0.3080662 -0.4924689 -0.11061799 0.114479765
0002c0 f7 9c 61 3e 6e ff 67 be 12 b3 0f 3e 51 45 1c bf
       0.22032534 -0.22656032 0.14033154 -0.6104327
0002d0 24 e1 4a 3e 34 f1 e0 be 64 f2 78 bd 46 5b a6 be
       0.19812447 -0.43934023 -0.060778037 -0.3249151
0002e0 f7 1c 5f be 50 bb cf bd 40 af 93 be ac 5f ca be
       -0.21788393 -0.10143149 -0.28844643 -0.39526117
0002f0 9f 80 e0 be a8 79 40 3f 23 f1 99 be 26 7f 9a be
       -0.4384813 0.7518563 -0.30066785 -0.30175132
000300 7a bd 93 bd 7e 8b 90 3d dc 81 46 3e 45 2f 14 bf
       -0.07213874 0.07057856 0.19385475 -0.5788463
000310 a4 4b ab be df 92 af be 9a 1b 14 3f 52 cf ab 3e
       -0.33456147 -0.3429174 0.57854617 0.3355661
000320 9f bb bf 3d d8 80 49 3f 3e 49 65 3e 68 b9 2c 3d
       0.09361958 0.78712225 0.22391221 0.042169005
000330 7f ca 3a 3d 88 2c c1 3d 94 78 a9 be 3a e3 16 be
       0.04560327 0.09432322 -0.33099806 -0.14735118
000340 12 19 ae bd 6e ff 9c 3e bb 5c f0 3e b8 fb 41 3e
       -0.085008755 0.30663627 0.46945748 0.1894368
000350 0f 86 47 3c a9 78 90 3e 26 20 bd 3e d6 1b 14 bf
       0.012177958 0.28217056 0.3693859 -0.57854974
000360 b3 95 65 3e 8a 8a e6 be 14 94 a1 bd 5a 2a cc be
       0.22420387 -0.45027572 -0.07889572 -0.39876062
000370 86 9d 5c be 44 65 d8 3e ee 1a 34 3e eb 7c e9 3e
       -0.21544465 0.4226476 0.17588398 0.45603117
000380 ef d9 ff 3d 2c 20 cd bb 31 b8 82 3e 52 df 43 3e
       0.124927394 -0.0062599387 0.25531152 0.19128159
000390 82 0c df be ce 40 98 3e b8 27 62 be 6e c3 97 3e
       -0.4356423 0.29736942 -0.22085464 0.2964129
0003a0 a6 db c3 3e 32 47 b8 3d d0 7c 8f be ce 79 0f bd
       0.38253516 0.089979544 -0.28024912 -0.03502827
0003b0 ca 61 47 3e 14 68 93 be df 45 43 3e 30 05 7f bd
       0.19470897 -0.28790343 0.19069622 -0.062260807
0003c0 d6 26 de bd aa 86 ae be 76 8c e0 3e 78 42 00 3e
       -0.10847251 -0.34087116 0.43857163 0.12525356
0003d0 50 52 f7 be a2 f7 e9 be 0e b9 ba be df 82 d3 3e
       -0.48304987 -0.4569674 -0.3646931 0.41310784
0003e0 a2 1c 38 bf cc 72 ec be 08 0a 36 3f 7b f7 27 3d
       -0.7191869 -0.46181333 0.71109056 0.0410075
0003f0 4f e5 c0 3c 38 a6 01 bf 46 af 00 3e 62 e2 52 be
       0.023546843 -0.50644255 0.12566862 -0.2059417

network_body.linear_encoder.seq_layers.0.bias f4 [128]
000000 00 00 00 00 00 00 00 00 00 00 00 00 00 00 00 00
       0.0 0.0 0.0 0.0
000010 00 00 00 00 00 00 00 00 00 00 00 00 00 00 00 00
       0.0 0.0 0.0 0.0
000020 00 00 00 00 00 00 00 00 00 00 00 00 00 00 00 00
       0.0 0.0 0.0 0.0
000030 00 00 00 00 00 00 00 00 00 00 00 00 00 00 00 00
       0.0 0.0 0.0 0.0
000040 00 00 00 00 00 00 00 00 00 00 00 00 00 00 00 00
       0.0 0.0 0.0 0.0
000050 00 00 00 00 00 00 00 00 00 00 00 00 00 00 00 00
       0.0 0.0 0.0 0.0
000060 00 00 00 00 00 00 00 00 00 00 00 00 00 00 00 00
       0.0 0.0 0.0 0.0
000070 00 00 00 00 00 00 00 00 00 00 00 00 00 00 00 00
       0.0 0.0 0.0 0.0
000080 00 00 00 00 00 00 00 00 00 00 00 00 00 00 00 00
       0.0 0.0 0.0 0.0
000090 00 00 00 00 00 00 00 00 00 00 00 00 00 00 00 00
       0.0 0.0 0.0 0.0
0000a0 00 00 00 00 00 00 00 00 00 00 00 00 00 00 00 00
       0.0 0.0 0.0 0.0
0000b0 00 00 00 00 00 00 00 00 00 00 00 00 00 00 00 00
       0.0 0.0 0.0 0.0
0000c0 00 00 00 00 00 00 00 00 00 00 00 00 00 00 00 00
       0.0 0.0 0.0 0.0
0000d0 00 00 00 00 00 00 00 00 00 00 00 00 00 00 00 00
       0.0 0.0 0.0 0.0
0000e0 00 00 00 00 00 00 00 00 00 00 00 00 00 00 00 00
       0.0 0.0 0.0 0.0
0000f0 00 00 00 00 00 00 00 00 00 00 00 00 00 00 00 00
       0.0 0.0 0.0 0.0
000100 00 00 00 00 00 00 00 00 00 00 00 00 00 00 00 00
       0.0 0.0 0.0 0.0
000110 00 00 00 00 00 00 00 00 00 00 00 00 00 00 00 00
       0.0 0.0 0.0 0.0
000120 00 00 00 00 00 00 00 00 00 00 00 00 00 00 00 00
       0.0 0.0 0.0 0.0
000130 00 00 00 00 00 00 00 00 00 00 00 00 00 00 00 00
       0.0 0.0 0.0 0.0
000140 00 00 00 00 00 00 00 00 00 00 00 00 00 00 00 00
       0.0 0.0 0.0 0.0
000150 00 00 00 00 00 00 00 00 00 00 00 00 00 00 00 00
       0.0 0.0 0.0 0.0
000160 00 00 00 00 00 00 00 00 00 00 00 00 00 00 00 00
       0.0 0.0 0.0 0.0
000170 00 00 00 00 00 00 00 00 00 00 00 00 00 00 00 00
       0.0 0.0 0.0 0.0
000180 00 00 00 00 00 00 00 00 00 00 00 00 00 00 00 00
       0.0 0.0 0.0 0.0
000190 00 00 00 00 00 00 00 00 00 00 00 00 00 00 00 00
       0.0 0.0 0.0 0.0
0001a0 00 00 00 00 00 00 00 00 00 00 00 00 00 00 00 00
       0.0 0.0 0.0 0.0
0001b0 00 00 00 00 00 00 00 00 00 00 00 00 00 00 00 00
       0.0 0.0 0.0 0.0
0001c0 00 00 00 00 00 00 00 00 00 00 00 00 00 00 00 00
       0.0 0.0 0.0 0.0
0001d0 00 00 00 00 00 00 00 00 00 00 00 00 00 00 00 00
       0.0 0.0 0.0 0.0
0001e0 00 00 00 00 00 00 00 00 00 00 00 00 00 00 00 00
       0.0 0.0 0.0 0.0
0001f0 00 00 00 00 00 00 00 00 00 00 00 00 00 00 00 00
       0.0 0.0 0.0 0.0

network_body.linear_encoder.seq_layers.2.weight f4 [128, 128]
000000 d3 f8 a9 3d 2e 2d 88 3c 35 7c 92 bc fe 63 d1 3d
       0.082994126 0.016623106 -0.017881492 0.1022415
000010 37 14 99 3d 97 87 fe 3c b6 e2 5e 3e 95 4d 6c 3d
       0.07474559 0.031070514 0.21766171 0.057691175
000020 f1 23 84 3c ba 52 f9 bd 1f 86 50 bd 2c c3 73 bd
       0.01613042 -0.12173982 -0.050909158 -0.059512302
000030 f2 89 ac bb 7d 90 d1 bd 11 75 ff bd bf 0b 0b 3e
       -0.005265468 -0.10232637 -0.124735005 0.135787
000040 6f 1a 08 3e 27 8e d9 3c 57 4e b6 3d b3 04 21 bd
       0.13291334 0.026557041 0.08901661 -0.039311122
000050 bd da 6c 3d bb 34 10 be 6a a5 9a 3b 7a 8f 12 be
       0.057825793 -0.14082615 0.004719426 -0.14312544
000060 bb b7 ac bd 4f 37 f3 3c cb c5 94 bd 3d 61 b9 3d
       -0.08433481 0.02968946 -0.072642885 0.0905175
000070 26 e1 94 bd e9 24 42 bd 58 98 3f 3d da d3 84 be
       -0.07269506 -0.04739848 0.046776146 -0.2594288
000080 36 72 00 be 72 df 92 bd 0c ed 09 be 76 40 0e bd
       -0.12543568 -0.07171525 -0.13469332 -0.034729443
000090 65 ac 9c 3c 65 f1 b6 3d 1a c6 a0 bc fe cd 6e 3d
       0.019125173 0.08932761 -0.019625712 0.05830192
0000a0 0c dd 56 bd c0 42 b3 bc 16 ad 8d 3c 83 49 ee 3d
       -0.0524569 -0.021882415 0.017294448 0.11635115
0000b0 1f d4 49 3d 07 eb 8b 3d 0c 9e e5 3d ca b4 ff 3c
       0.04927456 0.06831937 0.11211786 0.031214137
0000c0 41 b7 fe bb 38 22 51 be 81 8d cf bd 7d f2 8d bd
       -0.0077733104 -0.2042321 -0.101344116 -0.069310166
0000d0 a5 04 44 be 5b 10 a6 bc d3 47 dc bc ce 7a b3 3d
       -0.19142397 -0.02027147 -0.026889717 0.087636575
0000e0 77 89 94 3d ab a6 63 3d 6c 47 d4 3a da 9f 36 bd
       0.07252782 0.05557887 0.0016195602 -0.04458604
0000f0 ab 1d 5a bd ee 83 57 bd 00 d9 50 be 98 63 d0 3d
       -0.05325095 -0.052616052 -0.20395279 0.10175246
000100 29 f1 fe bd 7e 17 2a bd da 07 b9 bd 2b 3c d8 3c
       -0.124483414 -0.04152631 -0.09034701 0.026395878
000110 79 67 bc 3d 9d 15 da 3d cb 3e 86 bc 6a ef 14 bb
       0.09199423 0.10648654 -0.016387364 -0.002272571
000120 95 f6 2a bd 1a 38 40 be c7 0b 58 bc 18 9d 4c bd
       -0.041739065 -0.18771401 -0.013186402 -0.049954504
000130 ba 83 0d 3e ec 80 8e bc ac cb bc bd 47 86 06 3e
       0.13819781 -0.01739546 -0.09218535 0.1313716
000140 b9 58 57 3c e5 31 92 3d 64 34 24 3e 5e ba dc 3d
       0.013143712 0.07138423 0.1603561 0.10777734
000150 55 e5 43 bd 8b cc fd 3d 3d e5 e4 bd 09 8d f2 bd
       -0.04782613 0.12392529 -0.11176536 -0.118433066
000160 b4 92 0f 3d 13 07 f2 bc 42 a9 07 3e c5 0b 95 bd
       0.035052016 -0.029544389 0.1324816 -0.072776355
000170 ee e5 7c bd b3 75 fe bb cb 24 df 3c f8 4d 4a 3e
       -0.061742716 -0.0077654957 0.027239224 0.19756305
000180 df 9d 5d 3d ae 0c a1 bd 61 2b 24 bd 98 18 c9 3d
       0.054105636 -0.078637466 -0.04008043 0.09819144
000190 a4 0f 77 bb ef 80 3d 3d fc 89 b1 3d 41 5a 8c bd
       -0.0037698532 0.04626554 0.086688966 -0.06853152
0001a0 fb 5e 95 bd 26 ee 8a 3d 0b 83 27 bd 1b 50 c2 bd
       -0.07293507 0.067837045 -0.040896457 -0.09487935
0001b0 f7 cb c5 3c 46 1e 35 bc 51 84 45 bc 0b e4 00 3e
       0.02414511 -0.011054581 -0.0120554725 0.12586991
0001c0 07 30 c4 3c 89 2d 49 3e 7f d9 dc 3c 7b b4 00 bd
       0.023948682 0.19646277 0.026959179 -0.03142212
0001d0 ec f0 26 3d d6 aa 2b be 58 b3 a0 bd 98 45 85 3d
       0.040757105 -0.16764387 -0.07846707 0.065074146
0001e0 8b ef ec bc f9 33 14 3e ae a9 c2 3c 86 01 85 bc
       -0.028922817 0.14472951 0.02376255 -0.016236078
0001f0 73 27 70 3d ef a0 2b 3d 43 57 2c bd 98 0f 6b bd
       0.05863137 0.041901525 -0.042075407 -0.05738792
000200 b7 40 8a 3d 77 f6 8b bd 83 a2 46 3e ef 9f d1 bd
       0.067506246 -0.06834119 0.19397931 -0.10235583
000210 8d e2 73 bd 3f 4c 3d 3d 69 aa 32 3d a0 6e 17 be
       -0.059542228 0.046215292 0.043619547 -0.14788294
000220 f2 da 3f bd 94 62 f1 bc 94 e2 b7 bd e6 e1 81 bd
       -0.046839662 -0.029465951 -0.08978763 -0.06341915
000230 1b c0 cb bd bf de 1a 3d 52 e0 42 be 10 aa c3 3c
       -0.099487506 0.037810083 -0.19030884 0.023884803
000240 5c dc 41 3e a2 b3 64 bd 74 3b a9 bd fa b2 7b 3d
       0.18931717 -0.055835374 -0.08263293 0.061449982
000250 f7 83 01 bd 93 5a 03 be a4 ef 08 3c 1c f7 2f bd
       -0.031619992 -0.1282752 0.008357916 -0.04296027
000260 e3 29 b1 bc c1 31 51 3d d4 3a bd bc 20 77 13 3d
       -0.021626418 0.05107284 -0.02309934 0.03600228
000270 e7 f3 81 3c c5 6b 93 3d 43 c1 c7 3c 86 36 c8 bc
       0.015863372 0.0719829 0.024384147 -0.024440061
000280 f6 e5 1c 3d bb 3a 22 3d 83 0a eb 3d 50 27 c1 bd
       0.038305245 0.03960679 0.11476614 -0.094313264
000290 62 cf 7b bd 77 9a d1 3c da 0f 3d bc 7a 09 b1 bb
       -0.061477073 0.02558635 -0.011539424 -0.005402741
0002a0 60 1c 27 be a7 4c 99 bb d4 8f 7d bd d1 85 25 be
       -0.16319418 -0.004678327 -0.061904743 -0.16164328
0002b0 d2 61 9a bb b7 e2 a7 bd 60 f3 20 be 4d 51 0d be
       -0.004711368 -0.08197539 -0.1571784 -0.13800545
0002c0 a4 8b 47 3d 2a 2b 50 bc 51 93 14 3e eb af 89 bc
       0.048717156 -0.012705604 0.14509322 -0.016807517
0002d0 42 79 9e 3d 45 0b 81 3d 41 8c 44 bd bc 64 6d 3d
       0.07737972 0.063009776 -0.04798532 0.057957396
0002e0 21 3a d0 3c 36 72 da bd 12 0d 5d 3d ad 3d 06 be
       0.025418343 -0.10666315 0.053967543 -0.13109465
0002f0 bb 11 9f bc 70 8d 79 bc 1d 1a bb bc 26 f4 d6 bc
       -0.019417634 -0.015231475 -0.0228396 -0.026239466
000300 68 b5 d2 3c 31 b2 bd bd f8 03 b3 3d 54 a9 54 3e
       0.025721267 -0.09262503 0.08740991 0.20767719
000310 ab 30 e2 bc 4c 73 2c 3e 3b e4 a2 3d 69 05 82 3d
       -0.027611097 0.16840857 0.07953688 0.06348688
000320 64 eb a3 3b 98 bd f2 3b 68 9a ee 3d 9c 2b 0b bd
       0.005002426 0.0074078552 0.116505444 -0.033977136
000330 79 3c bf bd ae ef 9f bd 36 2f 09 be 1b 50 d9 bb
       -0.09337706 -0.07809387 -0.13396916 -0.006631864
000340 32 cb df 3c 26 63 86 3d 56 07 2b 3d 40 08 7a bd
       0.02731857 0.0656188 0.041755043 -0.061043024
000350 b3 9f db bb f8 28 9e 3c ef 69 19 bd 4c d1 06 3c
       -0.0067023872 0.019306645 -0.03745454 0.008228611
000360 77 f4 c5 bd ae be 85 3d fe 86 02 3e 2a db ca 3d
       -0.096657686 0.0653051 0.12746808 0.099050835
000370 2f ac 88 3c 89 e0 38 3e ec fa f3 bc 4a d4 94 bd
       0.016683666 0.18054403 -0.029782735 -0.072670534
000380 81 51 c4 3d b2 c2 21 3d 4d ec e6 3d b1 d5 60 bc
       0.09585858 0.039492317 0.112755395 -0.013722823
000390 b2 13 99 3d 57 3d 2b be cd 35 ed 3d 15 13 e2 3b
       0.0747446 -0.16722618 0.11582527 0.0068992474
0003a0 93 a0 be bc cf a3 da 3d 06 19 0d 3c 82 62 60 3c
       -0.023269927 0.10675775 0.008611923 0.013695361
0003b0 46 6a c0 3b ab 50 6e bd fc 79 2b bc af a5 04 3c
       0.005872044 -0.0581824 -0.010466095 0.008096143
0003c0 70 be 81 3d d5 bd 8a bd 75 fc 91 3d d3 fd d4 3d
       0.06335151 -0.06774489 0.071282305 0.10399976
0003d0 cc 34 bc 3c aa e9 40 bb 8c bc 99 3d cf 64 b2 bd
       0.022974394 -0.002943615 0.075066656 -0.08710634
0003e0 d2 32 1f 3d 03 b5 45 bd ae 15 db bc 4a 7d 7e 3d
       0.038866825 -0.04826833 -0.026743736 0.062131204
0003f0 ea db 99 3d e2 33 1c be 0b c8 1f be e8 6d dd 3c
       0.075126484 -0.15254167 -0.15603654 0.027029946

network_body.linear_encoder.seq_layers.2.bias f4 [128]
000000 00 00 00 00 00 00 00 00 00 00 00 00 00 00 00 00
       0.0 0.0 0.0 0.0
000010 00 00 00 00 00 00 00 00 00 00 00 00 00 00 00 00
       0.0 0.0 0.0 0.0
000020 00 00 00 00 00 00 00 00 00 00 00 00 00 00 00 00
       0.0 0.0 0.0 0.0
000030 00 00 00 00 00 00 00 00 00 00 00 00 00 00 00 00
       0.0 0.0 0.0 0.0
000040 00 00 00 00 00 00 00 00 00 00 00 00 00 00 00 00
       0.0 0.0 0.0 0.0
000050 00 00 00 00 00 00 00 00 00 00 00 00 00 00 00 00
       0.0 0.0 0.0 0.0
000060 00 00 00 00 00 00 00 00 00 00 00 00 00 00 00 00
       0.0 0.0 0.0 0.0
000070 00 00 00 00 00 00 00 00 00 00 00 00 00 00 00 00
       0.0 0.0 0.0 0.0
000080 00 00 00 00 00 00 00 00 00 00 00 00 00 00 00 00
       0.0 0.0 0.0 0.0
000090 00 00 00 00 00 00 00 00 00 00 00 00 00 00 00 00
       0.0 0.0 0.0 0.0
0000a0 00 00 00 00 00 00 00 00 00 00 00 00 00 00 00 00
       0.0 0.0 0.0 0.0
0000b0 00 00 00 00 00 00 00 00 00 00 00 00 00 00 00 00
       0.0 0.0 0.0 0.0
0000c0 00 00 00 00 00 00 00 00 00 00 00 00 00 00 00 00
       0.0 0.0 0.0 0.0
0000d0 00 00 00 00 00 00 00 00 00 00 00 00 00 00 00 00
       0.0 0.0 0.0 0.0
0000e0 00 00 00 00 00 00 00 00 00 00 00 00 00 00 00 00
       0.0 0.0 0.0 0.0
0000f0 00 00 00 00 00 00 00 00 00 00 00 00 00 00 00 00
       0.0 0.0 0.0 0.0
000100 00 00 00 00 00 00 00 00 00 00 00 00 00 00 00 00
       0.0 0.0 0.0 0.0
000110 00 00 00 00 00 00 00 00 00 00 00 00 00 00 00 00
       0.0 0.0 0.0 0.0
000120 00 00 00 00 00 00 00 00 00 00 00 00 00 00 00 00
       0.0 0.0 0.0 0.0
000130 00 00 00 00 00 00 00 00 00 00 00 00 00 00 00 00
       0.0 0.0 0.0 0.0
000140 00 00 00 00 00 00 00 00 00 00 00 00 00 00 00 00
       0.0 0.0 0.0 0.0
000150 00 00 00 00 00 00 00 00 00 00 00 00 00 00 00 00
       0.0 0.0 0.0 0.0
000160 00 00 00 00 00 00 00 00 00 00 00 00 00 00 00 00
       0.0 0.0 0.0 0.0
000170 00 00 00 00 00 00 00 00 00 00 00 00 00 00 00 00
       0.0 0.0 0.0 0.0
000180 00 00 00 00 00 00 00 00 00 00 00 00 00 00 00 00
       0.0 0.0 0.0 0.0
000190 00 00 00 00 00 00 00 00 00 00 00 00 00 00 00 00
       0.0 0.0 0.0 0.0
0001a0 00 00 00 00 00 00 00 00 00 00 00 00 00 00 00 00
       0.0 0.0 0.0 0.0
0001b0 00 00 00 00 00 00 00 00 00 00 00 00 00 00 00 00
       0.0 0.0 0.0 0.0
0001c0 00 00 00 00 00 00 00 00 00 00 00 00 00 00 00 00
       0.0 0.0 0.0 0.0
0001d0 00 00 00 00 00 00 00 00 00 00 00 00 00 00 00 00
       0.0 0.0 0.0 0.0
0001e0 00 00 00 00 00 00 00 00 00 00 00 00 00 00 00 00
       0.0 0.0 0.0 0.0
0001f0 00 00 00 00 00 00 00 00 00 00 00 00 00 00 00 00
       0.0 0.0 0.0 0.0

action_model._continuous_distribution.log_sigma f4 [1, 5]
000000 00 00 00 00 00 00 00 00 00 00 00 00 00 00 00 00
       0.0 0.0 0.0 0.0
000010 00 00 00 00
       0.0

action_model._continuous_distribution.mu.weight f4 [5, 128]
000000 77 82 13 bc 27 90 b9 3c 27 18 93 bb 95 4b 95 bc
       -0.009003273 0.022651745 -0.004488963 -0.018224517
000010 42 37 e0 bc 54 96 47 bc 4d 39 8e bc 63 8c 66 bc
       -0.027370099 -0.012181837 -0.017361308 -0.014071557
000020 c3 af 9d bb 06 97 12 bc 53 85 c3 3c ed 20 f7 3c
       -0.004812212 -0.00894714 0.023867285 0.030167067
000030 5b 96 62 bc 42 b3 ec bc 5d e2 c8 3c a7 0c 8b bc
       -0.013829793 -0.02889407 0.024522 -0.016973807
000040 c1 8b 11 3c 00 18 a2 b6 c1 78 33 3c 3f 63 3f 3c
       0.008883418 -4.83077e-06 0.010954083 0.011681377
000050 d1 b4 34 3c 76 a5 33 3c b0 0d 15 3c 72 9a 96 3b
       0.011029438 0.010964742 0.009097502 0.004596048
000060 cf a9 38 bc b1 4f 88 3c 3a ee 9f 3c 86 5a b6 3c
       -0.011270954 0.016639562 0.019522775 0.022259962
000070 b3 16 41 3c ab 3a 8a 39 60 31 e9 3c 6a 7c 10 bc
       0.011785197 0.00026365122 0.028465927 -0.008818725
000080 27 7a 19 3d 5d 63 eb 3a d5 2c 0c bd 6b d8 81 bc
       0.03747001 0.001795869 -0.034222443 -0.015850266
000090 47 51 7f 3c dc a2 8f bc d7 37 27 3c af 7b 95 bb
       0.015583343 -0.017533712 0.010206184 -0.0045618634
0000a0 97 d8 24 bc f3 bd 96 bb 4b 14 e8 3c 73 ac a3 3c
       -0.010061405 -0.0046002804 0.028329989 0.019979691
0000b0 04 d2 c3 3c c7 7a 86 3c d0 65 a7 3c 80 7d 86 bc
       0.023903854 0.016415967 0.02043429 -0.016417265
0000c0 ed f0 e6 3c 2e bc 2c b9 3e 08 16 ba 5d f9 65 bb
       0.028191054 -0.000164733 -0.0005723274 -0.003509126
0000d0 1d e1 0a 3b 35 ac d6 3b 4e 77 01 3c 93 09 ac bb
       0.0021191307 0.0065512904 0.00790198 -0.005250165
0000e0 a2 9d c6 bb 0f ab 95 3c fa 14 33 bd 47 49 d7 bc
       -0.0060612718 0.018270044 -0.043721177 -0.026280059
0000f0 47 e6 c2 bc 9d b8 56 3c 67 47 f9 bc 3e af 47 bc
       -0.023791445 0.013105539 -0.030429555 -0.012187777
000100 68 a1 ab 3c 57 af 33 bb 02 60 83 3b 5c 95 02 bb
       0.020950988 -0.0027417743 0.0040092478 -0.001992545
000110 79 b6 8d bc f3 4a bc bc 87 a2 d0 bb 64 d6 c4 bc
       -0.017298924 -0.022984957 -0.006367031 -0.02402801
000120 28 8f f4 bb df e3 b1 3c 7e 99 33 3c fa 03 86 3c
       -0.0074633546 0.021715103 0.010961888 0.016359318
000130 e0 f9 07 ba fa 96 cb ba 8a dd 8d 3b 8c 49 9b bc
       -0.00051870756 -0.0015532665 0.004329388 -0.018955968
000140 d6 81 88 bc 97 18 a8 3b f0 36 44 bc 90 f7 5b 39
       -0.016663473 0.0051298845 -0.011975989 0.00020977692
000150 cf 04 b8 3b 9b e2 10 bc eb 10 95 bc c3 f5 a0 3c
       0.0056158076 -0.008843089 -0.018196544 0.019648438
000160 3b 97 e8 bb 8f 52 b5 ba d2 b3 24 3d cf 4d 87 bb
       -0.007098106 -0.0013833808 0.040210553 -0.0041291486
000170 cb 7e 6b 3c 7b af cc 3b a9 a1 28 3c b3 37 8c bb
       0.0143734915 0.006246505 0.010292449 -0.004279101
000180 87 0c 2f bc fb a4 61 bb fa 1b 00 bd 17 75 ab bc
       -0.010684139 -0.0034430611 -0.03127668 -0.020929856
000190 60 6e 91 3c bb ed 1d bc 98 64 d7 3a ca 73 15 3c
       0.017752826 -0.009639199 0.0016433178 0.009121845
0001a0 f2 fc 72 3c c7 f7 8e 3b df 22 b0 bc 20 bc 5a bc
       0.014830815 0.0043630335 -0.021501003 -0.013350517
0001b0 35 cc f0 bb 57 37 81 3a 49 25 82 ba 3f 15 ec 3c
       -0.007348562 0.0009858412 -0.0009929325 0.028818725
0001c0 84 8a 16 bc 9a 3e 2c 3c f0 7e 4d 3c 83 ea a2 3c
       -0.009188298 0.010512972 0.012542471 0.019887215
0001d0 76 fb 92 3a 45 fc 7a 3b b5 0d 03 bc 35 aa ec bb
       0.0011213857 0.0038297337 -0.0079988735 -0.0072224387
0001e0 ea 7c d2 3b 9b d7 eb 3c f3 a6 90 3c 9b d6 2b bc
       0.0064235823 0.028789332 0.017657733 -0.010488178
0001f0 0f c0 77 bb c2 e2 e2 bb 0f 4e 92 3b 8b 3a 56 3c
       -0.0037803685 -0.0069240043 0.0044648717 0.013075481
000200 15 a6 e1 bb 85 39 76 3c 97 64 7c bc bb 6d 2c 3c
       -0.0068862536 0.015028362 -0.015404842 0.010524209
000210 b5 b9 8e bb 38 73 4a bc 33 ee b6 3c 41 ec c4 bb
       -0.004355634 -0.012356572 0.02233038 -0.006009609
000220 7d f5 c0 3c 97 ca 04 3c 5a 32 dc bb 0c e4 ba 3b
       0.023554558 0.008104942 -0.0067198696 0.005703455
000230 97 57 8f ba 7d 2f f3 bb c5 62 11 bc 2f 0e b2 bb
       -0.0010936138 -0.0074214325 -0.008873646 -0.0054338197
000240 30 37 f5 bb c3 97 f9 3c f7 52 fb 3c 28 58 cc 3a
       -0.0074833855 0.030467873 0.03067921 0.0015590237
000250 77 57 00 bd e9 0d a4 bc 48 d8 39 3c ff 90 c4 3c
       -0.031333413 -0.020026164 0.011343069 0.02399492
000260 ad d9 cf 3a b0 78 e0 3b b9 a9 00 3c ce 36 8b bc
       0.0015857719 0.0068503246 0.007852965 -0.016993906
000270 66 2f bd ba 57 74 e9 bb 6f df 9c b8 d0 95 75 bc
       -0.0014433681 -0.0071244645 -7.4802774e-05 -0.014989331
000280 94 ef 0c bc 73 69 fa 3b 7e dd a5 3c 15 48 db bc
       -0.008602042 0.007641965 0.020247217 -0.02676777
000290 bb 13 9a bc 12 cf 8a bc 4b ab a1 bc 17 9b 9a bc
       -0.018808236 -0.016944442 -0.019735 -0.01887278
0002a0 26 19 c3 3c 31 37 2a 3c c7 ba 94 3c 8b 13 de 3b
       0.023815703 0.010389135 0.018155469 0.006777232
0002b0 2f 2e 13 bd 11 ef 11 3c 8a 8c 59 3c 95 bb 24 bc
       -0.035932716 0.0089070955 0.013278136 -0.010054489
0002c0 1c 64 3f 3b 21 67 a7 bc 20 98 ff 3b 9e a1 c9 bc
       0.0029203957 -0.020434918 0.007800117 -0.024613198
0002d0 51 c9 92 3b 5d bf 01 3c d0 b5 0e bc 6d 85 51 bc
       0.004479565 0.00791916 -0.00871034 -0.012788159
0002e0 92 76 62 3b 52 0b 15 3c 90 2f 9e 3c c7 ad 85 3c
       0.0034555537 0.009096937 0.019309789 0.016318215
0002f0 ac b2 03 bc 7a 6e df bb 49 38 37 3c 0d 1b e8 3b
       -0.008038204 -0.0068185898 0.011182853 0.007083303
000300 93 5b 8c bb 2b e0 d1 bb 93 66 7d 3c d4 64 11 3c
       -0.0042833774 -0.0064048967 0.01546635 0.008874137
000310 2d 2a 99 bb d4 98 89 bc 34 14 a1 36 8b 7d b8 bb
       -0.004674217 -0.016796507 4.800526e-06 -0.0056302003
000320 bd a5 44 bb 56 99 22 bd f6 d7 44 39 19 7a 31 bc
       -0.0030006014 -0.039697014 0.00018772468 -0.010832333
000330 03 db 9a 3b 7e 73 31 bc 4a 66 a4 3c f0 cd e6 bc
       0.0047258153 -0.010830758 0.020068306 -0.02817437
000340 12 d6 2c bc 90 36 ec bb 56 02 23 3c 87 90 00 3c
       -0.010549085 -0.007208653 0.009949287 0.007846958
000350 e2 ed 65 3b 30 1d f5 ba 17 48 26 bc 63 e5 6d bb
       0.0035084416 -0.0018700715 -0.0101490235 -0.0036300055
000360 e4 4f c8 bb 73 2a d5 bb eb 35 fc bb 4f a3 74 3c
       -0.0061130393 -0.0065053045 -0.007696857 0.014931514
000370 04 00 26 bc cb 27 11 bb a7 c4 30 bc 1b ce d4 3c
       -0.01013184 -0.0022148963 -0.010789073 0.025977185
000380 1b e1 9f 3c 58 1d 86 bc 1f 0f f2 3c 2d 5f 4f bb
       0.019516518 -0.016371414 0.029548226 -0.0031642423
000390 8b e1 3b 3d 25 a5 04 bd 57 25 2d 3d a8 8a 7e bb
       0.04586939 -0.032384057 0.04227194 -0.003883997
0003a0 9b 70 90 3b 83 de 99 bb 6b e2 d7 bb 37 5c a6 3a
       0.004407955 -0.004695715 -0.0065882704 0.0012692277
0003b0 4b c7 94 3c 35 f0 d5 bc b4 4d b4 bc 82 c9 69 3b
       0.018161437 -0.026115516 -0.022009708 0.0035673087
0003c0 27 4e 88 3c 1f 3e 11 3c 7b 61 ff bc 4b bb 63 3c
       0.016638828 0.0088649085 -0.031174412 0.013899635
0003d0 3b b3 5a 3b ef 3c 5c 3c 57 d3 9e 3c c3 d8 89 ba
       0.003337099 0.013442262 0.019387884 -0.001051687
0003e0 62 f9 fe 3b 7b af 2f bd cd 38 f9 3c 82 06 e2 3b
       0.0077811936 -0.04289196 0.030422593 0.0068977484
0003f0 bb 0c a0 3c b5 34 5e 3c fa 2a 0b bc 29 56 13 b8
       0.01953732 0.013562371 -0.008494133 -3.5127774e-05

action_model._continuous_distribution.mu.bias f4 [5]
000000 00 00 00 00 00 00 00 00 00 00 00 00 00 00 00 00
       0.0 0.0 0.0 0.0
000010 00 00 00 00
       0.0

critic.network_body.linear_encoder.seq_layers.0.weight f4 [128, 9]
000000 8c b8 8a 3e 86 28 a0 3e 83 6b b5 3c d6 87 2c 3e
       0.27093923 0.31280917 0.022145992 0.16848692
000010 de d8 f3 bc 94 47 2d be 4f df ac be 03 b0 62 bf
       -0.029766496 -0.16921836 -0.3376412 -0.8854982
000020 1f df a5 3e b6 ee 99 be 16 40 12 be 45 be 10 bf
       0.3239679 -0.30064934 -0.1428226 -0.5654033
000030 d7 1c b3 be 94 7c 26 3e f7 d7 c8 be b6 6f a6 bd
       -0.3498294 0.1625846 -0.39227268 -0.08126776
000040 44 2b c4 3e 2b 6e 3d 3f 61 c8 94 3e 67 10 c4 be
       0.3831426 0.7399623 0.29059127 -0.38293764
000050 4e 76 0a 3f 4a 49 ac 3d 05 cb 10 3d 92 ed 03 bf
       0.5408677 0.08412416 0.035349865 -0.5153438
000060 5a 52 49 3e 14 4f a9 3e f0 49 31 bf b6 d6 ec be
       0.19660321 0.33068144 -0.69253445 -0.4625756
000070 06 d8 17 3d bc ab e5 3e 62 62 24 3e 37 75 de be
       0.03707125 0.44857585 0.16053155 -0.43448803
000080 4c 0a 40 be 9f c7 11 3f e4 1e 26 bf cb 89 48 3e
       -0.18753928 0.5694522 -0.64890885 0.19583814
000090 78 63 88 3e 22 90 15 be 76 3c 85 bd ac dd b0 be
       0.2663839 -0.14605764 -0.06505673 -0.34544122
0000a0 b6 67 50 3d a8 44 c8 bd 27 07 b9 be 04 f5 31 be
       0.050880156 -0.0977872 -0.3613827 -0.17378622
0000b0 87 fb aa 3d 36 8b 5b bc 9e 7b c7 be 9f 02 f1 bc
       0.08348756 -0.01339989 -0.389615 -0.029420195
0000c0 bc 27 60 3e 12 29 8c be f2 dc 18 be 48 52 56 be
       0.21890157 -0.27375084 -0.14928034 -0.20929825
0000d0 bf be 6b 3d 1c 14 21 3f 00 91 39 3e 86 78 23 3f
       0.057554957 0.6292131 0.1812172 0.6385578
0000e0 e4 37 b2 be 1b 3b dd 3d 4e 2f 55 be 49 97 00 bf
       -0.34808266 0.10802289 -0.20818827 -0.5023084
0000f0 8e 17 03 bf 68 21 ff be 44 58 e2 be 9c 17 08 3f
       -0.51207817 -0.49830174 -0.44207966 0.53161025
000100 64 46 04 3e 37 44 bb 3e db 14 09 bd 2f 8d 6d bc
       0.12917477 0.3657548 -0.033467155 -0.014498993
000110 e8 0a 01 be 87 06 8f 3e e2 71 b0 be a4 c1 19 be
       -0.12601817 0.27934667 -0.34461886 -0.15015274
000120 14 5f a2 be 2c cf 32 3c 40 ee 0b 3f bf b4 78 be
       -0.31713164 0.010913651 0.54660416 -0.24287699
000130 e6 5a 0c be a4 8e 09 bf 07 a9 2d be e3 8a 84 be
       -0.1370655 -0.5373328 -0.1695901 -0.25887212
000140 3a 00 a2 3d 0a e7 ba 3e 5c 71 e5 3e 53 56 f5 be
       0.079101995 0.36504394 0.4481305 -0.47917423
000150 df cc 9c 3e 6f b0 ce be a6 97 01 3f dc d1 d0 be
       0.30625054 -0.40368983 0.5062202 -0.4078511
000160 8c 24 b0 3e 62 e2 57 3e 7a 7c a9 bd e2 00 50 3e
       0.34402883 0.21082452 -0.08275695 0.20312837
000170 bb 45 c2 3d 49 e4 27 3f 22 dd 1d be 47 b8 0e 3f
       0.09485956 0.6558271 -0.15416387 0.55749935
000180 68 12 3f be 52 e9 ab 3e 61 47 a4 be ff 7c 67 bf
       -0.18659365 0.33576447 -0.32085708 -0.90425104
000190 b7 55 b9 3e 2d 11 83 3e 70 34 40 3f 0e 48 0e bd
       0.36198208 0.25599042 0.75080013 -0.034736685
0001a0 88 8a 0b bf c9 48 1a be ea a6 e0 3e 7b f1 db 3e
       -0.54508257 -0.15066828 0.43877345 0.42957672
0001b0 0e e3 dc 3e 3b da 3a bd 20 6b 91 be 90 62 34 3e
       0.4314198 -0.045618277 -0.28402042 0.17615724
0001c0 7d 5d 09 3f fc 05 58 be 68 ff 79 be 96 70 7c 3d
       0.53658277 -0.21096033 -0.24413836 0.061630808
0001d0 c8 eb 41 3e 04 6f 65 bd bc 89 d6 3e 62 b5 9b bd
       0.189376 -0.056014076 0.41901958 -0.076029554
0001e0 99 88 17 3e 29 1e 9d bd 0e e4 f7 be f3 93 44 3f
       0.14798202 -0.07671768 -0.4841618 0.7678825
0001f0 78 7b c8 3d 05 75 95 be 8a 2c 8a bb db 72 a3 be
       0.09789175 -0.2919084 -0.0042167353 -0.31923565
000200 7b 42 33 be 22 f1 9f be e3 82 7d 3e 17 e6 cd 3d
       -0.17505829 -0.31238657 0.2475696 0.10053652
000210 38 db cf 3e 3e d9 9d 3e 2e 1b 1d 3b 3e 1a 96 be
       0.40596938 0.30829805 0.00239725 -0.29316896
000220 ec 60 81 3d fc d0 d0 be 0b 9d 13 3e 89 74 99 bd
       0.063173145 -0.40784442 0.14415376 -0.074929304
000230 e0 7f 23 bf 7d 19 23 bf 3a ed d5 3e fb 5b 4c bf
       -0.63866997 -0.6371077 0.41782552 -0.7982785
000240 56 a3 95 3e 2d 2a 05 bd 57 78 04 3e 70 e6 eb bd
       0.29226178 -0.032510925 0.12936531 -0.11518562
000250 ff 80 af 3e 58 38 27 be 60 b8 6c bd f6 84 1b 3f
       0.34278104 -0.16330087 -0.05779302 0.6074976
000260 ff ea 70 be 44 7d 07 be aa a4 93 3e 72 02 6f be
       -0.23527144 -0.13231379 0.28836566 -0.23340777
000270 d7 dc 71 bd 73 9c b0 3e b0 09 66 be 94 42 b9 be
       -0.0590485 0.3449436 -0.22464633 -0.36183608
000280 b4 aa 2e be 6e d4 c8 be 8c 7b 3c be 14 d2 bd 3e
       -0.17057306 -0.3922457 -0.18406504 0.3707434
000290 6a e9 fe 3d 77 35 6e 3e 76 ce ec bd 8b e6 9d bd
       0.12446864 0.23262583 -0.11562817 -0.07709988
0002a0 94 ef 27 3f 26 a9 5e be 4a 3b 49 bb 13 43 60 be
       0.6559994 -0.21744213 -0.0030705505 -0.21900587
0002b0 07 d9 8b be 62 49 36 bd 8c 3f 6d 3d b8 65 87 3e
       -0.27314016 -0.044503577 0.05792193 0.26444793
0002c0 0f bc cd 3d af 8d 91 be b6 16 cf 3e 17 64 bc be
       0.10045635 -0.28428409 0.40447015 -0.36795112
0002d0 3b a3 2b 3e 06 12 aa be 4c d0 bc 3d 20 cf 96 3c
       0.16761486 -0.33216876 0.09219417 0.018409312
0002e0 3b 19 e1 be d0 64 e3 3e 7a 73 95 3e 7a 45 16 3f
       -0.43964562 0.4441285 0.29189664 0.5869976
0002f0 9a b4 4d 3e 86 a2 95 be d7 3b 06 3f f6 f0 2c 3e
       0.20088425 -0.29225558 0.5243506 0.16888794
000300 c4 75 ad 3e f2 c7 88 be 40 dd f3 be 7e 91 d2 3c
       0.3387891 -0.26715046 -0.47629738 0.025704142
000310 54 11 4e bd 50 05 fd 3e 1b f2 39 bd 5e 27 0a bf
       -0.050309494 0.49418116 -0.045396905 -0.5396632
000320 b0 b8 dc bd ff 02 69 3d b2 2c 16 be 1a e3 26 3f
       -0.10777414 0.056887623 -0.14665487 0.6519028
000330 aa b3 4a 3d 1b cf 2a be 54 8f 50 3e 2e 3f 4b be
       0.049487747 -0.16680567 0.20367175 -0.1984832
000340 80 2d a9 bc b0 e9 30 3e 3b 32 46 bb ef 69 be 3e
       -0.020651579 0.17276645 -0.0030242342 0.37190196
000350 bb 3f 8d bd 6b d4 b0 3e 07 2f d9 3e 46 20 0e bd
       -0.06896921 0.34537062 0.42418692 -0.034698747
000360 06 05 f8 be 88 81 e1 be 83 ba 59 3d 88 6d 00 bf
       -0.48441333 -0.44044137 0.053156387 -0.5016713
000370 1a 08 ee be 58 a1 59 bd 9c 08 a3 3e 1f 40 5e 3d
       -0.46490556 -0.053132385 0.31842506 0.05426037
000380 46 9b 89 3d 18 8e 95 be 06 21 bc 3e f0 9d 21 3c
       0.06719069 -0.2920997 0.36743945 0.009864315
000390 db c5 98 3e e4 bf f8 3d 8e 74 6e 3c 0c 6c 96 bd
       0.29838452 0.12145975 0.014554156 -0.07344827
0003a0 d2 85 ec 3e 53 f2 5a 3e f0 59 b9 3d ae 13 c3 be
       0.46195847 0.21381502 0.09050357 -0.38100952
0003b0 5e a4 a4 bd 90 28 1a 3e de af 9e 3e 89 7e 03 be
       -0.08039163 0.15054536 0.3099355 -0.12841238
0003c0 a2 a7 93 3e 1e bb ae bc 74 c3 f5 3e 29 67 11 3f
       0.2883883 -0.021329459 0.4800068 0.56798035
0003d0 70 cd 85 3d 9a b6 d2 be cb 5d 08 3d bb 5d 4d 3e
       0.06533325 -0.4115494 0.033292573 0.20055287
0003e0 a6 6e 94 be 8c 56 4f be 97 43 92 be af 0f 31 3e
       -0.28990668 -0.20247859 -0.28567192 0.17291139
0003f0 03 d7 32 be 04 cf ed 3e 9f 8d a6 3a c9 77 9d be
       -0.17464833 0.46447003 0.0012707001 -0.3075545

critic.network_body.linear_encoder.seq_layers.0.bias f4 [128]
000000 00 00 00 00 00 00 00 00 00 00 00 00 00 00 00 00
       0.0 0.0 0.0 0.0
000010 00 00 00 00 00 00 00 00 00 00 00 00 00 00 00 00
       0.0 0.0 0.0 0.0
000020 00 00 00 00 00 00 00 00 00 00 00 00 00 00 00 00
       0.0 0.0 0.0 0.0
000030 00 00 00 00 00 00 00 00 00 00 00 00 00 00 00 00
       0.0 0.0 0.0 0.0
000040 00 00 00 00 00 00 00 00 00 00 00 00 00 00 00 00
       0.0 0.0 0.0 0.0
000050 00 00 00 00 00 00 00 00 00 00 00 00 00 00 00 00
       0.0 0.0 0.0 0.0
000060 00 00 00 00 00 00 00 00 00 00 00 00 00 00 00 00
       0.0 0.0 0.0 0.0
000070 00 00 00 00 00 00 00 00 00 00 00 00 00 00 00 00
       0.0 0.0 0.0 0.0
000080 00 00 00 00 00 00 00 00 00 00 00 00 00 00 00 00
       0.0 0.0 0.0 0.0
000090 00 00 00 00 00 00 00 00 00 00 00 00 00 00 00 00
       0.0 0.0 0.0 0.0
0000a0 00 00 00 00 00 00 00 00 00 00 00 00 00 00 00 00
       0.0 0.0 0.0 0.0
0000b0 00 00 00 00 00 00 00 00 00 00 00 00 00 00 00 00
       0.0 0.0 0.0 0.0
0000c0 00 00 00 00 00 00 00 00 00 00 00 00 00 00 00 00
       0.0 0.0 0.0 0.0
0000d0 00 00 00 00 00 00 00 00 00 00 00 00 00 00 00 00
       0.0 0.0 0.0 0.0
0000e0 00 00 00 00 00 00 00 00 00 00 00 00 00 00 00 00
       0.0 0.0 0.0 0.0
0000f0 00 00 00 00 00 00 00 00 00 00 00 00 00 00 00 00
       0.0 0.0 0.0 0.0
000100 00 00 00 00 00 00 00 00 00 00 00 00 00 00 00 00
       0.0 0.0 0.0 0.0
000110 00 00 00 00 00 00 00 00 00 00 00 00 00 00 00 00
       0.0 0.0 0.0 0.0
000120 00 00 00 00 00 00 00 00 00 00 00 00 00 00 00 00
       0.0 0.0 0.0 0.0
000130 00 00 00 00 00 00 00 00 00 00 00 00 00 00 00 00
       0.0 0.0 0.0 0.0
000140 00 00 00 00 00 00 00 00 00 00 00 00 00 00 00 00
       0.0 0.0 0.0 0.0
000150 00 00 00 00 00 00 00 00 00 00 00 00 00 00 00 00
       0.0 0.0 0.0 0.0
000160 00 00 00 00 00 00 00 00 00 00 00 00 00 00 00 00
       0.0 0.0 0.0 0.0
000170 00 00 00 00 00 00 00 00 00 00 00 00 00 00 00 00
       0.0 0.0 0.0 0.0
000180 00 00 00 00 00 00 00 00 00 00 00 00 00 00 00 00
       0.0 0.0 0.0 0.0
000190 00 00 00 00 00 00 00 00 00 00 00 00 00 00 00 00
       0.0 0.0 0.0 0.0
0001a0 00 00 00 00 00 00 00 00 00 00 00 00 00 00 00 00
       0.0 0.0 0.0 0.0
0001b0 00 00 00 00 00 00 00 00 00 00 00 00 00 00 00 00
       0.0 0.0 0.0 0.0
0001c0 00 00 00 00 00 00 00 00 00 00 00 00 00 00 00 00
       0.0 0.0 0.0 0.0
0001d0 00 00 00 00 00 00 00 00 00 00 00 00 00 00 00 00
       0.0 0.0 0.0 0.0
0001e0 00 00 00 00 00 00 00 00 00 00 00 00 00 00 00 00
       0.0 0.0 0.0 0.0
0001f0 00 00 00 00 00 00 00 00 00 00 00 00 00 00 00 00
       0.0 0.0 0.0 0.0

critic.network_body.linear_encoder.seq_layers.2.weight f4 [128, 128]
000000 8b 57 b6 3d fc a1 36 bc bd dd ad bd a9 81 66 3c
       0.08903416 -0.0111470185 -0.08489559 0.014068999
000010 17 86 e3 3c 54 1a e0 bd 19 a5 cb bd 61 a9 8a 3c
       0.0277739 -0.10942522 -0.09943599 0.01692647
000020 5a 3e 9c bc fd 41 f3 bb 24 1a 05 3e 0e b5 b9 3d
       -0.0190727 -0.007423638 0.12998253 0.090677366
000030 70 a1 94 bd 08 f2 aa 3d 7a e3 e9 3d d2 e1 6f be
       -0.07257354 0.08346945 0.11420341 -0.23425987
000040 e1 5d 13 bd 5b bc 7a 3d 4d fa 11 be 48 7d 3d bd
       -0.0359782 0.061214786 -0.14255638 -0.046262056
000050 c3 42 f2 3d 64 f0 85 bd 3e 6c a4 bc 23 98 40 3c
       0.1182914 -0.065399915 -0.020071145 0.011755022
000060 01 c4 bb 3c 02 db 57 be 6f 65 d4 bd ab d0 a8 3c
       0.02292061 -0.21079639 -0.103709094 0.020607313
000070 59 6b f7 3d 32 e5 23 be 03 8e 5e bd a9 0d d8 3d
       0.12081022 -0.160054 -0.05433465 0.105494805
000080 86 c8 98 bd 09 1a 5f bd bc 19 ea bc 44 65 b9 3d
       -0.07460122 -0.05446819 -0.028576724 0.09052518
000090 9f 52 92 3c a7 4b f9 bd 5d aa dd 3c c4 12 16 be
       0.017861662 -0.12172633 0.027058775 -0.14655596
0000a0 bd 63 9f 3d 12 dc cb 3c 4b 18 d6 3d a2 8c 78 bd
       0.077826954 0.024885211 0.10453852 -0.060680993
0000b0 6d 40 af 3d c7 a2 20 3d be 13 18 bc 71 9c ad ba
       0.0855721 0.039217737 -0.009282051 -0.0013245476
0000c0 f1 3e 8c 3d 7c a7 f6 3d 2f a5 52 bd e2 c2 93 3d
       0.068479426 0.12043664 -0.051427063 0.07214905
0000d0 c2 b2 da 3d 7d 53 9f 3d 8c 6e 2e bd ea 86 df bd
       0.106786266 0.07779596 -0.042585894 -0.10914405
0000e0 5e 0d 0a 3e a5 e5 b4 bc a3 9a 64 bd 01 d7 56 bb
       0.13481662 -0.02208216 -0.055811536 -0.003278196
0000f0 9a ff 35 3e 02 bb d0 3d 2a 9d 83 3d 29 c2 1e bd
       0.17773286 0.10191919 0.06426461 -0.038759384
000100 01 0d 16 3d da fd 96 3d b8 9a 2e bd b3 37 0e 3d
       0.036633495 0.07372637 -0.04262802 0.034721088
000110 60 c7 9a 3d 84 92 39 be a0 28 72 bd 3c 45 b5 bd
       0.07557559 -0.18122298 -0.059120774 -0.08851096
000120 ef a0 60 3e a3 31 34 3e d7 7e 2c be 11 a2 1a bd
       0.21936391 0.1759706 -0.1684526 -0.037752215
000130 3b 35 df b9 cf 5b e4 3c 05 ac c2 3c f7 6c cd 3d
       -0.00042573534 0.027875809 0.023763666 0.10030549
000140 ef e4 e3 3a 3f a4 f4 bc 93 98 7f 3e 5b 14 ed bd
       0.0017386953 -0.029863475 0.24960546 -0.11576148
000150 88 52 ae 3d 0e 32 5c 3d e3 dc 1b 3d 2c 0f b8 3d
       0.08511835 0.053758673 0.03805245 0.08987269
000160 fc 8a c9 3c c3 c5 22 be b0 7d f5 39 90 99 dc 3b
       0.024602406 -0.15895753 0.00046823686 0.0067321733
000170 79 4d 26 bd 2a 5a 63 be 1d f6 80 3d 9a c7 58 be
       -0.040601227 -0.22202364 0.062969424 -0.21169892
000180 f5 66 a0 3d 38 68 dc bb db 10 88 bc 5d 22 00 be
       0.078321375 -0.006726291 -0.0166096 -0.12513109
000190 88 0b 68 3c 57 70 bf bd bd 0a ba bc 8c 2d 21 3d
       0.0141629055 -0.09347599 -0.022710199 0.039350078
0001a0 86 b1 49 be 9e b9 89 bc af 25 26 be 9e 49 5d 3d
       -0.19696626 -0.016812142 -0.16225313 0.054025285
0001b0 04 2f b4 bd 25 08 2d 3e 76 a8 c2 bd 97 73 15 bd
       -0.0879803 0.16897638 -0.095047876 -0.03648719
0001c0 0b c9 e9 bd e5 59 9b 3d 85 60 f8 bd f3 b2 53 3e
       -0.11415299 0.075855054 -0.12127785 0.20673732
0001d0 60 de dd bd 3e 3c da bd 32 b3 18 3d 82 f3 46 3d
       -0.1083343 -0.106560215 0.03728027 0.04857207
0001e0 c8 4f 88 bc f3 7f 3b 3e 6e 01 25 bd 0b 5a ed bd
       -0.016639605 0.18310528 -0.040284567 -0.1158944
0001f0 a8 06 2a 3e 74 36 b1 3d 78 41 4c bd 72 c5 3b bd
       0.16604102 0.08652964 -0.049867123 -0.045842595
000200 66 b2 c3 3c d8 39 f1 bd 66 22 4a 3c 8a fa c3 3d
       0.023888778 -0.11778611 0.012337303 0.09569271
000210 0c d6 4a be 7d 78 87 3a 09 ee 5c bb 3f 22 aa 3c
       -0.19808215 0.0010335591 -0.0033711216 0.020768283
000220 3c 3b da bd c3 ee ff 3d 98 dc 2d be 03 72 67 bd
       -0.10655829 0.12496712 -0.16978681 -0.056505214
000230 53 da c4 3b 6e a5 dc bd 96 03 cc 3d 81 2c 01 3e
       0.0060074716 -0.10773741 0.099616215 0.12614633
000240 32 63 e5 3d 69 1c da 3b ff c2 e3 3c e9 96 94 3c
       0.11200561 0.006656219 0.027802942 0.018138366
000250 65 00 0a 3e a3 99 a5 bd 84 a9 72 bc 2e 40 f3 bc
       0.13476713 -0.080859445 -0.0148109235 -0.02969369
000260 76 90 de bd 68 7f c9 3d ad e6 0a 3e fe ff c8 3d
       -0.108673975 0.09838754 0.13564558 0.09814452
000270 71 84 ba bd bb ff ce 3d 66 2c 90 3d 58 a4 6c 3d
       -0.091072924 0.101073705 0.07039718 0.057773918
000280 a5 61 26 bd 0f bc 29 bd 95 8f 34 bd 8c d3 28 3e
       -0.040620465 -0.041439112 -0.044082243 0.16486949
000290 d1 6c 63 bd 75 26 12 be fa bf 92 bb 8e c4 2f bc
       -0.055523697 -0.14272483 -0.004478452 -0.010728015
0002a0 4b 32 a7 bc b7 5c 19 bd f8 97 23 3d d6 b6 73 3d
       -0.020409724 -0.037441935 0.03993985 0.059500538
0002b0 6f 5b 0f 3e b2 b0 18 be a5 ed 55 bd b7 aa 16 3e
       0.13999723 -0.14911154 -0.05222859 0.1471356
0002c0 06 4f 2d be ac 6a 83 bd 9d 4e 23 be c8 20 45 3d
       -0.16924676 -0.064168304 -0.15947957 0.048126966
0002d0 ca b8 33 be 8e 1c ab 3c 89 c0 dc 3b 7c 42 39 bc
       -0.1755096 0.02088764 0.006736819 -0.011307355
0002e0 7b 5d a4 3d 06 2f 4f bd 15 00 c2 3c f7 f1 13 3e
       0.080256425 -0.050581954 0.02368168 0.14447771
0002f0 e5 c3 d6 3d 07 09 37 3c d8 0a 70 bd 97 70 6e bd
       0.10486583 0.011171586 -0.05860409 -0.058212843
000300 f6 32 ae bd 6a 1e a0 bc 53 58 e5 bd 23 af df 3d
       -0.08505814 -0.019545753 -0.11198487 0.109220766
000310 f5 3f a6 3c d7 84 19 3d 12 62 00 3e 5b d7 33 bd
       0.020294169 0.0374802 0.12537411 -0.04390655
000320 cc 8f e2 3d 50 e2 85 3d 53 88 d2 3d 2e f3 57 bd
       0.11062583 0.06537306 0.10279908 -0.05272215
000330 8f 4d e6 bc 57 5f 16 3d 53 e5 08 bc de ca 26 bd
       -0.028113155 0.036712017 -0.008355456 -0.040720813
000340 b4 b3 23 3d 27 5a e2 3d ff bb 74 bd c8 23 e2 3c
       0.0399663 0.110523514 -0.0597496 0.027604952
000350 a8 bc ab 3d 2e 82 f9 3c b6 61 f0 bd ee d1 d3 3d
       0.08385593 0.030457582 -0.11737387 0.10342775
000360 5f 06 96 bd f5 4d 35 3d c4 c8 32 bd d8 7d ae 3c
       -0.07325434 0.0442638 -0.043648496 0.021300241
000370 47 5c 90 3b b3 f4 69 bd d2 36 d6 bd 0e 80 6a 3c
       0.0044055316 -0.05711813 -0.10459675 0.014312757
000380 2c 52 5d bd 9e 1e 34 3e f6 ec 71 3d bb 3e 0a 3d
       -0.054033443 0.17589805 0.059063874 0.03375123
000390 3d d3 3b bd 3d ba 96 3d 1d 3d be 3d 57 bc df bb
       -0.04585575 0.07359741 0.09289 -0.006827872
0003a0 1e 14 d3 bc 99 2b db 3d d4 e1 15 3e 41 ed 58 3d
       -0.025766429 0.10701675 0.14636928 0.052960638
0003b0 31 6e 69 ba 8b 4a 95 bd 3a 45 7c 3c fb e8 f5 3d
       -0.00089046644 -0.072896086 0.015397364 0.12007328
0003c0 c9 24 18 3d b9 48 8f 3b 4f 35 43 bd af 49 8b 3c
       0.037144456 0.004372683 -0.04765826 0.017002909
0003d0 89 02 b7 3c 13 b2 27 3e cc 7c 5a 3d 09 ac 84 3b
       0.022340076 0.16376524 0.05334167 0.0040488285
0003e0 ff 55 08 3d f0 db c7 bd 5e b0 a6 bd 70 66 3e 3d
       0.033285137 -0.097587466 -0.08139108 0.04648441
0003f0 7f 13 f5 bd 98 be ca bc 2e ba 9f bd 67 75 12 3d
       -0.11966609 -0.024749085 -0.07799183 0.035756495

critic.network_body.linear_encoder.seq_layers.2.bias f4 [128]
000000 00 00 00 00 00 00 00 00 00 00 00 00 00 00 00 00
       0.0 0.0 0.0 0.0
000010 00 00 00 00 00 00 00 00 00 00 00 00 00 00 00 00
       0.0 0.0 0.0 0.0
000020 00 00 00 00 00 00 00 00 00 00 00 00 00 00 00 00
       0.0 0.0 0.0 0.0
000030 00 00 00 00 00 00 00 00 00 00 00 00 00 00 00 00
       0.0 0.0 0.0 0.0
000040 00 00 00 00 00 00 00 00 00 00 00 00 00 00 00 00
       0.0 0.0 0.0 0.0
000050 00 00 00 00 00 00 00 00 00 00 00 00 00 00 00 00
       0.0 0.0 0.0 0.0
000060 00 00 00 00 00 00 00 00 00 00 00 00 00 00 00 00
       0.0 0.0 0.0 0.0
000070 00 00 00 00 00 00 00 00 00 00 00 00 00 00 00 00
       0.0 0.0 0.0 0.0
000080 00 00 00 00 00 00 00 00 00 00 00 00 00 00 00 00
       0.0 0.0 0.0 0.0
000090 00 00 00 00 00 00 00 00 00 00 00 00 00 00 00 00
       0.0 0.0 0.0 0.0
0000a0 00 00 00 00 00 00 00 00 00 00 00 00 00 00 00 00
       0.0 0.0 0.0 0.0
0000b0 00 00 00 00 00 00 00 00 00 00 00 00 00 00 00 00
       0.0 0.0 0.0 0.0
0000c0 00 00 00 00 00 00 00 00 00 00 00 00 00 00 00 00
       0.0 0.0 0.0 0.0
0000d0 00 00 00 00 00 00 00 00 00 00 00 00 00 00 00 00
       0.0 0.0 0.0 0.0
0000e0 00 00 00 00 00 00 00 00 00 00 00 00 00 00 00 00
       0.0 0.0 0.0 0.0
0000f0 00 00 00 00 00 00 00 00 00 00 00 00 00 00 00 00
       0.0 0.0 0.0 0.0
000100 00 00 00 00 00 00 00 00 00 00 00 00 00 00 00 00
       0.0 0.0 0.0 0.0
000110 00 00 00 00 00 00 00 00 00 00 00 00 00 00 00 00
       0.0 0.0 0.0 0.0
000120 00 00 00 00 00 00 00 00 00 00 00 00 00 00 00 00
       0.0 0.0 0.0 0.0
000130 00 00 00 00 00 00 00 00 00 00 00 00 00 00 00 00
       0.0 0.0 0.0 0.0
000140 00 00 00 00 00 00 00 00 00 00 00 00 00 00 00 00
       0.0 0.0 0.0 0.0
000150 00 00 00 00 00 00 00 00 00 00 00 00 00 00 00 00
       0.0 0.0 0.0 0.0
000160 00 00 00 00 00 00 00 00 00 00 00 00 00 00 00 00
       0.0 0.0 0.0 0.0
000170 00 00 00 00 00 00 00 00 00 00 00 00 00 00 00 00
       0.0 0.0 0.0 0.0
000180 00 00 00 00 00 00 00 00 00 00 00 00 00 00 00 00
       0.0 0.0 0.0 0.0
000190 00 00 00 00 00 00 00 00 00 00 00 00 00 00 00 00
       0.0 0.0 0.0 0.0
0001a0 00 00 00 00 00 00 00 00 00 00 00 00 00 00 00 00
       0.0 0.0 0.0 0.0
0001b0 00 00 00 00 00 00 00 00 00 00 00 00 00 00 00 00
       0.0 0.0 0.0 0.0
0001c0 00 00 00 00 00 00 00 00 00 00 00 00 00 00 00 00
       0.0 0.0 0.0 0.0
0001d0 00 00 00 00 00 00 00 00 00 00 00 00 00 00 00 00
       0.0 0.0 0.0 0.0
0001e0 00 00 00 00 00 00 00 00 00 00 00 00 00 00 00 00
       0.0 0.0 0.0 0.0
0001f0 00 00 00 00 00 00 00 00 00 00 00 00 00 00 00 00
       0.0 0.0 0.0 0.0

critic.value_heads.value_heads.extrinsic.weight f4 [1, 128]
000000 1d f3 2c be 24 b3 12 3e 21 4a be bd b8 46 8b bd
       -0.16889615 0.14326149 -0.09291483 -0.06800598
000010 f2 9e 56 3e 98 04 d5 3c c0 ae b4 3c a0 b1 9c 3d
       0.2095907 0.026003167 0.022055984 0.07651067
000020 f6 bc 54 3e c8 6f 92 bc c0 4c 59 3e f1 f3 bb bd
       0.20775208 -0.017875567 0.21220684 -0.091773875
000030 18 6d c7 3c 98 07 ca 3d d8 5d f8 bd 30 cb d1 bc
       0.024344012 0.0986473 -0.12127274 -0.025609583
000040 a6 b9 aa bd 8c 73 d9 3d 50 c1 b0 3c 0a 46 13 be
       -0.08336191 0.10617742 0.021576554 -0.14382187
000050 b0 22 ec bc 28 33 68 3d 38 96 36 3e f0 a2 c5 bc
       -0.028825134 0.05668941 0.17830741 -0.024125546
000060 98 45 0f be 90 41 ba 3c be 54 3c 3e 58 35 a8 bc
       -0.13991392 0.02273634 0.18391702 -0.020533249
000070 30 b2 74 3c a7 eb 06 be f8 9b c2 bd d4 0b 74 bd
       0.014935061 -0.13175832 -0.09502405 -0.059581593
000080 40 a0 de bd 3c de 3f bd 69 3d 57 be 00 7c fe 39
       -0.10870409 -0.0468428 -0.2101952 0.00048539042
000090 2e 8a 30 3e ea f6 5a be 60 5a 5e 3d 2e 59 cd bd
       0.17240211 -0.21383253 0.054285407 -0.10026775
0000a0 3a 66 84 bd 38 24 56 3e 7e 39 59 3e 34 cd cb bd
       -0.06464811 0.20912254 0.21213338 -0.09951249
0000b0 12 b5 0d 3e 32 50 08 3e 30 65 32 be 45 20 51 be
       0.13838604 0.13311842 -0.17421412 -0.20422466
0000c0 ab 4f bc bd d0 28 f9 bc cc 64 eb bd 5c 73 9c bd
       -0.09194883 -0.030414969 -0.11493835 -0.076391906
0000d0 b0 8f e4 3c 7a a0 95 bd b4 08 06 be 20 0f af 3c
       0.027900547 -0.07305999 -0.13089257 0.021369517
0000e0 38 00 11 be b0 fb c0 3c e0 92 6f bc 78 af c0 3c
       -0.1416024 0.023557514 -0.01462242 0.02352117
0000f0 88 cf ef 3c 78 ca a2 3d 20 a2 15 3d 42 5e 28 3e
       0.029273763 0.07948774 0.036531568 0.16442207
000100 a0 ef d1 3d f0 17 58 bd 42 2d 27 be 68 31 e7 3c
       0.10250783 -0.052757204 -0.16325858 0.0282218
000110 87 7c 36 be a8 21 05 3d 3c 6d 23 3e a2 c0 41 3e
       -0.17820941 0.0325028 0.15959638 0.1892114
000120 50 44 77 3d bc 7b 22 3e b4 f1 ea 3d 56 37 f2 bd
       0.060367882 0.15867513 0.114718825 -0.11826961
000130 90 09 b6 bd 00 93 d5 3c 74 26 30 be 3a 50 c8 bd
       -0.08888543 0.026071072 -0.17202169 -0.09780927
000140 57 04 bd bd 88 25 7a 3d 0c 4b 52 be 38 bf 53 be
       -0.092293434 0.06107095 -0.2053644 -0.20678413
000150 74 8d 59 3e 26 72 9d bd a8 2c 6f bd 44 b1 49 bd
       0.21245366 -0.07687788 -0.058392197 -0.04924132
000160 44 11 bf 3d b0 39 04 3c e0 c3 be 3d c0 a9 cc bb
       0.09329465 0.008070394 0.09314704 -0.0062458217
000170 b0 a7 e9 3d 5c 36 53 be 88 69 15 be 10 d5 3a bd
       0.11408937 -0.20626205 -0.14591038 -0.04561335
000180 98 fd fe bd 6b d9 e8 bd 94 3c f4 3d 32 99 01 be
       -0.12450713 -0.11369594 0.11925617 -0.12656096
000190 38 22 b3 bd 9c f6 11 3e 66 ea 3d 3e 3f 6d d3 bd
       -0.08746761 0.1425423 0.18546447 -0.103235714
0001a0 0c d7 19 3e 15 da e5 bd a9 16 52 be 52 cd 88 bd
       0.1502344 -0.112232365 -0.20516457 -0.06679787
0001b0 a8 28 37 be 86 c2 17 be cf c6 5c be 5c 99 38 3e
       -0.17886603 -0.14820299 -0.21560214 0.18027252
0001c0 f0 10 e0 3c 88 5c 42 be b6 0d 4a 3e de f9 46 3e
       0.027351826 -0.1898061 0.19731793 0.19431254
0001d0 c6 41 ae bd 9e df 29 be 40 17 53 3b ca c4 9b bd
       -0.08508639 -0.1658921 0.0032209903 -0.07605894
0001e0 68 cb fb 3c 8f de 54 be e9 07 cb bd 80 31 3c 3c
       0.03073664 -0.20788024 -0.09913618 0.011486411
0001f0 b0 d3 01 be 26 03 93 bd d8 d9 f0 3d 80 95 f2 3a
       -0.12678409 -0.07178335 0.117603004 0.0018507689
