Unity - Crypto Ball/results/ScoreGoal0/My Behavior/My Behavior-1280.pt (torch, 153807 bytes, 12 tensors)

network_body.linear_encoder.seq_layers.0.weight f4 [128, 9]
0	0xbe44e2be	-0.1922712
1	0x3e94b8ac	0.29047143
2	0xbf0fd2fa	-0.561813
3	0xbeb27796	-0.34856862
4	0x3e9ad880	0.302433
5	0xbdf65326	-0.12027578
6	0xbe38d6d3	-0.18050699
7	0x3e6a4a50	0.2287991
8	0xbe50601e	-0.20349166
9	0x3e4956cb	0.19662015
10	0xbeec5568	-0.4615891
11	0x3db55247	0.08853584
12	0xbe2a326f	-0.16620801
13	0x3e7bf41c	0.24604839
14	0x3d621298	0.055193514
15	0x3e2dd8d2	0.16977242
16	0x3ec2cd9a	0.38047487
17	0xbe1e6fb0	-0.15472293
18	0x3e93b25e	0.2884702
19	0xbdfa7606	-0.122295424
20	0x3e21fd0e	0.15819189
21	0x3dcae1be	0.09906338
22	0xbd447bfb	-0.0479698
23	0x3e19a810	0.15005517
24	0xbd76056c	-0.060063764
25	0xbcbe910b	-0.023262521
26	0x3f51465b	0.8174798
27	0x3e15a048	0.14611924
28	0x3e842f4d	0.25817338
29	0x3dc26bde	0.0949323
30	0x3db11ae6	0.086477086
31	0xbbeaf0fb	-0.0071698404
32	0x3e2cbc54	0.16868716
33	0xbe115fe8	-0.14196742
34	0xbef5d0d0	-0.48010874
35	0x3e87093c	0.26374233
36	0x3e45330e	0.19257757
37	0xbeb113cf	-0.34585425
38	0x3e989d4e	0.29807514
39	0xbddd8686	-0.10816674
40	0xbee7a9af	-0.45246646
41	0xbf45495e	-0.77065074
42	0xbe1f22fb	-0.15540688
43	0x3dfc6f9f	0.123259775
44	0xbed8c10e	-0.4233479
45	0x3e2a2c19	0.16618384
46	0xbea06776	-0.31328934
47	0xbbdea452	-0.006794491
48	0xbed0509c	-0.406865
49	0x3ef202b4	0.47267687
50	0xbdf5e292	-0.120061055
51	0xbeb3e902	-0.35138708
52	0x3eb43faa	0.35204822
53	0x3d90695b	0.07051345
54	0xbe3b71ba	-0.18305102
55	0xbef7587c	-0.48309696
56	0xbdff55a4	-0.124675065
57	0x3e12a54d	0.1432087
58	0xbea03642	-0.31291395
59	0x3d8c67be	0.06855725
60	0x3df1c303	0.11804774
61	0xbf6dfac6	-0.92960775
62	0x3eec25f2	0.461227
63	0xbe645254	-0.2229703
64	0x3de477fa	0.11155696
65	0xbf6e05c3	-0.9297754
66	0x3e522fac	0.20525998
67	0x3f0d57c5	0.5521205
68	0x3e02aea7	0.12761937
69	0xbea9423e	-0.3305835
70	0xbdb9878e	-0.09059058
71	0x3e743dc3	0.23851685
72	0x3f247f95	0.64257175
73	0xbe8a6275	-0.27028242
74	0x3d3e0538	0.046391696
75	0x3ee58fde	0.44836324
76	0x3f0abed6	0.5419744
77	0xbe1b8214	-0.1518634
78	0x3e23046d	0.15919657
79	0xbe1de442	-0.15419105
80	0xbe016c7c	-0.1263904
81	0x3f6ddda8	0.92916346
82	0x3e8518f0	0.25995588
83	0xbec511e2	-0.38490206
84	0x3ebe3112	0.37146813
85	0x3e9e8f35	0.30968633
86	0xbe155cc0	-0.14586163
87	0x3ed0ec40	0.40805244
88	0xbdaa9f70	-0.083311915
89	0xbe189d14	-0.1490367
90	0x3dd9a8c4	0.106278926
91	0x3eb47158	0.35242724
92	0x3e586dbb	0.21135609
93	0xbbf42910	-0.007451184
94	0x3e760d5e	0.24028537
95	0xbde0aef7	-0.10970872
96	0xbe0416f9	-0.12899388
97	0x3e4d03c0	0.20020962
98	0xbf32d6b3	-0.69858855
99	0xbe3ae0e0	-0.18249846
100	0x3c01002d	0.007873577
101	0xbf39dbec	-0.726012
102	0xbe95b802	-0.2924195
103	0xbd24cd50	-0.040234864
104	0xbebf140c	-0.37319982
105	0x3e0010be	0.12506387
106	0x3e96f436	0.29483193
107	0x3e4916fe	0.19637677
108	0x3c9c77de	0.019100126
109	0xbf13711e	-0.5759448
110	0x3e368906	0.17825708
111	0xbe9725b1	-0.29520944
112	0x3dee7c43	0.11644795
113	0x3e3a2cde	0.18181178
114	0xbc7544c7	-0.014970011
115	0xbe93a0e4	-0.28833687
116	0x3df0441a	0.11731739
117	0x3e8a2caf	0.26987216
118	0x3de82e90	0.11337006
119	0x3e27dfab	0.16393916
120	0xbf429b92	-0.7601863
121	0xbe366793	-0.17812948
122	0xbeb055ea	-0.34440547
123	0xbf053e57	-0.5204825
124	0xbd8e9b8b	-0.06963261
125	0xbde92e94	-0.11385837
126	0x3e117d82	0.14208034
127	0x3f043f96	0.51659524
128	0x3ec79c4f	0.38986441
129	0x3e8d2f0d	0.2757496
130	0xbf2c62f0	-0.67338467
131	0x3e8b32e0	0.27187252
132	0xbee07392	-0.43838173
133	0x370db710	8.4468775e-06
134	0x3ec8efb0	0.39245367
135	0x3e1759b5	0.14780314
136	0x3df2cd73	0.118555926
137	0xbf069190	-0.5256586
138	0xbee92c84	-0.45541775
139	0xbe86a5cc	-0.26298368
140	0xbf103b6f	-0.5634069
141	0x3f13eab5	0.5778001
142	0x3eeb6750	0.4597726
143	0xbd97b402	-0.07407381
144	0xbe850fb4	-0.25988543
145	0xbd8a676d	-0.06758008
146	0xbf022d8e	-0.5085076
147	0xbf13cecc	-0.5773742
148	0xbc394920	-0.011308938
149	0x3dd1f27f	0.102513306
150	0x3eecdf44	0.46264088
151	0xbd33a8f0	-0.043862283
152	0x3a86f178	0.0010295352
153	0xbd17f9a2	-0.037103303
154	0x3f5ce732	0.86290276
155	0x3e365f70	0.17809844
156	0x3e8d9f68	0.2766068
157	0x3e6cb16b	0.23114555
158	0xbec457fa	-0.3834837
159	0x3f098667	0.53720707
160	0x3d289506	0.041157745
161	0x3e63d952	0.2225087
162	0x3f14da29	0.58145386
163	0xbe97371e	-0.2953424
164	0x3e5e3596	0.21700129
165	0x3e83c562	0.2573653
166	0x3d8b4f86	0.06802277
167	0x3d7c152e	0.061543636
168	0xbe7f3314	-0.24921829
169	0xbe81d9a9	-0.25361374
170	0x3c1f64c8	0.009728618
171	0x3e92faaf	0.2870688
172	0x3e989539	0.29801348
173	0xbe38d1dc	-0.18048805
174	0x3e9d4dfa	0.30723554
175	0xbefd07eb	-0.49420103
176	0xbb7e679f	-0.0038819087
177	0x3c9e5264	0.019326396
178	0xbe3de77f	-0.1854534
179	0x3e2dc232	0.16968611
180	0x3cb732a6	0.022363018
181	0x3e16175c	0.14657348
182	0xbeb1a2a6	-0.34694403
183	0x3e2b913c	0.16754621
184	0x3efe71db	0.4969624
185	0xbf28fd99	-0.6601196
186	0x3eb9c877	0.36285755
187	0x3f2b54bf	0.6692619
188	0x3e75ed9e	0.24016425
189	0xbe14448e	-0.14479277
190	0xbd17cd76	-0.037061177
191	0x3e0a2bbd	0.13493247
192	0x3ef129dc	0.4710225
193	0x3e388628	0.18019927
194	0xbebc759e	-0.36808485
195	0xbe6aa282	-0.22913554
196	0x3e62c97a	0.2214717
197	0xbec97d66	-0.39353484
198	0x3df93008	0.12167364
199	0x3eab836e	0.3349871
200	0x3d394516	0.0452319
201	0x3e743be4	0.23850971
202	0xbea0edb8	-0.31431365
203	0x3bd487ec	0.0064859297
204	0xbe8dc60f	-0.2769017
205	0xbdce129a	-0.10062142
206	0xbe4b38a6	-0.19845828
207	0x3d760814	0.060066298
208	0x3deedd66	0.11663322
209	0x3e5b595e	0.2142081
210	0x3e069838	0.13144004
211	0x3f7fb374	0.998832
212	0xbe87f412	-0.26553398
213	0x3e45eddb	0.19329016
214	0x3e874ec5	0.26427284
215	0x3dad90b4	0.084748656
216	0x3dbfa916	0.093584225
217	0x3c0fbbd6	0.008772811
218	0x3d624ac6	0.05524709
219	0x3ea71ca2	0.32639033
220	0xbddb3b4b	-0.107046686
221	0x3f132ac4	0.5748713
222	0xbe511703	-0.20418935
223	0x3d18ac82	0.03727389
224	0x3ee25497	0.44205162
225	0x3da0c755	0.078505196
226	0xbeaa2442	-0.33230788
227	0xbef71a77	-0.4826238
228	0x3d9ee7b1	0.077590354
229	0x3df0eb72	0.11763658
230	0x3e324848	0.17410386
231	0xbe0c8d1a	-0.13725701
232	0xbf05c50f	-0.5225381
233	0x3e617877	0.2201861
234	0x3dec1222	0.11526896
235	0x3ec9ca12	0.3941198
236	0x3ed5e8b0	0.4177909
237	0xbebd7838	-0.37005782
238	0x3e87ce84	0.26524746
239	0xbc2275f4	-0.0099158175
240	0x3d286142	0.041108377
241	0x3e9837a8	0.29729962
242	0xbdd71ae6	-0.10503177
243	0x3ddce8ae	0.10786568
244	0x3ee6ca1f	0.4507608
245	0xbe8a458b	-0.27006182
246	0xbd05c5a4	-0.032659188
247	0xbf444142	-0.76662076
248	0x3e90d384	0.28286374
249	0xbdc0145f	-0.093788855
250	0x3f1127ad	0.56701165
251	0x3de621d3	0.1123692
252	0x3dfb31c2	0.1226535
253	0xbd576db6	-0.052594863
254	0x3e2a9f0a	0.16662231
255	0x3e237384	0.15962034

network_body.linear_encoder.seq_layers.0.bias f4 [128]
0	0x00000000	0.0
1	0x00000000	0.0
2	0x00000000	0.0
3	0x00000000	0.0
4	0x00000000	0.0
5	0x00000000	0.0
6	0x00000000	0.0
7	0x00000000	0.0
8	0x00000000	0.0
9	0x00000000	0.0
10	0x00000000	0.0
11	0x00000000	0.0
12	0x00000000	0.0
13	0x00000000	0.0
14	0x00000000	0.0
15	0x00000000	0.0
16	0x00000000	0.0
17	0x00000000	0.0
18	0x00000000	0.0
19	0x00000000	0.0
20	0x00000000	0.0
21	0x00000000	0.0
22	0x00000000	0.0
23	0x00000000	0.0
24	0x00000000	0.0
25	0x00000000	0.0
26	0x00000000	0.0
27	0x00000000	0.0
28	0x00000000	0.0
29	0x00000000	0.0
30	0x00000000	0.0
31	0x00000000	0.0
32	0x00000000	0.0
33	0x00000000	0.0
34	0x00000000	0.0
35	0x00000000	0.0
36	0x00000000	0.0
37	0x00000000	0.0
38	0x00000000	0.0
39	0x00000000	0.0
40	0x00000000	0.0
41	0x00000000	0.0
42	0x00000000	0.0
43	0x00000000	0.0
44	0x00000000	0.0
45	0x00000000	0.0
46	0x00000000	0.0
47	0x00000000	0.0
48	0x00000000	0.0
49	0x00000000	0.0
50	0x00000000	0.0
51	0x00000000	0.0
52	0x00000000	0.0
53	0x00000000	0.0
54	0x00000000	0.0
55	0x00000000	0.0
56	0x00000000	0.0
57	0x00000000	0.0
58	0x00000000	0.0
59	0x00000000	0.0
60	0x00000000	0.0
61	0x00000000	0.0
62	0x00000000	0.0
63	0x00000000	0.0
64	0x00000000	0.0
65	0x00000000	0.0
66	0x00000000	0.0
67	0x00000000	0.0
68	0x00000000	0.0
69	0x00000000	0.0
70	0x00000000	0.0
71	0x00000000	0.0
72	0x00000000	0.0
73	0x00000000	0.0
74	0x00000000	0.0
75	0x00000000	0.0
76	0x00000000	0.0
77	0x00000000	0.0
78	0x00000000	0.0
79	0x00000000	0.0
80	0x00000000	0.0
81	0x00000000	0.0
82	0x00000000	0.0
83	0x00000000	0.0
84	0x00000000	0.0
85	0x00000000	0.0
86	0x00000000	0.0
87	0x00000000	0.0
88	0x00000000	0.0
89	0x00000000	0.0
90	0x00000000	0.0
91	0x00000000	0.0
92	0x00000000	0.0
93	0x00000000	0.0
94	0x00000000	0.0
95	0x00000000	0.0
96	0x00000000	0.0
97	0x00000000	0.0
98	0x00000000	0.0
99	0x00000000	0.0
100	0x00000000	0.0
101	0x00000000	0.0
102	0x00000000	0.0
103	0x00000000	0.0
104	0x00000000	0.0
105	0x00000000	0.0
106	0x00000000	0.0
107	0x00000000	0.0
108	0x00000000	0.0
109	0x00000000	0.0
110	0x00000000	0.0
111	0x00000000	0.0
112	0x00000000	0.0
113	0x00000000	0.0
114	0x00000000	0.0
115	0x00000000	0.0
116	0x00000000	0.0
117	0x00000000	0.0
118	0x00000000	0.0
119	0x00000000	0.0
120	0x00000000	0.0
121	0x00000000	0.0
122	0x00000000	0.0
123	0x00000000	0.0
124	0x00000000	0.0
125	0x00000000	0.0
126	0x00000000	0.0
127	0x00000000	0.0

network_body.linear_encoder.seq_layers.2.weight f4 [128, 128]
0	0x3bcab62c	0.0061862674
1	0x3d3ab286	0.04558041
2	0x3d0dd66a	0.03462831
3	0x3e142df8	0.1447066
4	0xbdb4576f	-0.08805739
5	0xbd543a99	-0.051813696
6	0x3d0c30d5	0.034226257
7	0x3cffb68d	0.031214977
8	0x3d000a7f	0.03126001
9	0xbd55b678	-0.05217597
10	0xbd41b27d	-0.04728936
11	0x3d76e2ce	0.06027489
12	0x3de65d06	0.112482116
13	0xbc4544f0	-0.012040362
14	0x3e8e3d03	0.27780923
15	0x3a99e4a9	0.001174112
16	0xbd81ba0e	-0.06334315
17	0x3d35e964	0.04441203
18	0x3c5d55b5	0.013509204
19	0x3d20bb2a	0.039240994
20	0x3c9ecc91	0.019384654
21	0xbd6330d2	-0.05546648
22	0x3b75f6a4	0.0037531042
23	0xbd07f79b	-0.03319512
24	0x3d817ce4	0.06322649
25	0xbd435400	-0.04768753
26	0xbc384548	-0.011246987
27	0xbba6f561	-0.0050951694
28	0xbe135171	-0.14386536
29	0x3df3eb5f	0.11910128
30	0x3ddd28f3	0.10798826
31	0xbd50df4e	-0.05099421
32	0x3debde0c	0.115169615
33	0xbd92386c	-0.07139668
34	0x3d2f8b4e	0.04285746
35	0x3d439bad	0.047755886
36	0xbd9f3678	-0.07774061
37	0xbccc94cd	-0.024973297
38	0x3c97dd59	0.018538164
39	0x3e5c76d5	0.21529706
40	0xbd23f48b	-0.040028136
41	0xbe584517	-0.21120106
42	0xbcc27a57	-0.023739977
43	0x3dc6ff7b	0.09716698
44	0x3dbac895	0.09120289
45	0x3e1209ee	0.142616
46	0xbded4d99	-0.11587066
47	0x3d8ff901	0.070299156
48	0xbddc73f0	-0.10764301
49	0xbd3ee2ab	-0.046602886
50	0xbd7c4f79	-0.06159923
51	0xbced841c	-0.028993659
52	0x3d5f6b8a	0.054545917
53	0xbd937fb3	-0.07202091
54	0x3d1245eb	0.03571121
55	0xbe2fd062	-0.17169335
56	0xbdb60b8a	-0.0888892
57	0xbc87d258	-0.016579792
58	0xbda5bd6e	-0.080927715
59	0x3d4d1c6f	0.050075945
60	0xbda8b4b5	-0.08237592
61	0xbd278b19	-0.04090414
62	0xbd7418a5	-0.059593815
63	0xbd199064	-0.037491217
64	0x3d9205a3	0.07129981
65	0xbccf33eb	-0.025293311
66	0xbc50267d	-0.012704489
67	0xbdd249c3	-0.10267975
68	0x3d231f03	0.039824497
69	0x3b8dfb48	0.0043329336
70	0x3cc68c4a	0.024236817
71	0x3cd242f2	0.025666688
72	0x3e0fbbd5	0.14036496
73	0xbdccd241	-0.1000104
74	0xbe03415d	-0.12817903
75	0xbce54ace	-0.027989771
76	0xbdab5e62	-0.083676115
77	0xbd76e072	-0.06027264
78	0xbd435048	-0.047683984
79	0xbda113c7	-0.078651
80	0x3cd0f4dc	0.025507383
81	0xbc40b3c9	-0.011761614
82	0x3da822e8	0.08209783
83	0x3e0653d0	0.1311791
84	0xbda273c5	-0.079322375
85	0x3d6ba820	0.057533383
86	0x3e125f3f	0.14294146
87	0x3cc040a4	0.023468323
88	0xbb593b0f	-0.0033146774
89	0x3db8d330	0.09024656
90	0xbdc92d40	-0.09823084
91	0x3d05824b	0.03259496
92	0xbc9119f8	-0.017712578
93	0xbe20414b	-0.15649907
94	0x3d664092	0.056213923
95	0xbd52e2fd	-0.051486004
96	0xbd2bcdaa	-0.041944183
97	0x3bb0a21b	0.005390418
98	0xbe324b75	-0.17411597
99	0x3d735f44	0.059417024
100	0xbcfbf8ce	-0.030758288
101	0x3c0510ea	0.008121708
102	0x3e7e95e5	0.24861868
103	0xbdc473d8	-0.09592408
104	0x3dbdbbec	0.09264359
105	0xbcef86f2	-0.029239152
106	0xbcb1f05e	-0.021721061
107	0x3d84a752	0.06477226
108	0x3dd038c8	0.1016708
109	0x3bfede35	0.007777954
110	0xbd234d2f	-0.03986853
111	0x3e313c21	0.17308094
112	0xbdb6ded4	-0.0892922
113	0x3799adcd	1.8319954e-05
114	0xbd7f20fc	-0.062287316
115	0x3d2653c1	0.040607218
116	0x3dadcc69	0.08486254
117	0x3cfa84d4	0.030580916
118	0xbc371d4d	-0.011176419
119	0x3d87a4e9	0.06623251
120	0xbbed2394	-0.0072369073
121	0xbce1ef98	-0.027580068
122	0x3ddc5c1b	0.10759755
123	0xbdba5d8f	-0.09099876
124	0x3d1bc73c	0.0380318
125	0x3dfe50a4	0.12417725
126	0xbd78fcc4	-0.06078793
127	0xb9e605d6	-0.00043873367
128	0x3caccaa5	0.021092722
129	0x3ceb26d0	0.02870503
130	0x3cf87bb5	0.030332426
131	0x3e0bd3de	0.1365504
132	0x3dfcd1ae	0.12344681
133	0x3a5da84d	0.000845556
134	0x3da0d5e9	0.078533
135	0xbd5a74d9	-0.05333409
136	0xbaaffb85	-0.0013426399
137	0x3db5286c	0.088456005
138	0x3dbd4a97	0.092427425
139	0x3ca4f8d2	0.020138178
140	0x3de446e2	0.11146332
141	0x3d9e81b1	0.077395804
142	0xbcccfeae	-0.025023784
143	0xbd3fe877	-0.046852555
144	0x3ddd03c9	0.107917376
145	0xbdaade6f	-0.08343207
146	0xbd335c10	-0.04378897
147	0x3e1666f6	0.14687714
148	0x3c15d94f	0.009146049
149	0xbe38055d	-0.17970796
150	0x3de34a08	0.11098105
151	0xbe07149b	-0.13191454
152	0xbaec62b5	-0.0018034788
153	0x3cf1ae73	0.02950213
154	0xbe67f97d	-0.22653766
155	0x3dc0272a	0.0938247
156	0xbc3e7f03	-0.011626962
157	0xbd8b3663	-0.06797483
158	0xbd0bcf1d	-0.034133065
159	0xbd4a4494	-0.049381807
160	0x3dcc98c6	0.09990077
161	0xbd1a4193	-0.037660193
162	0xbdbeac77	-0.09310239
163	0xbda075a8	-0.07834941
164	0xbd1ef688	-0.03880933
165	0xbe2a9c10	-0.16661096
166	0xbdb8934e	-0.09012471
167	0x3d12c062	0.035828
168	0x3d5535fa	0.05205343
169	0x3e39a337	0.18128668
170	0x3c272123	0.0102007715
171	0x3dbd3fe2	0.092407
172	0xbd35fe12	-0.044431753
173	0x3cf2a7c3	0.02962101
174	0xbe44aa80	-0.19205666
175	0x3d8e4fee	0.06948839
176	0x3d840a98	0.06447333
177	0x3c21b381	0.009869457
178	0x3e1dcde3	0.15410571
179	0x3e33d347	0.17561065
180	0x3c761d8d	0.015021694
181	0xbc9a55fd	-0.01883983
182	0xbe142d32	-0.14470366
183	0xbcb37cbd	-0.021910066
184	0x3d7227e7	0.059120085
185	0x3d714ed3	0.058913063
186	0xbdf326d2	-0.11872639
187	0xbe1a7768	-0.15084612
188	0xbdbe3fe1	-0.09289528
189	0xbe354f43	-0.17706017
190	0xbdc4c62d	-0.096081115
191	0xbd904b1c	-0.07045576
192	0x3d2ea558	0.042638153
193	0x3b2f3d8a	0.002673956
194	0x3de574b8	0.11203903
195	0x3d89c7ca	0.0672756
196	0x3b95bd55	0.0045696893
197	0x3d46922a	0.048479237
198	0xbceab4e7	-0.028650714
199	0xbd6e0d13	-0.058117937
200	0xbc4b7219	-0.01241734
201	0xbc4f29b3	-0.012644219
202	0xbd3c0ad6	-0.04590877
203	0xb99a1b3d	-0.00029393463
204	0x3d5566f3	0.052100133
205	0x3dc9f9fa	0.09862132
206	0xbd984c29	-0.074364014
207	0xbd2d1b53	-0.042262387
208	0x3d8e63d4	0.069526345
209	0xbc9cd49d	-0.01914435
210	0xbd6b890e	-0.057503752
211	0xbc16dd65	-0.009208058
212	0x3d019e03	0.031644832
213	0xbd37a92e	-0.044839077
214	0xbd71a8c4	-0.058998838
215	0xbd0b9b56	-0.034083687
216	0xbd75bf61	-0.059996966
217	0xbbdbcf72	-0.006708079
218	0x3d7deaf6	0.061991654
219	0x3d40ad4f	0.04704028
220	0x3e09310f	0.1339762
221	0xbc70b9d6	-0.014692744
222	0xbe0a2922	-0.13492253
223	0xbcdeb176	-0.02718423
224	0x3ca8e0c2	0.020614985
225	0xbe1f65f6	-0.15566239
226	0x3e2af20c	0.16693896
227	0xbe287fa4	-0.16454941
228	0xbd1ec4bb	-0.038761836
229	0xbd11d1f4	-0.035600618
230	0xbd8d2952	-0.06892647
231	0x3d29caed	0.04145329
232	0xbcfa4be3	-0.030553764
233	0x3c143601	0.009046079
234	0xbcedaab3	-0.02901206
235	0xbd1cd237	-0.038286414
236	0xbda0bf18	-0.07848948
237	0xbd8157be	-0.063155636
238	0x3dee60a2	0.11639525
239	0xbdc907d7	-0.098159485
240	0x3de98be6	0.11403637
241	0xbd30e5a0	-0.043187737
242	0x3de3c649	0.11121804
243	0x3e27fe78	0.16405666
244	0x3e65984d	0.2242138
245	0xbde2cba3	-0.11073997
246	0xbd9fb547	-0.07798248
247	0x3d923db3	0.071406744
248	0xbda9ad3d	-0.08284996
249	0x3cda9823	0.026683873
250	0xbda09570	-0.07841003
251	0x3d190752	0.037360497
252	0x3d481744	0.048850313
253	0xbb990ef0	-0.00467097
254	0xbd6477ef	-0.05577844
255	0xbd90b82f	-0.0706638

network_body.linear_encoder.seq_layers.2.bias f4 [128]
0	0x00000000	0.0
1	0x00000000	0.0
2	0x00000000	0.0
3	0x00000000	0.0
4	0x00000000	0.0
5	0x00000000	0.0
6	0x00000000	0.0
7	0x00000000	0.0
8	0x00000000	0.0
9	0x00000000	0.0
10	0x00000000	0.0
11	0x00000000	0.0
12	0x00000000	0.0
13	0x00000000	0.0
14	0x00000000	0.0
15	0x00000000	0.0
16	0x00000000	0.0
17	0x00000000	0.0
18	0x00000000	0.0
19	0x00000000	0.0
20	0x00000000	0.0
21	0x00000000	0.0
22	0x00000000	0.0
23	0x00000000	0.0
24	0x00000000	0.0
25	0x00000000	0.0
26	0x00000000	0.0
27	0x00000000	0.0
28	0x00000000	0.0
29	0x00000000	0.0
30	0x00000000	0.0
31	0x00000000	0.0
32	0x00000000	0.0
33	0x00000000	0.0
34	0x00000000	0.0
35	0x00000000	0.0
36	0x00000000	0.0
37	0x00000000	0.0
38	0x00000000	0.0
39	0x00000000	0.0
40	0x00000000	0.0
41	0x00000000	0.0
42	0x00000000	0.0
43	0x00000000	0.0
44	0x00000000	0.0
45	0x00000000	0.0
46	0x00000000	0.0
47	0x00000000	0.0
48	0x00000000	0.0
49	0x00000000	0.0
50	0x00000000	0.0
51	0x00000000	0.0
52	0x00000000	0.0
53	0x00000000	0.0
54	0x00000000	0.0
55	0x00000000	0.0
56	0x00000000	0.0
57	0x00000000	0.0
58	0x00000000	0.0
59	0x00000000	0.0
60	0x00000000	0.0
61	0x00000000	0.0
62	0x00000000	0.0
63	0x00000000	0.0
64	0x00000000	0.0
65	0x00000000	0.0
66	0x00000000	0.0
67	0x00000000	0.0
68	0x00000000	0.0
69	0x00000000	0.0
70	0x00000000	0.0
71	0x00000000	0.0
72	0x00000000	0.0
73	0x00000000	0.0
74	0x00000000	0.0
75	0x00000000	0.0
76	0x00000000	0.0
77	0x00000000	0.0
78	0x00000000	0.0
79	0x00000000	0.0
80	0x00000000	0.0
81	0x00000000	0.0
82	0x00000000	0.0
83	0x00000000	0.0
84	0x00000000	0.0
85	0x00000000	0.0
86	0x00000000	0.0
87	0x00000000	0.0
88	0x00000000	0.0
89	0x00000000	0.0
90	0x00000000	0.0
91	0x00000000	0.0
92	0x00000000	0.0
93	0x00000000	0.0
94	0x00000000	0.0
95	0x00000000	0.0
96	0x00000000	0.0
97	0x00000000	0.0
98	0x00000000	0.0
99	0x00000000	0.0
100	0x00000000	0.0
101	0x00000000	0.0
102	0x00000000	0.0
103	0x00000000	0.0
104	0x00000000	0.0
105	0x00000000	0.0
106	0x00000000	0.0
107	0x00000000	0.0
108	0x00000000	0.0
109	0x00000000	0.0
110	0x00000000	0.0
111	0x00000000	0.0
112	0x00000000	0.0
113	0x00000000	0.0
114	0x00000000	0.0
115	0x00000000	0.0
116	0x00000000	0.0
117	0x00000000	0.0
118	0x00000000	0.0
119	0x00000000	0.0
120	0x00000000	0.0
121	0x00000000	0.0
122	0x00000000	0.0
123	0x00000000	0.0
124	0x00000000	0.0
125	0x00000000	0.0
126	0x00000000	0.0
127	0x00000000	0.0

action_model._continuous_distribution.log_sigma f4 [1, 5]
0	0x00000000	0.0
1	0x00000000	0.0
2	0x00000000	0.0
3	0x00000000	0.0
4	0x00000000	0.0

action_model._continuous_distribution.mu.weight f4 [5, 128]
0	0x3bf8d00f	0.007593162
1	0x3caa2095	0.02076749
2	0xbca9f413	-0.020746266
3	0x3b517738	0.003196193
4	0xbc879f19	-0.016555356
5	0x3c8b2dfa	0.016989697
6	0xbbb7811b	-0.0056001074
7	0xbc4c554a	-0.012471506
8	0x3bfcf26a	0.0077193277
9	0xb94a09db	-0.00019267893
10	0xbc6b1590	-0.014348403
11	0x3cb6c92d	0.022312725
12	0x3ce1c715	0.02756075
13	0xbb9fde9b	-0.0048788316
14	0x3bbb2deb	0.005712261
15	0x3cf547e2	0.029941503
16	0xbc206cd1	-0.009791569
17	0x3cc338b4	0.02383075
18	0x3b85fc25	0.004088896
19	0x3d2ca278	0.04214713
20	0x3b665c2a	0.003515015
21	0xbcdd70a2	-0.027031247
22	0xbd067fb7	-0.032836642
23	0x3ce518ff	0.02796602
24	0x3beec49d	0.0072866217
25	0xbcb3082c	-0.021854483
26	0x3c7abfea	0.015304545
27	0x3ccb5fe7	0.024826003
28	0xbc992e9c	-0.018698983
29	0xbb88075e	-0.004151269
30	0x3c28e83e	0.010309277
31	0xbc84b9cd	-0.016201878
32	0xba9f4f7d	-0.0012154427
33	0xbc63b17a	-0.013897294
34	0x3cdc20c2	0.026871089
35	0x3c8b20de	0.016983446
36	0xbbf210bb	-0.0073872483
37	0x3b22fc9e	0.002486981
38	0x3d10c83b	0.035347205
39	0x3b9ca0f1	0.004779928
40	0xba87985a	-0.0010345087
41	0xbcd08cd5	-0.025457779
42	0xbc756320	-0.0149772465
43	0xbc149f2b	-0.009071152
44	0xbc8b2033	-0.016983127
45	0x3b1f398f	0.0024295782
46	0x3d68496b	0.05671064
47	0xbc7ad6a5	-0.015309964
48	0xbaf758e8	-0.0018871101
49	0xbbb6473c	-0.005562691
50	0xbd20e3f3	-0.03927989
51	0x3bd1b382	0.006399573
52	0x3c54ff5f	0.013000338
53	0xbb86bf67	-0.0041121724
54	0xbb262745	-0.0025352996
55	0xbcdc0ea7	-0.026862456
56	0xbca140f3	-0.01968429
57	0xbba3334b	-0.00498048
58	0xbc358ff3	-0.011081683
59	0xbc2930c4	-0.010326568
60	0xbc895d48	-0.016768113
61	0x3b897a84	0.004195513
62	0xbbc049f7	-0.0058681923
63	0xbc9fa473	-0.019487595
64	0xbc792237	-0.015205911
65	0x3b3699cd	0.0027862669
66	0x3c2a094e	0.010378195
67	0xba65ccc3	-0.00087661686
68	0x3c0a46da	0.008439744
69	0xbcb3dd87	-0.021956218
70	0x3c9705c9	0.018435376
71	0x3c9d6d56	0.019217175
72	0xbbf57213	-0.0074904053
73	0xbcee9918	-0.029125735
74	0xba5d5122	-0.00084425707
75	0x3af82a92	0.0018933585
76	0x3d02b998	0.031915277
77	0x3c7de46b	0.015496354
78	0xbbd18cff	-0.006394982
79	0xbbdb2457	-0.0066876817
80	0xbbb1666c	-0.005413821
81	0x3d28b7db	0.041190963
82	0xbc232216	-0.009956857
83	0x3bee8373	0.0072788536
84	0x3c823891	0.015896114
85	0x3c83573c	0.016032808
86	0x3c23c11d	0.009994772
87	0xbca4f12f	-0.020134537
88	0x3ce64283	0.028107887
89	0x3c2c0d5a	0.01050123
90	0xbca33318	-0.019921824
91	0xbbdb4218	-0.0066912286
92	0xbc6c5338	-0.014424138
93	0x3c8ac2f6	0.016938668
94	0xbbd429d5	-0.0064747133
95	0x3c86891e	0.016422804
96	0x3c56fddb	0.013122047
97	0xbc39cba7	-0.011340058
98	0xbcdd2e77	-0.026999695
99	0xbd0a7417	-0.03380212
100	0x3c142073	0.00904094
101	0x3c0a4634	0.008439589
102	0x3cac8fd4	0.021064676
103	0x3b8c82ef	0.0042880694
104	0xbca3c5a6	-0.019991707
105	0xbc9dcf4f	-0.019263892
106	0xbbac5401	-0.0052590375
107	0xbcb5d3c3	-0.022195702
108	0x3c93d36f	0.018045155
109	0x3cb6be4d	0.02230754
110	0xbb6bd777	-0.0035986581
111	0xbc1fe242	-0.009758534
112	0x3c38c7fd	0.01127815
113	0x3bb4b975	0.0055152723
114	0xbc96000c	-0.01831057
115	0x3b1aa101	0.00235945
116	0xbcf8fed0	-0.030394942
117	0xbc5ea95d	-0.013590184
118	0x3be85758	0.0070904903
119	0xbc76d87f	-0.015066265
120	0x3bab607f	0.005230009
121	0x3bac85a1	0.0052649532
122	0xbc230b0b	-0.009951363
123	0x3cb72237	0.022355182
124	0x3b28fcd4	0.0025785463
125	0xbbf58867	-0.007493067
126	0xbc5c016b	-0.013428072
127	0x3b692eb3	0.0035580813
128	0xbc2f78bd	-0.010709939
129	0xbc4c69fa	-0.012476439
130	0x385d263a	5.2726107e-05
131	0xbb67d0d2	-0.003537227
132	0x3b7f9f23	0.0039004765
133	0x3c7b6aeb	0.015345315
134	0x3b8c3fbb	0.004280058
135	0x3c913f22	0.0177303
136	0x3c544030	0.012954757
137	0x3bcb257b	0.0061995364
138	0xbc0d1214	-0.008610267
139	0xb99d8cde	-0.00030050328
140	0x3c1816d9	0.009282791
141	0x3c03bc2d	0.00804047
142	0xbd318dd9	-0.043348167
143	0xbc1ad938	-0.009451203
144	0xbc93e303	-0.018052584
145	0x3c919991	0.017773421
146	0x3c3175b3	0.010831284
147	0x3c2cb70d	0.01054169
148	0xba418e64	-0.00073835836
149	0x3cac6d8c	0.02104833
150	0xbce41532	-0.027842138
151	0x3c085ee9	0.00832341
152	0xbaca4d4b	-0.0015434412
153	0xbaf32ef0	-0.0018553417
154	0xbcd9fdbb	-0.026610246
155	0xbb5bc708	-0.003353538
156	0x3ab1c622	0.0013563076
157	0xbc1d64a7	-0.009606517
158	0xbc188659	-0.009309375
159	0x3c0e8dd3	0.008700806
160	0xbb22c971	-0.0024839307
161	0xbb3ea11b	-0.0029087726
162	0x3c6c4b25	0.014422213
163	0x3a9f4606	0.0012151606
164	0xbbf570cd	-0.0074902535
165	0x3c72efbb	0.014827664
166	0x3b05f711	0.0020441453
167	0xbccf88ba	-0.025333751
168	0x3c8d9db7	0.017287118
169	0x3cfb3558	0.030665085
170	0x3b6db7db	0.0036272916
171	0x3cae39df	0.02126783
172	0x3ccbefd3	0.02489463
173	0x3ba2c35e	0.0049671372
174	0xbad8a3a8	-0.0016528266
175	0xbbf51d4f	-0.0074803005
176	0xbb96f3f5	-0.0046067187
177	0xbd157f8c	-0.03649859
178	0xbb4206e1	-0.002960615
179	0xbc13c1e7	-0.009018398
180	0x3bf77907	0.0075522694
181	0x3b7d4b1a	0.00386495
182	0xbc6240d0	-0.013809398
183	0xbc3b8d81	-0.011447311
184	0x3cbece28	0.023291662
185	0x3c0de040	0.008659422
186	0xbc9422e9	-0.018083053
187	0xbbbc21fd	-0.0057413564
188	0xbc539aaa	-0.012915293
189	0x3a33dfa2	0.0006861632
190	0x3ca7549b	0.020426085
191	0x3b920b40	0.0044569075
192	0xbadd9cd7	-0.0016907704
193	0xbcf4e9b3	-0.029896593
194	0x3bf7962a	0.0075557427
195	0xbbe97c12	-0.007125386
196	0xbc9f80d3	-0.019470608
197	0x3c4915ca	0.012273261
198	0xbc54f6f0	-0.012998328
199	0x3cb3d947	0.021954192
200	0xbc931ad0	-0.017957121
201	0xbbd0eaf3	-0.0063756644
202	0x3cb3026c	0.02185174
203	0xbc2a545a	-0.010396088
204	0x3c222f6c	0.009899002
205	0x3c9f68c8	0.019459143
206	0x3ba4177c	0.0050076824
207	0x3c0dc70c	0.0086534135
208	0x38d7ac1a	0.00010284055
209	0xbc00ec0b	-0.007868777
210	0xbc243a7b	-0.010023708
211	0xbb90e1b2	-0.004421436
212	0x3b5701f2	0.0032807556
213	0x3d19e9bf	0.037576433
214	0x3c8317e5	0.016002605
215	0xbc2f2b0b	-0.010691415
216	0x3ce04e3f	0.02738106
217	0x3c4e8ef7	0.012607328
218	0xbd3aef90	-0.04563862
219	0xbc62b6d8	-0.013837539
220	0x3a1e3424	0.0006034991
221	0x3c4fa8d3	0.012674528
222	0x3c91a877	0.017780526
223	0xbcb7170a	-0.022349853
224	0x3b770c17	0.0037696415
225	0xbc577427	-0.0131502515
226	0xbc796728	-0.015222348
227	0x3abf3b97	0.0014589903
228	0xbce3aa1a	-0.027791072
229	0x3c967ce2	0.018370096
230	0xbc467e87	-0.012115127
231	0x3c5f3d6d	0.013625485
232	0x3b3d6cb7	0.002890391
233	0x3ca517f9	0.020153033
234	0xbc2b75fb	-0.01046514
235	0xbb44f4af	-0.003005307
236	0xbd1cc618	-0.038274854
237	0x3c317e44	0.010833327
238	0x3c493250	0.012280062
239	0x3c462b78	0.012095325
240	0xbc03f225	-0.008053337
241	0x3c15f68c	0.00915302
242	0x3ccbc006	0.024871837
243	0x3cd86bb0	0.026418537
244	0x3b042c79	0.002016811
245	0x3c6e0148	0.014526673
246	0xbbf5e97d	-0.0075046406
247	0x3c35f2a0	0.01110521
248	0x3b4b616d	0.0031033412
249	0xbc2ea059	-0.010658347
250	0xbbc15380	-0.0058998466
251	0x3bba38ce	0.005683041
252	0x3c555c7d	0.013022539
253	0xbbc1828f	-0.0059054564
254	0xbc5a0c62	-0.013308616
255	0x3c515d53	0.012778598

action_model._continuous_distribution.mu.bias f4 [5]
0	0x00000000	0.0
1	0x00000000	0.0
2	0x00000000	0.0
3	0x00000000	0.0
4	0x00000000	0.0

critic.network_body.linear_encoder.seq_layers.0.weight f4 [128, 9]
0	0x3f270f1a	0.6525742
1	0xbda0e82c	-0.07856783
2	0x3e7344f8	0.23756778
3	0x3ea18319	0.31545332
4	0xbf326004	-0.6967776
5	0xbdc5f657	-0.09666126
6	0xbe43a73a	-0.1910676
7	0xbea16e14	-0.31529295
8	0xbec18d54	-0.37803137
9	0x3f0b35b8	0.54378843
10	0xbca0a2c8	-0.01960887
11	0xbe7fec3a	-0.24992457
12	0x3ebc0c4f	0.3672814
13	0xbf266a91	-0.6500636
14	0x3eff0b1c	0.49813163
15	0x3e8d3268	0.2757752
16	0x3db99b2c	0.090628
17	0x3e3c64cf	0.1839783
18	0x3e426878	0.18985164
19	0x3d33c7ae	0.0438916
20	0x3e9c52c2	0.3053189
21	0xbd63052a	-0.055424847
22	0x3dc5f952	0.09666695
23	0xbefffeee	-0.49999183
24	0x3c3dbd9e	0.011580853
25	0xbf651928	-0.8949151
26	0x3e4dfa2a	0.20114961
27	0xbaed0dec	-0.0018085814
28	0x3e2b9d5c	0.16759247
29	0xbf1571b6	-0.58376634
30	0xbd3dd994	-0.046350077
31	0xbddbc462	-0.107308164
32	0xbd772857	-0.060341205
33	0xbef4a510	-0.47782183
34	0xbf689284	-0.90848565
35	0x3e1ec040	0.15503025
36	0x3d5a2c32	0.053264804
37	0x3c9ce70f	0.019153146
38	0xbe0f09af	-0.13968538
39	0x3da62fee	0.081146106
40	0xbe5e5b13	-0.2171443
41	0xbe84e886	-0.2595865
42	0x3f1f9cce	0.6234864
43	0x3e01d9b6	0.12680706
44	0xbd0741d3	-0.03302176
45	0xbe66d3b8	-0.22541702
46	0x3e1b99a2	0.15195325
47	0x3c5167ef	0.012781127
48	0xbd75e76c	-0.060035154
49	0x3e8c991d	0.27460566
50	0x3eb9fa42	0.36323744
51	0xbe84db2e	-0.2594847
52	0x3eeeec27	0.46664545
53	0x3ed2276e	0.41045707
54	0xbf2394fc	-0.6389921
55	0xbe8c9894	-0.27460158
56	0xbe6eea28	-0.23331511
57	0x3f355f30	0.7084837
58	0x3dab6f4f	0.0837084
59	0xbe99031a	-0.2988518
60	0x3c77dd8a	0.015128503
61	0xbdb360a0	-0.08758664
62	0xbec462b8	-0.38356566
63	0xbdba7e64	-0.09106138
64	0x3dfd9100	0.12381172
65	0xbe029514	-0.12752181
66	0x3e2a8f84	0.1665631
67	0x3e54e4d4	0.20790416
68	0xbe32c39a	-0.17457429
69	0x3e8c1f02	0.27367407
70	0x3e59916b	0.21246879
71	0x3e795d47	0.24351989
72	0xbe76f10c	-0.2411539
73	0xbcb0f63c	-0.021601789
74	0x3d031ba0	0.032008767
75	0xbe776d2c	-0.2416274
76	0x3e53ee42	0.20696357
77	0x3e9948e0	0.29938412
78	0xbd2a86e4	-0.041632548
79	0x3e019324	0.12653786
80	0xbf813304	-1.0093694
81	0xbe9db4a0	-0.30801868
82	0xbee08e07	-0.43858358
83	0x3ee115bf	0.43961903
84	0x3e91e0c8	0.28491807
85	0xbdb4504c	-0.08804378
86	0x3eab55d0	0.33463907
87	0x3ea02b97	0.31283256
88	0x3e19f4ae	0.15034744
89	0x3cd73ea6	0.02627499
90	0xbe18c81a	-0.14920083
91	0xbe88d734	-0.26726687
92	0x3ebf8a6a	0.3741029
93	0xbed35d83	-0.4128228
94	0x3ed8b02e	0.42321914
95	0x3d31a9fa	0.043374993
96	0xbf0ae3cf	-0.5425386
97	0xbdeb153c	-0.114786595
98	0x3ecbf158	0.39832568
99	0xbe2cce4a	-0.16875568
100	0xbee7a26a	-0.452411
101	0xbf44d750	-0.7689104
102	0xbec35f66	-0.3815872
103	0x3ec7e7fe	0.39044183
104	0x3e42fc00	0.19041443
105	0xbe479563	-0.1949058
106	0xbcc8cf97	-0.024513049
107	0x3e936e0c	0.28794897
108	0xbede55f0	-0.4342494
109	0x3e774aea	0.24149671
110	0xbd0f8a74	-0.03504415
111	0x3cccd05e	0.025001701
112	0xbed579d2	-0.41694504
113	0xbe972baa	-0.295255
114	0x3d7d32c7	0.061816003
115	0x3f202bff	0.6256713
116	0xbb939d24	-0.0045048166
117	0xbe430210	-0.19043756
118	0x3e6e3187	0.2326108
119	0xbe954a36	-0.2915818
120	0x3d043fe4	0.032287493
121	0xbf1ba3e7	-0.6079697
122	0x3e3311de	0.17487285
123	0x3dae0c96	0.08498494
124	0xbe944590	-0.28959322
125	0xbb00032a	-0.0019533136
126	0x3f2e1e7c	0.68015265
127	0xbe209d3a	-0.15684977
128	0x3eeb8ce2	0.46005923
129	0xbede7a17	-0.43452522
130	0x3f131ea6	0.5746864
131	0x3e830272	0.25587803
132	0x3b992c43	0.004674466
133	0xbe06b194	-0.13153678
134	0xbef6c7b8	-0.48199248
135	0xbe8b8a2a	-0.27253848
136	0x3f0131d7	0.50466675
137	0x3e8dfea2	0.27733332
138	0x3e803370	0.25039244
139	0x3c1ac4c6	0.0094463285
140	0xbe654884	-0.22390944
141	0xbdc4be8f	-0.09606659
142	0xbf2b99ee	-0.67031753
143	0x3e6cf5b4	0.23140603
144	0xbe41a4aa	-0.1891047
145	0x3e92f296	0.28700703
146	0xbefb4d43	-0.49082384
147	0xbee56daf	-0.44810244
148	0x3dbcef4a	0.09225328
149	0x3eef836e	0.4677996
150	0xbdf30cf0	-0.11867702
151	0x3de8989f	0.11357235
152	0xbf0dbe89	-0.5536886
153	0xbdc76ec4	-0.09737924
154	0x3ecbd3e0	0.39810085
155	0x3cf2aff7	0.029624922
156	0x3f03e7ca	0.5152556
157	0x3ebe4d24	0.3716823
158	0xbe9ed588	-0.31022286
159	0xbe657b46	-0.22410306
160	0x3e90e3c8	0.28298783
161	0xbe0f20e6	-0.13977394
162	0x3da9980a	0.08280952
163	0xbee93283	-0.4554635
164	0xbf0ae6bd	-0.5425833
165	0xbf3ca122	-0.7368337
166	0x3e5541eb	0.20825927
167	0x3daf3be6	0.085563466
168	0x3f089431	0.5335112
169	0xbe25d6a0	-0.16195154
170	0x3ebf3e9b	0.37352452
171	0x3eb185db	0.34672436
172	0xbe860725	-0.26177326
173	0x3ed26886	0.4109537
174	0xbeac2573	-0.3362232
175	0xbee1180c	-0.4396366
176	0xbf7acd3c	-0.9796941
177	0xbe3470b4	-0.17621118
178	0x3eddc60b	0.43315157
179	0x3f201a98	0.6254058
180	0x3e2f82ab	0.1713969
181	0xbeebb37a	-0.46035367
182	0xbedc0046	-0.4296896
183	0x3f1b612e	0.6069516
184	0xbf2a3843	-0.664921
185	0x3e9ffdc0	0.31248283
186	0xbea3bdfc	-0.31980884
187	0x3ed2429e	0.4106645
188	0xbce0ac6c	-0.027425967
189	0x3e76432a	0.24049059
190	0xbef5e9f3	-0.48030052
191	0xbd10bb24	-0.03533472
192	0xbde3a303	-0.111150764
193	0xbcfb93c8	-0.030710116
194	0xbf04ad36	-0.518268
195	0xbdfecdc2	-0.12441589
196	0xbeb2b71e	-0.34905332
197	0xbefc536b	-0.49282393
198	0x3d26962f	0.04067057
199	0xbe343c4a	-0.17601123
200	0x3bce19d3	0.0062896996
201	0x3e41b394	0.1891616
202	0x3e032e29	0.12810577
203	0x3e592bb7	0.21208082
204	0xba6f05d6	-0.0009117996
205	0xbf190f01	-0.5978852
206	0xbe7f0416	-0.24903902
207	0x3e1bc656	0.15212378
208	0xbd211b3a	-0.039332606
209	0x3dbd54ff	0.09244727
210	0xbe37e447	-0.17958175
211	0x3eb3cc47	0.3511679
212	0xbee20e5f	-0.4415159
213	0xbcf13180	-0.029442549
214	0xbe6d07d2	-0.23147514
215	0x3d9bc1a8	0.076052964
216	0xbd905be1	-0.070487745
217	0x3eeefeff	0.46678922
218	0xbe85a6a5	-0.26103702
219	0xbe0ab5ab	-0.13545863
220	0xbdb43538	-0.08799213
221	0x3eeb0b36	0.4590699
222	0xbd82cd10	-0.06386769
223	0xbeaeea1a	-0.3416298
224	0xbeddb7c0	-0.43304253
225	0x3e780040	0.24218845
226	0x3daeec6c	0.08541188
227	0x3ee1352a	0.43985873
228	0x3df78020	0.12084985
229	0x3e17b2a2	0.14814237
230	0x3e072448	0.13197434
231	0x3ecab7cb	0.39593348
232	0x3dd2bce8	0.10289937
233	0x3e6cdcb2	0.23131064
234	0x3cb6e176	0.022324305
235	0xbe8dad6c	-0.27671373
236	0x3e3bb1fe	0.18329617
237	0x3ed00d38	0.40635085
238	0xbe2aca90	-0.16678834
239	0x3eee717e	0.46570963
240	0xbd33b04b	-0.043869298
241	0x3eb63a87	0.35591528
242	0xbe71b53b	-0.2360429
243	0x3e005a7c	0.12534517
244	0x3dc214c3	0.09476616
245	0xbe4e34b0	-0.20137286
246	0xbf19209c	-0.5981538
247	0xbece7e50	-0.40330744
248	0x3eb18beb	0.3467706
249	0xbe1c936a	-0.15290609
250	0x3e9f1b8d	0.31075707
251	0xbde92f2b	-0.1138595
252	0xbded41b3	-0.11584797
253	0xbeaeef92	-0.34167153
254	0x3dd64113	0.10461631
255	0x3e9ea68e	0.30986446

critic.network_body.linear_encoder.seq_layers.0.bias f4 [128]
0	0x00000000	0.0
1	0x00000000	0.0
2	0x00000000	0.0
3	0x00000000	0.0
4	0x00000000	0.0
5	0x00000000	0.0
6	0x00000000	0.0
7	0x00000000	0.0
8	0x00000000	0.0
9	0x00000000	0.0
10	0x00000000	0.0
11	0x00000000	0.0
12	0x00000000	0.0
13	0x00000000	0.0
14	0x00000000	0.0
15	0x00000000	0.0
16	0x00000000	0.0
17	0x00000000	0.0
18	0x00000000	0.0
19	0x00000000	0.0
20	0x00000000	0.0
21	0x00000000	0.0
22	0x00000000	0.0
23	0x00000000	0.0
24	0x00000000	0.0
25	0x00000000	0.0
26	0x00000000	0.0
27	0x00000000	0.0
28	0x00000000	0.0
29	0x00000000	0.0
30	0x00000000	0.0
31	0x00000000	0.0
32	0x00000000	0.0
33	0x00000000	0.0
34	0x00000000	0.0
35	0x00000000	0.0
36	0x00000000	0.0
37	0x00000000	0.0
38	0x00000000	0.0
39	0x00000000	0.0
40	0x00000000	0.0
41	0x00000000	0.0
42	0x00000000	0.0
43	0x00000000	0.0
44	0x00000000	0.0
45	0x00000000	0.0
46	0x00000000	0.0
47	0x00000000	0.0
48	0x00000000	0.0
49	0x00000000	0.0
50	0x00000000	0.0
51	0x00000000	0.0
52	0x00000000	0.0
53	0x00000000	0.0
54	0x00000000	0.0
55	0x00000000	0.0
56	0x00000000	0.0
57	0x00000000	0.0
58	0x00000000	0.0
59	0x00000000	0.0
60	0x00000000	0.0
61	0x00000000	0.0
62	0x00000000	0.0
63	0x00000000	0.0
64	0x00000000	0.0
65	0x00000000	0.0
66	0x00000000	0.0
67	0x00000000	0.0
68	0x00000000	0.0
69	0x00000000	0.0
70	0x00000000	0.0
71	0x00000000	0.0
72	0x00000000	0.0
73	0x00000000	0.0
74	0x00000000	0.0
75	0x00000000	0.0
76	0x00000000	0.0
77	0x00000000	0.0
78	0x00000000	0.0
79	0x00000000	0.0
80	0x00000000	0.0
81	0x00000000	0.0
82	0x00000000	0.0
83	0x00000000	0.0
84	0x00000000	0.0
85	0x00000000	0.0
86	0x00000000	0.0
87	0x00000000	0.0
88	0x00000000	0.0
89	0x00000000	0.0
90	0x00000000	0.0
91	0x00000000	0.0
92	0x00000000	0.0
93	0x00000000	0.0
94	0x00000000	0.0
95	0x00000000	0.0
96	0x00000000	0.0
97	0x00000000	0.0
98	0x00000000	0.0
99	0x00000000	0.0
100	0x00000000	0.0
101	0x00000000	0.0
102	0x00000000	0.0
103	0x00000000	0.0
104	0x00000000	0.0
105	0x00000000	0.0
106	0x00000000	0.0
107	0x00000000	0.0
108	0x00000000	0.0
109	0x00000000	0.0
110	0x00000000	0.0
111	0x00000000	0.0
112	0x00000000	0.0
113	0x00000000	0.0
114	0x00000000	0.0
115	0x00000000	0.0
116	0x00000000	0.0
117	0x00000000	0.0
118	0x00000000	0.0
119	0x00000000	0.0
120	0x00000000	0.0
121	0x00000000	0.0
122	0x00000000	0.0
123	0x00000000	0.0
124	0x00000000	0.0
125	0x00000000	0.0
126	0x00000000	0.0
127	0x00000000	0.0

critic.network_body.linear_encoder.seq_layers.2.weight f4 [128, 128]
0	0x3c72e05e	0.014824001
1	0xbd9e59fd	-0.07732008
2	0xbda8b75e	-0.082380995
3	0x3d6e508f	0.058182295
4	0x3d516613	0.051122736
5	0x3dece546	0.11567168
6	0xbdf54c1d	-0.11977408
7	0x3d2814b1	0.041035358
8	0xbe2dff6e	-0.1699197
9	0xbded6761	-0.115919836
10	0xbd7b511c	-0.06135665
11	0x3da38453	0.07984223
12	0x3cb3f4e4	0.021967359
13	0xbde36e34	-0.11105004
14	0x3c93a7f5	0.018024424
15	0xbe275423	-0.1634069
16	0xbdae7b47	-0.08519607
17	0xbd27fa82	-0.041010387
18	0x3c5b697c	0.013391849
19	0x3d9c7774	0.076399714
20	0x3e1cc120	0.15308046
21	0xbdac2835	-0.084061064
22	0x3c7e8652	0.015534954
23	0x3da11ebf	0.078671925
24	0x3c297ce0	0.010344714
25	0xbd5eab53	-0.054362606
26	0xbdb61e87	-0.088925414
27	0xbc964bc8	-0.018346682
28	0x3deddb42	0.11614086
29	0x3d03b063	0.032150637
30	0xbde631d9	-0.112399764
31	0x3e9837f4	0.2973019
32	0xbde7809e	-0.11303829
33	0x3d57aa77	0.052652802
34	0xbd8275c3	-0.063701175
35	0x3cff7e6a	0.031188209
36	0x3c9dc0dd	0.019257003
37	0xbde9b396	-0.114112064
38	0x3c98cf7f	0.01865363
39	0x3e1bd134	0.15216523
40	0xbcd05a3c	-0.025433652
41	0xbe3b97b4	-0.18319589
42	0x3db06ad0	0.08614123
43	0x3c800d1b	0.01563125
44	0x3dc4ff33	0.09618988
45	0xbb8b8ea8	-0.0042589493
46	0xbdd262ed	-0.10272775
47	0xbd8292e9	-0.06375677
48	0xbdebad09	-0.11507613
49	0x3ccbd220	0.024880469
50	0xbd656225	-0.0560018
51	0x3cf75b8e	0.030195024
52	0xbc0cefd1	-0.008602099
53	0xbc98d565	-0.018656442
54	0x3e176cc2	0.14787582
55	0x3dd76ef1	0.10519207
56	0xbcebf1c7	-0.028801812
57	0xbd5b7df9	-0.053586934
58	0x3e0fc4f4	0.14039975
59	0xbe046af2	-0.12931421
60	0x3dd8543d	0.10562942
61	0xbbbbe2df	-0.0057338323
62	0xbcd0382d	-0.025417412
63	0xbdb9ec51	-0.09078277
64	0xbd317448	-0.043323785
65	0x3d000f67	0.03126469
66	0xbcb726d2	-0.022357378
67	0xbd099bfb	-0.03359602
68	0x3dd656c0	0.10465765
69	0x3e758927	0.239781
70	0xbd359d9b	-0.044339757
71	0x3d04e623	0.032446038
72	0xbd0488bf	-0.032356974
73	0xbccb35bc	-0.024805896
74	0x3d4c36b9	0.049856875
75	0xbd841656	-0.06449573
76	0x3db4eb85	0.08833984
77	0x3c39c436	0.011338284
78	0xbdd55985	-0.10417465
79	0xbd3bcdc5	-0.045850534
80	0x3da1739c	0.07883379
81	0xbdfb3017	-0.12265032
82	0x3e0a68c1	0.13516523
83	0xbd4cc27d	-0.049990166
84	0x3c907763	0.017635053
85	0x3d45db7c	0.04830502
86	0x3cb0cc2b	0.02158173
87	0x3dcda31f	0.100408785
88	0xbd735372	-0.05940575
89	0x3b42cb6b	0.0029723297
90	0xb99ee88c	-0.0003030937
91	0xbe0931e3	-0.13397937
92	0x3cef71d9	0.029229091
93	0x3d206228	0.03915611
94	0xbe02815f	-0.12744664
95	0xbd47787c	-0.048698887
96	0x3d42f9b2	0.04760141
97	0x3dd19292	0.10233034
98	0xbbc34396	-0.0059589846
99	0x3de1c3b4	0.110236555
100	0x3e07cb1e	0.13261077
101	0xbcd40b57	-0.025884314
102	0x3d8fa39d	0.07013629
103	0xbdb0db95	-0.08635632
104	0xbd07b9cc	-0.033136174
105	0x3bd51d1e	0.006503715
106	0x3c93cc1d	0.018041665
107	0xbd0b701d	-0.034042466
108	0x3c99cbb1	0.018773885
109	0x3d04142d	0.032245804
110	0x3a314853	0.00067627913
111	0x3d9f4b6c	0.077780575
112	0xbd39f0fe	-0.045395844
113	0xbe82d365	-0.25551906
114	0xbdb1dcc9	-0.086846896
115	0x3d3e0699	0.04639301
116	0xbd3b18e0	-0.04567802
117	0x3d56e1ba	0.052461363
118	0x3dcee0e9	0.10101492
119	0xbc30210b	-0.010750066
120	0x3d694e34	0.056959346
121	0xbc4c6d9b	-0.012477304
122	0x3b8fefcc	0.0043925997
123	0x3dd38d6a	0.10329707
124	0x3db4331b	0.0879881
125	0xbd99d96c	-0.07512173
126	0xbe08e958	-0.13370264
127	0x3dc54639	0.096325345
128	0x3cab00b3	0.020874357
129	0x3de0753c	0.10959861
130	0xbe74bd27	-0.23900281
131	0x3e40e806	0.1883851
132	0xbbf48b4b	-0.007462894
133	0xbe4efaba	-0.20212832
134	0xbd3ef43f	-0.04661965
135	0x3db0adc2	0.08626892
136	0xbd193371	-0.037402574
137	0xbceb7ca9	-0.028745966
138	0xbde67636	-0.11253016
139	0x3c978b96	0.018499177
140	0xbe956ba6	-0.29183692
141	0xbd42ebc6	-0.047588132
142	0xbd2c8f35	-0.04212876
143	0x3e07cb4d	0.13261147
144	0x3c9cae8c	0.0191262
145	0x3e017ce4	0.12645298
146	0x3d98a0c1	0.074525364
147	0x3d8dcb9c	0.06923601
148	0x3d490629	0.04907814
149	0x3bfd14cd	0.007723427
150	0xbe31b79c	-0.17355198
151	0xbc9c8679	-0.01910709
152	0xbdda4c88	-0.106591284
153	0xbd8604c7	-0.0654388
154	0x3c7bafce	0.015361739
155	0xbd7246ba	-0.05914948
156	0xbd03cdc3	-0.03217865
157	0x3dd1d1b7	0.10245078
158	0x3e24ad43	0.16081719
159	0xbca3262c	-0.019915663
160	0x3e1c2ab8	0.15250671
161	0x3d19eab7	0.037577357
162	0x3d300391	0.04297215
163	0xbd060104	-0.032715812
164	0xbd1b6ba6	-0.03794446
165	0xbe0af9ae	-0.13571808
166	0xbd537d53	-0.05163319
167	0xbceb7e6e	-0.02874681
168	0xbe0847ad	-0.13308592
169	0x3ba2707b	0.0049572564
170	0xbd63dea7	-0.05563226
171	0xbda9ddb4	-0.0829424
172	0xbd48c2fa	-0.04901407
173	0x3ddf4ca1	0.10903288
174	0xbd6fccef	-0.05854505
175	0xbdf5190f	-0.1196767
176	0xbd492e64	-0.049116507
177	0x3c38a39b	0.011269475
178	0x3e1e2dcc	0.15447158
179	0x3d5d0be7	0.05396643
180	0x3d835ed1	0.06414569
181	0x3ddd60cc	0.10809478
182	0xbdcc6f7b	-0.09982201
183	0x3d2e562a	0.04256264
184	0xbdcf61d5	-0.10126082
185	0xbd5ee9e1	-0.054422263
186	0xbcf6a340	-0.03010714
187	0xbde50958	-0.11183423
188	0xbc53414d	-0.012893987
189	0x3dc118d3	0.09428563
190	0xbdea9624	-0.11454418
191	0x3cda5c69	0.026655393
192	0x3d20ebb8	0.0392873
193	0x3dac1239	0.08401913
194	0xbd6a7d5c	-0.05724846
195	0xbc4e7837	-0.012601904
196	0xbe1ce5f9	-0.15322103
197	0xbe0bef64	-0.13665539
198	0xbd8c5b76	-0.06853382
199	0xbd7c5a78	-0.061609715
200	0x3dbaa292	0.09113039
201	0x3daec885	0.0853434
202	0x3d542568	0.051793486
203	0xbd872cd8	-0.0660035
204	0xbd395dbf	-0.04525542
205	0xbd40f984	-0.047112957
206	0xbe2a47ee	-0.16629001
207	0x3dc357c0	0.09538221
208	0xbabdcee7	-0.0014481217
209	0xbdab467d	-0.08363054
210	0x3e1d1805	0.15341194
211	0x3cba65c8	0.022753611
212	0xbd72b2f8	-0.05925271
213	0x3ccbfbe1	0.024900379
214	0x3ca894af	0.02057871
215	0x3d5e31ff	0.0542469
216	0x3e159d57	0.14610802
217	0x3d1328b4	0.03592749
218	0xbdcaf98b	-0.09910878
219	0x3b88be0d	0.0041730464
220	0x3e3463d5	0.17616208
221	0x39e19d32	0.00043032464
222	0x3d923395	0.07138745
223	0x3e0f2da9	0.13982262
224	0x3cbbb52b	0.022913536
225	0xbdeda42f	-0.11603581
226	0x3c37083e	0.011171399
227	0xbcfd810b	-0.030945322
228	0xbd88fe6e	-0.066891536
229	0x3d5694a2	0.05238784
230	0xbd912fd6	-0.07089202
231	0xbe8db8eb	-0.27680144
232	0xbd962d68	-0.07332879
233	0xbd4970ea	-0.04917995
234	0xbc2ae85e	-0.010431377
235	0x3d8c9a1e	0.06865333
236	0x3e091b03	0.1338921
237	0x3cd1fee0	0.02563423
238	0x3ce63d09	0.028105276
239	0xbdf1a6ad	-0.11799369
240	0x3e0a7a02	0.13523105
241	0xbd6082f8	-0.0548124
242	0x3ce36081	0.027755978
243	0x3e05265e	0.13002917
244	0x3b9a1635	0.0047023543
245	0x3cc4bb48	0.024015084
246	0x3cd500e4	0.026001401
247	0xbdbdb8b6	-0.092637464
248	0xbdac2f61	-0.08407474
249	0xbc064ebe	-0.008197485
250	0xbc8e8287	-0.017396225
251	0x3ce7b497	0.028284354
252	0x3d3ab412	0.045581885
253	0x3cccb515	0.02498869
254	0xbd8f9767	-0.070112996
255	0xbe15219e	-0.14563605

critic.network_body.linear_encoder.seq_layers.2.bias f4 [128]
0	0x00000000	0.0
1	0x00000000	0.0
2	0x00000000	0.0
3	0x00000000	0.0
4	0x00000000	0.0
5	0x00000000	0.0
6	0x00000000	0.0
7	0x00000000	0.0
8	0x00000000	0.0
9	0x00000000	0.0
10	0x00000000	0.0
11	0x00000000	0.0
12	0x00000000	0.0
13	0x00000000	0.0
14	0x00000000	0.0
15	0x00000000	0.0
16	0x00000000	0.0
17	0x00000000	0.0
18	0x00000000	0.0
19	0x00000000	0.0
20	0x00000000	0.0
21	0x00000000	0.0
22	0x00000000	0.0
23	0x00000000	0.0
24	0x00000000	0.0
25	0x00000000	0.0
26	0x00000000	0.0
27	0x00000000	0.0
28	0x00000000	0.0
29	0x00000000	0.0
30	0x00000000	0.0
31	0x00000000	0.0
32	0x00000000	0.0
33	0x00000000	0.0
34	0x00000000	0.0
35	0x00000000	0.0
36	0x00000000	0.0
37	0x00000000	0.0
38	0x00000000	0.0
39	0x00000000	0.0
40	0x00000000	0.0
41	0x00000000	0.0
42	0x00000000	0.0
43	0x00000000	0.0
44	0x00000000	0.0
45	0x00000000	0.0
46	0x00000000	0.0
47	0x00000000	0.0
48	0x00000000	0.0
49	0x00000000	0.0
50	0x00000000	0.0
51	0x00000000	0.0
52	0x00000000	0.0
53	0x00000000	0.0
54	0x00000000	0.0
55	0x00000000	0.0
56	0x00000000	0.0
57	0x00000000	0.0
58	0x00000000	0.0
59	0x00000000	0.0
60	0x00000000	0.0
61	0x00000000	0.0
62	0x00000000	0.0
63	0x00000000	0.0
64	0x00000000	0.0
65	0x00000000	0.0
66	0x00000000	0.0
67	0x00000000	0.0
68	0x00000000	0.0
69	0x00000000	0.0
70	0x00000000	0.0
71	0x00000000	0.0
72	0x00000000	0.0
73	0x00000000	0.0
74	0x00000000	0.0
75	0x00000000	0.0
76	0x00000000	0.0
77	0x00000000	0.0
78	0x00000000	0.0
79	0x00000000	0.0
80	0x00000000	0.0
81	0x00000000	0.0
82	0x00000000	0.0
83	0x00000000	0.0
84	0x00000000	0.0
85	0x00000000	0.0
86	0x00000000	0.0
87	0x00000000	0.0
88	0x00000000	0.0
89	0x00000000	0.0
90	0x00000000	0.0
91	0x00000000	0.0
92	0x00000000	0.0
93	0x00000000	0.0
94	0x00000000	0.0
95	0x00000000	0.0
96	0x00000000	0.0
97	0x00000000	0.0
98	0x00000000	0.0
99	0x00000000	0.0
100	0x00000000	0.0
101	0x00000000	0.0
102	0x00000000	0.0
103	0x00000000	0.0
104	0x00000000	0.0
105	0x00000000	0.0
106	0x00000000	0.0
107	0x00000000	0.0
108	0x00000000	0.0
109	0x00000000	0.0
110	0x00000000	0.0
111	0x00000000	0.0
112	0x00000000	0.0
113	0x00000000	0.0
114	0x00000000	0.0
115	0x00000000	0.0
116	0x00000000	0.0
117	0x00000000	0.0
118	0x00000000	0.0
119	0x00000000	0.0
120	0x00000000	0.0
121	0x00000000	0.0
122	0x00000000	0.0
123	0x00000000	0.0
124	0x00000000	0.0
125	0x00000000	0.0
126	0x00000000	0.0
127	0x00000000	0.0

critic.value_heads.value_heads.extrinsic.weight f4 [1, 128]
0	0xbe527c2c	-0.2055518
1	0xbd746da4	-0.059674874
2	0xbd70c330	-0.058779895
3	0xbbc07d00	-0.005874276
4	0xbdf74287	-0.12073236
5	0xbe52d61b	-0.20589487
6	0x3dc4fa58	0.09618062
7	0x3dc85a5c	0.0978286
8	0x3dae2210	0.08502591
9	0xbd9da468	-0.07697374
10	0x3e16716a	0.14691702
11	0x3d5b95c0	0.05360961
12	0x3df4dfbc	0.119567364
13	0xbdaa2866	-0.08308487
14	0x3e49eae4	0.1971851
15	0xbdd78dd5	-0.10525099
16	0xbe0c6839	-0.13711633
17	0x3db29aa0	0.08720899
18	0x3e3fbfae	0.18725464
19	0xbd87cb7e	-0.0663061
20	0xbdcabeda	-0.09899683
21	0x3dcf87a0	0.1013329
22	0xbe425513	-0.18977766
23	0xbd5df070	-0.054184377
24	0x3e2d0b32	0.16898802
25	0x3e5ab096	0.21356425
26	0x3dbb9d98	0.09160918
27	0xbe449181	-0.1919613
28	0xbe03f86d	-0.12887736
29	0x3e3d632c	0.18494862
30	0xbe2d483a	-0.16922083
31	0xbd98d360	-0.074621916
32	0x3e203d5e	0.1564841
33	0xbddd1fa3	-0.1079705
34	0xbd5362d4	-0.05160792
35	0x3d376910	0.04477793
36	0x3e0f18b2	0.13974264
37	0x3e53772a	0.20650926
38	0x3d94dec8	0.07269055
39	0xbe1d69a7	-0.15372334
40	0x3e28cb82	0.16483882
41	0x3e13ed5e	0.14446017
42	0xbd24ab20	-0.04020226
43	0x3df6ddec	0.12054047
44	0xbe0b302e	-0.13592598
45	0x3c5df360	0.013546795
46	0x3da66900	0.08125496
47	0xbe416e4e	-0.18889734
48	0x3e2247b4	0.15847665
49	0x3d8ac004	0.06774905
50	0xbe184dee	-0.14873478
51	0xbe0eba4d	-0.13938256
52	0xbd2868c8	-0.041115552
53	0x3c3fef60	0.011714786
54	0x3dd14688	0.10218531
55	0xbd84525c	-0.06461021
56	0xbe46b919	-0.19406547
57	0xbe1ec296	-0.15503916
58	0xbdbd489d	-0.092423655
59	0x3e456ebc	0.19280523
60	0xbdb49e50	-0.08819258
61	0xbe4621ca	-0.19348827
62	0xbe144188	-0.14478123
63	0x3db72a70	0.08943641
64	0xbd808ef0	-0.06277263
65	0x3e0ff998	0.14060056
66	0x3e554d56	0.20830283
67	0xbde0005a	-0.10937567
68	0x3e5aca3e	0.21366212
69	0x3d95b358	0.07309598
70	0xbdd1d409	-0.102455206
71	0xbdca2607	-0.098705344
72	0xbdab930a	-0.08377655
73	0xbd2739c4	-0.040826574
74	0xbd828a14	-0.063739926
75	0x3db62d48	0.088953555
76	0xbe469a83	-0.19394879
77	0x3d71faf0	0.059077203
78	0xbc8c3158	-0.017113373
79	0x3e00b9c6	0.12570867
80	0xbd5dc4a4	-0.05414261
81	0x3e059148	0.13043702
82	0xbe53a68c	-0.20669001
83	0x3e1c18c8	0.15243828
84	0xbe11c6ca	-0.14235988
85	0x3dc16b9c	0.09444353
86	0x3d986dec	0.07442841
87	0xbd2457b8	-0.040122718
88	0x3df59188	0.119906485
89	0x3da37a4c	0.07982311
90	0x3e52148a	0.20515648
91	0xbdfdfb8a	-0.12401493
92	0x3dc2f630	0.09519613
93	0x3e418ee8	0.1890217
94	0x3d6cd848	0.05782345
95	0xbe12e9de	-0.14347026
96	0xbd2aee4c	-0.041731164
97	0xbd8ca16a	-0.06866725
98	0x3d8c1460	0.06839824
99	0x3e1ead2e	0.1549575
100	0xbe26bea8	-0.16283667
101	0xbe3d93c0	-0.18513393
102	0xbe0ecbe4	-0.13944966
103	0xbda82b10	-0.082113385
104	0xbdbc5936	-0.09196703
105	0x3de50af4	0.1118373
106	0xbe162eda	-0.1466631
107	0xbcb0faa8	-0.021603897
108	0xbe054d66	-0.13017806
109	0x3e23b0ba	0.15985385
110	0x3e0a4efa	0.1350669
111	0x3c5411f0	0.01294373
112	0x3e3e8f3c	0.18609327
113	0x3cbb5dc0	0.022871852
114	0xbdc7668a	-0.09736355
115	0x3e5afc3c	0.21385282
116	0xbd81ba94	-0.06334415
117	0xbe0b495c	-0.13602203
118	0xbe4b41da	-0.19849339
119	0xbdc12dbe	-0.09432553
120	0x3db76758	0.08955258
121	0x3e512992	0.20426014
122	0xbce14cb8	-0.027502403
123	0xbd94a464	-0.072579175
124	0x3d6b9108	0.05751136
125	0xbdac34bc	-0.08408496
126	0x3de1496c	0.11000332
127	0xbe2b9588	-0.1675626
