Unity - Crypto Ball/results/ScoreGoal0/My Behavior/My Behavior-2064.pt (torch, 153807 bytes, 12 tensors)

network_body.linear_encoder.seq_layers.0.weight f4 [128, 9]
0	0x3d593094	0.053024843
1	0xbd9630ff	-0.07333564
2	0xbeb67583	-0.3563653
3	0x3e804872	0.2505527
4	0x3d0e34aa	0.034718193
5	0xbd8aec8d	-0.067834
6	0x3f3f8214	0.7480786
7	0xbd80bf4c	-0.06286487
8	0x3e4ac0f3	0.19800167
9	0x3f51126e	0.81668746
10	0x3e610324	0.21973854
11	0xbe26ef25	-0.16302164
12	0xbe1f37fc	-0.155487
13	0x3eb244e8	0.34818196
14	0xbed2da93	-0.41182384
15	0x3f2bd013	0.6711437
16	0xbcea764a	-0.028620858
17	0xbe01de8c	-0.12682551
18	0x3e80243b	0.25027642
19	0x3e102448	0.1407634
20	0x3e9d7c71	0.30759004
21	0xbe2a7e8d	-0.16649838
22	0x3e2abf12	0.1667445
23	0xbf28bd6f	-0.6591405
24	0x3da84a56	0.082173035
25	0x3d6e08d8	0.058113903
26	0x3f13b98a	0.57704985
27	0xbe81256e	-0.2522387
28	0x3f2b0bc7	0.66814846
29	0x3ea318cf	0.31854865
30	0x3edfa1fb	0.4367827
31	0xbeb834b8	-0.3597772
32	0xbec355d2	-0.38151413
33	0xbeb2adea	-0.3489831
34	0xbe1c95a0	-0.15291452
35	0xbdd36f5e	-0.10323976
36	0x3e95f5a0	0.2928896
37	0xbea335c3	-0.31876954
38	0xbd51394f	-0.051080044
39	0x3f1c93d8	0.6116309
40	0x3d0e8d3a	0.034802653
41	0xbdb8a562	-0.09015919
42	0x3e854c14	0.26034606
43	0xbe44a5d8	-0.1920389
44	0x3eee0633	0.46489105
45	0xbea74d58	-0.32676196
46	0x3cba5183	0.022743946
47	0x3e115c66	0.14195403
48	0x3f02f801	0.51159674
49	0x3ec4870f	0.38384292
50	0xbdd99207	-0.10623556
51	0x3f10b832	0.5653106
52	0xbf048958	-0.5177207
53	0x3e1b23ba	0.15150347
54	0x3e4e85b0	0.20168185
55	0x3c371c1a	0.0111761335
56	0x3f020847	0.5079388
57	0x3dadd66a	0.08488162
58	0xbef1ea02	-0.47248846
59	0xbe7b2364	-0.24525219
60	0xbe0f8b16	-0.14017901
61	0x3e8764a0	0.26443958
62	0xbc1814f2	-0.0092823375
63	0xbe317e7c	-0.17333406
64	0xbf0525ac	-0.5201061
65	0xbe39365e	-0.18087146
66	0xbf1787d0	-0.5919161
67	0x3e21bdd2	0.15795067
68	0x3ea94ea2	0.33067805
69	0x3dde7dc7	0.10863834
70	0xbdbe5dcb	-0.09295233
71	0x3eb0ca5e	0.34529394
72	0xbe312c96	-0.17302164
73	0xbdfdea30	-0.12398183
74	0x3f58a103	0.84620684
75	0x3ec7615b	0.38941464
76	0x3e2d5296	0.16926035
77	0xbec15fff	-0.37768552
78	0xbda2b690	-0.07944977
79	0xbe035b48	-0.1282779
80	0xbedecdcf	-0.43516394
81	0x3edf3fbe	0.4360332
82	0x3d7c0190	0.061524928
83	0xbf298166	-0.6621307
84	0x3f39446e	0.7237004
85	0x3e3561fe	0.17713162
86	0xbd7740d3	-0.060364556
87	0x3ed5b2b0	0.4173789
88	0xbc71f30b	-0.014767419
89	0x3d61258f	0.05496746
90	0xbec8fcfe	-0.39255518
91	0xbe6c536b	-0.23078696
92	0x3f2073dc	0.6267679
93	0x3e6c9eb6	0.23107418
94	0x3e31af44	0.17352015
95	0xbebbc62c	-0.3667463
96	0x3eb876e8	0.36028218
97	0x3f16bf12	0.588853
98	0x3ea49e95	0.32152238
99	0x3e5c5a4a	0.21518818
100	0x3e6912d2	0.22761086
101	0xbe6c6b1a	-0.23087731
102	0xbdfa345b	-0.12217017
103	0xbd2739f2	-0.040826745
104	0x3ebb4996	0.3657958
105	0xbf0d2194	-0.5512936
106	0x3e90ddec	0.28294313
107	0x3ebe82e4	0.37209237
108	0x3e207e91	0.15673281
109	0x3eb227d8	0.34796023
110	0x3e93ad67	0.28843233
111	0x3d9c47bd	0.076308705
112	0x3dfc2c73	0.123131655
113	0xbe4e603c	-0.20153898
114	0x3e7267b7	0.23672377
115	0x3d6d14a8	0.057881027
116	0x3f2764cc	0.6538818
117	0x3f1101a7	0.56643146
118	0x3e86ec84	0.26352322
119	0x3de73d3b	0.11290976
120	0x3e863059	0.2620876
121	0x3e936d3b	0.28794274
122	0xbe6133c8	-0.21992409
123	0x3f64c2eb	0.8935992
124	0x3e7ada0f	0.24497245
125	0x3e57508e	0.21026823
126	0xbebf1c2a	-0.37326175
127	0xbde54be3	-0.11196115
128	0xbed85434	-0.42251742
129	0xbdf28398	-0.11841506
130	0xbf01cd53	-0.50703925
131	0xbef17a78	-0.4716375
132	0x3e177c6b	0.14793555
133	0xbdd8f150	-0.10592902
134	0x3d082067	0.033234026
135	0xbeab5466	-0.33462828
136	0xbe88ce28	-0.26719785
137	0xbe47ac53	-0.1949933
138	0x3c926172	0.017868731
139	0xbd92cfe2	-0.07168557
140	0x3e6dd80b	0.23226945
141	0x3efc6b76	0.49300736
142	0x3f017f6e	0.5058507
143	0x3ea1f002	0.31628424
144	0xbe9176a0	-0.28410816
145	0x3e90467b	0.28178772
146	0x3a6670c6	0.0008790608
147	0x3e519e93	0.20470648
148	0x3ee02958	0.43781543
149	0xbe790c90	-0.24321198
150	0xbc0dc5ce	-0.008653117
151	0x3e50077e	0.20315358
152	0x3e986104	0.29761517
153	0x3db8c3e3	0.090217374
154	0xbe22e421	-0.15907337
155	0xbe15e396	-0.14637598
156	0xbf2281e1	-0.6347943
157	0x3ef8e3a3	0.48611173
158	0xbd490926	-0.04908099
159	0x3f24a5a5	0.64315253
160	0x3e594b2c	0.21220082
161	0x3ed2dfd8	0.41186404
162	0xbe1baca9	-0.15202583
163	0xbe3b03c2	-0.18263152
164	0x3e3e0563	0.18556742
165	0xbf0080ae	-0.5019635
166	0x3e12ebf1	0.14347817
167	0xbd96e079	-0.073670335
168	0x3d597342	0.053088434
169	0x3d919333	0.07108154
170	0xbe1f40a4	-0.15552002
171	0xbe6f99e3	-0.23398547
172	0x3cee04cb	0.02905502
173	0xbd0539c2	-0.032525785
174	0xbe27ff0a	-0.16405883
175	0x3c07cb86	0.00828827
176	0xbebebbc8	-0.3725264
177	0x3e55003c	0.2080087
178	0x3bc08630	0.0058753714
179	0x3d247fe4	0.04016103
180	0x3ec164d7	0.37772247
181	0x3e38a4f4	0.18031675
182	0xbd9f2a0c	-0.07771692
183	0x3d5ad3fa	0.053424813
184	0xbe036447	-0.12831222
185	0xbe8e7bfe	-0.27828974
186	0x3dd3c153	0.10339608
187	0x3ef4934f	0.47768638
188	0xbe9b5436	-0.30337685
189	0x3f019563	0.5061857
190	0xbe690428	-0.22755492
191	0x3f07562e	0.52865875
192	0x3d3d5caa	0.04623095
193	0xbebccade	-0.36873525
194	0x3ea8202d	0.32837048
195	0xbcaee59b	-0.021349719
196	0xbe0057e2	-0.12533525
197	0x3da105e2	0.0786245
198	0x3d1af15c	0.037827834
199	0x3d52d83b	0.051475745
200	0x3ccabe8a	0.02474906
201	0xbe64fee0	-0.22362852
202	0xbe0204a8	-0.12697089
203	0x3e1cde18	0.15319097
204	0x3da24b98	0.079245746
205	0xbe9d63ec	-0.30740297
206	0xbd1be582	-0.038060673
207	0x3eee3374	0.4652363
208	0x3e9a41ac	0.3012823
209	0x3e7c3f4f	0.24633525
210	0x3efd22f2	0.49440724
211	0xbdc65272	-0.09683694
212	0x3e9e4350	0.3091073
213	0x3e3b7f40	0.18310261
214	0x3d7e8a84	0.062143818
215	0xbe7ae01e	-0.24499556
216	0xbe92a048	-0.2863791
217	0xbf6e547a	-0.9309765
218	0xbe30d300	-0.1726799
219	0x3e6ac90e	0.22928259
220	0x3df14c7f	0.117821686
221	0xbeb0b6b8	-0.34514403
222	0xbf24a9c2	-0.6432153
223	0xbf34c530	-0.70613384
224	0xbd6ed964	-0.05831279
225	0xbd075cc1	-0.03304744
226	0x3e43b3ae	0.19111511
227	0x3ea7dbaf	0.32784793
228	0xbe004b98	-0.12528837
229	0xbe927290	-0.2860303
230	0xbe875ad2	-0.26436478
231	0xbe6983af	-0.2280414
232	0xbdc5355f	-0.0962932
233	0x3cac4fd8	0.021034166
234	0x3e957621	0.29191688
235	0xbdc2dfaa	-0.09515317
236	0xbde8e742	-0.11372234
237	0x3e454d20	0.19267702
238	0x3e757cee	0.23973438
239	0x3e13ec3c	0.14445585
240	0x3e356472	0.17714098
241	0x3c6ad6c7	0.0143334335
242	0xbe962ecd	-0.2933258
243	0x3e02692f	0.12735437
244	0x3ef365d2	0.4753862
245	0x3ed186cf	0.40923163
246	0x3dc7a962	0.09749104
247	0xbeb89938	-0.36054397
248	0x3deb7dd6	0.11498611
249	0xbeef22fa	-0.46706372
250	0xbedfd77b	-0.43719086
251	0x3ed0f786	0.40813845
252	0xbdb528e3	-0.08845689
253	0x3ecd80a4	0.40137208
254	0x3dff225c	0.124577254
255	0xbe543b4f	-0.2072575

network_body.linear_encoder.seq_layers.0.bias f4 [128]
0	0x00000000	0.0
1	0x00000000	0.0
2	0x00000000	0.0
3	0x00000000	0.0
4	0x00000000	0.0
5	0x00000000	0.0
6	0x00000000	0.0
7	0x00000000	0.0
8	0x00000000	0.0
9	0x00000000	0.0
10	0x00000000	0.0
11	0x00000000	0.0
12	0x00000000	0.0
13	0x00000000	0.0
14	0x00000000	0.0
15	0x00000000	0.0
16	0x00000000	0.0
17	0x00000000	0.0
18	0x00000000	0.0
19	0x00000000	0.0
20	0x00000000	0.0
21	0x00000000	0.0
22	0x00000000	0.0
23	0x00000000	0.0
24	0x00000000	0.0
25	0x00000000	0.0
26	0x00000000	0.0
27	0x00000000	0.0
28	0x00000000	0.0
29	0x00000000	0.0
30	0x00000000	0.0
31	0x00000000	0.0
32	0x00000000	0.0
33	0x00000000	0.0
34	0x00000000	0.0
35	0x00000000	0.0
36	0x00000000	0.0
37	0x00000000	0.0
38	0x00000000	0.0
39	0x00000000	0.0
40	0x00000000	0.0
41	0x00000000	0.0
42	0x00000000	0.0
43	0x00000000	0.0
44	0x00000000	0.0
45	0x00000000	0.0
46	0x00000000	0.0
47	0x00000000	0.0
48	0x00000000	0.0
49	0x00000000	0.0
50	0x00000000	0.0
51	0x00000000	0.0
52	0x00000000	0.0
53	0x00000000	0.0
54	0x00000000	0.0
55	0x00000000	0.0
56	0x00000000	0.0
57	0x00000000	0.0
58	0x00000000	0.0
59	0x00000000	0.0
60	0x00000000	0.0
61	0x00000000	0.0
62	0x00000000	0.0
63	0x00000000	0.0
64	0x00000000	0.0
65	0x00000000	0.0
66	0x00000000	0.0
67	0x00000000	0.0
68	0x00000000	0.0
69	0x00000000	0.0
70	0x00000000	0.0
71	0x00000000	0.0
72	0x00000000	0.0
73	0x00000000	0.0
74	0x00000000	0.0
75	0x00000000	0.0
76	0x00000000	0.0
77	0x00000000	0.0
78	0x00000000	0.0
79	0x00000000	0.0
80	0x00000000	0.0
81	0x00000000	0.0
82	0x00000000	0.0
83	0x00000000	0.0
84	0x00000000	0.0
85	0x00000000	0.0
86	0x00000000	0.0
87	0x00000000	0.0
88	0x00000000	0.0
89	0x00000000	0.0
90	0x00000000	0.0
91	0x00000000	0.0
92	0x00000000	0.0
93	0x00000000	0.0
94	0x00000000	0.0
95	0x00000000	0.0
96	0x00000000	0.0
97	0x00000000	0.0
98	0x00000000	0.0
99	0x00000000	0.0
100	0x00000000	0.0
101	0x00000000	0.0
102	0x00000000	0.0
103	0x00000000	0.0
104	0x00000000	0.0
105	0x00000000	0.0
106	0x00000000	0.0
107	0x00000000	0.0
108	0x00000000	0.0
109	0x00000000	0.0
110	0x00000000	0.0
111	0x00000000	0.0
112	0x00000000	0.0
113	0x00000000	0.0
114	0x00000000	0.0
115	0x00000000	0.0
116	0x00000000	0.0
117	0x00000000	0.0
118	0x00000000	0.0
119	0x00000000	0.0
120	0x00000000	0.0
121	0x00000000	0.0
122	0x00000000	0.0
123	0x00000000	0.0
124	0x00000000	0.0
125	0x00000000	0.0
126	0x00000000	0.0
127	0x00000000	0.0

network_body.linear_encoder.seq_layers.2.weight f4 [128, 128]
0	0xbd964cd8	-0.073388755
1	0xbd960c3e	-0.07326554
2	0xbdafe602	-0.085887924
3	0x3d91d232	0.0712017
4	0x3e07673c	0.13222975
5	0x3cdc34d2	0.026880655
6	0xbda6db1c	-0.081472605
7	0x3c267d9b	0.010161783
8	0xbdea5bc1	-0.11443282
9	0x3dabeb19	0.08394451
10	0x3d2b7410	0.041858733
11	0x3e1abe96	0.15111765
12	0x3db7ad50	0.089686036
13	0x3d0b5599	0.03401718
14	0x3cc78851	0.024356993
15	0xbdd03328	-0.10166007
16	0xbd1d0ee8	-0.038344294
17	0xbcd8cf30	-0.026465982
18	0x3b0e8070	0.0021744035
19	0xbc85dc29	-0.016340332
20	0x3df56e63	0.11983945
21	0xbe478a54	-0.19486362
22	0xbd5114bf	-0.051045176
23	0xbe767c4b	-0.24070852
24	0xbd6dd0a4	-0.058060303
25	0xbdb238e3	-0.087022565
26	0xbcd16876	-0.025562506
27	0xbcb24021	-0.021759095
28	0xbcdcedbf	-0.026968835
29	0xbcfd0711	-0.030887159
30	0xbd5e81ee	-0.05432313
31	0x3e20ebda	0.1571497
32	0x3df4b0c0	0.11947775
33	0x3e466ba4	0.19376999
34	0xbe15fd8f	-0.14647506
35	0x3cc569f4	0.024098374
36	0x3e071654	0.13192111
37	0x3d7183f1	0.05896372
38	0x3da75d12	0.08172049
39	0x3bfc063c	0.007691173
40	0x3e0b3830	0.13595653
41	0xbd2adfd6	-0.041717373
42	0xbd3ad6d7	-0.045615043
43	0x3d88edba	0.06685968
44	0x3daf4860	0.08558726
45	0xbd700e9c	-0.058607683
46	0xbe83903d	-0.25695983
47	0xbd9f24db	-0.077707015
48	0x3d4c1197	0.049821462
49	0xbcc97621	-0.024592461
50	0x3af684f8	0.0018807938
51	0xbe18d0af	-0.14923356
52	0x3d11838e	0.03552585
53	0xbd59c233	-0.05316372
54	0xbdb5a530	-0.08869398
55	0x3cb7d3fc	0.02243995
56	0x3d1fb069	0.038986597
57	0xbc82eea9	-0.015982943
58	0x3dc8af64	0.09799078
59	0xbe05ba32	-0.13059309
60	0xbd61ebd2	-0.055156536
61	0xbd8e6873	-0.06953516
62	0x3c923f58	0.01785247
63	0xbc87a70c	-0.016559146
64	0x3d7f56c4	0.062338606
65	0x3dbb7682	0.09153463
66	0x3d9b1fd5	0.07574431
67	0xbde66357	-0.11249416
68	0x3b6c3078	0.0036039632
69	0x3d6f6130	0.058442295
70	0x3d67b550	0.056569397
71	0xbdb55828	-0.08854705
72	0xbdae1a8b	-0.085011564
73	0x3d4437f3	0.04790492
74	0xbde4cf4d	-0.11172352
75	0xbcef18aa	-0.029186565
76	0x3da4b66c	0.08042607
77	0xbd2032da	-0.039110996
78	0x3e51fe70	0.20507216
79	0x3c8a7335	0.016900638
80	0xbbe332da	-0.006933552
81	0x3d06e2ac	0.032931015
82	0xbe39e32e	-0.18153068
83	0x3c305032	0.010761308
84	0xbc21f10f	-0.009884133
85	0xbde23cdd	-0.11046765
86	0xbb8cf313	-0.0043014376
87	0x3dc92958	0.09822339
88	0x3dbafeb0	0.09130609
89	0xbd8f7f26	-0.070066735
90	0x3d0193be	0.03163504
91	0x3cf0008a	0.029297132
92	0xbde86423	-0.113472246
93	0x3cf6db0f	0.030133752
94	0x3da87f71	0.082274325
95	0xbe40901c	-0.18804973
96	0xbd67b0a1	-0.05656493
97	0xbd4629a1	-0.048379544
98	0xbdc6736c	-0.09689984
99	0xbd91a4aa	-0.07111485
100	0xbd8dac85	-0.06917671
101	0x3d48cea7	0.049025204
102	0x3e6a8fe5	0.22906454
103	0xbdb91145	-0.09036497
104	0xbd14d082	-0.03633166
105	0x3c59ca6a	0.013292888
106	0xbd919446	-0.07108359
107	0x3e068e3f	0.131402
108	0xbd9ed6eb	-0.07755836
109	0x3d26f625	0.040762085
110	0xbd8d3944	-0.06895688
111	0xbd37c1e8	-0.044862658
112	0x3e066b0a	0.1312677
113	0x3d20d7b7	0.03926822
114	0xbd77c650	-0.06049186
115	0xbd7a36ef	-0.061087545
116	0x3e1729c5	0.14762028
117	0x3d5949e8	0.053048998
118	0xbcfde1ef	-0.030991523
119	0x3d046007	0.03231814
120	0xbd843faf	-0.06457459
121	0xbd9b7fc8	-0.07592732
122	0x3e01e604	0.126854
123	0x3dbbb27c	0.091649026
124	0xbdd4792f	-0.103746764
125	0x3de1ca90	0.11024964
126	0x3d56ad37	0.052411284
127	0x3e0379de	0.12839457
128	0xbdedc659	-0.116100974
129	0xbd91e6fc	-0.07124135
130	0x3d6325ba	0.0554559
131	0xbde18f36	-0.110136434
132	0x3da84f40	0.08218241
133	0x3e19cc5c	0.15019363
134	0xba5615d1	-0.0008166703
135	0x3d86b5ab	0.06577619
136	0xbdb76107	-0.08954053
137	0xbde14764	-0.10999945
138	0x3e2cf1b5	0.16889079
139	0x3bfd22a9	0.007725079
140	0x3a285f17	0.0006422861
141	0xbd15c947	-0.036568906
142	0x3c01bfde	0.00791928
143	0xbe2d92ae	-0.16950485
144	0x3c9258f0	0.017864674
145	0x3da94612	0.08265318
146	0xbe76a5a1	-0.2408662
147	0x3c4fd1b4	0.012684274
148	0x3d0c4d16	0.034253202
149	0x3b5de95b	0.0033861015
150	0xbd9c7761	-0.07639957
151	0x3ba9d773	0.0051831543
152	0x3e0dea0c	0.13858813
153	0x3d603422	0.054737218
154	0xbd847f8c	-0.0646964
155	0xbe07a18c	-0.13245219
156	0xbcb387ef	-0.021915404
157	0xbd860dce	-0.06545602
158	0xbd006837	-0.031349387
159	0x3d51b138	0.0511944
160	0x3a21f67c	0.00061783916
161	0x3ddf4604	0.10902026
162	0x3dded93e	0.108812794
163	0x3e6250b9	0.22101106
164	0x3c5d8802	0.013521196
165	0xbe09e291	-0.13465334
166	0x3ccf5686	0.025309812
167	0xbd834544	-0.06409696
168	0xbd16deaf	-0.03683346
169	0xbdf174df	-0.117898695
170	0x3ca672a9	0.020318346
171	0xbd68e756	-0.056861244
172	0xbdd508bd	-0.10402057
173	0x3d613140	0.05497861
174	0xbc3ec1a9	-0.011642852
175	0x3cdd1599	0.026987838
176	0x3d4503e5	0.048099417
177	0x3e6b35cb	0.22969739
178	0xbccf5584	-0.025309332
179	0xbdb9cd0a	-0.09072311
180	0x3e2bc1e2	0.16773179
181	0xbd40fba6	-0.04711499
182	0x3bd24d59	0.006417912
183	0x3a1f4ea4	0.0006077087
184	0xbd4d8e6d	-0.050184656
185	0x3e0feed5	0.14055951
186	0x3d034c41	0.032055143
187	0xbe45063c	-0.1924066
188	0xbd00c4e4	-0.03143777
189	0x3b237cf8	0.0024946313
190	0xbd12fd24	-0.035885945
191	0x3dccb94e	0.099962816
192	0xbda47f09	-0.080320425
193	0x3e05ea51	0.13077666
194	0x3dd5d6bb	0.10441347
195	0x3d792b06	0.060832046
196	0xbd087638	-0.033315867
197	0xbd2ee3f2	-0.042697854
198	0xbde48813	-0.111587666
199	0xbd32a1e6	-0.04361143
200	0x3d7d2775	0.061805207
201	0x3b250395	0.0025179137
202	0xbce2fccf	-0.02770844
203	0x3dbcffa3	0.09228446
204	0x3d139315	0.03602894
205	0xbd8d7ce7	-0.06908589
206	0xbb89c54f	-0.004204429
207	0x3deecefe	0.116605744
208	0x3de1bdce	0.110225305
209	0x3d0c0a13	0.034189295
210	0xbdda29d5	-0.1065251
211	0x3e2ea324	0.1705442
212	0xbcaaa997	-0.02083282
213	0x3d722b3e	0.05912327
214	0x3e3bf338	0.183545
215	0x3d75daae	0.060023002
216	0x3cac69ed	0.021046603
217	0xbdc79b46	-0.09746413
218	0xbdaf4c4c	-0.08559474
219	0x3dbbc42e	0.09168278
220	0x3d30a1d2	0.043123074
221	0xbca3f4e6	-0.020014238
222	0x3dd4820e	0.103763685
223	0xbcd3a447	-0.02583517
224	0x3e1ffe44	0.15624338
225	0xbb9b1921	-0.00473322
226	0x3ddd2dde	0.10799764
227	0xbe0429b9	-0.12906541
228	0x3b23fb3d	0.0025021576
229	0x3da3216b	0.07965358
230	0xbdaf2fae	-0.08554016
231	0xbdbe055e	-0.092783675
232	0x3d6a36a5	0.05718102
233	0x3d72756e	0.05919402
234	0x3a6198e5	0.0008605852
235	0xbe55cac8	-0.20878136
236	0x3ddc038d	0.10742865
237	0xbd66cc11	-0.056346957
238	0x3ceb1022	0.028694216
239	0xbccb5be7	-0.024824096
240	0x3df5dd3b	0.12005087
241	0x3df9f510	0.12204945
242	0xbe1550e5	-0.1458164
243	0x3d5a2ac4	0.05326344
244	0x3d8e5177	0.06949132
245	0x3df42517	0.11921137
246	0xba9ad3bd	-0.001181237
247	0xbd4a8bdc	-0.049449787
248	0xbddd03c9	-0.107917376
249	0x3c36f680	0.011167169
250	0x3da3d408	0.07999426
251	0xbd153f8d	-0.03643756
252	0xbda1d8c4	-0.07902673
253	0x3deec9c0	0.116595745
254	0x3db27d7b	0.0871534
255	0xbdb9b7dd	-0.09068272

network_body.linear_encoder.seq_layers.2.bias f4 [128]
0	0x00000000	0.0
1	0x00000000	0.0
2	0x00000000	0.0
3	0x00000000	0.0
4	0x00000000	0.0
5	0x00000000	0.0
6	0x00000000	0.0
7	0x00000000	0.0
8	0x00000000	0.0
9	0x00000000	0.0
10	0x00000000	0.0
11	0x00000000	0.0
12	0x00000000	0.0
13	0x00000000	0.0
14	0x00000000	0.0
15	0x00000000	0.0
16	0x00000000	0.0
17	0x00000000	0.0
18	0x00000000	0.0
19	0x00000000	0.0
20	0x00000000	0.0
21	0x00000000	0.0
22	0x00000000	0.0
23	0x00000000	0.0
24	0x00000000	0.0
25	0x00000000	0.0
26	0x00000000	0.0
27	0x00000000	0.0
28	0x00000000	0.0
29	0x00000000	0.0
30	0x00000000	0.0
31	0x00000000	0.0
32	0x00000000	0.0
33	0x00000000	0.0
34	0x00000000	0.0
35	0x00000000	0.0
36	0x00000000	0.0
37	0x00000000	0.0
38	0x00000000	0.0
39	0x00000000	0.0
40	0x00000000	0.0
41	0x00000000	0.0
42	0x00000000	0.0
43	0x00000000	0.0
44	0x00000000	0.0
45	0x00000000	0.0
46	0x00000000	0.0
47	0x00000000	0.0
48	0x00000000	0.0
49	0x00000000	0.0
50	0x00000000	0.0
51	0x00000000	0.0
52	0x00000000	0.0
53	0x00000000	0.0
54	0x00000000	0.0
55	0x00000000	0.0
56	0x00000000	0.0
57	0x00000000	0.0
58	0x00000000	0.0
59	0x00000000	0.0
60	0x00000000	0.0
61	0x00000000	0.0
62	0x00000000	0.0
63	0x00000000	0.0
64	0x00000000	0.0
65	0x00000000	0.0
66	0x00000000	0.0
67	0x00000000	0.0
68	0x00000000	0.0
69	0x00000000	0.0
70	0x00000000	0.0
71	0x00000000	0.0
72	0x00000000	0.0
73	0x00000000	0.0
74	0x00000000	0.0
75	0x00000000	0.0
76	0x00000000	0.0
77	0x00000000	0.0
78	0x00000000	0.0
79	0x00000000	0.0
80	0x00000000	0.0
81	0x00000000	0.0
82	0x00000000	0.0
83	0x00000000	0.0
84	0x00000000	0.0
85	0x00000000	0.0
86	0x00000000	0.0
87	0x00000000	0.0
88	0x00000000	0.0
89	0x00000000	0.0
90	0x00000000	0.0
91	0x00000000	0.0
92	0x00000000	0.0
93	0x00000000	0.0
94	0x00000000	0.0
95	0x00000000	0.0
96	0x00000000	0.0
97	0x00000000	0.0
98	0x00000000	0.0
99	0x00000000	0.0
100	0x00000000	0.0
101	0x00000000	0.0
102	0x00000000	0.0
103	0x00000000	0.0
104	0x00000000	0.0
105	0x00000000	0.0
106	0x00000000	0.0
107	0x00000000	0.0
108	0x00000000	0.0
109	0x00000000	0.0
110	0x00000000	0.0
111	0x00000000	0.0
112	0x00000000	0.0
113	0x00000000	0.0
114	0x00000000	0.0
115	0x00000000	0.0
116	0x00000000	0.0
117	0x00000000	0.0
118	0x00000000	0.0
119	0x00000000	0.0
120	0x00000000	0.0
121	0x00000000	0.0
122	0x00000000	0.0
123	0x00000000	0.0
124	0x00000000	0.0
125	0x00000000	0.0
126	0x00000000	0.0
127	0x00000000	0.0

action_model._continuous_distribution.log_sigma f4 [1, 5]
0	0x00000000	0.0
1	0x00000000	0.0
2	0x00000000	0.0
3	0x00000000	0.0
4	0x00000000	0.0

action_model._continuous_distribution.mu.weight f4 [5, 128]
0	0x3b28e659	0.0025772064
1	0xbc626495	-0.013817926
2	0xbbce0acb	-0.0062879077
3	0x3bbdd9be	0.005793779
4	0xbb827983	-0.0039817705
5	0x3c649a6a	0.013952831
6	0x3cfa06cb	0.030520817
7	0xbccb5a0b	-0.02482321
8	0x3c326df3	0.010890472
9	0x3c220ad7	0.00989028
10	0x3c5b5545	0.013387029
11	0xbb8a046b	-0.0042119524
12	0xbc2c078d	-0.010499847
13	0x3bd33668	0.0064456947
14	0xbc67c23a	-0.014145428
15	0x3b8d2ddf	0.004308447
16	0xbbb16a57	-0.005414288
17	0x3d025148	0.031815797
18	0x3c892d82	0.016745333
19	0x3b9e78df	0.0048361863
20	0x3ca2e153	0.019882834
21	0xbc001637	-0.007817796
22	0x3ab0431e	0.0013447737
23	0x3cfd4f62	0.030921642
24	0x3cbbecbd	0.022940034
25	0xbc87de1b	-0.0165854
26	0xbcb1fa37	-0.021725757
27	0xbce92350	-0.028459221
28	0x3baba45b	0.0052380986
29	0xbba09f1b	-0.0049017793
30	0xbcca7bc2	-0.024717215
31	0x3c67f403	0.014157298
32	0xbb680620	-0.0035404041
33	0xbb28dc4d	-0.0025766075
34	0xbc847b2e	-0.016172018
35	0xbbf58b6d	-0.0074934275
36	0xbc47cdea	-0.01219509
37	0x3c3d77c3	0.011564198
38	0x3c5111e2	0.012760611
39	0xbcbb2357	-0.022844
40	0x3b0bfd3d	0.0021360659
41	0xbcd85cef	-0.026411502
42	0x3cfe4c90	0.031042367
43	0x3bf72f1b	0.007543457
44	0xba9deaca	-0.0012048122
45	0xbc82e6fb	-0.01597928
46	0xbcba1e87	-0.022719635
47	0x3c9feb4b	0.019521376
48	0xbb5d3643	-0.0033754266
49	0xbb70db93	-0.003675197
50	0x3c65a71b	0.014016892
51	0x3c8a7cbf	0.016905187
52	0x3b1bba38	0.0023762118
53	0x3ba75cb9	0.005107489
54	0xbd1b584f	-0.037926015
55	0xbc21df56	-0.009879908
56	0x3c58c49f	0.013230472
57	0xbb8d6dbf	-0.0043160613
58	0xbcf55250	-0.029946476
59	0xbbe5ff82	-0.0070189843
60	0xbd105bff	-0.035243984
61	0x3c692715	0.014230509
62	0xbc62f725	-0.013852869
63	0xbce9fcb3	-0.02856288
64	0x3c0f19d7	0.008734188
65	0xbaa09b0a	-0.0012253236
66	0x3c75e7a7	0.0150088435
67	0xbc191998	-0.009344481
68	0x3c698fed	0.014255506
69	0xbd129026	-0.035782002
70	0x3b8b4eb6	0.0042513264
71	0xbc1fb872	-0.009748565
72	0xbb18f658	-0.0023340192
73	0xbcc05295	-0.023476878
74	0x3c32fbb7	0.010924271
75	0x3ba102e7	0.004913676
76	0x3bc77a3c	0.0060875695
77	0xbc5adfed	-0.013359052
78	0x3ca52543	0.02015937
79	0x3c051ec3	0.00812501
80	0xbc5e5a73	-0.013571369
81	0x3ca3e3af	0.020006029
82	0xbc621c88	-0.013800748
83	0x3be11bd0	0.0068697706
84	0x398aeda3	0.00026498464
85	0xbc929f0c	-0.017898105
86	0x3ca543fb	0.020174017
87	0xbb4b1356	-0.0030986867
88	0xbd1374c0	-0.036000013
89	0xbcb6f2b3	-0.022332525
90	0xbc327e23	-0.010894331
91	0x3cb8a218	0.02253823
92	0xbc88f4d0	-0.016718298
93	0xbc76a258	-0.015053354
94	0x3d0a3638	0.033743113
95	0x3caf22f5	0.021378973
96	0x3ab6c0ed	0.0013942994
97	0x3c133e21	0.008986981
98	0xbccdbb4b	-0.025113722
99	0xbc53c90a	-0.012926349
100	0xbcaddcbb	-0.021223417
101	0xbc858e7e	-0.016303297
102	0xbb7ea81d	-0.0038857528
103	0x3c0ebb77	0.008711687
104	0x3c99aa4d	0.018757964
105	0xbc2fc554	-0.010728199
106	0x3b73b953	0.003718932
107	0x3c8b5156	0.017006557
108	0x3c748828	0.01492504
109	0x3c21e247	0.009880609
110	0xbd0efa82	-0.03490687
111	0xbc3e76ee	-0.011625035
112	0x3c82976e	0.015941348
113	0xbc3c3c97	-0.011489055
114	0x383ca61e	4.49774e-05
115	0x3b67825b	0.00353255
116	0xbb5d353d	-0.0033753656
117	0xbc202878	-0.0097752735
118	0xbbaa1bd1	-0.0051913043
119	0xbcb8326a	-0.022484977
120	0x3d02f291	0.03196961
121	0x3c177bd9	0.009245836
122	0xbce9f04d	-0.028556967
123	0xbbd89bcf	-0.0066103707
124	0x3c82843a	0.015932191
125	0x3cf81102	0.030281547
126	0x3d09a6e3	0.03360642
127	0xbc80eb84	-0.015737303
128	0x3ca5c15a	0.020233799
129	0x3cda4f68	0.026649192
130	0x3bd444c0	0.006477922
131	0xbbd55cd5	-0.0065113106
132	0x3b99ee35	0.004697586
133	0xbb19b6c9	-0.0023454896
134	0xbc69714a	-0.014248202
135	0x3bd7c530	0.006584786
136	0xbc84bac2	-0.016202334
137	0x3c9543af	0.01822075
138	0x3c9271ce	0.017876532
139	0x3b88f159	0.0041791615
140	0x3c149f87	0.009071237
141	0xbc77b355	-0.01511844
142	0xbb7b5cdf	-0.0038354916
143	0xbb2fb895	-0.00268129
144	0xbc87945a	-0.016550232
145	0x3c8fb66f	0.017543046
146	0x3a2e2b95	0.00066440675
147	0x3c9c3ec3	0.019072896
148	0x3cbe5606	0.023234379
149	0xbadece22	-0.0016998688
150	0x3c60079f	0.013673692
151	0x3c7f2ea3	0.015575084
152	0x3c1e7af3	0.009672868
153	0xba7dc798	-0.0009680926
154	0x3c544740	0.01295644
155	0x3ceb7cab	0.02874597
156	0x3c1e0e33	0.00964694
157	0x3be17e82	0.006881536
158	0xbc8911c7	-0.01673211
159	0xbd2668e0	-0.04062736
160	0x3c638db7	0.013888768
161	0xbcb89ee9	-0.022536712
162	0x3c0c968a	0.008580813
163	0x3c869afd	0.016431326
164	0xbbae4eec	-0.005319467
165	0xbc0fd5da	-0.0087790135
166	0xbcd57738	-0.026057824
167	0xbca456bc	-0.02006089
168	0x3b8207eb	0.003968229
169	0x3d25eddd	0.040510047
170	0x3d10185d	0.035179485
171	0x3a33840e	0.0006847986
172	0x3b29d77e	0.0025915797
173	0x3989dec7	0.00026296658
174	0x3c5c4fca	0.013446758
175	0x3c75555a	0.014973963
176	0xbd2a41ca	-0.041566648
177	0x3ac9917d	0.0015378442
178	0x3c3a364b	0.0113654835
179	0x3c7b3250	0.01533182
180	0x3a1cdb03	0.0005983563
181	0x3c65537a	0.013996953
182	0xbbdb2c75	-0.0066886493
183	0x3cbcb533	0.023035621
184	0xbc8a62d3	-0.016892826
185	0xba1a4db0	-0.000588621
186	0x3c7b4aba	0.01533764
187	0xbba6405c	-0.00507359
188	0xbc1cb8d0	-0.009565547
189	0x3cda5d42	0.026655797
190	0xbc297c37	-0.0103445565
191	0xbca42ae1	-0.020039978
192	0x3cdd35bf	0.027003167
193	0x3ca930ed	0.020653212
194	0x3c4093d7	0.011753998
195	0xbb95f9a5	-0.004576879
196	0xba08eb97	-0.0005223094
197	0xbb0e4533	-0.0021708726
198	0xbb7bd36f	-0.0038425585
199	0x3c17a3d8	0.009255372
200	0x3a7aaec5	0.0009562786
201	0x3c818d2b	0.015814384
202	0xbc832972	-0.016010974
203	0x3c744257	0.014908395
204	0xbc8a50e9	-0.016884284
205	0x3c0f9a54	0.008764822
206	0x3cacd20b	0.02109625
207	0x3c611f35	0.0137403505
208	0x3cc5de52	0.024153862
209	0xbc32382a	-0.010877648
210	0x3ca2e42d	0.019884193
211	0x3c54e02f	0.012992903
212	0x3cef7dbd	0.029234761
213	0xbcd80daf	-0.026373712
214	0xbb631ba7	-0.0034653933
215	0x3c843a59	0.016141104
216	0x3c819803	0.015819555
217	0x3bae609f	0.0053215767
218	0xbce79f63	-0.028274244
219	0xbca97865	-0.020687291
220	0xbbde8fab	-0.006792029
221	0xbd16f1cb	-0.036851685
222	0xbc226c69	-0.009913542
223	0x3be70abd	0.0070508406
224	0xbc2e1a32	-0.010626363
225	0xbcfe8df8	-0.031073555
226	0xbbf1fd40	-0.007384926
227	0xba884c0f	-0.0010398644
228	0x3cbab1df	0.022789894
229	0xbc711e17	-0.014716647
230	0x3cbc98ca	0.023022074
231	0x3d25922d	0.040422607
232	0xbca92a6f	-0.020650117
233	0xbb94eff9	-0.0045452085
234	0xbb1945dd	-0.002338759
235	0x3c6d4d5f	0.014483779
236	0x3b914650	0.0044334307
237	0xbc5679ab	-0.013090531
238	0xbc3daf1b	-0.011577393
239	0x3b88102b	0.004152318
240	0x3be43ccd	0.006965256
241	0x3c8c2fc7	0.017112626
242	0xbaf60c65	-0.0018772004
243	0xbbc99439	-0.0061517027
244	0xbb27346c	-0.0025513424
245	0xbc284582	-0.010270478
246	0xbc63742a	-0.013882676
247	0x3c951762	0.018199626
248	0x3c88e57d	0.016710991
249	0xbd2a0791	-0.041511122
250	0x3b8a338b	0.00421757
251	0x3a84930e	0.0010114626
252	0x3b0c350c	0.0021393923
253	0xbb3b040f	-0.0028536355
254	0x3b47cab3	0.0030485808
255	0xbc8148a9	-0.015781717

action_model._continuous_distribution.mu.bias f4 [5]
0	0x00000000	0.0
1	0x00000000	0.0
2	0x00000000	0.0
3	0x00000000	0.0
4	0x00000000	0.0

critic.network_body.linear_encoder.seq_layers.0.weight f4 [128, 9]
0	0x3ded2feb	0.11581405
1	0xbd19b61a	-0.03752718
2	0xbe4c729e	-0.19965598
3	0xbc56b5bb	-0.013104851
4	0xbe8669df	-0.26252648
5	0xbd8a6bc2	-0.067588344
6	0xbddf83ff	-0.10913848
7	0xbeaae6ab	-0.3337911
8	0x3d80c04c	0.06286678
9	0xbeb8d2ff	-0.36098477
10	0x3ebd5b8e	0.36983913
11	0x3da3a863	0.079911016
12	0xbd533892	-0.05156762
13	0x3ed3b90b	0.41352114
14	0x3e08a3ea	0.13343778
15	0xbd93d2b4	-0.07217923
16	0x3e73e0ba	0.23816195
17	0xbf097485	-0.5369342
18	0x3cebeb9f	0.028798876
19	0x3ec2644b	0.37967142
20	0x3f7e919e	0.99440944
21	0x3dda700c	0.106659025
22	0xbe0b6a6a	-0.13614812
23	0xbe5982f7	-0.21241365
24	0xbe935273	-0.2877384
25	0xbdbc5293	-0.09195437
26	0xbe47413e	-0.19458482
27	0xbf3b8db4	-0.73263097
28	0xbec87370	-0.39150572
29	0x3f7508a6	0.9571632
30	0xbeb69ae6	-0.35665053
31	0xbc60d6ac	-0.013723057
32	0xbe056c4e	-0.13029596
33	0xbe9413b1	-0.28921273
34	0x3d40e897	0.047096815
35	0xbe219fb7	-0.15783583
36	0xbe87d8ae	-0.265325
37	0x3ecf7262	0.40516955
38	0xbe120b5b	-0.14262144
39	0xbe9bd890	-0.30438662
40	0x3e9d862f	0.30766436
41	0xbea82c04	-0.3284608
42	0xbec5e04e	-0.38647693
43	0x3f3a990b	0.72889775
44	0xbf815476	-1.01039
45	0x3e039a06	0.12851724
46	0xbe90ec58	-0.28305316
47	0xbc80a2ac	-0.015702568
48	0xbe7eb122	-0.24872258
49	0xbec7556b	-0.38932356
50	0xbd40df9f	-0.04708826
51	0x3d634642	0.055486925
52	0x3ed494c7	0.41519758
53	0xbdd17c18	-0.10228747
54	0xbd9ec684	-0.077527076
55	0x3ec49f70	0.3840289
56	0x3eef548c	0.46744192
57	0x3e81153c	0.25211513
58	0x3ca3e978	0.020008788
59	0xbe171fae	-0.14758179
60	0x3e83abc6	0.2571699
61	0xbebdf554	-0.37101233
62	0xbf370fb4	-0.71508336
63	0x3eda5992	0.42646462
64	0xbdef100c	-0.116729826
65	0x3c3c2de2	0.011485549
66	0x3e9edd4e	0.31028217
67	0xbe0778e5	-0.13229711
68	0xbec10186	-0.37696475
69	0x3e25ad70	0.16179442
70	0x3efdbecb	0.49559626
71	0xbe89c496	-0.26907796
72	0xbc9245b7	-0.017855508
73	0xbe4cd9b6	-0.20004925
74	0x3ea22422	0.31668192
75	0x3e577c43	0.21043496
76	0x3d8cd931	0.068773635
77	0xbe1263d0	-0.14295888
78	0x3e89fe55	0.26951852
79	0x3ef0c9bb	0.47028908
80	0xbe4af120	-0.19818544
81	0x3dec8ee7	0.11550694
82	0xbeb23e02	-0.34812933
83	0xbee63c9c	-0.44968116
84	0x3da6713c	0.081270665
85	0xbd959de1	-0.07305504
86	0xba1b1b18	-0.0005916818
87	0xbea136d6	-0.3148715
88	0xbe25ca28	-0.16190398
89	0x3ec76dd0	0.38950968
90	0xbf2d8742	-0.6778451
91	0xbd54442f	-0.051822837
92	0xbf468eff	-0.77561945
93	0xbe4cc9bf	-0.19998835
94	0x3ca9130c	0.020638965
95	0x3eed05fc	0.46293628
96	0x3cffbeae	0.031218853
97	0xbe1a796e	-0.15085384
98	0x3ea8f8d2	0.33002335
99	0x3de6e060	0.11273265
100	0x3e7b8998	0.24564207
101	0xbe06f6a2	-0.1318002
102	0xbcd5c756	-0.026096027
103	0xbeed1768	-0.4630692
104	0xbe34c44f	-0.17653011
105	0xbd7797eb	-0.060447615
106	0x3eb0986a	0.34491283
107	0x3e1e85da	0.15480748
108	0x3e48fcab	0.19627635
109	0xbf266012	-0.6499034
110	0xbec04d2e	-0.37558883
111	0xbc574426	-0.013138806
112	0x3e5b9786	0.2144452
113	0xbf655ca7	-0.895945
114	0xbe508b52	-0.20365646
115	0xbd898a82	-0.067158714
116	0xbd995533	-0.074869536
117	0xbddaae76	-0.10677807
118	0x3da371d7	0.079806976
119	0x3d4095de	0.047017924
120	0xbebcb3ac	-0.3685583
121	0xbe5e48e3	-0.21707492
122	0x3d09965d	0.033590663
123	0xbe20780a	-0.15670791
124	0x3ec77d67	0.38962862
125	0x3e8cc71c	0.27495658
126	0x3ec638e3	0.38715276
127	0x3e05fbef	0.13084386
128	0x3e4a6976	0.19766793
129	0x3f05ea2c	0.5231044
130	0x3d73977e	0.059470646
131	0xbdda4b3e	-0.106588826
132	0xbf5ec6bc	-0.87021995
133	0xbe850756	-0.2598216
134	0x3ec70cc6	0.38876933
135	0x3d5cae00	0.053876877
136	0x3f22f244	0.6365092
137	0x3d974f1c	0.07388136
138	0x3df64af6	0.120260164
139	0x3f108027	0.56445545
140	0xbeba4184	-0.3637811
141	0x3da4dae2	0.08049561
142	0x3d92646a	0.07148059
143	0x3edcd3fc	0.4313048
144	0x3ee48407	0.4463198
145	0x3d75d348	0.060015947
146	0x3e9acbd5	0.30233636
147	0xbf3907a2	-0.7227727
148	0xbdf1d39a	-0.11807938
149	0x3df90b07	0.121603064
150	0xbe973cad	-0.2953848
151	0xbe4f291b	-0.20230524
152	0xbeb2a4cf	-0.34891364
153	0xbeb2d270	-0.34926176
154	0x3eb01386	0.34389895
155	0xbe7e2517	-0.24818836
156	0x3ea4b10e	0.32166332
157	0x3dff3783	0.1246176
158	0xbddb815c	-0.10718033
159	0xbf431ae6	-0.7621292
160	0xbe19df1e	-0.15026519
161	0x3e11f03b	0.14251797
162	0xbd3fbd7b	-0.046811562
163	0x3e4203d6	0.18946776
164	0x3ce06653	0.027392542
165	0xbe253002	-0.16131595
166	0xbdec8a12	-0.11549772
167	0x3edb23a3	0.42800626
168	0xbda7ba7c	-0.08189866
169	0xbce272f0	-0.027642697
170	0x3df13ee0	0.117795706
171	0x3cab104b	0.020881793
172	0xbcf19c1e	-0.029493388
173	0x3f15a5c7	0.5845608
174	0x3e8db8cd	0.27680054
175	0xbd59e4ab	-0.05319659
176	0xbe857eac	-0.26073205
177	0xbea4f7b6	-0.32220238
178	0x3d41e628	0.047338635
179	0xbe4299ac	-0.19003934
180	0xbdb1060a	-0.0864373
181	0x3d9086ae	0.07056938
182	0xbd90b4b6	-0.07065718
183	0x3e73223c	0.23743528
184	0xbf074f3d	-0.52855283
185	0xbe47ccff	-0.19511794
186	0xbe1aa7e8	-0.15103114
187	0x3dea7fc6	0.11450152
188	0x3d242604	0.040075317
189	0x3e133011	0.14373805
190	0x3c6db206	0.014507776
191	0x3e706d2f	0.2347915
192	0x3e975a2b	0.2956098
193	0xbdd04a5e	-0.101704344
194	0xbe33cd00	-0.1755867
195	0xbcf6e3ef	-0.030137984
196	0x3c03ee81	0.008052469
197	0xbe226c60	-0.15861654
198	0xbec41ef8	-0.38304877
199	0x3d490490	0.049076617
200	0xbd88ea39	-0.066852994
201	0x3e162730	0.14663386
202	0xbf0bf8a1	-0.5467625
203	0x3ebc3bd6	0.367644
204	0x3ddf46bc	0.109021634
205	0x3ef959c4	0.48701298
206	0x3d83d0bc	0.06436297
207	0xbe9646f6	-0.29351014
208	0x3c943a83	0.018094307
209	0xbe295502	-0.16536334
210	0xbe5fe224	-0.2186361
211	0x3e6b0b00	0.22953415
212	0xbd0468ae	-0.032326393
213	0x3e3350bc	0.17511266
214	0xbf0a1aae	-0.5394696
215	0x3e39c01b	0.18139689
216	0xbea8be83	-0.3295785
217	0xbdbf502c	-0.093414634
218	0xbe6b1997	-0.2295898
219	0x3e098b86	0.1343213
220	0xbe279c5c	-0.1636824
221	0xbece1af2	-0.40254933
222	0xbec72cb8	-0.38901305
223	0xbe8f1f22	-0.2795344
224	0xbce85ada	-0.028363634
225	0x3e5dd7fc	0.21664423
226	0x3ed20a9f	0.41023728
227	0xbf11297e	-0.5670394
228	0xbda64c31	-0.08120001
229	0x3d5b681e	0.05356609
230	0xbf13b500	-0.5769806
231	0x3ddab92b	0.10679849
232	0xbce9f1d4	-0.028557695
233	0xbd5e7f07	-0.05432036
234	0xbe51f714	-0.20504409
235	0x3d904e2a	0.070461586
236	0xbda2db16	-0.079519436
237	0xbea5cf48	-0.32384706
238	0xbda1ee80	-0.079068184
239	0xbe0ac289	-0.13550772
240	0x3e8df2ba	0.27724248
241	0xbe543f0c	-0.20727175
242	0x3c31334f	0.010815456
243	0xbeacb85e	-0.3373441
244	0xbe9b8e8a	-0.30382186
245	0xbd207641	-0.039175276
246	0x3e6a42d7	0.2287706
247	0x3f06271b	0.5240342
248	0x3f2bb2b3	0.6706955
249	0x3f007c73	0.50189894
250	0xbea2b101	-0.31775668
251	0x3f094554	0.5362141
252	0x3df99868	0.12187272
253	0xbe795da6	-0.2435213
254	0x3e2cf9c0	0.16892147
255	0x3e41fc37	0.18943869

critic.network_body.linear_encoder.seq_layers.0.bias f4 [128]
0	0x00000000	0.0
1	0x00000000	0.0
2	0x00000000	0.0
3	0x00000000	0.0
4	0x00000000	0.0
5	0x00000000	0.0
6	0x00000000	0.0
7	0x00000000	0.0
8	0x00000000	0.0
9	0x00000000	0.0
10	0x00000000	0.0
11	0x00000000	0.0
12	0x00000000	0.0
13	0x00000000	0.0
14	0x00000000	0.0
15	0x00000000	0.0
16	0x00000000	0.0
17	0x00000000	0.0
18	0x00000000	0.0
19	0x00000000	0.0
20	0x00000000	0.0
21	0x00000000	0.0
22	0x00000000	0.0
23	0x00000000	0.0
24	0x00000000	0.0
25	0x00000000	0.0
26	0x00000000	0.0
27	0x00000000	0.0
28	0x00000000	0.0
29	0x00000000	0.0
30	0x00000000	0.0
31	0x00000000	0.0
32	0x00000000	0.0
33	0x00000000	0.0
34	0x00000000	0.0
35	0x00000000	0.0
36	0x00000000	0.0
37	0x00000000	0.0
38	0x00000000	0.0
39	0x00000000	0.0
40	0x00000000	0.0
41	0x00000000	0.0
42	0x00000000	0.0
43	0x00000000	0.0
44	0x00000000	0.0
45	0x00000000	0.0
46	0x00000000	0.0
47	0x00000000	0.0
48	0x00000000	0.0
49	0x00000000	0.0
50	0x00000000	0.0
51	0x00000000	0.0
52	0x00000000	0.0
53	0x00000000	0.0
54	0x00000000	0.0
55	0x00000000	0.0
56	0x00000000	0.0
57	0x00000000	0.0
58	0x00000000	0.0
59	0x00000000	0.0
60	0x00000000	0.0
61	0x00000000	0.0
62	0x00000000	0.0
63	0x00000000	0.0
64	0x00000000	0.0
65	0x00000000	0.0
66	0x00000000	0.0
67	0x00000000	0.0
68	0x00000000	0.0
69	0x00000000	0.0
70	0x00000000	0.0
71	0x00000000	0.0
72	0x00000000	0.0
73	0x00000000	0.0
74	0x00000000	0.0
75	0x00000000	0.0
76	0x00000000	0.0
77	0x00000000	0.0
78	0x00000000	0.0
79	0x00000000	0.0
80	0x00000000	0.0
81	0x00000000	0.0
82	0x00000000	0.0
83	0x00000000	0.0
84	0x00000000	0.0
85	0x00000000	0.0
86	0x00000000	0.0
87	0x00000000	0.0
88	0x00000000	0.0
89	0x00000000	0.0
90	0x00000000	0.0
91	0x00000000	0.0
92	0x00000000	0.0
93	0x00000000	0.0
94	0x00000000	0.0
95	0x00000000	0.0
96	0x00000000	0.0
97	0x00000000	0.0
98	0x00000000	0.0
99	0x00000000	0.0
100	0x00000000	0.0
101	0x00000000	0.0
102	0x00000000	0.0
103	0x00000000	0.0
104	0x00000000	0.0
105	0x00000000	0.0
106	0x00000000	0.0
107	0x00000000	0.0
108	0x00000000	0.0
109	0x00000000	0.0
110	0x00000000	0.0
111	0x00000000	0.0
112	0x00000000	0.0
113	0x00000000	0.0
114	0x00000000	0.0
115	0x00000000	0.0
116	0x00000000	0.0
117	0x00000000	0.0
118	0x00000000	0.0
119	0x00000000	0.0
120	0x00000000	0.0
121	0x00000000	0.0
122	0x00000000	0.0
123	0x00000000	0.0
124	0x00000000	0.0
125	0x00000000	0.0
126	0x00000000	0.0
127	0x00000000	0.0

critic.network_body.linear_encoder.seq_layers.2.weight f4 [128, 128]
0	0x3c42a611	0.011880414
1	0x3cfb005e	0.030639824
2	0xba8d8699	-0.001079756
3	0xbd40da58	-0.04708323
4	0x3c73c79c	0.014879134
5	0x3e54baa0	0.20774317
6	0xbe0aa717	-0.13540302
7	0x3ddec54e	0.10877477
8	0x3e2beb87	0.16789065
9	0xbc87fdb9	-0.016600477
10	0xbcf32327	-0.029679848
11	0xbe821aa4	-0.2541095
12	0xbdf45ac9	-0.119313784
13	0x3e280bd0	0.16410756
14	0x3db1d930	0.08684003
15	0xbd75d7e9	-0.06002036
16	0x3d9c1c45	0.076225795
17	0x3dddc95f	0.10829424
18	0x3dd64688	0.104626715
19	0x3d62281e	0.05521404
20	0xbd81ca6e	-0.063374385
21	0xbdc7c2cd	-0.09753952
22	0x3ddcdbf7	0.107841425
23	0x3cac8226	0.021058153
24	0x3d4a992a	0.049462475
25	0x3e165a25	0.14682825
26	0x3d2f7da9	0.04284445
27	0xbcaff639	-0.021479713
28	0x3c2085d5	0.009797533
29	0xbe12eae7	-0.1434742
30	0xbbac19a6	-0.005252081
31	0x3d4d4578	0.05011508
32	0x3d9705e7	0.07374173
33	0xbc253698	-0.010083817
34	0xbe8333dc	-0.25625503
35	0x3e28485e	0.16433856
36	0xbd333782	-0.04375411
37	0xbdbf668a	-0.0934573
38	0x3d45e4ae	0.04831379
39	0x3d33d8fc	0.043908104
40	0xbd2e5e52	-0.04257042
41	0x3bb0a358	0.005390566
42	0x3c5f6195	0.013634105
43	0x3dd6fd73	0.1049756
44	0x3cf77a89	0.030209797
45	0x3cdbaf28	0.02681692
46	0x3c114fbc	0.008869108
47	0xbc6a3445	-0.014294689
48	0xbcd46224	-0.025925703
49	0x3d0d7a64	0.03454055
50	0xbd7626a7	-0.060095455
51	0x3ddbbd63	0.10729482
52	0x3d99d8e1	0.075120695
53	0x3d812b99	0.06307144
54	0xbd587e5e	-0.05285489
55	0x3d7f5048	0.06233242
56	0x3c03b719	0.008039259
57	0x3d9bbbd8	0.07604188
58	0xbdb579fd	-0.08861158
59	0x3ccdbcc0	0.025114417
60	0x3db8272b	0.08991846
61	0xbb94ded1	-0.0045431633
62	0xbd849fed	-0.06475816
63	0xbda19e74	-0.07891551
64	0x3ccd8a32	0.02509031
65	0x3d437c99	0.047726247
66	0xbe15b1aa	-0.14618555
67	0xbe1a3d67	-0.15062486
68	0xbd0b11ef	-0.03395265
69	0x3cd92f9b	0.026511958
70	0x3dedb997	0.11607664
71	0x3e1863a6	0.14881763
72	0xbd3c6ae1	-0.046000365
73	0x3b1b35a2	0.002368309
74	0x3c269c1a	0.010169053
75	0xbdab8f07	-0.0837689
76	0x3c1ccf88	0.009570964
77	0x3d8c48ce	0.06849824
78	0x3c54ddc2	0.012992324
79	0x3d387aab	0.04503886
80	0xbd59e024	-0.053192273
81	0xbe0d1c3f	-0.13780306
82	0xbc0485c8	-0.008088537
83	0x3d5a1dab	0.05325095
84	0x3d188403	0.03723527
85	0xbd7b121f	-0.06129658
86	0xbd265781	-0.040610794
87	0x3e067dae	0.1313388
88	0x3d7ff587	0.062490012
89	0xbd034c29	-0.032055054
90	0xbdade62f	-0.0849117
91	0xbd8d97bb	-0.06913706
92	0x3c4289e1	0.011873693
93	0xbd5441b8	-0.051820487
94	0x3d75a4ca	0.05997161
95	0x3e10831d	0.14112516
96	0xbda6d378	-0.08145803
97	0x3d90be33	0.070675276
98	0x3dcf2b31	0.1011566
99	0xbdfbc2d2	-0.122930184
100	0x3c735eca	0.014854142
101	0xbd90810d	-0.070558645
102	0xbd359da7	-0.044339802
103	0x3e0b32a0	0.1359353
104	0xbdc91baa	-0.098197296
105	0x3ce3d345	0.027810702
106	0x3d4ea3b2	0.05044908
107	0xbdcda71f	-0.100416414
108	0x3cc37e22	0.023863856
109	0x3d93feac	0.07226309
110	0xbd6f960b	-0.0584927
111	0xbd15db43	-0.036586057
112	0x3d1cf891	0.03832299
113	0x3cd920c7	0.026504887
114	0xbc165b2c	-0.0091770105
115	0xbdfb9723	-0.122846864
116	0x3e2f64a7	0.1712824
117	0xbd6253cc	-0.055255696
118	0x3a41fe0f	0.00074002234
119	0x3c2f4930	0.010698602
120	0x3dbdf817	0.09275835
121	0xbdbafbe1	-0.09130073
122	0xbe1b67d4	-0.15176326
123	0x3ddb6e18	0.10714358
124	0xbdc5d80b	-0.096603476
125	0xbd4f18b6	-0.050560676
126	0x3e468359	0.19386043
127	0xbd5144bc	-0.05109094
128	0x3e246bad	0.160567
129	0xbc95ad85	-0.018271217
130	0x3ddadcc0	0.10686636
131	0xbd8d3cd3	-0.06896367
132	0xbd9a7ff1	-0.07543934
133	0x3c7227a9	0.0147799635
134	0xbcb7d647	-0.022441043
135	0x3dbac19b	0.091189586
136	0x3dcd0645	0.100109614
137	0x3d79b20b	0.06096081
138	0x3dc96385	0.09833435
139	0xbdc35cbf	-0.09539174
140	0xbd17524f	-0.03694373
141	0x3c767c65	0.015044306
142	0xbd81724b	-0.06320628
143	0xbcbb8de9	-0.022894816
144	0xbdcb3667	-0.09922486
145	0xbe2aa858	-0.1666578
146	0x3e17369e	0.14766929
147	0x3bb46a78	0.005505856
148	0x3c2b5b7b	0.010458822
149	0x3d1319b0	0.03591317
150	0x39f39226	0.0004645746
151	0x3d239486	0.039936565
152	0xbdebf522	-0.11521365
153	0xbd71e056	-0.059051834
154	0xbbbd4618	-0.005776178
155	0x3dc23c7d	0.094841935
156	0xbc645931	-0.0139372805
157	0xbcdb5ff5	-0.026779154
158	0x3d02f785	0.031974334
159	0x3d40cc3f	0.047069784
160	0xbe0aac24	-0.13542229
161	0x3dd6da83	0.104908966
162	0xbe313cc4	-0.17308336
163	0x3ce4419c	0.027863316
164	0x3d0f01f4	0.034913972
165	0xbd3c0c86	-0.04591038
166	0x3d51e80e	0.051246695
167	0xbd8aa4d8	-0.06769723
168	0x3e134204	0.14380652
169	0x3d6734b0	0.05644673
170	0x3d6bea1a	0.057596304
171	0x3e070200	0.13184357
172	0xbde48a04	-0.11159137
173	0x3db8ae52	0.09017624
174	0xbd3bcb58	-0.04584822
175	0xbd908f6b	-0.07058605
176	0x3d1b1d37	0.03786966
177	0x3d7427c5	0.05960824
178	0xbdb4b90c	-0.088243574
179	0x3d833c46	0.064079806
180	0xbdcb8c06	-0.09938817
181	0x3d518238	0.051149577
182	0xbddee37c	-0.10883233
183	0x3cf4291a	0.029804755
184	0x3d7f8618	0.06238374
185	0xbe19e9d2	-0.15030602
186	0xbb43564b	-0.0029806073
187	0xbd7e0bf2	-0.06202311
188	0x3b0a8621	0.0021137076
189	0xbadd1701	-0.0016867818
190	0x3e1f7ec7	0.15575705
191	0xbd2c25bd	-0.042028178
192	0x3dc6a9e6	0.09700374
193	0x3e1289d9	0.14310397
194	0xbdb7c2d6	-0.08972709
195	0xbd6d3b2d	-0.057917763
196	0x3b04e817	0.0020279938
197	0x3d9a96db	0.07548305
198	0xbd2f03c1	-0.04272819
199	0xbdf0ce19	-0.1175806
200	0x3bcc9b1e	0.0062440773
201	0x3da6ebd3	0.08150449
202	0xbceb9c57	-0.028761072
203	0x3cf5531c	0.029946856
204	0xbe02e0db	-0.12781088
205	0x3debe4ee	0.11518274
206	0x3c1cb24f	0.009563996
207	0xbdcb8223	-0.09936931
208	0x38e617c7	0.000109716835
209	0xbd1c5a49	-0.03817204
210	0xbd92d169	-0.07168848
211	0xba2acd3c	-0.00065155677
212	0xbdd0243e	-0.10163163
213	0x3d904801	0.07044984
214	0xbd8e1d07	-0.0693913
215	0x3db7e116	0.089784786
216	0xbd972dec	-0.07381806
217	0xbbadf0d7	-0.0053082514
218	0xbdba45e9	-0.090953656
219	0x3e18c975	0.149206
220	0x3d38e398	0.045138925
221	0x3e1fc108	0.1560098
222	0x3ba7dc20	0.0051226765
223	0xbdee335c	-0.1163089
224	0x3d1418ec	0.03615658
225	0x3d8a4b5f	0.06752657
226	0x3cd02d6d	0.025412286
227	0x3dd57f2c	0.10424647
228	0x3d0f9dc7	0.035062578
229	0x3d04960a	0.03236965
230	0xbd260748	-0.040534288
231	0xbc346cde	-0.011012284
232	0xbdee986f	-0.11650168
233	0x3d8e43d9	0.06946535
234	0xbe31c7a5	-0.17361315
235	0xbd2406b5	-0.04004546
236	0xbd9b3ac3	-0.07579567
237	0x3d322078	0.043487996
238	0x3ddb06b2	0.106946364
239	0xbc74a541	-0.014931978
240	0x3d925f7b	0.07147118
241	0x3cada49f	0.021196662
242	0xbe111f56	-0.1417211
243	0xbb80418d	-0.0039140643
244	0x3e876d15	0.2645041
245	0xbdae82e9	-0.08521063
246	0xba93d230	-0.0011277851
247	0xbe20d920	-0.15707827
248	0xbda30731	-0.07960356
249	0xbdcc4cc1	-0.09975577
250	0x3da44d50	0.08022559
251	0xbd67477c	-0.056464657
252	0x3dd68d23	0.104761384
253	0xbde394be	-0.11112355
254	0x3e17e0a6	0.1483179
255	0x3de11878	0.10990995

critic.network_body.linear_encoder.seq_layers.2.bias f4 [128]
0	0x00000000	0.0
1	0x00000000	0.0
2	0x00000000	0.0
3	0x00000000	0.0
4	0x00000000	0.0
5	0x00000000	0.0
6	0x00000000	0.0
7	0x00000000	0.0
8	0x00000000	0.0
9	0x00000000	0.0
10	0x00000000	0.0
11	0x00000000	0.0
12	0x00000000	0.0
13	0x00000000	0.0
14	0x00000000	0.0
15	0x00000000	0.0
16	0x00000000	0.0
17	0x00000000	0.0
18	0x00000000	0.0
19	0x00000000	0.0
20	0x00000000	0.0
21	0x00000000	0.0
22	0x00000000	0.0
23	0x00000000	0.0
24	0x00000000	0.0
25	0x00000000	0.0
26	0x00000000	0.0
27	0x00000000	0.0
28	0x00000000	0.0
29	0x00000000	0.0
30	0x00000000	0.0
31	0x00000000	0.0
32	0x00000000	0.0
33	0x00000000	0.0
34	0x00000000	0.0
35	0x00000000	0.0
36	0x00000000	0.0
37	0x00000000	0.0
38	0x00000000	0.0
39	0x00000000	0.0
40	0x00000000	0.0
41	0x00000000	0.0
42	0x00000000	0.0
43	0x00000000	0.0
44	0x00000000	0.0
45	0x00000000	0.0
46	0x00000000	0.0
47	0x00000000	0.0
48	0x00000000	0.0
49	0x00000000	0.0
50	0x00000000	0.0
51	0x00000000	0.0
52	0x00000000	0.0
53	0x00000000	0.0
54	0x00000000	0.0
55	0x00000000	0.0
56	0x00000000	0.0
57	0x00000000	0.0
58	0x00000000	0.0
59	0x00000000	0.0
60	0x00000000	0.0
61	0x00000000	0.0
62	0x00000000	0.0
63	0x00000000	0.0
64	0x00000000	0.0
65	0x00000000	0.0
66	0x00000000	0.0
67	0x00000000	0.0
68	0x00000000	0.0
69	0x00000000	0.0
70	0x00000000	0.0
71	0x00000000	0.0
72	0x00000000	0.0
73	0x00000000	0.0
74	0x00000000	0.0
75	0x00000000	0.0
76	0x00000000	0.0
77	0x00000000	0.0
78	0x00000000	0.0
79	0x00000000	0.0
80	0x00000000	0.0
81	0x00000000	0.0
82	0x00000000	0.0
83	0x00000000	0.0
84	0x00000000	0.0
85	0x00000000	0.0
86	0x00000000	0.0
87	0x00000000	0.0
88	0x00000000	0.0
89	0x00000000	0.0
90	0x00000000	0.0
91	0x00000000	0.0
92	0x00000000	0.0
93	0x00000000	0.0
94	0x00000000	0.0
95	0x00000000	0.0
96	0x00000000	0.0
97	0x00000000	0.0
98	0x00000000	0.0
99	0x00000000	0.0
100	0x00000000	0.0
101	0x00000000	0.0
102	0x00000000	0.0
103	0x00000000	0.0
104	0x00000000	0.0
105	0x00000000	0.0
106	0x00000000	0.0
107	0x00000000	0.0
108	0x00000000	0.0
109	0x00000000	0.0
110	0x00000000	0.0
111	0x00000000	0.0
112	0x00000000	0.0
113	0x00000000	0.0
114	0x00000000	0.0
115	0x00000000	0.0
116	0x00000000	0.0
117	0x00000000	0.0
118	0x00000000	0.0
119	0x00000000	0.0
120	0x00000000	0.0
121	0x00000000	0.0
122	0x00000000	0.0
123	0x00000000	0.0
124	0x00000000	0.0
125	0x00000000	0.0
126	0x00000000	0.0
127	0x00000000	0.0

critic.value_heads.value_heads.extrinsic.weight f4 [1, 128]
0	0x3e29f7d4	0.16598445
1	0xbcf2c4a0	-0.029634774
2	0xbe099a98	-0.13437879
3	0x3e4f6634	0.20253831
4	0xbe13ac5f	-0.14421223
5	0x3e352362	0.17689279
6	0x3e4e2672	0.20131853
7	0xbd9f4412	-0.07776655
8	0xbd8fc712	-0.070203915
9	0x3e1e3070	0.15448165
10	0xbe2ac822	-0.16677907
11	0x3e1295fa	0.14315024
12	0xbe564d6d	-0.20927973
13	0x3dad5900	0.08464241
14	0xbd8f4336	-0.06995241
15	0x3b211fc0	0.0024585575
16	0xbbea1120	-0.0071431547
17	0x3dda8034	0.10668984
18	0xbde5344a	-0.11191614
19	0x3d78ba30	0.060724437
20	0x3e148c9e	0.14506766
21	0x3cac9fd0	0.021072298
22	0x3e5738ca	0.21017757
23	0x3e5a6238	0.2132653
24	0xbcb3fc90	-0.021971017
25	0x3e3f849a	0.18702927
26	0x3e01e748	0.12685883
27	0xbde3371a	-0.11094494
28	0xbdcd9709	-0.10038573
29	0x3e590e4e	0.21196863
30	0x3e4a6f18	0.19768941
31	0xbd1ce2e8	-0.038302332
32	0x3c23ed80	0.010005355
33	0x3e0936b2	0.13399771
34	0xbd957c8c	-0.07299146
35	0x3d142b88	0.036174327
36	0x3d74a210	0.059724867
37	0x3ced7b40	0.028989434
38	0xbe5ab0d8	-0.21356523
39	0xbe3830aa	-0.17987314
40	0x3dfaa544	0.12238553
41	0xbd897500	-0.06711769
42	0x3e0bef9a	0.1366562
43	0x3dd6e4a8	0.104928315
44	0x3e3e4b60	0.18583441
45	0xbe5544b1	-0.20826985
46	0xbd14f1e4	-0.036363497
47	0xbe0032da	-0.12519398
48	0x3e24bc44	0.16087443
49	0xbdbcf2fb	-0.09226032
50	0x3ce818a0	0.028332055
51	0x3db16504	0.08661845
52	0x3e30f85a	0.17282239
53	0x3e3f42de	0.18677852
54	0xbdfe5bb2	-0.12419833
55	0x3dfc8aec	0.12331185
56	0xbcd50518	-0.026003405
57	0x3e589afe	0.21152875
58	0xbde17948	-0.11009461
59	0x3e558e62	0.20855096
60	0xbe419950	-0.1890614
61	0x3d587440	0.05284524
62	0x3e47f4b8	0.19526947
63	0xbc9b1e20	-0.018935263
64	0xbe0975be	-0.13423821
65	0x3df905b8	0.12159294
66	0xbd315b9c	-0.043300256
67	0xbe1c1f46	-0.15246305
68	0xbe0537f0	-0.1300962
69	0xbb481200	-0.0030528307
70	0xbdba8b56	-0.091086075
71	0xbdab6dba	-0.08370538
72	0xbc6fdc80	-0.014639974
73	0xbe0e5b31	-0.13901974
74	0xbdc41ac6	-0.09575419
75	0x3deae958	0.11470288
76	0xbe03b2ee	-0.12861225
77	0x3d7ae728	0.061255604
78	0xbdd79550	-0.10526526
79	0x3d89bea0	0.06725812
80	0x3d9f8b90	0.07790291
81	0x3e3a67c6	0.18203649
82	0xbd7d37f0	-0.061820924
83	0xbe104ddc	-0.14092201
84	0x3de80248	0.1132856
85	0xbe136a4a	-0.14396015
86	0x3db34c88	0.087548316
87	0xbd999d88	-0.0750075
88	0xbdee621d	-0.116398074
89	0x3dfe83b0	0.12427461
90	0xbd3128e8	-0.043251902
91	0x3d9ef398	0.077613056
92	0xbd8e7bf2	-0.069572344
93	0x3db7af2c	0.08968958
94	0xbd0bd3a0	-0.03413737
95	0xbe3ea34a	-0.18616977
96	0x3e037d44	0.12840754
97	0xbe5667e3	-0.20938067
98	0xbe0048e9	-0.12527813
99	0xba80f980	-0.0009839982
100	0x3da37864	0.07981947
101	0x3dbc9e60	0.09209895
102	0xbd96de44	-0.073666126
103	0xbdbce641	-0.09223605
104	0xbe09985c	-0.13437027
105	0x3d2aa2d0	0.041659176
106	0x3d694838	0.05695364
107	0x3dd3f9d8	0.10350388
108	0xbe237d6b	-0.15965812
109	0x3dec73b8	0.11545509
110	0x3e4985a2	0.19679883
111	0xbde64e1c	-0.11245367
112	0xbd292d9c	-0.041303262
113	0xbe43d450	-0.1912396
114	0xbddf6439	-0.10907788
115	0x3e4462be	0.19178292
116	0x3e0b40d0	0.13598943
117	0xbd8d31de	-0.06894277
118	0xbe0b6ff4	-0.13616925
119	0xbe0b3bcd	-0.13597031
120	0x3d9b27bc	0.07575938
121	0xbccd2f68	-0.02504702
122	0xbe192d44	-0.14958674
123	0xbe1df5b0	-0.15425754
124	0x3e0cd2c6	0.13752279
125	0xbe01312e	-0.12616417
126	0x3d4a9ca8	0.049465805
127	0x3e29304e	0.16522333
