Unity - Crypto Ball/results/ScoreGoal0/My Behavior/My Behavior-25887.pt (torch, 452255 bytes, 36 tensors)

network_body.linear_encoder.seq_layers.0.weight f4 [128, 9]
00000000: 4378 b5be 13e5 893e 6bdd 36bf 939b 7bbf
00000010: d6ae ab3e 2130 87be 5c84 dcbe 8969 013f
00000020: 8196 1a3f dd61 19be 7399 f0be a082 8ebe
00000030: 3554 ce3d be6e 4c3e 034e c43d 7baa 10be
00000040: 13fd 2e3f 95b8 ac3e a366 aebd 0486 d4be
00000050: b69c 3c3e 27a0 d53e 86b2 383c 819b eabe
00000060: b0f0 d83e dabd 1cbe 0ed1 a13e 528d 96be
00000070: f965 4fbf 95fb 893e ed5f ab3d 2a5d a3be
00000080: f40b 343e 72ef 14bc 83a4 17be 2bf5 2bbd
00000090: 80e1 a9bd cb06 103f 484e 98be a5c1 d13e
000000a0: fff0 3ebe 45fd 343e 8815 55be bf06 e23e
000000b0: 2d26 b53e 6788 b6be 60e4 183d 4ab4 9abe
000000c0: 9c93 083e 5676 5e3e 4bbf 253e fd86 7d3d
000000d0: 0742 fb3d a15e d33e d9d8 3cbe e7a6 a8be
000000e0: 5fbe 0a3f bccc a0bd 4e07 233c 9e1a 8e3e
000000f0: a2b4 e5be 0607 203e cd24 c13e 4352 063f
00000100: ae0f 973e 1401 143e 3278 c9bd 1a47 80be
00000110: 8916 b8bd 8c9d b1be 78b2 ce3e 629a db3e
00000120: 2610 6ebe 853f c73d a75d 22bf 68a1 6e3e
00000130: 9bb2 bebd 8a54 b83b 1a9d 5a3e 80d5 90be
00000140: 308b 213a db75 9abc 939b 59be 7045 af3e
00000150: 3f02 8f3e 6836 443e ec0b 93bd 0a5e 74bd
00000160: 3ad3 ebbd c2dd 46bf 451e b93a 57e8 63be
00000170: 91c0 993c 91dc 10bf 55ac 45be e14f 243e
00000180: 104a 08bf acb7 9cbe 1115 183f 36eb 303d
00000190: 1ae4 8ebe a9ec 99be 0f22 1cbf 7f85 523e
000001a0: 3c7a 2c3c 700c 30be cb3c 6fbe 8519 773e
000001b0: 0652 aa3e 3b94 d4be 53d4 013f 69d9 acbe
000001c0: a098 6bbb 8488 143e 488d 8bbe 3c80 d93d
000001d0: 047d ba3e b722 463e d2ca acbe 2e44 cb3c
000001e0: c74f bdbe 2626 69be 6b44 c6bc 76b9 1a3f
000001f0: 7259 6dbd 63f2 8cbe e271 adbd ad0b 74be
00000200: ca2b acbe 7a65 0a3d c1f4 7d3d 3715 15bd
00000210: 6580 dfbc 2011 0abf 30a7 123e ccc9 76be
00000220: f01c c33e e1b0 403e e93b eb3e e37c a03e
00000230: 041a 223d e32d 62bd 957c b8bd f6e9 c83e
00000240: cabb 01be 9458 8fbe 7ef5 713e 10d9 97bd
00000250: bfad adbe b914 09be 41cf 903f e3e4 e03e
00000260: b3ab 5d3d bc6d 7dbe 3ea4 ac3e 728d b03e
00000270: 0f2b 3dbe 6414 1abe 66d0 563e 191e 4f3e
00000280: 27ec aebe 49e1 f5bd 88d9 f0bd e47b 71bd
00000290: 24b3 d33e 0a4c 00bd 4936 ca3e a7d7 443d
000002a0: d4b4 d9be 9be2 5a3f 2301 bebe d512 a5be
000002b0: 0d89 23bf c1f0 cbbc 8097 003e 6b66 56be
000002c0: c308 0b3f 2826 1abc 2935 e23e 307e dc3e
000002d0: 004f b33e a98d a6bd b698 e83d 5ab4 a4bd
000002e0: ee06 9dbe 3ebb 4e3e 4e37 553d 23fa d13e
000002f0: 40b5 9f3d 89cf e2be c1ad dfbe 43d4 2b3e
00000300: 7924 33bf 2b97 1b3e 35f7 0e3f cb38 473e
00000310: 2168 a73e 5d13 2cbd 4b48 e1be 8ec3 93be
00000320: 8316 5d3e 08e3 46be 8c86 4fbe 4b35 c2be
00000330: 0ee2 49be da84 a1be 66e9 8dbd 96c7 813e
00000340: 472c a6be f468 09bd a3d0 eebe bf40 2c3d
00000350: 5b1f f23d 5c99 2c3e b9d0 203f 1624 bdbe
00000360: a43f 073e a997 423d 6c05 acbe 4d62 ee3e
00000370: 3756 763e 48b6 adbe 8ab4 213e 6ebb 4c3e
00000380: fa5a 043e 6a83 39be 6c51 bfbe 129a e63e
00000390: bed6 033f fa76 5dbe 6d40 3f3d 9ead 82be
000003a0: 325d f83e 85f9 5abe a414 d53d e5ae 093f
000003b0: 2947 d1be 2c0e 903e 405c a63e 2187 483c
000003c0: 81c7 59be 4143 f0be aac5 9fbe 2299 39be
000003d0: 63ac 12bf abf7 b6be 3e9d 3e3e de00 883e
000003e0: a6ce 09be 303c 07bf a242 91be 63fe 263f
000003f0: 4922 96be 79a4 01bf fa71 afbe 60bb bf3e
-0.35443315 0.26932582 -0.71431607 -0.9828426 0.33531827 -0.26403907 -0.43069732 0.5055166
0.603859 -0.14978738 -0.46992072 -0.27834034 0.10074655 0.1996412 0.09585192 -0.14127533
0.6835491 0.33734575 -0.0851567 -0.41508496 0.18419155 0.4172375 0.011273032 -0.45821765
0.4237113 -0.15306798 0.3160481 -0.29404694 -0.8101497 0.26949754 0.08367906 -0.31907016
0.17582685 -0.009090291 -0.1480885 -0.041981857 -0.08294964 0.56260365 -0.29747224 0.40968052
-0.1864662 0.1767474 -0.20808995 0.44145772 0.35380688 -0.35650942 0.03732717 -0.30215675
0.13337559 0.21724829 0.16186254 0.061896313 0.12268453 0.41283134 -0.18442096 -0.32939836
0.54196733 -0.0785155 0.009950472 0.27754682 -0.44864374 0.15627679 0.3772339 0.5246927
0.2950415 0.14453536 -0.098373786 -0.25054246 -0.08988673 -0.3469051 0.40370536 0.42891222
-0.23248348 0.09728912 -0.6342415 0.23303759 -0.0931141 0.005625312 0.21348992 -0.28287888
0.0006162403 -0.018855026 -0.21250753 0.34232664 0.279314 0.1916138 -0.07180008 -0.059659995
-0.11514898 -0.77682126 0.0014123401 -0.222566 0.01876858 -0.5658656 -0.1930402 0.16046096
-0.5323801 -0.3060888 0.59407145 0.043193065 -0.27908403 -0.3006337 -0.6098947 0.20558737
0.01052719 -0.17192245 -0.23363034 0.24130829 0.33265704 -0.4151934 0.50714606 -0.3375962
-0.0035949126 0.14505202 -0.27256227 0.10620162 0.36423504 0.1934918 -0.3374849 0.024812784
-0.36974928 -0.22768459 -0.024202546 0.6043924 -0.05794663 -0.27528676 -0.08468987 -0.23832579
-0.33627158 0.03378818 0.062000994 -0.036397185 -0.027282903 -0.5393238 0.1432159 -0.24100417
0.38108015 0.18817474 0.45944145 0.3134528 0.03957559 -0.055219542 -0.09008137 0.39240998
-0.12669292 -0.27997267 0.23628804 -0.07414448 -0.3392162 -0.13386811 1.1313249 0.43924627
0.054118823 -0.24748892 0.33719057 0.34482914 -0.18473457 -0.15046841 0.20977935 0.20226325
-0.34164545 -0.1200586 -0.11760241 -0.058956042 0.4134761 -0.031322517 0.3949454 0.048057225
-0.42520773 0.8550202 -0.37110242 -0.3224093 -0.63881 -0.024895074 0.12557793 -0.20937507
0.54310244 -0.009408511 0.44181183 0.43065023 0.3502121 -0.08132488 0.11357252 -0.08042212
-0.3066935 0.20188615 0.052054696 0.41011152 0.077982426 -0.44298962 -0.4368725 0.1678019
-0.6997753 0.15194385 0.5584596 0.19455259 0.32696632 -0.042010654 -0.44000468 -0.28860134
0.21590619 -0.19422543 -0.2026617 -0.37931284 -0.1971514 -0.3154667 -0.06929283 0.25347584
-0.32455656 -0.033547357 -0.46643552 0.042053934 0.11822387 0.16855377 0.62818485 -0.36941594
0.1320787 0.047507916 -0.33597887 0.46559373 0.24056326 -0.33928132 0.15791526 0.19993374
0.1292533 -0.18116537 -0.37366807 0.4503942 0.51499546 -0.21627417 0.0466923 -0.25523084
0.48508602 -0.21384247 0.104043275 0.5378249 -0.40874603 0.28135812 0.32492256 0.0122392485
-0.21267511 -0.4692631 -0.31205493 -0.18124822 -0.5729429 -0.3573583 0.1861467 0.26563162
-0.13457736 -0.52826214 -0.2837115 0.65231913 -0.29323032 -0.5064159 -0.34266645 0.37447643

network_body.linear_encoder.seq_layers.0.bias f4 [128]
00000000: 2829 f83a 7656 0bbb 8e03 e8b8 e5b7 8fba
00000010: f208 adb9 3ec3 7e3a 62ca 893a 1cb3 6eba
00000020: e41b 7439 76c2 c439 8679 983a b978 2d3a
00000030: 3352 37bb 6cda e8ba 7e23 7eba 6551 863a
00000040: e6a8 a4b7 8953 a4ba dcdf 76b2 7279 5db9
00000050: 9813 9139 9668 39ba 60fc 31bb 3742 0eba
00000060: c95f 20b8 ae5f 213a 8695 713a ffac aca9
00000070: 8653 43b9 6d8f 03b7 e0da 0c2e 00f5 4b3a
00000080: ae3a 313a 94dd 342f ef3d 83b9 5f9b 23a9
00000090: ea1a 29ba dc4d 8c37 d755 37ba ffca 90b9
000000a0: 5441 5cb6 2c70 ffb9 d8eb 2e3a f84a a239
000000b0: 72ad 5d3a a5ec 303a e318 ccb8 6adc c5b7
000000c0: ae6e a7b9 863b a0b7 742f 1139 076e 7a39
000000d0: 8c6d d4ba 9055 03b9 152b bcba e956 34ba
000000e0: faba 4539 2f67 c439 5dda 313b 2e4c 4fba
000000f0: d925 6839 033a c4b9 293c 5939 1029 8839
00000100: 9216 17ba f126 d3b9 e729 553a 3d33 ab39
00000110: 4da0 8433 e155 c8b7 f1bc 18b9 4fef bf3a
00000120: d970 4fba 1a30 7f39 a34e 1fba ff1f efb9
00000130: 5e45 6c3a 4eb5 91b9 e8fd 1637 3d39 45ba
00000140: 6e0e afb9 70df 7cba 361d 8b3a d56d 2338
00000150: 2a67 dfb9 975e 68b9 77bb 4fbb 4acd b938
00000160: 70e1 dc2c a632 4c38 247b 11b8 1c37 9239
00000170: c8ba 8aba f46e 5aba d5ee 6d39 2f9a afba
00000180: c16d 8438 bac9 d9b9 b9e9 b63a c7a1 12b7
00000190: 978e 673b 258a c83a 689c ccb8 dc96 e3b9
000001a0: a1f8 3f26 62cc 463a c34d e439 1193 d4b9
000001b0: ae73 12ba ba42 a2ba 8864 24ba 3a2e 683b
000001c0: 2b7e 3db0 d35c 5d38 4f66 b8b9 7137 6cb9
000001d0: 098f 563a 48c3 5739 b265 b93a 11a4 83bb
000001e0: 90c5 ce3a 285c 2bba a34c 07ba d698 2bba
000001f0: 5b95 80b9 e120 5337 f7ad bbba b700 90b9
0.0018933164 -0.0021261252 -0.00011063284 -0.0010964839 -0.00033003796 0.00097184244 0.0010512585 -0.0009105669
0.00023280043 0.00037528918 0.0011632896 0.00066174153 -0.0027972579 -0.001776529 -0.000969462 0.0010247646
-1.9628973e-05 -0.0012537102 -1.4369984e-08 -0.00021121444 0.00027671154 -0.00070727745 -0.0027158484 -0.0005426737
-3.823618e-05 0.000615592 0.0009215701 -7.6683444e-14 -0.00018627764 -7.841602e-06 3.2026715e-11 0.00077803433
0.0006760758 1.6449625e-10 -0.0002503241 -3.6328034e-14 -0.0006450849 1.6725557e-05 -0.0006993687 -0.00027617064
-3.282058e-06 -0.00048720965 0.00066727167 0.00030954904 0.00084563263 0.000674913 -9.7321135e-05 -2.3586868e-05
-0.00031935185 -1.9101204e-05 0.00013845955 0.00023882846 -0.0016206964 -0.00012525008 -0.0014356101 -0.00068794057
0.00018857038 0.0003746091 0.0027138211 -0.0007907775 0.00022139343 -0.00037427255 0.00020717144 0.00025970535
-0.0005763556 -0.0004027407 0.0008131549 0.00032653837 6.1758875e-08 -2.3881848e-05 -0.00014566236 0.0014643463
-0.0007913239 0.00024336614 -0.00060770864 -0.0004560947 0.0009013022 -0.00027791638 8.999814e-06 -0.0007523483
-0.00033389352 -0.0009646332 0.0010613564 3.8964517e-05 -0.00042610738 -0.00022160482 -0.003169743 8.8597255e-05
6.2778047e-12 4.868456e-05 -3.4685378e-05 0.0002788835 -0.001058423 -0.00083325733 0.00022691053 -0.0013397391
6.314694e-05 -0.00041539763 0.0013955153 -8.739945e-06 0.0035332793 0.0015299959 -9.756611e-05 -0.00043409213
6.660339e-16 0.0007583556 0.00043545486 -0.00040545364 -0.00055866956 -0.0012379505 -0.0006271084 0.0035427944
-6.8937095e-10 5.2776955e-05 -0.0003517144 -0.00022527367 0.0008184766 0.00020576746 0.0014144687 -0.004017361
0.0015775431 -0.00065368647 -0.0005161261 -0.00065459067 -0.0002452534 1.2584235e-05 -0.0014318813 -0.00027466353

network_body.linear_encoder.seq_layers.2.weight f4 [128, 128]
00000000: f382 f83b 2b93 08bd a7e8 c7bb dceb 753d
00000010: 9175 1cbd 2a01 653c 7798 41be 2bea d63c
00000020: 49aa e2bd b1c5 0f3e 202c 68bd 4182 e4bc
00000030: 2c8c 2e3d 9fc4 d53b 0582 01bd 8a20 073e
00000040: 3b4f 61bc eb93 d4bd dbc1 b13d 2fc6 6abd
00000050: 0f1e 8abc 5739 693d 0d4b 2cbd 7fe5 ac3c
00000060: 3fa0 743d 7613 3a3e 0196 683d 2ad1 e9bd
00000070: e1a4 3f3d 377d 923b ca97 2bbc 5643 87bb
00000080: 6163 26bb c1da 973d d5bf 833d 888b 26bc
00000090: 4b14 9fbc 447c 6a3d 51ca 033d 4370 f2bd
000000a0: aca2 04bc 42f3 babc 9057 2bbd a892 fe3d
000000b0: b3f8 ca3c e111 203c 2135 e3bc 34dc f1bd
000000c0: e6b5 2cbd a3ce 6dbd 892e fabd b1fe 83be
000000d0: d9c8 70bd 4ccd aabd 2627 4f3c f356 c63d
000000e0: 039b 753d 4eac 7dbd 9886 ac3d 8d16 523e
000000f0: 7c17 0f3d 4858 0c3d a386 9a3d 8ce5 1dbe
00000100: 3384 adbd a7a3 7cbd 5e2e 97ba fcb3 863d
00000110: 6e32 a43c e5ea 983d 5326 2a3c 87d6 89bc
00000120: a2e4 15bd ac6d 0e3c 3a04 04bd 7271 773d
00000130: 8913 403d e49e dc3d 1c81 4abe 1652 93bc
00000140: bdac 7f3d fa58 633e e1f0 16bd f2d5 fe3d
00000150: 6273 31be 787d 813d 3bc0 9bbd 98d6 b23c
00000160: b300 56bd a214 00be 821d 053e 12ef 6bbd
00000170: e6ae bdbd fade 82bc 6eaa bfbd 15ec 5cbd
00000180: 478f d8bd 5371 033e 7e18 9d3d 3ccd 023d
00000190: 24d4 763e 5fce 49bd 2a69 47bd 1bf9 39bd
000001a0: 4166 ba3d 7bf1 d5bd 3d0b ab3d 9a30 323e
000001b0: fa2a c43d 7015 2a3e 0953 13be cf67 58bd
000001c0: 8740 9c3d 867a b3bd 827e 26be 60ea e83d
000001d0: db2c 533d a84b 8dbd 0740 4a3d a908 80bd
000001e0: 273f 55bc b7a8 973d 9056 09bc 01df b03d
000001f0: 5dcd 6b3d eeb3 80be cfcb cebb e077 2e3d
00000200: c78c 1b3e 3bd4 b63d 3e12 debb 37f8 3f3d
00000210: 213b 4cbc dbc2 88bd 4df2 3f3d ff87 8a3d
00000220: b85f 0a3e 2fe1 373c 7ed2 043e 2e95 a43d
00000230: 0383 413e 04be 4d3d a522 e03c 1ef3 4dbd
00000240: b079 ff3c 3b4c 1ebd 43e5 a03a 47a6 4e3e
00000250: 55cf 5dbd 37ad 45be a1f6 d73c ba5d aebd
00000260: 42aa 473d f1b6 3ebd 94d8 0abd 0843 5abd
00000270: 3a80 123d 48dc 363d 30dd d2bc 37ca 023e
00000280: 923c 41b9 e87d 93bd e20e e53d a5bd 7a3d
00000290: acc5 fc38 bac3 993d d75e 8ebd ee48 c2bd
000002a0: b7b5 30bd bb77 dabd 9021 81bd fa88 173e
000002b0: 2dc4 2cbd 0eeb 33be a249 2bbd c7aa e03d
000002c0: fdda fb3c 93c2 8d3c 4bfe b8bd 6ea9 323e
000002d0: 11d0 40bd d4d1 1b3d 5950 683d 6776 e5bc
000002e0: 6a00 03bd 4e28 0dbe 493a 503e e3a5 0e3e
000002f0: 1394 febd 6005 01bb 9f5e f4bd 2970 4abe
00000300: 374d b2bd 1916 693d c64f b8b9 63f5 d23a
00000310: 7f07 5d3d 0139 223d cc37 1c3d 046e 8d3d
00000320: 539c 0bbe 7455 8a3c e98f e73c c59f 15bd
00000330: 9586 f3bd cd75 b03d 8548 a4bd cf08 30bb
00000340: 4087 16bc 23e5 283c d1f5 08be 9be4 cd3c
00000350: a4ae bcbd 84be c53c c4e2 6bbd 394f 5cbd
00000360: 1a65 bcbd cc36 5abc 1148 3dba 5efa 48bd
00000370: 36d2 2c3d 97bc 223e 7b1c 22be 38d9 90bd
00000380: cdb7 d5bd 5a6f 9a3c 01e9 f93b 2e1d 24bb
00000390: e2ab 2fbe a6e7 d13d 751d 923d 32fe a8bd
000003a0: e067 e1bd 99af 30bc 69e9 b03d 266f f9bc
000003b0: 403b dd3c 3036 933d 5964 5cbd f709 51bd
000003c0: 2a9c c3bd 861a 91bd 3c6d 5bbd a270 863d
000003d0: 7074 0a3e 52fe f4bd 6819 873d a410 9cbd
000003e0: 5bc2 133c 830a 6ebc 238f 8d3c f9ca 5cbd
000003f0: 1d73 293e ae37 db3d 5f22 543d e4be 42bd
0.0075839697 -0.033343475 -0.0061007324 0.060039386 -0.038198058 0.013977328 -0.18905817 0.026234707
-0.110676356 0.14040257 -0.056682706 -0.027894141 0.042614147 0.006523683 -0.031618137 0.13196006
-0.0137518 -0.103797756 0.08679553 -0.05731791 -0.016860036 0.05693945 -0.04206376 0.021105526
0.059723135 0.18171486 0.05678368 -0.11416848 0.0467881 0.004470493 -0.010473201 -0.0041279
-0.0025388824 0.07414771 0.064330734 -0.010165103 -0.019418856 0.057247415 0.032175366 -0.118378185
-0.008095425 -0.022821072 -0.041831553 0.12430316 0.024776792 0.009769888 -0.027735295 -0.118095785
-0.04216566 -0.058058392 -0.12215907 -0.25780252 -0.058785293 -0.083399385 0.012643611 0.09684553
0.059962284 -0.0619319 0.08424109 0.20516415 0.034934506 0.03426388 0.07545211 -0.15419596
-0.084724806 -0.06167951 -0.0011534204 0.06577298 0.020043578 0.074666776 0.010385114 -0.016825927
-0.036594994 0.00869314 -0.032230593 0.060410924 0.04689363 0.107724935 -0.19775814 -0.017983478
0.062420595 0.2220191 -0.036850814 0.124431506 -0.17329171 0.063227594 -0.076050244 0.021830842
-0.05224676 -0.12507871 0.12999538 -0.057601042 -0.09261875 -0.015975464 -0.09358679 -0.053936083
-0.10574203 0.12836199 0.07670687 0.031934008 0.24104363 -0.049269076 -0.048684277 -0.04540358
0.09101535 -0.10446449 0.08351753 0.17401353 0.0957851 0.1660974 -0.14387144 -0.052833375
0.07629495 -0.08763604 -0.16259196 0.113728285 0.05155645 -0.06899196 0.049377467 -0.06251652
-0.013015545 0.07405227 -0.0083824545 0.086362846 0.057568897 -0.25137275 -0.006310917 0.04259479
0.15190421 0.089271985 -0.006777077 0.046867575 -0.012465269 -0.06677791 0.046861935 0.067642204
0.13513076 0.011223122 0.12970921 0.08036266 0.18897633 0.05023004 0.02736027 -0.050280683
0.031185955 -0.038646918 0.0012275357 0.20180617 -0.054152805 -0.19304357 0.026362719 -0.08513971
0.048746355 -0.046561185 -0.03389795 -0.053286582 0.035766818 0.04464367 -0.025740236 0.12772451
-0.00018428479 -0.07201749 0.11184479 0.061216015 0.00012053116 0.07508035 -0.06951683 -0.094865665
-0.043142047 -0.10667368 -0.0630523 0.14798346 -0.042179275 -0.17570135 -0.04181827 0.10970073
0.03074407 0.017304694 -0.090328775 0.17447445 -0.047073428 0.038041905 0.05671725 -0.02801056
-0.031982817 -0.13784906 0.20334734 0.13930468 -0.12430587 -0.0019687042 -0.1193211 -0.19769348
-0.08706134 0.05690584 -0.0003515465 0.001609486 0.053962227 0.039605144 0.03813915 0.069057494
-0.13633852 0.01688645 0.028266864 -0.03652932 -0.11890904 0.08616219 -0.080216445 -0.002686072
-0.00918752 0.010308537 -0.13375022 0.025133422 -0.092129976 0.024138696 -0.057589307 -0.05378649
-0.09198971 -0.013318729 -0.00072205166 -0.049066894 0.04219266 0.15892254 -0.15831177 -0.07072681
-0.10435448 0.018851925 0.007626653 -0.0025041807 -0.17155412 0.102492616 0.07134525 -0.08251609
-0.11006141 -0.010784053 0.086382695 -0.030448508 0.027005792 0.0718807 -0.053806636 -0.051034894
-0.0955127 -0.07085137 -0.05357097 0.06564452 0.1352098 -0.1196257 0.06596643 -0.076203614
0.009018506 -0.014528873 0.017280167 -0.053904507 0.16547818 0.107039794 0.05179059 -0.04754533

network_body.linear_encoder.seq_layers.2.bias f4 [128]
00000000: 1320 5cba 2e33 edb9 8cc3 03b8 5cc4 48ba
00000010: 105b edb8 e3fb bbba 32e6 75b9 bb32 30ba
00000020: f4f4 a297 ceaa 94ba bbe1 30b9 0339 a596
00000030: 71a4 88b1 3f58 f92d 35fb 49bb dc70 ac2b
00000040: 80e6 7cb9 5306 4ca0 2721 63b9 bc5a 45b9
00000050: e25d 44b9 a60f 7f37 0bfa 31b9 c42d c3b8
00000060: e036 9db9 31f8 8bb9 0e14 783a ee02 51ba
00000070: e1a4 a3ba 2e82 14b9 934c 0bbb 5571 aeb8
00000080: 62ae a6b8 214f 0ab9 6ce7 0bba 800b 7138
00000090: 0663 6fb9 7811 093a 24f4 74ba 9008 62ba
000000a0: a662 a339 801c 26ba 9d92 58b9 1cc8 e0b9
000000b0: 6ac1 2cba e9eb c739 fe54 adba b35d 8eb9
000000c0: 31a3 eb39 add3 7439 238b a8ba f328 6aba
000000d0: 15d9 3039 47f6 b838 68ea 6ea6 beda aab9
000000e0: d309 36ba 43ea 2bba 468c 0ab9 02c2 51b9
000000f0: 973c 42b8 d115 e2b9 2015 ecb4 9e1e 3cbb
00000100: 8f22 26ba fa5e 6b3a 9fd1 04b9 594d 0f39
00000110: a110 213a 2249 20bb 8433 ca2a b433 6fb9
00000120: 8bf9 01ba c63f f4b9 b7d3 8137 33c5 dca8
00000130: 31bf 52ba be99 13b9 5d82 7fba ecdf e3b8
00000140: 2ff0 adb9 3e0e 0cbb 046a 54ba 7cb7 1eb9
00000150: 062d f937 47b8 003a 7d1d 60ba 6cae 1cba
00000160: fc55 d3b7 02d0 df39 7044 053a aab6 6fba
00000170: 06e0 ac31 4726 0bb8 4dc5 32ba 5105 883a
00000180: d269 bfb8 3946 55ba 7d98 05b9 ae30 c8ba
00000190: 4c89 ebb8 033e 19b9 854a 7cb9 08d6 f739
000001a0: 3f89 cd39 d4e4 1d37 9667 8939 cfcb 86b9
000001b0: 0afd 5d39 ba29 acb8 eeaa 8aa9 b991 b93a
000001c0: 7abd e3b9 47e2 f6ba 1876 9cb8 cf0c 34b8
000001d0: f3db d838 9ee7 07b9 25a5 85ba a476 91ba
000001e0: b37a 86bb b9a8 5f39 91e1 31b9 a6fd 3db9
000001f0: 02d7 bc1c 0540 542b 068c 87b9 c255 13b9
-0.00083971134 -0.00045242294 -3.141495e-05 -0.00076586544 -0.00011318002 -0.0014342036 -0.00023450775 -0.00067214266
-1.0530839e-24 -0.0011342408 -0.00016868759 -2.6693167e-25 -3.9768158e-09 2.8347212e-11 -0.0030819897 1.225266e-12
-0.0002411846 -1.7281565e-19 -0.00021660757 -0.00018821185 -0.0001872699 1.5202828e-05 -0.00016973184 -9.306849e-05
-0.0002998626 -0.00026697063 0.00094634376 -0.0007973154 -0.0012485051 -0.00014162876 -0.0021255359 -8.318076e-05
-7.947978e-05 -0.00013190183 -0.0005336914 5.7469588e-05 -0.00022829705 0.00052287383 -0.0009344241 -0.0008622492
0.00031163282 -0.00063366443 -0.00020653983 -0.00042873702 -0.00065901 0.00038132005 -0.0013224182 -0.00027154162
0.0004494428 0.00023348509 -0.0012858849 -0.00089324935 0.00016865537 8.8196764e-05 -8.2890517e-16 -0.00032587902
-0.0006944213 -0.000655804 -0.00013212961 -0.00020004067 -4.6309633e-05 -0.00043122334 -4.3973796e-07 -0.0028704773
-0.0006337547 0.0008978691 -0.00012666591 0.00013666357 0.00061441405 -0.0024457653 3.5918154e-13 -0.00022812077
-0.0004958144 -0.00046586822 1.5476586e-05 -2.4510428e-14 -0.0008039354 -0.00014076286 -0.00097469037 -0.00010865912
-0.00033176082 -0.0021370794 -0.0008102956 -0.00015136407 2.9704079e-05 0.0004910272 -0.0008549316 -0.00059769186
-2.51932e-05 0.00042688852 0.00050837453 -0.00091443455 5.0313274e-09 -3.317583e-05 -0.0006819561 0.0010377561
-9.1273e-05 -0.0008135769 -0.00012740675 -0.0015273297 -0.00011231247 -0.00014614318 -0.00024060353 0.00047270977
0.00039202903 9.411207e-06 0.00026207854 -0.0002571032 0.00021170467 -8.209371e-05 -6.158083e-14 0.0014157809
-0.00043437985 -0.0018835746 -7.460656e-05 -4.2927273e-05 0.00010340651 -0.00012960887 -0.0010196312 -0.001109798
-0.0041039824 0.00021329791 -0.00016964065 -0.00018118936 1.2496375e-21 7.5406375e-13 -0.00025853532 -0.0001405096

action_model._continuous_distribution.log_sigma f4 [1, 5]
00000000: 26cf 10bb c585 393b be4f c539 e619 bf3b
00000010: bb0d 163a
-0.0022096126 0.0028308493 0.0003763418 0.0058319448 0.0005724092

action_model._continuous_distribution.mu.weight f4 [5, 128]
00000000: 5df0 dc3c f5bb 3bbc 6e23 813b acf2 c23b
00000010: 1607 a5bc 9b5c 4ebb 170f 163c 403b 883b
00000020: 5f98 25bc bf99 943c 1f18 27bc 7f90 8abc
00000030: f447 ecb9 90fb 78bc cff1 38ba 789a 1cbb
00000040: 794e 09bb 8075 d8bb 8e05 d0bc b489 8bbc
00000050: 1f04 a33c a5de 563b a0d0 84bc 50df 29bc
00000060: e5c3 f0ba 5c6c 0dbd a980 043c ce3f be3b
00000070: ce5c 6abc 2199 663c 8476 bdbb f36a 813b
00000080: 364d 943c a686 8f3b 5a9a 91bb 13b4 273d
00000090: 57bc f0bc 4844 363b 293f 423c dbed 75b9
000000a0: 8608 debc e4fc bebc b6f6 e7bc 4315 3cbc
000000b0: 6133 70bb f739 09bc 0c8d bdbc 3d9c 8dbc
000000c0: d38b b93a eef0 17bb a24b a73c 7bf5 dd3b
000000d0: db98 8e3c a8cf ae3c d788 b6bc eb47 8bbc
000000e0: 7c81 5fbc 37c5 9bbb 17f6 adbc 0f56 6fbc
000000f0: 62dd a8bc 79e4 013c affb da3b df0a 933c
00000100: 6959 ecbc 0382 84bc 28cb 9b3c 7965 2a3c
00000110: 55dd 32bc a759 e5bb 6ed5 06bd 4a5d 32bc
00000120: 3256 4e3b 01f0 05bc 0486 623c f8be 0f39
00000130: e919 2b3a 8d08 053d 4b7a 55bc a3ec 963c
00000140: 5eed c0bc 38eb ad3b 3e3e 13bc 2ae2 c13c
00000150: 0d39 f33c 8a16 ca3c 8102 99bb f1c5 67bc
00000160: 01e7 993b fcde 6ebc af09 283c 67d9 f1bb
00000170: 3c1c eabc e9a7 b63c 9f5a 17bc 8ebe a7bb
00000180: 2383 803c 3cbe 813c 8d1d e4bc a7ca fd3b
00000190: 0e26 113d d53a 2d3b 08dd 4dbc caa9 c63b
000001a0: 0153 80bc 4053 dabc efda a1bc 0be9 55bc
000001b0: 6817 16bc 64ef f8bc 319d b33b 3a5f b7bc
000001c0: fe13 973b fbe9 f63b 9d35 fdba ff85 5bbc
000001d0: 2c2c d73a eac2 e8bb ba80 06bc 8871 febb
000001e0: 5bcf 0ebd 8b7d 15bd 52eb f83b a54a 7f3c
000001f0: 9df1 b13c 931a 27bc fa78 16bb dccf a7bc
00000200: de50 77bc b33f 583c e9e1 503c 2303 95bb
00000210: 2be7 ac3c 82ea ed3a feb0 c7bc 006d 063c
00000220: b179 86bb 7fc8 43bc 474d 1cbc 2f84 c83c
00000230: bfdc e4bc 013f 453b aa39 13ba 3acc e5bb
00000240: 2843 403c 1b2a 2e3c 4314 123c 831b a1bb
00000250: a86f 14bb 69e1 09bc ff81 0e3c 4fa8 8ebc
00000260: 029f a9bc e99b 51bb 4168 aa3b c6e3 c43c
00000270: 70e9 98bc 1c3c 153d 4555 52bc 82ee 003d
00000280: d5bf e63a f88d 2d3d ac60 c3bb 201c cd3b
00000290: 4a10 6a3c a0ce 853b dc46 ebbb ccb4 13bd
000002a0: 4b4f d03b a8f8 0fbb 6d88 e9bc 716f 003c
000002b0: 0ca0 91bc a4cf aa3b 9407 3c3b 8096 ce3c
000002c0: 768d 00bd 2a4c 223d d0c3 52bc 606a 7fbc
000002d0: a29c 9d3c 4bc9 023a 0347 7cbb 044f afbc
000002e0: 8d95 75bc 4ee3 453c 4f18 4abc ec69 36bc
000002f0: b679 efbc 25d5 4f3c 1033 963c 86e1 aebb
00000300: 17b0 2e3c f7c2 1dbc d7c1 23bd 581d 033c
00000310: 5a2f 5cbc 9c2b 24bc 9374 4d3c cbc7 703b
00000320: b597 8e3b 8d2c ebbc ac58 833b 02ab 603c
00000330: 2bbd 03bd 2e0b 823c 80f2 e33c bb3c 2cbc
00000340: 2609 943c 008c b23b ac0c 453b a649 b8bc
00000350: 001e 83bc 7039 7e3c c037 dcbb 95da 083b
00000360: 4881 643c 9966 ab3b b83c c0bb c05c 1c3b
00000370: d254 f93b 36c8 17bc 95d9 3f3c 0283 acbc
00000380: e67b 08bd 1be6 583b 31de fe3c 8465 f3ba
00000390: 9e86 563c bd6c 0a3d ee89 043c 78d7 c23c
000003a0: 71ef 273c 00e5 04bd 7a59 593b 6213 9dbb
000003b0: e0bb 38bc 506b ae3a ab81 cfbc dc8d 88bb
000003c0: 8952 42bb b289 f5bc fe8f 65ba 1e18 b1bc
000003d0: 917d 9bbb 5d6f 3a3c 70c1 d3bb 663e 703c
000003e0: 6347 a83a 0f1e 893c a7c7 873c ae0c 9bbc
000003f0: a29f 673c 12d4 653c 140e 9d3c 9aec 4ebc
0.026970083 -0.011458387 0.003940991 0.005949339 -0.02014498 -0.0031488303 0.009158871 0.004157454
-0.010107129 0.018139718 -0.010198622 -0.016914604 -0.00045067037 -0.015196696 -0.0007055075 -0.0023895781
-0.0020951314 -0.006605804 -0.025393274 -0.017033435 0.019899426 0.0032786515 -0.016212761 -0.010368183
-0.0018368928 -0.034527168 0.008087316 0.005805946 -0.014304353 0.014074595 -0.0057819504 0.003949517
0.018103223 0.004380065 -0.004443449 0.040943217 -0.029386682 0.0027811695 0.011855879 -0.00023453629
-0.027103674 -0.023313947 -0.028315883 -0.011479679 -0.0036651718 -0.008375636 -0.023138545 -0.017286414
0.0014156051 -0.0023184377 0.020421807 0.0067736483 0.017406872 0.021339253 -0.022282047 -0.017002067
-0.013641711 -0.0047537345 -0.021235509 -0.01460792 -0.020613376 0.007928007 0.006682835 0.01794952
-0.028851228 -0.016175276 0.01901777 0.0104001695 -0.0109170275 -0.006999213 -0.032918386 -0.0108865
0.0031484482 -0.008174897 0.013825897 0.00013708684 0.0006526993 0.032478858 -0.013029645 0.018423384
-0.023550685 0.0053075813 -0.008987008 0.023667414 0.02969029 0.02466895 -0.004669488 -0.014146314
0.0046967273 -0.014579531 0.010256215 -0.0073806527 -0.028577916 0.022296863 -0.009237914 -0.0051191514
0.01568753 0.015837781 -0.027846122 0.0077451053 0.035436682 0.0026432772 -0.012564905 0.006062721
-0.01566458 -0.026651025 -0.019757716 -0.01305605 -0.009160854 -0.030387588 0.005481385 -0.022384275
0.0046105376 0.007535217 -0.0019318346 -0.013398646 0.0016416362 -0.0071033137 -0.008209402 -0.007764999
-0.03486572 -0.03649668 0.0075964117 0.0155817615 0.021721656 -0.010199207 -0.0022960291 -0.020484857
-0.015094964 0.013198781 0.012749174 -0.004547493 0.021106323 0.0018151554 -0.024376389 0.008204699
-0.004103862 -0.011949657 -0.009539909 0.024477093 -0.027937291 0.0030097368 -0.00056161976 -0.007012871
0.011734761 0.010630156 0.008915964 -0.0049166097 -0.002264956 -0.008415558 0.008697986 -0.01741424
-0.020705704 -0.0031983799 0.0052004163 0.024034392 -0.018666 0.036434278 -0.012837713 0.03147746
0.0017604778 0.04237172 -0.005962452 0.0062594563 0.01428611 0.0040834695 -0.007180078 -0.036061093
0.0063571087 -0.002196828 -0.028507436 0.00783907 -0.017776512 0.005212741 0.002869104 0.025218248
-0.031384908 0.039623417 -0.012864068 -0.015589327 0.019239727 0.00049891014 -0.0038494475 -0.021399982
-0.014989269 0.012078119 -0.012334897 -0.011133652 -0.029232841 0.012685095 0.018334895 -0.005336943
0.0106621 -0.009629003 -0.039979782 0.008002602 -0.013439024 -0.010020163 0.0125400005 0.003674018
0.004351581 -0.028707767 0.0040083732 0.013712646 -0.032162827 0.015874472 0.027825594 -0.010512526
0.018070769 0.005448818 0.0030067367 -0.022496056 -0.016005516 0.015516624 -0.006720513 0.0020882238
0.013946839 0.0052307365 -0.0058666132 0.0023858994 0.0076089883 -0.009264043 0.01170959 -0.021058563
-0.033321284 0.0033096138 0.031111808 -0.0018569683 0.013093619 0.033795107 0.008089526 0.023784384
0.010249958 -0.032444954 0.0033164904 -0.0047935704 -0.011275262 0.0013307128 -0.025330385 -0.0041673016
-0.0029651246 -0.029972885 -0.0008757113 -0.021617945 -0.0047451933 0.01137909 -0.0064622685 0.014663314
0.0012838658 0.016737966 0.016574694 -0.018926945 0.0141371805 0.014027612 0.019171752 -0.012629652

action_model._continuous_distribution.mu.bias f4 [5]
00000000: 4030 2a39 9952 1837 52a1 6238 c1e1 1438
00000010: 1a05 8138
0.00016230438 9.079137e-06 5.403284e-05 3.54962e-05 6.1521496e-05

critic.network_body.linear_encoder.seq_layers.0.weight f4 [128, 9]
00000000: 1c3e acbc 2495 9abd 8d2e 61bd d091 b53d
00000010: fdc3 06be 41ad c8bb 5ced 953d fefc 59be
00000020: bf58 1cbe 2604 bfbb 1955 a43e 2264 dabb
00000030: edf8 fdbd 9614 9c3e 2e60 003f 9229 bbbd
00000040: 8e9f 88be d1e6 9ebb 00ad dcbe 77ce 6e3e
00000050: f188 57bf 31fc 353f 9ed2 1ebf 5687 4fbd
00000060: df08 b73d 9d69 18bf 3d24 cabe d8bb c13e
00000070: c93e 87bf d2e3 1b3b f1bf 9fbd 8995 983d
00000080: ec22 d13e 24b7 563e b691 043e c78d c23e
00000090: cf1f 513f 7561 73be 8e1a 863f c9b8 3dbe
000000a0: f8c9 0fbe fc0f 44be 7946 b2be 152a 7bbe
000000b0: 1246 66bf 387f afbe 30ae a53c 355f 1f3e
000000c0: 198c a7be 0871 f0bd 9897 1f3f a28e 2fbf
000000d0: 6e7d 803e 877c 47be aca6 b53e 3451 e4bc
000000e0: 7bac 853d 32f7 5bbe 054a 123f e113 2dbf
000000f0: 368a d7be a839 d73d 38c7 24be 50ea 513d
00000100: f35c 5bbf 43ee e9be 19e4 57be 3d86 e3bd
00000110: f4ba 81be e077 35be 2ab8 8dbc 685f d6bc
00000120: 82b4 07bf 746c 993d 2103 9dbe 9693 373e
00000130: bbd9 bebe 4354 c7bd 5e55 7f3e b584 f0be
00000140: bdc0 f4be 4639 b5bc dc55 443b 42a1 88be
00000150: fba8 15be e999 abbe 1477 293e 835c 9f3e
00000160: af28 4dbf 2fe7 813e 1340 863e 602f b03d
00000170: f6b8 ab3d 4234 d33e 498a efbe a2d7 093e
00000180: 2f20 08be f362 3e3e 5714 1fbe 0098 31be
00000190: 23b1 1fbf 99ce 36be 137c b43e 9a02 3f3f
000001a0: 6796 3cbe 93b1 e3be 521f 0a3f 3008 593d
000001b0: 9ebe 6ebd 74cb 49bc af1e a4be 62bb 8bbe
000001c0: 464a 053e 14f8 0cbe 7f7d 593e 433d c6bc
000001d0: 83dd 5e3f 2a43 743e cccf cebe accf 793d
000001e0: 72af 1cbd 6d92 8b3e 7600 99be 5da7 b6be
000001f0: a39a 5fbe 548e 9abe c18d 0a3e 8e11 b6bd
00000200: dc82 d9bd d07c 103e 5f6f f1be 3690 edbd
00000210: 00d4 92be b912 81be 64c0 42be 1636 8cbe
00000220: 6967 843e ff6d bc3d e57c 60be 4f09 663e
00000230: bc24 2fbc f12d 01be e79d afbe 1145 a7bd
00000240: 70b7 83be b1e2 63bd cd48 683e c71c 04be
00000250: 96e4 55bc 38ca 0cbf 7092 523e 62a4 803e
00000260: b6d6 c0bd 673f 9fbd 5b27 2abe 28d4 b6be
00000270: 4499 b03e 2d37 023d 76a1 cabe a4f5 b63e
00000280: f4e5 cc3e 7336 b1be 293b 933e 2ee8 d6bd
00000290: ed14 943c e7d0 143e 40f7 febd 1497 ee3e
000002a0: c1d5 e6ba 1de4 1e3e 3370 ae3e 541f 373e
000002b0: 20c3 523f 32d5 8b3e 1430 77be 0ae4 65be
000002c0: bc7b ad3e 2602 cbbe 7d5d 893e 3f80 cc3e
000002d0: 5f79 dfbe 8c63 12bd d357 91bd 603d fd3d
000002e0: 2d27 57bd 9a2c 6d3e 896c 0d3f 9dd6 213d
000002f0: 23c6 953e 3890 e43e d8d8 173e 852d 88bd
00000300: 7eca 40be 1d19 34be 7ef0 fa3e 9435 f43e
00000310: 66dd 623e bc32 013f 97a7 ebbb 3c03 943e
00000320: 07e1 db3e 8043 ddbe 6916 1cbe 179f e9bd
00000330: 508a 69bf 635a d13d 5abf 783d e81e 77be
00000340: 3384 213f 745c 6f3e 5e64 f33d e0b5 433e
00000350: 726b 81be af02 403f 9b85 823f b74c 90be
00000360: 62f0 d03e 0d0d 0abf 5970 00bf a274 b63d
00000370: 492e ae3c bc1b 2fbe f58a ce3d 55ea 47be
00000380: bb21 813e 838e d03e e23e 73bc 7fc7 df3e
00000390: 4d0f c0be 0a90 c7bd fdc8 14bf 3445 1fbc
000003a0: f33a 91be c99f 84be 6741 ba3d 263b dbbe
000003b0: 0088 053f 9a9c a73e 00da 013e c753 afbe
000003c0: 2c34 24bf 4f2b 123e c4c9 c9bd cd60 223e
000003d0: 0822 83bd e2f3 9ebe f974 2f3e 599f 983e
000003e0: 74a8 9d3e 4d37 4c3c ec68 e1bd 3586 263e
000003f0: 110f 033e 5ac0 bfbe febe 173f 6603 123f
-0.02102571 -0.075479776 -0.054976035 0.08865702 -0.13160701 -0.006124169 0.07320663 -0.21287915
-0.15268229 -0.005829352 0.32096174 -0.006664769 -0.124009944 0.30484456 0.5014676 -0.09138788
-0.2668423 -0.004849293 -0.4310074 0.23320948 -0.8419333 0.7108794 -0.62040126 -0.050666176
0.08937239 -0.59536153 -0.39480773 0.37838626 -1.0566036 0.0023786915 -0.07800282 0.074503966
0.40846956 0.209683 0.1294621 0.37998793 0.8168916 -0.23767646 1.0476854 -0.18527521
-0.14041889 -0.19146723 -0.3481939 -0.24527772 -0.8995067 -0.34276748 0.02022466 0.15563662
-0.32724074 -0.11740309 0.6234069 -0.68577015 0.25095695 -0.19481097 0.35478723 -0.027870752
0.06527039 -0.21481016 0.57144195 -0.6760846 -0.42097634 0.10509044 -0.16091621 0.05124885
-0.85688704 -0.45689592 -0.21083106 -0.11109588 -0.25337946 -0.1772151 -0.01729973 -0.02616854
-0.5300981 0.07491389 -0.3066645 0.17927393 -0.3727549 -0.097328685 0.24934909 -0.46976247
-0.47803298 -0.022122037 0.0029958403 -0.2668553 -0.14615242 -0.33515862 0.16549331 0.31125268
-0.80140203 0.25371692 0.2622076 0.08602786 0.08384888 0.41250807 -0.4678519 0.13461164
-0.13293527 0.18592434 -0.15535103 -0.1734314 -0.62379664 -0.17852248 0.3525091 0.74613345
-0.18416749 -0.44471416 0.5395404 0.052986324 -0.058287255 -0.012316573 -0.3205466 -0.272914
0.13016614 -0.1376651 0.21239279 -0.024199134 0.8705675 0.23853746 -0.4039291 0.060989067
-0.038253255 0.27260152 -0.29883164 -0.35674563 -0.21836333 -0.30186713 0.13530637 -0.08890067
-0.106206626 0.14110112 -0.47155282 -0.11599772 -0.28677368 -0.25209597 -0.19018704 -0.27385014
0.25860146 0.092006676 -0.21922643 0.22464488 -0.0106899105 -0.12615182 -0.34300157 -0.0816747
-0.2572589 -0.05563611 0.22684021 -0.12901603 -0.013054987 -0.5499606 0.20563674 0.25125414
-0.09415953 -0.07775765 -0.16616575 -0.35708737 0.34491932 0.0317909 -0.3957631 0.35734284
0.4001919 -0.34611854 0.28756073 -0.104935035 0.018076384 0.14532815 -0.12449503 0.46599638
-0.0017611311 0.15516706 0.34069976 0.17883044 0.8232899 0.27311093 -0.24139434 -0.22450271
0.33883464 -0.39650077 0.26829138 0.39941594 -0.43647286 -0.035739467 -0.07096829 0.12365222
-0.052527595 0.23161545 0.55243737 0.03951131 0.2925273 0.4464128 0.14828813 -0.06649307
-0.18827245 -0.17587705 0.49011606 0.47697127 0.2215477 0.5046804 -0.007191609 0.28908718
0.4294512 -0.4321556 -0.15242924 -0.11407297 -0.91226673 0.10222318 0.060729362 -0.24132884
0.63092345 0.23375112 0.11884378 0.19112349 -0.25277287 0.75004095 1.0197023 -0.2818353
0.40808398 -0.53926164 -0.5017143 0.08908965 0.021262305 -0.17100424 0.10085098 -0.19522984
0.25221047 0.40733728 -0.014846535 0.4370689 -0.37511674 -0.0974427 -0.58119184 -0.009721089
-0.28365287 -0.25903156 0.09094506 -0.42818564 0.52160645 0.32736665 0.12680817 -0.34243605
-0.6414211 0.14274333 -0.09852937 0.15857239 -0.06402975 -0.31045443 0.17134465 0.29809073
0.30792582 0.012464357 -0.110063404 0.16262133 0.12798716 -0.3745144 0.59275806 0.57036436

critic.network_body.linear_encoder.seq_layers.0.bias f4 [128]
00000000: 5c60 43bb 640d 1b3a 2ee7 7aba 1545 10ba
00000010: 6c04 04bb e0b6 d0aa 7edc 563b 200d 203a
00000020: 723a 48ba 8062 86ba 0b78 86b9 2fb6 093b
00000030: 98cf 7a3a 705d 1eb9 f804 f6ba c69e 2039
00000040: 8a53 28ba b861 60b9 30e5 9dba efdf 42bb
00000050: 6498 11ba da73 fc38 e877 138b c0c9 2939
00000060: 5b43 2cbb 4a16 5ebb d3a6 65ac 6f4b cbb7
00000070: 40f1 4736 d734 0537 d379 393a 2211 c4b9
00000080: f1c4 95b9 a597 72b9 b40d 1dbb f5a0 32ba
00000090: 552f 32b9 a0e1 123b 0c72 f738 b56b 353a
000000a0: 16b7 4c39 be31 9db9 e4cb 13b9 455c 3db9
000000b0: dde6 03bb 0617 6cb9 0625 a139 02b4 af3a
000000c0: 38eb 0fac 91cd 35ba 79a5 55ba 7ada 16ba
000000d0: 99d1 8a39 5675 a3ba 191e 323a 7b0b 03ac
000000e0: 9cae 0b3b 6c3c 92ba 85ad 00ba 0f16 283a
000000f0: a851 c03a 8a98 07bb 3f24 8339 cc75 a4b9
00000100: 702d 56b9 d942 443b 4688 54bb c1e6 843a
00000110: 79d8 94b9 a170 5abb 7625 00b8 3375 b7ba
00000120: 44ad 2bb8 a30e 1839 d861 bfbb 1362 273a
00000130: 7d14 8338 79ba 83ba 2230 a3ba d336 edb9
00000140: aac4 2ca4 c02b 1e39 c502 f139 d621 60b9
00000150: b93b 49ba 1675 26bb 2252 3239 b4ab 2e37
00000160: 88a7 b8b9 81f9 aab8 a60d ebb9 137e 843b
00000170: ea5f 1e3a 45b1 39ba 4712 103a 8759 d4ba
00000180: 3f9a d4b9 d19f 1a3b 40d5 9eb8 ec99 2338
00000190: e2fe 19ba 5706 05bb d2d8 7bbb 2221 17ba
000001a0: be54 9f38 cb97 9539 fe56 c0a9 f64c 7bb9
000001b0: 5cd9 98ba 432f 97ba fbec c8ba e012 df3a
000001c0: 5c3e 8c26 a5e5 62ba c614 ab3b f920 3fba
000001d0: 3c02 ce3a 4146 09bb ad31 86b9 ac68 ef38
000001e0: 10a6 083b a624 7dbb dc31 d3ba 77e9 b3ba
000001f0: 1e02 a7ba bcc8 54ba 0f64 d938 d0b2 89b9
-0.0029812073 0.0005914776 -0.00095711916 -0.0005503458 -0.0020144237 -3.7075117e-13 0.0032785232 0.00061054714
-0.00076381036 -0.0010252744 -0.0002564791 0.002101313 0.0009567677 -0.00015102862 -0.0018769791 0.00015317937
-0.00064211397 -0.00021398708 -0.0012046453 -0.0029735526 -0.0005554019 0.000120378754 -2.8401378e-32 0.00016192254
-0.0026285264 -0.0033887797 -3.2635463e-12 -2.4234612e-05 2.9793737e-06 7.9397205e-06 0.0007075343 -0.00037396798
-0.00028566227 -0.0002313541 -0.0023964467 -0.00068141456 -0.00016993035 0.0022412315 0.00011799121 0.00069206516
0.00019523161 -0.00029982434 -0.00014094968 -0.00018058818 -0.002012662 -0.00022515291 0.00030735898 0.0013405087
-2.0452095e-12 -0.0006935234 -0.00081499625 -0.00057546014 0.00026477574 -0.0012470882 0.0006794646 -1.8622593e-12
0.0021313792 -0.0011156923 -0.0004908669 0.00064119784 0.0014672773 -0.0020690286 0.00025013273 -0.00031368283
-0.00020425557 0.002994707 -0.0032429858 0.0010139571 -0.00028390044 -0.0033331292 -3.0552466e-05 -0.001399672
-4.0930943e-05 0.00014501302 -0.0058405213 0.00063851586 6.250383e-05 -0.001005008 -0.0012450258 -0.0004524501
-3.7463136e-17 0.00015084352 0.00045969166 -0.0002137491 -0.0007676441 -0.0025399379 0.00017006 1.0411186e-05
-0.00035220035 -8.1527054e-05 -0.00044832862 0.0040433495 0.0006041514 -0.0007083605 0.00054958876 -0.0016200998
-0.00040550713 0.0023593793 -7.573748e-05 3.900558e-05 -0.00058744673 -0.0020297968 -0.0038428796 -0.000576513
7.597495e-05 0.0002853259 -8.5416036e-14 -0.00023965896 -0.0011661458 -0.0011534471 -0.0015329415 0.0017019175
9.731354e-16 -0.00086554355 0.0052209822 -0.0007290985 0.0015717219 -0.0020946416 -0.00025595483 0.00011415905
0.0020850934 -0.003862658 -0.0016112882 -0.0013726194 -0.001274172 -0.000811707 0.00010366004 -0.00026263902

critic.network_body.linear_encoder.seq_layers.2.weight f4 [128, 128]
00000000: 2f62 f93b 498d 9e3d 67f5 2ebe 8bb8 c13d
00000010: a1d7 493e e51f 6a3d 5490 893d ebd9 dabc
00000020: c1d8 933d 857a a73b 7775 353e 8d2c 233b
00000030: 4d2a 2a3d 452d d1bc c86b edbc e773 033d
00000040: 007d 93bc 2b72 e73c be18 09bd 1c84 55be
00000050: 69f2 9a3d 63af 9b3d e407 6dbe 0be5 17be
00000060: 822e 05bd f0e9 26bc 4e7a 70be 0d04 3a3d
00000070: a587 b0bd e3ab 56bc cddd 0a3d d3d9 b93d
00000080: f37e f8bc 8a58 223d 24fc 3e3d 5e31 bc3c
00000090: 108e fc3c 0845 1dbd 95ad c63c 6d07 533d
000000a0: 78c3 a43d dec6 1b3d 6d18 0c3d 11f3 a1bc
000000b0: ab91 d9ba 98bb e9bd bb8d 633d 29f3 4e3c
000000c0: a253 2cbe c158 b1bd a66d 093e 1277 913d
000000d0: 27d0 fc3d f95c 5c3e 6115 9b3b c86d 123d
000000e0: 220f b93d 527e 2dbd 046c 9f3b b4e2 c6bc
000000f0: df1c 06be 2bcf a23d 8850 8abd 8fc0 c23d
00000100: 59fd f6bd 3192 e7bc bac8 23bd d560 3fbd
00000110: 9dad c6bd c410 b8bb 9be5 a7bc 637a c63d
00000120: 5905 7e3c 3dd1 49bd 2ba6 263e e374 493d
00000130: fd58 253e e6e1 593d ae67 53be f679 abbd
00000140: 8704 6ebd cc94 5d3d f628 a43d 52a4 5fbd
00000150: 33ab 1ebe 06fc 693c 2891 35b9 4177 133e
00000160: 9821 50be 6d9f e23d f4e2 05bb e39a fa3a
00000170: e94e f33d b436 343d 7768 143d b562 0cbd
00000180: c9b6 70bd 9d48 e4bd e4c7 21be 1cca c93b
00000190: 5e68 113d 1143 3b3d 7ac1 c3bd 3914 1c3d
000001a0: b7af 1e3d 6ccf 51bd f8ac d8bc f334 94bd
000001b0: e3ac 0abe b518 00be 05ae 0d3c 36ab a3bd
000001c0: 3b0b 24bd 2a71 0abe 27bc 853d 57b3 d8bd
000001d0: b946 20bd fd43 733d 17fe 273e 42fc aa3c
000001e0: e030 83bd 237b 743c a790 0ebd bfcd 14bd
000001f0: 0c45 873d d8db 873d 47bb 353e a7c7 ed3c
00000200: 8467 8cbd 08ac b33c fe6f 393d bfd7 b93d
00000210: 5734 c5ba 4c96 25be eba5 d4bc 5357 cdbd
00000220: def5 163e 5910 7b3d 42fa 1a3e d170 9cbd
00000230: 6b7c 94bd 3993 ba3c 7896 cc3d 98da 9ebb
00000240: 1dff 083d ecae 1abe dd7d b23d c53d a43d
00000250: 6d25 45bd 2488 15bd 9174 a13d 132d f93c
00000260: e3e2 863e 4419 27be 5550 983c 87d4 413b
00000270: 2690 7cbc 0bee 8f3c 8ca3 11be 82ba 41bd
00000280: 5ac0 e3bd 3b5a 983c b37c ccbb e1f3 ed3d
00000290: f444 9c3d ef57 c8bd 4969 02bd ae4c eb3b
000002a0: e78d 1dbd 95b9 3c3d 48ef 853d 05bc 90bd
000002b0: a477 84bd 06f0 1bbd 7c7a 25be b94f 563e
000002c0: f60b 8cbc 6bba 4b3c 2981 93bc b797 b33c
000002d0: 1f83 a23d 5f40 64bd 07f9 e2bd c40f 42bc
000002e0: 4dc3 e9bd adbe 203e 68e2 91bd 5b34 6d3d
000002f0: afd5 993c 5e97 3abc 2be1 4c3e 0d1e c8bd
00000300: 3bf5 003d 5ce4 303e 252d 4fbd 7b65 cf3d
00000310: dac8 143e 1fcb 07be fc2d 0bbc 21ea c23d
00000320: 073d b9bd 312a babd 6d2e 28bd 2c43 30bd
00000330: 71a8 f9bc 2bbe 13bd 6193 4e3d b0e7 b0bd
00000340: 4414 a0bc 889e b5bd 089e a13d 526c 0abd
00000350: a6e5 3bbb e1c0 19bd 416c 9f3d fa75 f1bd
00000360: b63e afbb 8e2c f7bc f165 22be 68a9 aa3d
00000370: 7e9d 213e 8d4e 643d 07f8 053d 3e15 b93c
00000380: 6889 8f3c 4f47 0abc 0ac3 82bd 2bcf 093d
00000390: 98a3 0cbe 0485 3dbd dd56 d1ba edd1 7e3d
000003a0: 39ff ab3d 100d 023d ee31 08be 54ba 293c
000003b0: 42b9 e43c 81e4 9f3d 51dd 89bc 1386 b23c
000003c0: a706 71bd 1cdc 36be 4e13 ebbd e612 d0bd
000003d0: 7d1d 76bc e1d1 8d3c 0c75 d9bd 767e c2bc
000003e0: 5d56 183e e7eb c63c 35ce 52bc 56f4 7d3d
000003f0: 078f 90bd 4078 6c3d d6e9 47bb 1b00 d03d
0.0076105813 0.07741792 -0.17085801 0.09459027 0.19711162 0.057159323 0.067169815 -0.02671524
0.07219077 0.005111041 0.1772059 0.002489838 0.041544247 -0.025534282 -0.028982058 0.032092955
-0.01800394 0.028252682 -0.03347086 -0.20851177 0.07565767 0.07601812 -0.23147541 -0.14833467
-0.032515056 -0.010187611 -0.23484156 0.04541402 -0.08619622 -0.013102504 0.033902932 0.0907475
-0.030333972 0.03963522 0.04662718 0.022972759 0.03082946 -0.03839591 0.024252692 0.051520754
0.08045095 0.03803145 0.03420298 -0.019769223 -0.0016599199 -0.11412734 0.055555087 0.012631216
-0.16828778 -0.086595066 0.13420734 0.07102789 0.123443894 0.21519841 0.004732773 0.035749227
0.090360895 -0.042356797 0.0048651714 -0.024278022 -0.13096951 0.079496704 -0.06753641 0.09509384
-0.12060041 -0.028267952 -0.03998635 -0.046723206 -0.09701083 -0.005617233 -0.020495227 0.09691312
0.015504205 -0.04927181 0.16274326 0.049183737 0.16147228 0.05319395 -0.2064502 -0.083728716
-0.058109786 0.054096982 0.08015625 -0.054600067 -0.15494995 0.0142812785 -0.0001731558 0.1440096
-0.20325315 0.11065564 -0.0020429464 0.0019119646 0.11880285 0.04399748 0.036232438 -0.03427382
-0.058768068 -0.111466624 -0.15798908 0.0061581265 0.035499923 0.045718256 -0.09558387 0.038105223
0.038741793 -0.051223204 -0.026449665 -0.07236662 -0.13542514 -0.12509425 0.0086474465 -0.0799164
-0.040049773 -0.13519731 0.06530028 -0.10581081 -0.039129946 0.05939101 0.16405521 0.020872239
-0.064058065 0.014921936 -0.03480592 -0.036329027 0.066049665 0.06633729 0.17747222 0.029025866
-0.068556815 0.021932617 0.04527282 0.090743534 -0.0015045506 -0.16170615 -0.025958022 -0.100264214
0.14742228 0.061294887 0.15134528 -0.076387055 -0.07250293 0.02277528 0.09989637 -0.0048478357
0.03344642 -0.1510579 0.08715413 0.08019594 -0.048131395 -0.036506787 0.078835614 0.030417
0.26344976 -0.16318232 0.018592993 0.002957614 -0.015415227 0.017569562 -0.14222544 -0.04729701
-0.111206725 0.018597713 -0.0062404512 0.11618782 0.07630339 -0.09782397 -0.03183869 0.007180772
-0.038465407 0.046075422 0.0653978 -0.07067112 -0.06468132 -0.0380707 -0.16160005 0.2092885
-0.017095547 0.012434582 -0.018005924 0.02192293 0.079351656 -0.05572545 -0.110826544 -0.011844579
-0.11414204 0.15697737 -0.07123262 0.05791126 0.01877865 -0.011388628 0.2000777 -0.09771357
0.03148387 0.17274612 -0.050580163 0.10126778 0.14529744 -0.13261078 -0.00849485 0.09517313
-0.09044843 -0.090900786 -0.0410599 -0.04303281 -0.030475827 -0.03607003 0.05043352 -0.08637941
-0.019540913 -0.08868128 0.0789147 -0.03379471 -0.0028670817 -0.03753746 0.0778432 -0.1179008
-0.005348052 -0.030172613 -0.158592 0.08333093 0.15782735 0.055738974 0.03270724 0.022593137
0.017521575 -0.008439853 -0.06384857 0.033644836 -0.13734281 -0.04626943 -0.0015971322 0.06221192
0.08398289 0.03175074 -0.13300297 0.0103593655 0.027920369 0.078072555 -0.016829165 0.021792447
-0.058844235 -0.17857403 -0.114782915 -0.101598546 -0.015021679 0.017311992 -0.10618028 -0.023741942
0.14876695 0.024282409 -0.012866546 0.062000595 -0.0705853 0.057731867 -0.0030504367 0.1015627

critic.network_body.linear_encoder.seq_layers.2.bias f4 [128]
00000000: 18ed 1e39 b543 4f2e b5a8 dbba 8576 82ba
00000010: 1cab 10b9 80a9 8e39 a790 2e3a 4299 3e39
00000020: 39b5 11b9 37a8 673a c445 16ba 9501 31b9
00000030: dbf4 93b7 0feb 8db7 d6a5 3339 6552 99ba
00000040: 7028 abb8 298a dab9 1de2 0abb 86e4 92b9
00000050: 8565 abb9 71a7 00b9 fdf7 6c39 ed26 b0ba
00000060: e75e 1cba ea67 80ba 70f7 9438 9c7e 17ba
00000070: b3fe f5ba 1aac 31b9 cc8e e9ba d3c3 3bbb
00000080: 1338 2c3a de46 12b9 a555 1c9d 5a88 2db9
00000090: 7ff5 bab7 516d e7a3 1d90 19b9 46f3 9ab9
000000a0: 5e30 1cb9 a6e3 efba 1cf5 143a 4df2 11b9
000000b0: 6b11 1639 e231 00b2 8f2a 07bb 155e 8d38
000000c0: 8acb 0039 3eea f8b9 221c 44ba be2f 2238
000000d0: eddf e1b9 d0ee ccba 0ff8 d738 bf4f 603a
000000e0: f93c 1b3a 349c b8ba 7382 313b ff69 28b9
000000f0: 8573 82b9 428b 10b9 ec4a fe38 eefe b5ba
00000100: ca1e d6b9 ba42 1abb 6efd fc38 90c5 33b7
00000110: 0ac5 18b9 9b79 12bb 73e2 8b38 08b6 ccb5
00000120: 5f7d cbba 63dd 0cba 24c7 c6ba 0165 5db9
00000130: a184 63b9 95cb b6b9 eaa5 92ba bd88 ba38
00000140: ef9b cc39 ac5d b237 2ab6 da38 4c6d be38
00000150: 00be c138 faa7 2a3b 4856 3ab9 1ad0 ffb1
00000160: ad31 bfb8 772e c1ba 65c3 e3b9 9e83 9bb9
00000170: 57b7 85ba f1a4 2939 02cc a2ba fd9a 5fb8
00000180: 3810 9bb9 468c 0139 9f01 c8b8 c351 b9bb
00000190: 7daf 5a39 f626 20b9 91c7 10b9 9d40 b238
000001a0: 6412 902d 87c2 d838 7bfe b7ba 8977 a6ba
000001b0: 47b7 e838 cd48 aa38 8314 04bb 19ee 00bb
000001c0: 69db 9dba 5238 75b9 980e acae a043 3d3a
000001d0: 7d4c 07b9 4d99 0639 dcf7 e4b9 6ad3 c0b8
000001e0: 4ad9 60b9 e73b 33b9 7ec2 2eb9 5f71 10b9
000001f0: 40ee 45b9 9aa8 04bb 4e83 77b9 a3d9 10b9
0.00015156379 4.7126487e-11 -0.0016758653 -0.0009953534 -0.00013796653 0.00027210638 0.0006659128 0.00018176905
-0.00013895788 0.00088370166 -0.0005732442 -0.00016880625 -1.7637785e-05 -1.6917968e-05 0.00017132549 -0.0011697529
-8.1614475e-05 -0.00041683138 -0.0021191903 -0.00028017553 -0.000326913 -0.00012269408 0.00022599097 -0.0013439335
-0.0005965069 -0.0009796594 7.103279e-05 -0.0005779059 -0.0018767923 -0.00016944148 -0.0017819046 -0.0028650656
0.0006569635 -0.00013950045 -2.0690705e-21 -0.0001654936 -2.2287246e-05 -2.5091367e-17 -0.00014644903 -0.00029554422
-0.00014895338 -0.0018302097 0.0005682276 -0.00013918542 0.00014311603 -7.461923e-09 -0.0020624732 6.740928e-05
0.00012282855 -0.0004747677 -0.0007480999 3.8668273e-05 -0.00043082182 -0.0015635137 0.000102982034 0.0008556805
0.00059218664 -0.0014084638 0.002708581 -0.00016061215 -0.000248816 -0.00013784788 0.00012125619 -0.0013885179
-0.000408402 -0.0023538307 0.00012063501 -1.071523e-05 -0.00014569252 -0.0022350315 6.670216e-05 -1.5252162e-06
-0.0015525034 -0.00053735654 -0.001516555 -0.0002111383 -0.00021697815 -0.00034865426 -0.0011188362 8.8946406e-05
0.00039026092 2.1262873e-05 0.00010428981 9.080264e-05 9.2383474e-05 0.0026040063 -0.00017770485 -7.445135e-09
-9.1168426e-05 -0.0014738579 -0.00043442394 -0.00029661966 -0.0010201734 0.00016178541 -0.0012420418 -5.3311687e-05
-0.00029575988 0.00012354655 -9.537045e-05 -0.0056554987 0.00020855475 -0.00015273303 -0.00013807254 8.4997366e-05
1.6379072e-11 0.00010335916 -0.0014037633 -0.0012700419 0.0001109676 8.119792e-05 -0.0020153827 -0.0019673167
-0.0012043539 -0.00023386002 -7.824247e-11 0.0007219855 -0.00012903097 0.00012836345 -0.00043672218 -9.1946524e-05
-0.00021443251 -0.00017093086 -0.00016666387 -0.00013775144 -0.00018876139 -0.0020242096 -0.0002360467 -0.00013813986

critic.value_heads.value_heads.extrinsic.weight f4 [1, 128]
00000000: 1720 96bc d276 5e3c 313f f9bd 9ae5 3bbe
00000010: a514 4c3c 3701 06be ea6d 11bd 3c78 53be
00000020: f52f 303e 0089 c3bc bc88 193e 74f4 103d
00000030: f512 01bd f84a 22be 88ba 20be 92c4 2d3d
00000040: c793 123d 0ff2 433d 31ca eebd eb8f d33d
00000050: db4b 3e3e b184 2abe df7d b03d 4074 e6bd
00000060: e08c 503c 2f09 313c 6ca5 dc3d 6af2 a83d
00000070: f3fc 923d 41c0 023d f1eb 5ebd 0869 b33d
00000080: e691 bd3c 743b 1b3e 44a7 e13d 2854 233d
00000090: ba6d 5c3e f408 453e 8890 0f3e bfa6 4b3e
000000a0: 4a18 1f3e 6354 d13c a882 f4bd be8a 233e
000000b0: e994 28be f857 03bd 073d 573e c345 bbbd
000000c0: cc46 28be fb82 d33d 42df 603b 74df 283e
000000d0: 43a7 cfbd 6259 313e f63b f9bd 6124 39be
000000e0: c13e 04be 0732 93bc 8a93 8a3d f3f4 15be
000000f0: aeba 393c 87ee 4a3e a9be 08be c274 583e
00000100: 4e82 d1bd 2b58 dd3d 93d7 fbbd 59a2 6fbd
00000110: fced b73d 96e8 2abe 5e07 f5bd 8564 2bbe
00000120: b0a3 0a3e ede7 103e 14e6 0dbe 1109 c8bd
00000130: c121 7b3c 3b9f 2fbe 7489 05be 4c88 4bbe
00000140: 6a59 313d af40 393e 22fd 2cbe 50ca fcbc
00000150: 04ba 89bc 071d 8fbd bb63 da3d 4a5b dabd
00000160: 0292 863d 287b f93d be87 1ebe f6fe b0bd
00000170: 7bb5 253e b39e b2bd a9ac ce3d 5720 26be
00000180: 55fc 38be 3c69 32be 43d8 a0bd 36af debd
00000190: d69c 21be c092 1f3e 248a 3e3e 5188 c0bc
000001a0: 6a05 2f3e a176 65bd f277 563e f4bc de3d
000001b0: a6d9 51be 7c20 00bd a235 15be 8d43 3c3e
000001c0: 51bf 293e 3ecc 203e 3a2a 1d3e b23c 58be
000001d0: b656 01be dea3 59bd e0a5 d63d bc95 233e
000001e0: f810 453e 988a 133d 0503 453e 6f4b 4f3e
000001f0: 3182 b13c 7548 8bbd 4283 44be 9f92 3d3e
-0.018325849 0.013578134 -0.12170256 -0.18349305 0.012456094 -0.13086401 -0.035505213 -0.20651335
0.17205794 -0.023869038 0.14993566 0.03538938 -0.03151222 -0.15848911 -0.15696156 0.042423792
0.035785463 0.047838267 -0.11659659 0.103301845 0.18583624 -0.1665218 0.08617758 -0.11252642
0.0127289 0.010805412 0.10773739 0.08249362 0.071771525 0.03192163 -0.05442423 0.087602675
0.023140859 0.15159398 0.110182315 0.03987518 0.21526232 0.19241697 0.14019978 0.19887827
0.1553661 0.025552934 -0.11938983 0.15970895 -0.16463055 -0.032066315 0.21019374 -0.09144165
-0.16433257 0.10327717 0.003431276 0.1649149 -0.101393245 0.17319253 -0.1216964 -0.18080284
-0.12914564 -0.01796819 0.06766422 -0.14644222 0.011336012 0.19817553 -0.13353981 0.2113829
-0.10229932 0.10807832 -0.12296977 -0.058504436 0.08980939 -0.16690287 -0.11964296 -0.16737564
0.13539004 0.14150973 -0.13857299 -0.09767354 0.015327872 -0.17150585 -0.13040715 -0.19876212
0.043298163 0.18091081 -0.16893438 -0.030858189 -0.016812332 -0.069879584 0.10663553 -0.10661943
0.065708175 0.12181693 -0.15481469 -0.0864238 0.1618251 -0.08721676 0.10091526 -0.16223274
-0.18065007 -0.17422956 -0.07853749 -0.108732626 -0.15782484 0.15583324 0.18607384 -0.0235025
0.17091909 -0.056021336 0.20944193 0.10875884 -0.20493183 -0.03128098 -0.1457124 0.18385144
0.16576888 0.15702912 0.1534814 -0.21116903 -0.12630734 -0.05313479 0.10480857 0.15975088
0.19244754 0.036020845 0.19239433 0.2024362 0.021668525 -0.068009295 -0.19190696 0.18512963
