Unity - Crypto Ball/results/ScoreGoal0/My Behavior/My Behavior-16365.onnx (onnx, 75988 bytes, 7 tensors)

action_model._continuous_distribution.log_sigma f4 [1, 5]
0.003816077 0.0040034507 0.002414059 0.004296138 0.001905063
00000000: 2617 7a3b 612f 833b 3035 1e3b 9ec6 8c3b
00000010: 4fb3 f93a

action_model._continuous_distribution.mu.bias f4 [5]
3.2042506e-05 6.4118605e-05 -0.00014376195 -2.8387416e-05 7.789431e-05
00000000: 6165 0638 6a77 8638 cebe 16b9 8321 eeb7
00000010: 305b a338

action_model._continuous_distribution.mu.weight f4 [5, 128]
0.011031235 0.020827902 0.0041057672 -0.011654341 -0.013936385 0.014853214 6.0536113e-05 -0.013798701
-0.023717739 0.0024457644 -0.01853064 0.020041546 -0.0034329921 -0.005196947 -0.042733476 -0.02738933
-0.00082710275 -0.04344104 0.016385902 0.0082437545 -0.013747217 0.008389797 -0.0014841503 -0.007008348
-0.039692916 -0.020135181 0.004419981 0.016453538 0.015734395 0.011430323 -0.011058072 0.014080662
-0.023999501 0.019061515 0.007948445 -0.002776054 -0.028923199 0.012559822 0.012094111 -0.019881625
0.0077316994 0.01848476 0.015003748 0.018412767 -0.04800522 0.026427673 -0.009587601 -0.0013534586
-0.027759364 0.0027903924 0.016246505 -0.031327236 -0.013355372 -0.022483578 0.00026926788 0.0016321455
0.014875084 -0.005488909 0.022656111 0.00035777045 -0.00039562047 -0.008391135 0.02206588 0.010582746
0.019531397 0.0021931115 0.014281768 -0.0155039355 0.010345882 -0.018118959 -0.0017328251 0.0052747843
-0.0047373297 -0.007089775 0.0018142136 -0.015445994 -0.0164727 0.021620842 0.0073687923 0.011484952
-0.040702682 0.022844477 -0.011880557 -0.0128738275 0.02524977 0.009770473 -0.032636326 -0.0042238478
0.03136109 0.009570285 0.00027483073 0.025735548 -0.0075877486 -0.013930505 -0.0036277983 0.006394794
0.02213757 -0.013618011 0.013436508 -0.0038290517 -0.022452326 -0.011586139 0.0014947472 -0.006774522
-0.006046941 -0.013366209 -0.0064003333 0.0023245104 0.011218307 0.0018174266 0.018468684 -0.009010302
0.0076056723 -0.011846989 0.046082035 0.00010410267 0.002777477 -0.011267058 0.02373946 0.031749867
0.010315181 0.0042594816 0.0008995759 0.018792992 0.00506895 0.002030034 0.01051889 0.00078721717
-0.003722031 0.016986754 -0.010611345 0.0070185624 0.012255618 -0.012776282 0.0022376783 -0.010738138
-0.017785946 -0.016260086 0.011098288 -0.029173965 0.010209142 -0.015740799 -0.00038393904 0.0007744788
-0.01390284 0.008216019 0.015437574 0.024756657 -0.01743119 -0.015036112 -0.0020973312 0.0013422542
0.020593448 0.013499156 -0.010089545 0.0141032655 -0.0036355527 -0.0037747272 0.020948447 -0.0070199715
-0.008694411 0.0031226322 -0.018029273 0.006429994 0.05398382 0.007506357 -0.02163157 -0.018686429
0.050662573 -0.003596758 0.038400106 -0.024655852 0.009803964 0.027327215 0.017714309 -0.022316137
-0.020821607 0.025923831 0.014315448 0.004400731 -0.010517124 -0.0025657536 -0.007353011 -0.017826969
0.005958336 -0.03735596 -0.022713859 1.740082e-05 -0.006914673 -0.005280543 0.015769668 0.020675568
-0.02106836 -0.0058328267 0.016639091 -0.008725618 0.0187206 -0.0016112897 0.0040223203 -0.007240513
0.010411526 0.00073280814 0.0066800513 0.013061386 0.03976766 -0.021048874 0.01655419 -0.0023084867
-0.010061178 -0.010909803 -0.010195066 0.022085078 -0.003069307 -0.01034665 -0.0046920837 -0.021317327
0.006908669 -0.0045856247 -0.01892636 0.016186086 -0.013875625 0.011123767 -0.022721162 0.024051601
0.010981144 0.012282352 0.0049164305 -0.007216417 0.0011462196 0.009429153 -0.0048658387 -0.004733761
-0.014378927 0.012701755 0.022515433 0.014736938 -0.023814125 0.00067624403 -0.01401599 0.024821673
-0.009344721 0.023388462 0.011157926 0.0060912115 -0.043127332 -0.026448281 0.03211056 -0.025975853
-0.018420378 0.017613152 0.01846296 -0.006361591 -0.014534381 0.03300683 0.0016280562 -0.009885146
00000000: 5abc 343c 479f aa3c ac89 863b d9f1 3ebc
00000010: 6f55 64bc e55a 733c 28e8 7d38 f213 62bc
00000020: b44b c2bc 1e49 203b 92cd 97bc 2b2e a43c
00000030: 0dfc 60bb 274b aabb 4c09 2fbd 975f e0bc
00000040: edd1 58ba 3bef 31bd ba3b 863c d010 073c
00000050: 023c 61bc 5c75 093c d287 c2ba 49a6 e5bb
00000060: 0a95 22bd 89f2 a4bc 7dd5 903b 92c9 863c
00000070: 6be5 803c 4046 3b3c ea2c 35bc 94b2 663c
00000080: 9a9a c4bc e526 9c3c 323a 023c 75ee 35bb
00000090: 58f0 ecbc b6c7 4d3c 6126 463c cade a2bc
000000a0: 325a fd3b 5a6d 973c 48d2 753c 5fd6 963c
000000b0: 1fa1 44bd d97e d83c 5015 1dbc 8966 b1ba
000000c0: 9b67 e3bc 04df 363b 6417 853c fd50 00bd
000000d0: 7dd0 5abc 7b2f b8bc 862c 8d39 b7ed d53a
000000e0: a0b6 733c 4edc b3bb 4f99 b93c 2393 bb39
000000f0: 486b cfb9 f97a 09bc 81c3 b43c 4163 2d3c
00000100: 4f00 a03c 4eba 0f3b 14fe 693c 3804 7ebc
00000110: c681 293c 366e 94bc f61f e3ba 19d8 ac3b
00000120: 9a3b 9bbb 5851 e8bb e8ca ed3a 3211 7dbc
00000130: c1f1 86bc 311e b13c e975 f13b 612b 3c3c
00000140: dbb7 26bd 5724 bb3c aba6 42bc bfec 52bc
00000150: 9bd8 ce3c 5614 203c abad 05bd 3468 8abb
00000160: 7c74 003d afcc 1c3c 2817 9039 5bd3 d23c
00000170: a6a2 f8bb c63c 64bc 5bc0 6dbb 6c8b d13b
00000180: d959 b53c 141e 5fbc cd24 5c3c d4f0 7abb
00000190: f1ed b7bc cad3 3dbc 65eb c33a cffc ddbb
000001a0: 6b25 c6bb f2fd 5abc e3b9 d1bb d056 183b
000001b0: fdcc 373c b836 ee3a a34b 973c f29f 13bc
000001c0: 0139 f93b e019 42bc 84c0 3c3d b251 da38
000001d0: 5506 363b 7799 38bc 4279 c23c 260c 023d
000001e0: 0101 293c 1f93 8b3b 84d1 6b3a c3f3 993c
000001f0: 6f19 a63b 520a 053b 6c57 2c3c 405d 4e3a
00000200: 51ed 73bb ce27 8b3c 35db 2dbc f8fb e53b
00000210: cacb 483c 9c53 51bc 03a6 123b 04ef 2fbc
00000220: d5b3 91bc df33 85bc 98d5 353c 3dfe eebc
00000230: 3f44 273c d9f2 80bc 6d4b c9b9 6406 4b3a
00000240: bdc8 63bc 7b9c 063c e1ed 7c3c 79ce ca3c
00000250: dbcb 8ebc 065a 76bc 6173 09bb 94ee af3a
00000260: 97b3 a83c 902b 5d3c 9e4e 25bc 6211 673c
00000270: 7442 6ebb 6a61 77bb 149c ab3c ca07 e6bb
00000280: 0173 0ebc 13a5 4c3b 20b2 93bc b3b2 d23b
00000290: 231e 5d3d e3f7 f53b b134 b1bc 4814 99bc
000002a0: 8f83 4f3d 96b7 6bbb 6e49 1d3d 12fb c9bc
000002b0: cea0 203c 53dd df3c 991d 913c 55d0 b6bc
000002c0: 1392 aabc 375e d43c 578b 6a3c 0234 903b
000002d0: 0450 2cbc 3426 28bb 87f1 f0bb dd09 92bc
000002e0: 253e c33b 9002 19bd 6a12 babc faf7 9137
000002f0: 7b94 e2bb 6808 adbb 642f 813c cf5f a93c
00000300: 8e97 acbc 4c21 bfbb b44e 883c e5f5 0ebc
00000310: f25b 993c e931 d3ba abcd 833b d341 edbb
00000320: 1b95 2a3c ec19 403a 55e4 da3b 6cff 553c
00000330: 6ae3 223d b06e acbc a79c 873c fb49 17bb
00000340: a4d7 24bc 08bf 32bc 3509 27bc c4eb b43c
00000350: 6d26 49bb ff84 29bc 0dc0 99bb ada1 aebc
00000360: 1e62 e23b 0243 96bb 740b 9bbc af98 843c
00000370: 9756 63bc 7640 363c bb21 babc dd07 c53c
00000380: 42ea 333c eb3b 493c 021a a13b b277 ecbb
00000390: bf3c 963a bc7c 1a3c 9d71 9fbb aa1d 9bbb
000003a0: 9795 6bbc 061b 503c 4972 b83c 3373 713c
000003b0: d715 c3bc f845 313a 53a3 65bc d256 cb3c
000003c0: 9a1a 19bc 2999 bf3c bccf 363c c998 c73b
000003d0: 49a6 30bd 11aa d8bc 5d86 033d 50cb d4bc
000003e0: 55e6 96bc 7549 903c a23f 973c e574 d0bb
000003f0: 9d21 6ebc 2b32 073d 8064 d53a 4ff5 21bc

network_body.linear_encoder.seq_layers.0.bias f4 [128]
-0.0009108036 0.00034636594 -1.4833277e-11 -2.2933953e-05 -4.4117358e-05 2.4540224e-05 -2.2745547e-26 9.724148e-07
-0.00026409034 -0.00024935632 1.7269248e-17 -9.320902e-07 -0.0026771973 -1.4410756e-09 -0.00017224593 -0.0018094174
0.0003368988 0.00041447312 -3.665614e-05 -2.7877324e-26 -1.05171565e-17 -0.00036928052 -0.00018620226 -6.994673e-05
-0.00010900281 -0.0005165063 5.992626e-07 -7.026152e-15 0.0010152914 2.384806e-05 -0.00015766204 2.525022e-05
-0.00014072229 -6.131424e-05 -0.0001490191 -3.3956505e-17 9.55478e-05 -0.00014443583 -0.0007988616 -4.5766334e-05
-4.59353e-26 -0.00022838058 -7.9820824e-22 7.406388e-27 -0.0008567608 1.3930163e-28 -2.3902205e-05 9.8546044e-23
1.6505248e-05 2.6073508e-11 -1.5845018e-21 -0.0013293964 -0.00015441408 3.8566337e-05 -0.00025153568 0.002727604
-0.00017670382 -0.0005901727 0.00012340091 -0.0028322637 -0.0008630281 -1.2878476e-25 -7.4143994e-05 -0.000101610276
-6.922362e-07 9.678342e-05 -0.00062827626 0.00028063642 0.0019936224 -0.00019487631 9.720884e-05 1.12889875e-14
-0.002270079 -1.8903152e-22 -0.00048481207 -0.001359701 -0.000355824 -0.0007901212 -6.1649225e-05 4.200441e-14
2.2985136e-21 -1.6924327e-32 -0.00047654053 -0.00016276693 -0.00016811008 3.4000197e-05 0.00020538444 -0.000286552
-5.723052e-06 -0.00017759921 -0.00036321176 0.00011506948 -5.8666934e-05 0.00032709894 4.8503565e-17 0.00017690068
-8.442908e-06 0.00011147485 1.269179e-05 -0.00029920373 -0.0006479281 0.00011366534 9.700384e-05 -0.00015869821
0.00056405785 -0.00049676263 0.00012996682 -0.0003360805 3.0494627e-31 0.00013837221 -0.00012425936 -0.00014069761
0.0007763157 2.1316313e-31 -0.0010910031 -8.5292246e-05 0.00025083174 0.00021965751 -0.00016864191 0.0008179252
4.386888e-05 -0.00011758155 -0.000328385 -9.778556e-05 -0.0003567658 -1.2659511e-05 0.00017388309 -7.2621056e-22
00000000: ffc2 6eba 7398 b539 9279 82ad 4a62 c0b7
00000010: a70a 39b8 bbdb cd37 d042 e194 eb83 8235
00000020: 9b75 8ab9 0abc 82b9 dc47 9f23 c034 7ab5
00000030: eb73 2fbb 570f c6b0 ea9c 34b9 f929 edba
00000040: cba1 b039 a44d d939 3bbf 19b8 b50a 0a95
00000050: de01 42a3 fe9b c1b9 4a3f 43b9 5db0 92b8
00000060: 7098 e4b8 2766 07ba 03dd 2035 d024 fda7
00000070: 8713 853a 520d c837 1552 25b9 6fd0 d337
00000080: da8e 13b9 d595 80b8 0342 1cb9 c498 1ca4
00000090: d660 c838 b373 17b9 b26a 51ba 3af5 3fb8
000000a0: e975 6395 7279 6fb9 5f3e 719c d9b2 1214
000000b0: 3e98 60ba f795 3011 9881 c8b7 0c45 ee1a
000000c0: c074 8a37 5258 e52d 7271 ef9c 243f aeba
000000d0: 37ea 21b9 4ac2 2138 8ce0 83b9 9ac1 323b
000000e0: 9249 39b9 d2b5 1aba 2e65 0139 809d 39bb
000000f0: d63c 62ba 856d 1f96 c17d 9bb8 9a17 d5b8
00000100: 1cd2 39b5 34f8 ca38 e8b2 24ba 6222 9339
00000110: 6fa7 023b b657 4cb9 99dc cb38 445d 4b28
00000120: 9bc5 14bb 6c86 649b 602e feb9 ff37 b2ba
00000130: e48d bab9 2320 4fba ad49 81b8 ca2b 3d29
00000140: b8ab 2d1d 94c0 af8a 30d8 f9b9 6aac 2ab9
00000150: b546 30b9 6f9b 0e38 775c 5739 5c3c 96b9
00000160: a408 c0b6 ed39 3ab9 756d beb9 7551 f138
00000170: 2411 76b8 7a7e ab39 e7ae 5f24 6a7e 3939
00000180: 04a6 0db7 9bc7 e938 d3ee 5437 72de 9cb9
00000190: b8d9 29ba 9d5f ee38 8a6e cb38 3a68 26b9
000001a0: 48dd 133a 2d39 02ba b447 0839 f633 b0b9
000001b0: e4eb c50c 0218 1139 9e4b 02b9 3a88 13b9
000001c0: aa81 4b3a cd59 8a0c fdff 8eba edde b2b8
000001d0: 1182 8339 dd53 6639 78d5 30b9 086a 563a
000001e0: daff 3738 1d96 f6b8 172b acb9 3912 cdb8
000001f0: 4c0c bbb9 3064 54b7 6354 3639 d27b 5b9c

network_body.linear_encoder.seq_layers.0.weight f4 [128, 9]
-0.0166252 0.38800806 -0.25219914 0.4288133 -0.42299312 0.41058505 0.8132442 0.81154007
-0.19034354 -0.06286436 0.6459839 -0.13500652 0.15969524 -0.34566882 0.44248217 0.010867015
-0.2474437 -0.1077318 0.31782675 0.2931191 0.5277093 -0.28957224 -0.18646458 -0.24270827
-0.34866148 -0.11916174 0.047609087 -0.14333667 0.170716 -0.3743086 0.13807349 -0.12160856
-0.16250083 0.044049077 -0.025604412 0.16140318 -0.009000189 0.40118107 0.045309123 -0.3843822
-0.36878213 0.0102015715 -0.069623366 -0.21293093 -0.30203772 0.2086918 -0.49323478 -0.4253993
-0.36368984 -0.15451887 -0.06686389 0.17482498 -0.8402542 -0.011431506 -0.20030451 0.14170022
-0.20234168 -0.21275178 -0.19343208 0.5888536 -0.5751157 -0.17343263 -0.48398885 0.10328817
0.06960642 -0.33471364 -0.5978271 -0.07940916 0.6891924 -0.24370256 0.45783716 -0.39876616
0.6270388 -0.4807214 -0.36637843 -0.23655334 -0.44449505 0.10410118 0.34408808 0.44225788
0.014979599 0.23968998 0.70713055 0.050858784 0.31684175 -0.09664505 0.6635691 0.19202374
-0.44824043 -0.19860059 0.37506318 0.3373991 0.058451362 -0.088035576 0.27056348 0.58958673
-0.34079272 -0.20429882 -0.43865222 0.19196007 0.39606357 -0.39984876 0.13038565 -0.30441645
0.39580417 0.15076366 -0.07618014 -0.048721604 -0.32161358 -0.24500087 -0.27174038 0.05904164
0.34600738 -0.62634355 -0.17981927 -0.05787594 0.16495109 0.0050991355 -0.25497365 -0.3169265
0.10348402 -0.60009265 0.0788273 -0.32951075 0.7626635 -0.098153055 0.22376795 0.2335791
0.46725398 0.0633708 0.4023463 0.07666406 0.38807312 -0.34704405 0.5384455 0.3977322
0.09940093 -0.380295 -0.004970288 -0.19568019 -0.39268658 -0.15172075 -0.049761664 -0.4819111
0.2605178 -0.08111332 0.5214498 0.54193133 0.14103688 -0.07424837 0.040760405 -0.26392198
-0.23231973 0.6005541 -0.04596626 -0.45456824 -0.081410125 -0.35909218 0.027290188 -0.13295807
0.4704181 0.63339925 -0.50562644 0.23551619 -0.3762161 0.0054931496 -0.11429133 0.11160538
0.34346893 0.4072416 -0.52826774 -0.17995214 -0.02957715 0.020810708 0.027089551 0.19790101
-0.14140645 -0.5291629 -0.06394222 0.21426919 0.09869244 -0.021074576 0.02121809 0.14803839
0.13221794 0.021832598 -0.3470765 0.1326275 -0.17123854 -0.08090346 0.31027302 0.2187646
0.057416942 0.22494252 -0.05580381 -0.065766655 -0.7589216 -0.0046190787 -0.73346514 0.35111487
-0.3150823 0.07657766 -0.30855483 -0.31825176 0.33330774 0.1186373 -0.23722672 -0.65279406
0.28145206 -0.7052462 0.23639913 -0.3220218 -0.6050896 0.1246876 0.4963585 0.084437385
0.27906147 0.70069665 0.33072442 0.39582956 0.44386518 0.13885325 0.03442767 0.14314212
0.109861396 -0.17562218 0.6198817 0.47696313 0.20967707 0.3277622 0.037415955 0.41174406
-0.5247102 -0.49213544 -0.09950606 -0.74105346 -0.27161345 -0.32417017 -0.32163662 -0.6710471
-0.2501497 0.4781518 0.1894099 0.38324437 0.5511683 0.74686426 -0.07774238 0.23417561
-0.21089534 -0.5778262 0.09505606 -0.062574066 -0.5157697 0.20844884 0.2298437 0.47167048
00000000: 9231 88bc fea8 c63e 3f20 81be 6b8d db3e
00000010: 8e92 d8be 3438 d23e c630 503f 17c1 4f3f
00000020: 6be9 42be 08bf 80bd 335f 253f 263f 0abe
00000030: 2687 233e 81fb b0be 068d e23e 910b 323c
00000040: e261 7dbe 7da2 dcbd 30ba a23e b513 963e
00000050: f517 073f d042 94be 92f0 3ebe 8488 78be
00000060: c283 b2be 120b f4bd bf01 433d d9c6 12be
00000070: 2dd0 2e3e 60a5 bfbe 2363 0d3e e90d f9bd
00000080: 9e66 26be ce6c 343d 58c0 d1bc e046 253e
00000090: 8775 13bc 9b67 cd3e 0f96 393d becd c4be
000000a0: 03d1 bcbe 7e24 273c b296 8ebd 910a 5abe
000000b0: b0a4 9abe 4eb3 553e 4589 fcbe f0cd d9be
000000c0: 8e35 babe 323a 1ebe efef 88bd 5205 333e
000000d0: e61a 57bf 364b 3bbc a01c 4dbe dd19 113e
000000e0: a832 4fbe 9adb 59be 0f13 46be 1cbf 163f
000000f0: c83a 13bf 5398 31be 63cd f7be c088 d33d
00000100: d08d 8e3d 965f abbe 320b 19bf 45a1 a2bd
00000110: ea6e 303f 2a8d 79be a269 ea3e 142b ccbe
00000120: 9d85 203f 1e21 f6be f495 bbbe 0a3b 72be
00000130: db94 e3be 0033 d53d 502c b03e a06f e23e
00000140: fe6c 753c 4a71 753e 8206 353f 4d51 503d
00000150: 1539 a23e d7ed c5bd aadf 293f dfa1 443e
00000160: c57f e5be f45d 4bbe 4808 c03e 93bf ac3e
00000170: b26a 6f3d ff4b b4bd 4c87 8a3e 28ef 163f
00000180: 627c aebe b633 51be 0697 e0be 2e91 443e
00000190: d8c8 ca3e fab8 ccbe d183 053e 79dc 9bbe
000001a0: d8a6 ca3e ca61 1a3e 5504 9cbd 4e90 47bd
000001b0: 89aa a4be 82e1 7abe 8e21 8bbe a6d5 713d
000001c0: e127 b13e 0d58 20bf 8b22 38be 520f 6dbd
000001d0: f0e8 283e a616 a73b e88b 82be 3144 a2be
000001e0: 6eef d33d ac9f 19bf 3570 a13d a2b5 a8be
000001f0: ea3d 433f 7804 c9bd 6d23 653e 5c2f 6f3e
00000200: ea3b ef3e 8dc8 813d 5600 ce3e 0c02 9d3d
00000210: 85b1 c63e c2af b1be 90d7 093f 8ea3 cb3e
00000220: b792 cb3d 07b6 c2be ccdd a2bb 6360 48be
00000230: 370e c9be af5c 1bbe e3d2 4bbd 0dbd f6be
00000240: 9762 853e be1e a6bd bc7d 053f 03bc 0a3f
00000250: f96b 103e 880f 98bd 62f4 263d c820 87be
00000260: 39e5 6dbe eabd 193f 1e47 3cbd 2bbd e8be
00000270: 5aba a6bd eeda b7be ac8f df3c 2926 08be
00000280: a4da f03e 7426 223f bc70 01bf 282b 713e
00000290: 669f c0be e1ff b33b 9311 eabd 5d91 e43d
000002a0: 29db af3e f981 d03e 8e3c 07bf 6045 38be
000002b0: c74b f2bc 387b aa3c e8ea dd3c 90a6 4a3e
000002c0: dacc 10be 3877 07bf 23f4 82bd 6269 5b3e
000002d0: 431f ca3d 97a4 acbc 8fd1 ad3c 6097 173e
000002e0: 2464 073e 47da b23c 03b4 b1be 81cf 073e
000002f0: 2859 2fbe b7b0 a5bd 1bdc 9e3e d403 603e
00000300: 072e 6b3d 5557 663e 8992 64bd abb0 86bd
00000310: b048 42bf a45b 97bb 5fc4 3bbf 54c5 b33e
00000320: 7852 a1be c0d4 9c3d e6fa 9dbe e5f1 a2be
00000330: 50a7 aa3e 1df8 f23d 90eb 72be 831d 27bf
00000340: 7c1a 903e 048b 34bf 9d12 723e 0be0 a4be
00000350: 27e7 1abf 365c ff3d b422 fe3e 82ed ac3d
00000360: 25e1 8e3e db60 333f b654 a93e 2caa ca3e
00000370: 4c42 e33e 8c2f 0e3e 0704 0d3d d993 123e
00000380: 03ff e03d 4dd6 33be 91b0 1e3f 8334 f43e
00000390: 96b5 563e 72d0 a73e 7941 193d 1ed0 d23e
000003a0: 6853 06bf 2df9 fbbe d5c9 cbbd aeb5 3dbf
000003b0: eb10 8bbe a2f9 a5be 8ead a4be bec9 2bbf
000003c0: 9f13 80be 50d0 f43e abf4 413e 9b38 c43e
000003d0: 5e19 0d3f 7f32 3f3f 6637 9fbd bbcb 6f3e
000003e0: f3f4 57be 6bec 13bf c0ac c23d d526 80bd
000003f0: 7c09 04bf 9d73 553e 265c 6b3e cb7e f13e

network_body.linear_encoder.seq_layers.2.bias f4 [128]
-0.0012088977 -4.2511004e-19 0.00016684964 -0.00020830371 -0.00017690897 -3.5250414e-06 0.0005919426 -1.0291273e-09
-0.0005213502 -0.00013058467 -2.700257e-05 -0.00012666815 -0.0004942849 9.254727e-06 -0.0009028883 0.0013562872
-0.0021706512 -0.000110825174 -6.653146e-05 -0.00027178673 -0.00017846155 0.0017258846 -2.0990626e-06 -0.00014932893
-3.6371177e-06 -0.0006330766 6.7954575e-17 -0.0011507052 0.0001531676 -0.00026053362 -3.929596e-05 -0.00094160315
-9.784777e-05 -1.7627181e-12 7.956271e-05 -0.0016710948 -0.00025773438 -0.00049231906 -0.00057312095 -0.00093460956
1.0224389e-09 -1.2504122e-05 1.1612644e-08 5.4205266e-06 -0.0003676294 -0.0004068966 2.9583417e-12 -0.00055336894
-0.0005854879 -5.419507e-05 -0.0003937565 6.653357e-05 0.00014220082 -0.00033323903 -0.0002261848 -1.1216574e-25
-0.00017868917 -8.88333e-05 -6.564758e-05 -2.6061583e-05 -0.00026543858 -0.00032142288 -0.0021366884 -0.00065157225
4.9482198e-05 -0.00059053965 -4.394529e-05 0.0021584455 -0.0004947211 -0.0010962817 -0.00013214473 1.4153158e-05
-4.5639146e-05 -0.0002600982 3.4030425e-17 7.433069e-06 -0.00050888123 -6.9832495e-05 -0.001587045 -4.9665568e-21
-8.4913074e-05 -0.00045419228 -9.415045e-05 -4.6248e-05 -0.00016258418 -6.2639105e-05 -0.00094136293 -1.2204174e-17
0.0012743546 -0.00085420016 -0.0015926324 0.0002361652 -1.0103878e-05 -0.00011970576 -8.3977175e-05 5.3018193e-06
-0.00017694016 -0.00015776437 0.00075690745 -0.0011176068 1.1645841e-22 0.00046728042 -4.5994893e-05 1.6689241e-19
-0.00033140057 -0.00051835936 -4.523706e-05 1.8349878e-13 -0.00010048669 -0.0021071057 -1.5438312e-24 -6.72666e-05
-0.00027448995 -0.00010670505 0.00014985655 -0.0005689314 -4.346613e-30 -6.0317794e-05 -5.8252226e-06 -3.0290525e-05
-0.0013852629 -0.00025913704 -9.666786e-05 -0.00068667025 -4.0217652e-05 4.3165865e-10 -2.9205048e-13 -0.0003715946
00000000: e073 9eba d0f0 faa0 5cf4 2e39 1a6c 5ab9
00000010: a480 39b9 c08f 6cb6 982c 1b3a 3371 8db0
00000020: 38ab 08ba 8eed 08b9 9483 e2b7 39d2 04b9
00000030: e692 01ba c044 1b37 cfaf 6cba 72c5 b13a
00000040: 7c41 0ebb d06a e8b8 ce86 8bb8 997e 8eb9
00000050: 6821 3bb9 1437 e23a 9fdd 0cb6 2e95 1cb9
00000060: 3515 74b6 0df5 25ba 4db1 9c24 42d3 96ba
00000070: 9d9b 2039 3b98 88b9 b7d1 24b8 ebd5 76ba
00000080: 9f33 cdb8 9d14 f8ab e8da a638 a308 dbba
00000090: 8620 87b9 f90e 01ba 7f3d 16ba 9600 75ba
000000a0: df85 8c30 ccc8 51b7 f380 4732 f8e1 b536
000000b0: 62be c0b9 bd54 d5b9 bf2c 502c f60f 11ba
000000c0: 6e7b 19ba 834f 63b8 1a71 ceb9 f087 8b38
000000d0: be1b 1539 96b6 aeb9 052c 6db9 beda 0a96
000000e0: 825e 3bb9 044c bab8 47ac 89b8 d39e dab7
000000f0: 902a 8bb9 a684 a8b9 af07 0cbb 46ce 2aba
00000100: 1b8b 4f38 72ce 1aba e551 38b8 b574 0d3b
00000110: 2cb0 01ba 1cb1 8fba 5590 0ab9 5a73 6d37
00000120: a96c 3fb8 ca5d 88b9 09f0 1c24 9469 f936
00000130: 7166 05ba 0973 92b8 6504 d0ba 97a1 bb9d
00000140: 5c13 b2b8 a820 eeb9 a372 c5b8 69fa 41b8
00000150: 5c7b 2ab9 1d5d 83b8 ccc5 76ba 9520 61a3
00000160: 3f08 a73a 67ec 5fba e0bf d0ba 1da3 7739
00000170: d383 29b7 8a0a fbb8 e71c b0b8 48e6 b136
00000180: 0389 39b9 8d6d 25b9 336b 463a a97c 92ba
00000190: 22ca 0c1b 51fd f439 a4ea 40b8 2308 4520
000001a0: d5bf adb9 82e2 07ba ecbc 3db8 ec99 4e2a
000001b0: 62bc d2b8 5e17 0abb 74e5 ee97 7b11 8db8
000001c0: 6be9 8fb9 d6c6 dfb8 d022 1d39 5724 15ba
000001d0: cf51 b08e bdfd 7cb8 4876 c3b6 6818 feb7
000001e0: b691 b5ba c9dc 87b9 2aba cab8 a901 34ba
000001f0: 60af 28b8 8e4e ed2f e968 a4aa 95d2 c2b9

network_body.linear_encoder.seq_layers.2.weight f4 [128, 128]
-0.012374199 0.08424661 -0.048326988 0.043630023 -0.08351768 -0.13585004 0.032603502 0.034654807
-0.1727803 -0.0008852882 0.14140777 -0.059703458 0.12936194 0.109019734 -0.018289218 0.03952479
-0.009447562 -0.06925223 0.045612693 0.05909682 -0.016123775 -0.060294714 -0.018107614 -0.11455577
0.016527053 -0.14571543 -0.027363975 -0.060443662 -0.019096525 0.014022552 0.055515364 -0.16268635
-0.037578903 0.17126958 -0.04944728 -0.050617136 -0.09330457 0.052920815 0.0061777965 0.117181495
0.013956954 -0.14795853 -0.1401575 -0.074254856 -0.038609214 0.09053811 0.008692159 0.16433087
-0.07960326 0.093820065 -0.11090214 -0.14463004 0.024176545 -0.08377328 0.06051982 -0.015939275
-0.036696434 -0.009017294 -0.04784425 -0.12954824 0.14731601 0.05641071 0.0034981146 0.024500104
-0.06673526 -0.013341444 -0.0900333 0.15849616 -0.043924216 0.07880023 0.0063814837 -0.05760427
-0.1404603 -0.10222716 -0.10749226 -0.08937965 -0.018144159 0.0418204 0.03362284 -0.12080859
0.04586243 0.011366609 -0.0176344 0.2548729 -0.07069406 0.024966449 0.009723356 0.15095538
-0.052927114 0.032867398 0.020408465 -0.1658955 0.10433699 0.10905936 -0.17724952 -0.065675534
-0.051742364 0.11268903 -0.024154073 0.15323609 -0.08289566 -0.048550833 -0.0035200033 0.07252694
0.03137611 -0.058317352 -0.042658627 0.06979549 -0.017583061 0.09484159 0.08456318 0.034120742
0.10328585 0.118792914 -0.104754135 0.0906556 0.040570978 -0.031089382 -0.03902095 -0.07380141
0.10971679 -0.07570239 -0.025362266 -0.09721878 0.008296365 -0.05238101 -0.063998185 -0.08270344
-0.030808136 -0.0036751193 -0.066229045 0.16569868 0.014348709 0.05401846 -0.13325007 0.15033613
-0.121953644 -0.07629236 -0.02168423 0.06913384 0.11828289 -0.11179928 -0.13649534 -0.101734556
0.108401105 0.13795874 0.024692759 -0.225484 -0.16837548 0.10952414 -0.105012804 -0.082982935
0.059379324 0.024235144 -0.104767464 0.12438528 -0.08433755 -0.0076165753 0.06137326 0.028970605
-0.13182826 -0.0065008076 0.042819876 -0.02310078 0.18251523 0.05702641 -0.08595068 -0.15531765
-0.009593267 -0.044240944 -0.13932687 -0.074178055 -0.035056785 0.10098894 -0.06565512 -0.09062725
0.057371728 0.016733624 -0.031663578 -0.06870566 -0.07519666 -0.06448462 -0.15882543 0.015595567
0.049225416 -0.08037943 -0.0657386 -0.036191583 0.0066157207 -0.037132964 0.18527518 0.00883316
-0.1442351 0.10407516 -0.035527684 -0.008241331 -0.0691932 0.018519538 -0.07591306 -0.16037026
0.022426138 -0.04903832 -0.04829198 -0.043321174 -0.0622869 -0.1370778 -0.06300708 0.030450895
0.03038057 -0.09453909 0.14825189 0.038437515 0.038178265 -0.09587117 -0.21075717 -0.045877956
0.013681237 0.03702846 -0.068118215 0.10618471 -0.04479233 0.07089085 -0.010522628 -0.042921122
-0.06222586 0.0024116323 0.13984245 0.055993494 -0.01711273 -0.05581011 -0.14192928 -0.029165393
0.13096479 -0.00561424 0.080099955 -0.042551965 0.17292768 -0.051168617 0.043726284 -0.0005659135
0.010780756 0.1690056 -0.04336636 -0.033594087 0.095024064 -0.034616627 0.011912401 -0.035985857
0.010238024 0.011711461 0.019209968 -0.017206365 -0.10586019 0.011311651 -0.061987888 0.050088037
00000000: 27bd 4abc 7d89 ac3d 85f2 45bd 65b5 323d
00000010: 510b abbd 461c 0bbe 408b 053d 33f2 0d3d
00000020: 52ed 30be af12 68ba 33cd 103e 9d8b 74bd
00000030: 7577 043e bd45 df3d 45d3 95bc bfe4 213d
00000040: f2c9 1abc 1dd4 8dbd 60d4 3a3d 820f 723d
00000050: 0216 84bc 97f7 76bd 6b56 94bc 379c eabd
00000060: be63 873c 6d36 15be 6a2a e0bc c693 77bd
00000070: 5170 9cbc d9be 653c 1464 633d 4097 26be
00000080: 56ec 19bd 4b61 2f3e 3b89 4abd ea53 4fbd
00000090: 7716 bfbd 7fc3 583d 1d6f ca3b dafc ef3d
000000a0: b5ab 643c 7182 17be 7385 0fbe ee12 98bd
000000b0: b224 1ebd 0b6c b93d 8f69 0e3c 5a46 283e
000000c0: 0907 a3bd bc24 c03d a920 e3bd e619 14be
000000d0: e40d c63c 5391 abbd a1e3 773d 1593 82bc
000000e0: 004f 16bd 46bd 13bc 55f8 43bd 4ba8 04be
000000f0: 02da 163e eb0e 673d a040 653b 71b4 c83c
00000100: 7fac 88bd 1296 5abc 6163 b8bd d14c 223e
00000110: e1e9 33bd 0462 a13d c41b d13b 74f2 6bbd
00000120: d3d4 0fbe 795c d1bd e724 dcbd ae0c b7bd
00000130: 0fa3 94bc de4b 2b3d 1ab8 093d 7e6a f7bd
00000140: 3eda 3b3d 033b 3a3c 0476 90bc b37e 823e
00000150: 0cc8 90bd 7086 cc3c b64e 1f3c 0c94 1a3e
00000160: 1aca 58bd f79f 063d a72f a73c 83e0 29be
00000170: a2ae d53d 845a df3d e680 35be e580 86bd
00000180: cdef 53bd 82c9 e63d c3de c5bc ece9 1c3e
00000190: 33c5 a9bd 3ddd 46bd dbaf 66bb 0189 943d
000001a0: 3c84 003d 2dde 6ebd d0ba 2ebd f0f0 8e3d
000001b0: 5a0a 90bc 4f3c c23d 762f ad3d 31c2 0b3d
000001c0: 8887 d33d b349 f33d 5689 d6bd a5a9 b93d
000001d0: c12d 263d 29af febc 6fd4 1fbd 3225 97bd
000001e0: 32b3 e03d db09 9bbd 87c4 cfbc a41a c7bd
000001f0: 7aed 073c 788d 56bd 7b11 83bd 6c60 a9bd
00000200: 5861 fcbc 45da 70bb 18a3 87bd eaac 293e
00000210: d916 6b3c 7642 5d3d b572 08be b7f1 193e
00000220: d5c2 f9bd 2b3f 9cbd 20a3 b1bc 0b96 8d3d
00000230: 4d3e f23d 05f7 e4bd 6fc5 0bbe 355a d0bd
00000240: 6601 de3d 0e45 0d3e 7848 ca3c 47e5 66be
00000250: 9f6a 2cbe 314e e03d f410 d7bd f5f2 a9bd
00000260: bc37 733d c888 c63c 5390 d6bd b6bd fe3d
00000270: 2ab9 acbd 7794 f9bb 8762 7b3d c353 ed3c
00000280: fdfd 06be ba04 d5bb e563 2f3d d93d bdbc
00000290: 46e5 3a3e 8694 693d e906 b0bd 970b 1fbe
000002a0: 142d 1dbc fe35 35bd b4ab 0ebe aaea 97bd
000002b0: b497 0fbd 4ad3 ce3d 3176 86bd c89a b9bd
000002c0: 9efe 6a3d f414 893c abb1 01bd 8eb5 8cbd
000002d0: b500 9abd 8310 84bd 22a3 22be 8d84 7f3c
000002e0: 97a0 493d f89d a4bd f6a1 86bd a03d 14bd
000002f0: b0c8 d83b bc18 18bd c7b8 3d3e f5b8 103c
00000300: 5eb2 13be 5c25 d53d 7a85 11bd a606 07bc
00000310: 2ab5 8dbd 49b6 973c 4e78 9bbd 1a38 24be
00000320: 05b7 b73c 68dc 48bd d0cd 45bd 8b71 31bd
00000330: 8c20 7fbd 1f5e 0cbe db09 81bd 2874 f93c
00000340: ace0 f83c b69d c1bd 58cf 173e a870 1d3d
00000350: d060 1c3d 1b58 c4bd bad0 57be 86ea 3bbd
00000360: 4427 603c 28ab 173d 9081 8bbd 5f77 d93d
00000370: 2a78 37bd 392f 913d 1a67 2cbc 0fce 2fbd
00000380: 8be0 7ebd 7a0c 1e3b dc32 0f3e 6f59 653d
00000390: ff2f 8cbc 2499 64bd e955 11be 43ec eebc
000003a0: a21b 063e a9f7 b7bb 720b a43d f84a 2ebd
000003b0: f413 313e 2f96 51bd 551a 333d d059 14ba
000003c0: c5a1 303c ce0f 2d3e eda0 31bd f499 09bd
000003d0: fa9b c23d 2aca 0dbd 3b2c 433c e865 13bd
000003e0: 63bd 273c 6de1 3f3c 395e 9d3c 5df4 8cbc
000003f0: 3acd d8bd 8154 393c 03e7 7dbd 1d29 4d3d
