Unity - Crypto Ball/results/ScoreGoal3/My Behavior/My Behavior-11784.pt (torch, 439967 bytes, 36 tensors)

network_body.linear_encoder.seq_layers.0.weight f4 [128, 6]
00000000: aa99 a03e 8a43 dc3e 6f2a 19bf 02ad 42be
00000010: 1a15 bd3e b108 25be 4633 52bf e475 e73c
00000020: f665 9cbe 286f 9cbe a8b4 053d b6f1 733e
00000030: 3b8a 0cbf 022d 0e3e 736b 193f 4270 97be
00000040: cb13 8cbe 1225 6dbd 60cd d8be 891a 343e
00000050: 9de1 013f 7b89 c23e 4938 bfbe 9e2d 03bf
00000060: 1f54 3bbf 65e6 acbe 4385 a43e 1113 0dbe
00000070: d2be 9f3e a07e ecbe aed6 09be 3b50 253e
00000080: 7a34 bd3e 6446 4dbe 5286 fabe 277e 603e
00000090: 2eb8 9cbe 0038 e5bd 433a 653d f175 613e
000000a0: 8dfc 93be 367a cd3e 391a 33bf 8540 97be
000000b0: 1f69 babe bca5 17be c6e9 00bf 23b6 993d
000000c0: 2bb1 9b3e a0a9 fa3d d5e0 d83e bdb9 b6be
000000d0: e948 ebbe 571a 9e3c 3d99 99bd bb9c 78be
000000e0: f7f2 babe 5733 bf3c 7eb0 35be 6525 4e3e
000000f0: c585 893e 8ecb 06bf 19f0 74bd 089a 8d3e
00000100: 6e17 0d3f 41ac 5dbf 6fe3 a73e 60ba 65be
00000110: b9a8 b7be d350 3abe a1e9 84be 50fe 31bf
00000120: 29f2 ee3e 49ab d33d ad55 113f 3983 853c
00000130: 4878 a53e 8362 c23c e6c3 6c3e 71ec bdbe
00000140: 9a1c 96bc 2cde af3e c191 d33e 374f 09bd
00000150: 8b30 0fbe c51a 413f 1333 cd3e 83dd a2be
00000160: 5988 4d3e dd85 4abe b1d8 a83e 627a 8bbe
00000170: 6f4a 6d3e 7b15 f0be 9ba7 2b3e 67b8 a4be
00000180: 7121 9f3d 1469 cbbe f4af c13e 1e59 a13d
00000190: 8539 843e b6b0 c93e b8cb b63d f208 a53c
000001a0: 84ca 8a3e 31e8 41bd cf9c 20bf 2144 703d
000001b0: 5cf1 e03e 4bd8 143e 5ba8 1c3f 78d7 d63e
000001c0: 2884 82be 2e28 99bf 7b46 2c3f 43e6 42be
000001d0: 3fb7 7ebe 599b a73d b884 763d 621b fa3e
000001e0: 836b 573f f0fb 563e 2c17 e23e 36f8 b43e
000001f0: 4ebc b53d f78b ffbd 29fb f13e 5e48 ef3c
00000200: f451 1d3f 7894 65be e804 b03e e438 ef3c
00000210: 3d9f 32be b1da f23d c3f2 153f 9142 473f
00000220: bdb1 183e f8ed 22bf 028a c5be c065 6dbe
00000230: fc00 0f3e f512 e53d c64f 9abe eb6b 6fbe
00000240: e6e4 f2bb 9454 88bc 2518 853e 348e 3b3d
00000250: 4919 1ebe 526f 17bf 24fd 13be 43e0 54be
00000260: f246 5f3e 6319 d43e 736e c83e 8bce 0b3e
00000270: 3449 13be f54f 30bf 10a3 46be 08bb 2abf
00000280: aec9 c53e 4d58 2ebe 902f 82bf 226f 11bf
00000290: 13b0 c93e 3ee1 433e 5d17 94be f514 01be
000002a0: b791 6cbe 1857 fcbe 76fc c93e e421 9fbe
000002b0: 3d37 b9be 273d dbbe 2d77 e3be 7357 063f
000002c0: 80ad df3c ed71 f23e c554 65bf 78bc b53d
000002d0: f521 a1bd ae12 d0be 02d0 10bf 9218 f33d
000002e0: bfeb e0be bdca 9cbe 7ef3 c63e eca0 2ebd
000002f0: 3ebd e2bd 9d80 183e 593a a5be 200c d43d
00000300: d17f 603d 5ff4 213f c2af 353e fd24 ff3c
00000310: 9506 c33e e004 c03e ce65 853e 49be 53be
00000320: b15b da3d 7119 2cbe 478d 41be 2cb5 ee3e
00000330: 6d1e 473c c77b cb3c 686e f13e bc2c a73c
00000340: 1469 d43d 6d09 47be d8a6 633e d8ac ef3d
00000350: 868a 2f3e 7d18 313e a766 8a3d 061d a8be
00000360: 74a9 993e 1097 003e 81e8 9a3d 3024 3e3f
00000370: 7f4b 20be 08e9 60be f5d8 dfbc f727 09be
00000380: 1bc0 8bbe 13a4 b6bc a2bc e03d 11a8 413e
00000390: 8ca3 e03d 0359 c1be 241c 75be 1262 303e
000003a0: 5c31 1a3f 6695 9d3e d781 043f f6fb d6be
000003b0: 8923 48be 1fff b03d 28e0 63be b42e 923e
000003c0: 53fe 013f b29a 103e 552b 3a3e 8bb6 18bf
000003d0: f818 27be f2ce afbd 46f6 493e f30e 12bc
000003e0: 1641 6dbe d787 31bf 5143 67be a4fe afbe
000003f0: 0881 a5be fc9d debe 8898 523e 3d1b cdbd
0.31367236 0.43020278 -0.59830374 -0.1901131 0.36930162 -0.16116597 -0.8210949 0.028254457
-0.3054654 -0.30553555 0.03264299 0.23822674 -0.5489842 0.13884357 0.5992958 -0.29577833
-0.2735885 -0.05789668 -0.4234419 0.17588247 0.50734884 0.37995514 -0.3734763 -0.5124148
-0.73175234 -0.33769527 0.3213292 -0.13776805 0.31200272 -0.46190357 -0.134608 0.16143887
0.369541 -0.20046383 -0.48930603 0.21923123 -0.30609268 -0.11192322 0.055963766 0.22017647
-0.28903618 0.40132302 -0.6996189 -0.29541412 -0.36408326 -0.14809316 -0.5035671 0.07505443
0.30408606 0.12239385 0.42359033 -0.35688582 -0.45954064 0.01929967 -0.07499931 -0.24278538
-0.36513492 0.02333991 -0.17743108 0.20131452 0.2685987 -0.5265435 -0.059799287 0.2765658
0.55113876 -0.86590964 0.32790706 -0.22434378 -0.35870913 -0.18194894 -0.25959495 -0.69528675
0.4666913 0.103354044 0.56771356 0.016297923 0.3231833 0.023728615 0.23121604 -0.37094453
-0.018324185 0.3434919 0.4132214 -0.03352281 -0.13983361 0.7543147 0.4007803 -0.31809625
0.20071544 -0.19777627 0.32977822 -0.27241808 0.23172925 -0.46891388 0.16763155 -0.32171938
0.0777005 -0.39728606 0.37829554 0.07878326 0.25825134 0.39392632 0.08925575 0.020145867
0.27107632 -0.047340576 -0.6273927 0.058658723 0.43934143 0.14535634 0.6119439 0.41961265
-0.25491452 -1.1965387 0.67295045 -0.1903315 -0.2487459 0.08183927 0.060185164 0.48849016
0.84148425 0.20994544 0.44158304 0.3534562 0.08873807 -0.12477868 0.47261932 0.029209312
0.61453176 -0.22419918 0.34378743 0.029201932 -0.17443557 0.11858118 0.5857355 0.7783595
0.14911552 -0.6364436 -0.38581854 -0.23183346 0.1396522 0.111852564 -0.30138987 -0.23381011
-0.0074125407 -0.016641892 0.25994983 0.045789912 -0.15439333 -0.59154236 -0.14452034 -0.20788674
0.21804407 0.4142562 0.39146766 0.13653009 -0.14383394 -0.68872005 -0.19398141 -0.6669164
0.38630432 -0.17025872 -1.0170765 -0.568102 0.39392146 0.19128892 -0.28924075 -0.1260565
-0.23102461 -0.49285197 0.39450425 -0.31080544 -0.36174956 -0.42820093 -0.4442686 0.52477187
0.027304411 0.47352543 -0.89582473 0.08873838 -0.07867805 -0.4063925 -0.56567395 0.11869921
-0.4392986 -0.30623427 0.38857645 -0.042633936 -0.11071251 0.14892812 -0.32271078 0.10353875
0.054809395 0.63263506 0.17742828 0.031145567 0.3809096 0.3750372 0.26054233 -0.20678057
0.1066202 -0.1680658 -0.1890155 0.46622598 0.01215325 0.024839295 0.47154546 0.020407073
0.103716046 -0.1943719 0.22231615 0.11702889 0.17142686 0.17294498 0.06757861 -0.32834643
0.30012095 0.12557626 0.07563878 0.7427397 -0.156538 -0.21963894 -0.027325133 -0.13394152
-0.27295002 -0.022295034 0.10973479 0.18911768 0.10968694 -0.37763223 -0.23936516 0.17224911
0.60231566 0.30778044 0.5176062 -0.41989106 -0.19544806 0.086424105 -0.22253478 0.28551257
0.5077869 0.14121512 0.18180592 -0.5965354 -0.16318119 -0.085843936 0.19722852 -0.008914697
-0.2316936 -0.693479 -0.22584273 -0.34373963 -0.32325006 -0.43479908 0.20565999 -0.10014961

network_body.linear_encoder.seq_layers.0.bias f4 [128]
00000000: 9e9a 783a f2b1 0fba d89b c3b9 fe76 cdb9
00000010: 0fe0 01b8 da9c d8ba 4222 39ba 3310 0a3b
00000020: be1a 38ba cd44 abb9 e032 93b8 5fb8 1139
00000030: b16b beb8 35f0 41b9 e8f7 0c3a 5d9d 0b36
00000040: 5e48 aab7 b3b5 dab9 a3b3 13b9 838f 5eba
00000050: 02d8 da39 1f41 8639 8730 ce38 1487 caba
00000060: 437d 99ba 8ece 3a38 0000 0000 4b9b 9eba
00000070: 6f6c 1ba7 702c a637 105e 223a db34 49b7
00000080: 5944 15b9 dc23 a4ba 8e18 0db9 6e40 6fb9
00000090: 1ccb 28b7 b889 b837 d427 14bb e5ae 04b8
000000a0: 3431 f436 82ab e816 aad1 62b0 82b4 219e
000000b0: a971 c738 2ad0 46b5 35cb 40ba 84a2 1fb9
000000c0: 9faa 403a 2330 84b9 2808 85b9 1374 84b8
000000d0: 09cc 45b9 9295 86ba 4ef7 803a fb5f 2aba
000000e0: 47ef b939 8a53 9db9 882a 56b7 faf9 deb9
000000f0: 8e65 c7ba 82e1 30b9 8252 14b9 735e 0d3a
00000100: 04e5 fab9 305b 97b8 3243 f3b9 10b2 1bb9
00000110: c557 08ba 09c4 073b 3056 6239 9000 72b9
00000120: 8b11 bcb7 a24a b8b9 c91b 1dba b8aa 1438
00000130: a6ff 130c 3f8e 09ba 5b6a 5eb9 2ccb 96af
00000140: ad77 173b 481d dab8 5d13 22b9 ea91 ebb9
00000150: 5f42 4c3a 31b6 8c39 c175 b6b9 bc82 06b9
00000160: 0000 0000 f66a 0438 a809 42b9 eabe 263a
00000170: 43bb 70b8 a6e1 66b7 b437 2e95 18c9 3ab9
00000180: 42fe 1c8d 300e 31b9 68ae 7611 6d65 a2b9
00000190: 192e e525 60e5 8fb9 e0e8 d3b7 b2d7 f33a
000001a0: ab83 a0b9 42b3 f6b6 eee3 bab8 5043 3639
000001b0: 111d 90b8 cbae d837 062f b2ba 83a2 7bb9
000001c0: 78ed 1db9 a079 1b3a fb22 b43a da09 f6b8
000001d0: 1761 16ba 63be 413a ddb8 a3b8 fe5e 5a3a
000001e0: 5600 0139 3342 133b 3608 9e37 ec31 03b8
000001f0: 26db 49ba 30ed ddb6 58fd 24b9 65eb bd3a
0.0009483489 -0.0005481533 -0.0003730941 -0.00039189303 -3.0964668e-05 -0.0016526238 -0.0007062295 0.0021066784
-0.0007023028 -0.00032666922 -7.0189824e-05 0.00013896961 -9.079965e-05 -0.00018495398 0.0005377517 2.0804212e-06
-2.0299278e-05 -0.00041715577 -0.00014085932 -0.0008490013 0.0004174114 0.0002560699 9.8318844e-05 -0.0015451633
-0.0011710305 4.4538225e-05 0.0 -0.0012100724 -2.1569353e-15 1.9809435e-05 0.0006193826 -1.199284e-05
-0.00014235209 -0.0012522894 -0.00013455955 -0.00022816818 -1.006087e-05 2.199864e-05 -0.0022606747 -3.1634136e-05
7.2774947e-06 3.7589858e-25 -8.251627e-10 -8.560597e-21 9.51023e-05 -7.4063666e-07 -0.0007354499 -0.00015223963
0.0007349643 -0.00025212867 -0.00025373814 -6.315871e-05 -0.00018863393 -0.0010267964 0.0009839328 -0.00064992876
0.00035464225 -0.00030007615 -1.2765297e-05 -0.00042529387 -0.0015212761 -0.00016868676 -0.00014145116 0.0005392797
-0.00047854346 -7.217226e-05 -0.00046398636 -0.00014848285 -0.0005201067 0.0020716211 0.00021585147 -0.00023079128
-2.2419516e-05 -0.0003515082 -0.0005993215 3.5444944e-05 1.14014e-31 -0.00052473316 -0.0002121119 -2.7429203e-10
0.0023112104 -0.00010400504 -0.00015456737 -0.00044931407 0.00077918725 0.00026838624 -0.0003480148 -0.00012827938
0.0 3.1570868e-05 -0.00018504879 0.0006360846 -5.739486e-05 -1.3761606e-05 -3.5182962e-26 -0.00017813256
-4.8377263e-31 -0.0001688532 1.9459721e-28 -0.00030974616 3.9756405e-16 -0.00027445983 -2.5261601e-05 0.0018603711
-0.00030615678 -7.3522397e-06 -8.911626e-05 0.00017381948 -6.871869e-05 2.58306e-05 -0.0013594336 -0.00023997766
-0.00015061151 0.00059309043 0.0013743335 -0.00011732029 -0.00057365134 0.00073907356 -7.806879e-05 0.0008330195
0.00012302524 0.0022469878 1.8838891e-05 -3.1279327e-05 -0.0007700197 -6.6139255e-06 -0.00015734637 0.0014489709

network_body.linear_encoder.seq_layers.2.weight f4 [128, 128]
00000000: 49ac 85bb e15b 9fbd bf51 023d 0d4c 453d
00000010: 9a8f fb3d 7eb6 0cbd 4c30 5fbd 412f c33d
00000020: dc47 e1bd 291b ca3d 50b1 08bd 591a 3a3e
00000030: ac1e 6c3d f4ad 9d39 5931 bf3d 2dac 9cbd
00000040: 8479 70bd ca77 f83d 27cf 56bd e65b c93c
00000050: 39dd 55bc 5d52 513d 959c 2cbb 218a b6bc
00000060: 96a2 213d 8898 2d3e 44da c0bd cdd2 db3b
00000070: 7476 2cbd 50ea ec3c df0e f73d 6232 85bd
00000080: 814a 95bb 4df8 9abc c082 38bd 0950 ac3d
00000090: d4c4 f7bc 55a1 3dbd c972 a63d 7783 283d
000000a0: 9ca9 d53d 29de 203e 7c13 bfbd adc0 183d
000000b0: 6fb2 743d 1d73 90bd b4dd 8f3d 9696 8fbb
000000c0: 6301 d8bd a7dc 213e 4ee4 ee3b f892 133e
000000d0: 648e f73d 9b6a 42bd 1601 bd3d ffc0 c83c
000000e0: 818b f4bd 4e06 ee3d dbd2 813c 932f a33d
000000f0: e03d c43d 96d4 25bd f3c3 c0bc 7891 19be
00000100: 7d4d 10be 1f1a f13a 8b4b a8bd 50d8 993d
00000110: be49 d73c e4dd fcbd 2f06 cb3d 8021 c0bd
00000120: a58f b63d 0294 123e 95d5 a13d 6da7 5dbe
00000130: a050 4a3a 09eb 903d 53c8 21be 91fd 143e
00000140: 8a71 b5bd 7aae 223d 525d 893d 571a 8fbd
00000150: 6154 0ebd 25dd 9b3c 1abc 71bd 0390 17be
00000160: bac5 1bbe b51b 003d 3a20 d2bd 44ce 7abc
00000170: 6b1b 923c be29 e1bc 5a42 123e 2a9f 96bb
00000180: 406a 0d3e ed85 c3bd 1908 5c3d 212a d2bd
00000190: 7ca6 733b 1e38 373b 420c 60bd 5c3f 083c
000001a0: f820 3abe 1fb2 643d dfd9 843c a62f 403d
000001b0: d75d 9e3d 75ec 00be fe83 3f3c 27bc 413e
000001c0: b1d0 1dbe 0405 1ebd f862 a3bc 7b04 42bc
000001d0: 22be 023d e4ad fb3d 0127 79bc 6e4c 3fbd
000001e0: 5f75 40bd 243c adbd cc90 b2bc 08c5 24bd
000001f0: fd90 daba b2a7 a9bd b447 b2bd 7162 6c3d
00000200: 5b1b acbd 6584 c3bc e6a8 f7bc dab9 8dbc
00000210: 0661 54bd 2aae 223e 1a5a 0ebe 060c 623c
00000220: ed14 f6bc 0727 d9bc 773a 273e 2c85 31be
00000230: 36b9 16bd 9ca5 03be 617e b83d b377 85bd
00000240: ec7f f0bd 26a0 0bbd c96d 3cbc 641d 98bd
00000250: 8cb2 e2bb 76ca 273e bd30 3ebe 5567 b83d
00000260: b1df 9d3d 7d66 1a3c 0e97 383e 0456 783d
00000270: 2af3 31be 9115 8d3d 2e4b 213e 6366 8a3d
00000280: 78b0 92bd a2dd 403c 6201 423d 411e 98bd
00000290: bd9b 893d 1f07 103e 3eb1 5ebd 7bb1 d5bd
000002a0: 8979 41be 0a92 9a39 31f1 063e 58ed 2c3e
000002b0: a885 f0bd fd71 d0bd 6467 f2bd 3e4f c7bc
000002c0: 8548 8bbd 9f5b 60bc ba09 27bd a851 523c
000002d0: b5a5 4c3c 3356 663d 2bab 6abd a55b c8bd
000002e0: 5cc0 233e f752 f93a d004 dfbc 729f 95ba
000002f0: b0c9 ffbd 4dbc 793d 3e56 bbbc 3cc4 113d
00000300: 9934 133d 7f15 0d3e 7031 2f3b a0f9 eebc
00000310: 0765 6a3d 9d7f 5cbd c3f8 2cbd e739 fb3b
00000320: 960f 1a3e f7dd b7bd e37c d53d 9bd2 e8bc
00000330: ea5c 053c ac16 d83b 3763 f5bc c531 3a3c
00000340: dcaf 053e fa67 c6bc 5f10 d0bd e64f bcbd
00000350: 63ee ff3d 32d4 a93d 03d1 dc3d c6e7 523d
00000360: d0cd 4c3c a1d0 5ebe f4b7 0dbe 4878 31bd
00000370: a929 0a3d e5db 9d3d 9ff2 9fbd 9cd0 6b3c
00000380: 8edb 143d 63d3 1d3e 591a 8bbd 02c8 2f3e
00000390: 4634 ec3c 8f8f aa3c 6f88 723d 626f 0abe
000003a0: 21c9 933c 4ffa 96bd 278a 34be 2d8c 283c
000003b0: f1d2 65bd 026d d23d f522 653d a155 923d
000003c0: a099 923c db5f 44bd 887d 36be 7f58 20bd
000003d0: 7dfe 033e 241d ac3c cee8 803b 1368 413c
000003e0: f391 573d 5533 5c3d af42 24bd fe08 e23d
000003f0: dfd3 253d 5d82 ed3c 6edc 603d a585 92bd
-0.004079376 -0.077811964 0.03181624 0.04816823 0.12283249 -0.034353726 -0.05448942 0.09530497
-0.11000034 0.09868462 -0.033372223 0.18174113 0.05764644 0.0003007498 0.09335584 -0.076500274
-0.058709636 0.12132223 -0.05244365 0.024579953 -0.013053232 0.05110394 -0.0026338447 -0.022282662
0.039461695 0.16952717 -0.09416631 0.006708479 -0.042105153 0.028920323 0.12063383 -0.065037504
-0.0045560007 -0.018917227 -0.045046568 0.08413703 -0.030245222 -0.046296436 0.08127362 0.041141
0.10432741 0.15709747 -0.09329888 0.037293125 0.05974048 -0.07053206 0.070247084 -0.004381965
-0.105471395 0.15806828 0.0072903996 0.14411533 0.12087706 -0.04746495 0.09228723 0.02450609
-0.11940671 0.11622296 0.015847614 0.079680584 0.09582114 -0.04048594 -0.023530936 -0.14996898
-0.1409206 0.0018394626 -0.08217534 0.075119615 0.02628028 -0.1234701 0.09913289 -0.093813896
0.08914117 0.14314273 0.07902066 -0.21645899 0.00077177025 0.070760794 -0.15799074 0.14549853
-0.088595465 0.039717175 0.067072526 -0.06987446 -0.03474844 0.019026348 -0.05901728 -0.1480103
-0.15212145 0.031276423 -0.10260053 -0.015307967 0.01783534 -0.027485725 0.14283124 -0.0045966106
0.13810062 -0.09547029 0.05371866 -0.10261942 0.003717809 0.0027957032 -0.05469919 0.008315887
-0.18176639 0.055833932 0.01621717 0.04692044 0.07732742 -0.12590201 0.011689184 0.1891943
-0.1541164 -0.038579002 -0.019944653 -0.011841889 0.031919606 0.122890264 -0.015207053 -0.04670375
-0.046986934 -0.084587365 -0.02179756 -0.040226966 -0.001667529 -0.082839385 -0.087050825 0.05771107
-0.08403655 -0.023866842 -0.030231904 -0.017300535 -0.05185034 0.15886751 -0.13901559 0.013796812
-0.030039275 -0.026507868 0.16330896 -0.17335957 -0.036797725 -0.12856144 0.0900848 -0.065169714
-0.11743149 -0.034088276 -0.011500784 -0.07427481 -0.006918257 0.16385826 -0.1857328 0.09004084
0.077086814 0.009423849 0.18026373 0.060628906 -0.17377916 0.06888879 0.15751335 0.0675781
-0.07162565 0.011771591 0.0473646 -0.074276455 0.06719158 0.14065216 -0.05436825 -0.10434242
-0.18894018 0.00029481977 0.13177945 0.16887414 -0.11744243 -0.101779915 -0.118361264 -0.024329778
-0.068009414 -0.013693719 -0.04078076 0.012836851 0.0124906795 0.05623455 -0.057292145 -0.09783105
0.15991348 0.0019021918 -0.027223974 -0.0011415316 -0.12489641 0.060970593 -0.022868272 0.035587534
0.035938833 0.13777731 0.0026732348 -0.029171765 0.057225253 -0.05383264 -0.042229425 0.0076668146
0.15045008 -0.08977883 0.10424211 -0.028420737 0.008139828 0.0065944996 -0.029954536 0.011364405
0.13055366 -0.024219502 -0.101593725 -0.09194927 0.124966405 0.08292426 0.10782053 0.051490568
0.012500241 -0.21759273 -0.13839704 -0.0433276 0.033731136 0.07707957 -0.07809948 0.014392998
0.036342196 0.15412669 -0.06792135 0.1716614 0.02883352 0.020820407 0.059212144 -0.13519052
0.018040242 -0.07371961 -0.17630826 0.010287327 -0.056109373 0.10274698 0.05594154 0.07145239
0.01789552 -0.047942977 -0.17821324 -0.039146896 0.12890048 0.02100999 0.0039340025 0.011804598
0.052629422 0.05375989 -0.040102657 0.110368714 0.04048526 0.028992826 0.054897718 -0.07154397

network_body.linear_encoder.seq_layers.2.bias f4 [128]
00000000: 4751 e2b7 57d0 3339 c23e 97b8 95ba bdb9
00000010: 1b99 cb39 b644 8739 e8a7 f8b7 122e f4b9
00000020: e315 66b7 d61e 06ba 8217 3db8 08ca 74b9
00000030: 0b75 04aa 3c23 3cb9 d8b5 ccba 8cff 9b35
00000040: 6873 72b9 e804 fdb8 6c04 2bb9 fe59 2a23
00000050: bbf6 603a c671 d539 c22e 9cb9 0eb9 033a
00000060: a0ca 9bae 6f3c 25ba f02d e1b9 a44d 7c39
00000070: e866 c5b7 cbe9 5a39 60af ddb9 216f 81ba
00000080: 7dc0 343b 99eb 0eba 2303 61b9 cb1e 7438
00000090: 8aba 46ba 3d85 1a3a d95b 87b8 69c0 12ba
000000a0: a843 fcb8 5491 0abb 180f d52e e9ea bdb0
000000b0: 8c70 eb39 69fd 46b7 8cc9 39ba c24c feb9
000000c0: 8349 0538 8571 52ba 3904 5dba 201a 1533
000000d0: 3e08 0d39 d38d ea37 39cd d7b8 4231 f2b8
000000e0: 4f23 0a39 a917 0e39 1200 5539 e42f 39b9
000000f0: b83f 7936 9af6 0bb9 d68d 32b9 8c62 65b8
00000100: 7fbc 4e3a b24b feb9 55a8 a52c a0ad 1b31
00000110: f863 7ab7 99af c238 e1db 00b9 3bd5 6a34
00000120: dabd c8b7 d988 3cb8 ab61 5a38 ecb2 1aba
00000130: 5161 4aba e8b8 9d37 54f2 9eba 6aa1 3c39
00000140: dbdc 28a7 1057 e039 2a34 e139 82c6 872d
00000150: aa8a dcb8 f3da 0cba d2cd 952e d591 d2ba
00000160: 5b0d 80b9 6b27 6ab8 f671 ffb9 0a75 2539
00000170: 1275 f138 28b2 3bb9 1a02 f1b8 8de3 533b
00000180: 1fdb 09ba c566 b139 113a e739 90cc abb8
00000190: f4c0 eeab 8510 1f39 b8d1 15b7 ce32 68b8
000001a0: 0eaf f0b9 b6d4 4f39 082c a63a ac3b a2ba
000001b0: 2719 9cb9 5f89 2b3a ff4f 8538 cba8 05ba
000001c0: f6d0 29b9 13d9 0ab8 08c7 3f3a d006 8939
000001d0: 6768 5db9 98ae b739 952e d3ba 46e4 05b9
000001e0: 8bab 06b9 33f0 743a 9e84 31ba aa03 52b9
000001f0: a0bf e4b9 c41a 1ab9 0c3f 2a3a f504 f7b8
-2.6979147e-05 0.00017148383 -7.211931e-05 -0.00036187904 0.0003883325 0.000258004 -2.9642091e-05 -0.00046573632
-1.3714164e-05 -0.0005116289 -4.5083005e-05 -0.00023344916 -1.1764563e-13 -0.00017942203 -0.0015618159 1.1622774e-06
-0.0002312191 -0.00012064894 -0.00016309478 9.234775e-18 0.00085816876 0.00040711294 -0.00029789476 0.0005024829
-7.0845774e-11 -0.0006303256 -0.0004294957 0.00024061516 -2.353215e-05 0.00020877195 -0.0004228307 -0.0009875038
0.0027580552 -0.0005451977 -0.0002145884 5.820281e-05 -0.0007580897 0.0005894488 -6.4544096e-05 -0.00055981294
-0.00012028898 -0.0021143751 9.6888e-11 -1.3818325e-09 0.00044906547 -1.1860721e-05 -0.0007087223 -0.00048503844
3.1778134e-05 -0.000802778 -0.000843111 3.4715526e-08 0.00013449878 2.7961016e-05 -0.000102902246 -0.00011548634
0.00013173859 0.0001355099 0.00020313289 -0.00017660816 3.714098e-06 -0.00013347939 -0.00017028241 -5.4689634e-05
0.00078863645 -0.00048503053 4.7082707e-12 2.2654163e-09 -1.4924437e-05 9.2833485e-05 -0.00012288943 2.1870521e-07
-2.3930264e-05 -4.4950142e-05 5.206621e-05 -0.0005901295 -0.000772019 1.8801962e-05 -0.0012126663 0.00017989209
-2.343441e-15 0.00042789476 0.0004295421 1.5435878e-11 -0.00010516246 -0.0005373202 6.8122966e-11 -0.001606519
-0.00024424013 -5.582666e-05 -0.00048722298 0.00015779227 0.000115135816 -0.00017900078 -0.00011492167 0.0032331676
-0.0005258787 0.0003383664 0.00044103016 -8.192018e-05 -1.6964472e-12 0.00015169576 -8.929921e-06 -5.5360426e-05
-0.00045906793 0.000198203 0.0012677917 -0.0012377403 -0.0002977338 0.0006543602 6.356835e-05 -0.00050986995
-0.0001619494 -3.310393e-05 0.000731573 0.00026135752 -0.00021115095 0.00035034562 -0.0016111905 -0.00012768907
-0.0001284314 0.0009343654 -0.00067717757 -0.00020028526 -0.0004363032 -0.00014696555 0.000649438 -0.00011778801

action_model._continuous_distribution.log_sigma f4 [1, 3]
00000000: d4da 903b 5359 0aba f42e d03b
0.0044206176 -0.00052775926 0.0063532535

action_model._continuous_distribution.mu.weight f4 [3, 128]
00000000: 1499 033b 8129 67bc f28a 9a38 ad54 f03b
00000010: 4c6d 67bb 5a5e 14bb 6756 e33c 87c8 c1bb
00000020: 83fa e53a e5ba babc 2233 903c 5822 273b
00000030: b52b 183d dcd9 523b 48a2 69bc 0f89 17bb
00000040: 4692 a6bc 5d12 63bc f28b 12bc 86a9 283c
00000050: 45f8 d4bb 5f01 5f3c ebad 053b 1cf6 09b9
00000060: 38a2 a2bc d2ff 01bb 097c 313a e01a 80bc
00000070: 808a 3bbc 835e d73b dd0d f7bb 9fa0 363c
00000080: 9bd0 8b3c d223 06bd 6865 09bb 90dd bc3c
00000090: 422d 713b 315f 943c a8c4 c43c ad78 dfbb
000000a0: a782 aabc 781a 01bc 1fef a7bc 107b 003d
000000b0: abee d93b d904 7f3b b41e 4c3c 82b5 72bb
000000c0: 7629 2c3b c783 393b a7fa da3a 5855 bb3c
000000d0: 2348 38bc 9d19 973c 8f2f 36bc f1d4 09bd
000000e0: 75c4 763c 9cb9 9a3c 1fde 043d f63e fe3b
000000f0: 86ce 23bc 7d1b ae3b 2712 8fbc 3f47 f0bb
00000100: 4cee 0d3c 5e73 103b e534 73bc 6e5d d33b
00000110: 3386 cd3b 8da3 c1bc 7df8 183c 218c aebc
00000120: ce72 b1bc 3f03 96bb 7874 d63b 482c 04ba
00000130: 97fd f7bc 58a8 9a3c 435e 013d 3f9a 6fba
00000140: 6d66 e73c a892 2a3c 8231 d23b 5ad7 ad3c
00000150: 64b9 0cbd 6ecc c73b ff6b 8e3c 57c7 22bb
00000160: 6ee4 abbb f47c eebc 779a 983b 1e81 473c
00000170: 54fe 45bc 20fc ac3c e9a5 f2bc ed33 b8bc
00000180: 8547 ab3c f682 26bb 9098 e73b 2c84 fd3b
00000190: bf53 a4bc 4579 eebc 4658 443c d0e0 b539
000001a0: 210b 4bbc 0f41 a83a 4e88 9bbc 0352 64bc
000001b0: 44d5 6cba fdfd ae3b 418b b3bb 9f2d ae3c
000001c0: 0c6e f13b adf3 7e3b 53d8 933c 1c98 67bc
000001d0: 575f aeba 141a 443c f8d9 acbb 5161 b0bc
000001e0: 58cf 173c 3e2f 15bc 0b11 69bc fd25 323c
000001f0: b868 8ebc 9599 2c3c 4e6e e2bb 5bd8 32bc
00000200: 9b15 063b 893a 04bd 6e66 1a3c 4585 babb
00000210: 9712 3ebc 76a7 02bd 40a8 213d d8de afbc
00000220: 5147 a5bc 946f 12bc 7b14 343c d885 74bc
00000230: 125d fe3c 418c 74bc bfca a53b b14d d0bc
00000240: 039c 9c3b 1f14 9b38 d984 81bc cac2 91bc
00000250: f72a 193d 291a ad3c f8f1 49bb 0e7d 01bd
00000260: 8958 7a3c 1d1c 44bb 7c30 d4bb 1cc3 fbbb
00000270: 0573 003d 8956 ec3b 99a1 703c 207a da3b
00000280: a1c8 b7bc 0bf1 103c e9dd dbbc e451 4b3d
00000290: 7610 2e3c 6c85 37bc 38b2 8e3c dfc6 bf3c
000002a0: 7796 c0ba 509f 0cbc df2c b6bb 7b0b 0abc
000002b0: 99ac 6c3c 647f 733a c596 1ebc 0006 0a3b
000002c0: 1b02 bbbc d5d2 49bc 1d0a 11bc 07e1 51bc
000002d0: 3722 0abd d382 403c 219d 61bc e579 ae3c
000002e0: 856d d7bc 0558 f73b 5a52 2ebc 62f3 a3bb
000002f0: 2107 cf3c c9b5 7abc 667e 60b9 b125 c63c
00000300: 2c97 6fbb edf7 033d f8ef f6bb 3cde e33b
00000310: 2513 9fbc 3e8b bbbc fd55 8d3b cc5b a53c
00000320: c690 953c 08b1 8c3c 09d0 9dbc e8a9 323c
00000330: 9cef 353b 69df 023d abcf 7a3c 1513 973c
00000340: 04d8 c6bc bbb7 d5bc 9aab 18bc 1213 8cb8
00000350: 1da7 14bc a752 283c 15b3 08bc 6640 92bc
00000360: 879c b43c f99d 353c d299 64bc b4ec af3b
00000370: 037b 393c 7183 823c 5a08 6c3b 9991 263c
00000380: d2dd df3a 0cd2 97bc d92c 11bd 53d6 d13b
00000390: 1e03 09bd 4000 b13b b4bc 613c 588d b83c
000003a0: 6228 e23b f1a8 683b 4d66 a8bc cd31 1f3c
000003b0: a3c8 19bc 93d3 1d3c c6a4 913c 3f8b dc3c
000003c0: d4f8 5ebb 461d e93c 2d49 a5bc 7db7 943c
000003d0: b586 9d3c 1139 703b f2a7 473c dd37 77bc
000003e0: 939f de3b 4c7f 063c cf50 7a3c de61 e6b9
000003f0: 9e5d 7f3b f6fe d7ba 61e2 003c 4bff f43a
0.0020080255 -0.014109016 7.369173e-05 0.007334313 -0.0035312949 -0.0022639246 0.02775116 -0.0059137973
0.0017545972 -0.022794196 0.017602507 0.0025502648 0.037151057 0.0032173311 -0.014259882 -0.0023122465
-0.02033342 -0.013859359 -0.008944498 0.010294324 -0.0064993226 0.013611167 0.0020397853 -0.00013157021
-0.019852743 -0.0019836319 0.0006770497 -0.015637815 -0.011446595 0.006572546 -0.0075394944 0.0111466935
0.017067244 -0.032749005 -0.0020964984 0.023054868 0.0036800657 0.018111797 0.024019554 -0.0068198056
-0.020814253 -0.007879846 -0.020499764 0.03136736 0.006650766 0.0038912802 0.012458492 -0.0037034457
0.002626983 0.0028307305 0.001670678 0.022867844 -0.0112476675 0.01844483 -0.011119737 -0.033650342
0.015061487 0.018887334 0.032438394 0.0077589704 -0.0099979695 0.0053133355 -0.01746471 -0.007332712
0.008662771 0.002204142 -0.014844154 0.0064503467 0.0062721013 -0.023637557 0.009336588 -0.021307053
-0.021661188 -0.0045780237 0.006544646 -0.0005041999 -0.030272288 0.0188791 0.031584036 -0.0009140111
0.028247083 0.010410942 0.006414593 0.021220852 -0.03435649 0.006097368 0.01738548 -0.0024838054
-0.005245737 -0.029112317 0.0046570855 0.01217678 -0.012084562 0.021116316 -0.029620128 -0.022485698
0.020908127 -0.0025407649 0.0070677474 0.0077367034 -0.020059464 -0.02911056 0.011983937 0.0003469051
-0.01239279 0.0012836772 -0.018985894 -0.013935569 -0.00090344646 0.0053403364 -0.005479247 0.021261988
0.007367855 0.0038902566 0.018047487 -0.014135387 -0.001330356 0.011969108 -0.0052750073 -0.02153078
0.009265743 -0.009105502 -0.014225255 0.010873315 -0.017383918 0.010534664 -0.006910122 -0.010915841
0.0020459655 -0.032282386 0.009423835 -0.0056921565 -0.011601112 -0.031897984 0.039467096 -0.021468565
-0.020175608 -0.008937735 0.010991211 -0.014924489 0.031050239 -0.014926017 0.0050595696 -0.025427671
0.0047793402 7.394724e-05 -0.015810417 -0.017793078 0.03739449 0.021130638 -0.003081439 -0.031613402
0.0152798975 -0.0029923983 -0.0064755064 -0.007683171 0.03135969 0.007212464 0.014686965 0.0066673905
-0.022434535 0.008846532 -0.026839213 0.049638644 0.010624042 -0.011201244 0.017418966 0.023410259
-0.001469328 -0.008582905 -0.0055595483 -0.008425589 0.014445447 0.0009288697 -0.009679501 0.0021060705
-0.022828152 -0.012318333 -0.008852509 -0.012809998 -0.033724036 0.011749941 -0.013770373 0.021298358
-0.02629734 0.0075483345 -0.010639751 -0.0050033787 0.025271954 -0.01530213 -0.00021409392 0.024187895
-0.0036558611 0.032218862 -0.0075359307 0.0069539826 -0.019418309 -0.022893544 0.004313229 0.020185374
0.01825751 0.017174259 -0.019264238 0.010904767 0.0027761227 0.03195134 0.015308301 0.018441716
-0.024272926 -0.026088586 -0.009318257 -6.679272e-05 -0.009073046 0.010273612 -0.008343478 -0.017852973
0.022047294 0.011085027 -0.013952689 0.0053687934 0.011320832 0.015931817 0.003601572 0.010166549
0.0017079657 -0.018532775 -0.03544316 0.0064037233 -0.03345024 0.005401641 0.0137779005 0.022528335
0.0069017867 0.0035501088 -0.020556593 0.009716463 -0.009386214 0.009632963 0.017778765 0.026921866
-0.0034022825 0.028456341 -0.020176494 0.0181539 0.019229272 0.0036655108 0.012186037 -0.015089002
0.006793925 0.008209061 0.015278055 -0.00043941935 0.0038965712 -0.0016479183 0.007866473 0.0018691806

action_model._continuous_distribution.mu.bias f4 [3]
00000000: 471a d637 47be 9138 402a 99b5
2.5523024e-05 6.949581e-05 -1.1411685e-06

critic.network_body.linear_encoder.seq_layers.0.weight f4 [128, 6]
00000000: 6e6e 34bc 1484 cd3d 56fa b73e 194e 29bf
00000010: af71 e9be 1ad2 c03e bd84 e7bc 1332 fcbe
00000020: 72a7 e93e f164 82be 4e3a 67be 9791 b43e
00000030: dad4 a13e d1f2 073f 67d8 d53d 182c fe3d
00000040: bba6 3c3e 53b3 6cba f129 213f 8e5d dcbe
00000050: 33cc a6bd 41f9 18bf 8372 633e 8f61 9d3d
00000060: e5fe 273f d0ca 933e e086 193f a61c b6bd
00000070: 9202 fbbd 152c b93e 44ac 093f 16bb 423e
00000080: b2e7 10be f8f1 ba3d 9f4c 33be fd81 f23e
00000090: 2288 f43e ad45 96be b4a8 6abf f768 12bf
000000a0: b081 dcbd 6ab9 843e 5644 e9be 940d e1be
000000b0: 765e debd 04c0 013f afbc 513d 96fc 8fbe
000000c0: 4f65 29be 5023 083f c819 d4be 0bcd ddbd
000000d0: a1e0 973d 3ca9 133b cc26 c83e 8162 1bbe
000000e0: 435c ebbe 7b95 863e 3b24 7ebd d5ff 003f
000000f0: 662a c53c 78f3 283e c59d 543d cbe7 09bb
00000100: 849b fcbe a154 173d 952c 34bf 1226 1abf
00000110: 4d1d edbc 9f87 8d3e c790 24be 76ed 4cbf
00000120: d3b2 c4be b734 353e a088 bcbd 8e14 3cbe
00000130: 4915 1abd a989 533e 5ad0 2dbe 95a9 9cbe
00000140: e049 08bf 1e60 123e f645 053f ed3a 653e
00000150: 7688 2fbe 7e81 9cbe e0fd a6be 824e 583d
00000160: daa2 dfbd 78f5 fbbe 2123 ad3e 6ad4 98be
00000170: 2125 c33d f376 32bf b266 2f3f 7c89 a4be
00000180: 6f87 cb3d 0d2c 763e ed8c 08be fb49 edbc
00000190: 1734 43be 94c2 09bf 0d8c ce3d d529 033e
000001a0: 0261 c2be 90f1 c13e 8101 24bf 0cb9 a2bf
000001b0: 9af1 843d da7f 513f 52a7 bd3e 2687 26be
000001c0: 90e0 e03e aa28 01bf bd70 45be b074 18bf
000001d0: f424 ae3e 0559 08bd c1a8 293f 2b88 863e
000001e0: 7931 e53e 06a5 8f3c f00b 2ebe 3cb7 79be
000001f0: 1368 ba3e cfcc 07bb 79ac f3be 3131 af3d
00000200: d625 abbd b508 a43e 56a2 223e 076a debe
00000210: aac6 3b3e 2bf7 a23c 598e 4abc 3725 ca3c
00000220: 1c3a 913e cdee c0be 9f77 523f 905e f53c
00000230: b0a6 9fbe ee5c 22bf 00f4 5ebe a0e1 d63e
00000240: e738 8abe 9ec0 423e 8e0f 613e 8dd0 ed3c
00000250: 94ed 81be 3465 b03e c001 1e3e 46eb 03bd
00000260: a03c 9f3e edb2 873e e974 d7be 17b5 4a3f
00000270: 2e8e 163f 0409 c33e ec21 303f 37dd e4be
00000280: af8f 2f3e bf0f 323d d993 a33d 22f7 20bf
00000290: f2ee c83e ab64 303e b871 7b3e f4a9 17bf
000002a0: 4711 febe 8ba4 5ebe 217e 63bf 8ce7 a13e
000002b0: df85 29be e1d4 933e e79a 61be 93a8 26bf
000002c0: 4d6b 1cbe 2f08 10bf 2368 433e d3fe 07be
000002d0: f722 e53d de95 0bbf e8c4 433d 2f11 18bf
000002e0: bde2 f13e ea11 87be a186 113f 26f3 0bbf
000002f0: 1160 303f 9e8e d1be 54c5 53bd 5d33 1ebc
00000300: 58cd 54be 3b03 c3bd 217f a03e 884b 0dbe
00000310: c196 fcbc e338 20bf 6d2a 7bbe 672a 00be
00000320: 5696 92bd 1197 28bf 085d c7be 27f0 113d
00000330: b9e7 e53e ef25 e7be e4e5 d4be c8ed 94be
00000340: 077f c4be 3668 013f 1118 913e a4ed 2c3f
00000350: 3303 26bf 4841 12bf f7a4 0cbf 2552 5a3e
00000360: 4cec 61be 6c63 b1be 4d92 dd3d 850c 28be
00000370: 73f8 8bbe e1b2 66be 24ed 25bf f9c3 c3bd
00000380: 19a6 d63e ff5d c8be fb56 3c3e d8d4 c83d
00000390: c924 b7be 9613 44bd f674 233e 348a 41be
000003a0: 685d 8fbe f8e8 e5bd e587 443e 883f 893e
000003b0: 7bcc 69be d8eb 6cbe 3f1e 063d 6e8a 633d
000003c0: 31e0 4b3f 010f cfbe 9b99 273d 22bb 35be
000003d0: 1f9c 133d 37a2 ef3e ce36 333f 4586 0a3e
000003e0: 9a8d 133f 9cdc ae3b c178 09bf ef99 cbbe
000003f0: 2972 28bf 82db 083e ae84 01bf c79e fdbe
-0.011012657 0.100349575 0.3593318 -0.6613479 -0.45594546 0.37660295 -0.028261537 -0.49256954
0.45635563 -0.25467637 -0.22580835 0.35267326 0.31607705 0.53104883 0.10441666 0.12410754
0.18422978 -0.0009029407 0.6295462 -0.43040127 -0.08144417 -0.5975533 0.22211652 0.076846235
0.65623313 0.2886567 0.5997143 -0.08892183 -0.122563496 0.36166444 0.5377848 0.1901668
-0.14150885 0.09128183 -0.17509697 0.47364798 0.4776011 -0.29350033 -0.9166367 -0.57191414
-0.107669234 0.2592271 -0.4555995 -0.43955672 -0.10857861 0.5068362 0.051205333 -0.28122395
-0.16542552 0.5317888 -0.4142592 -0.108301245 0.074158914 0.0022531291 0.390921 -0.15174295
-0.45968828 0.2628592 -0.06204627 0.5039037 0.024068069 0.16499126 0.051908273 -0.00210427
-0.493374 0.036945943 -0.70380527 -0.6021434 -0.028944636 0.27642533 -0.16070853 -0.80049837
-0.38417682 0.1769589 -0.09205747 -0.18367216 -0.037617955 0.20657982 -0.16974011 -0.3059813
-0.53237724 0.14294478 0.52059877 0.2238576 -0.171419 -0.30567545 -0.32615566 0.052809246
-0.10919733 -0.49210715 0.33815864 -0.2984956 0.09528566 -0.6971275 0.68516076 -0.32136142
0.09937941 0.24040242 -0.13335009 -0.02896594 -0.1906284 -0.5381253 0.10085306 0.12808926
-0.37964636 0.3787961 -0.64064795 -1.2712722 0.06491394 0.8183571 0.37041718 -0.16262493
0.43921328 -0.50452673 -0.19281287 -0.5955305 0.34012568 -0.03328802 0.66273123 0.26275763
0.44764307 0.017534744 -0.16996741 -0.24386305 0.36407527 -0.002072144 -0.47592524 0.085543044
-0.08356826 0.32037893 0.15882239 -0.43440267 0.18337503 0.01989325 -0.01236304 0.024675949
0.28364646 -0.3768219 0.8221378 0.029952317 -0.3118186 -0.6342305 -0.21772766 0.41969013
-0.26996538 0.1901879 0.2197859 0.029030109 -0.2537657 0.34452212 0.15430355 -0.032206796
0.3110094 0.26503697 -0.42081383 0.7918257 0.588107 0.38092816 0.6880176 -0.44700024
0.17144655 0.043472048 0.07987184 -0.62877095 0.392448 0.17225902 0.24555099 -0.592437
-0.49622557 -0.21742456 -0.8886433 0.3162197 -0.16554974 0.2887335 -0.22031747 -0.65100974
-0.15275307 -0.5626249 0.19082694 -0.13280801 0.1118831 -0.54525554 0.047795206 -0.5940122
0.472433 -0.26380855 0.5684605 -0.5466789 0.68896586 -0.4092912 -0.05170186 -0.009655801
-0.20781457 -0.095221005 0.31346992 -0.13798344 -0.030833604 -0.625868 -0.24527903 -0.12516175
-0.071575806 -0.6585551 -0.38938165 0.035629418 0.44903353 -0.4514613 -0.41581643 -0.29087663
-0.38378164 0.5054964 0.28338674 0.6755011 -0.6484863 -0.5713086 -0.54939216 0.21320398
-0.22062796 -0.34646165 0.1081892 -0.16411026 -0.2733799 -0.22529174 -0.6481497 -0.09558863
0.41923597 -0.39134213 0.18392555 0.09806222 -0.35770252 -0.04787024 0.15962586 -0.18900377
-0.2800095 -0.11226076 0.19192465 0.26806283 -0.2283191 -0.23136842 0.03274369 0.05555194
0.79638964 -0.40441135 0.040917974 -0.17747167 0.03603756 0.46803448 0.700055 0.13527782
0.5763794 0.0053363573 -0.5369988 -0.3976588 -0.65799195 0.13364986 -0.5059308 -0.495352

critic.network_body.linear_encoder.seq_layers.0.bias f4 [128]
00000000: e8e2 2f98 507c bf3a 7b67 a738 ff78 0237
00000010: 6107 aeb9 bb04 2ab9 20b3 423a e4e4 19ba
00000020: 4284 4e3b 3c6b ad39 69eb f03a 0d30 15bb
00000030: ba5f 943a 665a 1bbb 6607 15ba fe63 ac9e
00000040: 93be ccb9 471e c5b8 7148 0039 648f bfba
00000050: fe97 1eb9 459a 1dba a2e0 83b9 1a72 b5ba
00000060: e44e ec3a ecd7 06b9 66f3 0fba 6e4f c8ba
00000070: d5d7 8bb9 ace9 2306 8fdf 9816 9f7d 86ba
00000080: a103 e9ba 0000 0000 4026 bf39 d115 903a
00000090: 6cf0 e2ab f09a a0b5 12c9 22b9 ed35 0f39
000000a0: 22ab 0a3a e129 18b9 192b d3ba 7949 03ba
000000b0: 72fc 5f11 587d eaba 920c f9b8 0a3e ffb9
000000c0: 3b71 8bba b724 1dba 98e9 2339 fee1 6bba
000000d0: a21e beba af5e d830 18b0 0521 2310 59b9
000000e0: 4006 d8b8 7b72 0d3b af38 f739 4a5b 96ba
000000f0: 5a68 dd3a 074f 8637 0288 c734 a1ab 543a
00000100: 266c 07ba 5475 d03a f7dd f5ba 3379 b58e
00000110: 897e 12ba 87df 34b9 999d 9a39 e910 a7b9
00000120: ea2b b9b9 6190 173b 37eb b2a7 d9fe 09ba
00000130: 21c8 0d3a 40f9 ae39 6021 a1b9 831e fd21
00000140: efbe 9db9 53e1 07ba 5ecc 34ba daaf a8b9
00000150: 009b 96ba 4bf9 0d39 1855 b43a 80c7 0634
00000160: e82a 0539 ed92 1bb9 181f 4536 0000 0000
00000170: 8742 ee90 3162 1396 4442 07ba dced 2eb9
00000180: af47 1a3b 126d 31ba 6051 acb9 ec5c 89a2
00000190: 854a 4239 a6c1 62ba 7716 aeba 04b9 6439
000001a0: 3058 c13a 1756 1cba 1ab2 81ba d88e c1b6
000001b0: 1da9 30b2 1263 9a3a 2349 ea3a d634 d32c
000001c0: 8bd2 af3a 1de2 e7b9 da8e 33ba 40f4 02ab
000001d0: 1ca6 25b6 32f0 b1b9 8b9d a2ba 9d73 513a
000001e0: de38 87ba 7843 dab8 5e54 fbaa d633 eb3a
000001f0: f420 16b6 537e 3539 7c76 fc39 dea6 0137
-2.2732778e-24 0.0014609192 7.982455e-05 7.776775e-06 -0.00033193364 -0.00016214226 0.00074272044 -0.0005870594
0.0031511937 0.00033077027 0.0018380705 -0.0022764236 0.0011320033 -0.0023705005 -0.00056850014 -1.8252564e-20
-0.000390519 -9.3993316e-05 0.00012234018 -0.0014614877 -0.00015124676 -0.00060120627 -0.00025153632 -0.0013843209
0.0018028882 -0.00012859673 -0.0005491286 -0.0015282461 -0.00026672953 3.0828568e-35 2.469801e-25 -0.0010260827
-0.0017777571 0.0 0.00036458857 0.001099283 -1.6124996e-12 -1.1966022e-06 -0.00015524428 0.00013657632
0.0005289783 -0.0001451145 -0.0016110867 -0.00050082017 1.7669389e-28 -0.0017890139 -0.00011875587 -0.00048683613
-0.0010638604 -0.00059945456 0.00015631912 -0.0008998214 -0.0014504979 1.5742979e-09 4.529521e-19 -0.00020700744
-0.00010300847 0.0021583128 0.00047153744 -0.0011471298 0.0016892061 1.6010845e-05 3.7165597e-07 0.0008112733
-0.00051659567 0.0015904107 -0.0018758167 -4.4736656e-30 -0.0005588313 -0.00017249408 0.00029490588 -0.0003186532
-0.00035318668 0.0023126828 -4.9659945e-15 -0.00052641105 0.00054085447 0.00033373572 -0.0003073318 1.7152023e-18
-0.0003008763 -0.0005183417 -0.0006896908 -0.00032174477 -0.0011490285 0.00013539677 0.001375827 1.25523e-07
0.00012699852 -0.00014836686 2.9373386e-06 0.0 -9.397695e-29 -1.1905549e-25 -0.00051597157 -0.00016682543
0.0023541262 -0.0006768267 -0.00032867026 -3.723231e-18 0.00018529042 -0.00086500717 -0.0013281842 0.00021812698
0.0014751013 -0.0005963756 -0.0009894997 -5.7684774e-06 -1.0283e-08 0.0011778793 0.001787458 6.0028467e-12
0.0013414187 -0.0004422822 -0.00068495946 -4.6524243e-13 -2.4683604e-06 -0.0003393903 -0.0012406571 0.0007989945
-0.001031663 -0.00010407617 -4.4645098e-13 0.0017944525 -2.2370923e-06 0.00017308565 0.00048153463 7.727851e-06

critic.network_body.linear_encoder.seq_layers.2.weight f4 [128, 128]
00000000: 0f6d 85bd fdd0 f13c 21dd 9c3d 9cc1 14bd
00000010: cca3 67bd 576e eb3c 363c 26be ce9a d03d
00000020: 0d7b b63d 3841 333d c5cd f5bd f6cf 7c3c
00000030: 475a 2abe c9e9 983d 3e76 a23d 2be8 f8bc
00000040: 4d73 06bd 2191 82bd b77c 3a3e 75c6 af3a
00000050: b65b 523e c350 2d3d 13f7 4cbc 117d 04bd
00000060: f281 253d 77b5 7bbd 943b 30be 9daf 2b3d
00000070: 7a00 893d f749 6f3c aff3 3e3c 33fd e4bd
00000080: a5c3 12be 9691 cf3c 150e 9fbd 656c 28bd
00000090: 931a 143c 257b f6bd e9d2 b8bd 588b c5bd
000000a0: f7f1 22bd 8a12 503d 4181 463d ce40 b8bc
000000b0: 13f1 c73d 3f66 173b c593 8a3d 3b3f b7bd
000000c0: 3fc7 bf3d da4a 86bd 8e99 d1bd 9f7b 46bd
000000d0: c656 823d 2b43 aa3d 32fa 673d e3c7 efbd
000000e0: f184 633d a98c debd a521 30be 42a3 193d
000000f0: d6a0 a93d 5cd7 8b3d b6f5 08be e9a7 b73d
00000100: 86d6 773c d70f 8bbc 44e3 a0bc 7f3f 8dbd
00000110: 802b d4bc 29f3 f1bb 033e 5bbd 38fc 34be
00000120: 0b0a 08be 95df 40be eaf1 cb3c 7c10 00be
00000130: b5b2 f53d eb9c d6bd 7a70 8d3c 9b29 7f3c
00000140: fa01 cb3d e96a 683d e0eb 09bc f539 ca3d
00000150: c850 533e 7ae9 0cbd b2b0 94bc 523e f23c
00000160: 5418 91bd b6da a1bc a59f fabd 4a41 823c
00000170: 3a4a db3d 854d b33d b948 853c 1473 623b
00000180: 23b4 0dbe 464d b6bd c940 14bc 8ee7 9abd
00000190: 8d5f a33d fa8f 8e3d 7742 c6bd bc20 c3bd
000001a0: 5cb1 33bb 6157 453d 4a38 08be f6a7 c8bd
000001b0: 4e14 093e eefb 5e3d f78e 323d 247b abbd
000001c0: ed9c a13d 8ade 5d3e 6c99 2c3e b852 40bd
000001d0: 46ee cd3c cc1e f7bd 313d 16be 52bd bdbd
000001e0: 6658 263d b1c2 e9bd 9143 82bd 07fc b2bc
000001f0: 5a2d 20be d98b a53d 14ab 043e 89bb c4bd
00000200: f3e2 2ebd 7ef6 57bd 1329 0bbe ff2c 8cbd
00000210: 2a13 f9bd 4258 abbc 9ada f53c 515f 783d
00000220: 3472 71bb f1a4 963c 477f 8ebc 8019 2b3e
00000230: 83f2 de3c a675 1abd c062 cb3d 1c0f a23d
00000240: f769 cd3d 7985 df3b 0324 5bbd fe2d 52bc
00000250: f7c0 173e df73 8bbc 5d61 c9bd e5e1 0f3d
00000260: 433c 57bb a781 0d3e 7822 783d 50ac 38be
00000270: e05f 13bd 4faa 773d 412b 2abd 81f0 63bd
00000280: df22 c23c ea0c e93d fdfb 193e 3254 e63c
00000290: 687c e03d af67 033e 69c7 cbbc 12dc 94bc
000002a0: ee30 d6bd 8216 9fbd e755 21be 5d0c 0a3e
000002b0: 2d86 d73d a9c0 03be b1a1 4ebc 969a 0c3d
000002c0: 39c6 3e3d 96e9 51bd a937 843d fc6a d73c
000002d0: 2f5d 083d 290b cb3d 7a75 81bd ff11 babd
000002e0: 3f0d 8dbd 36d0 96bd f3c8 733d fc64 c7bd
000002f0: 6ca5 083e 6c9a 893d cb30 943d fd8f df3d
00000300: 19f1 05be 366e 3c3e 06a9 1dbe 50ee 3d3a
00000310: a3c4 d3bd 4db6 c03d 6916 f7bd fa83 7bbd
00000320: 42a7 cabd bd97 ea3c 8b5d 953d 8a3a 35bc
00000330: 17c2 8fbd ab93 1f3e f59e cd3c 6555 7b3d
00000340: 82d1 b0bb e99f 46be 861f 5abd 1049 debd
00000350: 5450 cabd b8f0 99bd 5e76 4abe 6d6e 9c3a
00000360: cfc5 c63d 71ee 8f39 9c20 953d abf3 163e
00000370: 9b0d ecbd 1c1f 553b 45e3 c73d c38a 843c
00000380: fd08 ffbc 34d6 c13d f511 5ebe 787e ac3d
00000390: 9c58 32be 1142 af3d 6394 2f3e 0d6f 7e3d
000003a0: 6a49 5dbd a382 133c c792 99bc 1b72 a3be
000003b0: 22c0 ee3d ab60 e7bd 9efe 09be b5cf 47bd
000003c0: ba07 893d 66ea 31bc d8b6 a4bd 8a92 d23d
000003d0: 916f 54bd 434f 9f3d 9dad 8cbd 3079 36bd
000003e0: 3fc6 1a3d 8ed4 73bd e07c 25bc 35a9 713d
000003f0: 20b7 043d f3cb 98bd 7724 b73d cbfd 203d
-0.06514942 0.029518599 0.076593645 -0.036317453 -0.056552693 0.028739138 -0.16233906 0.10185777
0.08910189 0.04376337 -0.12002138 0.015430441 -0.16636 0.07466466 0.07932709 -0.030384144
-0.032824803 -0.063753374 0.18211637 0.0013410585 0.20542797 0.04231335 -0.012510079 -0.032345835
0.04040713 -0.061452355 -0.17210227 0.041915525 0.06689544 0.014605037 0.011654778 -0.111811064
-0.14332445 0.025337975 -0.07766358 -0.041118998 0.009039539 -0.12035207 -0.09024603 -0.09645718
-0.039781537 0.05079893 0.04846311 -0.022491839 0.09762778 0.0023101715 0.06766466 -0.08947607
0.09364175 -0.065572456 -0.10234366 -0.048457738 0.06364207 0.083135925 0.05663509 -0.11708047
0.055546705 -0.108666725 -0.17200334 0.03750921 0.0828263 0.06828186 -0.13374981 0.08967573
0.01512683 -0.016975326 -0.019639619 -0.068968765 -0.025899649 -0.0073837233 -0.053525936 -0.17674339
-0.13285081 -0.1883529 0.024895627 -0.12506288 0.11996976 -0.104791485 0.017265547 0.015573884
0.099124864 0.056742582 -0.008418053 0.09874336 0.20636284 -0.034402348 -0.018150661 0.029570732
-0.07084718 -0.01975761 -0.12237481 0.015900273 0.10707517 0.0875502 0.016270028 0.0034553455
-0.13838248 -0.089014575 -0.009048649 -0.07563697 0.07977209 0.06961055 -0.09680646 -0.09527728
-0.0027418947 0.048179034 -0.13302723 -0.09797661 0.13386652 0.054439478 0.043593373 -0.083730966
0.07891259 0.21666923 0.16855401 -0.046953887 0.025138032 -0.12066421 -0.1467178 -0.092646256
0.040611647 -0.114140876 -0.063605435 -0.021848692 -0.156423 0.080833144 0.12955886 -0.09606082
-0.042696904 -0.052725308 -0.13589887 -0.0684452 -0.121618584 -0.020916108 0.030011464 0.060637776
-0.0036841752 0.018389197 -0.017394675 0.16708946 0.027215248 -0.037709855 0.099309444 0.07913038
0.10029977 0.006821331 -0.05350114 -0.012828348 0.14819704 -0.017023025 -0.09833024 0.03512754
-0.0032842315 0.1381899 0.060579747 -0.18034482 -0.035980105 0.060465153 -0.041545156 -0.055649284
0.023698268 0.11379416 0.15037532 0.02811632 0.109612286 0.12832521 -0.02487536 -0.018171344
-0.10458551 -0.07767965 -0.15755425 0.13481279 0.10523639 -0.12866463 -0.012611792 0.034327112
0.04657576 -0.051248156 0.06455929 0.026296131 0.03329199 0.09914238 -0.06321235 -0.09085464
-0.06887292 -0.07363932 0.059517812 -0.09736058 0.13344353 0.06718907 0.07235869 0.109161355
-0.13080253 0.18401417 -0.15396509 0.0007245289 -0.1034024 0.09409771 -0.12064821 -0.06140516
-0.09895183 0.028636808 0.072932325 -0.01106132 -0.070194416 0.15583675 0.02510021 0.061360735
-0.005396069 -0.19396938 -0.05325272 -0.10853779 -0.098786026 -0.075166166 -0.19771716 0.0011934765
0.09705698 0.00027452738 0.0728161 0.1474139 -0.115260325 0.0032519763 0.09760145 0.016179448
-0.031132216 0.09464684 -0.21686538 0.084225595 -0.17416614 0.08557523 0.17146449 0.062117625
-0.05402509 0.009003314 -0.018746747 -0.31922993 0.1165774 -0.11297735 -0.13476035 -0.04878207
0.06690927 -0.010859108 -0.08042687 0.10281856 -0.05186421 0.0777879 -0.068690516 -0.044549167
0.03778672 -0.05952888 -0.010100573 0.05899926 0.032401204 -0.07460775 0.08942502 0.039304536

critic.network_body.linear_encoder.seq_layers.2.bias f4 [128]
00000000: 6e67 26ba 2f8f 1cba d6cb ad38 be40 41ba
00000010: 6ec3 ecb8 06f1 40b9 0e63 8fb9 0d6e 38b9
00000020: 045c bab8 bcd7 1639 f1c0 53ba 4b96 bbb8
00000030: e02e ab38 1eec 513b 0e03 0db8 09fb feba
00000040: 0a8e a139 87ed 863b d0d1 d739 fc57 793b
00000050: a196 cc3b 9a35 adb8 62fe 86ac 78b0 3fba
00000060: d2c6 8f3a f7c4 fd39 8268 abb7 9920 d2b9
00000070: c5a5 af38 c27d 93b8 7882 8ab5 8420 b7b8
00000080: d625 ac39 2f8f 2cb9 fa30 0d3b e2ab d4ba
00000090: f682 4437 2967 51b9 f599 1ebb 3c57 b1b8
000000a0: aa1c f3b9 60a7 252d 0000 0000 79cb b9b8
000000b0: c4fa 7fa1 8bac d1b8 5910 81ba 511b 1aba
000000c0: f0fe 1c3b 2893 f6ba 66ac e6b9 b3da 9d3a
000000d0: 3951 b3b8 4eb9 3c39 64d4 431e d3bb 88ba
000000e0: de04 55ba 3519 9f36 6251 a738 405b 12b9
000000f0: 261d 47b7 c574 623a 027b a427 4efe d0ba
00000100: b558 343a 25e5 a338 328a bfb8 55e8 1abb
00000110: aec6 ad38 d7bd a738 bcfc 213b a461 550d
00000120: 2b17 ae38 1419 9438 66aa b9b8 bdd2 59ba
00000130: b863 2bbb fa9d e13a 0b68 d6b9 ce58 bfb8
00000140: c943 dbb7 d7a2 9b38 77b5 efba 4118 0dbb
00000150: 8df0 4c34 c2c5 68ab d4ef a038 cbc3 ae38
00000160: e032 bab8 0d53 a738 958a dc3a 2a23 67b9
00000170: 2df5 053a a7a8 883a 9403 e138 127f 13bb
00000180: 7203 3cba df87 203b 8541 bab8 d6a9 ceb9
00000190: 7e36 c6b8 c277 9d3a 17c8 b9b8 eb6f 9738
000001a0: 5f97 b9b8 d894 5f3b d376 0bba 53a7 903b
000001b0: 36e7 cbb8 f88c bdb8 333b 7038 c2ab a938
000001c0: 4ca5 193a 952f 2cbb 8abf 3237 1275 1fbb
000001d0: 1e9e 73ba 3f8b d8b8 a14f 5d3b b0db 19ae
000001e0: f66b f532 38b5 6e3b f2fe a938 8e47 5838
000001f0: 45a6 553a 659a 111a 9b71 4296 f134 d03a
-0.00063478097 -0.0005972264 8.28725e-05 -0.0007372013 -0.000112897585 -0.00018400335 -0.00027348887 -0.00017588605
-8.8863104e-05 0.00014385482 -0.0008077762 -8.944849e-05 8.1626466e-05 0.0032031606 -3.3619865e-05 -0.0019453476
0.0003081414 0.004117671 0.00041164318 0.0038046828 0.0062435423 -8.259267e-05 -3.8367512e-12 -0.00073123677
0.0010969287 0.0004840267 -2.0433454e-05 -0.00040078608 8.375527e-05 -7.0329304e-05 -1.0319773e-06 -8.7321765e-05
0.00032834586 -0.00016456538 0.0021544085 -0.0016225541 1.1713002e-05 -0.00019970223 -0.0024200652 -8.4562664e-05
-0.00046369928 9.416329e-12 0.0 -8.859387e-05 -8.6729246e-19 -9.998035e-05 -0.0009846791 -0.0005878704
0.0023955666 -0.0018812167 -0.00043997465 0.0012043327 -8.550514e-05 0.00017998109 1.0367135e-20 -0.0010431953
-0.00081260304 4.7415037e-06 7.978339e-05 -0.00013957638 -1.1868111e-05 0.0008638616 4.565251e-15 -0.0015944929
0.00068796735 7.815127e-05 -9.1333306e-05 -0.0023637016 8.28629e-05 7.998541e-05 0.0024717292 6.5753223e-31
8.301282e-05 7.061861e-05 -8.8532266e-05 -0.00083092955 -0.0026151966 0.0017213218 -0.0004089478 -9.124131e-05
-2.61384e-05 7.421307e-05 -0.0018288334 -0.002152935 1.9086492e-07 -8.26974e-13 7.674066e-05 8.333436e-05
-8.878647e-05 7.97865e-05 0.0016825969 -0.00022042976 0.00051100814 0.0010426239 0.000107295025 -0.002250616
-0.0007172144 0.0024495048 -8.881375e-05 -0.0003941792 -9.451526e-05 0.001201384 -8.858757e-05 7.2210874e-05
-8.8496825e-05 0.0034115817 -0.00053201354 0.004414478 -9.722861e-05 -9.03848e-05 5.7275593e-05 8.09054e-05
0.0005861118 -0.0026273478 1.0654223e-05 -0.0024331254 -0.00092932757 -0.00010325619 0.0033769386 -3.4983294e-11
2.8570849e-08 0.0036423933 8.106035e-05 5.1565054e-05 0.0008150081 3.0110016e-23 -1.5707043e-25 0.0015884918

critic.value_heads.value_heads.extrinsic.weight f4 [1, 128]
00000000: 9481 f83d 2fc6 83bd 5d9a 4bbe 70fd 10be
00000010: 9908 c73c 6032 d03b c989 49be ee62 a8bc
00000020: a417 1b3e 8de5 03be 5f97 cdb9 f6cd 1b3e
00000030: d50e 0cbe 9c0a 02be 8d9e 463e 1417 ebbd
00000040: 43a6 bfbd 408d e6bd 1424 5dbe f696 0abe
00000050: d22a 3a3e 63cb 50be b225 593e 0fb2 b8bc
00000060: f1fb 2bbe c04e bd3d db14 41be 7ee7 8cbc
00000070: 7c41 28be d259 3a3d 8b04 a13d 051a 5cbe
00000080: 146a 333d b74c 053c 2561 4fbe 29e1 a0bd
00000090: 23f0 033e d84b 2f3c ee69 4a3e 7359 f13d
000000a0: b38c 573e 1862 a1bd de03 35be ef85 5a3e
000000b0: 1424 193e 4d53 8a3d 63fe bab9 d22b cabb
000000c0: ac57 d4bd e493 083e 018d dc3d e7d7 17be
000000d0: 5297 193e d332 45bd f3ba 3ebe 17f1 9e3d
000000e0: 54dc e7bd 32db f93d a331 d4bd 9daa f1bd
000000f0: c850 113d f309 683d b6a5 3a3e 78c6 1cbe
00000100: 0604 11bd 80a2 a3bd 0464 043e 4087 c3bd
00000110: 5da9 5cbe c21d adbd 7036 10be 527b 313e
00000120: 8ef5 5abe c011 943d 4507 8d3d ec21 833c
00000130: 65a4 283d b665 bfbd 2348 d03c bd81 c23d
00000140: 42bc 323e d23a e2bd 8649 4abd 9bd2 aebd
00000150: db39 d73d b034 a53d 3167 8dbd 0acc 4cbe
00000160: a21c 3f3e 67fb 55be 1d4c d23d b76b 2cbe
00000170: a58e 47be 0f25 3cbe 4244 e4bc 48ac a4bc
00000180: 6c1a de3d a93c f83d 44ee 533e edc2 c53d
00000190: 9653 893d bef5 233e cc10 5b3e 609b 2dbd
000001a0: 43bb 483e 9985 81bc 0a2f 0e3e e72d bb3d
000001b0: 928c 733d eab1 5c3e e911 b4bc 4df3 86bd
000001c0: 95fe 5bbe b196 b83d c9dd 5abe 3b4c d2bd
000001d0: 6995 abbd e19d 3f3d c8f0 bc3d ce03 43be
000001e0: 46ee 343d 4917 053e b1b3 08be 556c 95bc
000001f0: 5aac b33d 60e4 123d 121c a1bd 6859 1fbe
0.1213409 -0.06434285 -0.19883104 -0.14159179 0.024296092 0.0063536614 -0.19681467 -0.020554986
0.15145737 -0.12880535 -0.00039213427 0.15215287 -0.13677533 -0.1269936 0.1939642 -0.11479011
-0.09357884 -0.1125741 -0.21595794 -0.1353415 0.18180397 -0.20390086 0.21205786 -0.022545842
-0.16795327 0.09243536 -0.18855612 -0.017200228 -0.1643123 0.045495816 0.07862195 -0.214943
0.043802336 0.008135966 -0.20251901 -0.07855446 0.12884574 0.010699235 0.19766971 0.11784639
0.21049766 -0.07880038 -0.17677256 0.21340154 0.14955169 0.067541696 -0.00035666217 -0.0061697746
-0.103682846 0.13337666 0.10769082 -0.14828454 0.1499913 -0.048144173 -0.18626003 0.07760828
-0.11321321 0.12200011 -0.1036103 -0.1180012 0.03547743 0.056650113 0.18227276 -0.15310085
-0.035404228 -0.07989979 0.12928778 -0.09547281 -0.21548982 -0.084529415 -0.14083266 0.17332199
-0.21382734 0.07229948 0.06886152 0.016007386 0.041172404 -0.09345572 0.025425022 0.09497402
0.17454627 -0.11046375 -0.049386524 -0.085362636 0.10509082 0.0806669 -0.06904448 -0.1999971
0.18663266 -0.20896684 0.10268424 -0.16837965 -0.19488008 -0.18373512 -0.02786458 -0.020101681
0.10844883 0.12120945 0.2069636 0.0965632 0.06705396 0.16011712 0.21393126 -0.042384505
0.19602685 -0.015810775 0.13885131 0.091396146 0.05946023 0.21552244 -0.021981196 -0.06589375
-0.21483834 0.09013117 -0.21373667 -0.10268446 -0.08378107 0.046781424 0.09225613 -0.1904442
0.044172548 0.12997164 -0.13349797 -0.018240133 0.08773108 0.035862327 -0.07866682 -0.1556145
