Unity - Crypto Ball/results/ppo/My Behavior/My Behavior-6185.onnx (onnx, 72892 bytes, 7 tensors)

action_model._continuous_distribution.log_sigma f4 [1, 2]
000000 00 00 00 00 00 00 00 00
       0.0 0.0

action_model._continuous_distribution.mu.bias f4 [2]
000000 00 00 00 00 00 00 00 00
       0.0 0.0

action_model._continuous_distribution.mu.weight f4 [2, 128]
000000 22 ec 86 3c db 0e 82 3c 5a 04 e4 3b 07 9f fa bb
       0.016470019 0.015876224 0.0069585266 -0.007648352
000010 fb f2 1f 3c 90 6b 84 bc 60 32 c5 3b d0 c7 c2 bc
       0.009762521 -0.016164571 0.006017968 -0.023776919
000020 5f 6b 0d bd bd cd 2f 3c eb 3f e4 3c 4f 72 06 3d
       -0.034526225 0.010730204 0.02786251 0.032823857
000030 bf 9b 64 3c 6f 81 d2 3b 90 7e 2a 3c 4f cd 2e 3c
       0.013953148 0.006424121 0.010406151 0.010669067
000040 9e 4f 45 bc 7f dc 84 b8 bf 0d d8 3b 0c 7c aa 3a
       -0.012042908 -6.335321e-05 0.0065934355 0.001300694
000050 22 45 60 3c c7 33 60 3c fa b4 87 bc 03 a5 1e ba
       0.013688358 0.01368422 -0.016565789 -0.00060518103
000060 23 0e b8 bc 33 d7 0e 3c 94 64 cc 3a 90 76 b6 bb
       -0.022467678 0.0087183 0.001559394 -0.005568333
000070 e3 cc 95 bc c3 b4 5e bc 79 4f 9c 3c 2b 4b 25 bc
       -0.018286174 -0.013592902 0.019080864 -0.010088722
000080 7a d3 cd 3b dc f5 1d 3c 37 28 f6 bc 8f 2d 86 3c
       0.0062813135 0.009641137 -0.030048473 0.016379146
000090 b5 73 d0 3b 17 f5 91 3b 93 05 ea bc 3f 2b 35 3a
       0.0063614496 0.004454266 -0.028567111 0.0006911046
0000a0 93 54 55 bc 97 da 48 bc 73 22 3e bc f8 ba a3 3b
       -0.013020652 -0.012259147 -0.011604893 0.0049966536
0000b0 b7 45 14 bd 50 46 59 3b f7 68 48 3c c6 7f 28 3b
       -0.036199298 0.0033153482 0.012232057 0.0025710925
0000c0 20 29 37 3c 29 04 b5 bb dd 37 c7 3c c6 f6 a3 3c
       0.011179239 -0.0055241776 0.02431863 0.020015132
0000d0 ef 20 29 ba 4a f2 b3 bc 03 3e a0 bc 80 11 7a bb
       -0.0006451746 -0.021966118 -0.01956082 -0.0038157403
0000e0 d4 60 8e 3c 48 ba 6f bc be ba 15 bd b5 c0 7f bb
       0.017380156 -0.014631815 -0.036555044 -0.0039024774
0000f0 40 85 4e bc 1a 9b cd 3c 98 f3 3f 3c 90 0a 33 3c
       -0.012605011 0.025098372 0.011715792 0.010927811
000100 ff 66 cb 3c 80 45 2a bc 9f a5 35 bc 9b c3 7e 3c
       0.024829386 -0.010392547 -0.01108685 0.015549566
000110 eb b7 ef 3c bf 87 49 3b ed 2c 5a bb e6 66 a4 bc
       0.029262504 0.0030751077 -0.0033290938 -0.020068597
000120 77 e8 e2 bc 53 b4 39 3c 27 c0 0d bc 60 92 cf bc
       -0.027698739 0.011334497 -0.00865177 -0.025338352
000130 08 03 dc 3b 87 47 c9 bc f8 a9 d3 bc 69 d1 c3 3b
       0.0067142285 -0.02457024 -0.025837883 0.0059758914
000140 9b 7b 50 bc 0e f7 92 3c 08 0e 61 3c dd 1a 57 ba
       -0.012724782 0.01794007 0.0137362555 -0.0008205602
000150 47 49 9c 3c 07 90 6b bc 72 dc 64 bc a0 ce 7a bc
       0.01907791 -0.0143776005 -0.013968574 -0.015308052
000160 0d d2 f3 bb 72 4b 4f bc 87 13 45 bc c7 da 20 3c
       -0.0074408115 -0.012652265 -0.012028581 0.009817786
000170 37 47 0d bd 54 f4 af bc fa 8c f7 bb 63 64 3b ba
       -0.034491744 -0.02147881 -0.0075546475 -0.00071484427
000180 ef 7b ce 3c 31 74 9e 3c c2 8d 5e 3c ea c5 a9 bb
       0.02520558 0.019342514 0.013583602 -0.005181064
000190 70 f6 54 3b 2f 32 89 bc 08 ac 6e 3c 19 de 25 bb
       0.003249552 -0.016747562 0.014567383 -0.0025309382
0001a0 75 23 45 bc 47 74 80 3c f5 63 02 bb 1e 5b 9a 3c
       -0.012032379 0.015680445 -0.0019896005 0.018842276
0001b0 05 ae e6 ba 1e df c7 3c aa 36 c4 3a bc d1 39 bc
       -0.0017599469 0.024398383 0.0014969904 -0.0113415085
0001c0 7f 78 3e 3c 7c a5 81 39 30 1e 4e 3c 93 78 be bb
       0.011625408 0.00024728093 0.012580439 -0.0058127134
0001d0 5a 9e 0f bc 13 ac c2 bc 6d 41 ca bb fc b1 0a 3b
       -0.008765781 -0.023763692 -0.00617235 0.0021163216
0001e0 6d c8 51 3c 55 42 2f 3b ba 68 cb bc de 88 b9 3c
       0.012804133 0.0026742418 -0.024830211 0.022648271
0001f0 1d d6 2e 3c d0 86 6e 3b 99 70 3a ba f1 3b 13 3c
       0.010671166 0.0036396272 -0.0007112115 0.008986459
000200 bb 5d 1c bc 03 de 97 3b dd 1a 53 3c 1e 0b 85 bc
       -0.009543831 0.00463462 0.012884823 -0.016240653
000210 fb ae aa bc 42 68 fe ba e3 0a ba 3c 50 30 ce 3b
       -0.02083539 -0.0019409733 0.02271027 0.0062923804
000220 0b 25 a1 bb 47 0b 2a bc 15 02 d2 bb 9d 3b 85 3c
       -0.004917746 -0.010378665 -0.0064089396 0.016263777
000230 3b b6 69 bd e3 05 55 bc a9 07 a5 bb 0f 7a 14 bc
       -0.057058554 -0.013001892 -0.0050363136 -0.009062304
000240 cd 5d b8 3b 39 06 9a 3c 27 16 2c 3c 8f 1d a6 3b
       0.0056264163 0.018801795 0.010503328 0.0050694416
000250 d3 d4 10 bc f5 df e3 3c 9e e8 be 3a 47 ad e4 3c
       -0.008839804 0.027816752 0.0014565175 0.027914656
000260 10 4b 7d bb 58 b1 f2 3c 3e d4 b5 bc d1 f8 90 bc
       -0.0038649477 0.02962558 -0.022195932 -0.01769677
000270 55 5c a0 bc 5d 4e a4 3c 73 dc be 3b 5b 7f af bb
       -0.019575277 0.020056898 0.0058246194 -0.005355758
000280 af 28 9b 3a 13 b2 48 bc 91 9d 81 bb 13 9a 82 bc
       0.0011837686 -0.012249487 -0.003955551 -0.015942609
000290 22 00 d3 3c af b6 e2 3c 77 c4 ef b9 55 d9 e0 3b
       0.0257569 0.027675001 -0.0004573201 0.0068618455
0002a0 52 c0 8b 3c cf 46 a0 3b d4 5d b9 b9 6b e8 57 3a
       0.017059479 0.0048912535 -0.00035355857 0.0008236232
0002b0 c2 59 b8 bc a7 61 fd 3b d4 68 1e bb 39 c7 1a 3d
       -0.022503737 0.0077325883 -0.002417137 0.03778765
0002c0 3b 99 20 bd 5b af cd 39 42 4e 75 3c 4d c9 4d 3d
       -0.039208632 0.00039231297 0.014972271 0.050240804
0002d0 3a 1f fc 3a c2 a7 4d bc 4f 46 17 3c 2d 1f 7f bb
       0.001923538 -0.012552204 0.0092330715 -0.0038928494
0002e0 93 d1 0e bb 73 c8 0d 3b db 71 79 bc 73 6f 5f 3c
       -0.0021792396 0.002163437 -0.015224899 0.013637411
0002f0 3b a4 8e bc da b5 3a bc 7b c6 99 3a bd 0c f2 bc
       -0.017412296 -0.011395896 0.0011732125 -0.02954709
000300 82 43 29 3c 88 0c 11 3c a4 f0 07 3d ff de 3f bb
       0.0103310365 0.008853085 0.033188477 -0.0029277203
000310 1d 79 59 3c df 0d fb 3a 97 cf 05 3d 98 4e 59 3a
       0.013273505 0.0019153914 0.032668676 0.00082896044
000320 03 ae 88 ba eb 5d ab 3c d7 9b 62 3b d1 b9 92 3b
       -0.0010427836 0.020918807 0.003457775 0.0044777174
000330 37 40 0a bd e5 b1 4d bc 7f c8 54 3a d1 b2 89 bc
       -0.033752646 -0.01255462 0.00081170344 -0.0168089
000340 a2 34 34 3b cc b3 a3 3c c1 30 04 3d 2e 7b 15 bd
       0.0027497192 0.019983195 0.032273058 -0.036494426
000350 5d 22 71 bc 88 82 a6 bc 81 86 91 ba 07 40 ea bc
       -0.0147176655 -0.020325914 -0.0011102707 -0.028594984
000360 1b 8c 2d bc 60 d5 56 3c 21 47 cc bc cc 57 05 bd
       -0.010592486 0.013112396 -0.02493626 -0.032554433
000370 18 73 d4 3b ec 32 ac bc bf a1 f9 bc 11 96 8a 3b
       0.006483447 -0.021020375 -0.030472634 0.004229315
000380 85 34 21 bb 48 66 9b bc 48 98 94 bb 0d 00 84 bc
       -0.0024597954 -0.01896967 -0.004534755 -0.016113305
000390 cf 48 3a 3c 5b 86 55 3b cf 38 17 bc e7 53 70 bc
       0.011369898 0.0032581303 -0.009229853 -0.014668441
0003a0 80 76 eb bb 5b dc 04 bc 48 2b e4 3c 9d fa b8 bc
       -0.007185757 -0.008109177 0.02785267 -0.02258044
0003b0 43 90 bf bc 13 77 9b 3a 4f 2b 3a bb 6a 0b 87 bb
       -0.023384219 0.0011861048 -0.0028407162 -0.0041212337
0003c0 ed a6 9c 3c bb 79 3c 3c fd 16 d7 bc 0a 92 a3 3c
       0.019122565 0.011503632 -0.026256079 0.019967098
0003d0 71 85 45 3b a0 7d 9a ba 4a d8 37 3c b0 1c 81 bc
       0.0030139352 -0.0011786707 0.011221001 -0.01576075
0003e0 08 9a 27 bd b7 d1 a8 bc ae 78 0f 3d aa df 72 3c
       -0.04091838 -0.020607812 0.0350272 0.0148238335
0003f0 83 77 f3 3c 0e 6a 3e 3d bb 1f 8f bb b7 b1 f3 3c
       0.029720074 0.04648786 -0.0043677962 0.029747827

network_body.linear_encoder.seq_layers.0.bias f4 [128]
000000 00 00 00 00 00 00 00 00 00 00 00 00 00 00 00 00
       0.0 0.0 0.0 0.0
000010 00 00 00 00 00 00 00 00 00 00 00 00 00 00 00 00
       0.0 0.0 0.0 0.0
000020 00 00 00 00 00 00 00 00 00 00 00 00 00 00 00 00
       0.0 0.0 0.0 0.0
000030 00 00 00 00 00 00 00 00 00 00 00 00 00 00 00 00
       0.0 0.0 0.0 0.0
000040 00 00 00 00 00 00 00 00 00 00 00 00 00 00 00 00
       0.0 0.0 0.0 0.0
000050 00 00 00 00 00 00 00 00 00 00 00 00 00 00 00 00
       0.0 0.0 0.0 0.0
000060 00 00 00 00 00 00 00 00 00 00 00 00 00 00 00 00
       0.0 0.0 0.0 0.0
000070 00 00 00 00 00 00 00 00 00 00 00 00 00 00 00 00
       0.0 0.0 0.0 0.0
000080 00 00 00 00 00 00 00 00 00 00 00 00 00 00 00 00
       0.0 0.0 0.0 0.0
000090 00 00 00 00 00 00 00 00 00 00 00 00 00 00 00 00
       0.0 0.0 0.0 0.0
0000a0 00 00 00 00 00 00 00 00 00 00 00 00 00 00 00 00
       0.0 0.0 0.0 0.0
0000b0 00 00 00 00 00 00 00 00 00 00 00 00 00 00 00 00
       0.0 0.0 0.0 0.0
0000c0 00 00 00 00 00 00 00 00 00 00 00 00 00 00 00 00
       0.0 0.0 0.0 0.0
0000d0 00 00 00 00 00 00 00 00 00 00 00 00 00 00 00 00
       0.0 0.0 0.0 0.0
0000e0 00 00 00 00 00 00 00 00 00 00 00 00 00 00 00 00
       0.0 0.0 0.0 0.0
0000f0 00 00 00 00 00 00 00 00 00 00 00 00 00 00 00 00
       0.0 0.0 0.0 0.0
000100 00 00 00 00 00 00 00 00 00 00 00 00 00 00 00 00
       0.0 0.0 0.0 0.0
000110 00 00 00 00 00 00 00 00 00 00 00 00 00 00 00 00
       0.0 0.0 0.0 0.0
000120 00 00 00 00 00 00 00 00 00 00 00 00 00 00 00 00
       0.0 0.0 0.0 0.0
000130 00 00 00 00 00 00 00 00 00 00 00 00 00 00 00 00
       0.0 0.0 0.0 0.0
000140 00 00 00 00 00 00 00 00 00 00 00 00 00 00 00 00
       0.0 0.0 0.0 0.0
000150 00 00 00 00 00 00 00 00 00 00 00 00 00 00 00 00
       0.0 0.0 0.0 0.0
000160 00 00 00 00 00 00 00 00 00 00 00 00 00 00 00 00
       0.0 0.0 0.0 0.0
000170 00 00 00 00 00 00 00 00 00 00 00 00 00 00 00 00
       0.0 0.0 0.0 0.0
000180 00 00 00 00 00 00 00 00 00 00 00 00 00 00 00 00
       0.0 0.0 0.0 0.0
000190 00 00 00 00 00 00 00 00 00 00 00 00 00 00 00 00
       0.0 0.0 0.0 0.0
0001a0 00 00 00 00 00 00 00 00 00 00 00 00 00 00 00 00
       0.0 0.0 0.0 0.0
0001b0 00 00 00 00 00 00 00 00 00 00 00 00 00 00 00 00
       0.0 0.0 0.0 0.0
0001c0 00 00 00 00 00 00 00 00 00 00 00 00 00 00 00 00
       0.0 0.0 0.0 0.0
0001d0 00 00 00 00 00 00 00 00 00 00 00 00 00 00 00 00
       0.0 0.0 0.0 0.0
0001e0 00 00 00 00 00 00 00 00 00 00 00 00 00 00 00 00
       0.0 0.0 0.0 0.0
0001f0 00 00 00 00 00 00 00 00 00 00 00 00 00 00 00 00
       0.0 0.0 0.0 0.0

network_body.linear_encoder.seq_layers.0.weight f4 [128, 6]
000000 32 2d db be 68 89 64 3e bc b8 ff be ad d0 23 bf
       -0.4280792 0.22318041 -0.4994563 -0.6399029
000010 35 91 c9 be c5 48 3d bf f0 0e 4f be 8d b4 47 3e
       -0.39368597 -0.7393916 -0.20220542 0.19502468
000020 22 61 eb be 3d e4 ec be 7c 29 53 be d6 24 e3 3e
       -0.45972544 -0.46267882 -0.20621294 0.4436404
000030 39 ca 85 be 97 df 21 be a4 ce b2 bd 95 f2 85 bc
       -0.26130846 -0.15807949 -0.0873082 -0.016351024
000040 21 41 44 bf 8b b7 59 3f 85 36 cf be bd 50 3b bf
       -0.7666188 0.8504569 -0.40471283 -0.7317007
000050 1a 65 7f be fd c3 37 3f 34 6a 99 3e a5 be de 3d
       -0.24940911 0.7178343 0.2996384 0.10876206
000060 77 6f 62 3e 16 66 65 bd ec 87 81 3e ef 21 39 bf
       0.22112833 -0.05600556 0.25299013 -0.72317404
000070 4a d0 24 bf 0a fb 20 3e d6 df 46 be 6e 18 93 3f
       -0.64380324 0.15720764 -0.19421324 1.149183
000080 24 9f 92 3d 4b c7 3a 3e 94 e1 a0 3e d6 df b6 be
       0.0715926 0.18240087 0.31422102 -0.35717648
000090 d6 ce 07 3e b1 1b a1 3c ef 81 b5 3e 7e b0 ae be
       0.13262495 0.019666525 0.35450694 -0.34119028
0000a0 16 41 ed be 9d 5d 21 be b5 e8 82 be 67 40 e4 bc
       -0.4633872 -0.15758367 -0.25568166 -0.02786274
0000b0 e0 3e a0 3e 3b ed 8c be 12 17 98 3e 39 43 2b 3e
       0.3129797 -0.27524742 0.297051 0.16724862
0000c0 8f 1a 45 3f 2e e9 3e be 77 0f a0 3e 60 4f 35 be
       0.7699365 -0.18643638 0.312618 -0.1770606
0000d0 be 70 7d 3e 50 7f c7 bd 50 c8 2c be 45 d2 de be
       0.24750039 -0.0974108 -0.16873288 -0.43519798
0000e0 1f 26 c0 3e 81 b1 ac 3d 40 cc 79 be 8a 59 7d 3f
       0.37529084 0.08432294 -0.24394321 0.9896475
0000f0 4e b6 04 be 86 93 e9 be 51 c1 65 be a5 71 55 3f
       -0.12960169 -0.45620364 -0.22437026 0.8337653
000100 86 b2 7b bf 01 a4 4d be 38 e7 a8 be eb 3d b3 bd
       -0.9831928 -0.20082094 -0.32988906 -0.08752044
000110 26 a3 14 bf e2 ba 9d be b8 e8 00 bf 99 52 f7 3e
       -0.58061445 -0.30806643 -0.503551 0.48305205
000120 06 41 75 bf bd 09 5e bc 97 09 9c 3e dc 9d 09 3e
       -0.9580234 -0.0135521265 0.30476066 0.13439125
000130 ac 45 95 3e dd de fa bc 32 ed c0 bd f6 f6 8f 3e
       0.29154718 -0.030623848 -0.094202414 0.28118104
000140 26 4d 20 3f 30 05 16 3e 91 79 16 bd 8e b3 fc bd
       0.6261772 0.14650416 -0.03673703 -0.12338935
000150 8d 28 a7 be 62 61 24 bf cb 32 1b be 36 f6 cc 3d
       -0.32648125 -0.64211094 -0.15156095 0.100078985
000160 16 a0 3d 3e e3 9b 42 3e bf 73 81 be 94 1a 1b 3e
       0.18518099 0.19004779 -0.2528362 0.15146858
000170 fd c2 6e bf 11 48 9b 3e 3f 92 a0 be 07 c5 4f 3d
       -0.9326628 0.3032842 -0.31361577 0.05072501
000180 00 23 64 3e a7 e0 2d bf ef eb 12 bf 57 a4 0d bb
       0.22278976 -0.6792092 -0.57391256 -0.0021612847
000190 46 7e 91 3e 82 02 a7 3e 39 fb 41 3e 33 da 58 3e
       0.2841665 0.326191 0.1894349 0.21176986
0001a0 f8 f7 d3 be d8 6e 8c 3e de 04 a6 bd e9 13 19 bf
       -0.41400123 0.27428317 -0.08106397 -0.59796005
0001b0 eb 28 bf be ea 34 21 3f 25 ae b3 3d b1 fa ba be
       -0.37335905 0.62971365 0.0877345 -0.36519387
0001c0 93 a3 aa 3d 4a a8 b4 be 33 2d 92 3e 9c b7 bc be
       0.083319806 -0.35284644 0.2855011 -0.36858833
0001d0 96 b0 ee be 93 95 90 3e 32 96 96 3e 8e 40 a2 3d
       -0.466191 0.28239116 0.29411465 0.07922469
0001e0 b2 b9 96 3e b4 75 ba be 71 69 57 be f1 0c 22 3e
       0.2943855 -0.36417925 -0.21036316 0.15825249
0001f0 9c b3 7f 3e 0a 38 1d be 82 af bd bd 44 09 c5 bd
       0.2497086 -0.15353408 -0.09261991 -0.09620908
000200 49 60 d8 3e cc c5 7d 3f bc 03 be be fd 7a 75 be
       0.4226096 0.9912994 -0.37112224 -0.23972698
000210 b2 a0 e7 3d 0b 77 92 bd bd 4c f0 3e eb 59 eb be
       0.11309947 -0.07151612 0.46933547 -0.4596704
000220 a1 c2 03 3e 6b dd ac bd c4 38 06 bf d0 e9 2f 3e
       0.12867214 -0.084406696 -0.5243037 0.17179036
000230 af c2 c7 bc e9 53 30 be 84 c5 36 bf f4 a8 97 3d
       -0.024384825 -0.17219509 -0.71395135 0.07405272
000240 7c 60 88 3e d8 e4 13 3e ad ce 59 3e 5a a8 05 3f
       0.26636112 0.14442766 0.21270247 0.5221001
000250 36 2d 31 be 08 04 2b bd 9b b3 12 be 67 1f fe 3e
       -0.17302403 -0.04175189 -0.14326327 0.49633333
000260 18 2a 15 bf 22 02 1e be 7a e9 88 3f 9c 06 b1 3d
       -0.58267355 -0.15430501 1.0696251 0.08643839
000270 65 9d e3 be e0 84 c0 be a2 c5 b2 be 82 13 19 bf
       -0.4445602 -0.37601376 -0.34916407 -0.5979539
000280 2a 3a 4a 3e 82 f4 fb be 69 45 83 3e 72 f9 54 be
       0.1974875 -0.49209982 0.25638893 -0.20798281
000290 58 42 82 be 46 4d 06 3e f1 08 11 3f 9b 27 80 be
       -0.2544124 0.13115415 0.5665427 -0.25030217
0002a0 40 ae 0b 3d 3f f3 66 3d 27 d5 96 3e 33 45 0f bd
       0.034101725 0.05638432 0.29459497 -0.034978103
0002b0 32 de a4 3e b0 0d 3f 3f 09 d4 2b bf fd 87 de bd
       0.32200772 0.7463026 -0.67120415 -0.108657815
0002c0 fc c3 3a be 30 48 aa 3d 85 cc 0b 3d 28 ba 1e 3f
       -0.18238825 0.0831455 0.034130592 0.620028
0002d0 ca f8 36 3f cd e1 db be f6 d3 70 3e f5 1f 9b be
       0.7147337 -0.4294571 0.23518357 -0.3029782
0002e0 dc c2 ac 3e cb 8a 73 bd ae 2b ca 3d f8 61 94 3d
       0.33742416 -0.059458535 0.098716125 0.072452486
0002f0 10 c5 95 bf 44 d6 f0 be 2f ec b8 be 73 69 60 3e
       -1.1700764 -0.47038472 -0.36117694 0.21915226
000300 28 20 93 be 32 36 5f 3d 71 74 00 3f 3c f9 36 3d
       -0.2873547 0.054495044 0.50177675 0.044671282
000310 05 8e 58 3f c9 42 a3 bf b2 db 34 3d 1c a9 23 3f
       0.84591705 -1.2754756 0.04415483 0.63929915
000320 dc 5a 9b 3d 51 d1 1e be c5 54 64 3f b0 9b 52 be
       0.075856894 -0.15509535 0.8919185 -0.20567203
000330 da 58 14 be 9c 03 24 bf 9f 50 40 bf 4d 21 8e be
       -0.14487019 -0.6406801 -0.7512302 -0.2775978
000340 5c 7d 5d 3f d2 5c 4c be 28 44 f2 bd 87 bc 9a be
       0.8651941 -0.19957283 -0.11829406 -0.3022196
000350 5a 8a c7 3e 4d 51 2f bf 82 eb a9 be e2 98 19 3f
       0.3897274 -0.6848343 -0.3318749 0.59998906
000360 59 61 2e bf b7 ba f7 3e 6c 2a 91 be 2a 89 89 be
       -0.6811729 0.4838464 -0.28352678 -0.2686246
000370 12 3e f5 bd 89 d1 93 3e db e3 e3 3d 2b 32 c0 be
       -0.119747296 0.288708 0.11127444 -0.37538275
000380 eb 65 93 be 4e fe 9a bd 18 d8 2b be 31 b2 d9 be
       -0.28788695 -0.07568036 -0.16781652 -0.42518762
000390 ef fc 9d be cf 18 ef 3d d7 cf 5c 3f 21 8a 11 3f
       -0.30857036 0.11674654 0.8625464 0.56851393
0003a0 36 9e 0f 3e 7f fc 41 3e 33 99 1e be 32 c9 9c 3d
       0.14025196 0.18943976 -0.15488128 0.076555625
0003b0 d4 bd 01 bf 3d 7b 97 3e f3 91 0e be 02 a7 3a 3f
       -0.5068028 0.2958621 -0.13922863 0.72911084
0003c0 b6 79 73 bc 4f 2c 32 bf 4a f1 3a be 63 d2 7b 3d
       -0.014860561 -0.6959886 -0.18256107 0.061479937
0003d0 94 04 02 3e 96 0c a4 bd 8f a0 c7 3d f0 7f 00 bf
       0.12697059 -0.08010213 0.09747421 -0.5019522
0003e0 65 82 ac be e5 48 f5 be 58 ed b9 3e 21 0f f5 bd
       -0.33693233 -0.47907177 0.3631389 -0.11965776
0003f0 75 4c 33 3f 01 18 1a bf 6f 73 cd be b9 fa b6 3e
       0.7003854 -0.6019288 -0.4012713 0.3573816

network_body.linear_encoder.seq_layers.2.bias f4 [128]
000000 00 00 00 00 00 00 00 00 00 00 00 00 00 00 00 00
       0.0 0.0 0.0 0.0
000010 00 00 00 00 00 00 00 00 00 00 00 00 00 00 00 00
       0.0 0.0 0.0 0.0
000020 00 00 00 00 00 00 00 00 00 00 00 00 00 00 00 00
       0.0 0.0 0.0 0.0
000030 00 00 00 00 00 00 00 00 00 00 00 00 00 00 00 00
       0.0 0.0 0.0 0.0
000040 00 00 00 00 00 00 00 00 00 00 00 00 00 00 00 00
       0.0 0.0 0.0 0.0
000050 00 00 00 00 00 00 00 00 00 00 00 00 00 00 00 00
       0.0 0.0 0.0 0.0
000060 00 00 00 00 00 00 00 00 00 00 00 00 00 00 00 00
       0.0 0.0 0.0 0.0
000070 00 00 00 00 00 00 00 00 00 00 00 00 00 00 00 00
       0.0 0.0 0.0 0.0
000080 00 00 00 00 00 00 00 00 00 00 00 00 00 00 00 00
       0.0 0.0 0.0 0.0
000090 00 00 00 00 00 00 00 00 00 00 00 00 00 00 00 00
       0.0 0.0 0.0 0.0
0000a0 00 00 00 00 00 00 00 00 00 00 00 00 00 00 00 00
       0.0 0.0 0.0 0.0
0000b0 00 00 00 00 00 00 00 00 00 00 00 00 00 00 00 00
       0.0 0.0 0.0 0.0
0000c0 00 00 00 00 00 00 00 00 00 00 00 00 00 00 00 00
       0.0 0.0 0.0 0.0
0000d0 00 00 00 00 00 00 00 00 00 00 00 00 00 00 00 00
       0.0 0.0 0.0 0.0
0000e0 00 00 00 00 00 00 00 00 00 00 00 00 00 00 00 00
       0.0 0.0 0.0 0.0
0000f0 00 00 00 00 00 00 00 00 00 00 00 00 00 00 00 00
       0.0 0.0 0.0 0.0
000100 00 00 00 00 00 00 00 00 00 00 00 00 00 00 00 00
       0.0 0.0 0.0 0.0
000110 00 00 00 00 00 00 00 00 00 00 00 00 00 00 00 00
       0.0 0.0 0.0 0.0
000120 00 00 00 00 00 00 00 00 00 00 00 00 00 00 00 00
       0.0 0.0 0.0 0.0
000130 00 00 00 00 00 00 00 00 00 00 00 00 00 00 00 00
       0.0 0.0 0.0 0.0
000140 00 00 00 00 00 00 00 00 00 00 00 00 00 00 00 00
       0.0 0.0 0.0 0.0
000150 00 00 00 00 00 00 00 00 00 00 00 00 00 00 00 00
       0.0 0.0 0.0 0.0
000160 00 00 00 00 00 00 00 00 00 00 00 00 00 00 00 00
       0.0 0.0 0.0 0.0
000170 00 00 00 00 00 00 00 00 00 00 00 00 00 00 00 00
       0.0 0.0 0.0 0.0
000180 00 00 00 00 00 00 00 00 00 00 00 00 00 00 00 00
       0.0 0.0 0.0 0.0
000190 00 00 00 00 00 00 00 00 00 00 00 00 00 00 00 00
       0.0 0.0 0.0 0.0
0001a0 00 00 00 00 00 00 00 00 00 00 00 00 00 00 00 00
       0.0 0.0 0.0 0.0
0001b0 00 00 00 00 00 00 00 00 00 00 00 00 00 00 00 00
       0.0 0.0 0.0 0.0
0001c0 00 00 00 00 00 00 00 00 00 00 00 00 00 00 00 00
       0.0 0.0 0.0 0.0
0001d0 00 00 00 00 00 00 00 00 00 00 00 00 00 00 00 00
       0.0 0.0 0.0 0.0
0001e0 00 00 00 00 00 00 00 00 00 00 00 00 00 00 00 00
       0.0 0.0 0.0 0.0
0001f0 00 00 00 00 00 00 00 00 00 00 00 00 00 00 00 00
       0.0 0.0 0.0 0.0

network_body.linear_encoder.seq_layers.2.weight f4 [128, 128]
000000 85 bd 2c 3c 81 2c 15 be 93 f2 c3 3d e8 f2 ee bd
       0.010543232 -0.14567758 0.09567752 -0.116674244
000010 1b ca d0 3d 27 23 b9 3b a7 74 cb 3d c8 7a 8b b9
       0.101947986 0.0056499424 0.09934359 -0.00026603625
000020 4f 2a 99 3d f2 23 2c bd 1b 2c 0a bd fd 18 8e 3d
       0.07478773 -0.042026468 -0.03373347 0.0693836
000030 d1 3a 35 bd f0 55 ba bd 95 5f d6 bd 57 1a 62 bd
       -0.044245545 -0.090984225 -0.104674496 -0.0552009
000040 89 f6 53 bd 4c 91 48 3e ba f2 aa 3d 49 c9 6b 3d
       -0.051748786 0.19586676 0.08347078 0.057565007
000050 a8 0e 63 bd 50 17 3d 3e 0e 89 2c bd 12 bd 1e 3d
       -0.0554339 0.18465924 -0.042122893 0.03875453
000060 04 2f 02 3e f6 ae 89 3d 12 a7 0e 3d a7 17 92 3d
       0.12713248 0.06722824 0.0348273 0.071334176
000070 9a ce 9a bd f0 a0 28 3d 24 8d a0 3d 95 32 c3 38
       -0.07558937 0.041169107 0.078394204 9.307746e-05
000080 b7 71 58 3c c0 e2 1f 3e c1 b1 75 bd 08 b1 28 3d
       0.0132107055 0.15613842 -0.059983972 0.041184455
000090 7a 81 ea 3d 1c 02 5c 3d 24 9f 89 bd ce 86 4c bd
       0.11450477 0.05371295 -0.06719807 -0.049933247
0000a0 73 6b 91 bd 63 1a 70 be d6 32 7f bd b4 de 48 be
       -0.071005724 -0.23447566 -0.06230434 -0.19616205
0000b0 94 53 2e bd 2f 55 d8 bc 73 88 b7 bd 5c 04 b9 3d
       -0.042560175 -0.026407806 -0.089615725 0.090340346
0000c0 7a 0c c2 bd 25 1c 5e bd bd 09 aa bc 32 57 20 bc
       -0.09475036 -0.05422606 -0.020756597 -0.009786414
0000d0 98 47 eb 3b 6d 4e 7c 3d 4a ca 85 3d 50 fc 85 bc
       0.0071801655 0.06159823 0.06532724 -0.016355664
0000e0 59 db 2c 3e 36 e6 d5 bd ef 09 a7 3d 2b 59 b0 bd
       0.1688055 -0.104443 0.081561916 -0.086107574
0000f0 c4 2a 5a bd 04 40 18 3e 26 25 3c 3d df ea 8e 3d
       -0.05326344 0.1486817 0.045933865 0.06978392
000100 b5 b2 93 3b ca a2 27 3a 7d 16 b1 3d 72 ec 5e 3c
       0.0045073875 0.0006394802 0.086468674 0.013606178
000110 d3 21 00 be 5f a0 b8 bd d1 a2 bb 3b a0 c4 c5 bd
       -0.12512903 -0.09014963 0.0057261963 -0.09656644
000120 dc 2e 2f 3d 09 90 9e 3c 3f bf 1f 3e c9 e2 da bb
       0.042769298 0.01935579 0.15600298 -0.006679867
000130 fb 95 75 3e b3 79 f9 3c 44 91 61 bd 2b 1f 14 3d
       0.23982994 0.030453539 -0.055070177 0.036162537
000140 ad 78 31 3d 74 00 bb bd 8d 47 c8 3c de 0b de bd
       0.043327976 -0.09130946 0.02444818 -0.10842107
000150 6b 45 08 be 99 c5 12 bd 61 be 8f bc 0a 71 8e bd
       -0.13307731 -0.035832975 -0.017546834 -0.06955154
000160 0e 75 18 be 9f b3 4e bd e9 b1 69 bd 3f ae 4d 3d
       -0.14888403 -0.05046427 -0.057054434 0.050215002
000170 14 be 98 3d ea f4 76 3c 43 ad c8 3d 8a 08 0f 3d
       0.074581295 0.0150730405 0.09798672 0.034920253
000180 4b be 98 3a 20 c5 6a bd 95 98 ec bb cf 5d 7e 3c
       0.0011653391 -0.0573169 -0.0072203376 0.015525295
000190 b3 4d cb bc 53 4f df 3b e4 cd bf bd 45 b2 16 3d
       -0.024817323 0.006814876 -0.093654424 0.036791105
0001a0 48 24 47 bd 6e 9b 6a bd 14 82 04 bd f7 f6 1f 3d
       -0.048618585 -0.057277136 -0.032350615 0.039053883
0001b0 cb 44 08 be 23 52 20 3d 77 77 e8 bc c2 51 60 bc
       -0.13307492 0.03914083 -0.028377278 -0.013691368
0001c0 e3 a2 a2 3d 0f 5d c4 3b 1b 7f 78 3d ea eb 94 bc
       0.079412244 0.0059925388 0.060668092 -0.018178899
0001d0 9f f6 9d 3d bf 5e da 3c cf 08 53 be bb 42 89 bd
       0.07713055 0.026656507 -0.20608829 -0.06702181
0001e0 7c 6d 38 bd 6c d7 bb bd bc 61 0f 3d 8d 93 b3 3d
       -0.045026287 -0.09171948 0.035005316 0.087683775
0001f0 95 0b 00 be 4b b9 eb 3d 1b 10 13 b9 f3 07 4a 3e
       -0.12504418 0.11509951 -0.00014025012 0.19729595
000200 3e be c8 bc da fd 78 3d 25 1f b8 3d 83 e5 cb bb
       -0.024504777 0.060788967 0.08990315 -0.0062224283
000210 8f 2e a0 3d c6 2c ce bc 70 07 bb 3c b9 de 5e bd
       0.0782138 -0.025167834 0.022830695 -0.054411624
000220 ca d6 c4 3d 93 91 47 3e ef a7 b6 bc b6 be 95 bd
       0.0961128 0.19489126 -0.022296874 -0.07311766
000230 d3 d5 93 bd 71 33 92 bd b2 ee 0c 3d 2c 3e 8e 3d
       -0.07218518 -0.07138718 0.034407325 0.06945452
000240 a6 c5 e9 bd d5 a9 f1 3c ab 98 90 3c 7e 28 87 3d
       -0.114146516 0.029499928 0.017650923 0.0659952
000250 4f b6 2b be d1 d6 13 3d d3 22 a8 3d 85 99 51 3d
       -0.16768764 0.036093537 0.08209767 0.0511718
000260 4a 61 3c 3c b2 89 aa 3d 1c 05 f5 3b 18 ec 6c 3d
       0.011497805 0.083270445 0.0074774157 0.057842344
000270 c9 1e 97 3d 20 44 f5 3d 8a 31 8c bd d2 7b b6 3d
       0.07378919 0.119758844 -0.06845386 0.089103356
000280 9e 04 f3 bd 91 a7 cc bd 06 28 e4 3c 0a ed ff bd
       -0.11866115 -0.09992898 0.027851116 -0.124963835
000290 1e 73 0d 3d 3e 26 93 bd a2 88 17 3d ad 1f 32 3d
       0.034533612 -0.071850285 0.036995538 0.04348724
0002a0 8b cf 29 be 89 cf 80 bd 2d 98 a9 bd 95 96 ec bd
       -0.16583078 -0.06289584 -0.08280978 -0.11552159
0002b0 db ad ac 3d 68 9b 9c bd b9 65 ad bc dd f3 5a be
       0.08431598 -0.07646829 -0.02116667 -0.21382089
0002c0 f0 4a 01 3e bf a3 d3 3d f4 e7 06 be 35 59 f2 3c
       0.12626243 0.103339665 -0.1317442 0.029583553
0002d0 44 b0 c7 3c 89 8b a3 3b 2a b3 c1 3d b2 26 c2 bc
       0.024376042 0.004990999 0.09458001 -0.023700092
0002e0 34 6c 21 bd 91 15 8e bd f4 a4 32 3d 59 f1 b1 b9
       -0.03940983 -0.06937707 0.043614343 -0.0003393989
0002f0 78 c0 14 3d ef a7 e8 3a 31 9f 96 be 4b fc 6b bb
       0.036316365 0.0017750243 -0.29418328 -0.0036008533
000300 ef 44 e1 3d cd 76 d1 3c 58 4a 3f bd 9e 46 94 3d
       0.10999476 0.025569344 -0.04670176 0.07240032
000310 85 d8 0f be 4a de 21 be 6b 16 26 bd ca cc dc bd
       -0.1404744 -0.15807453 -0.040548723 -0.10781248
000320 29 9d c5 3d 25 16 42 be a6 05 43 bd 20 ac b2 bd
       0.096491165 -0.1895376 -0.04761281 -0.087242365
000330 06 b5 c9 3b 44 20 11 3e 20 1c f8 bd b2 d6 5f 3d
       0.006155613 0.14172465 -0.121147394 0.05464811
000340 3b 07 d8 bc 79 15 13 bc 6d 96 25 3d c1 d6 5c 3d
       -0.026370635 -0.008977287 0.04042666 0.053915743
000350 5c fc dd 3d 5b 91 38 bd 9a b3 40 bd a0 b5 a1 bb
       0.10839149 -0.045060497 -0.04704628 -0.0049349815
000360 f0 9b 81 3b 8a de 00 be 01 95 08 bd 5b 33 99 3c
       0.003955357 -0.12584892 -0.033345226 0.018701246
000370 0d 62 03 bc 9d 2c 0f 3e 7f d8 e1 3c fc c5 06 3e
       -0.008018983 0.13981862 0.027569054 0.13161463
000380 a0 1c c4 3d 9a a8 49 bd 2e f7 e3 3d 8d f2 9b 3b
       0.09575772 -0.049233057 0.1113113 0.004759139
000390 87 0b dd 3c 5d 75 f2 bd 4a 50 cc bd d8 03 c1 bd
       0.026983036 -0.118387915 -0.099762514 -0.09424561
0003a0 4a 9c 44 bc 46 d7 45 3e e6 c8 0a bd 86 04 70 3d
       -0.012000153 0.19320402 -0.033882998 0.058598064
0003b0 b8 e4 57 3b 33 cc 5d 3d 76 00 6f bd b4 2c 52 bd
       0.0032942723 0.054149818 -0.05835005 -0.051312163
0003c0 a6 b7 86 bd 3c f0 dd 3c a2 07 af bd cb 88 e5 3d
       -0.06577997 0.027092092 -0.08546378 0.11207732
0003d0 71 75 8d 3d c7 ec e7 bc 34 0a c5 bd f7 11 cd bd
       0.06907166 -0.028311146 -0.09621087 -0.10013192
0003e0 b8 8d 2f 3d 7d 3c ab 3c bb 18 20 be 3c 9a 32 3d
       0.042859763 0.020902866 -0.15634434 0.04360412
0003f0 a0 fc 49 bd 66 2e 4b bd 5f de 94 bc 32 43 0d 3e
       -0.049313188 -0.049604796 -0.018172441 0.13795164
