Unity - Crypto Ball/results/ppo/My Behavior/My Behavior-9545.onnx (onnx, 72892 bytes, 7 tensors)

action_model._continuous_distribution.log_sigma f4 [1, 2]
000000 00 00 00 00 00 00 00 00
       0.0 0.0

action_model._continuous_distribution.mu.bias f4 [2]
000000 00 00 00 00 00 00 00 00
       0.0 0.0

action_model._continuous_distribution.mu.weight f4 [2, 128]
000000 f3 b6 dd bc 8a eb 06 3b 7f 22 f1 bc bf e5 ab bc
       -0.027064776 0.002058717 -0.029435394 -0.020983575
000010 3d 91 d0 bc 6a cc db bb 6b 8d b8 3c e2 1a 0a bd
       -0.02545988 -0.0067077177 0.02252837 -0.033717044
000020 de 79 a0 ba 8f 44 bf bc d9 a6 1f bc 5b b4 67 3c
       -0.001224335 -0.023348121 -0.009744369 0.014142121
000030 bf 20 a4 3c df a5 15 3b 23 82 e8 3c 4b c3 ce bc
       0.020035146 0.0022834463 0.028382367 -0.025239607
000040 21 cc 3f 3c 77 6d a3 bc 65 8e 01 bd 7d 2c 73 bc
       0.011706383 -0.019949658 -0.03162994 -0.01484215
000050 d3 5b d6 ba 58 af 6b 3c 57 0f 0e 3d 2d 77 fe 3c
       -0.001635427 0.014385067 0.034682598 0.031062687
000060 3b 39 80 3b 26 e9 a5 bc a7 9c 53 3a a8 21 83 3c
       0.0039130724 -0.020252775 0.0008072354 0.01600726
000070 55 d1 6a 3a 47 1a c0 bc 43 4f bf 3a aa 1b d0 3b
       0.00089575845 -0.02345003 0.0014595765 0.006350954
000080 e8 8a c6 bc 2c d4 9a bc ce 47 2f 3c ab d4 0f 3d
       -0.024236158 -0.0189 0.010698272 0.035114925
000090 84 8c 24 bd 98 ed fa 3c 35 bf b4 3c 3c 56 c7 3b
       -0.04017307 0.030630872 0.02206383 0.006083278
0000a0 42 ea 99 3b 48 33 1c bd 01 c6 95 3a 5c f4 b3 3a
       0.004697115 -0.038134843 0.0011426808 0.0013729441
0000b0 0b 51 bd bb ca d8 fc bc 98 63 dc 3b af ec bb 3c
       -0.0057774833 -0.030865092 0.0067257397 0.022940008
0000c0 3b 44 ba bc 3d 21 11 bd 5a 03 a0 3b 4f e8 2c bb
       -0.022737613 -0.03543209 0.004883212 -0.0026383584
0000d0 10 a7 5b bb 0f 04 0f bd 4f b0 aa 3c eb 28 1d 3b
       -0.0033516325 -0.03491598 0.020836024 0.0023980688
0000e0 9f af 0f bc a0 c1 8e 3c d8 84 70 3b 93 81 ab bc
       -0.008769899 0.017426312 0.0036700275 -0.02093581
0000f0 4a 95 65 3c 9b 21 11 bd a7 2b d9 3b 43 df 89 38
       0.014012644 -0.03543244 0.006627518 6.574255e-05
000100 dc 8d 30 3c 37 38 da bb 2b f5 fa ba bf bf 58 3b
       0.010776009 -0.0066595334 -0.0019146552 0.0033073274
000110 0f 73 ac 3c fb f7 4f bc cb 81 85 3c 5f b1 40 bb
       0.021050958 -0.0126934005 0.016297242 -0.0029402596
000120 8f cf e7 bc 19 1d 03 3d d3 ef c4 bc 53 1c 0d 3c
       -0.028297214 0.03201017 -0.024040138 0.00861271
000130 d5 fe f5 bc e8 88 8d 3c 48 e8 9c bc 2a fd 15 3c
       -0.03002874 0.017277196 -0.01915373 0.009154597
000140 7c b9 84 bc df a8 b9 bc 32 41 df bb f3 97 e9 bb
       -0.016201727 -0.022663532 -0.006813192 -0.0071287095
000150 ae 74 99 3b 50 55 05 3d 7a d9 89 3c 0b 87 ab 3c
       0.0046830988 0.032552063 0.016827334 0.020938417
000160 00 e4 ea bb 00 6e f3 3c 0b 65 c1 3b 1d 4c cf bb
       -0.007168293 0.029715538 0.005901938 -0.006326212
000170 ea b0 09 3d e6 54 3b 3b 7d 22 8c bb 7d 31 82 bc
       0.033615984 0.002858454 -0.0042765723 -0.015892738
000180 27 ad 86 3c 40 bb be 3c 2b a4 06 bc 68 1d 31 3b
       0.016439987 0.023282647 -0.008217852 0.0027025584
000190 93 7b 4d bc 87 59 15 3d d1 e7 c1 bb a3 fe 80 3c
       -0.012541669 0.036462333 -0.0059175272 0.01574642
0001a0 52 5c 14 3d 7a 06 75 3c 8f 90 2e 3c 5a 09 ac bc
       0.036220856 0.014955157 0.010654583 -0.021000553
0001b0 b5 f8 06 bb 08 14 7d 3c cd 09 5a 3b ff 56 a8 bc
       -0.0020595018 0.01544667 0.0033270002 -0.020549295
0001c0 13 3f a1 bb 60 f5 62 3c 78 4e 67 bc 53 88 45 bc
       -0.004920849 0.013852447 -0.0141178295 -0.012056428
0001d0 58 25 15 3c 93 9a b1 3c c4 be 1e bc 15 ce 5b 3c
       0.009103142 0.021680152 -0.009689037 0.013415833
0001e0 d0 f1 0a bd 73 fa c1 bc 88 98 73 3b ea 55 e0 39
       -0.033922017 -0.023678994 0.0037169773 0.0004278862
0001f0 d3 de bb 3c ed 6b 06 3c 39 bf 09 bd 5b 7c a6 bc
       0.0229334 0.008204442 -0.03362963 -0.02032297
000200 99 82 2f 3b ed 04 2e 3c 22 fc bc ba 9f 93 2c 3c
       0.0026780723 0.010621292 -0.0014418403 0.0105332425
000210 fb 7e 65 bb 42 a5 a9 bc ff ba d6 3c 45 28 d1 bc
       -0.0035018313 -0.020708684 0.026212214 -0.025531897
000220 ba 2d 57 3c f9 d1 83 3a 98 b4 f0 bc db 05 13 3d
       0.013133461 0.0010057084 -0.029382989 0.035894256
000230 dd 0d 78 bc d4 fe 93 bc 1a 97 67 3c ba d3 7e 3a
       -0.015140024 -0.018065847 0.0141351465 0.0009720881
000240 78 f2 53 bc dd 84 ae bc 2f ae 37 3d 99 eb 89 bb
       -0.012936227 -0.021303589 0.04484385 -0.0042089936
000250 83 18 4b bb ab a8 2c bc 81 8a 92 3b e8 8f ba bb
       -0.0030989952 -0.01053826 0.0044720774 -0.0056934245
000260 28 ae 6b bc 92 14 d2 3c c7 3b 40 3c c6 28 17 3d
       -0.014384784 0.025644574 0.011733002 0.03690412
000270 77 1a 9b 3c bf 2e f1 3b 9a b2 a7 ba ba 4a 60 bb
       0.018933518 0.007360309 -0.0012794316 -0.0034224228
000280 c8 40 3c 3c 43 34 d5 3c d8 61 67 bb f4 4a 83 bb
       0.011490054 0.026025897 -0.0035306122 -0.004006738
000290 de 12 8a bb f7 59 df 3c 26 66 90 bc 3c ee ae bc
       -0.004213675 0.027264578 -0.017626833 -0.021353833
0002a0 b5 a7 64 3b 87 7d e7 3b 62 c4 5d 3b ec c0 bf 3c
       0.003489 0.0070645246 0.0033838977 0.023407422
0002b0 6b f4 08 3c 5f 90 2a bc 6c 8e c6 39 2a 72 b4 bb
       0.008359055 -0.010410397 0.00037871615 -0.0055067735
0002c0 57 aa dd bb 1b 95 e7 bc 20 c3 d9 3c 95 ca b1 3c
       -0.006764691 -0.028269341 0.0265823 0.021703044
0002d0 c3 9e 8d bb d3 1a c9 bb bb 0c b8 bb ee b6 84 3b
       -0.0043219044 -0.006137231 -0.005616752 0.004050127
0002e0 cf 87 f5 bc ca 31 d6 3c 93 ee 4f bc 1a 36 79 3c
       -0.029971985 0.026146788 -0.012691158 0.015210653
0002f0 9d 63 e8 bc 07 e2 f9 bb 73 53 3b bc 65 f8 65 ba
       -0.028367812 -0.0076258215 -0.01143347 -0.00087726704
000300 c2 d6 d1 39 b3 80 56 bc 15 d0 53 3c c2 b5 21 3b
       0.00040023593 -0.013092208 0.012928029 0.0024674986
000310 43 e2 77 bc 33 10 f2 3b ef 87 1c bd bd 19 d1 ba
       -0.015129629 0.007387185 -0.038215574 -0.0015953105
000320 5d e6 fb bc ad bc 1c 3c 7a 46 8b bb bb 66 94 bc
       -0.030749494 0.009566468 -0.004250345 -0.018115392
000330 35 0d e7 ba 48 b0 df ba 85 c5 eb 3c 9d 79 51 3c
       -0.0017627837 -0.0017066086 0.028780708 0.0127853425
000340 5f 97 1e bb 64 db 84 3c b0 57 91 3b 19 66 be 3b
       -0.002419911 0.016217895 0.004435502 0.005810511
000350 0f d6 72 3c 0f ae f6 3b 37 77 11 bc 42 a1 82 3c
       0.014821543 0.0075280736 -0.008878521 0.015946034
000360 1a 21 e9 bb 7f 63 7a 3c 12 4b f6 bb a8 1b 89 3c
       -0.0071145417 0.015282511 -0.0075162733 0.01673682
000370 85 5f dd bc 80 58 43 ba 13 e4 b7 3b e7 d6 8f 3c
       -0.027023086 -0.0007451847 0.0056119054 0.017558528
000380 98 b0 d6 3c e3 c9 bd bc 7d f6 fd bb 65 f2 ea bb
       0.026207253 -0.023167556 -0.007750331 -0.007170009
000390 55 be 80 bc 48 d0 89 3b 4d 71 51 bc 15 f3 77 bb
       -0.015715757 0.0042057373 -0.012783361 -0.0037834097
0003a0 f3 8d 92 3b eb 7a 19 3d eb 63 4e 3d f3 c6 a2 bc
       0.004472488 0.03747074 0.050388258 -0.019870257
0003b0 60 27 e4 bc 8c 6f ad bc f2 77 25 bc 30 ff f5 3b
       -0.027850807 -0.021171354 -0.010099398 0.0075072274
0003c0 e3 10 13 3c 4a ab 9e 3b 03 12 8f 3c 68 1f 93 3c
       0.008976194 0.0048421966 0.017464643 0.017959312
0003d0 fa f1 16 3c 7d 05 7d 3c 35 2b 7e bc a3 37 60 bc
       0.009212965 0.015443203 -0.015513231 -0.01368514
0003e0 0a 53 73 bc 67 8d 09 bb b0 83 5f 3b 32 db 73 3c
       -0.014851341 -0.0020988823 0.0034105591 0.014883803
0003f0 7d 8a d3 bb e6 f8 0c bc 2b c1 94 38 49 a7 0e bc
       -0.006455718 -0.008604264 7.09317e-05 -0.008706876

network_body.linear_encoder.seq_layers.0.bias f4 [128]
000000 00 00 00 00 00 00 00 00 00 00 00 00 00 00 00 00
       0.0 0.0 0.0 0.0
000010 00 00 00 00 00 00 00 00 00 00 00 00 00 00 00 00
       0.0 0.0 0.0 0.0
000020 00 00 00 00 00 00 00 00 00 00 00 00 00 00 00 00
       0.0 0.0 0.0 0.0
000030 00 00 00 00 00 00 00 00 00 00 00 00 00 00 00 00
       0.0 0.0 0.0 0.0
000040 00 00 00 00 00 00 00 00 00 00 00 00 00 00 00 00
       0.0 0.0 0.0 0.0
000050 00 00 00 00 00 00 00 00 00 00 00 00 00 00 00 00
       0.0 0.0 0.0 0.0
000060 00 00 00 00 00 00 00 00 00 00 00 00 00 00 00 00
       0.0 0.0 0.0 0.0
000070 00 00 00 00 00 00 00 00 00 00 00 00 00 00 00 00
       0.0 0.0 0.0 0.0
000080 00 00 00 00 00 00 00 00 00 00 00 00 00 00 00 00
       0.0 0.0 0.0 0.0
000090 00 00 00 00 00 00 00 00 00 00 00 00 00 00 00 00
       0.0 0.0 0.0 0.0
0000a0 00 00 00 00 00 00 00 00 00 00 00 00 00 00 00 00
       0.0 0.0 0.0 0.0
0000b0 00 00 00 00 00 00 00 00 00 00 00 00 00 00 00 00
       0.0 0.0 0.0 0.0
0000c0 00 00 00 00 00 00 00 00 00 00 00 00 00 00 00 00
       0.0 0.0 0.0 0.0
0000d0 00 00 00 00 00 00 00 00 00 00 00 00 00 00 00 00
       0.0 0.0 0.0 0.0
0000e0 00 00 00 00 00 00 00 00 00 00 00 00 00 00 00 00
       0.0 0.0 0.0 0.0
0000f0 00 00 00 00 00 00 00 00 00 00 00 00 00 00 00 00
       0.0 0.0 0.0 0.0
000100 00 00 00 00 00 00 00 00 00 00 00 00 00 00 00 00
       0.0 0.0 0.0 0.0
000110 00 00 00 00 00 00 00 00 00 00 00 00 00 00 00 00
       0.0 0.0 0.0 0.0
000120 00 00 00 00 00 00 00 00 00 00 00 00 00 00 00 00
       0.0 0.0 0.0 0.0
000130 00 00 00 00 00 00 00 00 00 00 00 00 00 00 00 00
       0.0 0.0 0.0 0.0
000140 00 00 00 00 00 00 00 00 00 00 00 00 00 00 00 00
       0.0 0.0 0.0 0.0
000150 00 00 00 00 00 00 00 00 00 00 00 00 00 00 00 00
       0.0 0.0 0.0 0.0
000160 00 00 00 00 00 00 00 00 00 00 00 00 00 00 00 00
       0.0 0.0 0.0 0.0
000170 00 00 00 00 00 00 00 00 00 00 00 00 00 00 00 00
       0.0 0.0 0.0 0.0
000180 00 00 00 00 00 00 00 00 00 00 00 00 00 00 00 00
       0.0 0.0 0.0 0.0
000190 00 00 00 00 00 00 00 00 00 00 00 00 00 00 00 00
       0.0 0.0 0.0 0.0
0001a0 00 00 00 00 00 00 00 00 00 00 00 00 00 00 00 00
       0.0 0.0 0.0 0.0
0001b0 00 00 00 00 00 00 00 00 00 00 00 00 00 00 00 00
       0.0 0.0 0.0 0.0
0001c0 00 00 00 00 00 00 00 00 00 00 00 00 00 00 00 00
       0.0 0.0 0.0 0.0
0001d0 00 00 00 00 00 00 00 00 00 00 00 00 00 00 00 00
       0.0 0.0 0.0 0.0
0001e0 00 00 00 00 00 00 00 00 00 00 00 00 00 00 00 00
       0.0 0.0 0.0 0.0
0001f0 00 00 00 00 00 00 00 00 00 00 00 00 00 00 00 00
       0.0 0.0 0.0 0.0

network_body.linear_encoder.seq_layers.0.weight f4 [128, 6]
000000 8c e6 c8 be f7 90 62 bf cb d0 35 3f 9e 82 bd 3e
       -0.39238393 -0.8850245 0.7102172 0.37013716
000010 51 50 08 be 4b 75 a1 be c0 76 eb be 98 e2 97 bd
       -0.13311888 -0.315348 -0.45989037 -0.07416266
000020 f5 de 8f 3d 91 e5 23 bf b3 fa 96 3e e5 7c 15 3d
       0.070249476 -0.64022166 0.29488143 0.03649606
000030 3b 14 10 3e d3 f1 34 3d 55 6e 86 3e 51 ae 0e bf
       0.14070217 0.044175934 0.26256052 -0.55734736
000040 54 53 42 3f 8c f3 0f 3f d7 5c c3 3d 82 c4 e6 be
       0.759084 0.56231 0.09539192 -0.450718
000050 46 2c 11 bf 79 a7 99 be 2f 25 d6 3c 2c 86 06 be
       -0.5670818 -0.30010584 0.026140777 -0.1313712
000060 45 eb 2b 3e a3 c3 4e 3f aa 6c 16 bf cd ed d1 be
       0.16788967 0.8076727 -0.5875956 -0.4100174
000070 aa 2f 06 be cc f1 9d 3e ad cb a3 bd bb c3 f1 be
       -0.1310412 0.3084854 -0.079978324 -0.47219643
000080 0d b6 be bd 52 6f c6 bd ad fc 87 be 2a 42 b7 be
       -0.09312067 -0.096892014 -0.26559964 -0.35792667
000090 2d af 65 bd c0 96 ec bd 5a 09 3b be 56 fd 2d be
       -0.056075264 -0.11552191 -0.18265286 -0.16991171
0000a0 a6 3f d0 3e 6e 1c 83 be 08 c2 de bd b2 b0 e8 be
       0.4067356 -0.25607628 -0.10876852 -0.45447308
0000b0 bb eb b8 bc 16 45 ff 3e 2a 55 56 3e f8 13 93 be
       -0.022573343 0.49857396 0.20930925 -0.28726172
0000c0 f4 7d a2 bc 49 5a 7d be 7a 68 e7 3b d5 5b a6 3e
       -0.01983545 -0.24741472 0.007062015 0.32491937
0000d0 64 b5 2c bd 8a 27 d6 be 9c bd 9b 3d 16 7c 55 be
       -0.042165175 -0.4182704 0.076045245 -0.20848116
0000e0 d5 b1 08 be 99 35 b0 bd 26 4c 2c be 5a f8 04 be
       -0.13349088 -0.08603973 -0.16825923 -0.12985364
0000f0 28 35 a9 be b6 4e a0 be 73 b2 ff 3d 55 88 b5 be
       -0.33048368 -0.31310052 0.12485208 -0.35455576
000100 8d 98 a7 be 98 f3 85 3e 33 22 84 3e 9b a6 24 3e
       -0.32733575 0.2616241 0.25807342 0.1607918
000110 91 06 9d bd 06 81 a0 3d 10 c5 ac 3d 5e 95 ce be
       -0.07667268 0.07837109 0.08436024 -0.40348333
000120 c7 46 22 be ca 9b f7 be 24 1c 06 bf b3 83 34 be
       -0.15847312 -0.48361045 -0.5238669 -0.17628364
000130 21 eb b1 3e 0c 1f 00 3e d0 52 07 3d f1 93 85 3d
       0.34749702 0.12511843 0.03303796 0.06522358
000140 06 d0 92 3e ca 28 66 3f 4e fd fe 3d 3d 50 20 3e
       0.28674334 0.8990599 0.12450658 0.15655608
000150 54 a2 a2 be 0e c8 23 be a1 18 1f bf 0c dd cc 3c
       -0.31764472 -0.15994284 -0.62146956 0.025007747
000160 b9 60 22 3f da a9 d4 3e 9f 34 22 bd a8 85 e9 be
       0.6342884 0.41535836 -0.039600965 -0.45609784
000170 a4 e9 c3 be 94 6e 09 bf 1e d3 c1 be b2 1f a9 3e
       -0.3826419 -0.53684354 -0.37856382 0.33031994
000180 71 6a ad be 3a 45 8f be a1 aa 90 be f0 0f 47 bf
       -0.3387027 -0.27982503 -0.2825518 -0.77758694
000190 62 6b e4 3d 72 6e e4 bd fc 9a 90 be 4d 2c d6 3e
       0.11153294 -0.11153878 -0.28243244 0.41830674
0001a0 6c d8 cc be 6a 60 f5 be ed 35 dd 3e 66 1e 09 bf
       -0.40008867 -0.4792512 0.43205205 -0.5356201
0001b0 d2 92 8b b9 72 25 6f be b4 0b a0 be af dd 62 3e
       -0.00026621536 -0.23354128 -0.3125893 0.22154878
0001c0 e8 88 34 3e 2a 7d b9 3d 26 b9 98 bd b7 3e ce 3d
       0.1763035 0.09057076 -0.07457189 0.10070556
0001d0 47 44 d5 be 5e ed 80 3e 74 69 6e 3e 3e 7c fa 3e
       -0.41653654 0.25181097 0.23282415 0.48922914
0001e0 7c f9 9e bd 39 c5 58 3e 53 88 12 3f e7 79 43 3f
       -0.07762429 0.21168984 0.57239264 0.76357883
0001f0 98 f7 e3 be 9c df 55 3e 16 af f7 3c 65 6e 61 be
       -0.44524837 0.20886081 0.030234855 -0.22014768
000200 bd 5b d5 3d 0e 07 ba 3c be b4 df bd f3 56 69 bb
       0.10417888 0.022708442 -0.10923146 -0.0035604804
000210 e4 c4 cc 3e 8a c9 c3 be 1a 84 e1 3e 05 9e 40 3f
       0.39993966 -0.382397 0.44046098 0.7524112
000220 27 2e 11 be c5 01 45 bc 5b b8 00 be c4 73 34 be
       -0.14177762 -0.012024348 -0.12570326 -0.17622286
000230 d3 10 86 3e c6 20 3b bf a1 7e 8e 3e f6 e0 24 3d
       0.2618471 -0.73096883 0.27830985 0.040253602
000240 d3 f7 25 bf 6b a6 01 3e 6f 98 50 bf aa c4 a9 be
       -0.64831275 0.1266114 -0.81482595 -0.33157855
000250 64 b2 04 3f f3 df d9 bd 49 fe c0 3e d5 ef bf bd
       0.518347 -0.10638418 0.37694004 -0.09371916
000260 e5 cd 86 3e ad 74 96 be a7 83 41 bd 91 bb 06 3e
       0.2632896 -0.29385892 -0.047244694 0.13157488
000270 42 46 c6 bd 4e e2 91 be 8a 3e 11 3f cf 3a 78 bd
       -0.09681369 -0.2849297 0.5673605 -0.06060296
000280 7a 85 9c be f6 ec 8a 3f 12 ae 87 bf 49 d2 ac bd
       -0.30570585 1.0853565 -1.0599997 -0.08438546
000290 01 1e 51 3e 7d 6b f2 be 66 f4 35 3f 19 3a 30 3e
       0.20421602 -0.47347632 0.7107605 0.17209662
0002a0 77 d9 22 3e ae a6 41 3e 47 5c 40 bf 23 1a 98 3e
       0.15903269 0.1891124 -0.75140804 0.2970744
0002b0 99 4c 00 3f 76 1c f3 3e b0 f6 cc be ed 3f ff bd
       0.5011688 0.4748265 -0.40031958 -0.12463365
0002c0 fb a1 58 3f 98 c4 ac 3c 1f 6a 32 bf 8c dd ef bd
       0.8462216 0.021089837 -0.6969318 -0.117121786
0002d0 b1 65 64 be 0f aa 37 be 18 a0 16 3e f9 b4 ad 3e
       -0.22304417 -0.17935966 0.14709508 0.33927134
0002e0 0b 78 3c bf 57 4c 33 3e 96 c6 88 3e 04 79 61 3d
       -0.7362067 0.1750959 0.2671401 0.05504705
0002f0 fe c0 2c bf e4 5f e7 be fa de b2 be 17 a5 19 3f
       -0.6748198 -0.45190346 -0.34935743 0.6001753
000300 c9 27 21 bf 95 67 c5 3d d4 62 d8 3d 79 5d 84 bb
       -0.6295133 0.09638897 0.10565725 -0.004039463
000310 c4 26 81 be 96 cd fa 3e f4 0c 10 3e db 6f 8a bf
       -0.25224888 0.48984975 0.14067441 -1.0815386
000320 04 4f 00 3f b0 d6 07 bf 40 17 38 3f 9e 23 30 be
       0.5012057 -0.5306196 0.71910477 -0.17201087
000330 6d 67 69 be ba 43 d0 be 47 c2 1a 3f 05 ae ea bc
       -0.2279336 -0.4067667 0.60452694 -0.028647432
000340 6c 04 b8 3e c6 6a af be 1a 7c 20 3e 82 96 c6 3d
       0.35940874 -0.3426115 0.15672341 0.09696676
000350 72 d1 9b be 10 3a 9b be 68 0a 1b bb a7 07 cb bd
       -0.30433232 -0.30317736 -0.0023657326 -0.09913569
000360 e6 e7 54 3e d4 2b ce 3e 19 9d 52 3d 0a c0 ce bd
       0.20791587 0.40267813 0.05141935 -0.10095222
000370 e8 0e 4d 3e 2b fb 8b 3e e5 af 38 bf 2c b2 b0 be
       0.20025218 0.27340063 -0.72143394 -0.34510934
000380 e2 ab 2f bf e5 cb 64 3d 4c e8 92 3e 83 e6 cc 3d
       -0.6862165 0.05585851 0.28692853 0.10004904
000390 4d 3e 3a be 1d e3 5d 3e 14 1d da 3d 07 22 78 3e
       -0.18187828 0.21668668 0.106500775 0.2423173
0003a0 6d 14 f2 be 05 d2 b8 bd 03 25 b0 bd 59 94 ef be
       -0.4728121 -0.09024433 -0.086008094 -0.46792868
0003b0 b2 b1 2b bf b6 7f 5e bd 14 6c b0 3e e6 80 1f be
       -0.67068017 -0.054321013 0.34457457 -0.15576515
0003c0 bb 04 e1 bd fa c5 9a be b7 1b 10 bf 5e 0f 21 3e
       -0.109872304 -0.3022917 -0.5629229 0.15728518
0003d0 c8 a4 1c 3f 0d c9 9c 3e fa 59 bf bd be a4 31 be
       0.61188936 0.3062214 -0.093433335 -0.17348
0003e0 f0 51 bf be 15 16 69 bd 01 c2 1e be c3 48 16 be
       -0.373672 -0.056905825 -0.15503694 -0.14676194
0003f0 35 30 83 3f 35 ef b2 3c 34 b8 76 3e d4 e9 9c be
       1.0249087 0.021842578 0.24093705 -0.30647147

network_body.linear_encoder.seq_layers.2.bias f4 [128]
000000 00 00 00 00 00 00 00 00 00 00 00 00 00 00 00 00
       0.0 0.0 0.0 0.0
000010 00 00 00 00 00 00 00 00 00 00 00 00 00 00 00 00
       0.0 0.0 0.0 0.0
000020 00 00 00 00 00 00 00 00 00 00 00 00 00 00 00 00
       0.0 0.0 0.0 0.0
000030 00 00 00 00 00 00 00 00 00 00 00 00 00 00 00 00
       0.0 0.0 0.0 0.0
000040 00 00 00 00 00 00 00 00 00 00 00 00 00 00 00 00
       0.0 0.0 0.0 0.0
000050 00 00 00 00 00 00 00 00 00 00 00 00 00 00 00 00
       0.0 0.0 0.0 0.0
000060 00 00 00 00 00 00 00 00 00 00 00 00 00 00 00 00
       0.0 0.0 0.0 0.0
000070 00 00 00 00 00 00 00 00 00 00 00 00 00 00 00 00
       0.0 0.0 0.0 0.0
000080 00 00 00 00 00 00 00 00 00 00 00 00 00 00 00 00
       0.0 0.0 0.0 0.0
000090 00 00 00 00 00 00 00 00 00 00 00 00 00 00 00 00
       0.0 0.0 0.0 0.0
0000a0 00 00 00 00 00 00 00 00 00 00 00 00 00 00 00 00
       0.0 0.0 0.0 0.0
0000b0 00 00 00 00 00 00 00 00 00 00 00 00 00 00 00 00
       0.0 0.0 0.0 0.0
0000c0 00 00 00 00 00 00 00 00 00 00 00 00 00 00 00 00
       0.0 0.0 0.0 0.0
0000d0 00 00 00 00 00 00 00 00 00 00 00 00 00 00 00 00
       0.0 0.0 0.0 0.0
0000e0 00 00 00 00 00 00 00 00 00 00 00 00 00 00 00 00
       0.0 0.0 0.0 0.0
0000f0 00 00 00 00 00 00 00 00 00 00 00 00 00 00 00 00
       0.0 0.0 0.0 0.0
000100 00 00 00 00 00 00 00 00 00 00 00 00 00 00 00 00
       0.0 0.0 0.0 0.0
000110 00 00 00 00 00 00 00 00 00 00 00 00 00 00 00 00
       0.0 0.0 0.0 0.0
000120 00 00 00 00 00 00 00 00 00 00 00 00 00 00 00 00
       0.0 0.0 0.0 0.0
000130 00 00 00 00 00 00 00 00 00 00 00 00 00 00 00 00
       0.0 0.0 0.0 0.0
000140 00 00 00 00 00 00 00 00 00 00 00 00 00 00 00 00
       0.0 0.0 0.0 0.0
000150 00 00 00 00 00 00 00 00 00 00 00 00 00 00 00 00
       0.0 0.0 0.0 0.0
000160 00 00 00 00 00 00 00 00 00 00 00 00 00 00 00 00
       0.0 0.0 0.0 0.0
000170 00 00 00 00 00 00 00 00 00 00 00 00 00 00 00 00
       0.0 0.0 0.0 0.0
000180 00 00 00 00 00 00 00 00 00 00 00 00 00 00 00 00
       0.0 0.0 0.0 0.0
000190 00 00 00 00 00 00 00 00 00 00 00 00 00 00 00 00
       0.0 0.0 0.0 0.0
0001a0 00 00 00 00 00 00 00 00 00 00 00 00 00 00 00 00
       0.0 0.0 0.0 0.0
0001b0 00 00 00 00 00 00 00 00 00 00 00 00 00 00 00 00
       0.0 0.0 0.0 0.0
0001c0 00 00 00 00 00 00 00 00 00 00 00 00 00 00 00 00
       0.0 0.0 0.0 0.0
0001d0 00 00 00 00 00 00 00 00 00 00 00 00 00 00 00 00
       0.0 0.0 0.0 0.0
0001e0 00 00 00 00 00 00 00 00 00 00 00 00 00 00 00 00
       0.0 0.0 0.0 0.0
0001f0 00 00 00 00 00 00 00 00 00 00 00 00 00 00 00 00
       0.0 0.0 0.0 0.0

network_body.linear_encoder.seq_layers.2.weight f4 [128, 128]
000000 72 54 56 3d 9b f9 40 3e d6 9c f8 bc a8 28 35 bd
       0.052326627 0.18845217 -0.030348223 -0.044228226
000010 2a c5 6b bd b8 0d be 3d b1 67 20 3e d3 14 8b 3d
       -0.057561077 0.092799604 0.15664555 0.06791081
000020 32 dd ec 3c d5 e1 6d 3d f4 95 e4 3d cb bf 6a bc
       0.028914068 0.0580767 0.11161414 -0.014327954
000030 21 c3 ab bd 4c 8d da bc 18 33 36 bc 90 e7 78 3d
       -0.08386827 -0.026678704 -0.01112058 0.06076771
000040 61 d7 37 bb 73 81 90 3d cd 3f a1 3d 5d d0 00 bc
       -0.002805196 0.070559405 0.07873497 -0.007862178
000050 53 96 44 3d 69 2a b5 3c 31 c0 24 3c d6 2e 7c 3d
       0.047994923 0.02211495 0.010055588 0.061568104
000060 1b 8a 46 3d 65 11 09 be af 50 23 be 0e 2a 7f bd
       0.04847155 -0.13385542 -0.15948747 -0.062295966
000070 63 ec c4 3d 9a f3 1f 3e ac 36 2a 3c 85 ef 71 3d
       0.096154 0.1562027 0.010389011 0.059066314
000080 3a 1e 4a 3c 02 19 33 be 84 1d 0e 3e fc 44 fd bc
       0.012336308 -0.17490008 0.13878447 -0.030916683
000090 58 e3 7a 3c a8 7f bb 3c fc 8c dd 3d b1 ff 75 3e
       0.015312992 0.02288802 0.10817906 0.2402332
0000a0 90 7b f1 bd 35 75 8c 3c 46 2f 3d bd e8 02 51 3e
       -0.11791146 0.017145732 -0.04618766 0.20411265
0000b0 fd 34 cd bd af 59 77 bc 96 94 06 be 0a 9d 9c bd
       -0.10019872 -0.015097066 -0.13142619 -0.0764714
0000c0 af 05 b2 bd 07 a7 95 3d 53 3a 6c bc 0a b1 13 3e
       -0.0869249 0.073072486 -0.014418202 0.14423004
0000d0 d7 03 04 3e 9b a3 7e 3d 1e d3 67 bd 14 0d 9f 3b
       0.1289209 0.062167745 -0.05659782 0.004853854
0000e0 a9 50 c8 3d f4 90 6c 3d 25 ed 57 3e 78 f0 2e 3d
       0.0978101 0.057755426 0.21086557 0.042709798
0000f0 a1 d7 cc bc b4 87 43 3e 6a 9d c9 bd a6 19 11 bd
       -0.025005164 0.19094735 -0.098444775 -0.03542485
000100 2f 43 15 bd 37 8d d8 3d b8 08 32 3d 1c 8b 50 3d
       -0.036441024 0.105738096 0.043465346 0.050913915
000110 18 1d 03 bd fc c5 9a bd 5a 9d 49 be 75 d5 b4 3d
       -0.032010168 -0.07557294 -0.19688931 0.08829776
000120 0d 41 8a 3c 82 36 9b bd 35 0a 5e bc 22 3d 02 3e
       0.016876722 -0.07578756 -0.013552238 0.12718633
000130 eb 63 b3 3d b3 99 54 3c 1e 90 9c 3d 88 59 f5 3c
       0.08759292 0.012976098 0.07644676 0.029949918
000140 e1 00 1a be 11 cb 38 3d 1f 40 ac bc 20 98 7d bd
       -0.15039398 0.045115534 -0.02102667 -0.061912656
000150 84 a6 a6 3d a8 b1 37 be 2e 8e 22 bc e3 04 aa bd
       0.08137229 -0.17938864 -0.009921594 -0.08301713
000160 ec 1f ad 3d 7e 4f 0b 3e d2 e7 ba bd d2 2a 6c bb
       0.08453354 0.13604543 -0.091262475 -0.0036036265
000170 39 ce 01 bd 1b 9b 0f 3d 97 38 8f bd 51 b6 00 bc
       -0.03169081 0.03506003 -0.069932155 -0.007855968
000180 62 d2 1c 3e 6b bc d2 bd db 31 ed bc 4c 40 27 be
       0.1531463 -0.10289844 -0.028954437 -0.16333121
000190 c3 c0 b5 3d 57 20 5d bd 5e 8c b8 bc 80 f0 5f 3c
       0.08874657 -0.05398592 -0.02252787 0.0136681795
0001a0 4d b5 13 3e ca a1 9b 3d 9c a7 ed 3c 42 cb 84 3d
       0.1442463 0.07599218 0.029010586 0.06484081
0001b0 a6 aa 58 bc 0c 54 49 ba 67 d5 90 bd 84 f4 cb 3c
       -0.0132242795 -0.00076800655 -0.07071953 0.024896868
0001c0 86 0d a6 bb 4f 84 09 3e 80 bf 8f 3d 6b fe 5e 3e
       -0.00506753 0.13429378 0.070189476 0.2177674
0001d0 cb 71 49 3d 60 d1 ec 3d ec 08 14 be f9 23 0c be
       0.049180787 0.115633726 -0.14456528 -0.13685597
0001e0 cc b6 c9 3d d0 30 1b 3e 0b 83 d5 3d 96 92 0a be
       0.09849319 0.15155339 0.10425385 -0.1353248
0001f0 22 c5 db bd f7 6b 82 3c ab 2d ed 3c 91 99 ab bc
       -0.107309595 0.015920622 0.02895244 -0.02094725
000200 2a be d8 3c cc e9 ef 3d 18 b1 05 be cc 21 44 3d
       0.026457865 0.11714515 -0.13055837 0.047883794
000210 e7 b2 ca bd b0 04 7b bb 31 61 18 bd cb 11 1b bd
       -0.09897404 -0.0038302355 -0.037202064 -0.037858766
000220 43 ac ab bd 35 b7 9e bd 68 ad 8a bd 09 ff f8 3d
       -0.08382466 -0.07749788 -0.06771356 0.12158019
000230 a9 f3 1f be 44 23 f0 bc 36 31 2a bd 21 19 2f bb
       -0.15620293 -0.029313691 -0.041550837 -0.002671786
000240 1b 63 ca bb 6d e8 68 3d 07 2d c5 bd 2b c9 22 be
       -0.006176365 0.056862283 -0.09627729 -0.15897052
000250 1c 18 20 be 27 40 cc 3b 87 fe 6a 3d 03 94 77 3d
       -0.15634197 0.0062332335 0.057371642 0.06044389
000260 1c fc cb 3d c3 db e4 3d c3 3d 01 3d 39 82 28 3d
       0.099601954 0.11174729 0.03155304 0.041139815
000270 30 60 1f 3b 2a 7f f4 3d 2f ba 92 bc 1b 0f d5 bd
       0.0024318807 0.11938317 -0.017911045 -0.10403272
000280 4c 3f 8f 3c 83 e5 6f 3d 34 b0 cf bd bd bc 2e bd
       0.017486237 0.05856849 -0.1014103 -0.042660464
000290 b8 c2 ba 3d 53 12 85 bc a6 12 93 bc 42 b8 c2 bd
       0.09119171 -0.01624409 -0.017953228 -0.09507801
0002a0 f9 f4 18 bd 42 4c 01 bb 5d 6d 8c bd 21 95 b8 3b
       -0.037343 -0.001972929 -0.06856797 0.005633012
0002b0 4d 5f 9f bd 3e d7 b3 3d d7 2f 65 3c 67 3d c7 3c
       -0.07781849 0.087812886 0.013988457 0.024321271
0002c0 cd e7 d8 bd 1e 8d 9f bd b4 47 18 bc 71 a3 77 3c
       -0.105910875 -0.07790588 -0.009294439 0.015114651
0002d0 20 9d 17 3e 90 d1 32 3d 11 1c c7 3d ba 83 be 3c
       0.14806032 0.043656886 0.0972215 0.023256171
0002e0 ce ab 9f bc ff 09 c0 bd 7b 46 f7 bd 4f cc ed 3b
       -0.019491103 -0.093769066 -0.1207399 0.0072570215
0002f0 72 ae a4 3d 5b 88 23 3e fe 01 8e b9 c1 83 f6 bd
       0.08041085 0.15969984 -0.00027085835 -0.12036849
000300 95 19 39 3b d5 b3 cb bd 73 04 cd 3d 3b e3 cc 3d
       0.0028244008 -0.099464096 0.10010614 0.10004278
000310 8d 94 9d bc 21 ff de 3b 9f 1b 5a be d5 94 cf 3c
       -0.019235874 0.006805316 -0.21299599 0.025339523
000320 92 fc 9b bd f4 33 7b bd f0 f7 e6 bd ba da 41 be
       -0.07616533 -0.061328843 -0.11277759 -0.18931094
000330 a2 d6 8b 3c e6 07 b7 3d 94 35 7d 3d d2 e3 85 3d
       0.017070118 0.089370534 0.061818674 0.06537594
000340 be c0 22 3e a1 06 4a 3d ac b7 4c be 18 99 8a be
       0.15893838 0.049322728 -0.1999194 -0.27069926
000350 e0 98 9b bc 82 1a 5a 3d 3b 28 fb bd be ff d3 bd
       -0.018993795 0.053247936 -0.12263533 -0.10351513
000360 81 42 81 3c de 61 6f 3d d1 c9 e0 bd 79 1f 1c bc
       0.015778782 0.058442943 -0.109759934 -0.009528988
000370 e9 6d c5 bd c2 b2 a7 3d af b9 a3 bd ad 98 b8 3d
       -0.09640104 0.08188392 -0.07994401 0.090134956
000380 df 40 1f bd bc 51 6b bd e8 b9 c2 3d c0 b6 d4 3c
       -0.038880225 -0.057450995 0.09508115 0.025966048
000390 cf ad 99 3c 6c 39 a5 bd bc c4 36 3d 7c d0 2c 3b
       0.018759636 -0.08067593 0.044621214 0.0026369384
0003a0 d2 56 ab bc fb 44 ff bd 5a c9 a8 3d 34 80 bd bd
       -0.020915423 -0.12464329 0.0824153 -0.092529684
0003b0 83 63 81 3d 09 67 93 3c 25 6a 37 bc eb d6 63 3d
       0.063178085 0.017993467 -0.01119474 0.055624884
0003c0 94 06 8c bd 78 f9 a1 bd 58 2b 0b 3d fa 9f 9c 3d
       -0.06837192 -0.079089105 0.033976883 0.076477006
0003d0 4d a0 a9 3d 3b eb 3e bd a3 69 e2 bd 06 18 54 bd
       0.08282528 -0.046611052 -0.11055305 -0.051780723
0003e0 1d 80 e4 3c b8 24 29 bd db cf b5 3d 84 2b e7 bc
       0.02789312 -0.041294783 0.08877536 -0.028218992
0003f0 82 ef a2 bc b0 5b ae 3d c5 29 84 bd eb d9 30 be
       -0.019889597 0.08513582 -0.064532794 -0.17270629
