Unity - Crypto Ball/results/ppo/My Behavior/My Behavior-129646.onnx (onnx, 72892 bytes, 7 tensors)

action_model._continuous_distribution.log_sigma f4 [1, 2]
0.03905416 0.02419991
00000000: 41f7 1f3d e43e c63c

action_model._continuous_distribution.mu.bias f4 [2]
-0.0022428224 0.0034290783
00000000: 51fc 12bb 63ba 603b

action_model._continuous_distribution.mu.weight f4 [2, 128]
-0.006522472 -8.992888e-05 0.023156622 0.013578278 -0.0052168155 0.005496506 0.01852971 -0.001008333
-0.005624815 -0.0088944435 0.011910233 -0.0030005872 -0.036390193 -0.019340988 0.01648315 0.010567459
0.013626597 0.022156846 0.038594007 -0.016599804 0.0011031514 0.019622652 -0.009508619 -0.025578786
-0.021334339 0.03673752 -0.01995955 0.023231287 -0.0038964327 0.0040486283 0.036727175 -0.01102825
-0.0129041355 -0.00960488 0.018825063 0.0149169145 0.018463036 0.02523942 0.002922567 -0.011376507
0.005540862 0.011256283 0.032478154 0.00909909 -0.026439762 0.030232785 -0.014759977 0.038205344
0.0036637406 -0.0133639155 0.013025815 0.0007939227 0.021951921 -0.01729568 0.0014396614 -0.0061315796
0.020386437 0.0031496503 0.026771784 -0.006666266 0.021872614 0.024671135 0.014238042 -0.011201684
-0.018335069 0.0072063855 0.009907794 0.0003214303 -0.014332787 -0.019389959 -0.02799748 0.0073825903
-0.006164189 -0.004223707 0.015569467 -0.0012723112 -0.0019571444 0.011359454 -0.020746233 0.012410144
-0.007606073 -0.00629447 -0.0034510011 0.004844912 0.00029859404 0.0002670965 0.008273234 0.028488722
0.020278994 -0.00061948603 0.012541166 -0.007449 0.010742845 0.0018878593 -0.022892343 0.011729819
-0.03366152 -0.0020606194 -0.029767903 0.005664401 -0.017178748 0.0061186673 -0.018704928 0.018615559
0.020786341 0.019527825 -0.001859269 0.013746778 -0.010464742 0.043890476 -0.011937886 0.0017910005
0.00028590256 0.002277386 -0.019664103 0.016354483 -0.029684456 -0.016701128 -6.3010135e-05 0.0171122
0.010510587 -0.010499768 -0.00721494 0.027720084 -0.008312661 0.009019356 -0.026768694 -0.0078430595
0.0007555407 0.018267006 -0.008988065 -0.012863116 0.018114362 0.01699833 -0.008020708 -0.004485356
-0.012868143 -0.0061362474 0.027546456 0.005242133 0.0022227638 0.009751839 0.0033210726 0.0091335615
-0.01191288 0.0066745584 0.0033125419 -0.00807903 -0.02312637 -0.0150580425 0.016122459 -0.023404475
-0.004339924 -0.023752645 0.0052180025 0.006720776 -0.011742829 -0.007777394 -0.0025014768 -0.013429911
0.003916742 -0.0292279 0.008039601 -0.016089546 0.012815795 0.0018019759 0.030153433 0.0024985143
0.005682524 -0.011967011 -0.0055918153 -0.018732768 0.010308169 -0.03218113 -0.002070738 0.03885516
0.00053949445 -0.009472543 -0.0058248434 0.010547535 -0.010781315 0.03761841 -0.016115015 -0.010670439
-0.014900633 -0.015942292 0.0131253805 0.013818359 3.055459e-05 0.008225869 0.01011636 -0.013647444
-0.0032689783 -0.023394778 0.01303049 0.0054081962 -0.023061931 0.03881416 -0.015603002 -0.0029606288
-0.0036693478 0.009628532 -0.053805303 0.008444183 -0.015721008 0.0029511717 -0.033761904 0.01137221
-0.018143026 0.022286065 -0.018179398 -0.03128293 -0.007909359 0.015418268 -0.01577728 -0.015693026
0.0006656933 0.006029721 -0.019326793 -0.013705999 -0.03169049 0.007989551 -0.04277706 -0.0003214932
-0.0054047075 -0.013200842 -0.008483934 -0.013926858 -0.010859359 0.019075057 0.0067499233 -0.0047319084
0.008195787 -0.05074579 0.036365133 -0.04633578 0.005094232 0.013103348 -0.014311287 0.0012198553
0.004122802 -0.028198631 -0.004759078 -0.020307982 -0.014113945 0.0034182987 0.029981686 -0.013242895
0.01579058 -0.009969258 0.012945954 -0.025319077 0.0012644435 -0.018910998 0.005204471 0.007116746
00000000: 76ba d5bb 3398 bcb8 f5b2 bd3c 6d77 5e3c
00000010: d2f1 aabb 091c b43b 9ecb 973c 0b2a 84ba
00000020: 5e50 b8bb 00ba 11bc 2323 433c 80a5 44bb
00000030: e20d 15bd fe70 9ebc ac07 873c 2323 2d3c
00000040: 1742 5f3c 4682 b53c c014 1e3d 50fc 87bc
00000050: 9e97 903a afbf a03c 0aca 1bbc 9a8a d1bc
00000060: 5ac5 aebc 157a 163d 3682 a3bc 8a4f be3c
00000070: 4b5b 7fbb 5baa 843b 3c6f 163d d5af 34bc
00000080: de6b 53bc c95d 1dbc 0537 9a3c 1366 743c
00000090: cb3f 973c e6c2 ce3c 8a88 3f3b 8764 3abc
000000a0: 1f90 b53b 466c 383c d007 053d 5914 153c
000000b0: 3398 d8bc bfaa f73c d5d3 71bc 357d 1c3d
000000c0: 5e1b 703b 53f4 5abc 3a6a 553c 401f 503a
000000d0: 84d4 b33c abaf 8dbc 05b3 bc3a 6beb c8bb
000000e0: 7501 a73c 5d6a 4e3b 8050 db3c b170 dabb
000000f0: 322e b33c 1f1b ca3c ad46 693c 4587 37bc
00000100: 6d33 96bc 8b23 ec3b 4d54 223c a585 a839
00000110: 11d4 6abc b1d7 9ebc f95a e5bc a8e9 f13b
00000120: f7fc c9bb 0667 8abb 1417 7f3c aec3 a6ba
00000130: 6f43 00bb 011d 3a3c 01f4 a9bc eb53 4b3c
00000140: 5d3c f9bb d741 cebb 312a 62bb 11c2 9e3b
00000150: 9d8c 9c39 1609 8c39 758c 073c 2e61 e93c
00000160: 2220 a63c 0165 22ba 7679 4d3c be16 f4bb
00000170: c202 303c 0c72 f73a b988 bbbc 6d2e 403c
00000180: a9e0 09bd 750b 07bb d1db f3bc 719c b93b
00000190: 72ba 8cbc 1a7f c83b 143b 99bc a87f 983c
000001a0: 1e48 aa3c d1f8 9f3c b7b2 f3ba 2a3a 613c
000001b0: 4f74 2bbc 80c6 333d 1f97 43bc 01c0 ea3a
000001c0: 31e5 9539 3240 153b 9d16 a1bc d6f9 853c
000001d0: d12c f3bc ced0 88bc 4f24 84b8 e22e 8c3c
000001e0: 9934 2c3c 3807 2cbc 4e6b ecbb 3b15 e33c
000001f0: d431 08bc ecc5 133c 054a dbbc 2d80 00bc
00000200: 7a0f 463a b0a4 953c ad42 13bc d2bf 52bc
00000210: 9264 943c 1540 8b3c 4a69 03bc e5f9 92bb
00000220: e7d4 52bc 9312 c9bb 1ba9 e13c 33c6 ab3b
00000230: caab 113b 2dc6 1f3c 5aa6 593b efa4 153c
00000240: 3e2e 43bc 41b6 da3b 3b17 593b e85d 04bc
00000250: 8373 bdbc 02b6 76bc 3f13 843c beba bfbc
00000260: ec35 8ebb e894 c2bc c7fb aa3b f539 dc3b
00000270: ff64 40bc 82d9 febb d1ef 23bb 2109 5cbc
00000280: 0358 803b 596f efbc 88b8 033c 39ce 83bc
00000290: 57f9 513c 4730 ec3a 5504 f73c 1dbe 233b
000002a0: 7734 ba3b 4811 44bc 8c3b b7bb 7675 99bc
000002b0: 98e3 283c 5cd0 03bd 38b5 07bb 9726 1f3d
000002c0: dc6c 0d3a ba32 1bbc 54de bebb 91cf 2c3c
000002d0: 1da4 30bc c315 1a3d a303 84bc 11d3 2ebc
000002e0: c921 74bc 6999 82bc d60b 573c 6666 623c
000002f0: be27 0038 ccc5 063c 17bf 253c 8799 5fbc
00000300: 5b3c 56bb 68a6 bfbc d67d 553c 3d37 b13b
00000310: 60ec bcbc 99fb 1e3d bca3 7fbc 1c07 42bb
00000320: 7179 70bb fec0 1d3c f362 5cbd 7859 0a3c
00000330: 58c9 80bc 7268 413b ec49 0abd 8252 3a3c
00000340: afa0 94bc 4491 b63c f6ec 94bc 8822 00bd
00000350: 4296 01bc e79c 7c3c 5b3f 81bc a98e 80bc
00000360: ec81 2e3a f794 c53b 3953 9ebc 208f 60bc
00000370: e3cd 01bd 9be6 023c 0037 2fbd 168e a8b9
00000380: f919 b1bb 5848 58bc 3300 0bbc 7a2d 64bc
00000390: 74eb 31bc 4b43 9c3c 762e dd3b 200e 9bbb
000003a0: 9f47 063c d1da 4fbd 9bf3 143d 96ca 3dbd
000003b0: 84ed a63b 6daf 563c e379 6abc 8de3 9f3a
000003c0: 9218 873b d100 e7bc 0af2 9bbb ed5c a6bc
000003d0: 2d3e 67bc 8905 603b 279c f53c baf8 58bc
000003e0: 3f5b 813c 1956 23bc 441b 543c f469 cfbc
000003f0: afbb a53a 3deb 9abc 448a aa3b 9833 e93b

network_body.linear_encoder.seq_layers.0.bias f4 [128]
-0.004855891 0.0019864233 0.0029261338 -0.001992838 -0.00093987025 -0.0062159062 -0.0052153035 0.0013076591
0.0025298446 0.00082855124 -0.0018855603 -0.0061594117 -0.00030906612 -0.0030099263 0.0009090121 0.0007492614
-0.004836027 0.0013298705 0.001991902 0.0019003701 0.0021585715 -0.00039169862 0.0012607565 -0.00015074047
0.0030010417 -0.0071387426 -0.006023637 -0.0009927774 -0.0033992643 0.005050637 0.00038421788 -0.005045621
-0.0003047751 0.00094547204 0.0010222938 -0.0005811482 0.002423601 -0.0015514335 -0.0048901676 -0.0015600859
0.00068375916 0.002189768 -0.0053991973 -0.003086066 0.0014753105 -0.0023354206 0.003366763 -0.006441352
0.0008132878 -0.0012307963 -0.0019973419 -0.0015010671 -0.0021501852 -0.006429531 -0.0003513679 -0.0024588176
-0.0033693654 -0.00293838 -0.003638448 0.0036604381 0.0035432496 -0.0025867745 -0.0027449196 -0.0010352791
-0.00147598 0.00024349606 -0.0034753128 0.0041335477 -0.00023739832 -0.0012511462 -0.003682373 -0.0026005756
-0.0026203317 -0.00976116 0.0026637772 0.004063415 0.0012160776 -0.00046702445 -0.000783665 0.003385747
-0.0037375283 0.0006890112 0.0026878398 -0.00036360923 -0.006048397 0.00017531605 0.0023284215 -0.00504679
0.0005259953 0.0027520908 -0.003649485 0.00019487923 0.0025860874 -0.0018525772 -0.00041023904 -0.0056006573
-0.00030373677 -0.0026839348 0.0031043934 0.00018494988 -0.0029002128 0.0036552127 0.007623913 -0.0029944577
-0.00449438 -0.0021550208 -0.0044907555 -0.0040440946 -0.00053054007 -0.006807553 0.0015198418 -0.00077443867
0.00061050616 0.002072363 0.00047976396 0.0033063735 3.642614e-05 -0.003169807 -0.001955417 -0.00022983298
0.0008280834 -0.0051302984 -0.004846329 -0.0034018399 0.00036620154 0.0024660947 -0.0034056725 -0.002726012
00000000: 2b1e 9fbb a72e 023b 61c4 3f3b 469a 02bb
00000010: a061 76ba cdae cbbb 23e5 aabb c265 ab3a
00000020: c0cb 253b 2233 593a e824 f7ba e4d4 c9bb
00000030: 270a a2b9 2f42 45bb c54a 6e3a 156a 443a
00000040: 8977 9ebb 0d4f ae3a 928a 023b d715 f93a
00000050: d276 0d3b e65c cdb9 f83f a53a 1610 1eb9
00000060: 20ad 443b 1dec e9bb ee61 c5bb 1520 82ba
00000070: 31c6 5ebb d07f a53b da70 c939 bd55 a5bb
00000080: 39ca 9fb9 8ed9 773a 7dfe 853a 3258 18ba
00000090: 47d5 1e3b 7859 cbba b33d a0bb cc7b ccba
000000a0: 4d3e 333a 3682 0f3b c0eb b0bb 993f 4abb
000000b0: 355f c13a db0d 19bb e9a4 5c3b fa11 d3bb
000000c0: d232 553a ac52 a1ba d6e5 02bb 74bf c4ba
000000d0: 1fea 0cbb d1ae d2bb cd37 b8b9 1d24 21bb
000000e0: 92d0 5cbb d691 40bb 0773 6ebb f6e3 6f3b
000000f0: dd35 683b e086 29bb 1ce4 33bb 34b2 87ba
00000100: ac75 c1ba fa52 7f39 13c2 63bb b672 873b
00000110: 20ee 78b9 80fd a3ba f853 71bb 6b6e 2abb
00000120: dfb9 2bbb 46ed 1fbc c492 2e3b 6526 853b
00000130: cb64 9f3a f6da f4b9 de6e 4dba 69e3 5d3b
00000140: 52f1 74bb c29e 343a 7826 303b cea2 beb9
00000150: a231 c6bb 0bd5 3739 6e98 183b 8b5f a5bb
00000160: f2e2 093a 6c5c 343b 332c 6fbb 7f58 4c39
00000170: 597b 293b 2dd2 f2ba 5a15 d7b9 b885 b7bb
00000180: dc3e 9fb9 f4e4 2fbb 1473 4b3b 1bef 4139
00000190: 7f11 3ebb 4b8c 6f3b 05d2 f93b aa3e 44bb
000001a0: 9845 93bb 403b 0dbb 3027 93bb 5384 84bb
000001b0: f113 0bba e511 dfbb 6e35 c73a b303 4bba
000001c0: 600a 203a 7bd0 073b d488 fb39 beaf 583b
000001d0: 45c8 1838 89bc 4fbb 7426 00bb 52ff 70b9
000001e0: bc13 593a 101c a8bb f4cd 9ebb 67f1 5ebb
000001f0: bdfe bf39 349e 213b b431 5fbb e4a6 32bb

network_body.linear_encoder.seq_layers.0.weight f4 [128, 6]
0.24917313 0.4264189 -0.042296804 0.080822505 0.08139806 0.29262343 -0.29338527 -0.44876823
-0.76338524 0.6335799 0.4240046 0.60197055 -0.2424076 -0.06680328 -0.1701103 -0.32337552
0.22575971 0.9135554 0.18160878 -0.09340154 0.72733676 1.1760355 0.5605642 0.54172665
-0.5464351 0.692781 -0.14967513 0.20250604 0.8498126 -0.38111588 0.20013767 -0.17280036
-0.22291161 -0.13125825 -0.72999805 -0.04118112 -0.22039725 -0.69555277 0.4310132 -0.011219674
0.046091717 0.036232222 0.41860646 -0.62233776 -0.0959052 -0.33498296 -0.24217303 -0.22886255
-0.47727475 -0.104481824 -0.0058537927 0.15309334 -0.27682602 -0.14316031 -0.28311977 0.14323539
0.39350384 0.19463256 -0.3812702 0.20201394 -0.13300277 0.7763427 0.64331496 0.16410832
-0.2539247 0.4339181 -0.08858213 -0.83794117 -0.48576263 -0.42683575 0.45260572 -0.4169724
0.05500399 0.054913517 0.559776 0.22090028 0.42838925 -0.16215579 0.04254503 -0.27632225
0.22847177 0.046140708 0.749541 -0.14936621 0.2041886 -0.2562052 0.6912987 -0.8485771
0.27783343 0.5388161 0.17234056 -0.390905 -0.426139 -0.034359805 -0.18475227 -0.04431664
-0.09515734 -0.06879054 -0.3470671 -0.20142744 0.47490332 0.37042713 -0.26577187 -0.31611827
-0.003456545 0.36259255 0.9445252 0.14016286 0.5097755 0.07860563 0.008250136 -0.4415923
-0.42970827 -0.2350449 -0.06474543 -0.6162707 0.19560227 0.26467657 0.48567313 -0.13343422
-0.5930501 -0.106865056 -0.85114604 1.1427362 0.46800515 -0.07658495 -0.25009957 0.1156605
0.20321281 0.58424234 0.060148347 0.4994718 -0.30242354 0.22432314 -0.5484123 0.18962248
-0.06277239 -0.2326556 -1.0184315 -0.24162978 -0.7225212 0.1298215 0.23721597 -0.1151234
-0.26835364 -0.2758104 0.4251418 -0.06292593 0.3477328 -0.037384667 -0.13609639 0.2691019
-0.4353714 -0.72701836 -0.18180504 -0.53034943 0.8286577 0.35960507 -0.6613464 -0.38593423
-0.5708896 -0.08667932 -0.50968933 -0.17723002 -0.3905715 0.5844841 0.4749204 1.1069753
0.0047707935 0.54563546 -0.5609909 -0.46890104 -0.49699053 0.23944663 0.26591533 0.8539876
-0.009766793 -0.5582913 -0.2140319 -0.031794883 0.23331921 0.01622028 -0.20598057 -0.0017800409
-0.09026633 -0.3377883 0.20143601 -0.36496288 -0.7357716 -0.25076625 0.31935674 0.42915425
-0.07442051 -0.18304612 -0.15999183 0.63596404 -0.04920283 0.42186403 -0.2989574 -0.18051505
0.57874215 0.9679031 -0.061980724 -0.7417178 -0.90971684 -0.97096914 0.2772441 -0.4117867
-0.74945736 1.2955606 -0.06752486 -0.24867983 0.06675893 0.4342458 0.109839745 -0.7936559
0.14602987 -0.08314334 0.35515603 0.6076509 0.13518508 -0.72701144 0.18912275 0.30144498
-0.6529489 0.3005239 0.31095764 -0.26850998 0.47443384 0.38172543 0.040746916 0.07503661
-0.13646139 -0.22689532 0.39048848 0.04308688 -0.14018407 0.18378755 0.37938905 -0.08437675
-0.5010019 -0.5535548 0.29801935 -0.3547673 0.26077017 0.11253064 -0.6148709 -0.4471509
-0.7530704 -0.1201476 -0.09586557 -0.14042409 -0.05938846 0.13264099 0.021030836 -0.59767604
00000000: 3e27 7f3e 9453 da3e 6a3f 2dbd 4586 a53d
00000010: 07b4 a63d bdd2 953e 9836 96be f3c4 e5be
00000020: 376d 43bf 4b32 223f 2217 d93e be1a 1a3f
00000030: b339 78be 28d0 88bd 6531 2ebe 7a91 a5be
00000040: 8e2d 673e c4de 693f a7f7 393e 4e49 bfbd
00000050: be32 3a3f 5588 963f 2381 0f3f 99ae 0a3f
00000060: 2ce3 0bbf 185a 313f 7044 19be be5d 4f3e
00000070: 528d 593f 9f21 c3be e4f0 4c3e 94f2 30be
00000080: f142 64be 9068 06be 27e1 3abf 89ad 28bd
00000090: d1af 61be bf0f 32bf c3ad dc3e b9d2 37bc
000000a0: abca 3c3d 3d68 143d 9653 d63e 8751 1fbf
000000b0: f269 c4bd e382 abbe 35fc 77be f25a 6abe
000000c0: 5b5d f4be 91fa d5bd 2cd1 bfbb 80c4 1c3e
000000d0: 24bc 8dbe 9e98 12be 13f5 90be 4cac 123e
000000e0: 5679 c93e c24d 473e d935 c3be bedc 4e3e
000000f0: e131 08be 65be 463f 4ab0 243f 030c 283e
00000100: 6b02 82be 832a de3e 8c6a b5bd 5083 56bf
00000110: e1b5 f8be 378a dabe f0bb e73e 687d d5be
00000120: dd4b 613d ffec 603d 7b4d 0f3f af33 623e
00000130: d655 db3e 2b0c 26be b343 2e3d 1c7a 8dbe
00000140: 81f4 693e 0afe 3c3d ebe1 3f3f 75f3 18be
00000150: d116 513e 542d 83be f4f8 303f 593c 59bf
00000160: 2f40 8e3e daef 093f 0b7a 303e b324 c8be
00000170: e42e dabe debc 0cbd b32f 3dbe 5d85 35bd
00000180: dae1 c2bd 0ee2 8cbd c7b2 b1be ff42 4ebe
00000190: 8726 f33e a0a8 bd3e 4013 88be 41da a1be
000001a0: 3487 62bb bba5 b93e 67cc 713f da86 0f3e
000001b0: a680 023f fdfb a03d 942b 073c 6318 e2be
000001c0: b902 dcbe 9caf 70be 4199 84bd ebc3 1dbf
000001d0: f64b 483e b083 873e 26aa f83e fba2 08be
000001e0: 22d2 17bf 11dc dabd b5e4 59bf 2e45 923f
000001f0: 5f9e ef3e 92d8 9cbd 0d0d 80be 6adf ec3d
00000200: 0517 503e e890 153f 1d5e 763d c5ba ff3e
00000210: 42d7 9abe f7b4 653e c064 0cbf 652c 423e
00000220: d08e 80bd 453d 6ebe f75b 82bf cc6d 77be
00000230: 26f7 38bf edef 043e bee8 723e d1c5 ebbd
00000240: a665 89be 0537 8dbe 30ac d93e 4fdf 80bd
00000250: 090a b23e aa20 19bd da5c 0bbe b9c7 893e
00000260: 00e9 debe e01d 3abf 1a2b 3abe fbc4 07bf
00000270: e922 543f 281e b83e ff4d 29bf 2c99 c5be
00000280: d225 12bf ed84 b1bd 007b 02bf c97b 35be
00000290: fdf8 c7be c0a0 153f c428 f33e 5eb1 8d3f
000002a0: 5154 9c3b c4ae 0b3f 1a9d 0fbf cc13 f0be
000002b0: 8b75 febe 7f31 753e 0e26 883e ee9e 5a3f
000002c0: e604 20bc 2eec 0ebf 2e2b 5bbe 5a3b 02bd
000002d0: 3beb 6e3e 65e0 843c 92ec 52be 4350 e9ba
000002e0: 8edd b8bd 97f2 acbe 3e45 4e3e 6adc babe
000002f0: 875b 3cbf 6f64 80be ba82 a33e 1bba db3e
00000300: c869 98bd 7170 3bbe e6d4 23be 8ace 223f
00000310: e888 49bd 90fe d73e f210 99be f0d8 38be
00000320: 7228 143f 7fc8 773f 80df 7dbd 38e1 3dbf
00000330: 34e3 68bf 6f91 78bf f0f2 8d3e b5d5 d2be
00000340: 70dc 3fbf eed4 a53f 794a 8abd eda5 7ebe
00000350: e8b8 883d 7755 de3e a9f3 e03d 082d 4bbf
00000360: db88 153e 0e47 aabd 03d7 b53e 028f 1b3f
00000370: f56d 0a3e 6c1d 3abf 65a9 413e ff56 9a3e
00000380: a927 27bf 45de 993e d735 9f3e 247a 89be
00000390: fee8 f23e 8471 c33e 3de6 263d cbac 993d
000003a0: 89bc 0bbe 3f57 68be 1bee c73e de7b 303d
000003b0: 6a8c 0fbe ce32 3c3e 483f c23e b8cd acbd
000003c0: a941 00bf c4b5 0dbf fe95 983e 0fa4 b5be
000003d0: ab83 853e 7776 e63d 2e68 1dbf f6f0 e4be
000003e0: 39c9 40bf f20f f6bd 2b55 c4bd 55cb 0fbe
000003f0: 5041 73bd 0ad3 073e dc48 ac3c 4c01 19bf

network_body.linear_encoder.seq_layers.2.bias f4 [128]
-0.0017400013 0.0032274097 -0.003158481 -0.00076761266 0.0028406058 0.0035797802 -0.0030700502 -0.00015123993
-0.004898374 -0.0017946787 0.0022464893 -0.0012531664 0.00066908845 0.0032711301 -0.0033235843 2.7895132e-05
-0.004084293 -0.00027817374 -0.00050634024 0.0003839714 -0.0035082714 -0.0027033084 0.004131193 -0.0007279383
0.0015452127 -0.00047565103 -0.00027078958 0.0054803826 -0.0032359157 -0.009706552 0.005433545 -0.0024418503
0.00018036918 -0.0045419284 -0.0018102652 -0.0050204075 0.007870283 -0.007658049 -0.005228318 0.0022044994
-0.0022024908 -0.00436129 0.00015710933 -0.0034774567 0.0036904134 -0.0009672715 0.0012363814 0.00061897165
-0.004397522 -0.0019576116 -0.0048277373 0.0023030285 -0.003370703 0.005209753 -0.005039256 -0.001402665
-0.0038720306 -0.00410777 -0.0011405258 0.0042198887 -0.003591166 0.00024564483 -0.0013735477 -0.007819834
-0.0010102543 0.005341566 0.0011940148 0.0012323756 -0.004189863 0.0039441506 -0.0008020451 -0.0048631513
-0.003018544 0.0033687379 -0.004494022 -0.0020324443 -3.785986e-05 -0.002027153 -0.0039272914 0.0018105708
-0.0039629773 0.003624049 -0.0024936977 -0.0038300795 -0.0042298883 0.0011925156 -0.0018469002 0.00044117298
-0.0034572845 0.0043287496 -0.0015204027 -0.0010862903 -0.004936035 0.000380942 -0.0046537374 -0.001860626
0.0017126413 -0.004517266 -0.0060933316 -0.004144195 -0.00027896112 -0.002803152 0.003316183 -0.00464784
-0.0019343578 -6.3775384e-05 6.4200365e-05 -0.0018399847 0.0015821159 -0.0032003003 0.00032721466 -0.003290216
-0.0021575384 -0.002191932 0.0018256921 -0.0039560585 0.00096291304 0.0016879056 0.003946307 -0.0031632998
-0.0010833149 0.00094384246 -0.0013339784 -0.0047830367 0.000506638 0.0031198105 0.0010537833 -0.00015623728
00000000: c110 e4ba f382 533b 85fe 4ebb 9d39 49ba
00000010: 7529 3a3b bf9a 6a3b e532 49bb 2996 1eb9
00000020: 8a82 a0bb 6d3b ebba d639 133b 4941 a4ba
00000030: c465 2f3a 7560 563b 7ed0 59bb 5700 ea37
00000040: 88d5 85bb d9d7 91b9 ebbb 04ba c54f c939
00000050: 07eb 65bb fd29 31bb f55e 873b 1dd3 3eba
00000060: bc88 ca3a cd60 f9b9 c3f8 8db9 c894 b33b
00000070: a811 54bb 3b08 1fbc e10b b23b 7307 20bb
00000080: 7c21 3d39 75d4 94bb 6c46 edba 3b82 a4bb
00000090: 5cf2 003c 5ff0 fabb 4f52 abbb 5d79 103b
000000a0: aa57 10bb 27e9 8ebb b7bd 2439 0be6 63bb
000000b0: ddda 713b 7e90 7dba 130e a23a 7c42 223a
000000c0: 1719 90bb 464b 00bb ff31 9ebb 68ee 163b
000000d0: 03e7 5cbb 93b6 aa3b 5820 a5bb a1d9 b7ba
000000e0: e5c1 7dbb 799a 86bb b27d 95ba fe46 8a3b
000000f0: c559 6bbb e4c9 8039 9d08 b4ba c31e 00bc
00000100: 826a 84ba 4e08 af3b 7d80 9c3a aa87 a13a
00000110: 1e4b 89bb ef3d 813b 5640 52ba 125b 9fbb
00000120: c4d2 45bb 0bc6 5c3b 9742 93bb c232 05bb
00000130: b7cb 1eb8 fcd9 04bb 82b0 80bb ad50 ed3a
00000140: dddb 81bb 7481 6d3b 4e6d 23bb 1202 7bbb
00000150: e09a 8abb 2f4e 9c3a b013 f2ba 3c4d e739
00000160: 9c93 62bb 2fd8 8d3b 4048 c7ba db61 8eba
00000170: 76be a1bb 2bb9 c739 617e 98bb 40e0 f3ba
00000180: b57a e03a 9305 94bb 92aa c7bb 07cc 87bb
00000190: 8741 92b9 16b5 37bb 5254 593b e84c 98bb
000001a0: 478a fdba 26bf 85b8 4fa3 8638 a42b f1ba
000001b0: 005f cf3a 21bc 51bb 028e ab39 aaa0 57bb
000001c0: 7d65 0dbb 84a6 0fbb 104c ef3a d3a1 81bb
000001d0: 006c 7c3a b73c dd3a 0650 813b 5d4f 4fbb
000001e0: 04fe 8dba 326c 773a e3d8 aeba 05bb 9cbb
000001f0: e7cf 043a bc75 4c3b 1a1f 8a3a a0d3 23b9

network_body.linear_encoder.seq_layers.2.weight f4 [128, 128]
0.10199481 0.018523183 0.06382185 -0.124582715 0.011921564 0.026768345 -0.109354824 0.2288718
-0.040633846 -0.0911464 0.06358691 0.07860646 0.16149248 0.02405463 0.0305544 -0.049829163
-0.024715073 0.048742406 -0.10430483 -0.03420561 0.055521015 0.094145626 0.0042103 0.11745737
0.08303201 -0.107421726 -0.023673233 -0.068937436 -0.17471614 -0.039342422 -0.046693586 -0.07687518
-0.047751468 0.0037917257 -0.07541759 0.15594155 0.0035289505 -0.00046288004 -0.07951762 0.16915481
0.08056718 -0.09113651 -0.008014848 -0.06253396 -0.19816852 -0.1381161 -0.09197434 0.17679784
0.042413536 -0.12673089 0.06938526 0.04619646 0.039295394 -0.007094537 -0.08083603 -0.07188054
-0.14453416 3.7391803e-06 -0.088714264 0.004813813 0.15019454 -0.0073691984 -0.001351788 0.09216567
0.005248126 0.053500425 0.09446983 0.078664176 -0.06695634 0.047294267 -0.006373121 -0.006375271
0.021450117 -0.038295507 0.11643544 0.0012992191 0.031119512 0.044149138 -0.005815641 -0.0034782025
-0.08214218 -0.13385527 0.17627086 -0.021145275 0.019255327 -0.001704465 0.11428921 0.12458437
-0.16578992 -0.142448 0.010966843 0.09734388 -0.024527015 -0.04326008 -0.10635344 -0.03784878
-0.0894127 -0.06841676 -0.062367678 -0.16108263 -0.066917226 0.02153679 -0.031441856 0.12083597
0.09276073 -0.051444445 -0.040123865 0.01555139 -0.082128055 -0.016218375 -0.03931973 0.085728586
-0.026658036 0.080956355 0.04287643 0.08098063 -0.055034358 0.034430884 0.1285126 -0.08583666
0.005762892 0.07590361 0.06723268 -0.21415405 0.045505982 0.07609447 0.07859289 0.11637544
-0.06486553 -0.04933896 0.012489669 0.0055582435 -0.12594974 0.1649618 -0.073039785 0.06674598
0.18553346 0.0054061553 -0.12307787 0.0628263 0.041631546 -0.05852841 0.057876952 0.03441787
0.08333243 0.11394646 0.10222415 -0.10223158 -0.1451339 0.110959396 0.1168949 0.0792791
-0.0026631025 -0.11186662 -0.07820888 0.034875162 -0.20540889 0.09589216 0.09278117 -0.0018614483
-0.056975443 -0.016218761 0.0047296593 -0.013487543 0.036372364 0.041428607 0.09246778 -0.034358956
0.022419697 -0.0521631 -0.18526228 -0.116445065 0.029815882 0.0077915583 0.07572258 0.058322646
0.10618584 -0.038212083 -0.037031606 0.109974205 0.043859247 -0.032795776 -0.09786092 -0.15814658
0.07991502 0.041108295 0.027939213 -0.03668019 0.01025132 -0.16094784 -0.16178565 -0.059466973
-0.1155305 -0.07638905 -0.08459635 0.0819006 -0.16918154 0.06923983 -0.14641634 0.046640914
0.12886463 -0.017746601 0.1434481 0.09985845 0.050859094 0.01496791 0.015246454 0.029240174
-0.078346536 -0.046808764 0.036512177 -0.05843798 -0.11443997 0.16849951 -0.07061056 -0.038278986
0.097619705 0.10309226 -0.12666671 0.06328642 0.12194313 0.1147141 0.04047068 0.10363776
0.067228444 -0.10927168 -0.049752187 0.0022862025 -0.015728189 -0.16244031 -0.022585645 -0.034489747
-0.1565493 0.05623231 0.16687883 0.00305907 0.07887682 0.010346697 0.03882288 0.13682556
-0.12303331 0.041319806 0.104779504 0.110299684 0.020346314 -0.16436514 -0.078416675 0.057017293
0.1581668 -0.051253065 0.040287185 -0.0023831367 -0.07309438 -0.01769729 0.041845623 -0.014039997
00000000: a8e2 d03d eebd 973c 08b5 823d 3925 ffbd
00000010: aa52 433c 4a49 db3c 6cf5 dfbd 5e5d 6a3e
00000020: ad6f 26bd f7aa babd db39 823d 6cfc a03d
00000030: 495e 253e 370e c53c 394d fa3c aa19 4cbd
00000040: 4477 cabc 1ea6 473d c59d d5bd 2f1b 0cbd
00000050: 016a 633d 6ccf c03d 8ef6 893b 7d8d f03d
00000060: b00c aa3d ecff dbbd 5eee c1bc 122f 8dbd
00000070: cae8 32be 8525 21bd c641 3fbd bc70 9dbd
00000080: 0b97 43bd 9a7e 783b 8a74 9abd 24af 1f3e
00000090: f745 673b b5ae f2b9 22da a2bd eb36 2d3e
000000a0: 6800 a53d c7a5 babd b650 03bc ce11 80bd
000000b0: b0ec 4abe 4f6e 0dbe 0b5d bcbd 7e0a 353e
000000c0: d1b9 2d3d bec5 01be dc19 8e3d 8038 3d3d
000000d0: 35f4 203d 4a79 e8bb 5c8d a5bd 1b36 93bd
000000e0: c300 14be a1ee 7a36 d3af b5bd 31bd 9d3b
000000f0: 99cc 193e 5179 f1bb 7b2e b1ba 5bc1 bc3d
00000100: 79f8 ab3b 4323 5b3d 6679 c13d af1a a13d
00000110: 6820 89bd a2b7 413d 9dd5 d0bb a6e7 d0bb
00000120: 28b8 af3c c0db 1cbd b475 ee3d 8f4a aa3a
00000130: 59ee fe3c bad5 343d 2291 bebb 8ef2 63bb
00000140: 293a a8bd 5b11 09be 5980 343e db38 adbc
00000150: 59bd 9d3c 5b68 dfba 7610 ea3d 1726 ff3d
00000160: d5c4 29be e3dd 11be 46ae 333c 3a5c c73d
00000170: e1ec c8bc 7b31 31bd d5cf d9bd 5307 1bbd
00000180: 011e b7bd 161e 8cbd 4075 7fbd d8f2 24be
00000190: e60b 89bd ec6d b03c 2dc9 00bd d978 f73d
000001a0: 56f9 bd3d 69b7 52bd ec58 24bd 42cb 7e3c
000001b0: c132 a8bd 66dc 84bc ba0d 21bd 7892 af3d
000001c0: f461 dabc 72cc a53d 329f 2f3d 2cd9 a53d
000001d0: b56b 61bd 6607 0d3d cf98 033e 21cb afbd
000001e0: a4d6 bc3b 5a73 9b3d 4ab1 893d 334b 5bbe
000001f0: 7b64 3a3d 6bd7 9b3d 4ff5 a03d 3f56 ee3d
00000200: 38d8 84bd a617 4abd 78a1 4c3c ed21 b63b
00000210: f8f8 00be bfeb 283e e295 95bd 1eb2 883d
00000220: 7cfc 3d3e 1e26 b13b 4010 fcbd 13ab 803d
00000230: d785 2a3d 7cbb 6fbd 6210 6d3d c1f9 0c3d
00000240: 31aa aa3d c35c e93d e55a d13d ca5e d1bd
00000250: fb9d 14be ae3e e33d 9866 ef3d 155d a23d
00000260: 7287 2ebb 541a e5bd fa2b a0bd 42d9 0e3d
00000270: b556 52be 1c63 c43d 0e04 be3d d7fb f3ba
00000280: 155f 69bd 35dd 84bc 42fb 9a3b dbfa 5cbc
00000290: 30fb 143d 0bb1 293d bf5f bd3d fabb 0cbd
000002a0: 83a9 b73c faa8 55bd 65b5 3dbe c07a eebd
000002b0: 7040 f43c 5450 ff3b 7114 9b3d bae3 6e3d
000002c0: f677 d93d 4684 1cbd 74ae 17bd 283a e13d
000002d0: c1a5 333d dd54 06bd 4e6b c8bd 2df1 21be
000002e0: 7caa a33d 2c61 283d c7e0 e43c f83d 16bd
000002f0: 27f5 273c 83cf 24be 23ab 25be a493 73bd
00000300: 419b ecbd dd71 9cbd da40 adbd 80bb a73d
00000310: ed3d 2dbe 9dcd 8d3d 2aee 15be 8b0a 3f3d
00000320: 17f5 033e 5261 91bc 0fe4 123e 9682 cc3d
00000330: a051 503d f73b 753c 43cc 793c 1789 ef3c
00000340: 2674 a0bd 8cba 3fbd cb8d 153d aa5c 6fbd
00000350: 815f eabd 238b 2c3e 459c 90bd 6dca 1cbd
00000360: d7ec c73d 0922 d33d ebb4 01be 509c 813d
00000370: 52bd f93d 3aef ea3d 95c4 253d 0940 d43d
00000380: 11af 893d d5c9 dfbd f3c8 4bbd 1dd4 153b
00000390: 67d8 80bc c156 26be 8805 b9bc 1f45 0dbd
000003a0: 764e 20be da53 663d 49e2 2a3e ae7a 483b
000003b0: 2c8a a13d 3185 293c bd04 1f3d 001c 0c3e
000003c0: e3f8 fbbd f53e 293d a396 d63d cde4 e13d
000003d0: 50ad a63c 564f 28be ec98 a0bd f78a 693d
000003e0: 7af6 213e bcee 51bd 2d04 253d 662e 1cbb
000003f0: 82b2 95bd e8f9 90bc 5166 2b3d 0408 66bc
