Unity - Crypto Ball/results/ppo/My Behavior/My Behavior-6185.pt (torch, 149199 bytes, 12 tensors)

network_body.linear_encoder.seq_layers.0.weight f4 [128, 6]
-0.4280792 0.22318041 -0.4994563 -0.6399029 -0.39368597 -0.7393916 -0.20220542 0.19502468
-0.45972544 -0.46267882 -0.20621294 0.4436404 -0.26130846 -0.15807949 -0.0873082 -0.016351024
-0.7666188 0.8504569 -0.40471283 -0.7317007 -0.24940911 0.7178343 0.2996384 0.10876206
0.22112833 -0.05600556 0.25299013 -0.72317404 -0.64380324 0.15720764 -0.19421324 1.149183
0.0715926 0.18240087 0.31422102 -0.35717648 0.13262495 0.019666525 0.35450694 -0.34119028
-0.4633872 -0.15758367 -0.25568166 -0.02786274 0.3129797 -0.27524742 0.297051 0.16724862
0.7699365 -0.18643638 0.312618 -0.1770606 0.24750039 -0.0974108 -0.16873288 -0.43519798
0.37529084 0.08432294 -0.24394321 0.9896475 -0.12960169 -0.45620364 -0.22437026 0.8337653
-0.9831928 -0.20082094 -0.32988906 -0.08752044 -0.58061445 -0.30806643 -0.503551 0.48305205
-0.9580234 -0.0135521265 0.30476066 0.13439125 0.29154718 -0.030623848 -0.094202414 0.28118104
0.6261772 0.14650416 -0.03673703 -0.12338935 -0.32648125 -0.64211094 -0.15156095 0.100078985
0.18518099 0.19004779 -0.2528362 0.15146858 -0.9326628 0.3032842 -0.31361577 0.05072501
0.22278976 -0.6792092 -0.57391256 -0.0021612847 0.2841665 0.326191 0.1894349 0.21176986
-0.41400123 0.27428317 -0.08106397 -0.59796005 -0.37335905 0.62971365 0.0877345 -0.36519387
0.083319806 -0.35284644 0.2855011 -0.36858833 -0.466191 0.28239116 0.29411465 0.07922469
0.2943855 -0.36417925 -0.21036316 0.15825249 0.2497086 -0.15353408 -0.09261991 -0.09620908
0.4226096 0.9912994 -0.37112224 -0.23972698 0.11309947 -0.07151612 0.46933547 -0.4596704
0.12867214 -0.084406696 -0.5243037 0.17179036 -0.024384825 -0.17219509 -0.71395135 0.07405272
0.26636112 0.14442766 0.21270247 0.5221001 -0.17302403 -0.04175189 -0.14326327 0.49633333
-0.58267355 -0.15430501 1.0696251 0.08643839 -0.4445602 -0.37601376 -0.34916407 -0.5979539
0.1974875 -0.49209982 0.25638893 -0.20798281 -0.2544124 0.13115415 0.5665427 -0.25030217
0.034101725 0.05638432 0.29459497 -0.034978103 0.32200772 0.7463026 -0.67120415 -0.108657815
-0.18238825 0.0831455 0.034130592 0.620028 0.7147337 -0.4294571 0.23518357 -0.3029782
0.33742416 -0.059458535 0.098716125 0.072452486 -1.1700764 -0.47038472 -0.36117694 0.21915226
-0.2873547 0.054495044 0.50177675 0.044671282 0.84591705 -1.2754756 0.04415483 0.63929915
0.075856894 -0.15509535 0.8919185 -0.20567203 -0.14487019 -0.6406801 -0.7512302 -0.2775978
0.8651941 -0.19957283 -0.11829406 -0.3022196 0.3897274 -0.6848343 -0.3318749 0.59998906
-0.6811729 0.4838464 -0.28352678 -0.2686246 -0.119747296 0.288708 0.11127444 -0.37538275
-0.28788695 -0.07568036 -0.16781652 -0.42518762 -0.30857036 0.11674654 0.8625464 0.56851393
0.14025196 0.18943976 -0.15488128 0.076555625 -0.5068028 0.2958621 -0.13922863 0.72911084
-0.014860561 -0.6959886 -0.18256107 0.061479937 0.12697059 -0.08010213 0.09747421 -0.5019522
-0.33693233 -0.47907177 0.3631389 -0.11965776 0.7003854 -0.6019288 -0.4012713 0.3573816
00000000: 322d dbbe 6889 643e bcb8 ffbe add0 23bf
00000010: 3591 c9be c548 3dbf f00e 4fbe 8db4 473e
00000020: 2261 ebbe 3de4 ecbe 7c29 53be d624 e33e
00000030: 39ca 85be 97df 21be a4ce b2bd 95f2 85bc
00000040: 2141 44bf 8bb7 593f 8536 cfbe bd50 3bbf
00000050: 1a65 7fbe fdc3 373f 346a 993e a5be de3d
00000060: 776f 623e 1666 65bd ec87 813e ef21 39bf
00000070: 4ad0 24bf 0afb 203e d6df 46be 6e18 933f
00000080: 249f 923d 4bc7 3a3e 94e1 a03e d6df b6be
00000090: d6ce 073e b11b a13c ef81 b53e 7eb0 aebe
000000a0: 1641 edbe 9d5d 21be b5e8 82be 6740 e4bc
000000b0: e03e a03e 3bed 8cbe 1217 983e 3943 2b3e
000000c0: 8f1a 453f 2ee9 3ebe 770f a03e 604f 35be
000000d0: be70 7d3e 507f c7bd 50c8 2cbe 45d2 debe
000000e0: 1f26 c03e 81b1 ac3d 40cc 79be 8a59 7d3f
000000f0: 4eb6 04be 8693 e9be 51c1 65be a571 553f
00000100: 86b2 7bbf 01a4 4dbe 38e7 a8be eb3d b3bd
00000110: 26a3 14bf e2ba 9dbe b8e8 00bf 9952 f73e
00000120: 0641 75bf bd09 5ebc 9709 9c3e dc9d 093e
00000130: ac45 953e ddde fabc 32ed c0bd f6f6 8f3e
00000140: 264d 203f 3005 163e 9179 16bd 8eb3 fcbd
00000150: 8d28 a7be 6261 24bf cb32 1bbe 36f6 cc3d
00000160: 16a0 3d3e e39b 423e bf73 81be 941a 1b3e
00000170: fdc2 6ebf 1148 9b3e 3f92 a0be 07c5 4f3d
00000180: 0023 643e a7e0 2dbf efeb 12bf 57a4 0dbb
00000190: 467e 913e 8202 a73e 39fb 413e 33da 583e
000001a0: f8f7 d3be d86e 8c3e de04 a6bd e913 19bf
000001b0: eb28 bfbe ea34 213f 25ae b33d b1fa babe
000001c0: 93a3 aa3d 4aa8 b4be 332d 923e 9cb7 bcbe
000001d0: 96b0 eebe 9395 903e 3296 963e 8e40 a23d
000001e0: b2b9 963e b475 babe 7169 57be f10c 223e
000001f0: 9cb3 7f3e 0a38 1dbe 82af bdbd 4409 c5bd
00000200: 4960 d83e ccc5 7d3f bc03 bebe fd7a 75be
00000210: b2a0 e73d 0b77 92bd bd4c f03e eb59 ebbe
00000220: a1c2 033e 6bdd acbd c438 06bf d0e9 2f3e
00000230: afc2 c7bc e953 30be 84c5 36bf f4a8 973d
00000240: 7c60 883e d8e4 133e adce 593e 5aa8 053f
00000250: 362d 31be 0804 2bbd 9bb3 12be 671f fe3e
00000260: 182a 15bf 2202 1ebe 7ae9 883f 9c06 b13d
00000270: 659d e3be e084 c0be a2c5 b2be 8213 19bf
00000280: 2a3a 4a3e 82f4 fbbe 6945 833e 72f9 54be
00000290: 5842 82be 464d 063e f108 113f 9b27 80be
000002a0: 40ae 0b3d 3ff3 663d 27d5 963e 3345 0fbd
000002b0: 32de a43e b00d 3f3f 09d4 2bbf fd87 debd
000002c0: fcc3 3abe 3048 aa3d 85cc 0b3d 28ba 1e3f
000002d0: caf8 363f cde1 dbbe f6d3 703e f51f 9bbe
000002e0: dcc2 ac3e cb8a 73bd ae2b ca3d f861 943d
000002f0: 10c5 95bf 44d6 f0be 2fec b8be 7369 603e
00000300: 2820 93be 3236 5f3d 7174 003f 3cf9 363d
00000310: 058e 583f c942 a3bf b2db 343d 1ca9 233f
00000320: dc5a 9b3d 51d1 1ebe c554 643f b09b 52be
00000330: da58 14be 9c03 24bf 9f50 40bf 4d21 8ebe
00000340: 5c7d 5d3f d25c 4cbe 2844 f2bd 87bc 9abe
00000350: 5a8a c73e 4d51 2fbf 82eb a9be e298 193f
00000360: 5961 2ebf b7ba f73e 6c2a 91be 2a89 89be
00000370: 123e f5bd 89d1 933e dbe3 e33d 2b32 c0be
00000380: eb65 93be 4efe 9abd 18d8 2bbe 31b2 d9be
00000390: effc 9dbe cf18 ef3d d7cf 5c3f 218a 113f
000003a0: 369e 0f3e 7ffc 413e 3399 1ebe 32c9 9c3d
000003b0: d4bd 01bf 3d7b 973e f391 0ebe 02a7 3a3f
000003c0: b679 73bc 4f2c 32bf 4af1 3abe 63d2 7b3d
000003d0: 9404 023e 960c a4bd 8fa0 c73d f07f 00bf
000003e0: 6582 acbe e548 f5be 58ed b93e 210f f5bd
000003f0: 754c 333f 0118 1abf 6f73 cdbe b9fa b63e

network_body.linear_encoder.seq_layers.0.bias f4 [128]
0.0 0.0 0.0 0.0 0.0 0.0 0.0 0.0
0.0 0.0 0.0 0.0 0.0 0.0 0.0 0.0
0.0 0.0 0.0 0.0 0.0 0.0 0.0 0.0
0.0 0.0 0.0 0.0 0.0 0.0 0.0 0.0
0.0 0.0 0.0 0.0 0.0 0.0 0.0 0.0
0.0 0.0 0.0 0.0 0.0 0.0 0.0 0.0
0.0 0.0 0.0 0.0 0.0 0.0 0.0 0.0
0.0 0.0 0.0 0.0 0.0 0.0 0.0 0.0
0.0 0.0 0.0 0.0 0.0 0.0 0.0 0.0
0.0 0.0 0.0 0.0 0.0 0.0 0.0 0.0
0.0 0.0 0.0 0.0 0.0 0.0 0.0 0.0
0.0 0.0 0.0 0.0 0.0 0.0 0.0 0.0
0.0 0.0 0.0 0.0 0.0 0.0 0.0 0.0
0.0 0.0 0.0 0.0 0.0 0.0 0.0 0.0
0.0 0.0 0.0 0.0 0.0 0.0 0.0 0.0
0.0 0.0 0.0 0.0 0.0 0.0 0.0 0.0
00000000: 0000 0000 0000 0000 0000 0000 0000 0000
00000010: 0000 0000 0000 0000 0000 0000 0000 0000
00000020: 0000 0000 0000 0000 0000 0000 0000 0000
00000030: 0000 0000 0000 0000 0000 0000 0000 0000
00000040: 0000 0000 0000 0000 0000 0000 0000 0000
00000050: 0000 0000 0000 0000 0000 0000 0000 0000
00000060: 0000 0000 0000 0000 0000 0000 0000 0000
00000070: 0000 0000 0000 0000 0000 0000 0000 0000
00000080: 0000 0000 0000 0000 0000 0000 0000 0000
00000090: 0000 0000 0000 0000 0000 0000 0000 0000
000000a0: 0000 0000 0000 0000 0000 0000 0000 0000
000000b0: 0000 0000 0000 0000 0000 0000 0000 0000
000000c0: 0000 0000 0000 0000 0000 0000 0000 0000
000000d0: 0000 0000 0000 0000 0000 0000 0000 0000
000000e0: 0000 0000 0000 0000 0000 0000 0000 0000
000000f0: 0000 0000 0000 0000 0000 0000 0000 0000
00000100: 0000 0000 0000 0000 0000 0000 0000 0000
00000110: 0000 0000 0000 0000 0000 0000 0000 0000
00000120: 0000 0000 0000 0000 0000 0000 0000 0000
00000130: 0000 0000 0000 0000 0000 0000 0000 0000
00000140: 0000 0000 0000 0000 0000 0000 0000 0000
00000150: 0000 0000 0000 0000 0000 0000 0000 0000
00000160: 0000 0000 0000 0000 0000 0000 0000 0000
00000170: 0000 0000 0000 0000 0000 0000 0000 0000
00000180: 0000 0000 0000 0000 0000 0000 0000 0000
00000190: 0000 0000 0000 0000 0000 0000 0000 0000
000001a0: 0000 0000 0000 0000 0000 0000 0000 0000
000001b0: 0000 0000 0000 0000 0000 0000 0000 0000
000001c0: 0000 0000 0000 0000 0000 0000 0000 0000
000001d0: 0000 0000 0000 0000 0000 0000 0000 0000
000001e0: 0000 0000 0000 0000 0000 0000 0000 0000
000001f0: 0000 0000 0000 0000 0000 0000 0000 0000

network_body.linear_encoder.seq_layers.2.weight f4 [128, 128]
0.010543232 -0.14567758 0.09567752 -0.116674244 0.101947986 0.0056499424 0.09934359 -0.00026603625
0.07478773 -0.042026468 -0.03373347 0.0693836 -0.044245545 -0.090984225 -0.104674496 -0.0552009
-0.051748786 0.19586676 0.08347078 0.057565007 -0.0554339 0.18465924 -0.042122893 0.03875453
0.12713248 0.06722824 0.0348273 0.071334176 -0.07558937 0.041169107 0.078394204 9.307746e-05
0.0132107055 0.15613842 -0.059983972 0.041184455 0.11450477 0.05371295 -0.06719807 -0.049933247
-0.071005724 -0.23447566 -0.06230434 -0.19616205 -0.042560175 -0.026407806 -0.089615725 0.090340346
-0.09475036 -0.05422606 -0.020756597 -0.009786414 0.0071801655 0.06159823 0.06532724 -0.016355664
0.1688055 -0.104443 0.081561916 -0.086107574 -0.05326344 0.1486817 0.045933865 0.06978392
0.0045073875 0.0006394802 0.086468674 0.013606178 -0.12512903 -0.09014963 0.0057261963 -0.09656644
0.042769298 0.01935579 0.15600298 -0.006679867 0.23982994 0.030453539 -0.055070177 0.036162537
0.043327976 -0.09130946 0.02444818 -0.10842107 -0.13307731 -0.035832975 -0.017546834 -0.06955154
-0.14888403 -0.05046427 -0.057054434 0.050215002 0.074581295 0.0150730405 0.09798672 0.034920253
0.0011653391 -0.0573169 -0.0072203376 0.015525295 -0.024817323 0.006814876 -0.093654424 0.036791105
-0.048618585 -0.057277136 -0.032350615 0.039053883 -0.13307492 0.03914083 -0.028377278 -0.013691368
0.079412244 0.0059925388 0.060668092 -0.018178899 0.07713055 0.026656507 -0.20608829 -0.06702181
-0.045026287 -0.09171948 0.035005316 0.087683775 -0.12504418 0.11509951 -0.00014025012 0.19729595
-0.024504777 0.060788967 0.08990315 -0.0062224283 0.0782138 -0.025167834 0.022830695 -0.054411624
0.0961128 0.19489126 -0.022296874 -0.07311766 -0.07218518 -0.07138718 0.034407325 0.06945452
-0.114146516 0.029499928 0.017650923 0.0659952 -0.16768764 0.036093537 0.08209767 0.0511718
0.011497805 0.083270445 0.0074774157 0.057842344 0.07378919 0.119758844 -0.06845386 0.089103356
-0.11866115 -0.09992898 0.027851116 -0.124963835 0.034533612 -0.071850285 0.036995538 0.04348724
-0.16583078 -0.06289584 -0.08280978 -0.11552159 0.08431598 -0.07646829 -0.02116667 -0.21382089
0.12626243 0.103339665 -0.1317442 0.029583553 0.024376042 0.004990999 0.09458001 -0.023700092
-0.03940983 -0.06937707 0.043614343 -0.0003393989 0.036316365 0.0017750243 -0.29418328 -0.0036008533
0.10999476 0.025569344 -0.04670176 0.07240032 -0.1404744 -0.15807453 -0.040548723 -0.10781248
0.096491165 -0.1895376 -0.04761281 -0.087242365 0.006155613 0.14172465 -0.121147394 0.05464811
-0.026370635 -0.008977287 0.04042666 0.053915743 0.10839149 -0.045060497 -0.04704628 -0.0049349815
0.003955357 -0.12584892 -0.033345226 0.018701246 -0.008018983 0.13981862 0.027569054 0.13161463
0.09575772 -0.049233057 0.1113113 0.004759139 0.026983036 -0.118387915 -0.099762514 -0.09424561
-0.012000153 0.19320402 -0.033882998 0.058598064 0.0032942723 0.054149818 -0.05835005 -0.051312163
-0.06577997 0.027092092 -0.08546378 0.11207732 0.06907166 -0.028311146 -0.09621087 -0.10013192
0.042859763 0.020902866 -0.15634434 0.04360412 -0.049313188 -0.049604796 -0.018172441 0.13795164
00000000: 85bd 2c3c 812c 15be 93f2 c33d e8f2 eebd
00000010: 1bca d03d 2723 b93b a774 cb3d c87a 8bb9
00000020: 4f2a 993d f223 2cbd 1b2c 0abd fd18 8e3d
00000030: d13a 35bd f055 babd 955f d6bd 571a 62bd
00000040: 89f6 53bd 4c91 483e baf2 aa3d 49c9 6b3d
00000050: a80e 63bd 5017 3d3e 0e89 2cbd 12bd 1e3d
00000060: 042f 023e f6ae 893d 12a7 0e3d a717 923d
00000070: 9ace 9abd f0a0 283d 248d a03d 9532 c338
00000080: b771 583c c0e2 1f3e c1b1 75bd 08b1 283d
00000090: 7a81 ea3d 1c02 5c3d 249f 89bd ce86 4cbd
000000a0: 736b 91bd 631a 70be d632 7fbd b4de 48be
000000b0: 9453 2ebd 2f55 d8bc 7388 b7bd 5c04 b93d
000000c0: 7a0c c2bd 251c 5ebd bd09 aabc 3257 20bc
000000d0: 9847 eb3b 6d4e 7c3d 4aca 853d 50fc 85bc
000000e0: 59db 2c3e 36e6 d5bd ef09 a73d 2b59 b0bd
000000f0: c42a 5abd 0440 183e 2625 3c3d dfea 8e3d
00000100: b5b2 933b caa2 273a 7d16 b13d 72ec 5e3c
00000110: d321 00be 5fa0 b8bd d1a2 bb3b a0c4 c5bd
00000120: dc2e 2f3d 0990 9e3c 3fbf 1f3e c9e2 dabb
00000130: fb95 753e b379 f93c 4491 61bd 2b1f 143d
00000140: ad78 313d 7400 bbbd 8d47 c83c de0b debd
00000150: 6b45 08be 99c5 12bd 61be 8fbc 0a71 8ebd
00000160: 0e75 18be 9fb3 4ebd e9b1 69bd 3fae 4d3d
00000170: 14be 983d eaf4 763c 43ad c83d 8a08 0f3d
00000180: 4bbe 983a 20c5 6abd 9598 ecbb cf5d 7e3c
00000190: b34d cbbc 534f df3b e4cd bfbd 45b2 163d
000001a0: 4824 47bd 6e9b 6abd 1482 04bd f7f6 1f3d
000001b0: cb44 08be 2352 203d 7777 e8bc c251 60bc
000001c0: e3a2 a23d 0f5d c43b 1b7f 783d eaeb 94bc
000001d0: 9ff6 9d3d bf5e da3c cf08 53be bb42 89bd
000001e0: 7c6d 38bd 6cd7 bbbd bc61 0f3d 8d93 b33d
000001f0: 950b 00be 4bb9 eb3d 1b10 13b9 f307 4a3e
00000200: 3ebe c8bc dafd 783d 251f b83d 83e5 cbbb
00000210: 8f2e a03d c62c cebc 7007 bb3c b9de 5ebd
00000220: cad6 c43d 9391 473e efa7 b6bc b6be 95bd
00000230: d3d5 93bd 7133 92bd b2ee 0c3d 2c3e 8e3d
00000240: a6c5 e9bd d5a9 f13c ab98 903c 7e28 873d
00000250: 4fb6 2bbe d1d6 133d d322 a83d 8599 513d
00000260: 4a61 3c3c b289 aa3d 1c05 f53b 18ec 6c3d
00000270: c91e 973d 2044 f53d 8a31 8cbd d27b b63d
00000280: 9e04 f3bd 91a7 ccbd 0628 e43c 0aed ffbd
00000290: 1e73 0d3d 3e26 93bd a288 173d ad1f 323d
000002a0: 8bcf 29be 89cf 80bd 2d98 a9bd 9596 ecbd
000002b0: dbad ac3d 689b 9cbd b965 adbc ddf3 5abe
000002c0: f04a 013e bfa3 d33d f4e7 06be 3559 f23c
000002d0: 44b0 c73c 898b a33b 2ab3 c13d b226 c2bc
000002e0: 346c 21bd 9115 8ebd f4a4 323d 59f1 b1b9
000002f0: 78c0 143d efa7 e83a 319f 96be 4bfc 6bbb
00000300: ef44 e13d cd76 d13c 584a 3fbd 9e46 943d
00000310: 85d8 0fbe 4ade 21be 6b16 26bd cacc dcbd
00000320: 299d c53d 2516 42be a605 43bd 20ac b2bd
00000330: 06b5 c93b 4420 113e 201c f8bd b2d6 5f3d
00000340: 3b07 d8bc 7915 13bc 6d96 253d c1d6 5c3d
00000350: 5cfc dd3d 5b91 38bd 9ab3 40bd a0b5 a1bb
00000360: f09b 813b 8ade 00be 0195 08bd 5b33 993c
00000370: 0d62 03bc 9d2c 0f3e 7fd8 e13c fcc5 063e
00000380: a01c c43d 9aa8 49bd 2ef7 e33d 8df2 9b3b
00000390: 870b dd3c 5d75 f2bd 4a50 ccbd d803 c1bd
000003a0: 4a9c 44bc 46d7 453e e6c8 0abd 8604 703d
000003b0: b8e4 573b 33cc 5d3d 7600 6fbd b42c 52bd
000003c0: a6b7 86bd 3cf0 dd3c a207 afbd cb88 e53d
000003d0: 7175 8d3d c7ec e7bc 340a c5bd f711 cdbd
000003e0: b88d 2f3d 7d3c ab3c bb18 20be 3c9a 323d
000003f0: a0fc 49bd 662e 4bbd 5fde 94bc 3243 0d3e

network_body.linear_encoder.seq_layers.2.bias f4 [128]
0.0 0.0 0.0 0.0 0.0 0.0 0.0 0.0
0.0 0.0 0.0 0.0 0.0 0.0 0.0 0.0
0.0 0.0 0.0 0.0 0.0 0.0 0.0 0.0
0.0 0.0 0.0 0.0 0.0 0.0 0.0 0.0
0.0 0.0 0.0 0.0 0.0 0.0 0.0 0.0
0.0 0.0 0.0 0.0 0.0 0.0 0.0 0.0
0.0 0.0 0.0 0.0 0.0 0.0 0.0 0.0
0.0 0.0 0.0 0.0 0.0 0.0 0.0 0.0
0.0 0.0 0.0 0.0 0.0 0.0 0.0 0.0
0.0 0.0 0.0 0.0 0.0 0.0 0.0 0.0
0.0 0.0 0.0 0.0 0.0 0.0 0.0 0.0
0.0 0.0 0.0 0.0 0.0 0.0 0.0 0.0
0.0 0.0 0.0 0.0 0.0 0.0 0.0 0.0
0.0 0.0 0.0 0.0 0.0 0.0 0.0 0.0
0.0 0.0 0.0 0.0 0.0 0.0 0.0 0.0
0.0 0.0 0.0 0.0 0.0 0.0 0.0 0.0
00000000: 0000 0000 0000 0000 0000 0000 0000 0000
00000010: 0000 0000 0000 0000 0000 0000 0000 0000
00000020: 0000 0000 0000 0000 0000 0000 0000 0000
00000030: 0000 0000 0000 0000 0000 0000 0000 0000
00000040: 0000 0000 0000 0000 0000 0000 0000 0000
00000050: 0000 0000 0000 0000 0000 0000 0000 0000
00000060: 0000 0000 0000 0000 0000 0000 0000 0000
00000070: 0000 0000 0000 0000 0000 0000 0000 0000
00000080: 0000 0000 0000 0000 0000 0000 0000 0000
00000090: 0000 0000 0000 0000 0000 0000 0000 0000
000000a0: 0000 0000 0000 0000 0000 0000 0000 0000
000000b0: 0000 0000 0000 0000 0000 0000 0000 0000
000000c0: 0000 0000 0000 0000 0000 0000 0000 0000
000000d0: 0000 0000 0000 0000 0000 0000 0000 0000
000000e0: 0000 0000 0000 0000 0000 0000 0000 0000
000000f0: 0000 0000 0000 0000 0000 0000 0000 0000
00000100: 0000 0000 0000 0000 0000 0000 0000 0000
00000110: 0000 0000 0000 0000 0000 0000 0000 0000
00000120: 0000 0000 0000 0000 0000 0000 0000 0000
00000130: 0000 0000 0000 0000 0000 0000 0000 0000
00000140: 0000 0000 0000 0000 0000 0000 0000 0000
00000150: 0000 0000 0000 0000 0000 0000 0000 0000
00000160: 0000 0000 0000 0000 0000 0000 0000 0000
00000170: 0000 0000 0000 0000 0000 0000 0000 0000
00000180: 0000 0000 0000 0000 0000 0000 0000 0000
00000190: 0000 0000 0000 0000 0000 0000 0000 0000
000001a0: 0000 0000 0000 0000 0000 0000 0000 0000
000001b0: 0000 0000 0000 0000 0000 0000 0000 0000
000001c0: 0000 0000 0000 0000 0000 0000 0000 0000
000001d0: 0000 0000 0000 0000 0000 0000 0000 0000
000001e0: 0000 0000 0000 0000 0000 0000 0000 0000
000001f0: 0000 0000 0000 0000 0000 0000 0000 0000

action_model._continuous_distribution.log_sigma f4 [1, 2]
0.0 0.0
00000000: 0000 0000 0000 0000

action_model._continuous_distribution.mu.weight f4 [2, 128]
0.016470019 0.015876224 0.0069585266 -0.007648352 0.009762521 -0.016164571 0.006017968 -0.023776919
-0.034526225 0.010730204 0.02786251 0.032823857 0.013953148 0.006424121 0.010406151 0.010669067
-0.012042908 -6.335321e-05 0.0065934355 0.001300694 0.013688358 0.01368422 -0.016565789 -0.00060518103
-0.022467678 0.0087183 0.001559394 -0.005568333 -0.018286174 -0.013592902 0.019080864 -0.010088722
0.0062813135 0.009641137 -0.030048473 0.016379146 0.0063614496 0.004454266 -0.028567111 0.0006911046
-0.013020652 -0.012259147 -0.011604893 0.0049966536 -0.036199298 0.0033153482 0.012232057 0.0025710925
0.011179239 -0.0055241776 0.02431863 0.020015132 -0.0006451746 -0.021966118 -0.01956082 -0.0038157403
0.017380156 -0.014631815 -0.036555044 -0.0039024774 -0.012605011 0.025098372 0.011715792 0.010927811
0.024829386 -0.010392547 -0.01108685 0.015549566 0.029262504 0.0030751077 -0.0033290938 -0.020068597
-0.027698739 0.011334497 -0.00865177 -0.025338352 0.0067142285 -0.02457024 -0.025837883 0.0059758914
-0.012724782 0.01794007 0.0137362555 -0.0008205602 0.01907791 -0.0143776005 -0.013968574 -0.015308052
-0.0074408115 -0.012652265 -0.012028581 0.009817786 -0.034491744 -0.02147881 -0.0075546475 -0.00071484427
0.02520558 0.019342514 0.013583602 -0.005181064 0.003249552 -0.016747562 0.014567383 -0.0025309382
-0.012032379 0.015680445 -0.0019896005 0.018842276 -0.0017599469 0.024398383 0.0014969904 -0.0113415085
0.011625408 0.00024728093 0.012580439 -0.0058127134 -0.008765781 -0.023763692 -0.00617235 0.0021163216
0.012804133 0.0026742418 -0.024830211 0.022648271 0.010671166 0.0036396272 -0.0007112115 0.008986459
-0.009543831 0.00463462 0.012884823 -0.016240653 -0.02083539 -0.0019409733 0.02271027 0.0062923804
-0.004917746 -0.010378665 -0.0064089396 0.016263777 -0.057058554 -0.013001892 -0.0050363136 -0.009062304
0.0056264163 0.018801795 0.010503328 0.0050694416 -0.008839804 0.027816752 0.0014565175 0.027914656
-0.0038649477 0.02962558 -0.022195932 -0.01769677 -0.019575277 0.020056898 0.0058246194 -0.005355758
0.0011837686 -0.012249487 -0.003955551 -0.015942609 0.0257569 0.027675001 -0.0004573201 0.0068618455
0.017059479 0.0048912535 -0.00035355857 0.0008236232 -0.022503737 0.0077325883 -0.002417137 0.03778765
-0.039208632 0.00039231297 0.014972271 0.050240804 0.001923538 -0.012552204 0.0092330715 -0.0038928494
-0.0021792396 0.002163437 -0.015224899 0.013637411 -0.017412296 -0.011395896 0.0011732125 -0.02954709
0.0103310365 0.008853085 0.033188477 -0.0029277203 0.013273505 0.0019153914 0.032668676 0.00082896044
-0.0010427836 0.020918807 0.003457775 0.0044777174 -0.033752646 -0.01255462 0.00081170344 -0.0168089
0.0027497192 0.019983195 0.032273058 -0.036494426 -0.0147176655 -0.020325914 -0.0011102707 -0.028594984
-0.010592486 0.013112396 -0.02493626 -0.032554433 0.006483447 -0.021020375 -0.030472634 0.004229315
-0.0024597954 -0.01896967 -0.004534755 -0.016113305 0.011369898 0.0032581303 -0.009229853 -0.014668441
-0.007185757 -0.008109177 0.02785267 -0.02258044 -0.023384219 0.0011861048 -0.0028407162 -0.0041212337
0.019122565 0.011503632 -0.026256079 0.019967098 0.0030139352 -0.0011786707 0.011221001 -0.01576075
-0.04091838 -0.020607812 0.0350272 0.0148238335 0.029720074 0.04648786 -0.0043677962 0.029747827
00000000: 22ec 863c db0e 823c 5a04 e43b 079f fabb
00000010: fbf2 1f3c 906b 84bc 6032 c53b d0c7 c2bc
00000020: 5f6b 0dbd bdcd 2f3c eb3f e43c 4f72 063d
00000030: bf9b 643c 6f81 d23b 907e 2a3c 4fcd 2e3c
00000040: 9e4f 45bc 7fdc 84b8 bf0d d83b 0c7c aa3a
00000050: 2245 603c c733 603c fab4 87bc 03a5 1eba
00000060: 230e b8bc 33d7 0e3c 9464 cc3a 9076 b6bb
00000070: e3cc 95bc c3b4 5ebc 794f 9c3c 2b4b 25bc
00000080: 7ad3 cd3b dcf5 1d3c 3728 f6bc 8f2d 863c
00000090: b573 d03b 17f5 913b 9305 eabc 3f2b 353a
000000a0: 9354 55bc 97da 48bc 7322 3ebc f8ba a33b
000000b0: b745 14bd 5046 593b f768 483c c67f 283b
000000c0: 2029 373c 2904 b5bb dd37 c73c c6f6 a33c
000000d0: ef20 29ba 4af2 b3bc 033e a0bc 8011 7abb
000000e0: d460 8e3c 48ba 6fbc beba 15bd b5c0 7fbb
000000f0: 4085 4ebc 1a9b cd3c 98f3 3f3c 900a 333c
00000100: ff66 cb3c 8045 2abc 9fa5 35bc 9bc3 7e3c
00000110: ebb7 ef3c bf87 493b ed2c 5abb e666 a4bc
00000120: 77e8 e2bc 53b4 393c 27c0 0dbc 6092 cfbc
00000130: 0803 dc3b 8747 c9bc f8a9 d3bc 69d1 c33b
00000140: 9b7b 50bc 0ef7 923c 080e 613c dd1a 57ba
00000150: 4749 9c3c 0790 6bbc 72dc 64bc a0ce 7abc
00000160: 0dd2 f3bb 724b 4fbc 8713 45bc c7da 203c
00000170: 3747 0dbd 54f4 afbc fa8c f7bb 6364 3bba
00000180: ef7b ce3c 3174 9e3c c28d 5e3c eac5 a9bb
00000190: 70f6 543b 2f32 89bc 08ac 6e3c 19de 25bb
000001a0: 7523 45bc 4774 803c f563 02bb 1e5b 9a3c
000001b0: 05ae e6ba 1edf c73c aa36 c43a bcd1 39bc
000001c0: 7f78 3e3c 7ca5 8139 301e 4e3c 9378 bebb
000001d0: 5a9e 0fbc 13ac c2bc 6d41 cabb fcb1 0a3b
000001e0: 6dc8 513c 5542 2f3b ba68 cbbc de88 b93c
000001f0: 1dd6 2e3c d086 6e3b 9970 3aba f13b 133c
00000200: bb5d 1cbc 03de 973b dd1a 533c 1e0b 85bc
00000210: fbae aabc 4268 feba e30a ba3c 5030 ce3b
00000220: 0b25 a1bb 470b 2abc 1502 d2bb 9d3b 853c
00000230: 3bb6 69bd e305 55bc a907 a5bb 0f7a 14bc
00000240: cd5d b83b 3906 9a3c 2716 2c3c 8f1d a63b
00000250: d3d4 10bc f5df e33c 9ee8 be3a 47ad e43c
00000260: 104b 7dbb 58b1 f23c 3ed4 b5bc d1f8 90bc
00000270: 555c a0bc 5d4e a43c 73dc be3b 5b7f afbb
00000280: af28 9b3a 13b2 48bc 919d 81bb 139a 82bc
00000290: 2200 d33c afb6 e23c 77c4 efb9 55d9 e03b
000002a0: 52c0 8b3c cf46 a03b d45d b9b9 6be8 573a
000002b0: c259 b8bc a761 fd3b d468 1ebb 39c7 1a3d
000002c0: 3b99 20bd 5baf cd39 424e 753c 4dc9 4d3d
000002d0: 3a1f fc3a c2a7 4dbc 4f46 173c 2d1f 7fbb
000002e0: 93d1 0ebb 73c8 0d3b db71 79bc 736f 5f3c
000002f0: 3ba4 8ebc dab5 3abc 7bc6 993a bd0c f2bc
00000300: 8243 293c 880c 113c a4f0 073d ffde 3fbb
00000310: 1d79 593c df0d fb3a 97cf 053d 984e 593a
00000320: 03ae 88ba eb5d ab3c d79b 623b d1b9 923b
00000330: 3740 0abd e5b1 4dbc 7fc8 543a d1b2 89bc
00000340: a234 343b ccb3 a33c c130 043d 2e7b 15bd
00000350: 5d22 71bc 8882 a6bc 8186 91ba 0740 eabc
00000360: 1b8c 2dbc 60d5 563c 2147 ccbc cc57 05bd
00000370: 1873 d43b ec32 acbc bfa1 f9bc 1196 8a3b
00000380: 8534 21bb 4866 9bbc 4898 94bb 0d00 84bc
00000390: cf48 3a3c 5b86 553b cf38 17bc e753 70bc
000003a0: 8076 ebbb 5bdc 04bc 482b e43c 9dfa b8bc
000003b0: 4390 bfbc 1377 9b3a 4f2b 3abb 6a0b 87bb
000003c0: eda6 9c3c bb79 3c3c fd16 d7bc 0a92 a33c
000003d0: 7185 453b a07d 9aba 4ad8 373c b01c 81bc
000003e0: 089a 27bd b7d1 a8bc ae78 0f3d aadf 723c
000003f0: 8377 f33c 0e6a 3e3d bb1f 8fbb b7b1 f33c

action_model._continuous_distribution.mu.bias f4 [2]
0.0 0.0
00000000: 0000 0000 0000 0000

critic.network_body.linear_encoder.seq_layers.0.weight f4 [128, 6]
-0.13296647 -0.50137824 -0.4394725 0.34664848 0.4221899 -0.4135915 -0.16076307 -0.45005548
-0.08322294 -0.7788195 0.04795618 -0.29415658 1.0742822 -0.9138553 0.023434047 0.16472076
-0.070056856 0.23673703 0.59140974 0.20833905 -0.06005206 0.292247 -0.54384166 0.58085513
0.22314857 -0.118083626 0.22441442 0.7468342 0.15894997 -0.23716998 0.22039995 0.6029251
-0.020924613 -0.053032834 -0.17180319 -0.5857606 0.39057893 0.33534417 -0.8808304 0.41269925
-0.2813812 0.36977676 0.45484832 -0.26711908 -0.39136165 -0.38983855 -0.16112812 -0.3997637
-0.1745541 -0.76138675 -0.23512302 -0.068542786 0.6215806 0.2664413 0.58571315 0.09630917
0.08406955 -0.69760513 0.5965994 0.25215328 0.3087067 -0.14561455 -0.6111789 -0.43654752
0.19610107 -0.005185921 -0.4090406 0.015233527 -0.2555994 0.04966427 0.537708 0.061544288
0.46436748 0.28971568 0.17245789 -0.66175026 -0.64274955 -0.45158044 -0.12494363 -0.10563343
0.029866653 0.43858463 0.34854674 -0.20641522 -0.15337741 0.26731974 -0.3996493 -0.08665759
-0.6193179 0.019625388 -0.16117807 0.32477948 -0.48921165 0.4894939 -0.65088344 0.6348295
-0.7046884 -0.31635544 0.51114225 0.26727733 0.7035487 0.04134797 0.09105895 -0.77307564
-0.43313494 -0.029229876 -0.29168832 0.43809342 -0.55614 -0.34065044 0.08983079 -0.42520097
-0.09315935 -0.7903854 0.46648723 0.62047684 -0.3021683 0.1359982 0.1450962 0.16903734
0.49699146 -0.08218642 0.061913457 -0.2970594 -0.28641286 0.67693746 -0.03298967 -0.9602301
-0.03201616 0.011884455 -0.25437307 -0.39754024 0.33412567 -0.046616603 0.060930915 0.4610647
-0.15769173 1.0707418 -0.1838469 0.27541178 0.20296213 -0.25290766 0.40524146 -0.78038836
0.24211752 0.49301657 -0.67908454 -0.18461312 -0.026369425 -0.01875379 -0.58888423 0.3729822
0.6171467 0.11627343 -0.2965714 -0.39025146 -0.35677105 -0.8443507 -0.42813578 0.3944317
-0.08554387 -0.13413368 -0.13168103 0.32148084 -0.22887205 -0.4603013 0.4080301 0.2321343
0.14076318 0.5025927 0.23140648 -0.56828696 0.080966026 0.38239235 0.3263307 -0.09313759
0.872136 -0.41559193 0.38011223 0.6220792 -0.37941286 0.50053555 -1.1228174 0.49899668
0.6178421 0.32656974 -0.4100156 1.247261 0.36817336 -0.15152553 -0.23653084 -0.29766774
0.23696573 -0.45175242 -0.4331458 -0.6658753 0.4341572 -0.30029374 -0.53471214 -0.6208054
0.28799018 -0.15533417 0.20422083 -0.19569351 0.48406592 -0.11267876 0.4197373 -0.29977012
0.068512686 0.09295924 0.45054746 -0.49620962 -0.039741352 -0.008819073 -0.24867514 -0.4725351
-0.081604175 0.33334634 1.624287 -0.6348165 -0.22228962 0.48210207 -0.64148456 -0.19708513
0.025352607 0.20240921 0.034039512 -0.39144856 0.54862505 -0.51509875 -1.0373514 0.39908183
-0.49286002 0.042221658 0.12463905 -0.1342928 -0.4496681 -0.16485123 0.3567879 0.9687288
0.4372902 -0.111543365 -0.51657456 -0.66083086 0.4419904 -0.12380327 0.5435359 -0.08659553
0.66764975 0.52864987 -0.23550692 -0.11220262 -0.2547677 -0.41968763 -0.2581046 0.10702167
00000000: 5d28 08be 535a 00bf 8a02 e1be e97b b13e
00000010: 4629 d83e 44c2 d3be 139f 24be ac6d e6be
00000020: ca70 aabd b760 47bf b36d 443d b19b 96be
00000030: 1482 893f 6cf2 69bf c2f8 bf3c 8fac 283e
00000040: f879 8fbd 316b 723e a166 173f d556 553e
00000050: 26f9 75bd 66a1 953e 3539 0bbf ecb2 143f
00000060: 0f81 643e d4d5 f1bd e5cc 653e 8730 3f3f
00000070: c8c3 223e b0dc 72be 86b0 613e 4d59 1a3f
00000080: 186a abbc f538 59bd 2ded 2fbe 68f4 15bf
00000090: f6f9 c73e 3bb2 ab3e 1a7e 61bf 514d d33e
000000a0: 3211 90be 6153 bd3e e1e1 e83e d5c3 88be
000000b0: 8e60 c8be eb98 c7be c5fe 24be d4ad ccbe
000000c0: 4fbe 32be 3eea 42bf 17c4 70be 2960 8cbd
000000d0: e81f 1f3f fe6a 883e 4cf1 153f be3d c53d
000000e0: a82c ac3d 4096 32bf bdba 183f 3c1a 813e
000000f0: ce0e 9e3e fb1b 15be 3876 1cbf 2883 dfbe
00000100: b8ce 483e a9ee a9bb c56d d1be 0b96 793c
00000110: eddd 82be c36c 4b3d 3ba7 093f dd15 7c3d
00000120: 93c1 ed3e 9d55 943e cd98 303e 7768 29bf
00000130: 3c8b 24bf 8d35 e7be 72e2 ffbd 5756 d8bd
00000140: e9aa f43c 2a8e e03e b874 b23e 835e 53be
00000150: f80e 1dbe 22de 883e d59e ccbe 8979 b1bd
00000160: 9e8b 1ebf 6cc5 a03c dd0b 25be 7f49 a63e
00000170: f379 fabe f29e fa3e 4ca0 26bf 3084 223f
00000180: 7566 34bf 57f9 a1be 38da 023f 93d8 883e
00000190: c51b 343f 7d5c 293d 1d7d ba3d 49e8 45bf
000001a0: ddc3 ddbe 7e73 efbc 2c58 95be c84d e03e
000001b0: 315f 0ebf bc69 aebe 35f9 b73d f1b3 d9be
000001c0: 54ca bebd b356 4abf 6ad7 ee3e 92d7 1e3f
000001d0: ceb5 9abe 1d43 0b3e 1994 143e 2018 2d3e
000001e0: aa75 fe3e 5b51 a8bd f798 7d3d 2b18 98be
000001f0: b5a4 92be c64b 2d3f 2d20 07bd a4d1 75bf
00000200: 6123 03bd 04b7 423c 303d 82be 658a cbbe
00000210: 8512 ab3e 0df1 3ebd b292 793d ac10 ec3e
00000220: f179 21be 110e 893f 5d42 3cbe c602 8d3e
00000230: 4ed5 4f3e 1d7d 81be cf7b cf3e 88c7 47bf
00000240: a8ed 773e ab6c fc3e 7cd8 2dbf 390b 3dbe
00000250: b104 d8bc 8ca1 99bc 1ec1 16bf 86f7 be3e
00000260: 53fd 1d3f c420 ee3d 35d8 97be 0acf c7be
00000270: b2aa b6be 5e27 58bf 9d34 dbbe f4f2 c93e
00000280: a031 afbd 575a 09be 64d7 06be 2399 a43e
00000290: 6f5d 6abe 9dac ebbe 52e9 d03e 9db4 6d3e
000002a0: 3924 103e eaa9 003f d2f5 6c3e 417b 11bf
000002b0: 84d1 a53d eec8 c33e d114 a73e ecbe bebd
000002c0: 4e44 5f3f 77c8 d4be 129e c23e 9540 1f3f
000002d0: 6742 c2be 1923 003f 7bb8 8fbf 7e7c ff3e
000002e0: e62a 1e3f 2634 a73e 91ed d1be 40a6 9f3f
000002f0: 3881 bc3e 8229 1bbe 2435 72be e867 98be
00000300: 25a7 723e 184c e7be 49c5 ddbe ce76 2abf
00000310: da49 de3e 1ac0 99be e5e2 08bf 1aed 1ebf
00000320: 7373 933e ec0f 1fbe 441f 513e e163 48be
00000330: 7dd7 f73e 1fc4 e6bd cfe7 d63e 787b 99be
00000340: 6150 8c3d 6a61 be3d 28ae e63e 300f febe
00000350: d4c7 22bd e07d 10bc b2a4 7ebe 1ff0 f1be
00000360: 1720 a7bd 5fac aa3e a3e8 cf3f 5683 22bf
00000370: e49f 63be 15d6 f63e 5538 24bf afd0 49be
00000380: 45b0 cf3c 5c44 4f3e 046d 0b3d f26b c8be
00000390: b172 0c3f 83dd 03bf eec7 84bf 7454 cc3e
000003a0: 2658 fcbe 9ef0 2c3d c242 ff3d 0d84 09be
000003b0: e63a e6be c3ce 28be e7ac b63e 9cfe 773f
000003c0: 80e4 df3e d970 e4bd 3b3e 04bf 362c 29bf
000003d0: 914c e23e 928c fdbd 2b25 0b3f ff58 b1bd
000003e0: 18eb 2a3f 9955 073f ba28 71be 7dca e5bd
000003f0: e970 82be 4ce1 d6be 4926 84be 2d2e db3d

critic.network_body.linear_encoder.seq_layers.0.bias f4 [128]
0.0 0.0 0.0 0.0 0.0 0.0 0.0 0.0
0.0 0.0 0.0 0.0 0.0 0.0 0.0 0.0
0.0 0.0 0.0 0.0 0.0 0.0 0.0 0.0
0.0 0.0 0.0 0.0 0.0 0.0 0.0 0.0
0.0 0.0 0.0 0.0 0.0 0.0 0.0 0.0
0.0 0.0 0.0 0.0 0.0 0.0 0.0 0.0
0.0 0.0 0.0 0.0 0.0 0.0 0.0 0.0
0.0 0.0 0.0 0.0 0.0 0.0 0.0 0.0
0.0 0.0 0.0 0.0 0.0 0.0 0.0 0.0
0.0 0.0 0.0 0.0 0.0 0.0 0.0 0.0
0.0 0.0 0.0 0.0 0.0 0.0 0.0 0.0
0.0 0.0 0.0 0.0 0.0 0.0 0.0 0.0
0.0 0.0 0.0 0.0 0.0 0.0 0.0 0.0
0.0 0.0 0.0 0.0 0.0 0.0 0.0 0.0
0.0 0.0 0.0 0.0 0.0 0.0 0.0 0.0
0.0 0.0 0.0 0.0 0.0 0.0 0.0 0.0
00000000: 0000 0000 0000 0000 0000 0000 0000 0000
00000010: 0000 0000 0000 0000 0000 0000 0000 0000
00000020: 0000 0000 0000 0000 0000 0000 0000 0000
00000030: 0000 0000 0000 0000 0000 0000 0000 0000
00000040: 0000 0000 0000 0000 0000 0000 0000 0000
00000050: 0000 0000 0000 0000 0000 0000 0000 0000
00000060: 0000 0000 0000 0000 0000 0000 0000 0000
00000070: 0000 0000 0000 0000 0000 0000 0000 0000
00000080: 0000 0000 0000 0000 0000 0000 0000 0000
00000090: 0000 0000 0000 0000 0000 0000 0000 0000
000000a0: 0000 0000 0000 0000 0000 0000 0000 0000
000000b0: 0000 0000 0000 0000 0000 0000 0000 0000
000000c0: 0000 0000 0000 0000 0000 0000 0000 0000
000000d0: 0000 0000 0000 0000 0000 0000 0000 0000
000000e0: 0000 0000 0000 0000 0000 0000 0000 0000
000000f0: 0000 0000 0000 0000 0000 0000 0000 0000
00000100: 0000 0000 0000 0000 0000 0000 0000 0000
00000110: 0000 0000 0000 0000 0000 0000 0000 0000
00000120: 0000 0000 0000 0000 0000 0000 0000 0000
00000130: 0000 0000 0000 0000 0000 0000 0000 0000
00000140: 0000 0000 0000 0000 0000 0000 0000 0000
00000150: 0000 0000 0000 0000 0000 0000 0000 0000
00000160: 0000 0000 0000 0000 0000 0000 0000 0000
00000170: 0000 0000 0000 0000 0000 0000 0000 0000
00000180: 0000 0000 0000 0000 0000 0000 0000 0000
00000190: 0000 0000 0000 0000 0000 0000 0000 0000
000001a0: 0000 0000 0000 0000 0000 0000 0000 0000
000001b0: 0000 0000 0000 0000 0000 0000 0000 0000
000001c0: 0000 0000 0000 0000 0000 0000 0000 0000
000001d0: 0000 0000 0000 0000 0000 0000 0000 0000
000001e0: 0000 0000 0000 0000 0000 0000 0000 0000
000001f0: 0000 0000 0000 0000 0000 0000 0000 0000

critic.network_body.linear_encoder.seq_layers.2.weight f4 [128, 128]
-0.0026779072 -0.045810025 -0.06107866 0.1821797 -0.079626374 -0.09710908 0.049135853 -0.023297505
-0.016118338 -0.036290776 0.22507338 0.15486772 0.0702256 0.09031107 -0.011178455 -0.09393658
0.03247086 0.027356062 0.082763866 0.08347983 0.034378216 -0.07220153 -0.061639924 0.0705162
-0.05336688 -0.013654104 0.05895352 0.17215051 -0.15188514 0.07451053 -0.1445544 0.058526814
-0.10021948 0.04281641 -0.098316796 -0.02436249 0.10681129 0.03572719 -0.001978428 0.17865223
0.0023978958 -0.12978704 0.0077797016 0.061702285 0.04151312 -0.056504168 -0.08037489 0.0029889932
-0.028848406 -0.06679525 0.10557115 0.023765022 0.029515475 -0.11567654 0.03393582 -0.073428914
0.12149309 -0.18385474 -0.1285248 0.11312545 0.1947221 0.054889083 0.09663152 -0.026524587
-0.051295973 -0.09850435 0.024565386 -0.09693201 0.050896037 0.105914 -0.04729523 0.069846585
-0.019141177 -0.07304524 0.0073526697 0.06420576 0.029416256 -0.043457046 -0.05475085 -0.0578469
0.031595547 0.020237956 -0.011678026 -0.061951667 0.019901216 -0.14055908 -0.005544794 0.099846944
-0.19661044 -0.0733345 0.013279674 0.11517178 -0.017242353 -0.03208489 -0.111017264 -0.11272962
0.018829435 -0.04119035 -0.01847962 -0.06615261 0.03258403 -0.057595413 0.1006348 0.055867337
0.13568515 -0.03557484 0.046131406 -0.04222039 -0.011071242 0.0044186194 0.1355569 -0.0512525
-0.03838411 0.1495292 0.0011494979 -0.041526273 -0.015807036 0.014755655 0.022124503 -0.03738971
-0.066356115 0.11145816 -0.05193891 -0.083776705 0.062054757 -0.013438956 -0.11379209 -0.015854873
0.11257854 -0.05551081 0.17954153 0.11061805 0.06559373 0.04604445 0.10245021 -0.09458467
0.09950009 0.057389006 0.13526453 0.025522443 -0.06905802 0.01228132 0.044357717 0.07739821
0.028077804 -0.05287677 0.03909574 -0.012803992 -0.0054474412 -0.061030395 0.10292258 -0.007181249
-0.06150547 0.06777663 -0.060425524 -0.0824343 -0.07517389 0.102548644 0.2284207 -0.045575466
-0.027901655 -0.08015554 0.10161146 0.023288678 0.031003255 -0.14559065 -0.09000253 0.11189735
-0.067964904 0.027223714 -0.036386386 -0.095099956 0.07334986 -0.004514511 -0.0917931 -0.090037994
-0.113310695 -0.088647045 -0.095220655 -0.010784768 -0.13460426 -0.0074620587 -0.021474257 0.06421477
-0.050791472 -0.01746488 0.061081104 -0.003003162 -0.009953246 0.05139169 -0.091188215 0.05147126
-0.08542442 0.12683502 0.07395438 0.007220933 -0.082718015 -0.061207816 -0.16741155 0.014140612
-0.0775493 0.047002524 -0.024687232 -0.01699486 -0.120533064 0.10580392 0.13263263 -0.026980743
0.088341035 -0.004130621 -0.10103529 -0.09170929 -0.011253086 0.10815965 0.092357956 -0.21951361
0.06586524 -0.051448714 0.0946222 0.074864484 -0.10564986 -0.20428713 0.15061729 -0.08485345
-0.1713105 0.017220682 0.10473315 0.008690433 -0.09966022 0.1384299 -0.0067439475 0.15412527
0.051271114 -0.064069845 -0.02862651 0.03933855 -0.014282953 -0.2406894 -0.16121128 0.047644474
-0.084131174 -0.081124604 0.15341151 0.07300406 -0.16408737 0.04112006 -0.033282757 -0.03250949
0.07095067 -0.0023276736 0.017052857 0.012150423 0.10909572 -0.011910192 -0.038592845 0.053252436
00000000: d47f 2fbb 4ba3 3bbd 9e2d 7abd 518d 3a3e
00000010: 2713 a3bd 20e1 c6bd ad42 493d 69da bebc
00000020: 9b0a 84bc a3a5 14bd a379 663e a595 1e3e
00000030: 70d2 8f3d 03f5 b83d d725 37bc d261 c0bd
00000040: 2a00 053d d219 e03c 1a80 a93d 79f7 aa3d
00000050: 2cd0 0c3d 65de 93bd 257a 7cbd cc6a 903d
00000060: 3b97 5abd 77b5 5fbc 3f79 713d 3948 303e
00000070: c787 1bbe fa98 983d 1206 14be d0b9 6f3d
00000080: df3f cdbd 4360 2f3d 515a c9bd d893 c7bc
00000090: e1bf da3d ad56 123d 84a8 01bb 9cf0 363e
000000a0: 0426 1d3b e5e6 04be deec fe3b 89bb 7c3d
000000b0: a909 2a3d ea70 67bd 979b a4bd fce2 433b
000000c0: 7e53 ecbc f3cb 88bd b035 d83d ddae c23c
000000d0: 70ca f13c d2e7 ecbd 4900 0b3d e661 96bd
000000e0: 5fd1 f83d 6b44 3cbe 019c 03be 51ae e73d
000000f0: 3b65 473e 60d3 603d bfe6 c53d 174a d9bc
00000100: ba1b 52bd a6bc c9bd 593d c93c 4a84 c6bd
00000110: 5d78 503d 70e9 d83d a5b8 41bd ba0b 8f3d
00000120: f5cd 9cbc be98 95bd aaee f03b 4f7e 833d
00000130: 5cfa f03c 0400 32bd 6d42 60bd dff0 6cbd
00000140: 556a 013d 12ca a53c 3155 3fbc 08c1 7dbd
00000150: e007 a33c b8ee 0fbe 1ab1 b5bb 8e7c cc3d
00000160: 3f54 49be 6630 96bd fd92 593c 2fdf eb3d
00000170: d63f 8dbc 726b 03bd 055d e3bd c9de e6bd
00000180: 3040 9a3c 36b7 28bd 9262 97bc 057b 87bd
00000190: d576 053d 2be9 6bbd 9e19 ce3d 26d5 643d
000001a0: 0cf1 0a3e ecb6 11bd 49f4 3c3d 4aef 2cbd
000001b0: 2864 35bc 11ca 903b 6ecf 0a3e 24ee 51bd
000001c0: a838 1dbd 2f1e 193e c0aa 963a 7417 2abd
000001d0: c27d 81bc b4c1 713c 723e b53c f425 19bd
000001e0: b7e5 87bd 2d44 e43d e5bd 54bd 1f93 abbd
000001f0: 212d 7e3d 112f 5cbc d40b e9bd 14e2 81bc
00000200: 948f e63d 4e5f 63bd bcd9 373e b78b e23d
00000210: 0156 863d 1b99 3c3d 6ad1 d13d 9cb5 c1bd
00000220: b4c6 cb3d bc10 6b3d c982 0a3e 7114 d13c
00000230: 4b6e 8dbd 9737 493c 70b0 353d f482 9e3d
00000240: 6c03 e63c 5095 58bd db22 203d d6c7 51bc
00000250: 7380 b2bb 02fb 79bd 13c9 d23d af50 ebbb
00000260: 29ed 7bbd 79ce 8a3d c180 77bd 50d3 a8bd
00000270: c5f4 99bd 0605 d23d 1ee7 693e 57ad 3abd
00000280: 0392 e4bc 9628 a4bd ab19 d03d e6c7 be3c
00000290: 8afa fd3c b715 15be 3f53 b8bd 702a e53d
000002a0: 2f31 8bbd 4404 df3c e409 15bd c4c3 c2bd
000002b0: 7438 963d 77ee 93bb 05fe bbbd d765 b8bd
000002c0: 700f e8bd 958c b5bd 0c03 c3bd 98b2 30bc
000002d0: b3d5 09be 4984 f4bb c8ea afbc 0983 833d
000002e0: b80a 50bd 8212 8fbc 2e30 7a3d b3d0 44bb
000002f0: f112 23bc 1880 523d e3c0 babd 87d3 523d
00000300: 00f3 aebd 0ae1 013e 6575 973d 949d ec3b
00000310: 1068 a9bd 0cb5 7abd ef6d 2bbe 07ae 673c
00000320: 2bd2 9ebd b885 403d e13c cabc ce38 8bbc
00000330: 0ada f6bd baaf d83d d9d0 073e b806 ddbc
00000340: 25ec b43d 295a 87bb 97eb cebd 15d2 bbbd
00000350: dd5e 38bc ce82 dd3d 2b26 bd3d 2dc8 60be
00000360: 5be4 863d e3bb 52bd 49c9 c13d 8d52 993d
00000370: f45e d8bd a530 51be 6b3b 1a3e a5c7 adbd
00000380: 056c 2fbe 6312 8d3c 557e d63d 5162 0e3c
00000390: a81a ccbd 91c0 0d3e 55fc dcbb 04d3 1d3e
000003a0: a901 523d 0d37 83bd 2582 eabc 7621 213d
000003b0: 0c03 6abc 4877 76be 9214 25be da26 433d
000003c0: f74c acbd a824 a6bd e817 1d3e 2783 953d
000003d0: 8506 28be 826d 283d 8053 08bd ac28 05bd
000003e0: 964e 913d e28b 18bb 6fb2 8b3c 9112 473c
000003f0: 946d df3d f722 43bc 8813 1ebd 3a1f 5a3d

critic.network_body.linear_encoder.seq_layers.2.bias f4 [128]
0.0 0.0 0.0 0.0 0.0 0.0 0.0 0.0
0.0 0.0 0.0 0.0 0.0 0.0 0.0 0.0
0.0 0.0 0.0 0.0 0.0 0.0 0.0 0.0
0.0 0.0 0.0 0.0 0.0 0.0 0.0 0.0
0.0 0.0 0.0 0.0 0.0 0.0 0.0 0.0
0.0 0.0 0.0 0.0 0.0 0.0 0.0 0.0
0.0 0.0 0.0 0.0 0.0 0.0 0.0 0.0
0.0 0.0 0.0 0.0 0.0 0.0 0.0 0.0
0.0 0.0 0.0 0.0 0.0 0.0 0.0 0.0
0.0 0.0 0.0 0.0 0.0 0.0 0.0 0.0
0.0 0.0 0.0 0.0 0.0 0.0 0.0 0.0
0.0 0.0 0.0 0.0 0.0 0.0 0.0 0.0
0.0 0.0 0.0 0.0 0.0 0.0 0.0 0.0
0.0 0.0 0.0 0.0 0.0 0.0 0.0 0.0
0.0 0.0 0.0 0.0 0.0 0.0 0.0 0.0
0.0 0.0 0.0 0.0 0.0 0.0 0.0 0.0
00000000: 0000 0000 0000 0000 0000 0000 0000 0000
00000010: 0000 0000 0000 0000 0000 0000 0000 0000
00000020: 0000 0000 0000 0000 0000 0000 0000 0000
00000030: 0000 0000 0000 0000 0000 0000 0000 0000
00000040: 0000 0000 0000 0000 0000 0000 0000 0000
00000050: 0000 0000 0000 0000 0000 0000 0000 0000
00000060: 0000 0000 0000 0000 0000 0000 0000 0000
00000070: 0000 0000 0000 0000 0000 0000 0000 0000
00000080: 0000 0000 0000 0000 0000 0000 0000 0000
00000090: 0000 0000 0000 0000 0000 0000 0000 0000
000000a0: 0000 0000 0000 0000 0000 0000 0000 0000
000000b0: 0000 0000 0000 0000 0000 0000 0000 0000
000000c0: 0000 0000 0000 0000 0000 0000 0000 0000
000000d0: 0000 0000 0000 0000 0000 0000 0000 0000
000000e0: 0000 0000 0000 0000 0000 0000 0000 0000
000000f0: 0000 0000 0000 0000 0000 0000 0000 0000
00000100: 0000 0000 0000 0000 0000 0000 0000 0000
00000110: 0000 0000 0000 0000 0000 0000 0000 0000
00000120: 0000 0000 0000 0000 0000 0000 0000 0000
00000130: 0000 0000 0000 0000 0000 0000 0000 0000
00000140: 0000 0000 0000 0000 0000 0000 0000 0000
00000150: 0000 0000 0000 0000 0000 0000 0000 0000
00000160: 0000 0000 0000 0000 0000 0000 0000 0000
00000170: 0000 0000 0000 0000 0000 0000 0000 0000
00000180: 0000 0000 0000 0000 0000 0000 0000 0000
00000190: 0000 0000 0000 0000 0000 0000 0000 0000
000001a0: 0000 0000 0000 0000 0000 0000 0000 0000
000001b0: 0000 0000 0000 0000 0000 0000 0000 0000
000001c0: 0000 0000 0000 0000 0000 0000 0000 0000
000001d0: 0000 0000 0000 0000 0000 0000 0000 0000
000001e0: 0000 0000 0000 0000 0000 0000 0000 0000
000001f0: 0000 0000 0000 0000 0000 0000 0000 0000

critic.value_heads.value_heads.extrinsic.weight f4 [1, 128]
-0.05304718 -0.05316627 -0.20320582 -0.06389326 -0.124137916 0.111073315 0.010834888 0.20380256
-0.048193723 -0.107049875 -0.04882787 -0.15751687 -0.07269944 0.004095942 0.087474376 -0.16260132
-0.08150081 0.1481306 0.065520585 0.041040808 -0.18465263 -0.09833644 -0.07813157 0.02213198
0.085434645 -0.071233034 -0.13267288 0.12976685 0.19476879 -0.03531435 -0.049465105 -0.020299375
-0.053207815 -0.14266771 -0.11045379 0.010437682 -0.1646972 -0.12351801 0.084424585 -0.011338517
0.07251793 0.082443446 0.03134519 0.09799087 -0.2011523 0.17942062 0.13315305 0.043751657
0.028961182 0.19819406 0.06613338 -0.1225598 -0.030565828 -0.06520839 0.03188768 -0.06022255
0.10857442 -0.11072965 -0.17494224 0.13837186 -0.15419458 -0.090458944 0.045143664 -0.18837105
0.13294554 0.02764608 0.043727815 0.07609245 -0.052596033 0.0035655051 -0.19703808 -0.079205886
-0.05604443 -0.093617156 -0.20104393 -0.17980346 -0.06291646 -0.044281587 -0.034147963 -0.189793
0.15569025 -0.06536694 -0.17047535 -0.09056443 -0.039574593 -0.018574402 -0.05623661 0.1293239
0.020943388 -0.14226735 -0.16319987 -0.19723183 -0.2022643 0.07272887 -0.19318546 -0.04795809
-0.11465254 -0.0064344555 0.11461207 0.005977139 -0.054867715 -0.054733142 -0.021835119 0.12772343
0.18428779 0.021546945 -0.034259155 0.16158476 -0.12746759 0.14426857 -0.051891983 0.059144676
-0.1277233 -0.03372471 -0.09643516 0.09377876 -0.0011970997 -0.13422155 -0.1837309 0.07056019
-0.09765471 0.01769188 -0.005022347 -0.06889637 0.106844306 0.21208441 0.19767642 0.21258435
00000000: 0048 59bd e0c4 59bd 3015 50be 78da 82bd
00000010: 053c febd 687a e33d d084 313c 9eb1 503e
00000020: c866 45bd f73c dbbd bcff 47bd 1a4c 21be
00000030: 72e3 94bd 4037 863b c425 b33d f680 26be
00000040: e6e9 a6bd 8caf 173e a82f 863d 681a 283d
00000050: 9415 3dbe 9e64 c9bd 7203 a0bd 204e b53c
00000060: 5cf8 ae3d a0e2 91bd 66db 07be 9ae1 043e
00000070: 7871 473e c8a5 10bd ec9b 4abd e04a a6bc
00000080: 70f0 59bd 7c17 12be 9935 e2bd d002 2b3c
00000090: 62a6 28be 03f7 fcbd cce6 ac3d 30c5 39bc
000000a0: 4884 943d 1cd8 a83d d063 003d 70af c83d
000000b0: defa 4dbe 0aba 373e 4659 083e f034 333d
000000c0: 0040 ed3c 62f3 4a3e f070 873d a200 fbbd
000000d0: 3065 fabc fa8b 85bd a89c 023d ecab 76bd
000000e0: 445c de3d 3ac6 e2bd 0f24 33be 5ab1 0d3e
000000f0: 2fe5 1dbe 8a42 b9bd 90e8 383d 57e4 40be
00000100: e022 083e 087a e23c f01b 333d 5cd6 9b3d
00000110: f06e 57bd 40ab 693b 5ac4 49be b236 a2bd
00000120: d88e 65bd 5aba bfbd 76de 4dbe 661e 38be
00000130: 58da 80bd 9c60 35bd bcde 0bbd 1959 42be
00000140: 446d 1f3e 1adf 85bd 1791 2ebe d879 b9bd
00000150: f818 22bd 5829 98bc 5c58 66bd 7c6d 043e
00000160: 7891 ab3c 88ae 11be de1d 27be 24f7 49be
00000170: 5f1e 4fbe e0f2 943d 69d2 45be b46f 44bd
00000180: f3ce eabd 20d8 d2bb bcb9 ea3d e0db c33b
00000190: f8bc 60bd dc2f 60bd 90df b2bc eec9 023e
000001a0: f0b5 3c3e 3883 b03c 5453 0cbd 7a76 253e
000001b0: dd86 02be 24bb 133e b08c 54bd b041 723d
000001c0: e6c9 02be ec22 0abd cc7f c5bd 140f c03d
000001d0: 00e8 9cba 6071 09be f423 3cbe dc81 903d
000001e0: 31ff c7bd 90ee 903c 8092 a4bb 8a19 8dbd
000001f0: 30d1 da3d a82c 593e b06b 4a3e b6af 593e
