Unity - Crypto Ball/results/ppo/My Behavior/My Behavior-7818.pt (torch, 149199 bytes, 12 tensors)

network_body.linear_encoder.seq_layers.0.weight f4 [128, 6]
0	0xbe123781	-0.14278986
1	0x3d62aaca	0.05533866
2	0xbf5147e6	-0.81750333
3	0x3f1bf4f7	0.6092066
4	0x3e7918cb	0.24325864
5	0x3d4e6fcb	0.050399583
6	0x3e7318d9	0.23739947
7	0xbc813e88	-0.015776888
8	0x3e9df37a	0.3084982
9	0xbdd49a8c	-0.1038104
10	0x3f38f023	0.7224142
11	0x3ed08adb	0.40730938
12	0xbe9bd0a4	-0.30432618
13	0xbf5c73cd	-0.861142
14	0xbcbf68fb	-0.023365488
15	0xbf27d61f	-0.655611
16	0xbed8d822	-0.42352396
17	0x3e538a41	0.20658208
18	0xbfa4d3c7	-1.2877129
19	0xbf4d32b8	-0.80155516
20	0xbd5159f0	-0.05111116
21	0x3f16b4b1	0.58869463
22	0x3eb4c756	0.3530833
23	0xbe0814b9	-0.13289155
24	0xbf1480a8	-0.58008814
25	0x3e93e982	0.2888909
26	0x3eb5246d	0.35379353
27	0xbee8d6c7	-0.45476362
28	0x3ee7a9e1	0.45246795
29	0x3f02cda7	0.5109505
30	0x3d68ce93	0.05683763
31	0x3f4ed3f3	0.8079216
32	0x3cd38e11	0.025824578
33	0x3e10148c	0.14070338
34	0xbe81c313	-0.25344142
35	0xbd4e8454	-0.050419167
36	0x3ed9ce36	0.4254014
37	0x3ddb5915	0.107103504
38	0xbda6bc97	-0.081414394
39	0x3f35c43e	0.71002567
40	0xbe38b129	-0.18036331
41	0xbe8b7ede	-0.2724523
42	0xbfaa46aa	-1.3302815
43	0xbed532e3	-0.41640386
44	0xbe808311	-0.25099996
45	0xbf5a1db6	-0.85201585
46	0x3ec87f1a	0.3915947
47	0xbecede41	-0.4040394
48	0x3e23c6bb	0.15993778
49	0x3efa7cb9	0.4892328
50	0x3f32ac14	0.6979382
51	0xbe8854b8	-0.26627135
52	0x3d823160	0.06357074
53	0x3f916add	1.1360737
54	0xbe65041e	-0.22364852
55	0x3ef31789	0.47478893
56	0x3ef87b1a	0.4853142
57	0xbcb86b4a	-0.022512097
58	0x3d7f1391	0.06227452
59	0xbea1d26e	-0.31605858
60	0x3f1c801b	0.61132973
61	0xbea6dd3a	-0.32590657
62	0xbeeecd38	-0.46640944
63	0xbed3cd04	-0.41367352
64	0x3eb084e5	0.3447639
65	0xbc8927dd	-0.016742641
66	0x3eedac33	0.4642044
67	0xbf0fe195	-0.56203586
68	0x3d8fce98	0.070218265
69	0xbe45b95a	-0.19308987
70	0xbd96844f	-0.073494546
71	0xbf4a8eca	-0.7912413
72	0xbd7e0a67	-0.06202164
73	0x3de222db	0.110418044
74	0x3d9bfb61	0.07616306
75	0x3d3c1532	0.04591865
76	0xbc9daffa	-0.019248951
77	0x3eb93f1c	0.3618096
78	0x3e389eba	0.180293
79	0x3f34dfcc	0.70653987
80	0xbed750b7	-0.42053768
81	0xbdfe04c5	-0.124032535
82	0x3ead2b0c	0.33821905
83	0xbea1fef7	-0.31639835
84	0xbf273e01	-0.65328985
85	0xbe4f007e	-0.20215032
86	0x3e7dc22e	0.24781105
87	0x3d8da311	0.06915868
88	0xbeb252e1	-0.34828857
89	0xbe151004	-0.1455689
90	0x3e08a3c4	0.13343722
91	0xbd0951a2	-0.033525117
92	0x3e094993	0.13406973
93	0x3ead2735	0.33818975
94	0xbed71aa6	-0.4201252
95	0x3f1b4a6b	0.6066043
96	0xbe397198	-0.18109739
97	0xbd875353	-0.0660769
98	0x3e802d70	0.25034666
99	0x3ec591ed	0.38587895
100	0xbee6d560	-0.45084667
101	0xbec50d80	-0.38486862
102	0xbf03b662	-0.5145017
103	0xbe3dc57c	-0.18532366
104	0xbebab993	-0.36469707
105	0xbf0d29b9	-0.5514179
106	0x3e55cfad	0.20880003
107	0x3d28f950	0.041253388
108	0x3e8887fb	0.26666245
109	0x3e3073b3	0.17231636
110	0xbe079126	-0.13238963
111	0x3eb3090e	0.34967846
112	0x3e39761f	0.18111466
113	0x3ebf2447	0.37332365
114	0xbe4a331c	-0.19746059
115	0xbe80e5f7	-0.2517545
116	0xbe47c0eb	-0.19507186
117	0xbe76f0b0	-0.24115252
118	0x3f65c2da	0.89750445
119	0xbed81d72	-0.42209965
120	0xbee3bdf4	-0.4448086
121	0x3e8e01eb	0.27735838
122	0x3d2053fa	0.039142586
123	0xbe88e6a1	-0.26738456
124	0xbb76420c	-0.0037575988
125	0x3ea28bb9	0.31747225
126	0xbe2837bb	-0.1642751
127	0xbe2cee0e	-0.16887686
128	0xbe22d276	-0.15900597
129	0x3f50c598	0.81551504
130	0x3eefd8fe	0.4684524
131	0x3f8196f8	1.0124197
132	0x3e448220	0.19190264
133	0x3e31b3c8	0.17353737
134	0x3ebdbf34	0.3705994
135	0x3e66c1de	0.22534892
136	0x3f58aa79	0.8463512
137	0xbc191faa	-0.009345928
138	0x3ee4c44c	0.44681013
139	0xbf2807ab	-0.656367
140	0x3f32ace8	0.69795084
141	0xbba8c745	-0.005150708
142	0x3e42c60d	0.19020863
143	0xbf250065	-0.64453727
144	0xbea2cc65	-0.31796566
145	0x3e51e131	0.2049606
146	0xbe6c47f0	-0.23074317
147	0x3e062990	0.13101792
148	0xbe41f546	-0.1894122
149	0x3dcab405	0.09897617
150	0xbee9ef4f	-0.4569039
151	0x3f409d20	0.75239754
152	0x3d29a607	0.0414181
153	0x3ea84598	0.32865596
154	0x3e6a18bc	0.22860998
155	0xbeb0de9a	-0.34544832
156	0xbf423785	-0.75865966
157	0xbe11c300	-0.14234543
158	0x3de1ffa6	0.11035089
159	0x3f27e564	0.655844
160	0xbe6d808f	-0.23193572
161	0xbd55746b	-0.052112978
162	0x3e9cec15	0.30648866
163	0x3fb08610	1.3790913
164	0x3dcf6d83	0.101283096
165	0x3db063f8	0.086128175
166	0xbe5bb851	-0.2145703
167	0xbe271ea4	-0.16320282
168	0x3d343b75	0.044002015
169	0xbd7cd620	-0.061727643
170	0xbe821831	-0.25409082
171	0x3d50bb5a	0.050959922
172	0x3e3e0f89	0.18560614
173	0xbea0bdec	-0.313949
174	0x3ebee573	0.3728443
175	0x3e51f6ca	0.20504299
176	0x3ef57939	0.47944048
177	0x3e97e967	0.2967026
178	0x3e0cf748	0.13766205
179	0x3f31163b	0.69174546
180	0xbe78d9ad	-0.24301787
181	0x3f04562f	0.51694006
182	0x3e6ccdc6	0.23125371
183	0x3f0a4fbe	0.54027927
184	0xbe847878	-0.2587316
185	0xbf0a2318	-0.539598
186	0x3d0cdd6b	0.034390848
187	0xbf14bfb6	-0.5810503
188	0xbda25212	-0.0792581
189	0x3f77d6a7	0.9681191
190	0xbc57fbc9	-0.013182589
191	0x3d73686a	0.05942575
192	0xbef55a94	-0.47920668
193	0xbc86b543	-0.016443854
194	0xbd3e6b8e	-0.04648929
195	0x3e93c57b	0.28861603
196	0xbe02048c	-0.12697047
197	0xbec60e04	-0.38682568
198	0x3f1d5cea	0.614699
199	0xbee60132	-0.44922787
200	0x3dc8b7ab	0.09800657
201	0xbf0573ab	-0.5212962
202	0x3c61224c	0.013741087
203	0x3d1e924b	0.038713735
204	0x3ba0cfb5	0.004907573
205	0x3f184159	0.5947471
206	0x3dcbfa88	0.099598944
207	0xbf195b1b	-0.5990464
208	0x3ed94e3c	0.424425
209	0xbe189c99	-0.14903487
210	0xbe83ff6e	-0.25780815
211	0x3e90d696	0.28288716
212	0xbef30200	-0.47462463
213	0xbebe2ba4	-0.3714267
214	0xbdd5ea65	-0.10445098
215	0x3f232e5f	0.6374263
216	0x3eb3aa8a	0.35091048
217	0xbdb5e0c6	-0.08880763
218	0xbd68dcb4	-0.056851104
219	0xbec3ae1f	-0.3821878
220	0x3e76bfa3	0.24096541
221	0x3e2a737c	0.16645616
222	0x3efd63cc	0.494902
223	0xbe70eded	-0.23528261
224	0xbf018a80	-0.5060196
225	0x3da3aeee	0.079923496
226	0xbf0956d5	-0.5364812
227	0xbcf9d817	-0.030498547
228	0x3e0e49b4	0.13895303
229	0x3eb0d27d	0.3453559
230	0x3f6ebe2c	0.9325893
231	0x3da24d54	0.079249054
232	0x3edc31d7	0.43006775
233	0x3e87532b	0.2643064
234	0xbd91c6d4	-0.071180016
235	0xbef52a70	-0.4788394
236	0xbeae41f3	-0.3403469
237	0xbf8573ac	-1.0425925
238	0x3e5d85cf	0.21633075
239	0xbee36b01	-0.44417575
240	0xbd92fa38	-0.07176632
241	0xbe93dd4b	-0.2887977
242	0x3d746b94	0.059672907
243	0x3f53744e	0.8259934
244	0x3f51d188	0.81960344
245	0x3e13c044	0.14428812
246	0x3e3817e4	0.17977864
247	0x3e2a8997	0.16654049
248	0x3f04a419	0.51812893
249	0xbc570540	-0.01312381
250	0x3f12f8fa	0.5741116
251	0xbeb07ed5	-0.34471765
252	0x3cc48519	0.023989247
253	0x3dc413a3	0.09574058
254	0xbe9a0cd2	-0.30087906
255	0x3f38b728	0.72154474

network_body.linear_encoder.seq_layers.0.bias f4 [128]
0	0x00000000	0.0
1	0x00000000	0.0
2	0x00000000	0.0
3	0x00000000	0.0
4	0x00000000	0.0
5	0x00000000	0.0
6	0x00000000	0.0
7	0x00000000	0.0
8	0x00000000	0.0
9	0x00000000	0.0
10	0x00000000	0.0
11	0x00000000	0.0
12	0x00000000	0.0
13	0x00000000	0.0
14	0x00000000	0.0
15	0x00000000	0.0
16	0x00000000	0.0
17	0x00000000	0.0
18	0x00000000	0.0
19	0x00000000	0.0
20	0x00000000	0.0
21	0x00000000	0.0
22	0x00000000	0.0
23	0x00000000	0.0
24	0x00000000	0.0
25	0x00000000	0.0
26	0x00000000	0.0
27	0x00000000	0.0
28	0x00000000	0.0
29	0x00000000	0.0
30	0x00000000	0.0
31	0x00000000	0.0
32	0x00000000	0.0
33	0x00000000	0.0
34	0x00000000	0.0
35	0x00000000	0.0
36	0x00000000	0.0
37	0x00000000	0.0
38	0x00000000	0.0
39	0x00000000	0.0
40	0x00000000	0.0
41	0x00000000	0.0
42	0x00000000	0.0
43	0x00000000	0.0
44	0x00000000	0.0
45	0x00000000	0.0
46	0x00000000	0.0
47	0x00000000	0.0
48	0x00000000	0.0
49	0x00000000	0.0
50	0x00000000	0.0
51	0x00000000	0.0
52	0x00000000	0.0
53	0x00000000	0.0
54	0x00000000	0.0
55	0x00000000	0.0
56	0x00000000	0.0
57	0x00000000	0.0
58	0x00000000	0.0
59	0x00000000	0.0
60	0x00000000	0.0
61	0x00000000	0.0
62	0x00000000	0.0
63	0x00000000	0.0
64	0x00000000	0.0
65	0x00000000	0.0
66	0x00000000	0.0
67	0x00000000	0.0
68	0x00000000	0.0
69	0x00000000	0.0
70	0x00000000	0.0
71	0x00000000	0.0
72	0x00000000	0.0
73	0x00000000	0.0
74	0x00000000	0.0
75	0x00000000	0.0
76	0x00000000	0.0
77	0x00000000	0.0
78	0x00000000	0.0
79	0x00000000	0.0
80	0x00000000	0.0
81	0x00000000	0.0
82	0x00000000	0.0
83	0x00000000	0.0
84	0x00000000	0.0
85	0x00000000	0.0
86	0x00000000	0.0
87	0x00000000	0.0
88	0x00000000	0.0
89	0x00000000	0.0
90	0x00000000	0.0
91	0x00000000	0.0
92	0x00000000	0.0
93	0x00000000	0.0
94	0x00000000	0.0
95	0x00000000	0.0
96	0x00000000	0.0
97	0x00000000	0.0
98	0x00000000	0.0
99	0x00000000	0.0
100	0x00000000	0.0
101	0x00000000	0.0
102	0x00000000	0.0
103	0x00000000	0.0
104	0x00000000	0.0
105	0x00000000	0.0
106	0x00000000	0.0
107	0x00000000	0.0
108	0x00000000	0.0
109	0x00000000	0.0
110	0x00000000	0.0
111	0x00000000	0.0
112	0x00000000	0.0
113	0x00000000	0.0
114	0x00000000	0.0
115	0x00000000	0.0
116	0x00000000	0.0
117	0x00000000	0.0
118	0x00000000	0.0
119	0x00000000	0.0
120	0x00000000	0.0
121	0x00000000	0.0
122	0x00000000	0.0
123	0x00000000	0.0
124	0x00000000	0.0
125	0x00000000	0.0
126	0x00000000	0.0
127	0x00000000	0.0

network_body.linear_encoder.seq_layers.2.weight f4 [128, 128]
0	0x3d275cfc	0.04086016
1	0xbcd82fa8	-0.026389912
2	0xbd0d94ad	-0.034565616
3	0xbc93f746	-0.018062245
4	0x3d1ef877	0.038811173
5	0xbdecb545	-0.11558012
6	0x3db28868	0.08717424
7	0xbe5cefad	-0.21575804
8	0xbda6278d	-0.081130125
9	0xbd9c6e23	-0.076381944
10	0x3df4292e	0.11921917
11	0x3d12cbe8	0.03583899
12	0xbd509619	-0.050924394
13	0x3cdbb350	0.026818901
14	0x3d9ad999	0.07561035
15	0x3d45e6e4	0.048315898
16	0x3d2e811e	0.042603604
17	0x3d98277e	0.074294075
18	0xbc211739	-0.009832197
19	0xbe03f312	-0.12885693
20	0x3c824cdb	0.015905788
21	0x3d80953d	0.06278465
22	0xbdb4fc23	-0.08837154
23	0xbcde4746	-0.027133595
24	0x3d534e29	0.05158821
25	0xbc42c8d5	-0.011888702
26	0x3db7e8cb	0.089799486
27	0x3d874e7d	0.06606767
28	0x3d9be93b	0.076128446
29	0xbc83b34c	-0.016076706
30	0x3e229321	0.15876438
31	0x3d1436e5	0.036185164
32	0x3c10280f	0.008798613
33	0x3da0d567	0.07853203
34	0xbdec3fcb	-0.11535605
35	0x3d09af31	0.03361434
36	0x3d78d7cf	0.060752686
37	0x3e250aca	0.16117397
38	0x3db108e7	0.08644276
39	0xbdf31897	-0.118699245
40	0xbc9eadb3	-0.019369936
41	0xbd5e2043	-0.054229986
42	0xbd9a3586	-0.0752974
43	0x3de7ac0a	0.11312111
44	0x3db2c5ae	0.08729111
45	0xbd1260ef	-0.035736974
46	0x3dc61dd6	0.096736595
47	0x3d2ee632	0.0427
48	0xbd90898a	-0.070574835
49	0xbdf0f9ef	-0.11766421
50	0xbdbca1aa	-0.092105225
51	0xbcede96a	-0.029041965
52	0x3e3823f0	0.17982459
53	0x3d2fe7cc	0.042945668
54	0xbdcd1793	-0.10014262
55	0x3d4bbe88	0.04974225
56	0x3dd69987	0.10478502
57	0xbdb9e502	-0.09076883
58	0xbd0f20b1	-0.034943286
59	0xbe24e99a	-0.16104737
60	0xbe2f2a05	-0.17105873
61	0x3c9e173f	0.019298194
62	0x3ddc6252	0.107609406
63	0xbd8088c6	-0.062760875
64	0xbd8da946	-0.06917052
65	0x3d5d3438	0.054004878
66	0x3c896d93	0.016775882
67	0x3d8e1205	0.06937031
68	0xbe2d0b85	-0.16898926
69	0x3cfc3299	0.030785846
70	0x3d16f289	0.036852393
71	0x3da4a70a	0.08039673
72	0x3c264dee	0.010150416
73	0x3ca17407	0.019708646
74	0xbc081f1e	-0.0083082
75	0x3c198c11	0.009371773
76	0xbbac0a68	-0.005250264
77	0xbdbb9447	-0.09159141
78	0xbbbecfb0	-0.005823098
79	0x3def0794	0.11671367
80	0xbd527fdf	-0.05139148
81	0xbd921ac1	-0.07134009
82	0x3dbfae26	0.09359388
83	0xbd92f51d	-0.07175658
84	0x3d828762	0.063734785
85	0xbe0d99f1	-0.13828255
86	0xbd93e11c	-0.072206706
87	0x3e429b94	0.19004661
88	0x3de1dcb6	0.110284254
89	0xbddb4821	-0.10707117
90	0x3cb32867	0.021869851
91	0xbe3dce46	-0.18535718
92	0xbda42d9f	-0.08016514
93	0x3d2eb0c8	0.04264906
94	0xbd52978e	-0.051414065
95	0x3da7e795	0.08198468
96	0x3e00b2a0	0.1256814
97	0x3dbae872	0.09126367
98	0xbceff53b	-0.02929174
99	0x3d05f2dd	0.032702316
100	0x3e300f5b	0.17193358
101	0x3da8d28a	0.08243282
102	0xbd2a7d39	-0.041623328
103	0x396bdb7e	0.00022493114
104	0x3de47ed7	0.11157005
105	0xbdc2ee14	-0.09518066
106	0x3d6d20bb	0.057892542
107	0xbd907f93	-0.07055583
108	0xbdab1721	-0.08354021
109	0xbddb1f67	-0.10699349
110	0xbc42a0cb	-0.011879156
111	0x3c747ae0	0.014921874
112	0xbd7d3083	-0.061813843
113	0xbd1184da	-0.035527088
114	0x3c75b345	0.0149963545
115	0x3d88121d	0.0664408
116	0x3de4bc16	0.11168687
117	0x3d6e39db	0.058160644
118	0xbd017228	-0.03160301
119	0x3db48aa4	0.08815506
120	0xbd16d196	-0.03682097
121	0xbd7e210e	-0.062043242
122	0xbdbb6fd0	-0.09152186
123	0x3cd4b9ae	0.025967445
124	0xbd43a8c6	-0.047768377
125	0x3cb68af5	0.022283057
126	0x3d70c30a	0.058779754
127	0x3d59e2d3	0.053194832
128	0x3da23cb0	0.079217315
129	0x3d9485a2	0.07252051
130	0xbd828176	-0.06372349
131	0x3dd6cf13	0.10488715
132	0x3d922ca7	0.07137423
133	0x3c82151e	0.01587921
134	0xbd84f94f	-0.06492864
135	0xbe052d26	-0.13005504
136	0x3bed7158	0.0072461776
137	0x3d4b34db	0.049610954
138	0x3de7e9e5	0.11323909
139	0x3da01f1b	0.07818433
140	0xbc8dbef6	-0.017302971
141	0x3d1515a4	0.03639759
142	0x3dd552bc	0.10416171
143	0xba43762c	-0.00074562686
144	0x3d892237	0.06695979
145	0x3bfc56b6	0.0077007664
146	0x3d8efd52	0.06981911
147	0x3ccb8bfb	0.024847021
148	0xbe3e8f5d	-0.18609376
149	0xbc784660	-0.015153497
150	0x3e0d496e	0.13797542
151	0x3db462a3	0.08807876
152	0x3e54f11b	0.207951
153	0x3d2305b4	0.03980036
154	0x3dea36f2	0.11436261
155	0xbdd33c92	-0.10314287
156	0x3da3e7bb	0.080031835
157	0x3c409983	0.01175535
158	0x3e1b9516	0.1519359
159	0x3dcf3f74	0.101195246
160	0xbe337f96	-0.17529139
161	0xbbe94c93	-0.007119724
162	0x3cfea535	0.031084636
163	0xbdb2ec91	-0.08736528
164	0xbe66da10	-0.22544122
165	0xbc0df6cf	-0.008664801
166	0xbd3ed2e3	-0.046587836
167	0xbd2a76dd	-0.041617263
168	0xbc0864a0	-0.008324772
169	0xbbee4ea7	-0.0072725597
170	0xbd57ca4c	-0.05268316
171	0xbd36a067	-0.044586565
172	0x3c01793a	0.007902438
173	0xbd4dc754	-0.050238922
174	0xbd89cf7b	-0.06729027
175	0x3d5245d3	0.05133612
176	0xbd7a8aa4	-0.061167374
177	0x3cd30d39	0.025763141
178	0x3db1cff1	0.0868224
179	0x3d939883	0.07206824
180	0x3b0d0682	0.0021518772
181	0xbe014f09	-0.12627806
182	0xbcea60f4	-0.028610684
183	0x3d91cd9a	0.071192935
184	0x3d37bfdd	0.04486071
185	0x3d2bc52c	0.041936085
186	0x3e3a1d05	0.18175133
187	0x3db3a4fb	0.08771702
188	0x3bb82e98	0.005620789
189	0xbb871b4e	-0.004123128
190	0x3be0fef2	0.0068663293
191	0xbe006ad1	-0.12540747
192	0x3e09759e	0.13423774
193	0xbba075ce	-0.004896856
194	0x3dbaf48f	0.09128677
195	0xbc8b9ed8	-0.017043516
196	0xbe5a71a8	-0.21332419
197	0xbca6d231	-0.020363899
198	0xbcd05f85	-0.025436172
199	0x3d805c38	0.06267589
200	0xbc3a83df	-0.01138398
201	0xbc37ab27	-0.0112102395
202	0xbcb932e0	-0.022607267
203	0xbc06f46b	-0.008236985
204	0x3cfe0877	0.031009896
205	0xbd782766	-0.06058445
206	0xbdbe5046	-0.09292655
207	0xbc4328af	-0.011911555
208	0x3dc6de8f	0.097104184
209	0x3b24e061	0.0025158154
210	0x3e25d891	0.16195895
211	0x3e02ac2f	0.12760995
212	0xbe11613d	-0.1419725
213	0xbe017077	-0.12640558
214	0xbd8720d8	-0.06598061
215	0xbcb7148d	-0.022348667
216	0x3c580798	0.013185404
217	0x3cc640f4	0.024200894
218	0x3e026cd0	0.12736821
219	0x3d017284	0.03160335
220	0x3e28f2a7	0.16498815
221	0xbd31442a	-0.043277897
222	0xbb5e3434	-0.0033905627
223	0xbc814553	-0.015780127
224	0x3d89181d	0.06694052
225	0xbd92694b	-0.07148989
226	0xbceb0383	-0.028688198
227	0xbe0ed034	-0.1394661
228	0x3cf56670	0.029956073
229	0x3cc40297	0.023927016
230	0xbd2a65ec	-0.041601107
231	0xbc406783	-0.011743429
232	0xbd9a58c5	-0.07536463
233	0x3d293b21	0.041316155
234	0x3d9bb28c	0.076024145
235	0x3dd48fe2	0.10379006
236	0x3e2143e7	0.15748559
237	0x3c925775	0.017863968
238	0xbb1960ec	-0.0023403717
239	0x3c87b748	0.016566887
240	0xbbf3011e	-0.0074159047
241	0x3c4003ea	0.011719683
242	0xbddbf129	-0.10739357
243	0x3d85e20c	0.06537256
244	0xbdb6054b	-0.08887728
245	0x3cd64a65	0.026158521
246	0xbd12cab2	-0.035837837
247	0x3de1eb2e	0.11031185
248	0x3e1eaaec	0.15494889
249	0x3e4315dd	0.19051309
250	0x3d9f1709	0.077680655
251	0x3ddf9bd8	0.10918397
252	0xbce7971d	-0.028270299
253	0xbda2b637	-0.07944911
254	0xbcbe2f9c	-0.023216061
255	0x3da34ab4	0.07973233

network_body.linear_encoder.seq_layers.2.bias f4 [128]
0	0x00000000	0.0
1	0x00000000	0.0
2	0x00000000	0.0
3	0x00000000	0.0
4	0x00000000	0.0
5	0x00000000	0.0
6	0x00000000	0.0
7	0x00000000	0.0
8	0x00000000	0.0
9	0x00000000	0.0
10	0x00000000	0.0
11	0x00000000	0.0
12	0x00000000	0.0
13	0x00000000	0.0
14	0x00000000	0.0
15	0x00000000	0.0
16	0x00000000	0.0
17	0x00000000	0.0
18	0x00000000	0.0
19	0x00000000	0.0
20	0x00000000	0.0
21	0x00000000	0.0
22	0x00000000	0.0
23	0x00000000	0.0
24	0x00000000	0.0
25	0x00000000	0.0
26	0x00000000	0.0
27	0x00000000	0.0
28	0x00000000	0.0
29	0x00000000	0.0
30	0x00000000	0.0
31	0x00000000	0.0
32	0x00000000	0.0
33	0x00000000	0.0
34	0x00000000	0.0
35	0x00000000	0.0
36	0x00000000	0.0
37	0x00000000	0.0
38	0x00000000	0.0
39	0x00000000	0.0
40	0x00000000	0.0
41	0x00000000	0.0
42	0x00000000	0.0
43	0x00000000	0.0
44	0x00000000	0.0
45	0x00000000	0.0
46	0x00000000	0.0
47	0x00000000	0.0
48	0x00000000	0.0
49	0x00000000	0.0
50	0x00000000	0.0
51	0x00000000	0.0
52	0x00000000	0.0
53	0x00000000	0.0
54	0x00000000	0.0
55	0x00000000	0.0
56	0x00000000	0.0
57	0x00000000	0.0
58	0x00000000	0.0
59	0x00000000	0.0
60	0x00000000	0.0
61	0x00000000	0.0
62	0x00000000	0.0
63	0x00000000	0.0
64	0x00000000	0.0
65	0x00000000	0.0
66	0x00000000	0.0
67	0x00000000	0.0
68	0x00000000	0.0
69	0x00000000	0.0
70	0x00000000	0.0
71	0x00000000	0.0
72	0x00000000	0.0
73	0x00000000	0.0
74	0x00000000	0.0
75	0x00000000	0.0
76	0x00000000	0.0
77	0x00000000	0.0
78	0x00000000	0.0
79	0x00000000	0.0
80	0x00000000	0.0
81	0x00000000	0.0
82	0x00000000	0.0
83	0x00000000	0.0
84	0x00000000	0.0
85	0x00000000	0.0
86	0x00000000	0.0
87	0x00000000	0.0
88	0x00000000	0.0
89	0x00000000	0.0
90	0x00000000	0.0
91	0x00000000	0.0
92	0x00000000	0.0
93	0x00000000	0.0
94	0x00000000	0.0
95	0x00000000	0.0
96	0x00000000	0.0
97	0x00000000	0.0
98	0x00000000	0.0
99	0x00000000	0.0
100	0x00000000	0.0
101	0x00000000	0.0
102	0x00000000	0.0
103	0x00000000	0.0
104	0x00000000	0.0
105	0x00000000	0.0
106	0x00000000	0.0
107	0x00000000	0.0
108	0x00000000	0.0
109	0x00000000	0.0
110	0x00000000	0.0
111	0x00000000	0.0
112	0x00000000	0.0
113	0x00000000	0.0
114	0x00000000	0.0
115	0x00000000	0.0
116	0x00000000	0.0
117	0x00000000	0.0
118	0x00000000	0.0
119	0x00000000	0.0
120	0x00000000	0.0
121	0x00000000	0.0
122	0x00000000	0.0
123	0x00000000	0.0
124	0x00000000	0.0
125	0x00000000	0.0
126	0x00000000	0.0
127	0x00000000	0.0

action_model._continuous_distribution.log_sigma f4 [1, 2]
0	0x00000000	0.0
1	0x00000000	0.0

action_model._continuous_distribution.mu.weight f4 [2, 128]
0	0x3c89c763	0.016818708
1	0xbbec12f8	-0.0072044097
2	0x3c64a7a3	0.013955983
3	0x3c910fd7	0.017707748
4	0xbc08397a	-0.008314485
5	0x3c35b030	0.01108937
6	0x3cba31f3	0.022728896
7	0x3b93d5a7	0.0045115533
8	0xbc03f552	-0.008054094
9	0xbc6cbabb	-0.014448817
10	0xbcb1989f	-0.02167922
11	0x3b90eba6	0.0044226227
12	0xbbc1c239	-0.0059130457
13	0xbbc4ab1e	-0.006001844
14	0x3c113f35	0.008865167
15	0xbc018d57	-0.007907233
16	0xbb911bd2	-0.0044283653
17	0x3bae2d1b	0.0053154356
18	0x3d1a28f7	0.037636723
19	0x3d0148c8	0.03156355
20	0x3ca2ad1f	0.019857941
21	0xbc9859ad	-0.018597448
22	0x3aaa3fc7	0.0012988978
23	0x3c23813b	0.009979541
24	0xbad68878	-0.0016367575
25	0x3ce9139d	0.028451735
26	0xbc5021d8	-0.0127033815
27	0x3c55ffbf	0.013061463
28	0x3d5d04f0	0.053959787
29	0x3c42ee42	0.011897625
30	0xbb4e25e2	-0.0031455685
31	0x3c5aa51a	0.013345027
32	0x3c6a6480	0.014306188
33	0xbc438333	-0.011933136
34	0xbcac4fef	-0.021034209
35	0x3c52f34f	0.012875392
36	0x3c7beb5f	0.015375941
37	0xbccd040a	-0.02502634
38	0x3c7dcee2	0.015491219
39	0xbcb677d7	-0.022273941
40	0x3bf41ed8	0.007449966
41	0x3b5793d3	0.0032894507
42	0xbca345ab	-0.019930681
43	0x3cb02e82	0.021506552
44	0xbca4861e	-0.020083483
45	0xbcf6553f	-0.030069945
46	0xbc95145c	-0.018198185
47	0xbbf903d0	-0.0075993314
48	0x3d0c9837	0.03432485
49	0x3c3de7c5	0.011590903
50	0x3cdc71cd	0.026909733
51	0xbc748f68	-0.014926769
52	0xbc791225	-0.01520208
53	0xbb71a71f	-0.0036873294
54	0x3c1c12ab	0.009525935
55	0xbc72b4cb	-0.014813612
56	0x3b80cd66	0.0039307354
57	0xbc7ec413	-0.015549677
58	0x3ccca0f7	0.024979098
59	0xbd28d66f	-0.041220125
60	0x3b180857	0.002319833
61	0xbccd8222	-0.025086466
62	0x3c083fd5	0.008316
63	0x3d12437d	0.035708893
64	0x3d0ec8f2	0.034859605
65	0xbce17fad	-0.0275267
66	0xbb7cc89b	-0.0038571719
67	0xbac3ef03	-0.001494855
68	0x3c0ffd4a	0.008788416
69	0xbb88e785	-0.00417799
70	0xbcb72e3d	-0.022360915
71	0x3d431cc8	0.04763487
72	0xbb9ebdb3	-0.0048443913
73	0xbca53bb7	-0.020170076
74	0xbb88e9b2	-0.0041782493
75	0x3b0c053f	0.0021365432
76	0x3c847931	0.01617107
77	0xba091eb3	-0.000523071
78	0xbc834cc2	-0.016027812
79	0xbb85aa2a	-0.004079123
80	0xbd3220eb	-0.043488424
81	0xb7dbd503	-2.6206026e-05
82	0xbb23f4a0	-0.0025017634
83	0x3cf1d99a	0.029522706
84	0xba3073bb	-0.00067311124
85	0x3cd4a70f	0.025958566
86	0xbd2e8dff	-0.042615887
87	0xbb4ac1c3	-0.0030938245
88	0x3c511c4d	0.012763095
89	0x3c3ff71b	0.011716629
90	0x3bc55891	0.006022521
91	0xbc4e1990	-0.012579337
92	0x3cb33bd0	0.021879107
93	0x3c0250dc	0.007953849
94	0x3cb0534d	0.021524096
95	0x3bdd8f58	0.0067614727
96	0x3c833799	0.016017722
97	0xbc84e156	-0.01622073
98	0xbb6b0395	-0.003586029
99	0x3afb04d2	0.0019151217
100	0xbb82104d	-0.0039692284
101	0x3bb3dbfb	0.00548887
102	0x3b059bc5	0.0020387035
103	0xbbad0aec	-0.005280843
104	0x3acbc04b	0.0015544979
105	0x3cf0d148	0.029396668
106	0xbcbac4da	-0.022798944
107	0x3c3e07bf	0.0115985265
108	0x3c3b776d	0.011442048
109	0xbc6d77a3	-0.014493856
110	0x3d115172	0.035478063
111	0x3b16ee67	0.0023030282
112	0xbc5603a5	-0.013062392
113	0x3c8ce5a9	0.017199354
114	0x3c7e2c0a	0.015513429
115	0x3c050fb2	0.008121418
116	0xbc3b62b0	-0.011437103
117	0x3c40b343	0.011761489
118	0x3c6ced3f	0.014460861
119	0xba711b8f	-0.0009197527
120	0xbcdd0f23	-0.026984757
121	0xbbf1b282	-0.007376016
122	0xbc370cd5	-0.011172493
123	0x3c624fa7	0.013812936
124	0xbc3158a7	-0.010824359
125	0x3ca33b37	0.019925697
126	0x3cc05328	0.023477152
127	0x3cfa6f60	0.030570686
128	0x3bd339a7	0.0064460817
129	0xbcaa1f48	-0.02076687
130	0xbc1cd773	-0.0095728515
131	0xbcc95866	-0.024578284
132	0xbbeed283	-0.0072882785
133	0x3ba0ff4b	0.004913246
134	0x3bf6a1ff	0.0075266357
135	0x3c039339	0.008030706
136	0x3cb36f58	0.021903679
137	0xbb35ee6a	-0.0027760514
138	0xbcff13af	-0.031137316
139	0x3cbf5f73	0.023360943
140	0x3c4e1a92	0.012579577
141	0x3d040c6b	0.032238405
142	0xbb279e57	-0.0025576556
143	0xbc137e79	-0.009002321
144	0xbc8b71fc	-0.017022125
145	0xbd2c46f0	-0.04205984
146	0xbc70cf27	-0.0146978265
147	0x3be0d87b	0.006861744
148	0xbc54b893	-0.012983459
149	0x3a9950ff	0.0011697112
150	0xbc3e7201	-0.01162386
151	0xba72a7e5	-0.00092565856
152	0xbbc1c6a3	-0.005913572
153	0xbbd376a5	-0.0064533525
154	0x3bdbf1f2	0.0067121917
155	0xbcc7d0e1	-0.024391593
156	0xbc8e62da	-0.01738112
157	0xbc41b870	-0.0118237585
158	0xbb3c974c	-0.0028776703
159	0x3cf15f4d	0.029464388
160	0xbc58a23d	-0.013222274
161	0x3c9a0744	0.018802293
162	0x3cbc6fee	0.023002591
163	0x3cb697d3	0.022289192
164	0xbcbbf212	-0.022942577
165	0x3b2ac0af	0.002605479
166	0x3cbc34b8	0.022974357
167	0xbcb89c84	-0.02253557
168	0xbd1dd62f	-0.03853434
169	0x3c9dd5ce	0.01926699
170	0x3cf86f95	0.030326644
171	0x3d324c97	0.043530073
172	0x3c806aff	0.01567602
173	0xbd40f566	-0.04710903
174	0x3c09f1f3	0.008419502
175	0x3c93e846	0.018055093
176	0x3cff0a37	0.0311328
177	0x3d0c7145	0.03428771
178	0xbc3626d1	-0.011117653
179	0x3b8ba9e0	0.004262194
180	0x3ccb63a0	0.024827778
181	0xbd4487ca	-0.04798106
182	0x3c943c0d	0.01809504
183	0x3ce21a90	0.027600557
184	0xbb7d00c3	-0.003860519
185	0x3c1a792b	0.009428303
186	0x3c4e86e7	0.012605405
187	0x3c9f415d	0.019440347
188	0x3c5d3f48	0.013503857
189	0xbd0e197f	-0.034692284
190	0x3c55eedf	0.01305744
191	0x3c16a567	0.009194708
192	0x3cde67a3	0.027149027
193	0x3ce62078	0.028091654
194	0xbc86200f	-0.016372709
195	0xbc3d53b0	-0.011555597
196	0xbc92c5fb	-0.01791667
197	0xbc3d5eed	-0.011558277
198	0x3cb38d2a	0.021917898
199	0x3ce5f34f	0.02807012
200	0xbc1247b9	-0.008928233
201	0xbc54dd03	-0.012992146
202	0xbcc22200	-0.023697853
203	0xb7d153af	-2.495371e-05
204	0x3cf171bf	0.029473184
205	0x3b9bc6bb	0.004753915
206	0xbd0194de	-0.03163611
207	0xbc7e4dcd	-0.015521479
208	0xbaab9375	-0.001309021
209	0xba203efb	-0.00061129004
210	0xbc0e6dc3	-0.008693161
211	0x3c843aac	0.016141258
212	0xbce463d3	-0.027879631
213	0xbc4a3a20	-0.01234296
214	0x3c0d4eb7	0.008624724
215	0x3c6fb1f7	0.0146298325
216	0x3c68e865	0.014215563
217	0x39dd2455	0.00042179474
218	0xbc8c0eab	-0.017096838
219	0x3bd10c88	0.0063796677
220	0x3cc28aaf	0.02374777
221	0xbc364776	-0.011125436
222	0x3ccabef2	0.024749253
223	0xbb61b468	-0.0034439806
224	0xbd112b24	-0.035441533
225	0xbbd0d50f	-0.006373055
226	0x3b0c7de3	0.002143734
227	0xbc759fb2	-0.014991688
228	0xbb31af27	-0.0027112456
229	0x3d113bc6	0.035457395
230	0xbc7c075a	-0.015382612
231	0x3cf6b1bb	0.030114045
232	0xbca8b77d	-0.020595307
233	0xbc8f295c	-0.017475776
234	0xbc5da638	-0.013528399
235	0x3c2ac98a	0.010424027
236	0xbc78facd	-0.015196514
237	0xbb85f8a4	-0.004088478
238	0xbb5bdc07	-0.0033547895
239	0xbae7244a	-0.0017634716
240	0xba27780f	-0.00063884346
241	0x3c0835bd	0.008313593
242	0x3d0fb221	0.035081986
243	0xbc003839	-0.0078259045
244	0xbb460e6e	-0.0030221003
245	0x3b7bc09d	0.0038414367
246	0xbbff7a6d	-0.0077965767
247	0xb9c81d40	-0.00038168766
248	0xbcc5e26e	-0.024155822
249	0xbb7f409a	-0.0038948418
250	0xbbb38efb	-0.005479691
251	0xbc2087bb	-0.009797986
252	0x3cfda257	0.030961199
253	0xbba80e09	-0.0051286262
254	0xbbbc7db3	-0.005752289
255	0xbc133fd8	-0.0089873895

action_model._continuous_distribution.mu.bias f4 [2]
0	0x00000000	0.0
1	0x00000000	0.0

critic.network_body.linear_encoder.seq_layers.0.weight f4 [128, 6]
0	0x3ac47dbe	0.0014991087
1	0x3e6f4e0f	0.2336962
2	0xbd1351a3	-0.035966527
3	0xbf0c2e2b	-0.54757947
4	0x3e01a4f5	0.12660582
5	0xbe50efff	-0.20404051
6	0x3eacebe2	0.33773714
7	0xbd9217af	-0.071334235
8	0xbe67bc16	-0.22630343
9	0xbc097057	-0.0083886
10	0xbdbbfb7e	-0.09178828
11	0xbeb3089c	-0.34967506
12	0xbf90b5e9	-1.1305515
13	0xbecb699d	-0.39729014
14	0x3f59f4cc	0.85139155
15	0x3eb5ba98	0.35493922
16	0x3f193c0e	0.5985726
17	0xbf2b84d1	-0.66999537
18	0xbe8a295b	-0.26984677
19	0xbeedfa3a	-0.4647997
20	0x3ee43d3b	0.44577965
21	0xbebd775c	-0.37005126
22	0x3f0c2eb3	0.5475876
23	0x3dbd734d	0.092505075
24	0x3d9873ad	0.074439384
25	0x3ebe53e7	0.37173387
26	0xbee4a166	-0.44654387
27	0xbf6a8c7f	-0.9162063
28	0xbea16744	-0.31524098
29	0xbd99da3e	-0.075123295
30	0x3d95f734	0.07322541
31	0xbe83b2a6	-0.25722235
32	0xbf5f37cf	-0.8719453
33	0x3eb66755	0.3562571
34	0xbe6c590f	-0.23080848
35	0xbef5e909	-0.48029354
36	0xbe915ce8	-0.28391194
37	0xbf192f73	-0.59838027
38	0xbdaa7df7	-0.08324807
39	0x3dea1e79	0.114315934
40	0xbd38aa1c	-0.045084104
41	0xbeef91b5	-0.46790853
42	0x3eac6651	0.3367181
43	0x3eed9a39	0.46406725
44	0x3f4f307c	0.80933356
45	0xbcdd6baf	-0.027028887
46	0xbeac3e3c	-0.3364123
47	0x3e135384	0.14387327
48	0x3ec13fb8	0.37743926
49	0xbf1f1dd8	-0.6215491
50	0xbdb7279d	-0.089431025
51	0x3e653d41	0.22386648
52	0x3e7e7c01	0.24851991
53	0x3ce076fa	0.027400482
54	0xbf82205b	-1.0166124
55	0x3e580282	0.21094707
56	0x3dc703b9	0.09717507
57	0x3ec1058f	0.37699553
58	0x3e87a76d	0.26494923
59	0x3e6dbde0	0.23216963
60	0xbea8435f	-0.328639
61	0x3e3772c9	0.17914881
62	0xbf1ee52e	-0.6206845
63	0x3d97bdd3	0.07409253
64	0x3df40a92	0.119160786
65	0xbded54ec	-0.11588463
66	0x3f10d3d3	0.5657322
67	0x3ebf894a	0.3740943
68	0x3efcdf73	0.49389228
69	0x3e97aca9	0.29623917
70	0x3edf765b	0.43644986
71	0x3f238985	0.63881713
72	0x3f4e4f6a	0.80589926
73	0xbf13749f	-0.57599825
74	0xbe361a64	-0.17783505
75	0xbf18179a	-0.59411013
76	0xbe9292f3	-0.28627738
77	0xbcd8c609	-0.026461618
78	0xbe911324	-0.28334916
79	0x3e7ed117	0.24884449
80	0xbeb0c248	-0.34523225
81	0xbdb856df	-0.09000944
82	0x3ecf0741	0.40435222
83	0xbf079979	-0.52968556
84	0xbf7e13d1	-0.9924899
85	0xbe889edf	-0.2668371
86	0xbe943663	-0.28947744
87	0x3efc9a8f	0.4933667
88	0xbea9894e	-0.33112568
89	0x3ed7ca8a	0.42146713
90	0x3ecb0db0	0.3965888
91	0x3e9d1341	0.30678752
92	0x3dcce0f4	0.10003844
93	0x3ecc95fb	0.39958176
94	0x3e66b8e8	0.22531474
95	0xbe993618	-0.29924083
96	0x3f1abfba	0.604488
97	0x3e1db572	0.15401247
98	0x3dbc324f	0.09189283
99	0xbd9fca26	-0.07802229
100	0x3e4ed8fd	0.20199962
101	0xbe3e4aa0	-0.18583155
102	0x3ee6ebd6	0.45101804
103	0x3eb7ac73	0.35873756
104	0x3e08bddc	0.13353676
105	0xbf1228b1	-0.5709334
106	0x3ebcd8e9	0.3688424
107	0x3da313f3	0.079627894
108	0x3e73eba2	0.23820356
109	0xbd9075c5	-0.07053713
110	0xbdbec59c	-0.09315035
111	0x3f318a0b	0.6935126
112	0xbd3517d2	-0.04421217
113	0x3e3f9d98	0.18712461
114	0xbf72bd89	-0.9482046
115	0x3d850b78	0.06496328
116	0xbe9eaa8a	-0.30989486
117	0xbdc22e8a	-0.09481533
118	0xbe539088	-0.20660603
119	0x3e0f51e5	0.13996084
120	0x3e2170d0	0.15765691
121	0x3ee2261f	0.4416971
122	0xbe513a6f	-0.20432447
123	0xbc96fffb	-0.018432608
124	0xbf0fa97c	-0.5611799
125	0x3f6e91e0	0.9319134
126	0x3ebc5a70	0.36787748
127	0x3e8100b8	0.2519586
128	0xbe62f4df	-0.22163723
129	0xbeb55269	-0.35414436
130	0xbce5be86	-0.02804495
131	0x3d117706	0.0355139
132	0x3e886da9	0.26646164
133	0xbd7be5ec	-0.061498567
134	0xbe6f7923	-0.23386054
135	0x3d7ce08a	0.061737575
136	0xbea9ced6	-0.33165616
137	0xbef5fcfd	-0.48044577
138	0xbdce91cd	-0.10086403
139	0xbe1c0812	-0.15237454
140	0x3d199bc4	0.037502065
141	0xbf31ec01	-0.6950074
142	0x3dc3696f	0.09541594
143	0x3e3b64b3	0.18300132
144	0x3ecd51bb	0.40101418
145	0xbe7e3847	-0.24826156
146	0xbe43d15d	-0.19122835
147	0xbe2ad5a8	-0.16683066
148	0xbe19637b	-0.14979355
149	0x3e95078d	0.29107323
150	0xbf403d7a	-0.75093806
151	0xbecc9e98	-0.39964747
152	0xbe384dc8	-0.17998421
153	0x3df46826	0.11933927
154	0x3cbba713	0.022906816
155	0xbe3705b8	-0.17873275
156	0x3e16f690	0.14742494
157	0xbdac63e2	-0.08417489
158	0x3dfb3489	0.1226588
159	0x3eb7fa06	0.3593294
160	0xbccc58f7	-0.024944765
161	0x3d12e76f	0.035865244
162	0xbe9075a1	-0.28214744
163	0x3f44f136	0.7693056
164	0xbeeb2a51	-0.45930722
165	0xbec1e21d	-0.37867823
166	0x3e44936c	0.19196862
167	0x3d8d90a4	0.06912354
168	0x3e6f6d19	0.23381461
169	0xbf4e5589	-0.80599266
170	0x3dc6de20	0.09710336
171	0xbecefb52	-0.40426117
172	0xbe06ec0a	-0.1317598
173	0x3f343865	0.7039855
174	0xbe37e8f5	-0.1795996
175	0xbdd83e87	-0.10558801
176	0xbea1def4	-0.31615412
177	0xbdb2d342	-0.087317005
178	0xbed1221c	-0.40846336
179	0x3e78e1da	0.24304906
180	0x3f324371	0.6963416
181	0xbe16c071	-0.14721848
182	0xbed43d3a	-0.41452962
183	0x3f27275f	0.6529445
184	0xbe84d6e3	-0.25945196
185	0x3e05ccbe	0.13066384
186	0xbed7ed9e	-0.42173475
187	0x3ceeadb8	0.02913557
188	0x3da28760	0.07935977
189	0xbeb02283	-0.3440133
190	0xbf0387b9	-0.5137897
191	0x3e3a0ad6	0.18168196
192	0x3e3983d2	0.18116692
193	0x3f13ad24	0.57686067
194	0x3ee9bc56	0.456515
195	0xbea7e3cb	-0.3279098
196	0x3f6f988a	0.9359213
197	0xbd713be8	-0.05889502
198	0x3ccd2214	0.025040664
199	0xbe0d6323	-0.13807349
200	0x3f003980	0.5008774
201	0x3cc4bca1	0.024015727
202	0xbd9ac73b	-0.075575314
203	0x3d3316ce	0.04372292
204	0x3f7f71ca	0.99783003
205	0x3e93fe9f	0.28905198
206	0x3b2ef148	0.0026694108
207	0xbeafb041	-0.3431416
208	0x3da1a09c	0.07891962
209	0xbea8013b	-0.3281344
210	0x3e1a4d7e	0.15068623
211	0xbee831bb	-0.4535044
212	0xbe93ddcf	-0.28880164
213	0x3eade709	0.33965328
214	0x3f50a60e	0.8150338
215	0x3dd82041	0.10553027
216	0xbecff62c	-0.40617502
217	0xbccf5eba	-0.025313724
218	0xbe9fec4b	-0.31234965
219	0xbf6475c6	-0.8924221
220	0x3eda3db0	0.4262519
221	0x3edea7f6	0.4348752
222	0x3ead3778	0.33831382
223	0xbeb28b56	-0.3487193
224	0xbf439abc	-0.7640798
225	0x3f159acb	0.5843932
226	0x3e10d341	0.14143087
227	0xbed18f41	-0.40929607
228	0x3cfb7e02	0.030699734
229	0x3f2d2391	0.67632395
230	0xbee27161	-0.44227126
231	0x3f54b2fe	0.8308562
232	0x3c946b1d	0.018117482
233	0xbe92446b	-0.28567824
234	0x3ed626f8	0.41826606
235	0xbeb9b1cf	-0.3626847
236	0x3cfb7ccd	0.030699158
237	0xbea5b356	-0.32363385
238	0xbb45ea43	-0.0030199445
239	0x3e8144b2	0.25247723
240	0x3ec4cf87	0.3843958
241	0xbeb884be	-0.36038774
242	0x3bdbd104	0.006708266
243	0x3f3c38b9	0.7352405
244	0x3e09a6db	0.13442557
245	0xbea0eefa	-0.31432325
246	0x3e9a820f	0.30177352
247	0x3eaf3f63	0.34228048
248	0xbf1801ab	-0.59377545
249	0x3e8a9680	0.27067947
250	0x3d3f72ce	0.046740346
251	0x3ea7d40f	0.32778975
252	0xbed52d88	-0.416363
253	0x3db69e31	0.08916891
254	0xbf67f78b	-0.90612096
255	0x3e1ce3da	0.15321293

critic.network_body.linear_encoder.seq_layers.0.bias f4 [128]
0	0x00000000	0.0
1	0x00000000	0.0
2	0x00000000	0.0
3	0x00000000	0.0
4	0x00000000	0.0
5	0x00000000	0.0
6	0x00000000	0.0
7	0x00000000	0.0
8	0x00000000	0.0
9	0x00000000	0.0
10	0x00000000	0.0
11	0x00000000	0.0
12	0x00000000	0.0
13	0x00000000	0.0
14	0x00000000	0.0
15	0x00000000	0.0
16	0x00000000	0.0
17	0x00000000	0.0
18	0x00000000	0.0
19	0x00000000	0.0
20	0x00000000	0.0
21	0x00000000	0.0
22	0x00000000	0.0
23	0x00000000	0.0
24	0x00000000	0.0
25	0x00000000	0.0
26	0x00000000	0.0
27	0x00000000	0.0
28	0x00000000	0.0
29	0x00000000	0.0
30	0x00000000	0.0
31	0x00000000	0.0
32	0x00000000	0.0
33	0x00000000	0.0
34	0x00000000	0.0
35	0x00000000	0.0
36	0x00000000	0.0
37	0x00000000	0.0
38	0x00000000	0.0
39	0x00000000	0.0
40	0x00000000	0.0
41	0x00000000	0.0
42	0x00000000	0.0
43	0x00000000	0.0
44	0x00000000	0.0
45	0x00000000	0.0
46	0x00000000	0.0
47	0x00000000	0.0
48	0x00000000	0.0
49	0x00000000	0.0
50	0x00000000	0.0
51	0x00000000	0.0
52	0x00000000	0.0
53	0x00000000	0.0
54	0x00000000	0.0
55	0x00000000	0.0
56	0x00000000	0.0
57	0x00000000	0.0
58	0x00000000	0.0
59	0x00000000	0.0
60	0x00000000	0.0
61	0x00000000	0.0
62	0x00000000	0.0
63	0x00000000	0.0
64	0x00000000	0.0
65	0x00000000	0.0
66	0x00000000	0.0
67	0x00000000	0.0
68	0x00000000	0.0
69	0x00000000	0.0
70	0x00000000	0.0
71	0x00000000	0.0
72	0x00000000	0.0
73	0x00000000	0.0
74	0x00000000	0.0
75	0x00000000	0.0
76	0x00000000	0.0
77	0x00000000	0.0
78	0x00000000	0.0
79	0x00000000	0.0
80	0x00000000	0.0
81	0x00000000	0.0
82	0x00000000	0.0
83	0x00000000	0.0
84	0x00000000	0.0
85	0x00000000	0.0
86	0x00000000	0.0
87	0x00000000	0.0
88	0x00000000	0.0
89	0x00000000	0.0
90	0x00000000	0.0
91	0x00000000	0.0
92	0x00000000	0.0
93	0x00000000	0.0
94	0x00000000	0.0
95	0x00000000	0.0
96	0x00000000	0.0
97	0x00000000	0.0
98	0x00000000	0.0
99	0x00000000	0.0
100	0x00000000	0.0
101	0x00000000	0.0
102	0x00000000	0.0
103	0x00000000	0.0
104	0x00000000	0.0
105	0x00000000	0.0
106	0x00000000	0.0
107	0x00000000	0.0
108	0x00000000	0.0
109	0x00000000	0.0
110	0x00000000	0.0
111	0x00000000	0.0
112	0x00000000	0.0
113	0x00000000	0.0
114	0x00000000	0.0
115	0x00000000	0.0
116	0x00000000	0.0
117	0x00000000	0.0
118	0x00000000	0.0
119	0x00000000	0.0
120	0x00000000	0.0
121	0x00000000	0.0
122	0x00000000	0.0
123	0x00000000	0.0
124	0x00000000	0.0
125	0x00000000	0.0
126	0x00000000	0.0
127	0x00000000	0.0

critic.network_body.linear_encoder.seq_layers.2.weight f4 [128, 128]
0	0x3dd4cdaf	0.103907935
1	0x3cbbf65a	0.022944618
2	0xbdaf34d4	-0.08554998
3	0x3af9343c	0.001901276
4	0xbdd9808b	-0.10620221
5	0x3db6f043	0.08932545
6	0xbcacdf90	-0.021102697
7	0x3bd523a7	0.006504494
8	0x3d936eee	0.071988925
9	0x3cf74bc3	0.030187493
10	0x3e06debf	0.13170908
11	0x3d5be995	0.053689558
12	0x3df56f89	0.11984164
13	0xbd30d348	-0.043170244
14	0x3d015f7f	0.031585213
15	0x3d04d192	0.032426424
16	0xbc073113	-0.008251446
17	0xbd82ff3d	-0.06396339
18	0xbdad1ae6	-0.08452396
19	0xbc36e10f	-0.011162057
20	0x3cc29cff	0.023756502
21	0x3d98b069	0.074555226
22	0x3d849f0d	0.06475649
23	0x3c4b9105	0.012424712
24	0x3d5e3158	0.054246277
25	0x3dc94f55	0.098295845
26	0xbe1abcf7	-0.15111147
27	0x3b6416ce	0.0034803632
28	0xbd436856	-0.047706924
29	0xbd3b0fcd	-0.045669366
30	0x3e1929a2	0.14957288
31	0xbda565ab	-0.08076032
32	0xbd8010da	-0.06253214
33	0xbd4c9899	-0.049950216
34	0xbca04aba	-0.019566882
35	0xbd8f1135	-0.06985704
36	0xbc3163ba	-0.010826999
37	0xbcdec437	-0.027193172
38	0xbc7fe77f	-0.015619158
39	0xbd16e36e	-0.036837988
40	0xbdc1a666	-0.09455566
41	0xbdb3bac7	-0.08775859
42	0xbba801a8	-0.0051271506
43	0xbd8597a6	-0.06523065
44	0xbda35d3c	-0.079767674
45	0xbc277de6	-0.010222888
46	0x3dc3e010	0.09564221
47	0xbb3632d4	-0.0027801292
48	0x3d083f47	0.03326347
49	0xbdbecc9c	-0.0931637
50	0x3b6ddb3d	0.0036294006
51	0x3dc1b820	0.09458947
52	0xbd82b397	-0.0638191
53	0x3da491a5	0.08035592
54	0x3d64469e	0.05573141
55	0x3d8d2873	0.06892481
56	0x3cb6dce8	0.022322133
57	0xbd6866b8	-0.056738585
58	0x3e0f2161	0.13977577
59	0xbb5f62c5	-0.003408597
60	0xbc1cf195	-0.009579082
61	0x3c6cf32f	0.014462276
62	0xbe1187a9	-0.14211906
63	0xbe02be0c	-0.1276781
64	0x3d861a0f	0.06547939
65	0x3cd6cd54	0.026220955
66	0x3c964340	0.018342614
67	0x3bfdeaa1	0.007748917
68	0xbd8b81d8	-0.06811875
69	0x3d96f36e	0.07370649
70	0x3e3639e5	0.17795523
71	0xbd1a72da	-0.037707187
72	0x3d69a042	0.0570376
73	0xbd0c46d8	-0.03424725
74	0xbd020b26	-0.031748913
75	0xbd3dcc7e	-0.046337597
76	0xbd96345f	-0.07334208
77	0xbcbdeb1c	-0.023183398
78	0xbc9cba60	-0.01913184
79	0xbd151156	-0.036393486
80	0xbdb3c812	-0.08778395
81	0xbd8a0afe	-0.06740378
82	0x3dfcd48a	0.12345226
83	0xbe21b7e6	-0.15792808
84	0xbe084fa1	-0.13311626
85	0xbe109ad6	-0.14121565
86	0xbd9315c5	-0.071818866
87	0xbdba2358	-0.090887725
88	0x3d5405e6	0.051763438
89	0xbddb253b	-0.107004605
90	0x3cb92e8e	0.022605207
91	0xbe1055d9	-0.14095248
92	0xbc95fda0	-0.018309414
93	0x3db43916	0.08799951
94	0x3d2e7127	0.04258838
95	0x3d32414a	0.043519296
96	0x3d4df7e7	0.050285246
97	0x3d1d6736	0.038428508
98	0x3d36c560	0.044621825
99	0x3da19ce7	0.07891255
100	0x3d2454f7	0.04012009
101	0xbd315a93	-0.04329927
102	0x3d36f5f4	0.044668153
103	0xbddf8072	-0.10913171
104	0x3e3d6e35	0.18499072
105	0xbd1c57ae	-0.038169555
106	0xbc84d63f	-0.016215442
107	0x3c75e5ac	0.015008371
108	0x39b64080	0.000347618
109	0x3d09d158	0.03364691
110	0x3d097edb	0.033568244
111	0x3cd34c20	0.025793135
112	0xbd990a61	-0.07472683
113	0x3c02023a	0.007935101
114	0xbd20eff0	-0.039291322
115	0xbe161c80	-0.1465931
116	0x3d55359c	0.05205308
117	0x3d2d84aa	0.042362846
118	0x3ccce294	0.025010385
119	0xbd8084d4	-0.06275335
120	0x3de35387	0.11099916
121	0x3caa94a2	0.020822827
122	0xbcb5a771	-0.022174569
123	0x3e44fa03	0.19235997
124	0xbd00fc1e	-0.031490438
125	0xbde5d803	-0.112228416
126	0x3e1708f8	0.14749515
127	0x3e00fcbb	0.12596409
128	0x3b955831	0.0045576324
129	0x3ccba081	0.024856808
130	0x3d8119af	0.06303727
131	0xbdaf9a05	-0.08574299
132	0x3dc48908	0.09596449
133	0xba80b320	-0.0009819008
134	0xbd3dc694	-0.046331957
135	0xbd80809c	-0.0627453
136	0xbd760cb3	-0.060070705
137	0x3b8b68d5	0.0042544403
138	0x3a9dadb8	0.0012029922
139	0xbce37ffe	-0.027770992
140	0xbd4b54ff	-0.049641605
141	0xbcda3e6c	-0.026641093
142	0xbe015c61	-0.12632896
143	0xbc99a900	-0.018757343
144	0x3d5e17a5	0.054221768
145	0xbd8ac009	-0.06774909
146	0xbd84475e	-0.06458925
147	0xbd51540e	-0.05110555
148	0x3e08aaea	0.13346449
149	0xbe30bd65	-0.17259748
150	0x3dc0d235	0.09415094
151	0xbcbdda23	-0.023175305
152	0x3d78d04a	0.060745515
153	0x3d8f8612	0.07007994
154	0xbd089e19	-0.0333539
155	0x3e009674	0.12557393
156	0x3cd7f582	0.026362184
157	0xbda403eb	-0.0800856
158	0x3dcc723b	0.09982725
159	0xbcd3aca1	-0.025839152
160	0xbd177e06	-0.03698542
161	0xbb785d0d	-0.003789726
162	0xbdc7b716	-0.09751718
163	0xbd42b0c3	-0.047531854
164	0x3e34b4bc	0.1764707
165	0x3d9b1493	0.075722836
166	0xbdbcb516	-0.09214227
167	0x3d23acc6	0.03995969
168	0xbd0a2d21	-0.033734445
169	0x3e0ddbca	0.13853374
170	0xbdf46e75	-0.119351305
171	0xbc5e5b17	-0.013571522
172	0x3debf6ea	0.115217045
173	0x3e30a552	0.17250565
174	0x3d50c4ce	0.050968938
175	0xbd175618	-0.03694734
176	0xbd2dca4f	-0.042429265
177	0xbd699d27	-0.057034638
178	0xbd202286	-0.039095424
179	0xbde0200f	-0.10943615
180	0x3dbbd348	0.09171158
181	0xbd066163	-0.03280772
182	0x3bca407c	0.006172238
183	0xbd7fa99c	-0.06241761
184	0x3be11e24	0.006870048
185	0xbc918cb0	-0.01776728
186	0xbc975ec1	-0.0184778
187	0x3b066396	0.0020506135
188	0xbc304aca	-0.010760019
189	0xbcf0b2c5	-0.029382119
190	0xbdea43cb	-0.11438712
191	0x3db213ed	0.08695207
192	0xbd5f020d	-0.054445315
193	0xbd138684	-0.036016956
194	0x3c14a430	0.0090723485
195	0x3e0e0df4	0.1387251
196	0xbd338dde	-0.043836467
197	0x3d5bebf6	0.053691827
198	0xbe31a467	-0.17347871
199	0xbbcf786d	-0.0063314945
200	0x3ca3347d	0.01992249
201	0xbd6cd319	-0.057818506
202	0xbce80632	-0.028323267
203	0x3d54862d	0.051885772
204	0x3d615a8b	0.05501799
205	0xbe016035	-0.12634356
206	0x3c422685	0.011850004
207	0x3d1751e8	0.036943346
208	0xbd24b084	-0.0402074
209	0x3d5df709	0.05419067
210	0xbc75bb55	-0.014998277
211	0xbdc74514	-0.097299725
212	0x3ca923cb	0.02064695
213	0xbdfc89b5	-0.12330953
214	0xbc45c83e	-0.012071667
215	0xbd95b4e7	-0.07309895
216	0xbd39c8a7	-0.045357373
217	0x3b65c5d8	0.003506055
218	0xbd77e826	-0.06052413
219	0xbd6677a1	-0.05626643
220	0xbdac202c	-0.08404574
221	0xbd857c38	-0.065178335
222	0x3a9221c0	0.0011148974
223	0x3dcb4d16	0.09926812
224	0x3c8501db	0.016236236
225	0xbe1e3a46	-0.15451917
226	0xbcf81cde	-0.030287202
227	0x3dd6d117	0.104890995
228	0xbd45c382	-0.048282154
229	0xbe2bbbbb	-0.16770832
230	0xbd2c3cf2	-0.04205031
231	0x3d12d232	0.03584499
232	0xbe9524c5	-0.29129615
233	0xbd6ca99b	-0.057778936
234	0xbc8c3db7	-0.017119272
235	0x3df60014	0.12011734
236	0xbd90e4fd	-0.07074926
237	0x3d4e66aa	0.050390877
238	0xbe608eb7	-0.21929441
239	0xbcffd4e4	-0.031229444
240	0xbdd6265a	-0.10456534
241	0x3c1b5033	0.00947957
242	0xbd0be9e7	-0.034158614
243	0xbd719cd4	-0.058987454
244	0x3d038ec5	0.032118578
245	0x3d5cba21	0.053888444
246	0x3b00ea2c	0.0019670827
247	0xba721bea	-0.0009235727
248	0xbbe5143b	-0.006990937
249	0xbdc3e63d	-0.09565399
250	0x3b034d54	0.0020035105
251	0xbd3e29dd	-0.046426643
252	0xbc711b52	-0.014715986
253	0xbdb0e5ce	-0.08637582
254	0x3dfe8acd	0.12428818
255	0x3dc2b9e6	0.095081136

critic.network_body.linear_encoder.seq_layers.2.bias f4 [128]
0	0x00000000	0.0
1	0x00000000	0.0
2	0x00000000	0.0
3	0x00000000	0.0
4	0x00000000	0.0
5	0x00000000	0.0
6	0x00000000	0.0
7	0x00000000	0.0
8	0x00000000	0.0
9	0x00000000	0.0
10	0x00000000	0.0
11	0x00000000	0.0
12	0x00000000	0.0
13	0x00000000	0.0
14	0x00000000	0.0
15	0x00000000	0.0
16	0x00000000	0.0
17	0x00000000	0.0
18	0x00000000	0.0
19	0x00000000	0.0
20	0x00000000	0.0
21	0x00000000	0.0
22	0x00000000	0.0
23	0x00000000	0.0
24	0x00000000	0.0
25	0x00000000	0.0
26	0x00000000	0.0
27	0x00000000	0.0
28	0x00000000	0.0
29	0x00000000	0.0
30	0x00000000	0.0
31	0x00000000	0.0
32	0x00000000	0.0
33	0x00000000	0.0
34	0x00000000	0.0
35	0x00000000	0.0
36	0x00000000	0.0
37	0x00000000	0.0
38	0x00000000	0.0
39	0x00000000	0.0
40	0x00000000	0.0
41	0x00000000	0.0
42	0x00000000	0.0
43	0x00000000	0.0
44	0x00000000	0.0
45	0x00000000	0.0
46	0x00000000	0.0
47	0x00000000	0.0
48	0x00000000	0.0
49	0x00000000	0.0
50	0x00000000	0.0
51	0x00000000	0.0
52	0x00000000	0.0
53	0x00000000	0.0
54	0x00000000	0.0
55	0x00000000	0.0
56	0x00000000	0.0
57	0x00000000	0.0
58	0x00000000	0.0
59	0x00000000	0.0
60	0x00000000	0.0
61	0x00000000	0.0
62	0x00000000	0.0
63	0x00000000	0.0
64	0x00000000	0.0
65	0x00000000	0.0
66	0x00000000	0.0
67	0x00000000	0.0
68	0x00000000	0.0
69	0x00000000	0.0
70	0x00000000	0.0
71	0x00000000	0.0
72	0x00000000	0.0
73	0x00000000	0.0
74	0x00000000	0.0
75	0x00000000	0.0
76	0x00000000	0.0
77	0x00000000	0.0
78	0x00000000	0.0
79	0x00000000	0.0
80	0x00000000	0.0
81	0x00000000	0.0
82	0x00000000	0.0
83	0x00000000	0.0
84	0x00000000	0.0
85	0x00000000	0.0
86	0x00000000	0.0
87	0x00000000	0.0
88	0x00000000	0.0
89	0x00000000	0.0
90	0x00000000	0.0
91	0x00000000	0.0
92	0x00000000	0.0
93	0x00000000	0.0
94	0x00000000	0.0
95	0x00000000	0.0
96	0x00000000	0.0
97	0x00000000	0.0
98	0x00000000	0.0
99	0x00000000	0.0
100	0x00000000	0.0
101	0x00000000	0.0
102	0x00000000	0.0
103	0x00000000	0.0
104	0x00000000	0.0
105	0x00000000	0.0
106	0x00000000	0.0
107	0x00000000	0.0
108	0x00000000	0.0
109	0x00000000	0.0
110	0x00000000	0.0
111	0x00000000	0.0
112	0x00000000	0.0
113	0x00000000	0.0
114	0x00000000	0.0
115	0x00000000	0.0
116	0x00000000	0.0
117	0x00000000	0.0
118	0x00000000	0.0
119	0x00000000	0.0
120	0x00000000	0.0
121	0x00000000	0.0
122	0x00000000	0.0
123	0x00000000	0.0
124	0x00000000	0.0
125	0x00000000	0.0
126	0x00000000	0.0
127	0x00000000	0.0

critic.value_heads.value_heads.extrinsic.weight f4 [1, 128]
0	0x3cc1d230	0.023659796
1	0x3e08c3ca	0.13355938
2	0x3d9ff138	0.07809681
3	0xbc91f200	-0.01781559
4	0xbe4d746f	-0.20063947
5	0xbe12f344	-0.14350611
6	0x3dba6f74	0.09103289
7	0x3d24df58	0.04025206
8	0xbdf9fe75	-0.12206737
9	0x3e2e7106	0.17035303
10	0xbcedee18	-0.029044196
11	0xbe095d46	-0.13414487
12	0xbe0d2a58	-0.13785684
13	0xbd205b60	-0.039149642
14	0x3d47f948	0.048821718
15	0xbd14eb10	-0.036356986
16	0xbde89c2b	-0.11357912
17	0xbcc02668	-0.023455814
18	0xbe1f4712	-0.15554455
19	0x3e2c6a6c	0.16837472
20	0xbdadc9b6	-0.08485739
21	0x3e150dae	0.14556
22	0xbe078934	-0.13235933
23	0xbe043f40	-0.12914753
24	0x3dc192e4	0.09451845
25	0x3dfad040	0.12246752
26	0x3e293abe	0.16526315
27	0x3e2e8f78	0.17046916
28	0xbd874572	-0.066050425
29	0xbe07b0d7	-0.13251053
30	0x3e487b6a	0.19578329
31	0x3e5622b6	0.20911679
32	0xbd87dde2	-0.06634118
33	0xbe1e94dd	-0.15486474
34	0xbc5fa1d0	-0.013649419
35	0xbddc8397	-0.10767286
36	0x3dee6c48	0.11641747
37	0xbd8c83bc	-0.06861064
38	0xbe3b5c65	-0.18296964
39	0x3da999fc	0.08281323
40	0xbdd7736d	-0.105200626
41	0xbd262e1c	-0.040571317
42	0x3e2e92ce	0.17048189
43	0xbdb688fc	-0.089128464
44	0xbdc3eee0	-0.09567046
45	0xbe1eda31	-0.15512921
46	0xbe205f56	-0.15661368
47	0xbce99348	-0.028512612
48	0xbda33588	-0.07969195
49	0xbe43e081	-0.1912861
50	0x3e435b96	0.19077906
51	0x3b8e5a80	0.0043442845
52	0x3d7907c0	0.060798407
53	0x3dd57114	0.104219586
54	0xbe30ddb4	-0.17272073
55	0xbe1bb96a	-0.15207449
56	0x3ddc1b38	0.10747379
57	0xbe1cf256	-0.15326819
58	0xbe2c2934	-0.16812593
59	0xbcb57e30	-0.022154897
60	0x3e499d8e	0.19689009
61	0xbdd3dbe5	-0.10344676
62	0x3c67d0b0	0.014148876
63	0x3db97808	0.09056097
64	0xbcebc3f0	-0.028779954
65	0x3d141340	0.03615117
66	0xbe3bb178	-0.18329418
67	0x3e289ec6	0.16466817
68	0xbe4a4dc7	-0.19756232
69	0xbe4bf092	-0.19915989
70	0x3d076510	0.033055365
71	0x3c9d1a38	0.019177541
72	0xbdb1c0aa	-0.08679326
73	0x3dbe09b8	0.092791975
74	0x3db671a0	0.08908391
75	0xbdf5ce76	-0.1200227
76	0xbd242ac4	-0.040079847
77	0x3e394e56	0.18096289
78	0xbe1c12b0	-0.15241504
79	0xbe4ffcd3	-0.20311289
80	0xbe07b309	-0.1325189
81	0x3e4e7ab8	0.20164001
82	0xbdc56479	-0.09638304
83	0xbd751ddc	-0.05984293
84	0xbd182884	-0.037148014
85	0xbdd4ec33	-0.10396614
86	0x3d5ed978	0.054406613
87	0x3e50cca6	0.20390567
88	0xbcd27de0	-0.025694788
89	0x3d2045a8	0.03912893
90	0xbe05ed60	-0.13078833
91	0xbe0e2dbe	-0.13884637
92	0x3d01be7c	0.0316758
93	0xbe082b9a	-0.13297883
94	0x3da79738	0.081831396
95	0xbd4107c0	-0.04712653
96	0x3da4fb50	0.080557466
97	0xbdf59bee	-0.11992632
98	0xbdb7bbfe	-0.089714035
99	0x3c4c97b0	0.012487337
100	0x3dbb0e0c	0.091335386
101	0x3e358c38	0.1772927
102	0xbc699e30	-0.014258906
103	0xbe228d1d	-0.15874143
104	0xbda114f4	-0.078653246
105	0xbd043520	-0.032277226
106	0xbdec3731	-0.115339644
107	0x3e3102da	0.17286244
108	0x3e57132c	0.21003407
109	0x3e2c6a00	0.16837311
110	0xbc2bb860	-0.01048097
111	0x3d83dc84	0.064385444
112	0x3c293070	0.01032649
113	0x3e400d0e	0.1875498
114	0x3e23abda	0.15983525
115	0x3dd04b8c	0.101706594
116	0xbe0f2c78	-0.13981807
117	0xbd91431e	-0.0709288
118	0x3daa4f28	0.08315879
119	0xbd4e4ba4	-0.050365105
120	0xbd2caf48	-0.04215935
121	0xbdb6fc2a	-0.08934815
122	0x3db7a108	0.08966261
123	0xbe06a2b2	-0.13148001
124	0xbd658890	-0.05603844
125	0x3e2827b4	0.16421396
126	0xbe3a5d1e	-0.18199584
127	0x3d890e48	0.06692177
