Unity - Crypto Ball/results/ppo/My Behavior/My Behavior-116626.pt (torch, 438431 bytes, 36 tensors)

network_body.linear_encoder.seq_layers.0.weight f4 [128, 6]
-0.24337476 -0.4691986 0.8105619 0.012570094 0.19967635 -0.13747135 0.36423665 -0.1367874
0.49247923 -0.0063934918 0.14592919 -0.72039646 1.0599335 0.7141188 0.33156326 -0.2941976
-0.5340887 0.46931604 -0.35697305 -0.090781376 0.8641628 -0.28431195 -1.2072749 -0.16018029
0.1686313 -0.2030513 -0.17467931 -0.08597465 0.18251407 -0.23528138 0.5770517 -0.68843454
0.18862009 0.5245238 0.11702101 -0.47930375 -0.803375 -0.14723383 -0.0619837 -0.62283343
-0.35691404 0.24392238 0.016516663 0.6219464 0.010113487 -0.5773005 0.2643829 0.26902953
-0.14969634 -0.13750629 -0.27201217 -0.60354257 0.44871858 0.36212575 0.21886256 0.3325294
0.65205365 -0.22320543 -0.041687913 -0.113422126 0.36625576 -0.7170036 0.51893216 -0.28987226
0.09402118 0.22238694 -0.50154084 0.28819492 -0.4302095 0.83150053 0.7852301 0.20749782
0.06600285 -0.48068064 0.061400875 0.3622155 -0.32457936 -0.08758073 -0.78014636 -0.4399217
-0.6191538 -0.15590113 -0.14784153 0.27530456 0.22806266 0.14543991 0.46757248 -0.23449421
-0.33464342 -0.1303766 0.45592046 -0.33367667 -0.18119973 -0.410651 -0.7051596 -0.21355475
0.22344086 0.48816305 0.2664392 -0.15530238 -0.54341376 -0.18402348 -0.5626128 -0.48653188
-0.29678613 -0.09036093 0.3754113 0.09027932 0.01595665 0.82055044 0.18612885 0.30346963
0.064086005 -0.5387388 -0.26292443 0.25952777 0.5874266 0.16968003 -0.50664407 0.51162755
-0.2095915 -0.13374254 0.41029102 0.5114288 0.34632507 -0.93417877 0.88544756 0.29810748
0.15488596 -0.1751483 -0.55814517 0.27224666 -0.0447388 0.45408675 0.3221499 -0.73170096
-0.06193537 0.33277142 -0.20376788 0.31056216 -0.0025971062 0.42099932 0.34461766 0.23980215
0.019717664 0.5681415 0.41599908 -0.011205846 0.14985412 -0.21551813 -0.053618398 0.2574747
-0.6043272 0.36064386 -0.22471581 -0.00695258 0.17679168 -0.53275114 0.21751606 -0.30707663
-0.006573609 0.14884819 0.66951877 -0.47294495 -0.098433 0.30661076 0.5229124 -0.03356843
0.14659624 -0.3797764 0.39352044 -0.588658 -0.051387087 0.96396846 0.30957 0.015289733
0.48724467 -0.3478635 -0.24106911 0.17647696 -0.5075165 -0.087692745 0.15210971 -0.29412395
-0.18723452 0.123372175 0.074209295 0.3147768 -0.040725533 0.14906701 -0.42228293 -0.13712995
-0.020923905 0.26492357 -0.055362012 -0.18422943 0.22170956 -0.026159147 0.35053653 -0.06709425
0.20820804 0.29479653 0.23917092 -0.013888343 0.1119408 0.2724254 0.11383964 -0.5495454
-0.23778176 -0.09189344 0.43209377 -0.33759543 0.13405547 -0.8051559 -0.57614976 0.25141123
0.22664316 -0.055173915 -0.72931767 0.19502391 0.12487339 -0.19217877 0.18335828 -0.15982172
-0.62839335 0.25079295 -0.120068215 -0.8099606 0.3553116 -0.08545362 0.0752653 0.1877335
-0.039673507 -0.8688464 0.15761794 0.8849571 -0.38632664 -0.008950276 -0.5096781 0.13148032
0.3877244 0.29675686 -0.113600485 -0.125899 -0.5445201 0.11637174 0.43714997 -0.5415867
-0.49475038 0.21500477 0.33877897 -0.12130884 0.110957704 -0.120926596 -0.4916938 -0.73449045
00000000: 3c37 79be cd3a f0be fc80 4f3f ccf2 4d3c
00000010: f577 4c3e 4ac5 0cbe 3a7d ba3e ff11 0cbe
00000020: 3d26 fc3e 7f80 d1bb 766e 153e e76b 38bf
00000030: e7ab 873f 7dd0 363f a9c2 a93e 11a1 96be
00000040: 09ba 08bf 314a f03e 2cc5 b6be 96eb b9bd
00000050: c639 5d3f 5691 91be fc87 9abf 4d06 24be
00000060: afad 2c3e aeec 4fbe 22df 32be 7a13 b0bd
00000070: f8e4 3a3e 9aed 70be a9b9 133f 3f3d 30bf
00000080: a025 413e 3147 063f b6a8 ef3d 4d67 f5be
00000090: fca9 4dbf 77c4 16be 9fe2 7dbd 0372 1fbf
000000a0: 70bd b6be cac6 793e f44d 873c e137 1f3f
000000b0: 0ab3 253c f7c9 13bf 325d 873e 3dbe 893e
000000c0: ff49 19be 73ce 0cbe 2e45 8bbe c481 1abf
000000d0: 71be e53e 8c68 b93e 821d 603e 4b41 aa3e
000000e0: fdec 263f f78f 64be f2c0 2abd dc49 e8bd
000000f0: e085 bb3e 8c8d 37bf bdd8 043f 236a 94be
00000100: 2d8e c03d 67b9 633e fb64 00bf 498e 933e
00000110: 6b44 dcbe 38dd 543f d704 493f 4f7a 543e
00000120: 812c 873d c61b f6be 7c7f 7b3d 4f74 b93e
00000130: 442f a6be 875d b3bd acb7 47bf 6b3d e1be
00000140: dd80 1ebf 8ca4 1fbe c563 17be b8f4 8c3e
00000150: 4289 693e 33ee 143e a965 ef3e 401f 70be
00000160: 6256 abbe 7281 05be 686e e93e abd7 aabe
00000170: 6c8c 39be d940 d2be 5785 34bf 19ae 5abe
00000180: aecd 643e 82f0 f93e b86a 883e 9607 1fbe
00000190: 2a1d 0bbf a770 3cbe 6407 10bf b51a f9be
000001a0: 5af4 97be 270f b9bd e935 c03e 5de4 b83d
000001b0: 85b7 823c 980f 523f 9098 3e3e 5f60 9b3e
000001c0: 863f 833d c9ea 09bf 089e 86be d3e0 843e
000001d0: 9761 163f 9ac0 2d3e 6db3 01bf 06fa 023f
000001e0: 279f 56be cef3 08be aa11 d23e ffec 023f
000001f0: 8551 b13e 5726 6fbf b1ac 623f 8ba1 983e
00000200: 6d9a 1e3e 135a 33be 9ae2 0ebf ea63 8b3e
00000210: 0840 37bd 0f7e e83e d5f0 a43e c150 3bbf
00000220: f1af 7dbd 0461 aa3e 87a8 50be 0102 9f3e
00000230: 3634 2abb 398d d73e ba71 b03e b28e 753e
00000240: f086 a13c b971 113f d5fd d43e ba98 37bc
00000250: 5c73 193e c9b0 5cbe f79e 5bbd b9d3 833e
00000260: 30b5 1abf 50a6 b83e e71b 66be 78d2 e3bb
00000270: e108 353e 6162 08bf 88bc 5e3e 2639 9dbe
00000280: 6e67 d7bb a96b 183e 9565 2b3f d725 f2be
00000290: 3e97 c9bd 16fc 9c3e 96dd 053f 0d7f 09bd
000002a0: 531d 163e 0d72 c2be 837b c93e 4ab2 16bf
000002b0: 447b 52bd a3c6 763f f67f 9e3e ca81 7a3c
000002c0: 2278 f93e 2a1b b2be d2da 76be 60b6 343e
000002d0: 9aec 01bf 4198 b3bd a6c2 1b3e 6a97 96be
000002e0: 68ba 3fbe 8daa fc3d 0bfb 973d 6d2a a13e
000002f0: d1cf 26bd 06a5 183e 7835 d8be cb6b 0cbe
00000300: 9c68 abbc 10a4 873e 47c3 62bd a4a6 3cbe
00000310: d507 633e b54b d6bc 8679 b33e b668 89bd
00000320: 7d34 553e 92ef 963e 39e9 743e ef8b 63bc
00000330: 3841 e53d 587b 8b3e c224 e93d 02af 0cbf
00000340: 107d 73be a132 bcbd 653b dd3e 4fd9 acbe
00000350: d645 093e b21e 4ebf 8d7e 13bf f9b8 803e
00000360: 2515 683e 0bfe 61bd 90b4 3abf 59b4 473e
00000370: 9fbd ff3d 83ca 44be 46c2 3b3e 4ea8 23be
00000380: 63de 20bf ef67 803e 53e6 f5bd 9459 4fbf
00000390: 67eb b53e 4f02 afbd b224 9a3d 363d 403e
000003a0: b080 22bd b86c 5ebf 9966 213e 8c8c 623f
000003b0: 9bcc c5be 2ea4 12bc 447a 02bf c7a2 063e
000003c0: d083 c63e 84f0 973e 5fa7 e8bd abeb 00be
000003d0: ab65 0bbf 4f54 ee3d 1fd2 df3e 6da5 0abf
000003e0: ec4f fdbe 362a 5c3e 7074 ad3e c570 f8bd
000003f0: cb3d e33d 5da8 f7bd 4abf fbbe 9107 3cbf

network_body.linear_encoder.seq_layers.0.bias f4 [128]
-0.008083061 -0.004554646 0.0035017596 -0.006597057 0.0053692525 0.004767576 0.004825885 -0.004428121
-0.0009722683 -0.0030567383 0.001767228 -0.0008821487 -0.0049869465 -0.0008045275 -0.005745632 0.0002464425
-0.0027391345 -0.0015947542 0.00080924324 0.0027751743 -0.008371913 -0.007001334 0.0021770955 0.0029743016
-0.00085245725 -0.0025528378 0.00816929 -7.9293946e-05 0.0030491988 0.0040577194 -0.004678703 -0.0032089339
0.008327481 -0.002490324 -0.003972552 -0.00045405942 -0.0029487384 -0.0053726784 -0.008137048 -0.001537391
0.00022891483 -0.005560417 -0.0026023302 0.001450642 -0.005350479 -0.0045314375 0.0007561098 0.00029904002
-0.006453338 -0.0055360384 0.00262483 -0.0011173699 -0.00072308135 -0.016214808 -0.0020876233 0.0015986998
0.0033358133 0.0031761758 0.0020608935 -0.006004781 -0.002211052 -0.0054315203 -0.00043248534 -0.0016875997
-0.0024352993 0.0026606289 -0.011675028 0.00012688572 -0.0010817015 -0.0030037346 -0.006189782 -0.0020451443
-0.004545888 -0.00066504284 0.008533247 -0.0028542902 -0.004433874 0.00078575354 0.0070699016 -0.0010051
-0.0013430592 0.0013628067 -0.008408222 -0.0043513565 -0.002048346 -0.0008563311 -0.00036719587 -0.003692319
-0.005305227 -6.7506066e-05 0.00018631665 -0.0049421433 -0.004247955 0.0022403668 -0.0026401216 -0.002979103
-0.0013886725 0.002193805 0.001812006 -0.005550508 0.0053302543 0.0055987732 0.00031612485 -0.0062747207
-0.0149848405 0.0005262469 -0.004771494 -0.004791072 -0.003224424 -0.0037390543 0.004957798 -0.0031868252
0.0005659063 -0.004488733 0.0030875332 -0.0046704966 -0.0024999604 0.00092482334 -0.0073640994 -0.0039140363
-0.0051312787 -0.005451205 -0.0035340032 -0.003029586 -0.0014415734 2.3852635e-05 -0.005934988 -0.0016323186
00000000: d16e 04bc 243f 95bb c77d 653b 202c d8bb
00000010: 8ef0 af3b 5439 9c3b 7522 9e3b c519 91bb
00000020: d2df 7eba 8f53 48bb 55a2 e73a ff3f 67ba
00000030: 8a69 a3bb ede6 52ba db45 bcbb f434 8139
00000040: 0d83 33bb 1207 d1ba 6523 543a b3df 353b
00000050: 592a 09bc 726b e5bb 9aad 0e3b 80ec 423b
00000060: 7077 5fba 834d 27bb 7cd8 053c 9d4a a6b8
00000070: 11d5 473b 9ef6 843b ce4f 99bb fa4c 52bb
00000080: fd6f 083c b434 23bb 2e2c 82bb d30e eeb9
00000090: 9f3f 41bb 4b0d b0bb 4151 05bc 4882 c9ba
000000a0: db08 7039 2934 b6bb db8b 2abb 7823 be3a
000000b0: 1253 afbb 747c 94bb ab35 463a 79c8 9c39
000000c0: 8676 d3bb a867 b5bb 5705 2c3b b674 92ba
000000d0: 2b8d 3dba ebd4 84bc 82d0 08bb 778b d13a
000000e0: a99d 5a3b 6327 503b 0e10 073b c1c3 c4bb
000000f0: 4ce7 10bb e5fa b1bb 33bf e2b9 7332 ddba
00000100: 8b99 1fbb f25d 2e3b 9e48 3fbc a00c 0539
00000110: e1c7 8dba 4eda 44bb a8d3 cabb d407 06bb
00000120: acf5 94bb 4556 2eba 08cf 0b3c 0b0f 3bbb
00000130: 084a 91bb 07fb 4d3a a2aa e73b 8fbd 83ba
00000140: 9709 b0ba 34a0 b23a a4c2 09bc d395 8ebb
00000150: 8b3d 06bb 687b 60ba 3284 c0b9 d5fa 71bb
00000160: 78d7 adbb 0b92 8db8 ff5d 4339 b4f1 a1bb
00000170: 6e32 8bbb 1ed3 123b e405 2dbb 0e3d 43bb
00000180: 1e04 b6ba f1c5 0f3b d580 ed3a 09e1 b5bb
00000190: 6aa9 ae3b ea75 b73b 8fbd a539 2c9c cdbb
000001a0: fa82 75bc d5f3 093a 315a 9cbb 6dfe 9cbb
000001b0: dc50 53bb ec0a 75bb 0675 a23b 0eda 50bb
000001c0: 5459 143a 3916 93bb 3658 4a3b f70a 99bb
000001d0: 60d6 23bb d86f 723a 8b4e f1bb 5141 80bb
000001e0: 4924 a8bb 06a0 b2bb bc9a 67bb 058c 46bb
000001f0: 2df3 bcba 2517 c837 4a7a c2bb 86f3 d5ba

network_body.linear_encoder.seq_layers.2.weight f4 [128, 128]
-0.07115042 -0.02192025 -0.10264196 0.001693773 0.09334484 -0.0021631692 -0.08708513 -0.045361556
0.13791163 -0.11740314 0.135296 -0.08401955 0.07014191 0.047620855 0.10502126 0.022512326
-0.011912501 -0.053162556 -0.13553135 -0.0403763 -0.09608181 -0.10343301 -0.11875173 -0.17468005
-0.05071782 0.1718564 -0.04879494 0.031159075 0.090981424 -0.00030705635 0.011359021 0.007916979
-0.07667881 0.027398184 0.026822971 -0.11202638 0.014116433 0.109160304 0.011949593 0.062120825
0.028526232 0.009372206 -0.0069860774 -0.10903426 0.10398454 -0.004979167 0.06041459 -0.05664813
0.010947836 -0.047139365 0.08501125 0.013553366 0.11458632 -0.16375898 0.04098069 0.0045402334
0.005186926 0.17056856 -0.0057844897 0.10293748 -0.01688551 -0.0060765734 0.050151687 -0.017660292
0.05867658 0.11241044 0.15587002 -0.034533594 -0.024742827 0.03306491 -0.114843376 0.096501425
0.023944816 -0.0411223 -0.05874261 0.06265896 -0.07701419 -0.13988571 -0.16025287 0.10535454
-0.06802001 -0.04360108 0.13517664 -0.013860162 -0.06739094 -0.04163001 -0.1075504 -0.10251346
-0.03322666 0.12859917 0.0075705606 0.01570308 -0.025725681 0.10629512 0.008287257 -0.021201674
-0.039494675 -0.06357099 0.102079555 -0.06722889 0.037336167 -0.053098805 -0.053550698 0.058890775
-0.03561571 -0.17863645 0.055752143 0.019716067 -0.06374281 -0.09983701 -0.055964574 0.05667894
-0.19770181 -0.053450998 0.07590115 -0.035126336 -0.19088733 0.045512088 -0.046546496 0.0025645236
0.06986179 -0.028649667 0.09515477 -0.09840752 -0.023888888 -0.09812046 -0.066685095 -0.04594853
0.026902823 -0.14264736 0.110882804 0.037610456 0.011448458 -0.13633223 0.11256676 -0.07097877
0.023018347 0.059340913 -0.041799396 0.074262284 -0.066843666 -0.110202305 -0.042223252 0.0037324792
-0.08074125 0.07672879 -0.0633169 -0.031541973 -0.12647372 -0.03176674 -0.073180094 0.040772635
0.14293544 0.13259833 -0.05630226 -0.0072221025 -0.062272348 0.012609199 0.06672663 0.1242434
0.028450374 -0.20965435 0.09684006 -0.036597606 -0.13370813 -0.013542123 0.02818101 -0.0063952673
0.089113474 -0.018817974 -0.08301817 0.0054145176 -0.02063056 0.030404285 -0.018437898 -0.017787412
-0.033126943 -0.03574729 0.12410823 0.2162824 0.051626995 0.22980823 -0.14953342 0.1237362
0.049246326 -0.017553456 0.020596374 -0.00900245 0.02268076 0.120031536 0.014205871 -0.0579365
0.062102832 -0.062206518 -0.037385363 0.06482837 0.16788578 -0.11579242 0.23976254 0.089863144
0.005971491 0.119865045 -0.12550958 0.08341308 0.23441154 0.06994157 0.12342254 -0.08908642
-0.04973636 0.05761536 0.07017302 0.070826486 -0.1403262 -0.0105957175 -0.006901978 -0.07042842
-0.11785526 0.15511869 -0.031669747 0.07198755 0.027895747 -0.06831501 0.06928762 0.017770164
-0.005043835 -0.060804714 -0.026318556 0.15318312 -0.09524447 -0.1217664 -0.19606629 0.0023521802
-0.0014708549 0.112755515 0.018312095 0.06414535 -0.018855967 -0.07814146 -0.01860661 -0.0584232
0.08149243 -0.014345968 0.044879206 0.08454102 -0.009481074 -0.008897445 0.24408309 -0.079316445
-0.13579501 0.007698945 0.023200583 -0.025315698 -0.09296426 -0.0053668567 0.10468913 0.052599363
00000000: 50b7 91bd 1992 b3bc f335 d2bd 9701 de3a
00000010: 942b bf3d f5c3 0dbb b059 b2bd 0acd 39bd
00000020: b538 0d3e 0f71 f0bd 098b 0a3e 7112 acbd
00000030: 90a6 8f3d 160e 433d 6315 d73d c56b b83c
00000040: a72c 43bc fbc0 59bd bbc8 0abe 9f61 25bd
00000050: 8ac6 c4bd b0d4 d3bd 1b34 f3bd 54df 32be
00000060: 7dbd 4fbd 20fb 2f3e 34dd 47bd 5141 ff3c
00000070: 7854 ba3d 68fc a0b9 301b 3a3c 37b6 013c
00000080: c809 9dbd 2872 e03c d9bb db3c 166e e5bd
00000090: 9d48 673c 708f df3d 3ac8 433c 6872 7e3d
000000a0: d8af e93c e28d 193c 77eb e4bb 5b4d dfbd
000000b0: d9f5 d43d 4828 a3bb 4a75 773d df07 68bd
000000c0: 8d5e 333c 3515 41bd 611a ae3d f00e 5e3c
000000d0: 3cac ea3d 6fb0 27be 5edb 273d 3dc6 943b
000000e0: 17f7 a93b 86a9 2e3e d18b bdbb e3d0 d23d
000000f0: 7b53 8abc fe1d c7bb db6b 4d3d 51ac 90bc
00000100: db56 703d 7237 e63d 649c 1f3e 1973 0dbd
00000110: 78b1 cabc 126f 073d 0133 ebbd 8aa2 c53d
00000120: eb27 c43c db6f 28bd 179c 70bd 5753 803d
00000130: 9eb9 9dbd 333e 0fbe 5419 24be 1fc4 d73d
00000140: 134e 8bbd 0c97 32bd bf6b 0a3e bc15 63bc
00000150: 4304 8abd 3b84 2abd 6243 dcbd 94f2 d1bd
00000160: ae18 08bd 80af 033e 7712 f83b bfa3 803c
00000170: aabe d2bc 42b1 d93d 46c7 073c 22af adbc
00000180: 2bc5 21bd 8231 82bd 160f d13d 4daf 89bd
00000190: cfed 183d 227e 59bd fa57 5bbd 7437 713d
000001a0: c7e1 11bd 79ec 36be 5c5c 643d 9783 a13c
000001b0: 978b 82bd 5977 ccbd 1c3b 65bd 2d28 683d
000001c0: 5872 4abe 6fef 5abd 1072 9b3d a2e0 0fbd
000001d0: f877 43be e26a 3a3d 8aa7 3ebd 9111 283b
000001e0: b313 8f3d b5b2 eabc 81e0 c23d e289 c9bd
000001f0: a1b2 c3bc 61f3 c8bd 3292 88bd 8734 3cbd
00000200: 4f63 dc3c 2612 12be 8616 e33d 6c0d 1a3d
00000210: 5092 3b3c ad9a 0bbe 6789 e63d 515d 91bd
00000220: f990 bc3c 750f 733d d835 2bbd d316 983d
00000230: 55e5 88bd bfb1 e1bd 4af2 2cbd 9c9c 743b
00000240: ab5b a5bd fc23 9d3d 4aac 81bd 2832 01bd
00000250: 5482 01be d71d 02bd 72df 95bd 3501 273d
00000260: ab5d 123e dbc7 073e 339d 66bd 63a7 ecbb
00000270: 4a11 7fbd d096 4e3c f9a7 883d 5373 fe3d
00000280: c210 e93c a1af 56be 1554 c63d 5fe7 15bd
00000290: c9ea 08be c8df 5dbc dddb e63c 648f d1bb
000002a0: 2081 b63d 2728 9abc 6e05 aabd 446c b13b
000002b0: 6c01 a9bc 6812 f93c 130b 97bc e8b6 91bc
000002c0: 1eb0 07bd c06b 12bd 752c fe3d 2279 5d3e
000002d0: d476 533d d952 6b3e 4a1f 19be 6869 fd3d
000002e0: 84b6 493d 44cc 8fbc bab9 a83c 037f 13bc
000002f0: 00cd b93c 18d3 f53d bebf 683c d34e 6dbd
00000300: 8a5f 7e3d 43cc 7ebd 6521 19bd bdc4 843d
00000310: 40ea 2b3e 9424 edbd 5084 753e 2b0a b83d
00000320: 7fac c33b ce7b f53d 9585 00be 7ad4 aa3d
00000330: 9409 703e 873d 8f3d f5c4 fc3d f172 b6bd
00000340: 5ab8 4bbd 15fe 6b3d dfb6 8f3d 7a0d 913d
00000350: acb1 0fbe a999 2dbc fd29 e2bb c73c 90bd
00000360: 195e f1bd 6fd7 1e3e 23b8 01bd 356e 933d
00000370: 9f85 e43c bde8 8bbd abe6 8d3d bc92 913c
00000380: c146 a5bb 5d0e 79bd 039a d7bc 09dc 1c3e
00000390: 880f c3bd aa60 f9bd 9ac5 48be 0927 1a3b
000003a0: b3c9 c0ba 5dec e63d 3f03 963c a35e 833d
000003b0: d477 9abc a108 a0bd e46c 98bc 2a4d 6fbd
000003c0: 81e5 a63d 5a0b 6bbc 42d3 373d d823 ad3d
000003d0: 8256 1bbc 97c6 11bc ebf0 793e a970 a2bd
000003e0: d90d 0bbe 6e47 fc3b 260f be3c de62 cfbc
000003f0: 0c64 bebd 75dc afbb 4167 d63d 6e72 573d

network_body.linear_encoder.seq_layers.2.bias f4 [128]
-0.0021227822 -0.0025937157 0.0060824216 -0.0008133528 0.026475737 -0.0020812543 0.001197158 -0.0028152287
-0.005226033 -0.008377323 -0.00018369174 -0.002977951 -0.0030507906 0.0029911299 0.0013612156 -0.0024079913
-0.0083995545 -0.0059627094 -0.0029299909 0.0052123456 -0.0036359439 -0.0047976845 -0.001638625 0.000719391
-0.0039918427 0.0031989105 -0.0046486086 0.016979164 0.0049407096 0.0029688836 -0.0054688053 -0.0016825612
-0.0009294001 -0.0011182446 -0.0033939977 0.0042615705 -0.0052802116 -0.0028021864 -0.0012377069 -0.00031623308
-0.003663747 -0.00016864858 0.004483817 6.1791696e-05 -0.0024881698 -0.00012918646 -0.00045768774 -0.0005806037
0.0012031292 0.00620761 -0.006299356 -0.0035581377 0.0021196038 -0.002071189 -0.0020520308 0.00019171364
-0.002909446 0.0007602963 -0.004573731 -0.00084309984 0.003120872 0.0031044798 -0.0005679841 0.002497705
0.00085294363 -0.0006074366 0.0028486298 -0.0011069946 -0.005756308 -0.0020598802 -8.707681e-05 -0.0039554797
-0.0009014285 -0.0021306712 0.0004706415 -0.003299812 -0.000947922 -0.002734402 -0.0027755098 -0.0026683225
-0.0039262744 -0.0006003674 -0.004669079 -0.0049221646 -0.0036734627 -0.00047099596 -0.0037881883 0.0025867375
0.0017074673 -0.004867039 -0.0046982393 -0.010139311 -0.003513804 -0.0003799268 -0.0003279713 0.00015478005
-0.0009384536 -0.0023098618 -0.001385784 -0.006259436 -0.008060545 0.0007723654 -0.004703373 0.0030317588
0.0024543037 0.0007576904 0.0006275101 0.00022193913 1.3581666e-06 0.006046856 -0.0037100518 -0.0032864201
-0.0027069887 -0.0033269946 -0.0011246045 -0.004258921 -0.003175867 0.0036936598 -0.0014109968 0.0017676114
-0.0076341517 -0.0028523738 0.001408392 -0.0019900354 0.002613337 -0.007100751 0.0033850688 -0.006502626
00000000: 601e 0bbb 54fb 29bb 0d4f c73b 2f37 55ba
00000010: a5e3 d83c a765 08bb f5e9 9c3a b37f 38bb
00000020: 243f abbb 0a41 09bc 609d 40b9 ba29 43bb
00000030: c6ef 47bb d506 443b d16a b23a 64cf 1dbb
00000040: 499e 09bc d562 c3bb 1705 40bb 53cc aa3b
00000050: 0449 6ebb e535 9dbb 22c7 d6ba 8395 3c3a
00000060: 01ce 82bb d0a4 513b 5b53 98bb e317 8b3c
00000070: ade5 a13b 9a91 423b aa33 b3bb 6389 dcba
00000080: fca2 73ba 1092 92ba d56d 5ebb a5a4 8b3b
00000090: a005 adbb e3a4 37bb 8d3a a2ba 16cc a5b9
000000a0: 7a1b 70bb 42d7 30b9 fcec 923b 2a96 8138
000000b0: 9010 23bb 3a76 07b9 cff5 efb9 a833 18ba
000000c0: 51b2 9d3a 3569 cb3b d46a cebb a52f 69bb
000000d0: 0de9 0a3b c9bc 07bb 5d7b 06bb bd06 4939
000000e0: 67ac 3ebb 9f4e 473a 3ddf 95bb 7903 5dba
000000f0: 8b87 4c3b 8774 4b3b c5e4 14ba 89b0 233b
00000100: 1498 5f3a 613c 1fba 14b0 3a3b 9318 91ba
00000110: 699f bcbb 0eff 06bb 029d b6b8 f89c 81bb
00000120: d84d 6cba bba2 0bbb 6fc0 f639 a941 58bb
00000130: f87d 78ba a733 33bb 54e5 35bb 06df 2ebb
00000140: faa7 80bb f961 1dba 13ff 98bb 1c4a a1bb
00000150: 7abe 70bb 02f0 f6b9 4143 78bb 4186 293b
00000160: 18cd df3a af7b 9fbb b0f3 99bb 5a1f 26bc
00000170: d947 66bb e930 c7b9 90f3 abb9 744c 2239
00000180: 8e02 76ba 0d61 17bb 32a3 b5ba f41b cdbb
00000190: 6010 04bc 9178 4a3a c11e 9abb 79b0 463b
000001a0: 62d8 203b be9f 463a 7d7f 243a 55b8 6839
000001b0: 404a b635 b424 c63b 5724 73bb fb60 57bb
000001c0: bc67 31bb b509 5abb 7767 93ba 6b8e 8bbb
000001d0: 3522 50bb 5411 723b 32f1 b8ba 32af e73a
000001e0: e827 fabb e4ee 3abb cb99 b83a 416b 02bb
000001f0: 8544 2b3b 6bad e8bb 08d8 5d3b fb13 d5bb

action_model._continuous_distribution.log_sigma f4 [1, 2]
0.022184493 0.030616852
00000000: 41bc b53c 31d0 fa3c

action_model._continuous_distribution.mu.weight f4 [2, 128]
0.0017910537 -0.018772075 0.0027753161 0.0069624274 -0.00886684 0.006683302 0.0064623347 0.022339866
-0.0013776659 0.032106336 0.027624562 -0.020592974 -0.011507109 -0.004541352 -0.018009823 0.0014769066
0.003384014 -0.002744442 0.0188246 -0.029219342 0.030334348 -0.002066694 -0.015982158 -0.007844237
-0.009682598 -0.013877681 -0.008996586 0.048919212 -0.02587124 0.010491534 0.0018342742 -0.008779443
0.011496952 0.019478275 0.011737172 -0.019719174 0.0022749018 0.012006841 -0.01620512 0.014618238
-0.00789325 -0.00632303 -0.024868576 -0.010755824 0.011314938 -0.010507742 0.000103417566 0.046183564
-0.018015856 -0.010778992 0.01648477 0.017170005 0.026540836 0.011364788 -0.0026266088 0.009789063
0.022215134 0.012323839 0.0029392743 -0.009340159 0.010697594 -0.022874225 -9.4740855e-05 -0.008806044
-0.009739407 0.043744612 -0.0011678765 0.038633447 0.008440625 0.03633354 0.002393476 -0.00060196494
0.011896646 0.0072310027 -0.010033192 0.009006282 0.032216337 0.001065565 0.00467359 -0.0070570074
-0.04066878 0.0001539879 -0.0027512843 0.000711455 0.01812778 -0.010092349 0.01999258 0.02205364
0.006733319 0.011769663 -0.009305456 0.003407572 0.033075497 -0.024415776 -0.0026750965 -0.02935004
0.024819829 0.0028397788 0.0007028634 0.013834848 0.0014189717 -0.043935288 -0.0030446572 0.005175756
-0.023801612 0.009661688 -0.004073683 -0.0041387468 0.021773115 0.00512456 0.0035328295 -0.0002134969
0.04554045 -0.01160357 -0.0015789834 -0.00550915 0.023272768 -0.021933211 0.0054549943 -0.036241904
-0.0008302337 -0.00805853 -0.03327501 -0.02359188 0.00078670954 0.0065049627 0.017238043 0.011596177
0.010107905 -0.023787938 -0.011796773 0.009293285 0.04621656 0.006243023 0.0021205451 -0.003278965
0.0107912 0.004432263 0.05209051 0.0010002316 0.015775267 0.013120328 0.0014849195 0.0028110074
0.00075797836 0.0012286602 -0.002922917 0.027110748 0.006628609 -0.011437452 -0.013849783 -0.00075348833
-0.0061346665 0.004222594 0.011977738 0.005099883 0.010014656 0.016578399 0.009628963 -0.035388708
0.029045515 -0.010273491 -0.004172659 0.010622059 -0.01186053 -0.012715649 -0.004920111 0.025444668
-0.004352559 -0.0020752416 -0.028089521 0.0018104098 0.017166272 0.006501112 -0.014699671 -0.02407665
-0.032926604 0.0181705 0.007902751 -0.008463239 -0.024904318 -0.012010805 -0.026727358 -0.014675089
-0.01922903 0.03260373 -0.0061137616 -0.010916462 -0.013446745 -0.0064643966 0.019637791 0.0014901588
0.0024197528 -0.00072617776 0.03830464 0.048677713 -0.011784363 0.010164211 0.016306315 0.00075212383
0.026666831 0.00264549 2.6854608e-05 -0.0012656491 0.027788315 0.023981644 0.01048889 -0.0003428674
-0.039735567 -0.015852133 -0.010679833 0.043313902 -0.009435123 -0.007772893 -0.011681729 -0.044027284
0.012734715 0.0050461697 -0.014286261 -0.00077697414 0.017197821 0.014237329 -0.006934716 0.00369126
-0.008404108 -0.007913893 -0.012755244 -0.009055379 0.013962765 0.005776496 -0.0041861623 0.009534116
-0.011995249 0.008485395 0.010234024 -0.0022993067 0.0011923265 0.033757456 -0.024852144 0.012421537
-0.019434707 -0.040859632 0.007226506 0.019496636 -0.029381147 0.031692773 0.011653731 -0.0012124308
0.0011670762 0.020035831 -0.009741601 -0.0021730675 -0.028298251 0.0289648 -0.03961173 -0.0020202717
00000000: cac1 ea3a e5c7 99bc 14e2 353b 1325 e43b
00000010: 3946 11bc 9aff da3b fec1 d33b 1802 b73c
00000020: cc92 b4ba ef81 033d e84c e23c 99b2 a8bc
00000030: 5088 3cbc 9fcf 94bb 5689 93bc c394 c13a
00000040: 55c6 5d3b 19dc 33bb 0c36 9a3c 675d efbc
00000050: bd7f f83c 5f71 07bb 04ed 82bc 1d85 00bc
00000060: c2a3 1ebc 375f 63bc 6b66 13bc 835f 483d
00000070: ecef d3bc afe4 2b3c 076c f03a a7d7 0fbc
00000080: b65d 3c3c e790 9f3c 444d 403c 1b8a a1bc
00000090: 8516 153b 57b8 443c 9ac0 84bc 5681 6f3c
000000a0: b152 01bc 6c31 cfbb 2fb9 cbbc 3239 30bc
000000b0: 4a62 393c aa28 2cbc e2e1 d838 fa2a 3d3d
000000c0: fd95 93bc 5f9a 30bc 120b 873c 1ca8 8c3c
000000d0: 2b6c d93c 6033 3a3c 2f23 2cbb 4e62 203c
000000e0: 83fc b53c ede9 493c d7a0 403b 7707 19bc
000000f0: f644 2f3c ba62 bbbc 9caf c6b8 3a47 10bc
00000100: 0992 1fbc 8d2d 333d 6f13 99ba 1b3e 1e3d
00000110: 8c4a 0a3c 7ad2 143d dddb 1c3b 2fcd 1dba
00000120: 26ea 423c 0cf2 ec3b 4262 24bc 168f 133c
00000130: 47f5 033d 6eaa 8b3a ea24 993b 783e e7bb
00000140: 4f94 26bd d077 2139 e44e 34bb f080 3a3a
00000150: b680 943c 615a 25bc 7bc7 a33c d6a9 b43c
00000160: 2ca3 dc3b 8bd5 403c e975 18bc 9251 5f3b
00000170: 2c7a 073d 9803 c8bc ac50 2fbb 7f6f f0bc
00000180: f452 cb3c 951b 3a3b 5d40 383a 8fab 623c
00000190: cafc b93a 7df5 33bd df88 47bb 6399 a93b
000001a0: 99fb c2bc 0e4c 1e3c 887c 85bb 539e 87bb
000001b0: 885d b23c edeb a73b 0b87 673b 23de 5fb9
000001c0: 9f88 3a3d e61c 3ebc e4f5 ceba 1a86 b4bb
000001d0: 88a6 be3c 47ad b3bc cfbf b23b 6472 14bd
000001e0: 0aa4 59ba ed07 04bc 604b 08bd c243 c1bc
000001f0: 2f3b 4e3a 9527 d53b cc36 8d3c e4fd 3d3c
00000200: a09b 253c ecde c2bc 4147 41bc dd42 183c
00000210: 934d 3d3d 4692 cc3b d8f8 0a3b e7e3 56bb
00000220: 93cd 303c 843c 913b dc5c 553d 341a 833a
00000230: 223b 813c a5f6 563c a1a1 c23a e138 383b
00000240: 11b3 463a ff0a a13a 698e 3fbb 5c17 de3c
00000250: cd34 d93b 2764 3bbc 33ea 62bc bf85 45ba
00000260: 5005 c9bb b05d 8a3b 463e 443c eb1c a73b
00000270: 8314 243c 6ccf 873c ccc2 1d3c c0f3 10bd
00000280: dcf0 ed3c 2552 28bc cdba 88bb 2508 2e3c
00000290: ab52 42bc 4c55 50bc e238 a1bb 5671 d03c
000002a0: e99f 8ebb c700 08bb ff1b e6bc 464b ed3a
000002b0: 48a0 8c3c 4807 d53b e4d6 70bc 653c c5bc
000002c0: 0cde 06bd 4dda 943c 8a7a 013c 66a9 0abc
000002d0: 2404 ccbc f8c8 44bc 55f3 dabc c96f 70bc
000002e0: 3386 9dbc 7d8b 053d f355 c8bb f6da 32bc
000002f0: bd4f 5cbc 4ad3 d3bb 6fdf a03c 6f51 c33a
00000300: b794 1e3b f75c 3eba 54e5 1c3d 4862 473d
00000310: 3313 41bc ca87 263c d294 853c 2d2a 453a
00000320: 6674 da3c f55f 2d3b d545 e137 23e4 a5ba
00000330: 52a4 e33c 2775 c43c 98d9 2b3c e2c2 b3b9
00000340: c3c1 22bd 55dc 81bc 77fa 2ebc eb69 313d
00000350: c695 1abc c1b3 febb b964 3fbc f455 34bd
00000360: 44a5 503c 575a a53b ec10 6abc daad 4bba
00000370: 72e2 8c3c b043 693c 9d3c e3bb 11e9 713b
00000380: 62b1 09bc 46a9 01bc 5ffb 50bc 035d 14bc
00000390: 15c4 643c c348 bd3b 132c 89bb fb34 1c3c
000003a0: b987 44bc 5406 0b3c 9cac 273c f7af 16bb
000003b0: d747 9c3a 4245 0a3d b996 cbbc b483 4b3c
000003c0: 8935 9fbc 6e5c 27bd 53cc ec3b 69b7 9f3c
000003d0: bbb0 f0bc 48d0 013d 4aef 3e3c 6dea 9eba
000003e0: 94f8 983a 2f22 a43c 3c9b 1fbc 066a 0ebb
000003f0: bcd1 e7bc 9747 ed3c e93f 22bd 8966 04bb

action_model._continuous_distribution.mu.bias f4 [2]
-0.0020408635 -0.00043310903
00000000: 02c0 05bb e912 e3b9

critic.network_body.linear_encoder.seq_layers.0.weight f4 [128, 6]
-0.24014053 0.08408274 0.124376394 0.115826644 0.13159467 -0.97768205 -0.17000274 0.78323704
-0.32218254 0.3671613 0.12677206 -0.013955608 0.48941252 -0.74784905 -0.5242335 0.08359992
-0.89425 -0.32391173 -0.59986573 0.11621606 0.2384165 -0.35876626 -0.71203995 -0.30056438
0.88445425 0.2695509 -0.039816555 0.1350383 -0.26704177 -0.015080653 -0.20408353 -0.04352175
0.29795456 0.0040804683 0.5619726 -0.29567873 0.052829117 -0.3975735 0.002412276 -0.12874411
0.27009514 0.09294137 -0.07422607 -0.11121644 -0.17808333 -0.63509834 0.36871374 0.2473899
0.10299415 0.08440954 0.27802593 -0.293558 0.24194849 0.17679854 0.7569471 -0.17620918
0.5569298 -0.2738858 0.029196208 -0.7620895 0.28483012 0.7499441 0.16004394 0.63627523
0.6620726 0.03143646 -0.1949588 -0.21365932 0.11626754 0.19075164 -0.021982767 -0.050617713
-0.07704218 -3.475056e-05 -0.08474903 -0.7903395 0.30377746 0.3032946 -0.26371226 0.17353903
-0.29490307 0.3816793 0.49947986 0.30555934 -0.09956627 -0.3760581 -0.42019933 -0.48080203
0.19331682 0.24595676 0.46805745 0.16555831 0.42972386 0.57457286 -0.38577116 0.24960974
-0.065318525 0.473065 -0.34610295 -0.89917046 -0.20509362 -0.2817842 -0.84224343 0.18436413
-0.17346202 0.5255119 -0.015615562 -0.13809563 0.006489691 0.4961782 -0.46702966 -0.9836289
0.028024113 0.7889093 -0.70899856 -0.25059515 -0.64676994 -0.51991737 -0.32044685 -0.47936508
-0.17803524 -0.36584377 -0.48652273 -0.11518447 -0.1486693 -0.48479244 -0.51840365 0.51993734
-0.6245173 0.7896927 0.564613 -0.2974693 -0.47908854 0.4365718 0.49888617 0.012559282
-0.20986265 -0.020775078 0.22024736 -0.34092095 -0.13929178 -0.30146974 -0.005596477 -0.436513
-0.08002006 0.12862182 -0.5400046 0.09519306 -0.33337545 0.30382797 1.202738 -0.064801514
0.6952733 0.07432747 0.5146187 0.18494152 -0.45598173 0.18127353 -0.5203953 -0.7593971
-0.55926365 -0.29552016 -0.5558239 -0.8787756 -0.40863058 0.26268315 -0.023992546 0.5316337
0.29810613 0.19191496 0.54169214 -0.10245109 0.14050898 -0.28900552 0.008385522 0.29037273
0.20587029 -0.41505188 0.5642822 -0.12831119 0.112745605 -0.15501349 0.14089474 0.82226765
-0.06827802 -0.42916447 0.15342903 -0.027211769 -0.2354703 -0.8356387 0.36400163 0.2829216
0.009510558 0.2255445 0.2195333 -0.36242634 1.1049099 -0.5646144 0.28105634 -0.22520825
0.27391005 0.048714504 -0.083630964 -0.45960984 0.40603158 -0.24546732 -0.046599835 -0.20141047
0.46283442 0.70264614 0.633994 -0.26272064 0.53460526 -0.18395521 0.48537835 0.47079673
-0.2652894 -0.21086083 -0.36313784 0.12496195 0.44953957 -0.06319209 -0.13362725 0.35734555
0.1469865 0.20524073 -0.19156176 0.10312406 0.027649235 0.53945935 -0.4712222 0.10598909
0.4210518 -0.050227255 -0.19352567 -0.33009705 -0.7719289 0.974895 -0.348329 0.40165034
0.32281673 0.14450085 -0.4073297 0.47664154 -0.047186464 -0.18953376 0.16843764 -0.550918
-0.4050542 0.7118921 0.40305793 0.2298155 0.50663984 0.2720599 -0.36006773 0.080725335
00000000: 66e7 75be 9233 ac3d 0db9 fe3d 8536 ed3d
00000010: c1c0 063e 5f49 7abf 3315 2ebe 3982 483f
00000020: 1cf5 a4be 91fc bb3e 89d0 013e 10a6 64bc
00000030: 4794 fa3e 0973 3fbf 2b34 06bf 6f36 ab3d
00000040: 91ed 64bf c2d7 a5be cd90 19bf b002 ee3d
00000050: 7423 743e 36b0 b7be 4048 36bf 93e3 99be
00000060: 986b 623f 9302 8a3e af16 23bd 7b47 0a3e
00000070: b3b9 88be d814 77bc 46fb 50be dd43 32bd
00000080: 808d 983e 73b5 853b 70dd 0f3f 3463 97be
00000090: 5863 583d c18e cbbe 4717 1e3b 7fd5 03be
000000a0: e949 8a3e 0c58 be3d d603 98bd 72c5 e3bd
000000b0: 7a5b 36be ce95 22bf 0cc8 bc3e c753 7d3e
000000c0: 99ee d23d e9de ac3d 6a59 8e3e 3c4d 96be
000000d0: 58c1 773e ad0a 353e 49c7 413f 2e70 34be
000000e0: f492 0e3f c23a 8cbe e32c ef3c 4c18 43bf
000000f0: 41d5 913e 56fc 3f3f 8fe2 233e efe2 223f
00000100: 977d 293f 84c3 003d 48a3 47be 82c9 5abe
00000110: ad1d ee3d 6654 433e 3415 b4bc 8554 4fbd
00000120: 4ac8 9dbd 21c1 11b8 e690 adbd b153 4abf
00000130: b888 9b3e 6e49 9b3e 4b05 87be 37b4 313e
00000140: 89fd 96be 786b c33e d3bb ff3e 4672 9c3e
00000150: 67e9 cbbd b08a c0be 5e24 d7be af2b f6be
00000160: d8f4 453e 17dc 7b3e 3aa5 ef3e 1e88 293e
00000170: c404 dc3e 3517 133f cc83 c5be b299 7f3e
00000180: b8c5 85bd 9335 f23e 6834 b1be 0930 66bf
00000190: 1004 52be 0546 90be 449d 57bf f3c9 3c3e
000001a0: 07a0 31be f387 063f 6ad8 7fbc f168 0dbe
000001b0: 79a7 d43b 120b fe3e 831e efbe 1bcf 7bbf
000001c0: d392 e53c f6f5 493f ee80 35bf 024e 80be
000001d0: b792 25bf 4e19 05bf 9c11 a4be 576f f5be
000001e0: df4e 36be e04f bbbe 8219 f9be d6e5 ebbd
000001f0: c43c 18be b736 f8be 1ab6 04bf 9d1a 053f
00000200: 5ee0 1fbf 4d29 4a3f 7a8a 103f e54d 98be
00000210: 184b f5be 5786 df3e 026e ff3e 72c5 4d3c
00000220: 3ce6 56be 7f30 aabc 8688 613e 318d aebe
00000230: 81a2 0ebe 3e5a 9abe a762 b7bb a27e dfbe
00000240: 8fe1 a3bd 70b5 033e be3d 0abf 94f4 c23d
00000250: 30b0 aabe 578f 9b3e 52f3 993f a8b6 84bd
00000260: 6efd 313f 0039 983d 0dbe 033f 4f61 3d3e
00000270: 7076 e9be c59f 393e a038 05bf d967 42bf
00000280: e72b 0fbf 6b4e 97be 7a4a 0ebf 70f7 60bf
00000290: 0738 d1be 687e 863e 048c c4bc 2519 083f
000002a0: 5ea1 983e 5b85 443e 56ac 0a3f e1d1 d1bd
000002b0: 96e1 0f3e 88f8 93be 6e63 093c bcab 943e
000002c0: a9cf 523e ae81 d4be cc74 103f 0264 03be
000002d0: 2be7 e63d dbbb 1ebe b646 103e 2280 523f
000002e0: 59d5 8bbd 72bb dbbe 801c 1d3e 37eb debc
000002f0: 201f 71be 6bec 55bf 6c5e ba3e 1adb 903e
00000300: 2cd2 1b3c 23f5 663e 56cd 603e f28f b9be
00000310: b06d 8d3f 928a 10bf 9ee6 8f3e fe9c 66be
00000320: f03d 8c3e dc88 473d b646 abbd fb51 ebbe
00000330: 5fe3 cf3e c95b 7bbe 78df 3ebd 8c3e 4ebe
00000340: a2f8 ec3e 9ee0 333f 6e4d 223f 5283 86be
00000350: e4db 083f c15e 3cbe 8383 f83e 450c f13e
00000360: 03d4 87be e7eb 57be 34ed b9be 0dec ff3d
00000370: 0d2a e63e db6a 81bd 95d5 08be fff5 b63e
00000380: a183 163e a02a 523e c428 44be b532 d33d
00000390: a680 e23c 021a 0a3f 0944 f1be cf10 d93d
000003a0: 1a94 d73e 18bb 4dbd 982b 46be 7b02 a9be
000003b0: 229d 45bf b892 793f 2e58 b2be 1da5 cd3e
000003c0: 3c48 a53e 08f8 133e 858d d0be 5c0a f43e
000003d0: 9846 41bd 2315 42be eb7a 2c3e f608 0dbf
000003e0: 4463 cfbe 903e 363f 9c5d ce3e c154 6b3e
000003f0: 26b3 013f 6f4b 8b3e cc5a b8be 5353 a53d

critic.network_body.linear_encoder.seq_layers.0.bias f4 [128]
-0.0015057802 0.0010530481 0.0005358051 -0.0043491153 -0.0015798254 -0.0060336175 -0.0017468033 -0.0065996866
-0.0011621887 0.0004538146 -0.0027126155 -0.0043413755 0.013526065 -0.00042444278 0.0039436733 -0.00023767685
0.006431548 0.005040499 -0.0040858868 -0.0023289514 0.0038270073 0.00074500847 0.007648584 -0.005507093
-0.0014419055 -0.0030815508 -0.0058001066 0.0010522731 -0.0016396026 0.0035707462 0.0025517966 -0.008495744
0.0021681895 0.0016201615 0.0008535387 -0.0043840883 0.0016347282 -0.0026246798 0.00078621286 -0.002282709
-0.0022463487 -0.00048151004 -0.0023530885 -0.015040259 0.0043976726 0.0021791689 0.0048205326 0.0031966239
0.0019540642 -0.006847149 0.0006425094 -0.0020309172 -0.0032095395 -0.002067663 0.0016110498 -0.0022797377
0.0013312681 -0.002531108 0.0011056836 -0.0106235305 -0.005703669 0.0024145602 -0.0026003937 0.009456899
-0.001391744 0.0014377262 -0.0035461865 0.002084664 -0.010683423 0.0019003389 0.0016409898 0.0022574042
0.0016616907 0.0074457545 0.0022533818 -6.00301e-05 0.004718296 -0.0065141656 -0.0019625216 0.0041604945
-0.0015464091 -0.0013779344 -0.0030616182 -0.0022668329 -0.0054014884 -0.00255695 0.0011959168 0.0057428186
0.00013571291 0.00046194057 -0.0012555612 -0.00232187 0.0035791374 -0.0030218058 0.007954235 -0.0013841239
0.0048012906 -0.00079317787 -0.0003557404 0.0013464333 -0.003968106 0.001889877 0.0060230796 -0.0024249877
-0.0030145373 -0.0014340171 -0.002952592 -0.0014455137 0.01984131 0.005693711 0.0030446236 0.0025908703
-0.0033723218 -0.00028334276 0.0018600444 0.0005353841 -0.0038262694 -0.00011737576 0.008907455 0.0053479928
0.00252204 0.0008667763 0.0011026708 -0.008394487 0.005266944 0.003765093 0.011652223 -0.0041111265
00000000: 995d c5ba 6e06 8a3a 4675 0c3a 0683 8ebb
00000010: 2512 cfba a7b5 c5bb fef4 e4ba 2f42 d8bb
00000020: 9554 98ba f7ed ed39 23c6 31bb 1942 8ebb
00000030: 6e9c 5d3c bf87 deb9 ee39 813b e538 79b9
00000040: bcbf d23b c52a a53b e7e2 85bb 52a1 18bb
00000050: 87ce 7a3b ac4c 433a f9a0 fa3b d874 b4bb
00000060: 52fe bcba d8f3 49bb d20e bebb 6dec 893a
00000070: efe7 d6ba 2e03 6a3b 0b3c 273b bc31 0bbc
00000080: 2f18 0e3b 995b d43a 03c0 5f3a 66a8 8fbb
00000090: 6044 d63a d202 2cbb da19 4e3a 8199 15bb
000000a0: 7a37 13bb 2f73 fcb9 4636 1abb 6b6b 76bc
000000b0: 5a1a 903b 63d0 0e3b 8ff5 9d3b 737e 513b
000000c0: c20f 003b 0d5e e0bb 136e 283a 2319 05bb
000000d0: 2357 52bb a181 07bb dc29 d33a a767 15bb
000000e0: f27d ae3a f2e0 25bb 96ec 903a 510e 2ebc
000000f0: d8e5 babb 993d 1e3b 5e6b 2abb 1cf1 1a3c
00000100: 2e6b b6ba 1672 bc3a 2367 68bb dc9e 083b
00000110: 8609 2fbc cb14 f93a 7b16 d73a f5f0 133b
00000120: 16cd d93a 84fb f33b 79ad 133b d4c8 7bb8
00000130: f09b 9a3b c874 d5bb a69d 00bb c254 883b
00000140: e1b0 caba ce9b b4ba 6ea5 48bb 258f 14bb
00000150: f8fe b0bb 8192 27bb 4fc0 9c3a 412e bc3b
00000160: 284e 0e39 9d30 f239 a591 a4ba 842a 18bb
00000170: f68f 6a3b 7d09 46bb 7b52 023c 7e6b b5ba
00000180: 2554 9d3b 44ed 4fba ab82 bab9 ce7a b03a
00000190: e306 82bb c0b5 f73a 415d c53b 8bec 1ebb
000001a0: 8b8f 45bb a1f5 bbba 4680 41bb 6477 bdba
000001b0: 3e8a a23c 4f92 ba3b 4f88 473b 97cb 293b
000001c0: 2c02 5dbb 9f8d 94b9 bccc f33a 0559 0c3a
000001d0: 26c2 7abb a227 f6b8 93f0 113c 373e af3b
000001e0: cf48 253b 5f38 633a 7e87 903a 0889 09bc
000001f0: 5496 ac3b c7bf 763b f7e8 3e3c a1b6 86bb

critic.network_body.linear_encoder.seq_layers.2.weight f4 [128, 128]
-0.055344585 0.1548683 0.032123543 -0.09333319 -0.02779881 -0.08611901 0.033023722 0.062178873
0.029469954 0.16694066 0.103597365 0.07044511 -0.08937953 0.018465195 -0.018730784 -0.016829433
0.12606339 0.0019475195 -0.064928465 0.10182328 -0.020737998 -0.071070686 0.014146754 0.11367076
0.01943735 -0.06839253 0.1320197 0.09826159 -0.10357227 0.089520566 -0.15849991 0.12717117
-0.0768147 0.17434722 0.14091092 0.015356596 0.07519114 -0.049851105 -0.02329373 -0.023487976
-0.058087945 0.027841294 -0.17182048 -0.23515244 -0.13926679 0.16738243 -0.15533423 0.046464186
-0.013693433 -0.082745604 -0.114649735 0.06945995 0.16862561 -0.026212346 0.09712626 0.044994235
0.060278714 -0.15836033 0.013930791 -0.10856317 -0.21936892 0.011032632 -0.047332745 0.15793161
-0.20372918 0.010282782 0.04905843 0.18230775 -0.035880137 -0.032988 0.09168485 0.08115416
-0.064100266 0.013461571 0.015110138 -0.17720124 0.044208076 0.07030968 -0.057089064 -0.008282251
-0.03608285 0.027864784 0.039714728 -0.08287182 0.2764817 0.016708663 0.036846273 0.027777571
-0.13211039 -0.03701996 0.10822966 -0.02428157 0.0845439 -0.01992049 0.13976422 -0.02691508
0.03794985 0.14104392 -0.034513593 0.16120057 0.10621408 -0.14031681 0.048989017 0.06671097
-0.09856765 -0.08159729 -0.03063831 -0.18981008 -0.014650181 0.15797985 0.06248565 0.104336895
0.19272786 0.030148666 0.11344124 0.04297006 -0.16541272 -0.07854795 0.08143479 0.19939618
-0.16701469 0.05025408 -0.023210857 0.058335662 -0.055802647 0.12887277 0.07903657 -0.03744226
0.18590285 -0.1753156 0.14600961 -0.041404564 -0.041072417 -0.039492417 0.033496995 -0.0562428
0.105950795 -0.11246059 -0.036315538 0.0521835 0.0049621067 -0.06572786 -0.11701326 -0.06892707
-0.017487673 -0.15857285 0.2294897 -0.15187778 0.0012162854 -0.11969361 0.0076874313 -0.037862826
0.05642809 0.13689432 -0.026643429 -0.009998695 0.06646731 -0.1750403 -0.20460163 0.034916576
0.12609327 -0.10040423 -0.07757335 -0.124367334 0.111657046 0.13361394 0.14212847 0.07678157
-0.048123963 0.08473233 0.17158462 0.026171746 -0.09982706 0.007522008 -0.06566013 0.0595828
0.055424612 0.0017068824 -0.0218633 -0.038640276 0.068855815 0.16381626 0.01735168 0.05287546
-0.16380565 -0.029996768 -0.0055913734 0.19082494 0.1890274 0.035431128 -0.08774218 -0.0054440373
-0.0063706813 0.0074940757 -0.08442296 0.04092962 0.075013004 -0.08616106 0.086856626 -0.14304319
-0.07527348 -0.017468607 -0.026908737 -0.0082580205 -0.14630982 0.021919051 -0.14879675 0.12453591
0.04792813 -0.22450268 -0.21845543 0.11242102 -0.14233474 0.070690155 -0.021534203 0.065420195
0.014373141 -0.064120375 -0.042605627 -0.016800802 -0.02555821 0.064868964 -0.007934566 -0.011650815
-0.1800549 0.10459372 -0.12343997 -0.07156306 0.087392814 -0.03422814 0.09167688 -0.04928944
0.077791765 0.008089881 -0.031850748 -0.08000083 -0.01790286 0.050403673 0.02111393 9.10478e-05
0.027254304 0.026770977 0.05716698 -0.03622084 0.12812555 0.009340738 -0.01218251 -0.10678672
0.0599172 -0.13264033 -0.1243234 0.06640281 -0.05519136 -0.066894166 -0.097470835 -0.089282416
00000000: 01b1 62bd cc95 1e3e fa93 033d 7925 bfbd
00000010: 54ba e3bc 2a5f b0bd e243 073d 46af 7e3d
00000020: f96a f13c 7ef2 2a3e db2a d43d 8745 903d
00000030: 9d0c b7bd 5244 973c 4d71 99bc e1dd 89bc
00000040: c316 013e e943 ff3a 37f9 84bd b988 d03d
00000050: bce2 a9bc 828d 91bd c9c7 673c 37cc e83d
00000060: 143b 9f3c 6211 8cbd 2c30 073e 5f3d c93d
00000070: b31d d4bd 8f56 b73d cd4d 22be 2939 023e
00000080: 0751 9dbd 1488 323e f44a 103e 3b9a 7b3c
00000090: d0fd 993d ac30 4cbd 7ed2 bebc db69 c0bc
000000a0: a0ed 6dbd 6d13 e43c b5f1 2fbe cdcb 70be
000000b0: f49b 0ebe 4d66 2b3e f00f 1fbe 3b51 3e3d
000000c0: 6c5a 60bc 8776 a9bd 7bcd eabd 0541 8e3d
000000d0: 31ac 2c3e 46bb d6bc 22ea c63d e04b 383d
000000e0: d0e6 763d 3629 22be f93d 643c 5e56 debd
000000f0: 3fa2 60be 36c2 343c fbdf 41bd d3b8 213e
00000100: 629e 50be 1d79 283c 7ef1 483d e2ae 3a3e
00000110: 0df7 12bd 6d1e 07bd 44c5 bb3d 2734 a63d
00000120: 0047 83bd ec8d 5c3c 8390 773c 3e74 35be
00000130: 8713 353d 86fe 8f3d 39d6 69bd 47b2 07bc
00000140: 9ccb 13bd b044 e43c e9ab 223d b3b8 a9bd
00000150: 028f 8d3e 9be0 883c 1eec 163d ca8d e33c
00000160: f247 07be 3ea2 17bd 83a7 dd3d 25ea c6bc
00000170: 5a25 ad3d 4c30 a3bc 5a1e 0f3e 047d dcbc
00000180: 4d71 1b3d d16d 103e 205e 0dbd c311 253e
00000190: c486 d93d 36af 0fbe b5a8 483d c39f 883d
000001a0: d6dd c9bd 7b1c a7bd 31fd fabc 935d 42be
000001b0: 5007 70bc 78c5 213e f4f0 7f3d 95ae d53d
000001c0: 745a 453e 56fa f63c e153 e83d 6001 303d
000001d0: f461 29be bfdd a0bd 48c7 a63d 832e 4c3e
000001e0: e605 2bbe 39d7 4d3d b224 bebc 60f1 6e3d
000001f0: 5191 64bd 39f7 033e eddd a13d 0e5d 19bd
00000200: 515d 3e3e ef85 33be 8b83 153e d597 29bd
00000210: 8d3b 28bd cdc2 21bd 2534 093d da5e 66bd
00000220: bbfc d83d bd51 e6bd 9abf 14bd 5ebe 553d
00000230: 2b99 a23b 549c 86bd a6a4 efbd a329 8dbd
00000240: 4f42 8fbc ec60 22be 59ff 6a3e d985 1bbe
00000250: c46b 9f3a ec21 f5bd d9e6 fb3b 0d16 1bbd
00000260: 2421 673d 062e 0c3e 5243 dabc 91d1 23bc
00000270: 0320 883d c43d 33be 1783 51be af04 0f3d
00000280: 981e 013e bca0 cdbd c7de 9ebd 4db4 febd
00000290: 73ac e43d 18d2 083e 208a 113e a83f 9d3d
000002a0: a21d 45bd 2588 ad3d e1b3 2f3e 2166 d63c
000002b0: 2172 ccbd 2d7b f63b d178 86bd 180d 743d
000002c0: eb04 633d 78b9 df3a aa1a b3bc 4445 1ebd
000002d0: 4704 8d3d 73bf 273e 1c25 8e3c f093 583d
000002e0: abbc 27be c8bb f5bc d737 b7bb 9d67 433e
000002f0: 6690 413e 3b20 113d 2cb2 b3bd e563 b2bb
00000300: 26c1 d0bb dd90 f53b f2e5 acbd d1a5 273d
00000310: 6ba0 993d 3675 b0bd e3e1 b13d ea79 12be
00000320: fb28 9abd 531a 8fbc b66f dcbc a64c 07bc
00000330: 3ed2 15be 958f b33c 2d5e 18be af0c ff3d
00000340: 4950 443d 08e4 65be c8b2 5fbe fe3c e63d
00000350: 33c0 11be 00c6 903d 7f68 b0bc 06fb 853d
00000360: 537d 6b3c 8b51 83bd 3d83 2ebd d6a1 89bc
00000370: 745f d1bc 05da 843d fbff 01bc 0fe3 3ebc
00000380: 5060 38be 3b35 d63d 18ce fcbd a78f 92bd
00000390: 01fb b23d ce32 0cbd 17c1 bb3d b9e3 49bd
000003a0: 4a51 9f3d 6c8b 043c ee75 02bd 7ad7 a3bd
000003b0: 05a9 92bc 1574 4e3d 1ff7 ac3c eaf0 be38
000003c0: 6b44 df3c cf4e db3c ec27 6a3d 4e5c 14bd
000003d0: 5833 033e e509 193c 2799 47bc ffb2 dabd
000003e0: bd6b 753d ded2 07be 449d febd 32fe 873d
000003f0: 5610 62bd cfff 88bd ca9e c7bd b3d9 b6bd

critic.network_body.linear_encoder.seq_layers.2.bias f4 [128]
0.0022136457 0.015907627 -0.0024344272 -0.0018303721 -0.0035097117 0.0010919351 -0.0017569893 0.00072867057
0.0030791326 -0.0032422177 -0.0035243973 0.0026706106 0.005800194 0.002671208 -0.0005287967 -0.0029440864
0.0012625548 -0.0032939212 0.0023813269 -0.0011265697 -0.008065123 0.00020268868 -0.0018385809 -0.0004417826
-0.0024976619 0.0030039279 0.0014072632 -0.0024797537 -0.001726702 -0.0026774388 -0.0022045746 -0.0022909036
-0.0032280826 -0.00046941158 0.0016948965 0.010468432 -0.0030759447 -0.0030050094 0.0013757219 -0.003399432
-0.0031566643 0.0017009478 -0.003010547 -0.0026920172 0.0047095376 0.0031243241 0.0011041899 0.0021818688
-0.0027307943 0.0015512061 0.0045020636 -0.0012049472 0.00408309 -0.0005370185 0.0027970492 0.004330982
-0.003757236 0.008746472 -0.0023838596 0.002865326 -0.002161495 0.0017906313 -0.0021532641 -0.0024947382
0.0026769538 -0.00078682747 -0.0024866126 -0.0021654153 -0.0019671975 0.0022414548 -0.0009189223 0.001622362
-0.0033499931 -0.0029006472 -0.003037754 -0.0030594345 0.00094604224 0.000716612 0.0009758368 -0.0021283939
-0.0033912752 -0.0016370479 0.0025486208 -0.0030930387 -0.0020308623 -0.0026796495 -0.01605154 0.0030903954
0.0018733316 -0.0015731447 -0.0011861754 0.00080204784 -0.005459143 0.00016539522 -0.0016043453 -0.0022547145
0.01153759 0.0033014652 -0.0021683204 0.0018050994 0.0012388655 -0.00087546266 0.0034894955 0.0009748294
0.0020960658 0.003840191 -0.00068202114 0.003119987 0.0035428703 -0.0032486492 0.00076713605 0.003670415
0.0033626377 0.0021324146 -0.0020698092 0.0061773397 0.0032085793 0.011336602 0.0017285162 0.002229994
-0.0041365884 0.011926261 0.002810408 -0.0027863015 -0.0024937731 0.00023225283 -0.002667694 -0.0013292308
00000000: d012 113b b650 823c e98a 1fbb 19e9 efba
00000010: 3103 66bb 431f 8f3a c74a e6ba 4104 3f3a
00000020: 46cb 493b 637b 54bb 93f9 66bb 6905 2f3b
00000030: 8e0f be3b 6f0f 2f3b f29e 0aba 93f1 40bb
00000040: 4f7c a53a d4de 57bb 0910 1c3b 68a9 93ba
00000050: 9423 04bc d488 5439 8afc f0ba 0f9f e7b9
00000060: d0af 23bb 8cdd 443b eb73 b83a 5d83 22bb
00000070: 8152 e2ba f877 2fbb a07a 10bb fc22 16bb
00000080: 3d8e 53bb 5b1b f6b9 4a27 de3a c983 2b3c
00000090: ca95 49bb b1ef 44bb 9151 b43a 01c9 5ebb
000000a0: 0ae0 4ebb 56f2 de3a 994c 45bb 8e6c 30bb
000000b0: 7752 9a3b 76c1 4c3b 77ba 903a affd 0e3b
000000c0: 20f7 32bb d751 cb3a 0c86 933b 52ef 9dba
000000d0: 71cb 853b b4c6 0cba b34e 373b e9ea 8d3b
000000e0: f63b 76bb 5d4d 0f3c 873a 1cbb 31c8 3b3b
000000f0: dea7 0dbb 9eb3 ea3a c71d 0dbb c37e 23bb
00000100: d56f 2f3b 1943 4eba 70f6 22bb a4e9 0dbb
00000110: 19ec 00bb 5fe5 123b d5e3 70ba 6fa5 d43a
00000120: 8f8b 5bbb c918 3ebb 0e15 47bb cb80 48bb
00000130: d2ff 773a 04db 3b3a 4dcf 7f3a 867c 0bbb
00000140: 2840 5ebb 3692 d6ba c306 273b 94b4 4abb
00000150: 3718 05bb 0f9d 2fbb 857e 83bc 3b88 4a3b
00000160: 948a f53a fa31 ceba 7179 9bba 8540 523a
00000170: 9ce2 b2bb f16d 2d39 e548 d2ba d5c3 13bb
00000180: 2908 3d3c 655d 583b 611a 0ebb 1699 ec3a
00000190: 6e61 a23a 4e7f 65ba 05b0 643b b28b 7f3a
000001a0: 265e 093b b7ab 7b3b aac9 32ba b278 4c3b
000001b0: 802f 683b 4ae7 54bb a119 493a 588b 703b
000001c0: b35f 5c3b fbbf 0b3b a3a5 07bb 486b ca3b
000001d0: 0747 523b 28bd 393c 618f e23a 1725 123b
000001e0: 388c 87bb 5d66 433c d22e 383b 629a 36bb
000001f0: 926e 23bb e588 7339 7ad4 2ebb 9639 aeba

critic.value_heads.value_heads.extrinsic.weight f4 [1, 128]
-0.1463312 0.049022887 0.1254732 0.17327811 0.12595192 -0.024112856 0.15127788 -0.09955776
-0.079110466 0.07239419 -0.2019956 -0.0029267007 -0.14753471 0.013704815 0.011492569 0.20199078
-0.04505403 -0.13051042 -0.113540664 0.0028455786 0.01991725 0.021423573 0.18400963 0.07568176
0.09062954 0.1626281 -0.17529891 0.07328247 0.035338957 0.14180861 0.104615636 0.015427889
0.18709794 0.022736467 -0.018825646 0.1951822 0.09164612 0.058100656 -0.0821692 0.069648825
0.02347336 -0.08894113 0.0711415 -0.18411732 0.021423036 -0.20135166 0.04591676 -0.025498498
0.1373409 -0.102432564 -0.19484606 -0.0838818 0.02697292 0.15478258 -0.18247019 -0.08374519
0.0008556764 0.05672721 0.06390693 -0.07959622 0.0952347 -0.026740689 0.038665906 0.11308915
-0.02135826 0.18632905 0.18167527 0.07622194 -0.014681221 -0.018238513 -0.00914136 -0.13543092
0.15770468 -0.0014969151 0.13767649 0.20045432 -0.18481836 -0.21670651 -0.13687718 0.037999783
-0.024171926 0.20978935 -0.042764235 0.11269446 0.20500608 -0.1446124 0.093842365 -0.17169504
-0.0035235132 0.20945077 0.18486525 -0.124954194 -0.1110301 -0.15280902 -0.03973953 0.11322203
-0.120570876 -0.08843231 0.13092878 -0.03316436 0.16523843 0.17077115 -0.20993868 -0.08816755
-0.004046903 -0.1298992 0.1909808 -0.2084373 -0.15075392 0.10372287 -0.14941041 -0.011254798
-0.058569025 -0.2159189 0.13928366 0.026993848 -0.20625798 -0.21165264 0.08409231 -0.08354607
-0.12915663 0.13245702 -0.057696175 0.0033743582 -0.18941583 0.0052463524 -0.031741366 0.15098405
00000000: d9d7 15be 39cc 483d 0c7c 003e d16f 313e
00000010: 8af9 003e 5388 c5bc 97e8 1a3e f0e4 cbbd
00000020: ab04 a2bd 6843 943d efd7 4ebe e4cd 3fbb
00000030: 5713 17be 298a 603c 544b 3c3c acd6 4e3e
00000040: 938a 38bd 86a4 05be 0288 e8bd e37c 3a3b
00000050: 8029 a33c 7d80 af3c 056d 3c3e 0aff 9a3d
00000060: fb9b b93d fb87 263e 8f81 33be 1f15 963d
00000070: 95bf 103d 4736 113e b940 d63d 42c5 7c3c
00000080: 9a96 3f3e d441 ba3c 3e38 9abc d8dd 473e
00000090: f6b0 bb3d f4fa 6d3d 5348 a8bd 0ba4 8e3d
000000a0: 344b c03c c426 b6bd a2b2 913d 4089 3cbe
000000b0: 5d7f af3c 212f 4ebe 3613 3c3d 3ae2 d0bc
000000c0: 18a3 0c3e 2ac8 d1bd ba85 47be 39ca abbd
000000d0: 50f6 dc3c 537f 1e3e 77d9 3abe 9982 abbd
000000e0: 794f 603a ca5a 683d a3e1 823d 5803 a3bd
000000f0: 690a c33d 4a0f dbbc 2460 1e3d 499b e73d
00000100: 85f7 aebc 0bcd 3e3e 1509 3a3e 401a 9c3d
00000110: 8189 70bc ef68 95bc a5c5 15bc 67ae 0abe
00000120: 567d 213e 2334 c4ba 11fb 0c3e e643 4d3e
00000130: 0641 3dbe 50e8 5dbe 8829 0cbe a9a5 1b3d
00000140: 3404 c6bc 05d3 563e 8d29 2fbd 5acc e63d
00000150: 1ded 513e 4615 14be 6d30 c03d d3d0 2fbe
00000160: beea 66bb 437a 563e 514d 3d3e fce7 ffbd
00000170: c063 e3bd f879 1cbe ebc5 22bd f4e0 e73d
00000180: dded f6bd 001c b5bd 3212 063e 5ad7 07bd
00000190: 4334 293e a2de 2e3e 2afa 56be 3091 b4bd
000001a0: e29b 84bb 4c04 05be 7990 433e 9670 55be
000001b0: 3c5f 1abe a86c d43d 0bff 18be 0b66 38bc
000001c0: 13e6 6fbd d819 5dbe 60a0 0e3e 3422 dd3c
000001d0: 4b35 53be 78bb 58be 9738 ac3d 341a abbd
000001e0: a341 04be d0a2 073e d352 6cbd 5624 5d3b
000001f0: 39f6 41be 98e9 ab3b 3c03 02bd 909b 1a3e
