Unity - Crypto Ball/results/ppo/My Behavior/My Behavior-896.pt (torch, 145351 bytes, 11 tensors)

network_body.linear_encoder.seq_layers.0.weight f4 [128, 1]
-0.38490906 -0.8382099 -1.6678684 2.3564477 -0.9531815 -0.26115525 0.64833 -2.4342
0.67133766 0.3696771 -1.223251 0.93339103 0.41218343 0.094163224 0.17531295 1.5707636
0.94781166 -0.2974156 1.1699995 2.2251625 0.13244684 0.7749075 -0.8013004 -0.6235844
-1.3458033 -0.8515286 -1.3625033 0.898357 1.0844865 -0.86737937 -0.6357746 -1.6052073
1.4684147 1.5424534 -0.74869823 -1.4312106 0.77833223 -0.97351336 -0.023235075 0.35209984
0.97657937 -1.6236244 0.034943786 1.5531516 0.6668237 1.0355594 -0.5543173 -0.421504
-0.22424324 -0.48630908 1.0728307 -1.1584599 -1.4926116 0.55828965 0.03058971 -1.445911
-1.8808736 0.355355 0.41849494 0.72054404 0.4900373 -0.3696627 -0.72727287 -0.4388841
0.43219888 0.59016335 0.261449 2.4366238 -0.71535635 0.16224691 1.2987412 -0.31789806
-0.1556859 -1.5327433 0.29377872 -1.2824333 0.35956213 -1.3567253 -1.0272768 -0.15877232
0.11600306 -0.13460901 2.3746967 -1.8532709 -0.7713636 0.0987504 -1.3591833 -0.20752588
-0.65213484 -0.43700454 0.931605 0.7697956 0.47881922 -1.2242347 0.99582016 -2.1415606
1.8886015 -0.5260128 0.9290573 -0.65176004 -1.7105182 -1.2820035 -1.0602691 -0.13116409
-0.0557981 0.6790147 -0.24553104 1.0227919 -0.23126672 -1.6589806 -2.4433534 1.2338512
-0.27515283 -0.20936064 -0.6793038 0.38420728 -0.8029811 0.098376684 0.2791995 -1.1113657
-1.730277 0.61084116 0.1545945 -0.15280186 0.26023555 1.389862 -0.51594275 0.21970284
00000000: cd12 c5be ed94 56bf b67c d5bf 0ad0 1640
00000010: b403 74bf 24b6 85be f4f8 253f efc9 1bc0
00000020: c9dc 2b3f 5146 bd3e 7d93 9cbf b7f2 6e3f
00000030: b509 d33e a6d8 c03d 3d85 333e c80e c93f
00000040: c9a3 723f dc46 98be 8bc2 953f 1069 0e40
00000050: 25a0 073e 5760 463f 0622 4dbf 3aa3 1fbf
00000060: 4843 acbf c7fd 59bf 8266 aebf b9fa 653f
00000070: 74d0 8a3f 930c 5ebf 20c2 22bf 6f77 cdbf
00000080: 03f5 bb3f 1d6f c53f b0aa 3fbf e931 b7bf
00000090: c840 473f 2c38 79bf 7c57 bebc 6e46 b43e
000000a0: 1b01 7a3f edd2 cfbf 3721 0f3d accd c63f
000000b0: f5b4 2a3f 368d 843f bde7 0dbf 5fcf d7be
000000c0: 05a0 65be 81fd f8be 8452 893f 6a48 94bf
000000d0: e60d bfbf 12ec 0e3f 4697 fa3c 9d13 b9bf
000000e0: 77c0 f0bf 17f1 b53e f844 d63e 9375 383f
000000f0: 2be6 fa3e 6e44 bdbe 8e2e 3abf 6bb5 e0be
00000100: 2c49 dd3e f214 173f a5dc 853e a5f1 1b40
00000110: 9821 37bf 0e24 263e 273d a63f 89c3 a2be
00000120: 206c 1fbe ef30 c4bf 2a6a 963e c626 a4bf
00000130: 8718 b83e 2da9 adbf ce7d 83bf 3695 22be
00000140: 0393 ed3d f2d6 09be 08fb 1740 fb37 edbf
00000150: 1678 45bf a63d ca3d b8f9 adbf aa81 54be
00000160: 4ff2 26bf 0fbf dfbe aa7d 6e3f 5311 453f
00000170: cb27 f53e b9b3 9cbf 12ee 7e3f 540f 09c0
00000180: b2bd f13f c6a8 06bf b3d6 6d3f bfd9 26bf
00000190: 43f2 dabf b118 a4bf e6b6 87bf e14f 06be
000001a0: 8c8c 64bd e8d3 2d3f 7d6c 7bbe d8ea 823f
000001b0: 2fd1 6cbe 7a59 d4bf e75f 1cc0 d6ee 9d3f
000001c0: d5e0 8cbe a362 56be dbe6 2dbf d1b6 c43e
000001d0: 2b90 4dbf b779 c93d 3df3 8e3e 3b41 8ebf
000001e0: b779 ddbf 1660 1c3f 054e 1e3e 1778 1cbe
000001f0: 983d 853e ffe6 b13f d314 04bf c8f9 603e

network_body.linear_encoder.seq_layers.0.bias f4 [128]
0.0 0.0 0.0 0.0 0.0 0.0 0.0 0.0
0.0 0.0 0.0 0.0 0.0 0.0 0.0 0.0
0.0 0.0 0.0 0.0 0.0 0.0 0.0 0.0
0.0 0.0 0.0 0.0 0.0 0.0 0.0 0.0
0.0 0.0 0.0 0.0 0.0 0.0 0.0 0.0
0.0 0.0 0.0 0.0 0.0 0.0 0.0 0.0
0.0 0.0 0.0 0.0 0.0 0.0 0.0 0.0
0.0 0.0 0.0 0.0 0.0 0.0 0.0 0.0
0.0 0.0 0.0 0.0 0.0 0.0 0.0 0.0
0.0 0.0 0.0 0.0 0.0 0.0 0.0 0.0
0.0 0.0 0.0 0.0 0.0 0.0 0.0 0.0
0.0 0.0 0.0 0.0 0.0 0.0 0.0 0.0
0.0 0.0 0.0 0.0 0.0 0.0 0.0 0.0
0.0 0.0 0.0 0.0 0.0 0.0 0.0 0.0
0.0 0.0 0.0 0.0 0.0 0.0 0.0 0.0
0.0 0.0 0.0 0.0 0.0 0.0 0.0 0.0
00000000: 0000 0000 0000 0000 0000 0000 0000 0000
00000010: 0000 0000 0000 0000 0000 0000 0000 0000
00000020: 0000 0000 0000 0000 0000 0000 0000 0000
00000030: 0000 0000 0000 0000 0000 0000 0000 0000
00000040: 0000 0000 0000 0000 0000 0000 0000 0000
00000050: 0000 0000 0000 0000 0000 0000 0000 0000
00000060: 0000 0000 0000 0000 0000 0000 0000 0000
00000070: 0000 0000 0000 0000 0000 0000 0000 0000
00000080: 0000 0000 0000 0000 0000 0000 0000 0000
00000090: 0000 0000 0000 0000 0000 0000 0000 0000
000000a0: 0000 0000 0000 0000 0000 0000 0000 0000
000000b0: 0000 0000 0000 0000 0000 0000 0000 0000
000000c0: 0000 0000 0000 0000 0000 0000 0000 0000
000000d0: 0000 0000 0000 0000 0000 0000 0000 0000
000000e0: 0000 0000 0000 0000 0000 0000 0000 0000
000000f0: 0000 0000 0000 0000 0000 0000 0000 0000
00000100: 0000 0000 0000 0000 0000 0000 0000 0000
00000110: 0000 0000 0000 0000 0000 0000 0000 0000
00000120: 0000 0000 0000 0000 0000 0000 0000 0000
00000130: 0000 0000 0000 0000 0000 0000 0000 0000
00000140: 0000 0000 0000 0000 0000 0000 0000 0000
00000150: 0000 0000 0000 0000 0000 0000 0000 0000
00000160: 0000 0000 0000 0000 0000 0000 0000 0000
00000170: 0000 0000 0000 0000 0000 0000 0000 0000
00000180: 0000 0000 0000 0000 0000 0000 0000 0000
00000190: 0000 0000 0000 0000 0000 0000 0000 0000
000001a0: 0000 0000 0000 0000 0000 0000 0000 0000
000001b0: 0000 0000 0000 0000 0000 0000 0000 0000
000001c0: 0000 0000 0000 0000 0000 0000 0000 0000
000001d0: 0000 0000 0000 0000 0000 0000 0000 0000
000001e0: 0000 0000 0000 0000 0000 0000 0000 0000
000001f0: 0000 0000 0000 0000 0000 0000 0000 0000

network_body.linear_encoder.seq_layers.2.weight f4 [128, 128]
-0.10490279 -0.061127737 0.07405571 0.127449 -0.005482783 0.04933926 0.0030308363 -0.071306646
0.068741195 -0.056094483 -0.09510252 0.008327389 0.040031556 0.07752661 0.1164782 0.11523594
-0.008794053 -0.11935733 -0.008133396 -0.12854113 -0.010089147 0.05720211 0.11116025 0.03921826
0.009416055 -0.034758177 0.050843917 0.15695904 -0.0014475343 -0.08316629 -0.08369538 0.1255814
-0.042457484 -0.100697294 0.066246614 -0.049945965 -0.0119670825 -0.07079577 0.000101086385 -0.05174548
-0.026777864 0.096404076 -0.104461774 -0.054989208 -0.01552689 -0.043866232 -0.0819132 -0.018300205
-0.105053715 -0.04266292 -0.011356135 -0.02321004 0.11732368 0.050267324 0.06332453 0.031790115
0.07294684 0.124304086 0.09729035 0.02062356 -0.080086574 0.07161364 0.1265955 -0.044885892
0.11287523 0.010254501 0.080881275 0.01892883 0.079433516 0.06497338 0.08908244 0.21634877
0.042509355 0.15543288 0.12757754 -0.033670887 0.013512345 -0.085766785 0.06557371 0.037359484
0.09579751 -0.07658174 -0.042650383 -0.09741579 0.03798375 0.021144722 -0.06983053 -0.054817285
0.06137471 0.061717294 0.11054169 0.17796883 -0.0026033935 -0.06337844 -0.016948009 -0.0073390887
0.04708819 -0.1127521 0.11477175 0.11741643 -0.20693955 -0.04119757 0.22585374 -0.04399559
-0.012108931 -0.0068345307 -0.06081323 0.0300583 0.061201207 -0.065545954 0.003758237 0.09926266
-0.12587413 -0.08086858 -0.036963228 -0.1534776 0.05904609 0.11679976 -0.12997313 0.10457027
-0.053973168 -0.05499847 -0.06768536 -0.120866686 -0.06400302 0.021510065 -0.017126426 0.09693878
-0.012545428 0.08799016 0.101266555 -0.049186762 0.018713208 -0.03535037 0.02452657 0.09118404
0.16995104 0.013479618 -0.0471983 -0.11143432 0.047884688 -0.050468523 0.055311326 -0.09258331
-0.06299344 0.048521794 0.102027126 0.08743751 -0.029752387 -0.0023861062 0.059919793 -0.079117686
-0.0813563 -0.20695414 -0.03856868 0.11695604 -0.09304577 0.002503476 -0.2285745 -0.053851895
-0.03845556 -0.15940128 -0.15645048 0.041103847 -0.0045495937 -0.03759569 -0.025414957 0.09489846
-0.012243042 -0.027840095 -0.13169236 0.056189913 -0.020230869 0.019767633 0.024845038 0.03250237
-0.04450647 -0.0047252136 0.078235775 0.009319653 0.061723653 0.026076997 -0.054553553 0.188825
0.05685348 0.02285998 -0.18504079 0.0585103 0.016049884 0.18856578 0.0781777 -0.090325035
0.060491562 -0.09854773 0.028387485 -0.032429703 0.12991202 0.049117893 -0.117562756 0.0563778
0.03552163 -0.10339206 -0.025484128 0.08550384 0.12738569 -0.0015504766 0.08865451 -0.008769486
-0.084736384 -0.0013318385 0.10881987 0.086679384 0.06033321 0.15989637 0.03909129 -0.1310135
-0.027367419 -0.040302735 -0.039887346 -0.0138217965 -0.17813778 0.08328414 0.08212181 -0.027804112
-0.013700451 -0.047824632 0.10355963 0.11673448 0.07117106 -0.007895854 -0.10969521 0.042552587
0.05056328 -0.15536274 -0.061815985 0.019752597 0.023324814 -0.14167264 -0.07411722 0.06427401
-0.14924617 -0.0118470155 0.08707422 0.0944868 -0.041574113 0.0052473466 0.25339258 -0.010065966
0.05028007 -0.15647101 -0.14310093 0.034340363 -0.026305342 0.06804141 0.033535648 0.011253602
00000000: 46d7 d6bd 1461 7abd 85aa 973d fe81 023e
00000010: eba8 b3bb f717 4a3d ffa0 463b 3809 92bd
00000020: 2fc8 8c3d 54c3 65bd 1cc5 c2bd 9a6f 083c
00000030: 21f8 233d 45c6 9e3d 1f8c ee3d d200 ec3d
00000040: ef14 10bc 9e71 f4bd ef41 05bc 49a0 03be
00000050: f34c 25bc c24c 6a3d fca7 e33d 54a3 203d
00000060: cc45 1a3c 975e 0ebd b641 503d dfb9 203e
00000070: 31bb bdba 1653 aabd 7c68 abbd 6998 003e
00000080: e6e7 2dbd 623a cebd 4eac 873d 2494 4cbd
00000090: 9511 44bc 5ffd 90bd 57fe d338 12f3 53bd
000000a0: 405d dbbc 806f c53d 0ef0 d5bd 5d3c 61bd
000000b0: 7f64 7ebc 14ad 33bd 1cc2 a7bd 50ea 95bc
000000c0: 6726 d7bd 50bf 2ebd 150f 3abc fb22 bebc
000000d0: 6647 f03d 1ce5 4d3d 4bb0 813d 5a36 023d
000000e0: 2765 953d 2493 fe3d 2a40 c73d bdf2 a83c
000000f0: 6e04 a4bd 2caa 923d 40a2 013e 45da 37bd
00000100: 212b e73d 7f02 283c 15a5 a53d a210 9b3c
00000110: 0aae a23d c310 853d db70 b63d 888a 5d3e
00000120: 4a1e 2e3d cc29 1f3e b0a3 023e 7cea 09bd
00000130: e262 5d3c 7fa6 afbd 824b 863d 4206 193d
00000140: 7c31 c43d e3d6 9cbd 2bb2 2ebd ee81 c7bd
00000150: d994 1b3d b237 ad3c 4f03 8fbd 1788 60bd
00000160: 0c64 7b3d 46cb 7c3d ae63 e23d 763d 363e
00000170: b29d 2abb 8ecc 81bd 8dd6 8abc bd7c f0bb
00000180: 8cdf 403d 93ea e6bd 740d eb3d 0678 f03d
00000190: f6e7 53be c8be 28bd 3446 673e b834 34bd
000001a0: 8a64 46bc 33f4 dfbb 4b17 79bd d33c f63c
000001b0: 1eae 7a3d f53c 86bd c14c 763b 394a cb3d
000001c0: 26e5 00be 6d9e a5bd c166 17bd 3b29 1dbe
000001d0: 50da 713d b634 ef3d ad17 05be f028 d63d
000001e0: f812 5dbd 1346 61bd 9f9e 8abd f488 f7bd
000001f0: 0414 83bd e035 b03c b84c 8cbc d787 c63d
00000200: 578b 4dbc 2f34 b43d d764 cf3d 0f78 49bd
00000210: 714c 993c 8dcb 10bd f2eb c83c b3be ba3d
00000220: a507 2e3e 9ed9 5c3c 0153 41bd ad37 e4bd
00000230: bc22 443d 15b8 4ebd 218e 623d 529c bdbd
00000240: b402 81bd cabe 463d 99f3 d03d 7012 b33d
00000250: 47bb f3bc 3860 1cbb 756e 753d 7408 a2bd
00000260: 229e a6bd c9eb 53be 31fa 1dbd a686 ef3d
00000270: c88e bebd 5c11 243b 6f0f 6abe ce93 5cbd
00000280: 9483 1dbd 173a 23be 8e34 20be 825c 283d
00000290: c214 95bb f0fd 19bd 0733 d0bc 205a c23d
000002a0: 0a97 48bc e910 e4bc 5dda 06be 6527 663d
000002b0: 35bb a5bc bbef a13c d287 cb3c 3521 053d
000002c0: 6b4c 36bd f7d5 9abb 143a a03d 75b1 183c
000002d0: f1d1 7c3d 6d9f d53c 8c73 5fbd 575b 413e
000002e0: 32df 683d da44 bb3c 557b 3dbe 7fa8 6f3d
000002f0: 0c7b 833c 6317 413e a11b a03d 55fc b8bd
00000300: 00c6 773d 64d3 c9bd df8c e83c 02d5 04bd
00000310: a807 053e d82f 493d bec4 f0bd 68ec 663d
00000320: 217f 113d 37bf d3bd 17c4 d0bc a31c af3d
00000330: 6571 023e 5d39 cbba 7f90 b53d e4ad 0fbc
00000340: 458a adbd 1691 aeba f4dc de3d f684 b13d
00000350: f51f 773d e0bb 233e 301e 203d 6728 06be
00000360: a331 e0bc 7b14 25bd ea60 23bd d174 62bc
00000370: c069 36be e090 aa3d 7b2f a83d 73c5 e3bc
00000380: db77 60bc c3e3 43bd 1217 d43d 7d12 ef3d
00000390: 22c2 913d 9d5d 01bc e2a7 e0bd 9f4b 2e3d
000003a0: 711b 4f3d 6917 1fbe c232 7dbd 33d0 a13c
000003b0: ae13 bf3c a212 11be c5ca 97bd 18a2 833d
000003c0: fdd3 18be fc19 42bc f853 b23d 4c82 c13d
000003d0: 9e49 2abd eff1 ab3b acbc 813e b9eb 24bc
000003e0: 7af2 4d3d f039 20be 0d89 12be 7ba8 0c3d
000003f0: 4d7e d7bc 4b59 8b3d ad5c 093d 0761 383c

network_body.linear_encoder.seq_layers.2.bias f4 [128]
0.0 0.0 0.0 0.0 0.0 0.0 0.0 0.0
0.0 0.0 0.0 0.0 0.0 0.0 0.0 0.0
0.0 0.0 0.0 0.0 0.0 0.0 0.0 0.0
0.0 0.0 0.0 0.0 0.0 0.0 0.0 0.0
0.0 0.0 0.0 0.0 0.0 0.0 0.0 0.0
0.0 0.0 0.0 0.0 0.0 0.0 0.0 0.0
0.0 0.0 0.0 0.0 0.0 0.0 0.0 0.0
0.0 0.0 0.0 0.0 0.0 0.0 0.0 0.0
0.0 0.0 0.0 0.0 0.0 0.0 0.0 0.0
0.0 0.0 0.0 0.0 0.0 0.0 0.0 0.0
0.0 0.0 0.0 0.0 0.0 0.0 0.0 0.0
0.0 0.0 0.0 0.0 0.0 0.0 0.0 0.0
0.0 0.0 0.0 0.0 0.0 0.0 0.0 0.0
0.0 0.0 0.0 0.0 0.0 0.0 0.0 0.0
0.0 0.0 0.0 0.0 0.0 0.0 0.0 0.0
0.0 0.0 0.0 0.0 0.0 0.0 0.0 0.0
00000000: 0000 0000 0000 0000 0000 0000 0000 0000
00000010: 0000 0000 0000 0000 0000 0000 0000 0000
00000020: 0000 0000 0000 0000 0000 0000 0000 0000
00000030: 0000 0000 0000 0000 0000 0000 0000 0000
00000040: 0000 0000 0000 0000 0000 0000 0000 0000
00000050: 0000 0000 0000 0000 0000 0000 0000 0000
00000060: 0000 0000 0000 0000 0000 0000 0000 0000
00000070: 0000 0000 0000 0000 0000 0000 0000 0000
00000080: 0000 0000 0000 0000 0000 0000 0000 0000
00000090: 0000 0000 0000 0000 0000 0000 0000 0000
000000a0: 0000 0000 0000 0000 0000 0000 0000 0000
000000b0: 0000 0000 0000 0000 0000 0000 0000 0000
000000c0: 0000 0000 0000 0000 0000 0000 0000 0000
000000d0: 0000 0000 0000 0000 0000 0000 0000 0000
000000e0: 0000 0000 0000 0000 0000 0000 0000 0000
000000f0: 0000 0000 0000 0000 0000 0000 0000 0000
00000100: 0000 0000 0000 0000 0000 0000 0000 0000
00000110: 0000 0000 0000 0000 0000 0000 0000 0000
00000120: 0000 0000 0000 0000 0000 0000 0000 0000
00000130: 0000 0000 0000 0000 0000 0000 0000 0000
00000140: 0000 0000 0000 0000 0000 0000 0000 0000
00000150: 0000 0000 0000 0000 0000 0000 0000 0000
00000160: 0000 0000 0000 0000 0000 0000 0000 0000
00000170: 0000 0000 0000 0000 0000 0000 0000 0000
00000180: 0000 0000 0000 0000 0000 0000 0000 0000
00000190: 0000 0000 0000 0000 0000 0000 0000 0000
000001a0: 0000 0000 0000 0000 0000 0000 0000 0000
000001b0: 0000 0000 0000 0000 0000 0000 0000 0000
000001c0: 0000 0000 0000 0000 0000 0000 0000 0000
000001d0: 0000 0000 0000 0000 0000 0000 0000 0000
000001e0: 0000 0000 0000 0000 0000 0000 0000 0000
000001f0: 0000 0000 0000 0000 0000 0000 0000 0000

action_model._discrete_distribution.branches.0.weight f4 [5, 128]
0.010143089 -0.012205471 0.0022283278 0.009984664 -0.00049646996 0.0036080622 -0.021960711 -0.008637517
0.009291337 0.0011053942 0.0029590386 -8.749082e-06 0.0055981665 -0.005255506 -0.009522705 0.00514943
0.00035394623 -0.007205789 -0.0025454485 0.0069337697 -0.0051747286 -0.012527873 -0.006001503 -0.0020047713
-0.0003179689 0.008963856 -0.012956485 0.012107515 0.0033112247 -0.0027736155 -0.0064137387 -0.0071356567
-0.008653558 -0.0056347703 -0.0019823262 -0.00967487 -0.004105982 -0.0054664924 0.009143693 -0.0047799754
-0.00047342075 0.008795495 -0.0075088143 -0.00967599 0.0012869913 0.011175549 0.0048461286 -0.0103577785
0.015575397 -0.005706698 -0.0066627907 0.008271191 0.0027732663 0.009891227 0.006675098 0.00048480174
-0.0060189646 -0.013499007 -0.0068886154 -0.0021464939 -0.005634948 -0.0003164138 -0.0044991216 -0.004332532
0.007035978 0.007420855 -0.013137844 0.0124121085 0.003695871 -0.0051450836 0.0028669026 -0.0059022377
0.0051538637 -0.008119123 0.0061957426 0.010415621 -0.0018200976 0.0062554413 0.0003687379 -0.002971002
0.010589078 0.0015244033 -0.008133005 0.013085628 -0.002240908 0.0040087765 0.00249818 0.02115178
0.003057122 0.0037903287 0.014423007 0.0118481675 0.0073413537 -0.002090317 0.00092856976 -0.011776251
-0.012518487 0.009317176 -0.0093913935 -0.014718816 -0.012860255 0.00929445 0.0036170066 0.01707357
-0.007843804 0.007272734 -0.019509083 -0.007984945 0.0044623856 -0.007786428 -0.011915823 -0.011876292
0.012805811 -0.008993154 -0.011030841 -0.0052239005 -0.0014366428 0.0061445665 -0.008650744 0.0057600024
0.0031102132 0.0036094699 -0.01527458 -0.013234793 0.008696098 0.011573481 0.012697994 0.015512514
0.012297043 0.0048119198 0.0005350173 -0.0083897775 -0.011410979 -0.00853623 -0.0029488169 0.0019014169
-0.0023580142 0.0010372746 -4.0864255e-05 -0.0031403203 -0.013467128 -0.0011574707 0.015975304 0.0010801449
-0.0048163845 -0.00077937165 0.0051564313 0.01606278 -0.0040793796 -0.0017569242 -0.004323481 0.005414565
-0.0131068155 0.016946374 -0.019190472 0.0035048388 -0.0034012222 0.003298469 0.012383128 -0.009725819
-0.0018028639 0.0039013308 0.00016739962 0.012850304 0.005056457 -0.012503751 0.013620122 -0.010085449
-0.01716407 0.019869443 -0.00047809174 0.020064516 -0.008760908 -0.0011749042 0.002937438 0.014308596
0.014069128 -0.00474217 0.0131004965 -0.009841262 -0.010113908 -0.008288036 -0.0006701869 0.017949423
0.0005771827 -0.008741772 0.0033277594 -0.011524156 0.009666033 0.0022694322 0.013064751 0.00013802934
0.00020482756 0.0012198184 -0.010569471 -0.007139078 -0.0066149547 -0.009824922 0.00969314 -0.010891954
0.003115053 -0.002550086 -0.00024364845 0.014807443 0.010641101 0.008451581 0.01588437 -0.0086929
-0.014414178 0.010013866 0.00805472 0.0028026686 0.016021064 -0.002315731 0.021766294 -0.0059227026
0.0073004523 0.013163275 -0.009895792 0.01597559 -0.0066511566 0.0016449429 -0.0053030974 -0.000320341
-0.00919449 -0.0010769855 -0.008060577 -0.009127246 0.00074729195 0.006502859 -0.004789686 -0.009299009
-0.010635443 0.009204185 0.0010841145 0.016601345 -0.0059996564 0.014704123 -0.00343049 -0.0036644407
0.0036301382 -0.00046428252 0.0025660712 -0.0024054507 -0.014211788 -0.0033063858 0.00026942903 -0.0034155452
0.007288754 0.0033451726 -0.02763643 0.00250235 -0.0041594612 -0.006863785 0.0069012195 -0.00070614304
00000000: 332f 263c 75f9 47bc 2309 123b b796 233c
00000010: 8925 02ba 3d75 6c3b f3e6 b3bc 5f84 0dbc
00000020: b13a 183c e0e2 903a 6eec 413b 05c9 12b7
00000030: d370 b73b 6136 acbb 1f05 1cbc 8dbc a83b
00000040: dc91 b939 8a1e ecbb 8ad1 26bb ad34 e33b
00000050: c590 a9bb b541 4dbc 42a8 c4bb 7b62 03bb
00000060: 10b5 a6b9 23dd 123c 7047 54bc 995e 463c
00000070: 2201 593b 8cc5 35bb 572a d2bb 3ad2 e9bb
00000080: a7c7 0dbc e1a3 b8bb eae9 01bb 5983 1ebc
00000090: 798b 86bb 4320 b3bb 6ecf 153c 57a1 9cbb
000000a0: 7535 f8b9 fb1a 103c 800c f6bb 0b88 1ebc
000000b0: 43b0 a83a a619 373c 46cc 9e3b acb3 29bc
000000c0: f32f 7f3c 41ff babb 8a53 dabb e483 073c
000000d0: b0bf 353b d00e 223c c8ba da3b fd2c fe39
000000e0: bc3a c5bb f02a 5dbc e5b9 e1bb 31ac 0cbb
000000f0: 5fa5 b8bb 57e4 a5b9 5e6d 93bb eaf7 8dbb
00000100: 108e e63b a52a f33b 1d40 57bc 285c 4b3c
00000110: 6d36 723b 1798 a8bb a5e2 3b3b 8f67 c1bb
00000120: bee1 a83b 1206 05bc a805 cb3b 48a6 2a3c
00000130: 5790 eeba 72fa cc3b 2a53 c139 24b5 42bb
00000140: d07d 2d3c 7dce c73a 4c40 05bc 1a65 563c
00000150: 33dc 12bb 0e5c 833b 81b8 233b 7f46 ad3c
00000160: ff59 483b 2a67 783b 7a4e 6c3c d11e 423c
00000170: bd8f f03b b3fd 08bb 436b 733a 2df1 40bc
00000180: 571a 4dbc 12a7 183c 5cde 19bc 3027 71bc
00000190: d2b3 52bc c047 183c 4d0b 6d3b dfdd 8b3c
000001a0: 4c83 00bc 1d50 ee3b 83d1 9fbc 49d3 02bc
000001b0: 3439 923b 4b25 ffbb 963a 43bc c794 42bc
000001c0: 77cf 513c 0658 13bc b3ba 34bc 412d abbb
000001d0: bc4d bcba 5c58 c93b dabb 0dbc 67be bc3b
000001e0: b8d4 4b3b db8c 6c3b 3b42 7abc bfd6 58bc
000001f0: 147a 0e3c b39e 3d3c 3f0b 503c 3328 7e3c
00000200: 8979 493c 4fad 9d3b 6740 0c3a 4775 09bc
00000210: 1df5 3abc 8bdb 0bbc f040 41bb f738 f93a
00000220: ea88 1abb 29f5 873a a965 2bb8 d5cd 4dbb
00000230: 3ba5 5cbc 46b6 97ba a4de 823c a693 8d3a
00000240: c3d2 9dbb bf4e 4cba 48f7 a83b 1796 833c
00000250: 51ac 85bb 9848 e6ba fdab 8dbb aa6c b13b
00000260: f8bd 56bc 1fd3 8a3c 5635 9dbc 70b1 653b
00000270: 0ae7 5ebb 202b 583b 9ae2 4a3c 0b59 1fbc
00000280: 134e ecba 78ad 7f3b fe87 2f39 158a 523c
00000290: a3b0 a53b 88dc 4cbc ef26 5f3c 703d 25bc
000002a0: aa9b 8cbc 3ec5 a23c 63a8 fab9 575e a43c
000002b0: e989 0fbc 3eff 99ba 0882 403b 9a6e 6a3c
000002c0: 3382 663c 3564 9bbb 77a3 563c 3f3d 21bc
000002d0: ceb4 25bc 8bca 07bc 7baf 2fba ab0a 933c
000002e0: 134e 173a a639 0fbc 8a16 5a3b d0cf 3cbc
000002f0: 485e 1e3c c1ba 143b 8a0d 563c f8bb 1039
00000300: fbc6 5639 50e2 9f3a 932b 2dbc edee e9bb
00000310: 43c2 d8bb b6f8 20bc facf 1e3c 2b74 32bc
00000320: eb25 4c3b 581f 27bb e27b 7fb9 eb9a 723c
00000330: 0358 2e3c 8078 0a3c f01f 823c aa6c 0ebc
00000340: 7229 6cbc 3311 243c f2f7 033c faac 373b
00000350: 9b3e 833c 85c3 17bb 3a4f b23c 3b13 c2bb
00000360: a238 ef3b c7aa 573c f621 22bc 3edf 823c
00000370: f2f1 d9bb 209b d73a 9bc5 adbb 71f3 a7b9
00000380: 7ca4 16bc a329 8dba 8310 04bc 728a 15bc
00000390: eae5 433a ef15 d53b ccf2 9cbb df5a 18bc
000003a0: 4840 2ebc 26cd 163c d918 8e3a 8bff 873c
000003b0: c498 c4bb 90e9 703c 12d2 60bb 1d27 70bb
000003c0: 9de7 6d3b f26a f3b9 882b 283b c4a4 1dbb
000003d0: 8fd8 68bc f3af 58bb 2742 8d39 57d7 5fbb
000003e0: 80d6 ee3b af3a 5b3b cb65 e2bc 77fe 233b
000003f0: 174c 88bb 9ae9 e0bb a023 e23b 751c 39ba

action_model._discrete_distribution.branches.0.bias f4 [5]
0.0 0.0 0.0 0.0 0.0
00000000: 0000 0000 0000 0000 0000 0000 0000 0000
00000010: 0000 0000

critic.network_body.linear_encoder.seq_layers.0.weight f4 [128, 1]
0.009496798 2.5810122 0.2735675 -0.21617757 1.001187 -0.45362344 -0.0823456 0.6799509
0.93153995 -2.5823894 -1.2398392 0.9087123 0.12669976 1.4722906 -0.49196687 1.3035939
0.2863564 -0.7961477 -0.9231702 0.53013045 0.71865696 -0.89082515 0.30058914 0.70838106
-0.1001287 0.2609325 0.38177845 -0.14585845 0.038002968 1.1728959 1.1741903 -0.53209054
-1.6461936 0.41324136 -0.6090335 -0.86086726 -1.8113745 0.21582316 0.9390399 -0.27221072
0.84820175 0.58313227 -0.22249481 0.935493 0.9119437 -0.51075274 2.0756297 -0.632982
0.017389692 -0.43149 -0.003017867 -1.3425709 -1.5203956 0.82017636 0.3065014 -0.051963307
-0.47874117 -0.99193984 0.38311422 -0.16097672 -0.2224299 0.23607293 -0.5052795 -0.6362338
1.0643517 1.4873422 -1.0113792 -1.2292072 0.68331474 -0.25248224 -1.3329043 0.49896562
-2.2185962 2.1967604 1.1883452 -1.1944661 -0.911708 0.06648645 1.6178746 1.177097
-0.18696906 1.402007 0.4327059 -1.8185025 0.2763496 0.22473083 0.6222899 -1.0914415
-0.019070746 -0.62682265 0.2625062 -1.699808 0.6740288 -1.2751876 -1.389243 1.1744471
0.76041317 -0.7754425 0.8386221 -0.59556556 0.9930897 0.29556865 1.4824215 -1.4578154
1.1675464 -0.64146864 -1.0825882 0.09040427 -0.70513976 -0.51603305 0.51471233 -1.0115026
-0.4602327 0.5359549 1.0950748 -1.377526 0.0024596162 1.7189555 -0.2502083 -0.48444673
0.46255335 -1.6908695 1.0136218 -1.5046923 -0.38970312 0.47945344 -1.0121887 -1.0739117
00000000: 7598 1b3c 4e2f 2540 0a11 8c3e a75d 5dbe
00000010: e526 803f 5541 e8be cfa4 a8bd 4311 2e3f
00000020: 6779 6e3f de45 25c0 0db3 9ebf 5fa1 683f
00000030: 95bd 013e 0574 bc3f 15e3 fbbe 2adc a63f
00000040: 4e9d 923e 56d0 4bbf e254 6cbf a1b6 073f
00000050: e7f9 373f 1e0d 64bf d2e6 993e 7658 353f
00000060: 4710 cdbd f298 853e 7778 c33e eb5b 15be
00000070: 00a9 1b3d 7421 963f de4b 963f 1637 08bf
00000080: 79b6 d2bf 5f94 d33e 9fe9 1bbf cc61 5cbf
00000090: 1fdb e7bf bf00 5d3e eb64 703f 345f 8bbe
000000a0: c023 593f 2848 153f aed5 63be 787c 6f3f
000000b0: 2475 693f b1c0 02bf 1ed7 0440 1c0b 22bf
000000c0: d474 8e3c 42ec dcbe 68c7 45bb 5dd9 abbf
000000d0: 539c c2bf 14f7 513f c0ed 9c3e 7ad7 54bd
000000e0: 901d f5be c5ef 7dbf 8c27 c43e 15d7 24be
000000f0: aac4 63be 1abd 713e ff59 01bf 38e0 22bf
00000100: ad3c 883f 3b61 be3f e074 81bf a956 9dbf
00000110: b7ed 2e3f 5a45 81be 9c9c aabf 6c78 ff3e
00000120: 7bfd 0dc0 b997 0c40 b21b 983f 44e4 98bf
00000130: b265 69bf 0c2a 883d 8416 cf3f 1dab 963f
00000140: d174 3fbe f774 b33f a18b dd3e b1c4 e8bf
00000150: b27d 8d3e d71f 663e 644e 1f3f 5bb4 8bbf
00000160: 413a 9cbc 7377 20bf 3667 863e 4f93 d9bf
00000170: 278d 2c3f 5939 a3bf b7d2 b1bf 4854 963f
00000180: 70aa 423f 6683 46bf f0af 563f fc76 18bf
00000190: 203b 7e3f c654 973e fdbf bd3f b299 babf
000001a0: 2972 953f 4a37 24bf 4092 8abf e025 b93d
000001b0: 0a84 34bf be1a 04bf 30c4 033f eb78 81bf
000001c0: 9fa3 ebbe 5734 093f 692b 8c3f c652 b0bf
000001d0: 8331 213b bc06 dc3f 4d1b 80be 6709 f8be
000001e0: cbd3 ec3e 696e d8bf 5cbe 813f c299 c0bf
000001f0: 2b87 c7be ec7a f53e 668f 81bf f075 89bf

critic.network_body.linear_encoder.seq_layers.0.bias f4 [128]
0.0 0.0 0.0 0.0 0.0 0.0 0.0 0.0
0.0 0.0 0.0 0.0 0.0 0.0 0.0 0.0
0.0 0.0 0.0 0.0 0.0 0.0 0.0 0.0
0.0 0.0 0.0 0.0 0.0 0.0 0.0 0.0
0.0 0.0 0.0 0.0 0.0 0.0 0.0 0.0
0.0 0.0 0.0 0.0 0.0 0.0 0.0 0.0
0.0 0.0 0.0 0.0 0.0 0.0 0.0 0.0
0.0 0.0 0.0 0.0 0.0 0.0 0.0 0.0
0.0 0.0 0.0 0.0 0.0 0.0 0.0 0.0
0.0 0.0 0.0 0.0 0.0 0.0 0.0 0.0
0.0 0.0 0.0 0.0 0.0 0.0 0.0 0.0
0.0 0.0 0.0 0.0 0.0 0.0 0.0 0.0
0.0 0.0 0.0 0.0 0.0 0.0 0.0 0.0
0.0 0.0 0.0 0.0 0.0 0.0 0.0 0.0
0.0 0.0 0.0 0.0 0.0 0.0 0.0 0.0
0.0 0.0 0.0 0.0 0.0 0.0 0.0 0.0
00000000: 0000 0000 0000 0000 0000 0000 0000 0000
00000010: 0000 0000 0000 0000 0000 0000 0000 0000
00000020: 0000 0000 0000 0000 0000 0000 0000 0000
00000030: 0000 0000 0000 0000 0000 0000 0000 0000
00000040: 0000 0000 0000 0000 0000 0000 0000 0000
00000050: 0000 0000 0000 0000 0000 0000 0000 0000
00000060: 0000 0000 0000 0000 0000 0000 0000 0000
00000070: 0000 0000 0000 0000 0000 0000 0000 0000
00000080: 0000 0000 0000 0000 0000 0000 0000 0000
00000090: 0000 0000 0000 0000 0000 0000 0000 0000
000000a0: 0000 0000 0000 0000 0000 0000 0000 0000
000000b0: 0000 0000 0000 0000 0000 0000 0000 0000
000000c0: 0000 0000 0000 0000 0000 0000 0000 0000
000000d0: 0000 0000 0000 0000 0000 0000 0000 0000
000000e0: 0000 0000 0000 0000 0000 0000 0000 0000
000000f0: 0000 0000 0000 0000 0000 0000 0000 0000
00000100: 0000 0000 0000 0000 0000 0000 0000 0000
00000110: 0000 0000 0000 0000 0000 0000 0000 0000
00000120: 0000 0000 0000 0000 0000 0000 0000 0000
00000130: 0000 0000 0000 0000 0000 0000 0000 0000
00000140: 0000 0000 0000 0000 0000 0000 0000 0000
00000150: 0000 0000 0000 0000 0000 0000 0000 0000
00000160: 0000 0000 0000 0000 0000 0000 0000 0000
00000170: 0000 0000 0000 0000 0000 0000 0000 0000
00000180: 0000 0000 0000 0000 0000 0000 0000 0000
00000190: 0000 0000 0000 0000 0000 0000 0000 0000
000001a0: 0000 0000 0000 0000 0000 0000 0000 0000
000001b0: 0000 0000 0000 0000 0000 0000 0000 0000
000001c0: 0000 0000 0000 0000 0000 0000 0000 0000
000001d0: 0000 0000 0000 0000 0000 0000 0000 0000
000001e0: 0000 0000 0000 0000 0000 0000 0000 0000
000001f0: 0000 0000 0000 0000 0000 0000 0000 0000

critic.network_body.linear_encoder.seq_layers.2.weight f4 [128, 128]
0.02228976 -0.033338122 -0.22502348 -0.123624995 0.15044813 -0.03902109 0.056953274 -0.05300643
-0.1665661 -0.020568082 -0.123772554 -0.12076941 0.007411601 0.15498622 -0.036307175 0.053885523
0.02702939 0.16717252 0.12573373 -0.0633526 -0.033229727 -0.03551741 0.22059408 0.17845076
-0.0042314087 -0.0065669212 -0.114381626 -0.08688322 -0.05153445 0.2048922 -0.040144686 0.047308203
-0.18462482 -0.021804001 0.0653868 0.019837916 -0.0025041727 -0.06335504 0.06582752 0.026013654
-0.012774601 -0.14780542 0.027575856 0.009461041 -0.0864552 0.05364907 0.00387467 0.0050766324
-0.08482793 -0.0069352537 0.11309757 0.005365694 0.03517061 -0.068858474 -0.021017266 -0.012614778
0.033288136 0.029068612 -0.049052626 0.03836991 0.08844004 0.08688542 0.057741325 -0.0030864265
-0.13934758 0.024705926 -0.048675552 -0.06282203 -0.0030202079 0.13490956 -0.0026694043 0.059841745
0.12399156 -0.14634398 0.0060643135 -0.06347544 -0.115874104 0.07719154 -0.11065984 -0.1210011
-0.07472399 -0.09074094 0.024479063 0.10574857 -0.15410082 -0.031202134 0.0063648038 -0.09881053
-0.09921363 0.021645585 0.039638806 0.026630523 -0.08250892 -0.01930722 0.1884578 0.10633787
0.03525202 -0.0011564123 -0.052608866 0.11297286 0.03273446 -0.18901205 0.21133266 -0.06715856
0.0022341043 -0.019898867 -0.22436889 -0.025508877 4.4182492e-05 -0.07974223 -0.07540986 0.11801398
0.12913543 0.13231088 -0.100710064 -0.06833623 0.15640655 -0.0055125738 0.075304076 0.079200074
-0.019434776 0.023732346 -0.16105981 0.10103308 -0.05743881 -0.012399721 -0.0827621 0.1841322
0.052536905 -0.07419201 0.06203134 0.069462776 0.13597812 0.21654494 -0.061888706 -0.016446505
0.017326917 0.031971376 -0.09017178 -0.022361528 0.118339814 0.17769064 0.03294874 -0.05004776
0.030357337 -0.046309423 -0.12374 0.05735349 0.08405819 0.022973528 -0.03611548 0.043980677
0.05216102 -0.04261293 0.15912257 0.008096365 0.08088213 0.009434864 -0.019884905 0.1038095
0.016886031 0.048227426 -0.0033517412 -0.11935741 0.054881543 -0.024173658 0.035891794 -0.10560865
0.1234145 -0.006785567 -0.0057390393 -0.05544788 0.069636926 0.04116705 0.050025515 0.04163921
-0.044495434 0.07420161 -0.07971668 0.048075993 0.096556365 0.035247985 -0.07347367 -0.033320684
-0.003067066 -0.01907719 0.035604347 -0.17665654 -0.1697954 -0.018307943 -0.069371365 0.12157546
0.03782826 0.06200253 0.05669319 0.1493248 -0.1113312 0.00010208834 0.09954011 0.04533627
-0.09001214 0.02830017 0.07560313 -0.019174581 0.14191072 0.09635622 0.052990094 -0.12482906
-0.15860213 0.11583752 -0.14639685 -0.104350686 -0.059544973 -0.11952675 -0.09818463 0.11102914
-0.06682299 -0.08689912 -0.0890321 -0.12996005 -0.04792063 0.110638045 0.0033508209 0.0073839105
-0.093528196 -0.05028906 0.000939932 -0.048016954 0.0026565304 -0.062832154 0.13744903 -0.0888902
-0.042450145 -0.0021383378 -0.038159408 0.06981662 0.058266267 0.049187154 0.10753772 -0.019550012
0.20668778 0.06364975 0.11760238 0.08685736 0.04711733 0.008039738 -0.12932937 0.1732423
-0.036253165 -0.14114702 -0.100929886 -0.14059432 0.13693416 -0.004664009 -0.1756844 0.072461456
00000000: 0499 b63c 8e8d 08bd 8e6c 66be 1a2f fdbd
00000010: 130f 1a3e 94d4 1fbd d647 693d 451d 59bd
00000020: 4e90 2abe 657e a8bc 777c fdbd f455 f7bd
00000030: 04dd f23b b5b4 1e3e d5b6 14bd 11b7 5c3d
00000040: bd6c dd3c 462f 2b3e 58c0 003e 02bf 81bd
00000050: e51b 08bd b47a 11bd 6ae3 613e ccbb 363e
00000060: a1a7 8abb 542f d7bb ea40 eabd d4ef b1bd
00000070: ca15 53bd 43cf 513e c16e 24bd 3fc6 413d
00000080: 4a0e 3dbe 4e9e b2bc 84e9 853d 2083 a23c
00000090: 0c1d 24bb 4ac0 81bd 94d0 863d 961a d53c
000000a0: 8f4c 51bc 4e5a 17be c3e6 e13c 7b02 1b3c
000000b0: 6d0f b1bd 21bf 5b3d 2dee 7d3b e159 a63b
000000c0: 44ba adbd 2041 e3bb b39f e73d b4d2 af3b
000000d0: 0f0f 103d ac05 8dbd 672c acbc 37ae 4ebc
000000e0: 2459 083d 4c21 ee3c 68eb 48bd c429 1d3d
000000f0: 0d20 b53d fcf0 b13d 2b82 6c3d a545 4abb
00000100: 22b1 0ebe 1564 ca3c 0460 47bd d6a8 80bd
00000110: aeee 45bb bb25 0a3e 2cf1 2ebb 9e1c 753d
00000120: 49ef fd3d 32db 15be 26b7 c63b 69ff 81bd
00000130: 674f edbd 9916 9e3d a0a1 e2bd 6dcf f7bd
00000140: e408 99bd 63d6 b9bd 5188 c83c b592 d83d
00000150: 9bcc 1dbe 9e9b ffbc d88f d03b 2d5d cabd
00000160: 8430 cbbd 1552 b13c 4d5c 223d 4128 da3c
00000170: 70fa a8bd 2d2a 9ebc 15fb 403e abc7 d93d
00000180: 6c64 103d c292 97ba 657c 57bd 515e e73d
00000190: 9214 063d 608c 41be 9767 583e 6d8a 89bd
000001a0: 0d6a 123b f302 a3bc f5c0 65be fef7 d0bc
000001b0: 9750 3938 e54f a3bd 7c70 9abd 50b1 f13d
000001c0: 143c 043e 817c 073e 1441 cebd def3 8bbd
000001d0: 0a29 203e d2a2 b4bb 0639 9a3d a633 a23d
000001e0: ae35 9fbc 566a c23c ddec 24be 6eea ce3d
000001f0: f544 6bbd 3328 4bbc 2d7f a9bd 278d 3c3e
00000200: f030 573d fbf1 97bd 9314 7e3d 8042 8e3d
00000210: d93d 0b3e f5bd 5d3e 037f 7dbd d2ba 86bc
00000220: 2ef1 8d3c 6bf4 023d fbab b8bd 862f b7bc
00000230: 255c f23d 89f4 353e 42f5 063d e1fe 4cbd
00000240: f3af f83c f3ae 3dbd 666b fdbd 7eeb 6a3d
00000250: b326 ac3d fb32 bc3c d3ed 13bd 1525 343d
00000260: cba6 553d e58a 2ebd 07f1 223e 9ea6 043c
00000270: 88a5 a53d b094 1a3c abe5 a2bc 139a d43d
00000280: 9354 8a3c 1f8a 453d e3a8 5bbb a871 f4bd
00000290: 78cb 603d d607 c6bc 4603 133d 5949 d8bd
000002a0: bec0 fc3d 7659 debb 8d0e bcbb 511d 63bd
000002b0: ce9d 8e3d c89e 283d 8ee7 4c3d e08d 2a3d
000002c0: d840 36bd 04f7 973d 8042 a3bd 55eb 443d
000002d0: 58bf c53d 3160 103d 5d79 96bd 457b 08bd
000002e0: d400 49bb c447 9cbc ddd5 113d 74e5 34be
000002f0: d8de 2dbe 8afa 95bc 9312 8ebd 8efc f83d
00000300: cef1 1a3d 5df6 7d3d 1e37 683d 9ae8 183e
00000310: 9d01 e4bd 4318 d638 afdb cb3d 86b2 393d
00000320: 4958 b8bd c2d5 e73c d0d5 9a3d 0314 9dbc
00000330: 0b51 113e 6956 c53d 240c 593d 61a6 ffbd
00000340: 9968 22be 393c ed3d 0ee9 15be d0b5 d5bd
00000350: 6ee5 73bd 71ca f4bd 0615 c9bd 3f63 e33d
00000360: 7eda 88bd 2af8 b1bd 7656 b6bd 3f14 05be
00000370: 6c48 44bd 3396 e23d 7299 5b3b bbf4 f13b
00000380: b68b bfbd e7fb 4dbd c565 763a 6dad 44bd
00000390: 2f19 2e3b 25ae 80bd 70bf 0c3e 110c b6bd
000003a0: 34e0 2dbd 5b23 0cbb 0a4d 1cbd 04fc 8e3d
000003b0: 9ca8 6e3d 7878 493d bc3c dc3d 5927 a0bc
000003c0: f6a5 533e cd5a 823d 84d9 f03d 46e2 b13d
000003d0: 1afe 403d 1bb9 033c eb6e 04be 6e66 313e
000003e0: 337e 14bd d888 10be 54b4 cebd f5f7 0fbe
000003f0: 7838 0c3e 8bd4 98bb 9de6 33be ac66 943d

critic.network_body.linear_encoder.seq_layers.2.bias f4 [128]
0.0 0.0 0.0 0.0 0.0 0.0 0.0 0.0
0.0 0.0 0.0 0.0 0.0 0.0 0.0 0.0
0.0 0.0 0.0 0.0 0.0 0.0 0.0 0.0
0.0 0.0 0.0 0.0 0.0 0.0 0.0 0.0
0.0 0.0 0.0 0.0 0.0 0.0 0.0 0.0
0.0 0.0 0.0 0.0 0.0 0.0 0.0 0.0
0.0 0.0 0.0 0.0 0.0 0.0 0.0 0.0
0.0 0.0 0.0 0.0 0.0 0.0 0.0 0.0
0.0 0.0 0.0 0.0 0.0 0.0 0.0 0.0
0.0 0.0 0.0 0.0 0.0 0.0 0.0 0.0
0.0 0.0 0.0 0.0 0.0 0.0 0.0 0.0
0.0 0.0 0.0 0.0 0.0 0.0 0.0 0.0
0.0 0.0 0.0 0.0 0.0 0.0 0.0 0.0
0.0 0.0 0.0 0.0 0.0 0.0 0.0 0.0
0.0 0.0 0.0 0.0 0.0 0.0 0.0 0.0
0.0 0.0 0.0 0.0 0.0 0.0 0.0 0.0
00000000: 0000 0000 0000 0000 0000 0000 0000 0000
00000010: 0000 0000 0000 0000 0000 0000 0000 0000
00000020: 0000 0000 0000 0000 0000 0000 0000 0000
00000030: 0000 0000 0000 0000 0000 0000 0000 0000
00000040: 0000 0000 0000 0000 0000 0000 0000 0000
00000050: 0000 0000 0000 0000 0000 0000 0000 0000
00000060: 0000 0000 0000 0000 0000 0000 0000 0000
00000070: 0000 0000 0000 0000 0000 0000 0000 0000
00000080: 0000 0000 0000 0000 0000 0000 0000 0000
00000090: 0000 0000 0000 0000 0000 0000 0000 0000
000000a0: 0000 0000 0000 0000 0000 0000 0000 0000
000000b0: 0000 0000 0000 0000 0000 0000 0000 0000
000000c0: 0000 0000 0000 0000 0000 0000 0000 0000
000000d0: 0000 0000 0000 0000 0000 0000 0000 0000
000000e0: 0000 0000 0000 0000 0000 0000 0000 0000
000000f0: 0000 0000 0000 0000 0000 0000 0000 0000
00000100: 0000 0000 0000 0000 0000 0000 0000 0000
00000110: 0000 0000 0000 0000 0000 0000 0000 0000
00000120: 0000 0000 0000 0000 0000 0000 0000 0000
00000130: 0000 0000 0000 0000 0000 0000 0000 0000
00000140: 0000 0000 0000 0000 0000 0000 0000 0000
00000150: 0000 0000 0000 0000 0000 0000 0000 0000
00000160: 0000 0000 0000 0000 0000 0000 0000 0000
00000170: 0000 0000 0000 0000 0000 0000 0000 0000
00000180: 0000 0000 0000 0000 0000 0000 0000 0000
00000190: 0000 0000 0000 0000 0000 0000 0000 0000
000001a0: 0000 0000 0000 0000 0000 0000 0000 0000
000001b0: 0000 0000 0000 0000 0000 0000 0000 0000
000001c0: 0000 0000 0000 0000 0000 0000 0000 0000
000001d0: 0000 0000 0000 0000 0000 0000 0000 0000
000001e0: 0000 0000 0000 0000 0000 0000 0000 0000
000001f0: 0000 0000 0000 0000 0000 0000 0000 0000

critic.value_heads.value_heads.extrinsic.weight f4 [1, 128]
0.012382105 0.093208194 0.0041944236 -0.039573565 0.0600518 0.17887649 -0.12475558 -0.16549776
-0.08477941 0.020591617 0.17123508 0.0947718 -0.050720513 -0.16181648 0.054142058 0.19124225
0.19802782 0.075428456 0.14398724 -0.13497597 0.022527501 0.053103507 -0.083306536 -0.14353824
-0.18094915 -0.020127997 0.04220292 -0.21372506 0.07990995 0.16313294 -0.1327492 -0.13200045
0.0260441 -0.11574955 0.03637445 -0.011176795 -0.0033668876 0.16594404 0.0114682615 -0.15148968
0.1944668 -0.029869676 -0.1329094 0.1561872 0.13265494 -0.052166864 -0.15050898 0.031453416
0.049970537 -0.13721225 -0.045215055 -0.21448454 0.12935218 -0.076848164 0.110440046 0.09727147
0.12349805 0.004520297 0.018244788 0.18715888 0.19636303 -0.11723368 0.20462477 0.18756652
0.1677855 0.14108509 0.18810019 0.023958713 -0.1075345 0.08825818 -0.018520668 -0.21409422
0.20090878 -0.078121364 0.0059747994 -0.13356131 -0.089221045 -0.18714094 0.025538191 -0.0030002743
-0.019132555 0.13591194 0.015944526 0.029988676 0.18864948 -0.054483593 -0.20775172 0.11123872
0.15705675 0.1458537 -0.15653768 -0.20076531 0.04881978 0.04657674 -0.15969846 0.027450144
-0.15528905 0.00972347 0.17936042 -0.19612885 -0.1107602 0.08921328 0.08228251 -0.08996235
0.19587782 0.15048483 0.21162066 0.09313694 -0.035654113 0.014754787 0.0024029166 -0.017786652
-0.023478925 0.18162397 -0.13629445 0.07959491 -0.10983949 -0.13436975 0.104690254 -0.0059608966
0.027420416 -0.015941873 -0.17740217 0.049229205 -0.14644274 0.1719859 0.19007945 -0.14066294
00000000: 50de 4a3c f0e3 be3d 6071 893b e417 22bd
00000010: e0f8 753d 662b 373e db7f ffbd 3f78 29be
00000020: d4a0 adbd c0af a83c 4058 2f3e b817 c23d
00000030: 50c0 4fbd 38b3 25be 10c4 5d3d 02d5 433e
00000040: cec7 4a3e 3c7a 9a3d 6471 133e 2437 0abe
00000050: 988b b83c 1083 593d 9e9c aabd b0fb 12be
00000060: bc4a 39be 78e3 a4bc f8dc 2c3d beda 5abe
00000070: d4a7 a33d 520c 273e 68ef 07be 202b 07be
00000080: 705a d53c 1a0e edbd 60fd 143d e01e 37bc
00000090: 00a7 5cbb 3ced 293e 60e5 3b3c 1c20 1bbe
000000a0: 4e22 473e 40b1 f4bc 6719 08be 8aef 1f3e
000000b0: b2d6 073e ecac 55bd 071f 1abe 4cd5 003d
000000c0: e8ad 4c3d 5e81 0cbe 6c33 39bd d6a1 5bbe
000000d0: e674 043e 9262 9dbd 642e e23d 4436 c73d
000000e0: 8cec fc3d 001f 943b 1876 953c 94a6 3f3e
000000f0: 6413 493e 3618 f0bd 2889 513e 7011 403e
00000100: f6cf 2b3e 9c78 103e 569d 403e 1045 c43c
00000110: 0c3b dcbd b4c0 b43d a8b8 97bc 843b 5bbe
00000120: 08bb 4d3e 18fe 9fbd 40c8 c33b 4cc4 08be
00000130: 86b9 b6bd e0a1 3fbe 7835 d13c 40a0 44bb
00000140: e0bb 9cbc 802c 0b3e 189e 823c d0aa f53c
00000150: 542d 413e 302a 5fbd debc 54be 20d1 e33d
00000160: 7cd3 203e ac5a 153e 6a4b 20be 6c95 4dbe
00000170: 40f7 473d 40c7 3e3d fe87 23be 20df e03c
00000180: 1804 1fbe 304f 1f3c 42aa 373e 00d6 48be
00000190: 3ed6 e2bd 74b5 b63d bc83 a83d 2e3e b8bd
000001a0: 3294 483e b218 1a3e 16b3 583e 94be be3d
000001b0: 0c0a 12bd 10be 713c 407a 1d3b 50b5 91bc
000001c0: e056 c0bc a2fb 393e c690 0bbe a802 a33d
000001d0: 87f3 e0bd 3998 09be d867 d63d a053 c3bb
000001e0: c8a0 e03c 8898 82bc eaa8 35be 90a4 493d
000001f0: 16f5 15be 121d 303e 30a4 423e f209 10be
