Unity/results/ScoreGoal0/My Behavior/checkpoint.pt (torch, 453791 bytes, 36 tensors)

network_body.linear_encoder.seq_layers.0.weight f4 [128, 9]
000000 c4 86 22 3d 1a 5b b0 be c8 cc d5 3d 62 5b be be
       0.039679304 -0.34444505 0.104394495 -0.37179095
000010 ea 5d c0 3e 74 33 51 3f 2a b2 b4 3e 3b 62 a8 3e
       0.3757165 0.81719136 0.35292178 0.32887444
000020 c9 d5 85 be e1 07 14 be 7c f8 5a 3e cc ba af 3e
       -0.26139668 -0.1445613 0.21383852 0.34322202
000030 81 2c 95 3e 44 ac c6 3d 3f 59 fd 3d e8 af 11 bf
       0.29135516 0.09700826 0.12370538 -0.56909037
000040 00 53 9c 3d a0 b8 c9 bd ff 2f 07 3f 49 23 f6 3e
       0.076330185 -0.098496675 0.5280761 0.48073795
000050 38 9d 77 be e0 3d d8 3e b0 b7 a4 3c f6 1c d5 be
       -0.24181068 0.42234707 0.02010712 -0.41623658
000060 a1 de 26 be 9b 3d a6 be 21 cf 38 3e 9a 81 2f 3e
       -0.16295864 -0.32468876 0.18047763 0.17139283
000070 4e a8 9f 3e 77 b4 37 3e f1 d7 fb 3e 1d f9 d4 3e
       0.31183094 0.17939936 0.49188188 0.41596308
000080 c3 9f 17 3f 73 ff 28 3c 0f 30 b0 3e 71 33 28 3e
       0.5922815 0.01031481 0.34411666 0.16425873
000090 13 87 d5 bc a5 cc 87 3f 25 e1 c8 bd e1 87 a9 be
       -0.026065385 1.0609328 -0.09808568 -0.3311148
0000a0 61 a1 e0 be 3e a9 25 3e 8f 6b b3 bd 24 ee d1 be
       -0.43873122 0.16177842 -0.087607495 -0.41002
0000b0 02 5f 89 3e bb cf 98 bd 96 e0 c2 bd b8 c1 13 3e
       0.26830298 -0.074614964 -0.095154926 0.14429367
0000c0 21 c1 fc be dd e6 8f be d1 7b 98 bd 99 96 39 3e
       -0.49366096 -0.28105822 -0.07445491 0.18123855
0000d0 be 80 2e bd 77 54 50 3e 61 7d 91 be 6c c7 46 3e
       -0.042603247 0.20344721 -0.2841597 0.19412011
0000e0 15 6b 4b 3e 1e 46 e0 be 51 80 4e bd d4 3a ad be
       0.19865067 -0.43803495 -0.05041534 -0.33833945
0000f0 75 ed 0d 3e 2b b2 4b bb ed 0a f2 be 10 ad cf 3e
       0.13860114 -0.0031081538 -0.4727396 0.40561724
000100 88 a9 0d be 4a ff a5 be 0b 9a bf 3e 63 d9 e7 3d
       -0.13834202 -0.32421333 0.37422213 0.1132076
000110 65 c5 37 3e 2f be 4f bd 63 09 00 3f c1 e7 b5 be
       0.17946394 -0.050718483 0.50014323 -0.35528377
000120 5b 5d 49 3e 0c 36 4f 3f 53 97 ac be 7b 58 39 3f
       0.19664519 0.80941844 -0.337092 0.72400635
000130 1c c4 60 3e 80 e5 e6 bc 98 66 e4 bd 0d 41 87 be
       0.2194981 -0.028185606 -0.11152381 -0.26416817
000140 23 c6 76 3e 49 b7 58 bd 1e 36 94 3e ca 6f de bd
       0.2409902 -0.05290917 0.28947538 -0.10861166
000150 6e ef 85 3d 47 31 e9 3d 39 b8 96 bd ee 40 9f be
       0.06539808 0.11386352 -0.073593564 -0.31104225
000160 c7 8a 62 3d 62 76 ee be 74 d4 54 3e 14 8a 04 bf
       0.05530813 -0.46574694 0.2078417 -0.5177319
000170 d8 4f 70 be ae f6 1c 3d f7 60 14 be de 3a 36 bf
       -0.23467958 0.03832119 -0.14490114 -0.71183574
000180 f7 f2 64 3e a5 2c a1 bd 9e 89 19 be 7b 37 44 3e
       0.22358309 -0.078698434 -0.14993903 0.19161789
000190 cd 5e fd 3c c1 a5 02 be 04 f0 0b 3f 8a 3a 9a bd
       0.030928994 -0.12758543 0.5466311 -0.07530697
0001a0 c3 fb ca 3e 22 82 5d be 53 06 0d 3f 7b 11 07 bf
       0.39645204 -0.21631673 0.55087775 -0.5276105
0001b0 d5 8b 2e bf 01 b8 8e 3e 87 26 d4 bd c3 8b 56 be
       -0.68182117 0.2787476 -0.10358911 -0.20951752
0001c0 a6 48 6b be fc 3c cc 3d 4d 24 53 3f bf 73 81 3e
       -0.22976932 0.09972569 0.82477266 0.2528362
0001d0 4c 6b 87 3d 18 c2 19 bf 93 a1 b1 3e be 72 8e bd
       0.06612262 -0.6006179 0.34693584 -0.06955479
0001e0 84 82 5f 3e 78 fb 07 3d 86 e5 47 3d 96 fe bd be
       0.21827132 0.033198804 0.048802875 -0.37108296
0001f0 37 a9 b4 3e b6 ec 7c be 52 75 c8 3e 14 d7 f6 3d
       0.3528535 -0.24699673 0.39152008 0.12052742
000200 2f 01 8a 3e 24 44 82 be 4b f3 73 be a6 13 95 3c
       0.26954028 -0.25442612 -0.23823278 0.018197846
000210 19 01 54 3e fa 26 34 3e 11 39 5a be 80 83 86 be
       0.20703544 0.17592993 -0.21310832 -0.26272202
000220 0c c8 80 3d e4 d3 4a 3d 44 3b b5 3e b0 fe 35 be
       0.06288156 0.04951848 0.3539678 -0.17772937
000230 dd 91 c7 be 1c 9f cc bd a2 6b ac 3e 6f f4 2e be
       -0.38978472 -0.09991285 0.33675867 -0.17085432
000240 4f 1f 1a bc f7 11 8f 3e c1 8f 4c bf 48 ce 41 3e
       -0.009406879 0.27943394 -0.7990685 0.18926346
000250 16 1f fe 3c 0c f1 9c be d8 48 2a 3e fb 3e 83 be
       0.031020682 -0.30652654 0.1662935 -0.25633988
000260 eb b4 aa 3e ec 95 e6 3e 65 f5 01 be 83 d1 cd 3e
       0.33341154 0.45036256 -0.12691267 0.40198907
000270 3a 0a f6 3d 02 85 99 be 52 c4 70 3d 2d de 35 be
       0.12013669 -0.2998429 0.058780976 -0.17760535
000280 ff 61 a2 3d 93 4e e6 be b0 cf 60 bf 4a 6a 35 be
       0.079288475 -0.44981822 -0.87816906 -0.17716327
000290 9d 9d 2e bf fe 74 93 3e 2d 4a 29 bf 10 12 49 3e
       -0.6820925 0.28800195 -0.6612881 0.19635797
0002a0 7a ef 38 3e 77 fc 41 3e dd a6 9b be b0 23 dd 3e
       0.18060103 0.18943964 -0.30400744 0.4319129
0002b0 01 41 0b 3f e1 61 9e 3c 99 74 4c bd 2d b4 a9 be
       0.54396063 0.019333782 -0.049915884 -0.33145276
0002c0 c5 fc 41 3f a1 f1 0f 3e 80 8b 71 3e 91 40 82 3e
       0.7577632 0.14057018 0.23588371 0.25439885
0002d0 3d 4b e7 3e 0f 1f d0 bc 2e d1 1e 3e fd cc f4 be
       0.4517459 -0.025405435 0.15509483 -0.47812644
0002e0 0f 12 c7 3d e9 fd 23 bf 9a 46 2e bd e4 f8 0e 3f
       0.09720241 -0.6405931 -0.0425478 0.55848527
0002f0 91 e0 8e 3b fd ec 1b bf 28 d0 61 be 59 9c 39 bf
       0.0043602665 -0.6090849 -0.22052062 -0.7250419
000300 53 c9 fb 3d 0a 8e c7 be 75 94 b1 be ed 9a 0b 3d
       0.12294259 -0.38975555 -0.34683576 0.034083296
000310 53 56 a6 3e ba 71 23 3e a9 26 d8 3d 11 56 b3 bd
       0.32487735 0.15961352 0.10554249 -0.0875665
000320 26 99 0c 3e eb c2 08 3e 57 f9 32 be 53 8b 87 be
       0.13730296 0.13355605 -0.17477928 -0.26473483
000330 76 25 06 be 56 56 0b 3f 03 aa e8 be eb f3 0d be
       -0.13100228 0.54428613 -0.4544221 -0.13862579
000340 a7 98 e2 bd 56 47 21 bf 0a 11 af 3e e3 2d cd 3e
       -0.110642724 -0.62999475 0.34192687 0.4007407
000350 0d c0 1e 3e 94 33 8a 3e 46 c9 43 be 38 e7 16 bf
       0.15502949 0.26992476 -0.19119748 -0.5894656
000360 58 77 0a bf d4 02 3e 3e be ce 36 be 65 59 0e bd
       -0.54088354 0.18555766 -0.17852303 -0.034753222
000370 05 e8 1a 3f 6d 2c 8c be 2c c0 b1 3e bd 65 13 bf
       0.60510284 -0.27377644 0.34716928 -0.57577115
000380 48 42 04 3f 2b d7 6b 3d dc 13 80 be e5 7e 4f be
       0.5166364 0.057578247 -0.25015152 -0.2026325
000390 9a 76 ac 3d 15 8b fe bc 25 f0 68 be 34 cc e7 3d
       0.08421059 -0.031072179 -0.22747858 0.113182455
0003a0 fd 73 92 3d 5c 43 2c 3d 82 b7 42 bd a2 58 aa 3e
       0.07151029 0.042056426 -0.047538288 0.33270746
0003b0 af 3e f1 be a7 bf 23 3e b9 c3 b4 3e e9 b2 93 3e
       -0.47118136 0.15991078 0.35305575 0.28847435
0003c0 11 ab 59 3d 02 f9 e4 3d 04 13 d4 be 6e ef 0e be
       0.053141657 0.11180307 -0.41420758 -0.13958523
0003d0 6e e9 9a 3e 88 60 65 be 2f 59 8b be 06 cf 32 3e
       0.30256218 -0.22400105 -0.2721648 0.17461786
0003e0 65 45 cf be b8 66 0b 3e cd 73 74 be 6f 5a 02 3e
       -0.4048263 0.13613403 -0.238723 0.1272981
0003f0 1c bd 82 3e 10 f2 c3 be 12 27 4a bf 12 fc 60 be
       0.25534904 -0.38270617 -0.78965867 -0.21971157

network_body.linear_encoder.seq_layers.0.bias f4 [128]
000000 d5 73 39 3b 33 8f 7d 31 43 25 39 ba 4f 01 0b bb
       0.00282978 3.6897745e-09 -0.00070627424 -0.0021210497
000010 cd 42 0f 3b f5 72 11 bb b8 fd 1b bb b4 ef 2d bb
       0.0021859885 -0.0022193764 -0.0023802351 -0.002654058
000020 71 7c 0f bb 5e 99 fa 30 1a 78 c7 ba 39 37 51 ba
       -0.0021894241 1.8233484e-09 -0.0015218288 -0.0007980946
000030 66 38 cf b9 ee 89 4e 31 a3 59 e1 3a e7 0a a8 b8
       -0.00039524137 3.005535e-09 0.0017192852 -8.012895e-05
000040 20 9c 1e 39 c9 10 ef ba 62 98 a8 3a a5 53 40 39
       0.00015126215 -0.0018239255 0.0012862796 0.00018341707
000050 22 5a 58 b9 cf 78 42 3a 97 c0 3f 3a 87 3c af ba
       -0.00020632942 0.00074185146 0.000731477 -0.0013369479
000060 47 1c b8 3a ae dc 5d ba 49 fd ce ba 59 2f 49 bb
       0.0014046513 -0.0008463365 -0.0015792038 -0.0030698387
000070 e9 07 77 ba a0 7f 80 ba f0 fd 1a b8 18 22 b0 ba
       -0.0009423481 -0.000980366 -3.695296e-05 -0.0013437895
000080 a8 6a f1 ba 8a ea 1f bb dc 8f 5a bb 15 d7 c6 ba
       -0.0018418627 -0.002440127 -0.0033349907 -0.0015170301
000090 9e b2 d1 ba b4 b0 27 bb 40 b3 b1 ba d3 cb b1 ba
       -0.0015998667 -0.00255875 -0.0013557449 -0.0013564773
0000a0 14 ba 9e 3a e0 29 dd b9 ad d2 29 bb a0 6c 7f 3b
       0.0012109899 -0.00042183604 -0.0025912926 0.0038974658
0000b0 46 87 cb 39 54 72 48 b9 f7 6f cd b9 ab 3e eb bb
       0.00038819964 -0.00019116077 -0.00039184067 -0.0071791015
0000c0 dd 88 c0 3a 99 4e e9 b9 d0 57 a6 ba fd 17 61 39
       0.0014689226 -0.00044499783 -0.0012690965 0.00021466608
0000d0 13 ad 6d ba 4f eb 97 ba 41 5f bd b3 da ab ed ba
       -0.00090666226 -0.0011590513 -8.818325e-08 -0.0018132881
0000e0 0e 82 3a bb 4a 74 63 bb 79 e5 6f 38 d4 71 12 bb
       -0.0028458866 -0.0034706765 5.7195753e-05 -0.002234568
0000f0 53 73 63 ba 1a 4b b7 ba 73 e3 5a ba 4e 8a 04 bb
       -0.00086765474 -0.0013984174 -0.00083499326 -0.0020224038
000100 c5 32 c4 bb 41 a9 a7 ba 31 fc 83 bb 09 da 6f 39
       -0.0059874975 -0.001279153 -0.0040278663 0.0002287404
000110 ee f9 1f 3b fc 23 9e bb ff a5 02 bb 7d f0 72 ba
       0.0024410444 -0.004826067 -0.0019935367 -0.0009267403
000120 87 70 1a 9d 48 55 24 94 6f d6 49 3b 76 f3 c3 b9
       -2.0439906e-21 -8.296703e-27 0.0030797978 -0.0003737469
000130 70 97 21 bb f9 ba c9 39 54 59 91 ba 34 e6 bb ba
       -0.0024656914 0.00038477013 -0.0011089244 -0.0014335574
000140 e4 41 ac b9 53 78 a9 3a 65 eb cf ba 3a a8 11 bb
       -0.0003285549 0.0012929536 -0.0015863 -0.0022225515
000150 f3 47 ce 3b 5d 9e f2 38 32 2b ac 3a 63 80 91 3a
       0.006295198 0.00011568957 0.0013135432 0.0011100884
000160 f1 35 59 3a a4 39 af 39 46 8d 66 3a 2e 9f 11 38
       0.0008285931 0.00033421547 0.0008794855 3.471894e-05
000170 41 e0 d6 b9 6b 29 62 3b 02 06 58 b8 77 d3 05 bb
       -0.00040984343 0.003450955 -5.150401e-05 -0.0020420232
000180 7e ba 05 b8 fc 01 e6 ba 26 23 f0 bb aa c9 f2 8c
       -3.1883355e-05 -0.0017548199 -0.007328409 -3.7407376e-31
000190 d2 69 75 bb a2 5e 25 bb c6 6d c8 bb 8d da df 38
       -0.0037447107 -0.0025233408 -0.0061166016 0.00010674177
0001a0 95 da 02 3a e1 ef 2c bc 44 9c d7 bb f4 a9 64 39
       0.00049916777 -0.010555238 -0.0065799076 0.00021807087
0001b0 fd f6 24 bb 88 f4 84 b9 db 6b 89 3b a4 f3 d8 bb
       -0.002517163 -0.00025359192 0.0041937656 -0.006620841
0001c0 14 34 88 ba 4a d8 36 bb c7 e8 cb ba 3c 1d 66 ba
       -0.0010391497 -0.0027899914 -0.0015557044 -0.000877816
0001d0 66 0b 82 3a 28 0d 93 ba 78 b9 ce ba 7b 9a 82 bb
       0.000992161 -0.0011219131 -0.0015771827 -0.0039857007
0001e0 e4 94 f6 3a 74 3e 08 bb 38 71 77 b9 31 e1 04 bb
       0.0018812683 -0.0020789178 -0.00023597933 -0.0020275826
0001f0 94 89 df ba 1d fb cb b8 65 b7 e9 3b c5 ff 75 ba
       -0.0017054551 -9.726568e-05 0.007132458 -0.0009384121

network_body.linear_encoder.seq_layers.2.weight f4 [128, 128]
000000 d3 cd 99 3c e6 50 5f 3d 6c 3c 8a bd c9 7e 1e be
       0.018774902 0.05452051 -0.06749806 -0.15478052
000010 8a 9b 21 3e 97 a1 1f bd 1c c2 43 be 29 5c d5 bd
       0.1578199 -0.038972463 -0.19117016 -0.10417969
000020 97 18 d3 3c bc 15 f8 3d 21 ed f3 bd ad 94 54 bd
       0.025768561 0.121135205 -0.11910463 -0.0518996
000030 3e 04 b8 3d 52 09 48 3e a0 56 24 3d ad ac 02 be
       0.08985184 0.19534805 0.040121675 -0.12761183
000040 1d 92 2a 3d 63 54 7e 3d 1a d4 8f bc e9 85 af bd
       0.04164325 0.062092196 -0.017557193 -0.08570463
000050 04 66 41 3d 92 15 56 bd 3e f4 ef 3d fd 0c b3 bd
       0.04721643 -0.052266665 0.117165074 -0.08742712
000060 5a c8 98 bc 85 5f 9b 3c be e9 b5 bd 27 0e 3a be
       -0.018650223 0.018966446 -0.088824734 -0.18169461
000070 c2 47 05 be 78 c6 fc 3d a0 fe d0 3d 36 57 af bb
       -0.13015655 0.123425424 0.10204816 -0.0053509725
000080 0d ba 81 3c 69 3a f5 bd d7 cd 92 3d 26 1f d2 3d
       0.015835786 -0.119740315 0.07168167 0.10259847
000090 c4 6a a0 bd c2 e7 1c bd 68 e3 dc bc 8a 62 d1 3d
       -0.07832864 -0.03830696 -0.026963905 0.10223873
0000a0 6a 0d b5 3d 45 b9 ea 3c a6 ec aa 3c c1 d0 ec bc
       0.08840449 0.028652797 0.020864796 -0.028908135
0000b0 26 e4 29 be 22 5c f3 3c b3 a5 2d bd 8b 3b 1a 3e
       -0.16590938 0.029707018 -0.04239435 0.15061776
0000c0 a4 ca 9d bd ea 23 ab be 92 69 d5 3d 93 7e d6 3d
       -0.07704666 -0.33425838 0.104205266 0.10473361
0000d0 d5 59 ce 3c 4b 28 20 be ab a4 d2 bd 05 fd a3 bd
       0.02518932 -0.1564037 -0.10285314 -0.08007244
0000e0 b1 8a cb bd e2 60 1f 3e 7e 4e 0a 3d fa 27 d5 bd
       -0.09938563 0.15564302 0.033766262 -0.104080155
0000f0 44 1e 9e bd 08 f1 8f bd 07 95 9a 3b 84 91 d5 bd
       -0.077206165 -0.07028395 0.0047174725 -0.104281455
000100 1f 24 b2 3d 7a 02 3c 3c 59 4e 45 3e f2 ad 58 3c
       0.08698296 0.0114752 0.19268169 0.013225066
000110 3f be 65 bd 6b 53 77 3d 8b 49 f2 bd e9 71 89 3d
       -0.056089636 0.060382288 -0.118304335 0.0671118
000120 93 fe bb bd 59 79 2d 3c e8 f1 11 be 3d b5 4b 3e
       -0.091794156 0.010588014 -0.14252436 0.19893356
000130 59 51 d7 3c 4b fc 78 3d fa e4 9e 3d 7a 13 c8 3c
       0.026283907 0.06078748 0.077585176 0.02442335
000140 93 6f de b8 94 c9 3f bc 1c 52 08 bc 2f a9 9c bc
       -0.00010606567 -0.011705775 -0.008320358 -0.019123642
000150 60 21 9e bd 6d fb 62 3d 30 fd 01 be a8 bf 3c 3d
       -0.077212095 0.05541556 -0.1269424 0.046081215
000160 d9 1c f6 bd 3e 88 1c bd 3e 13 98 3c 64 7a bf 3d
       -0.12017221 -0.03821587 0.018563863 0.09349516
000170 07 b4 0d be eb 6a bf 3c 88 b8 9d bd 2c 60 2b bd
       -0.13838206 0.023366412 -0.07701212 -0.041839764
000180 95 c8 f8 3c c6 ef 8d 3d c9 e3 c2 bd 44 3d ad bd
       0.030369082 0.06930499 -0.09516103 -0.08458951
000190 f8 88 52 3d 1e db 28 bc f9 43 86 3c 68 b1 75 bd
       0.051400155 -0.010306148 0.016389834 -0.05998364
0001a0 7b da 18 bc a4 54 fe 3c 8c be 45 bd e1 5d d0 bd
       -0.009329434 0.03104622 -0.048277423 -0.10174156
0001b0 b3 7e 9f 3c ad 06 94 bd fa 4d 8a 3c 19 a7 19 3c
       0.019469595 -0.07227836 0.016882885 0.009378218
0001c0 d0 79 0b 3d ea 17 a5 3c 46 cd 29 be d3 48 d5 3d
       0.034051716 0.020153005 -0.16582212 0.10414281
0001d0 bf c1 cd 3d ca 94 18 3d ef 0a 0e 3d 48 0b 20 bd
       0.1004672 0.03725127 0.034678396 -0.03907326
0001e0 16 11 0f be 7a 90 b2 bb cf bb 5f 3e 7d 39 c6 bd
       -0.13971362 -0.005449352 0.21848987 -0.09678934
0001f0 a8 4a 19 be 05 5f d0 bd 17 6d 05 be e4 10 94 3d
       -0.14969885 -0.101743735 -0.13029896 0.07229784
000200 24 5a 27 bc 9c 8f 8b 3b 12 91 b4 3d be 38 a1 3d
       -0.010214362 0.004259063 0.088167325 0.07872151
000210 2f 93 38 3d dc ea a6 bd 52 be ab bd 16 cb 44 3e
       0.04506224 -0.081502646 -0.0838591 0.19218096
000220 64 e1 18 be 02 95 1b be 48 ed 98 be f5 4f b1 bd
       -0.1492973 -0.1519356 -0.2986853 -0.08657829
000230 01 93 df 3c bf 20 36 bd 9f ee cc bc 75 95 f1 bd
       0.027291777 -0.044464823 -0.025016127 -0.11796085
000240 f3 37 0d be 5a 29 bd 3a 0c 0e eb 3d 72 af 30 bc
       -0.13790874 0.0014431879 0.114772886 -0.010784017
000250 e0 84 fb 3b 88 3a ab 3c 25 7a 13 3c 4d 78 98 3c
       0.007675752 0.020901933 0.0090012895 0.018612051
000260 c1 3f 56 bd 3b 58 d7 3d 63 e3 95 3c 23 4c b2 3d
       -0.052306894 0.105148755 0.018296903 0.08705928
000270 b8 d9 f1 bd bb 09 03 be c6 e1 f6 bd 20 c4 a7 bc
       -0.11809105 -0.1279668 -0.120547816 -0.020479262
000280 4d ea b4 bd 9a 0b 16 3e 98 6f c5 bd e0 89 da 3c
       -0.08833752 0.14652863 -0.096404254 0.026677072
000290 5b d4 11 3e b7 2b c6 bd 59 29 de 3d 15 9a 84 b9
       0.14241163 -0.09676307 0.1084773 -0.00025291802
0002a0 91 e2 e0 3d cd 40 b5 bd 85 96 8a be 70 73 cc 3c
       0.10980714 -0.088502504 -0.27067962 0.024957389
0002b0 f8 bf 15 3d a6 18 f5 bd dd e5 13 3d 04 ee 5a 3e
       0.03656003 -0.11967592 0.036107887 0.21379858
0002c0 17 0d d7 3c ab d5 92 3d 8d c4 17 3e 6e 30 5c bd
       0.026251359 0.0716966 0.14821072 -0.053757124
0002d0 43 de d1 bc e4 5c 20 3e 57 b1 ca bd 28 07 82 3d
       -0.025618678 0.15660435 -0.09897106 0.06349021
0002e0 c8 96 b1 bc cc f5 71 3d 8a a4 55 bd 8e 03 6f 3d
       -0.021678343 0.0590723 -0.05215887 0.058353
0002f0 99 71 d5 bd d3 fb 43 bb e0 16 d9 3d 2c 49 63 3d
       -0.10422058 -0.0029904738 0.10600066 0.055489704
000300 37 f4 b1 bd cc 16 8f 3d 50 5d c1 3d ca 5a 1c 3e
       -0.086891584 0.0698677 0.09441626 0.15269008
000310 ba 36 08 3e d6 92 d1 bd 6a 98 5b bc 15 55 d1 3c
       0.13302127 -0.10233085 -0.013403038 0.025553266
000320 a6 13 ae 3c ba 63 e6 3c 22 7e 69 be ed 9b 94 3b
       0.021249603 0.028123725 -0.22802022 0.0045351894
000330 b6 55 42 bd 77 b2 1c 3d 88 04 46 3d fd ab 8a 3e
       -0.04744502 0.038256135 0.048344165 0.27084342
000340 06 e7 20 3c ff 52 1a be 08 25 40 3d 5a 70 c5 3d
       0.009820705 -0.15070723 0.046910316 0.0964057
000350 fc f3 57 bd 16 0d 22 3d a2 51 67 bd 70 e3 f7 bd
       -0.052722916 0.03956326 -0.056474335 -0.12103927
000360 76 01 9f bc 2c fb 2f be 14 32 27 be 87 97 b5 3c
       -0.019409876 -0.17185658 -0.16327697 0.02216698
000370 01 80 14 3d cf 9d ed bc cb a1 7e bd 76 6e e2 bd
       0.036254887 -0.029005913 -0.062166017 -0.11056225
000380 c9 a5 9b bd 85 26 1d 3e d3 d8 7c 3d ba 95 90 bd
       -0.075999804 0.15346725 0.061730217 -0.07059808
000390 3c 5d 66 3e 10 f9 a3 3d ce 0a 52 3e 31 dc 9b 3d
       0.22496504 0.08006489 0.20511934 0.076103576
0003a0 53 51 e9 39 6a db a2 bd 16 62 56 3c 11 28 a4 3d
       0.00044501814 -0.07952006 0.013084909 0.080154546
0003b0 f9 18 68 3d c5 b6 e4 bd ed f2 dc 3d 9a b2 d5 bd
       0.05666444 -0.11167673 0.10788522 -0.10434456
0003c0 98 23 a2 bd ef f6 71 3d 42 55 7e bc 86 5d 88 bd
       -0.07916945 0.059073385 -0.015523257 -0.06658463
0003d0 57 7f ed 3d 9e f9 b5 bc b7 1b 11 bd fa c6 f3 bd
       0.11596554 -0.022213753 -0.03542682 -0.11903186
0003e0 fc 42 8a bd 12 ac 05 be 46 cd 4b 3c 70 35 03 be
       -0.067510575 -0.13053921 0.012439078 -0.12813354
0003f0 fd 8e 27 3d dd b0 f1 bd 21 b1 e2 bc ad d2 e2 3c
       0.04090785 -0.11801312 -0.027672352 0.027688349

network_body.linear_encoder.seq_layers.2.bias f4 [128]
000000 e7 92 24 a7 7f 17 25 bb c8 8e 77 30 b3 98 11 bb
       -2.2839208e-15 -0.0025191007 9.006098e-10 -0.002221626
000010 73 3f 95 bb 02 a6 aa ba f2 a0 a0 ba fd 2a 9c b5
       -0.004554683 -0.0013019445 -0.0012254997 -1.1635417e-06
000020 6f 24 bd b9 70 92 5b bb a7 65 6c a8 f9 95 44 39
       -0.00036076034 -0.0033504032 -1.3122674e-14 0.00018747886
000030 24 3f a0 3b d2 af cc b8 19 69 52 ba 1b a0 17 ba
       0.0048903394 -9.760227e-05 -0.0008026525 -0.00057840504
000040 88 26 96 ba b3 b1 dd b9 f5 76 72 3a 37 3f 90 3a
       -0.0011455575 -0.000422848 0.00092492934 0.0011005168
000050 54 51 da b9 68 2d 29 2e 99 c7 17 ba a9 88 97 3a
       -0.00041640794 3.846648e-11 -0.0005789935 0.0011561114
000060 56 3f 5b bb 85 9a c1 2b 56 a3 03 ba 43 cd 35 bb
       -0.00334545 1.3756363e-12 -0.00050215924 -0.0027740754
000070 60 c4 96 b9 5d d9 e3 b9 65 58 5b ba 2c 8a 02 bb
       -0.0002875654 -0.00043458762 -0.0008367359 -0.0019918783
000080 13 1b fc 38 00 e8 f5 ae d5 08 11 3a 32 c6 62 ba
       0.00012021339 -1.11825216e-10 0.0005532627 -0.0008650749
000090 54 18 ba ba 62 25 a2 b9 6e c6 04 b9 a0 f2 56 ba
       -0.0014197924 -0.000309269 -0.00012662422 -0.0008199606
0000a0 95 c9 20 ba ba e6 82 ba 23 b2 d7 ba ff 0c f9 ba
       -0.00061335537 -0.0009986975 -0.0016456287 -0.0019001066
0000b0 50 56 6c b9 10 d7 3e ba 2f b1 25 ba 53 8a 8c 3a
       -0.00022538868 -0.00072799716 -0.0006320653 0.0010722376
0000c0 0e 49 78 b9 17 e2 79 ba 13 57 6a ba 30 fd e7 ba
       -0.00023678338 -0.0009532286 -0.00089393667 -0.0017699357
0000d0 b9 59 a2 39 ba 3f c9 b9 de 18 bc b9 b5 4d 38 b9
       0.00030965896 -0.00038385188 -0.00035876682 -0.00017576556
0000e0 00 5d a4 37 cf 23 35 39 7f 24 e8 b9 3e 49 f3 ba
       1.959363e-05 0.00017274845 -0.0004427768 -0.0018561257
0000f0 e8 5b 0e bc c7 17 51 bb b3 a1 55 ba c7 32 5c bb
       -0.008688904 -0.0031905042 -0.00081494 -0.0033599602
000100 70 e3 b3 b5 76 f3 1a bb f0 d8 79 ba 9d 3a 61 b9
       -1.3402732e-06 -0.002364365 -0.00095309224 -0.00021479507
000110 28 af 28 ba 82 f1 09 bb b7 07 85 bb 36 76 58 bb
       -0.0006434792 -0.002104849 -0.0040597576 -0.0033029444
000120 2d f6 d4 31 b6 16 85 b9 65 c0 81 39 4a 68 d7 b9
       6.197999e-09 -0.00025384658 0.00024748142 -0.00041085697
000130 ef 1c 1b 3a 53 7b 8d ba 1d 54 b5 ba 6e c0 44 ba
       0.0005917092 -0.00107942 -0.0013834272 -0.0007505481
000140 32 2b ee ba f0 41 f5 b9 01 c8 91 ba 93 b0 49 ba
       -0.0018170832 -0.0004677917 -0.0011122228 -0.0007693853
000150 ca 1b 73 bb 38 de d2 ba 07 71 b4 ba 39 56 38 bb
       -0.003709542 -0.0016087955 -0.0013766595 -0.0028127565
000160 39 6c b3 b8 94 d1 4a ba d8 39 88 b8 a3 10 f9 b9
       -8.555543e-05 -0.0007736918 -6.4957596e-05 -0.00047505376
000170 c3 78 4e 3b dd c7 a0 ba 87 65 73 ba 55 0b 78 ba
       0.0031505085 -0.0012266595 -0.0009284843 -0.0009462138
000180 76 47 8b ba 45 20 57 ba 5d 08 56 bb c3 71 34 ba
       -0.0010626155 -0.00082064077 -0.0032658793 -0.0006883407
000190 33 29 a1 bb 1e 78 27 ba 80 a4 5e 35 70 6d 35 bb
       -0.0049182414 -0.0006388443 8.2940824e-07 -0.0027683638
0001a0 b1 b6 36 39 95 91 d3 b9 9a 4a 6d ba 23 aa de b9
       0.0001742493 -0.00040353523 -0.0009051949 -0.000424699
0001b0 3b ef 76 26 c2 5b 64 b9 35 fb 42 ba 94 37 b3 b9
       8.5672613e-16 -0.00021777957 -0.00074379455 -0.0003418295
0001c0 84 f5 a3 ba a4 d3 e5 b9 d6 04 e5 3a a6 eb ca ba
       -0.0012509082 -0.00043835968 0.0017472755 -0.0015481606
0001d0 d2 22 83 ba 13 82 5e bb dd a1 7e b8 f9 b4 41 3b
       -0.0010004884 -0.0033952042 -6.0709066e-05 0.002955733
0001e0 8d cb ca ba 26 0f c8 b9 6c b6 60 39 9e 93 d6 05
       -0.001547204 -0.0003815826 0.00021430262 2.0178689e-35
0001f0 6a 2d d5 b9 ee b5 a4 3a 53 1c 2b ba 1e 6c 1b 31
       -0.00040660362 0.0012566426 -0.0006527353 2.2616926e-09

action_model._continuous_distribution.log_sigma f4 [1, 6]
000000 d7 f5 a3 bc 9f ad 8e bc b6 59 cb bc a5 de ab bc
       -0.020014687 -0.017416773 -0.024823051 -0.020980189
000010 a7 e5 11 bc 85 c1 86 bb
       -0.008904851 -0.004112425

action_model._continuous_distribution.mu.weight f4 [6, 128]
000000 2a 13 51 3b 62 b7 47 3b a9 26 1f bc 36 49 89 3c
       0.0031902292 0.0030474295 -0.009713807 0.016758543
000010 2b ee 06 3c b5 28 66 3c 7e e7 1e 3c 03 fb e9 bb
       0.008235495 0.014047791 0.009698747 -0.0071405186
000020 58 95 4b bb 95 7f d7 bc 4b a6 62 bc 1c d0 be bb
       -0.0031064358 -0.026305953 -0.013833593 -0.0058231484
000030 43 94 ac bb 70 59 15 bd 45 47 d6 bb 10 49 af 3b
       -0.0052666976 -0.036462247 -0.0065392577 0.005349286
000040 36 ef 1b bd 12 62 94 bc 87 b1 cf 3c 7c 97 e6 3c
       -0.038069926 -0.01811317 0.025353206 0.028148405
000050 ec 27 1d bc b8 30 93 ba 95 4a 87 3c b8 0b 39 bb
       -0.009592038 -0.0011229729 0.016515056 -0.0028235745
000060 ef f8 2c bc fb a5 f8 bb 02 7b 0f bb 19 05 1c bb
       -0.010557397 -0.007588146 -0.0021893387 -0.002380675
000070 fa a1 d7 ba 8e 48 98 3a 06 30 98 bc 27 97 36 3b
       -0.0016451471 0.0011618303 -0.018577587 0.002786109
000080 14 c3 97 bc 6d fe 89 3a 96 6a 12 bc 27 31 18 bd
       -0.018525638 0.0010528095 -0.008936545 -0.03715625
000090 7f ae c7 bb 67 66 12 bc 6e 7f 04 bd a1 88 e3 3c
       -0.0060937996 -0.008935547 -0.03234809 0.02777511
0000a0 c8 7a a8 3c c0 c8 44 bc 10 8d 38 bc 90 5c 93 bc
       0.02056636 -0.012010753 -0.011264101 -0.017988473
0000b0 12 e0 2e 3c f7 81 01 bc 1c 16 9a 3c f4 1e bb 3c
       0.01067354 -0.007904521 0.01880937 0.022841908
0000c0 13 36 e7 3b 5a 1f 8b bb ee ea c2 3b a1 9d 8c 3c
       0.0070560067 -0.0042456808 0.005948416 0.017165007
0000d0 0d 49 2e bd 11 d6 16 bd 96 4e 48 bc 95 7c 94 bb
       -0.042550135 -0.036825243 -0.012225768 -0.004531453
0000e0 32 10 52 3c 0b b0 00 3c 78 7e 8f bb a7 96 d8 bb
       0.012821244 0.007854472 -0.00437909 -0.006609756
0000f0 57 6c 83 3c 4a 1b 20 3c 29 67 00 b7 f0 08 5d bb
       0.016042871 0.009772131 -7.653413e-06 -0.003372725
000100 b1 e6 b3 3a 13 d8 c8 3c 38 ae 0e 3b 33 c0 f3 3c
       0.0013725368 0.024517095 0.0021771323 0.029754734
000110 24 34 bd bc 78 8e 00 bd a3 58 c7 bb f0 6f 91 3c
       -0.023096152 -0.03138587 -0.0060835644 0.017753571
000120 b5 f5 c9 3b 8e 8c 8a bc 09 82 f1 3a e4 09 b9 3b
       0.0061633238 -0.016912725 0.0018425594 0.005646931
000130 a4 51 12 3d 91 3b b5 bc 19 77 97 3c a4 a8 ba 3b
       0.03572239 -0.02212313 0.018489407 0.005696373
000140 35 82 21 3c 55 25 1e bc 68 3f 94 3a 74 d8 b9 3c
       0.009857704 -0.009652455 0.00113104 0.02268622
000150 7d 76 8a bc de a5 af bb 1b 52 55 3c 27 bb 29 bc
       -0.016902203 -0.005360349 0.013020064 -0.010359562
000160 b5 f9 2c bd 6f 8c 88 bb 3c b1 c9 3a 41 e2 5b bb
       -0.042230327 -0.0041671316 0.0015387903 -0.0033551606
000170 65 9d 06 bd 81 16 a6 3c 00 4a 18 bc f4 d5 54 3c
       -0.032864947 0.020274403 -0.009294987 0.0129904635
000180 86 67 d9 bb b2 f0 82 3b 23 30 d9 bb d0 46 9d 3c
       -0.0066346554 0.0039959783 -0.006628053 0.019198805
000190 e1 52 e3 39 41 09 4c 3b 28 b2 c3 bc 1a 18 e6 bc
       0.00043358564 0.0031133445 -0.023888662 -0.028087664
0001a0 0b 9d c3 bc b3 28 b6 3c b4 4a 59 3c 1b 76 5e 3c
       -0.023878595 0.022236204 0.0132624395 0.013577963
0001b0 c6 ba 2a bc f4 5d 48 3c 0f d5 e4 bb 7b 53 e1 bb
       -0.010420507 0.012229431 -0.0069834064 -0.0068764067
0001c0 d1 99 f7 3b 1f 08 82 bb 18 15 20 bc 49 bb c3 bc
       0.007556178 -0.0039682533 -0.009770654 -0.023893015
0001d0 a5 62 68 bc 68 71 b4 3c ac 18 46 bc 3b 2d 9a bc
       -0.014183675 0.022026733 -0.012090843 -0.018820396
0001e0 9d 41 a9 ba 25 bb 66 3c 82 c0 05 3d f0 76 2e 3c
       -0.0012913231 0.014082705 0.032654293 0.010648474
0001f0 51 5b 7b bc ff 66 89 3c 17 82 fd bb 48 de 33 3c
       -0.015341596 0.016772745 -0.007736455 0.010978289
000200 ff a2 d1 3c 21 93 a4 bc 36 17 65 3b 97 11 e6 3c
       0.025590418 -0.020089688 0.0034956462 0.02808456
000210 f5 31 39 bc 57 80 89 b8 42 70 80 3c d2 eb a1 3c
       -0.011303415 -6.556574e-05 0.015678529 0.019765768
000220 c6 b5 3d 3c 80 3d b2 39 c8 35 31 bb 43 38 44 3a
       0.011578983 0.00033996627 -0.0027040113 0.000748519
000230 71 6a c1 3c a8 c3 56 3c 54 31 84 bb eb 6a 4f 3c
       0.023610326 0.0131081715 -0.0040342007 0.012659769
000240 95 e4 fa 3b df 52 f8 bc 7c fe c2 3c cc 93 24 3c
       0.0076566436 -0.030312954 0.023802988 0.010045003
000250 05 7f 86 3b bc fa 32 bb c1 b1 03 3c 19 04 07 3b
       0.0041044974 -0.0027310094 0.008037985 0.0020601808
000260 3e 2a 13 bc cb 98 35 bc 60 f5 f3 3b 3c fb 89 bc
       -0.008982239 -0.011083792 0.0074450225 -0.01684343
000270 81 40 10 3c c1 fc 42 bc 24 d6 9c 3b 77 8f e7 3b
       0.008804441 -0.011901082 0.0047862697 0.007066663
000280 ef d0 34 3d c2 b7 b5 bb 73 50 da bc c5 c2 bf bc
       0.044144567 -0.0055455873 -0.02664969 -0.023408303
000290 34 e9 82 bc a8 2d b6 bc dc 34 9a 3b dc 14 69 bc
       -0.01598034 -0.022238567 0.0047060084 -0.014226165
0002a0 7b aa 89 3c 67 5a 1b 3b 81 b2 29 3b 0f 2a d0 3b
       0.016804924 0.0023705007 0.002589375 0.00635267
0002b0 46 95 d7 3b d5 bc 00 3d eb c4 52 3c 33 67 c7 3c
       0.006579074 0.031430084 0.012864332 0.024341201
0002c0 76 0f 4c 3c 51 f7 c7 bb 6b 31 67 3d 2d 74 b6 bc
       0.012454858 -0.0061024805 0.056443613 -0.022272194
0002d0 b5 83 6d bc 39 29 cf 3c 1d 35 0b bd 1a 9c a7 3a
       -0.014496733 0.025288211 -0.0339862 0.0012787611
0002e0 f5 dd ab bc 87 73 fd 3a 59 4b 18 3d 73 7b 47 bb
       -0.02097986 0.0019336798 0.037181232 -0.0030438572
0002f0 31 4e 5a ba 95 3c 6e 3c 8d e9 6f bc 5f d5 9c 3c
       -0.00083276915 0.014540811 -0.014643085 0.019144712
000300 9e 75 5b bb 24 1f 9a bc 15 0a 42 bc 37 b8 6c bc
       -0.0033486853 -0.018813677 -0.011843224 -0.014448217
000310 77 a0 ff ba 43 7f 3c bc 7b d2 85 3b 5a a9 9f bc
       -0.0019502778 -0.011504951 0.004083929 -0.019489933
000320 d4 6e 6b ba bd f9 4b 3b a1 8c ea 3c 49 95 92 bc
       -0.0008981053 0.0031124197 0.02863151 -0.01789345
000330 18 01 d9 bc 1d dd 12 3c bf 1b 81 3c b3 4d 24 bd
       -0.02648978 0.00896385 0.0157603 -0.040113162
000340 5c ca b7 3c f7 ce 14 bd 19 68 74 3c 92 f0 ee bc
       0.02243536 -0.03633019 0.014917397 -0.029167447
000350 a6 30 a3 3c fe d3 a1 b9 e6 1f 2b 3c aa df 0f 3c
       0.019920658 -0.0003086626 0.010444617 0.008781353
000360 85 be 98 3b 37 53 53 bb 41 07 3b 3c 33 08 b5 bc
       0.0046613836 -0.0032245645 0.011415304 -0.022098636
000370 fe e1 98 bc 00 ff f0 bb 71 01 d1 3c 85 85 ff bb
       -0.018662449 -0.007354617 0.025513383 -0.007797899
000380 79 47 dc 3b a3 f9 e7 bc 47 36 a9 bc 55 c3 bf bb
       0.0067223874 -0.028317278 -0.020655764 -0.005852143
000390 51 28 81 3c dd d6 fd bb 22 d4 e5 3b ce 47 c6 bc
       0.015766295 -0.007746561 0.0070138136 -0.024204161
0003a0 3c 31 92 3c 0f 9a a1 3c 88 0a 4b 3c 09 c8 06 3d
       0.017845742 0.019726781 0.012392648 0.032905612
0003b0 8a b4 55 3c 3f 43 7a 3c e2 3c 03 bc 7b 06 07 bd
       0.013043532 0.015274822 -0.008010121 -0.032965165
0003c0 e3 a1 10 bc b0 af 72 bc a3 a8 1a 3c f7 58 27 3c
       -0.008827659 -0.014812395 0.00943962 0.010214082
0003d0 f4 34 2e 3c 26 2f 4d 3a 48 33 11 3c 34 49 94 bb
       0.010632742 0.0007827155 0.008862324 -0.004525328
0003e0 04 9b 06 bb dc ef a9 3c e3 6b 26 bc 00 ae ac bc
       -0.0020539174 0.020744257 -0.010157558 -0.021079063
0003f0 58 19 87 bc da d1 21 bd d4 ac 7c bc 68 96 7c bc
       -0.016491577 -0.03950677 -0.015422065 -0.015416719

action_model._continuous_distribution.mu.bias f4 [6]
000000 f3 b3 9d b9 3d 1f b9 38 13 7e 3d 39 8b a5 42 b9
       -0.00030079446 8.827306e-05 0.00018071411 -0.00018562951
000010 41 8e 8a b8 85 1f 99 b9
       -6.60685e-05 -0.00029205918

critic.network_body.linear_encoder.seq_layers.0.weight f4 [128, 9]
000000 4a 96 22 be aa b3 2d 3e c3 aa e9 be 3e eb 17 be
       -0.15877643 0.16963068 -0.45638093 -0.14835832
000010 d6 fc 9d be 98 a2 0c bf 4b 05 1d 3e 6a fb 45 3d
       -0.3085696 -0.549356 0.1533405 0.04833547
000020 11 db ee bd 8e b6 0e bc 98 1f b4 3d ca 15 2e 3f
       -0.11662877 -0.008710517 0.087950885 0.68002
000030 88 6f c3 3e ee e4 2c 3e 07 91 7c bd f1 dc bd be
       0.3817103 0.16884205 -0.061661746 -0.37082627
000040 76 f4 14 be 82 be 19 3f 54 97 76 3e cd d7 95 3e
       -0.1454638 0.60056317 0.24081165 0.29266205
000050 cb c8 c6 be 0f 2d 1e be 0a a4 15 3f f9 72 82 3e
       -0.38825068 -0.15446876 0.5845343 0.25478342
000060 bc 4c 18 3d 54 5d 13 bf 14 bb 21 be de 2e 72 be
       0.037182555 -0.5756428 -0.15794021 -0.23650691
000070 a8 b1 36 3e de d1 dd 3d e2 bb 9f bd fa 87 a1 be
       0.17841208 0.108310446 -0.07799508 -0.31549054
000080 2e bb 9b 3e e4 d6 c8 3c 09 0f 05 3e 89 23 65 be
       0.30416244 0.02451653 0.12994017 -0.22376837
000090 5b ce 24 bd ba 0f b9 bd 13 73 c2 be 58 44 ff be
       -0.04023586 -0.09036203 -0.3797842 -0.4985683
0000a0 18 f8 90 be d2 f1 d8 be 1d f0 7b 3e 37 7a e1 be
       -0.2831428 -0.42371994 0.24603315 -0.44038555
0000b0 72 f5 df bc 54 ab 9b 3c 0d 96 8e 3d 73 e4 f9 3e
       -0.027338717 0.019002594 0.06962214 0.48807105
0000c0 da 27 68 be 0c 56 b1 be 40 23 9e 3d 64 e1 9f 3d
       -0.22671452 -0.3463596 0.07721567 0.07806662
0000d0 6a ae d6 3e 18 83 9c 3e 56 a8 97 3e 9b 62 8a 3d
       0.41929942 0.30568767 0.29620618 0.06757089
0000e0 5e b6 5d bd 96 91 28 bf 5e 7e a3 3d 5b 1a dd be
       -0.054128997 -0.65847147 0.07983087 -0.4318417
0000f0 29 4a 97 3d 52 b2 85 3e c5 70 3a 3f 35 07 09 be
       0.07387192 0.2611261 0.7282832 -0.13381656
000100 8f d0 ab bd 21 c3 d4 3e 5b b9 0c 3f 04 73 18 3d
       -0.08389389 0.41555122 0.5497033 0.037219062
000110 b2 b5 36 bf ff 29 7b 3d 55 88 2e be 93 6a 47 bc
       -0.71370995 0.061319347 -0.17044194 -0.012171405
000120 27 11 08 bd 0d 42 c4 bd cf df 30 be 84 9e b7 bd
       -0.033219483 -0.09582911 -0.17272876 -0.08965781
000130 b8 57 e4 be 50 79 4f bf a5 38 83 3e 79 b0 8f be
       -0.44598174 -0.81044483 0.25629154 -0.28064325
000140 de ef d6 be 36 cd 40 3f 3f b8 8c be 62 08 c7 bd
       -0.4197988 0.7531313 -0.2748432 -0.09718396
000150 fa 66 00 bc a7 83 bc bc db 1f 02 3e ff b8 fa bd
       -0.0078370515 -0.023011995 0.12707464 -0.122423165
000160 de c6 e3 be b2 c9 74 3e cd a8 04 bc d7 31 7a bd
       -0.4448766 0.23905066 -0.008096886 -0.061082687
000170 ac 48 53 3e a6 25 81 3e f1 32 8f be 5f f0 be 3e
       0.20633191 0.25224036 -0.27968553 0.37292764
000180 ba ae 91 bf 6b bd c8 bd e5 39 29 3e 1c b9 02 3e
       -1.1381447 -0.098017536 0.16525991 0.12765926
000190 16 77 e4 be 3e 41 ac 3c 55 fd e2 3e e0 66 ce be
       -0.44622105 0.021027204 0.44333902 -0.40312862
0001a0 c3 9d 0d 3f 3c 4a df 3b 25 67 9e bd 10 17 fc 3c
       0.5531885 0.0068142693 -0.07734517 0.030772716
0001b0 6f e4 02 bf 5e 8a 63 be a5 63 4a be bf 83 01 3f
       -0.5112981 -0.22220752 -0.19764574 0.50591654
0001c0 7c 58 3e 3f d8 0d 2d be f6 6e e3 3e 95 ca b2 be
       0.74353766 -0.16899812 0.44420594 -0.34920183
0001d0 3e 4f 1a be 47 55 2a be 95 91 15 be 89 f6 b0 3e
       -0.15069291 -0.16634093 -0.14606316 0.3456309
0001e0 f4 5e 0c bf 70 10 a1 3e e0 3d b6 3e 25 42 55 3e
       -0.54832387 0.31457853 0.35594082 0.20826013
0001f0 b6 69 ad bc eb 9e e9 3d 51 61 d5 3e 95 5a 18 3e
       -0.021168571 0.11407264 0.4167581 0.14878304
000200 71 1e ce 3d 43 ec e6 bd ca 8b 8a 3e db 57 f8 bd
       0.100644 -0.11275532 0.27059776 -0.12126132
000210 c0 fc d7 bc 4a b6 f3 bd 16 2b 15 be 14 d1 2b 3f
       -0.026365638 -0.11900003 -0.14567217 0.671159
000220 c1 6c 50 3e 57 52 cd 3e 5c eb 9c 3e 8f 50 e8 bd
       0.20353986 0.40101883 0.30648315 -0.1134349
000230 97 23 3d bf 1b b4 c4 3e ca 74 29 3e 8b 19 71 be
       -0.7388243 0.3841866 0.16548458 -0.235449
000240 42 39 00 3f 98 9b e2 bd e5 aa c7 bd 60 af 52 3e
       0.5008737 -0.110648334 -0.097493924 0.20574713
000250 ce 48 fb bc 86 4e 70 3c da af 27 3e 56 e7 c3 be
       -0.030674364 0.014667159 0.16375676 -0.38262433
000260 96 a1 1b 3e a4 d9 70 3e 9f 5e 76 bd d6 6d 68 3e
       0.15198359 0.23520523 -0.06014883 0.22698149
000270 88 c8 4f 3e 5e 49 ba be 53 4d c6 3e 14 ea c7 3e
       0.2029134 -0.363841 0.3873087 0.39045775
000280 59 ed 43 3f 9b c3 3a 3e d9 75 4a 3e 97 a9 05 bf
       0.7653404 0.1823868 0.19771518 -0.522119
000290 0c 9f 58 be 34 2f 5e 3e 8e cf 16 bc 35 f0 27 bd
       -0.21154422 0.21697694 -0.009204758 -0.041000564
0002a0 28 f4 e7 be f5 06 06 3f 2f ce 4d be 67 00 a9 3d
       -0.45303464 0.52354366 -0.20098184 0.0825203
0002b0 df df c4 3e ba 0f 81 be 3e 91 1d 3e 5e b5 b4 3d
       0.3845205 -0.2520731 0.15387437 0.088236555
0002c0 65 27 9c bd a1 7f 8a be b5 35 51 3e 52 40 71 bd
       -0.076247014 -0.27050498 0.20430644 -0.05889923
0002d0 17 33 16 bf 38 8f 54 bd 36 0c d2 3d 16 4c 92 be
       -0.58671707 -0.051894397 0.10256235 -0.28573674
0002e0 d4 06 a6 be 1d f2 22 3e 5d 9e 11 3f d8 a1 93 be
       -0.32427084 0.15912671 0.5688227 -0.28834414
0002f0 99 f6 04 3f 36 e5 65 be c8 b7 75 3e 51 e9 da be
       0.5193878 -0.22450718 0.23995888 -0.4275613
000300 01 f4 23 3d e4 b2 59 3e ca ed e6 3d fd c0 4e be
       0.040027622 0.21259648 0.112758234 -0.20190807
000310 7e 23 14 bb 50 8f 06 3f f8 c7 da 3e 34 14 19 3c
       -0.0022604163 0.5256243 0.4273069 0.009343196
000320 35 2f 60 bf 12 d7 21 be bc d0 db 3e e5 60 ac 3e
       -0.8757203 -0.15804699 0.4293269 0.33667675
000330 3c 9e 2e bc 8e 24 29 be 21 e4 8f 3e 5b fa d5 bd
       -0.010657843 -0.16517851 0.28103736 -0.10448142
000340 d5 cd 25 be 6c 43 ba bd c6 15 b2 3c af 3f a7 3d
       -0.161918 -0.09094891 0.021738898 0.081664436
000350 cc e8 1a 3e ef e9 fb 3b 4f ee 09 bd 79 55 9d bc
       0.15127867 0.007687799 -0.033674534 -0.019205796
000360 43 5e 94 be 91 d1 45 3e 58 d9 4e bc 77 77 87 3e
       -0.28978166 0.19318224 -0.012625061 0.26458332
000370 1a 66 e3 3e f5 b8 02 3d d7 af 99 3e 9d 8f 2f 3e
       0.44413835 0.03191467 0.30016968 0.17144628
000380 9f 0a fa bd f0 21 0a bf d6 80 55 3e 7b 4b bc 3e
       -0.12209057 -0.53958035 0.20849928 0.36776337
000390 64 24 c7 3e 3e aa cc bd 82 b8 42 bd 7d 1c 06 bf
       0.3889495 -0.099934086 -0.04753924 -0.5238722
0003a0 e8 d2 0e bf d2 23 0a 3d a2 09 de 3e fa bb 7a bd
       -0.5579057 0.033725567 0.43366724 -0.061214425
0003b0 17 a0 58 3e e6 f0 12 3f c7 a3 6a be bd c0 8e be
       0.2115482 0.5739883 -0.22914039 -0.27881423
0003c0 5f b6 fd be df 0c b8 be 7e 6f b3 3a 66 40 61 be
       -0.495532 -0.3594732 0.0013689843 -0.21997222
0003d0 8d d5 ff bd eb b2 dd be 10 79 22 be 7e 7b ec 3e
       -0.124919035 -0.43300566 -0.15866494 0.46187967
0003e0 fa d1 96 be bf 34 89 bd 6e f5 20 3d 62 9f a0 3e
       -0.29457074 -0.06699514 0.03929656 0.313716
0003f0 af d5 4c be 0e 0a 7a 3d be 9c f3 3e c4 ca eb bd
       -0.20003389 0.061044745 0.47580522 -0.11513284

critic.network_body.linear_encoder.seq_layers.0.bias f4 [128]
000000 e3 61 2e 3c 8f bb 18 3a 6e 12 04 3c 75 18 22 bb
       0.010643455 0.0005826288 0.008061035 -0.0024733816
000010 2a 5b 6e 3b 89 a3 4a bb 7e 31 f3 3b db 00 7d bb
       0.0036370256 -0.0030920228 0.0074216714 -0.0038605246
000020 24 68 b9 ba c6 65 04 ba 00 00 00 00 c5 0a 84 3b
       -0.0014145416 -0.0005050566 0.0 0.004029604
000030 c0 cf 15 bb a4 e7 d0 3a 08 39 e2 3a 88 61 a3 ba
       -0.0022859424 0.0015938175 0.0017259428 -0.001246498
000040 0d 6f 32 ba 11 64 26 3a 73 bc 30 3c 40 a1 15 bb
       -0.0006806709 0.00063473085 0.010787117 -0.0022831708
000050 7b e5 b0 bb b2 35 af 3b ff e3 b9 39 a5 25 61 3b
       -0.00539845 0.005346977 0.0003545582 0.0034354713
000060 bb 6e bf ba 2a 2c 30 38 f6 1b d0 3b c5 9c 0a 3c
       -0.0014605144 4.20028e-05 0.0063509895 0.008460228
000070 b2 bf e2 3c 03 00 ab ae b7 64 6d bb c8 0e 08 bb
       0.027679298 -7.776182e-11 -0.003622336 -0.0020760763
000080 4f 54 ee 36 24 61 2b 3b 60 21 ab 3b 59 69 b9 39
       7.1027675e-06 0.002615043 0.0052224845 0.0003536444
000090 ec 5c 56 3c 8b 79 f9 3a 5b 38 a4 b9 d7 23 d5 3b
       0.013083678 0.0019033415 -0.00031322506 0.0065045166
0000a0 e2 be 10 3c bc 3a 54 bb fd 1f e4 3c 79 69 52 bc
       0.0088345725 -0.0032383641 0.027847284 -0.012842529
0000b0 82 39 a5 39 c5 c2 91 ba 8d 16 46 bc f5 01 ab 3b
       0.000315141 -0.0011120668 -0.012090337 0.005218739
0000c0 07 a1 bd bb 6c c2 e4 3b 25 d3 04 3b 62 2e 16 3c
       -0.005787018 0.0069811847 0.0020267454 0.009166332
0000d0 02 0d 9c bb cd 7c 5a 3c b6 d5 82 bb 63 d0 f7 3b
       -0.004762293 0.013335419 -0.0039927615 0.0075626834
0000e0 7e c2 a4 bb 8e a0 97 a0 63 32 b0 b9 59 8b 49 bb
       -0.005028068 -2.568664e-19 -0.00033606877 -0.0030753224
0000f0 30 e6 31 ba f9 8c 50 bc 30 9a 88 bb 24 b7 d1 ba
       -0.0006786315 -0.012728923 -0.004168771 -0.0016000015
000100 dc 59 78 ba bb 4c b6 ba 3e 45 4e bc 87 d7 8c 3b
       -0.00094738393 -0.0013908366 -0.012589751 0.004298154
000110 88 4e 15 3b d0 c7 5f 32 73 15 71 3b 09 1c d7 3b
       0.0022782404 1.30257405e-08 0.0036786466 0.0065646213
000120 d9 78 e7 ba 82 03 aa 3c 11 8b 2f 3a 3c 82 0f 38
       -0.0017659917 0.020753626 0.0006696443 3.4215147e-05
000130 c7 09 3b 3b 87 c5 0b bb 1e 5e b3 ac e7 cd 4e 3b
       0.0028539763 -0.0021327452 -5.097935e-12 0.0031555833
000140 6c 72 8d bb 02 65 43 39 cd e8 2b 39 0e 56 5b 3c
       -0.0043166187 0.00018634278 0.00016394556 0.013387216
000150 4f 24 8d 3b 92 bf ae 3b c1 64 a9 bb 07 81 90 bb
       0.004307307 0.0053328956 -0.0051694815 -0.0044099125
000160 ef 7f f1 3a 53 a3 06 3c 69 a4 7a 3c 63 8a e5 bb
       0.0018424968 0.0082176505 0.0152979875 -0.0070050224
000170 12 17 3a bc 98 31 32 ba 3d 60 eb 3c 2b e9 bf bb
       -0.011358039 -0.0006797551 0.028732413 -0.005856653
000180 f5 34 ce 3b 2d be 26 bc 2c 1a b6 3b 03 dc c6 39
       0.006292934 -0.010177177 0.005557319 0.00037929424
000190 45 2d 3a bc e6 7e ef b9 4d 21 d4 3c df e6 f3 ba
       -0.011363332 -0.0004568018 0.025894785 -0.0018608234
0001a0 f5 8b e4 3b 78 1d 6b 3a e9 a9 43 3c 36 b9 05 ba
       0.006974692 0.000896893 0.011942365 -0.0005101146
0001b0 fd e3 b8 bb 3e 90 1f 3b 46 4c 62 ba 4f fe 38 3b
       -0.0056424127 0.002434745 -0.00086325814 0.0028227752
0001c0 64 1b 83 b8 ad 29 97 3a 1c c8 04 9b fc 01 c6 bb
       -6.251669e-05 0.0011532806 -1.0983443e-22 -0.006042717
0001d0 ca 16 be bb e3 35 a1 ba 0f 31 3e ba 4a 1e 03 3a
       -0.0058010565 -0.0012299385 -0.0007255235 0.0005001767
0001e0 5c 9a 09 3c 25 c0 76 a6 12 d6 cc 3c 6a 74 e2 b9
       0.008398619 -8.56088e-16 0.02500442 -0.00043192814
0001f0 36 b4 14 3b 3a 67 33 bc 85 4c f0 b8 ec 40 a2 b9
       0.0022690422 -0.010949904 -0.00011458345 -0.00030947418

critic.network_body.linear_encoder.seq_layers.2.weight f4 [128, 128]
000000 24 39 c0 bc 0b 79 86 3d 33 40 31 3d fc a7 6b bd
       -0.023464747 0.06566056 0.043274116 -0.05753325
000010 ca 84 3a bd 18 45 60 bd 4a 5b 11 3d e3 bd a8 3d
       -0.045536794 -0.054753393 0.03548745 0.08239343
000020 19 a4 11 bd 27 df 12 3d ce 6d 6e bd d9 e9 cb bc
       -0.035556886 0.035857346 -0.058210187 -0.02489178
000030 e4 c7 78 3c 85 96 10 be 0d c8 d2 3d 5f 17 b7 3c
       0.015184376 -0.14119919 0.10292063 0.022350011
000040 f0 8f 8a 3d 0d e4 a9 3c 78 bf fb bb 29 a7 59 bc
       0.06765735 0.020738626 -0.007682737 -0.013284483
000050 a2 fe f3 bd 2a ca 06 3c ca 4a 1b bd 78 3b 5b 3d
       -0.11913802 0.008226911 -0.03791312 0.05352351
000060 4c ba 8b bc 06 6f 42 bd fb d9 7e 3c 9c 78 b2 bb
       -0.017056607 -0.04746916 0.0155549 -0.0054465067
000070 cb 26 64 be 9b 77 70 3d 6a eb 7e 3d 94 d0 0a bd
       -0.22280423 0.058707815 0.062236227 -0.03389032
000080 1d 35 7f 3d 61 fb 3d bc 3a 11 f6 bb 45 5a 5c 3c
       0.062306512 -0.011595578 -0.007509378 0.013449256
000090 86 6a 71 3d 86 01 e6 bb 55 d4 c3 bc 04 28 cd 3d
       0.05893948 -0.0070192246 -0.023904959 0.10017398
0000a0 9d 36 d7 3d 6e 60 2e be 4d b7 83 3e fa de 99 bd
       0.105084635 -0.17028973 0.25725785 -0.075132325
0000b0 8e ff 82 bd ff 2f e2 3b 98 0d 84 bd c0 cc 06 3e
       -0.063963994 0.0069026942 -0.06447905 0.13164043
0000c0 d9 eb 8d 3d bf 4d 1b bd 94 2b 82 3d 6e 91 5a 3d
       0.0692975 -0.03791594 0.06355968 0.05336135
0000d0 50 85 4d 3d f6 5a 10 3d 5a 68 af bd 96 54 0e 3d
       0.050175965 0.035242997 -0.08564825 0.034748636
0000e0 fc 9e 2b 3d cb da 5f bd f5 81 61 ba 22 64 96 3d
       0.041899666 -0.054652017 -0.0008602434 0.073433176
0000f0 64 3b 83 bc 59 43 dd 3a 95 5a 78 3d e2 42 47 bd
       -0.01601953 0.0016881033 0.06063326 -0.04864777
000100 7c 9b fe bd f7 84 7c 3d 0b 69 1f be ef 5e 0d bc
       -0.12432 0.061650243 -0.15567414 -0.008628591
000110 6b 8a 7d bd 10 35 d2 bc 14 f2 d3 3c 4d c7 07 3c
       -0.061899584 -0.025660068 0.025872268 0.008287263
000120 60 89 9f 3d 1e aa 95 bd d0 7f 06 3d 65 10 e7 bb
       0.07789874 -0.07307838 0.032836735 -0.007051515
000130 ed 8f d1 3d 28 70 aa bd 81 87 9f bd 94 d8 bf bd
       0.1023253 -0.08322173 -0.07789517 -0.09367481
000140 c8 16 25 3d 90 2f 23 3e 11 e2 4e bd d2 a0 0c bd
       0.04030493 0.15936112 -0.050508562 -0.034333058
000150 0e 78 77 3c 76 48 3a be cc 40 06 3e b6 d4 df 3d
       0.015104307 -0.18191704 0.13110656 0.10929243
000160 b1 6e 11 bd 7d d7 9a 3d 7b 0b f7 3c d4 b5 fc bc
       -0.035505954 0.075606324 0.030156842 -0.030848421
000170 7c 1a f3 3c eb 92 0c 3d b0 0e 2e bd 56 89 01 b9
       0.029675715 0.0343198 -0.042494476 -0.0001235356
000180 a7 b0 1a be 68 2c 17 3d 5b c1 7e 3d 46 4b b7 3d
       -0.1510645 0.036907583 0.062196117 0.08949904
000190 9a 54 4b 3d e9 61 6d bd bb 4a 21 3e db 0a 9c bd
       0.04964123 -0.057954703 0.15751164 -0.07619258
0001a0 f1 93 67 3c d8 c0 b6 bd fa 64 b6 bd 25 87 9f 3a
       0.014134393 -0.08923501 -0.089059785 0.0012171014
0001b0 66 6b e8 bd fa e9 13 bd 3f f0 d8 bd 05 87 a5 3d
       -0.113486096 -0.03611181 -0.10592698 0.080823936
0001c0 9f 85 19 bd 8c 33 22 bd 3f e1 e4 3b 18 5a 74 bc
       -0.037480947 -0.03959994 0.0069848592 -0.014914058
0001d0 d5 c3 f5 bd ec b3 6c bd 4b d5 99 3d 01 3e 71 bd
       -0.120002426 -0.057788774 0.075113855 -0.058897022
0001e0 cd 38 e8 3c e0 dd c1 bc ed d1 f7 bd 67 e8 25 be
       0.028347397 -0.023665369 -0.12100587 -0.16201936
0001f0 52 f6 97 3d 6a 27 47 bc 2d d1 8a ba 86 ca 81 bd
       0.07420029 -0.012155393 -0.0010590904 -0.063374564
000200 3d 62 80 3c f9 77 d8 bd 36 e3 a9 bb dd 90 f9 3d
       0.015671844 -0.10569758 -0.0051845564 0.121858336
000210 06 57 36 3e db 4a e8 3d 9b d3 aa 3c 03 16 29 3e
       0.17806634 0.113424025 0.020852854 0.16512303
000220 ad 7e 03 bd 97 98 0d 3d bf 30 09 be af e5 74 bd
       -0.03210323 0.03456935 -0.13397501 -0.059789356
000230 58 21 77 bd 4d 4a b9 bd f8 f6 c6 3d 11 b2 46 bd
       -0.060334533 -0.09047375 0.09715074 -0.04850966
000240 c1 d4 b3 bd 63 e0 34 bd ff 1a 06 bd 36 ba c4 3d
       -0.08780814 -0.044159304 -0.03274059 0.096058294
000250 74 41 19 3e 5e 00 7e 3d 42 69 81 3d eb c9 65 bc
       0.14966375 0.06201207 0.063189045 -0.014025192
000260 97 da 65 3e 95 70 7a 3d 66 57 af bc f1 bc 62 bd
       0.22446667 0.061142523 -0.02140398 -0.05535597
000270 39 0f 49 bd da da 4e 3c 4a be 1a be 20 82 c2 bd
       -0.049086783 0.0126254205 -0.15111652 -0.094974756
000280 ca 91 3a 3b da 6f 82 3b 46 f4 99 bb b3 22 b2 3c
       0.0028468245 0.003980619 -0.004698309 0.021745062
000290 03 c5 dd 3d ce ac 1d bd 95 4b 19 3d 42 ba 79 3a
       0.10828593 -0.038494878 0.037425596 0.0009526351
0002a0 34 6a bd 3d 19 b7 c1 bd 85 06 f4 bb b8 d9 28 3e
       0.09248772 -0.09458751 -0.0074470663 0.16489303
0002b0 f4 b3 93 3d 61 c7 1f 3e b4 98 5d 3d 43 1f e9 3d
       0.07212058 0.15603401 0.054100707 0.11382916
0002c0 44 97 a5 3c 2e 85 78 bd 9f 4e b8 bd 1e 8c c0 bd
       0.02021373 -0.060673885 -0.08999371 -0.09401725
0002d0 fe 8c 1f be b4 21 39 3d 0e 17 27 bd 97 98 7e 3c
       -0.15581128 0.045198157 -0.04079347 0.01553931
0002e0 f7 99 33 be 31 4f d1 bd 65 60 c5 bd fc a9 69 bd
       -0.17539202 -0.10220183 -0.096375264 -0.057046875
0002f0 26 fd 47 be 61 fc d6 3d 12 78 0d 3c 76 33 9b bc
       -0.19530162 0.10497356 0.008634584 -0.018945437
000300 f8 88 a1 3d 5f 34 89 3d c4 fa 21 bd 78 9b 89 bc
       0.07887453 0.06699442 -0.03954579 -0.016797766
000310 b6 7c 8b 3d c9 15 48 be 67 5f eb 3c 43 f9 3e be
       0.06810896 -0.1953956 0.028732015 -0.18649773
000320 1a 00 a9 3d d8 5b ba bd 45 ef 44 3d 17 8c a7 bd
       0.082519725 -0.09099549 0.048079748 -0.08181017
000330 71 5c 15 be 3b 42 40 bd c6 f8 b1 bc ed 1a 93 3d
       -0.14586045 -0.046938162 -0.02172507 0.0718287
000340 cc 00 92 3d 49 20 bd 3d 81 04 5e bd 08 e4 89 3d
       0.07129058 0.092346735 -0.054203514 0.06732947
000350 13 d9 98 3c e0 3c 9b bd 02 8b f8 3c e2 30 0e be
       0.018658197 -0.0757997 0.030339722 -0.13885835
000360 0d c5 ae 3d e0 64 f2 bc c0 d1 2c 3e bc 0c a7 3a
       0.08533678 -0.029589117 0.16876888 0.0012744884
000370 55 7d c7 bc f9 95 0c bd 50 0c db 3a a4 6c d2 bd
       -0.024351755 -0.034322713 0.0016712043 -0.10274628
000380 6a 02 7b be 5d 56 b6 bb ef 23 96 3d d9 7c 40 3d
       -0.2451264 -0.0055644945 0.073310725 0.046994064
000390 67 ab 29 be fe de 7b 3d 98 9e 00 be 04 97 68 3c
       -0.16569291 0.06149196 -0.12560499 0.014196161
0003a0 fc b0 80 bd 4a 80 1d 3e 6f 44 a9 3d bf 94 49 3d
       -0.06283757 0.1538097 0.08265006 0.04921412
0003b0 95 56 25 3c c1 37 6d be 04 9c 4c 3d f3 82 20 bd
       0.010091444 -0.231658 0.049953476 -0.039187383
0003c0 22 c6 76 3d 8b 25 0e 3d eb ac d5 bd 3d 48 65 3d
       0.060247548 0.034703773 -0.10433372 0.055977095
0003d0 91 b8 27 be 04 4a c8 3d 62 4d b1 3d 3a fd 7f bd
       -0.16379 0.09779742 0.08657338 -0.062497355
0003e0 26 21 4c ba 44 48 9e bc d7 cb d6 3c 21 12 e6 3d
       -0.0007786922 -0.019321568 0.026220245 0.112339266
0003f0 2c 0e d7 bd 24 fc 31 be d7 90 74 3d 36 93 de bd
       -0.1050075 -0.1738134 0.059708443 -0.10867922
