Unity/results/ScoreGoal0/My Behavior/My Behavior-5728.onnx (onnx, 75988 bytes, 7 tensors)

action_model._continuous_distribution.log_sigma f4 [1, 5]
0.0 0.0 0.0 0.0 0.0
00000000: 0000 0000 0000 0000 0000 0000 0000 0000
00000010: 0000 0000

action_model._continuous_distribution.mu.bias f4 [5]
0.0 0.0 0.0 0.0 0.0
00000000: 0000 0000 0000 0000 0000 0000 0000 0000
00000010: 0000 0000

action_model._continuous_distribution.mu.weight f4 [5, 128]
0.011204175 0.005066063 -0.0072346786 -0.0034261362 -0.014507773 0.019261293 0.004778549 -0.018991238
-0.006641695 -0.009317554 -0.006785088 0.031281546 -0.00063865376 -0.005426941 -0.018102603 -0.01781505
-0.033305805 0.0027464952 0.019916201 -0.026926888 -0.015401778 -0.0047869384 -0.007995146 0.029925227
0.0017923497 0.009714301 -0.00627449 -0.012633934 0.0083753625 -0.022649286 0.023215298 0.005556035
-0.022639224 0.025903443 0.0003282126 -0.019747315 -0.01297681 -0.003079957 0.008738542 0.011092217
0.009818806 -0.0014995112 -0.019592542 -0.016016271 0.021191088 0.0014354695 0.0054763546 0.019811
0.01834931 0.0060749394 -0.0065913955 -0.01419566 0.033596486 -0.010925203 -0.0027477865 -0.036665287
-0.024035338 -0.013832077 -0.0038920045 -0.022063736 -0.018055746 -0.023845958 -0.0029340892 0.0076732035
0.008451225 0.010032109 0.009627632 0.0053028646 -0.0021400587 -0.0017464471 0.0075614634 0.012455141
-0.036868434 -0.030225351 0.009080675 -0.018175585 0.012619193 -0.03378582 -0.0073038773 0.005779629
-0.015307185 0.030340327 -0.0027290587 -0.020087698 -0.011042869 -0.005444494 0.021504356 0.012720141
-0.010172958 -0.007067167 0.0051038642 -0.02490477 -0.04383054 -0.0073209973 -0.01337793 0.017928233
0.012386094 -0.011465082 -0.013338551 0.00489291 -0.011778412 0.018488731 -0.022376632 -0.026303193
0.019304032 -0.016863013 0.00017323499 0.019945858 -0.03592231 -0.026469795 0.009488194 0.009560083
0.017594367 -0.018465666 -0.0033855524 -0.020854387 0.017196698 -0.0013778404 0.032242514 -0.014560239
0.015607259 -0.020124756 0.0076317894 0.01424952 -0.0038298585 0.030086724 0.030505424 0.029526634
-0.006659941 -0.021783724 0.030769158 -0.001616368 0.019027187 -0.00699429 0.006998869 0.023346657
0.024633095 -0.0012994057 -0.01073212 -0.019209664 0.034142353 0.013252929 0.026394973 0.005276403
0.037161533 0.018109044 -0.020450113 0.03161092 -0.003449899 6.9354915e-05 -0.017062733 -0.014728089
-0.019859666 -0.03252287 0.019741533 0.04186864 -0.0046528103 -0.01856134 -0.001235913 0.02172946
-0.00046292992 0.00079011574 0.006134374 -0.02001935 -0.013871051 0.0101784915 -0.01001453 -0.021059467
-0.0030816402 0.020391615 -0.0094853295 -0.002218252 0.0026209431 -0.022040877 0.013819243 -0.0047412254
-0.020292794 -0.024149029 0.0012984349 0.0012346896 -0.035669062 -0.011056119 -0.032924872 -0.011633361
-0.026942452 -0.00590988 0.025357237 0.016553713 -0.013148482 -0.011864789 -0.035900705 -0.009844699
0.030773317 0.029354578 0.0013007241 0.023932552 0.009845683 -0.0048225042 0.019491961 0.0065812855
0.0008921789 -0.009083749 -0.0029611841 -0.019953633 0.008645057 0.022246761 0.050671518 0.01596671
-0.013096118 0.010591926 -0.0029484527 -0.039649796 -0.026486406 -0.016839502 0.020582465 0.01614133
-0.0088967 0.005801195 0.009746387 -0.020358257 -0.012426054 0.01987583 0.018417414 -0.0068396092
-0.012810731 0.025882905 0.0023086765 0.0035134435 0.0017021142 -0.007261886 0.02943655 -0.013604443
-0.006461274 0.019681364 -0.003976531 -0.03159518 -0.00012418468 0.035548802 0.0047914633 0.03274001
0.018061254 -0.039798167 0.0016795341 -0.0062579135 0.0061752493 -0.0063240523 -0.0035049801 0.010067803
-0.009110551 -0.010274229 0.01408266 0.028869033 -0.013300828 0.001506421 0.023593388 0.011306393
00000000: b791 373c 3701 a63b e210 edbb 0789 60bb
00000010: 03b2 6dbc dcc9 9d3c 6095 9c3b 8393 9bbc
00000020: 93a2 d9bb a7a8 18bc 7255 debb 1421 003d
00000030: 546b 27ba 7bd4 b1bb e94b 94bc def0 91bc
00000040: ab6b 08bd 8bfe 333b 4d27 a33c c795 dcbc
00000050: bd57 7cbc c0db 9cbb 13fe 02bc c025 f53c
00000060: 47ed ea3a bb28 1f3c 3d9a cdbb 8ffe 4ebc
00000070: d138 093c ff8a b9bc 022e be3c 660f b63b
00000080: e575 b9bc 7533 d43c f313 ac39 1fc5 a1bc
00000090: b09c 54bc 1bd9 49bb 1a2c 0f3c 21bc 353c
000000a0: 0fdf 203c 3f8b c4ba 8a80 a0bc 8e34 83bc
000000b0: ef98 ad3c 5d26 bc3a fe72 b33b ae4a a23c
000000c0: 4b51 963c 4910 c73b a2fc d7bb ea94 68bc
000000d0: 789c 093d 9fff 32bc 3514 34bb 572e 16bd
000000e0: c2e5 c4bc f09f 62bc 0011 7fbb 02bf b4bc
000000f0: a5e9 93bc 9958 c3bc d949 40bb 7f6f fb3b
00000100: 0277 0a3c b75d 243c 37bd 1d3c a7c3 ad3b
00000110: 3a40 0cbb 0ae9 e4ba 27c6 f73b a610 4c3c
00000120: 5b03 17bd 289b f7bc 1dc7 143c f7e4 94bc
00000130: bbc0 4e3c 0063 0abd 5d55 efbb 0b63 bd3b
00000140: fdca 7abc 478c f83c 02da 32bb f58e a4bc
00000150: 26ed 34bc ba67 b2bb e729 b03c 2368 503c
00000160: 7aac 26bc b293 e7bb 513e a73b 1705 ccbc
00000170: a787 33bd fae4 efbb 1b2f 5bbc 3bde 923c
00000180: 0bef 4a3c 0ad8 3bbc f089 5abc b454 a03b
00000190: 3efa 40bc ae75 973c 334f b7bc cb79 d7bc
000001a0: 7d23 9e3c 4d24 8abc 6aa6 3539 7f65 a33c
000001b0: 4623 13bd 2fd7 d8bc 5f74 1b3c e5a1 1c3c
000001c0: 1022 903c 4f45 97bc 25e0 5dbb d2d6 aabc
000001d0: 17e0 8c3c a798 b4ba ba10 043d 128e 6ebc
000001e0: 97b5 7f3c acdc a4bc 1714 fa3b d276 693c
000001f0: 5dfe 7abb 6f78 f63c 83e6 f93c d7e1 f13c
00000200: a23b dabb c873 b2bc 9a0f fc3c 4fdc d3ba
00000210: e7de 9b3c 5b30 e5bb c556 e53b 7d41 bf3c
00000220: 58cb c93c d250 aaba c6d5 2fbc 965d 9dbc
00000230: dad8 0b3d d022 593c 453a d83c ade5 ac3b
00000240: b136 183d 6b59 943c ff86 a7bc 747a 013d
00000250: b317 62bb a372 9138 25c7 8bbc 154e 71bc
00000260: bdb0 a2bc b336 05bd ffb8 a13c 737e 2b3d
00000270: 9a76 98bb f40d 98bc 5cfe a1ba fb01 b23c
00000280: 67b5 f2b9 c51f 4f3a dc02 c93b 9fff a3bc
00000290: 6843 63bc b0c3 263c fc13 24bc e784 acbc
000002a0: 58f5 49bb 510c a73c 5b68 1bbc 1860 11bb
000002b0: 21c4 2b3b 128f b4bc 1b6a 623c 485c 9bbb
000002c0: 133d a6bc 2fd4 c5bc 3f30 aa3a 4fd5 a13a
000002d0: b919 12bd b924 35bc 3bdc 06bd da99 3ebc
000002e0: 6bb6 dcbc aba7 c1bb fbb9 cf3c a79b 873c
000002f0: bb6c 57bc 8864 42bc 9e0c 13bd a94b 21bc
00000300: 5318 fc3c 0379 f03c 0f7d aa3a 330e c43c
00000310: ca4f 213c 1906 9ebb 9bad 9f3c d3a7 d73b
00000320: 1de1 693a 01d4 14bc 6d10 42bb cd75 a3bc
00000330: ffa3 0d3c d73e b63c f08c 4f3d 9ecc 823c
00000340: 1a91 56bc c289 2d3c d43a 41bb d367 22bd
00000350: 05fa d8bc fff2 89bc 8f9c a83c d33a 843c
00000360: 77c3 11bc f317 be3b 4faf 1f3c 5cc6 a6bc
00000370: a696 4bbc a3d2 a23c 1ee0 963c cd1e e0bb
00000380: 1ae4 51bc 6308 d43c 2a4d 173b cd41 663b
00000390: 7a19 df3a 1df5 edbb eb24 f13c 2be5 5ebc
000003a0: 18b9 d3bb d03a a13c 8f4d 82bb f369 01bd
000003b0: 9237 02b9 9f9b 113d b501 9d3b 641a 063d
000003c0: 32f5 933c 6703 23bd d023 dc3a 2f0f cdbb
000003d0: bf59 ca3b ff39 cfbb cfb3 65bb 6df3 243c
000003e0: 6c44 15bc 3d55 28bc f5ba 663c c07e ec3c
000003f0: b7eb 59bc 1a73 c53a ec46 c13c 733e 393c

network_body.linear_encoder.seq_layers.0.bias f4 [128]
0.0 0.0 0.0 0.0 0.0 0.0 0.0 0.0
0.0 0.0 0.0 0.0 0.0 0.0 0.0 0.0
0.0 0.0 0.0 0.0 0.0 0.0 0.0 0.0
0.0 0.0 0.0 0.0 0.0 0.0 0.0 0.0
0.0 0.0 0.0 0.0 0.0 0.0 0.0 0.0
0.0 0.0 0.0 0.0 0.0 0.0 0.0 0.0
0.0 0.0 0.0 0.0 0.0 0.0 0.0 0.0
0.0 0.0 0.0 0.0 0.0 0.0 0.0 0.0
0.0 0.0 0.0 0.0 0.0 0.0 0.0 0.0
0.0 0.0 0.0 0.0 0.0 0.0 0.0 0.0
0.0 0.0 0.0 0.0 0.0 0.0 0.0 0.0
0.0 0.0 0.0 0.0 0.0 0.0 0.0 0.0
0.0 0.0 0.0 0.0 0.0 0.0 0.0 0.0
0.0 0.0 0.0 0.0 0.0 0.0 0.0 0.0
0.0 0.0 0.0 0.0 0.0 0.0 0.0 0.0
0.0 0.0 0.0 0.0 0.0 0.0 0.0 0.0
00000000: 0000 0000 0000 0000 0000 0000 0000 0000
00000010: 0000 0000 0000 0000 0000 0000 0000 0000
00000020: 0000 0000 0000 0000 0000 0000 0000 0000
00000030: 0000 0000 0000 0000 0000 0000 0000 0000
00000040: 0000 0000 0000 0000 0000 0000 0000 0000
00000050: 0000 0000 0000 0000 0000 0000 0000 0000
00000060: 0000 0000 0000 0000 0000 0000 0000 0000
00000070: 0000 0000 0000 0000 0000 0000 0000 0000
00000080: 0000 0000 0000 0000 0000 0000 0000 0000
00000090: 0000 0000 0000 0000 0000 0000 0000 0000
000000a0: 0000 0000 0000 0000 0000 0000 0000 0000
000000b0: 0000 0000 0000 0000 0000 0000 0000 0000
000000c0: 0000 0000 0000 0000 0000 0000 0000 0000
000000d0: 0000 0000 0000 0000 0000 0000 0000 0000
000000e0: 0000 0000 0000 0000 0000 0000 0000 0000
000000f0: 0000 0000 0000 0000 0000 0000 0000 0000
00000100: 0000 0000 0000 0000 0000 0000 0000 0000
00000110: 0000 0000 0000 0000 0000 0000 0000 0000
00000120: 0000 0000 0000 0000 0000 0000 0000 0000
00000130: 0000 0000 0000 0000 0000 0000 0000 0000
00000140: 0000 0000 0000 0000 0000 0000 0000 0000
00000150: 0000 0000 0000 0000 0000 0000 0000 0000
00000160: 0000 0000 0000 0000 0000 0000 0000 0000
00000170: 0000 0000 0000 0000 0000 0000 0000 0000
00000180: 0000 0000 0000 0000 0000 0000 0000 0000
00000190: 0000 0000 0000 0000 0000 0000 0000 0000
000001a0: 0000 0000 0000 0000 0000 0000 0000 0000
000001b0: 0000 0000 0000 0000 0000 0000 0000 0000
000001c0: 0000 0000 0000 0000 0000 0000 0000 0000
000001d0: 0000 0000 0000 0000 0000 0000 0000 0000
000001e0: 0000 0000 0000 0000 0000 0000 0000 0000
000001f0: 0000 0000 0000 0000 0000 0000 0000 0000

network_body.linear_encoder.seq_layers.0.weight f4 [128, 9]
0.29837888 0.58283347 0.015305638 0.17986873 0.021532444 -0.047827378 -0.03638269 -0.3723275
0.35022092 -0.043881647 0.32981858 -0.22076654 0.08922915 -0.4235502 0.5863382 0.062473234
0.1760702 0.12721816 0.32637316 0.07037237 0.08055941 0.005072814 -0.29592326 -0.2669859
0.22762659 0.2774356 0.27337587 -0.042898633 -0.07574958 0.32566088 0.029860996 0.19171953
0.25233328 0.5336363 0.120018944 0.09071532 0.21349363 -0.15706956 -0.28879642 0.28701353
-0.5424901 0.044154003 -0.18440013 0.39805752 0.24971694 0.34844685 0.10046625 -0.033077277
-0.0011817506 -0.37865943 -0.1688332 -0.15780348 -0.10557003 -0.31205648 0.08722057 0.3582402
-0.459799 -0.72468317 0.7511193 -0.052133195 -0.6112525 -0.36384115 0.08283053 0.099562034
-0.63146055 -0.014855918 0.13196918 0.31843904 -0.49476165 -0.24387217 -0.27564824 0.34740493
0.011138931 -0.26670575 0.0064464705 -0.08963894 -0.122749135 0.012031218 -0.11317413 0.12882286
0.7778017 -0.6375675 -0.033887982 -0.07209599 -0.32754746 -0.080475345 -0.26502723 -0.14571588
-0.13340187 -0.42757195 0.13681366 -0.022911286 0.02273304 -0.78277755 0.15929104 -0.08850207
-0.23537639 -0.09356403 -0.5050302 -0.19888125 -0.34453174 0.291563 0.33276156 -0.041558925
-0.22057393 0.21223715 -0.13963309 -0.5308409 0.6684104 -0.28681713 -0.52872896 -0.28038046
-0.06474116 0.16931544 -0.10620092 0.1086164 -0.16634247 0.5789401 0.5358076 -0.054504305
-0.31916898 0.07664788 -0.10476031 0.13598643 0.32494572 -0.35107976 0.06912001 0.20771262
-0.040096123 0.15137008 0.3493646 -0.10506345 -0.30005825 -0.28135547 0.19486319 -0.38466462
0.4450868 0.8317331 -0.63433754 0.061529085 0.20769267 0.6371105 0.14109376 0.36492133
0.32613957 -0.3910881 -0.50011134 -0.03384067 -0.06817072 -0.42751157 -0.042215332 0.0801055
-0.5246527 -0.26536494 -0.09925099 0.0719747 0.611833 -0.035096504 -0.31015384 0.2613346
-0.2982849 -0.17381267 -0.33474013 0.1792359 0.2004932 -0.051892787 0.053450383 -0.36579758
-0.054136947 -0.13752028 -0.4536872 0.2376496 0.055494368 -0.27234188 -0.25363138 -0.12682019
0.63407314 -0.3345556 -0.15172154 -0.36317167 -0.039060052 0.111254744 -0.20123087 0.2897931
0.30831367 0.020448461 -0.17418185 -0.06611549 0.68521154 -0.37841302 0.30894658 0.02740389
0.5295136 -0.1069134 -0.6951543 -0.4265715 0.4398422 -0.19792497 0.3580432 -0.26578978
0.43129787 -0.1812278 0.036850378 -0.09698963 0.20559886 -0.22359125 0.09352659 0.20750909
0.15482993 0.2531385 -0.002076981 0.30150342 0.20448959 -0.5789022 0.13012777 0.6962153
-0.2320602 -0.21273617 -0.0653168 0.87972134 0.16210644 0.3539322 0.1275073 -0.25993514
0.022290459 0.1100429 0.5913412 -0.08505853 -0.2157018 -0.6196094 0.27272165 0.2024551
-0.034607463 -0.33095533 0.6763629 -0.33151984 0.4133119 0.075101815 0.0668142 0.2583645
-0.18876475 -0.4506222 -0.023704153 -0.27937737 0.23458952 -0.3021776 -0.43665254 -0.12784156
-0.0678433 -0.044720195 0.15043107 0.3994503 0.40986645 -0.067655884 0.1707471 -0.03043819
00000000: 1ec5 983e 9334 153f 80c4 7a3c 822f 383e
00000010: cf64 b03c a4e6 43bd 0406 15bd b6a1 bebe
00000020: 2850 b33e 3ebd 33bd fbdd a83e a010 62be
00000030: c6bd b63d 92db d8be 431a 163f efe3 7f3d
00000040: bf4b 343e 7a45 023e 621a a73e 641f 903d
00000050: 55fc a43d d939 a63b 4183 97be 60b2 88be
00000060: f216 693e 0a0c 8e3e ecf7 8b3e 7ab6 2fbd
00000070: 9922 9bbd 06bd a63e 0c9f f43c 2052 443e
00000080: d431 813e 639c 083f 7ecc f53d f4c8 b93d
00000090: 139e 5a3e d8d6 20be 20dd 93be 70f3 923e
000000a0: a2e0 0abf d4da 343d 63d3 3cbe 32ce cb3e
000000b0: ccb5 7f3e a067 b23e 40c1 cd3d 0a7c 07bd
000000c0: f8e4 9aba a6df c1be 9ce2 2cbe 3c97 21be
000000d0: 1a35 d8bd dec5 9fbe b3a0 b23d 426b b73e
000000e0: c66a ebbe d684 39bf 5b49 403f 9e89 55bd
000000f0: 0b7b 1cbf 6349 babe 0ea3 a93d 2ee7 cb3d
00000100: 66a7 21bf 3c66 73bc ee22 073e 710a a33e
00000110: 6651 fdbe a0b9 79be c421 8dbe 0fdf b13e
00000120: 1080 363c a88d 88be ea3c d33b 9f94 b7bd
00000130: e663 fbbd 961e 453c d7c7 e7bd 24ea 033e
00000140: 031e 473f a037 23bf 20ce 0abd 10a7 93bd
00000150: 4db4 a7be 42d0 a4bd a6b1 87be 8b36 15be
00000160: 809a 08be b6ea dabe e118 0c3e 73b0 bbbc
00000170: a43a ba3c 1c64 48bf 311d 233e 9340 b5bd
00000180: 8206 71be 809e bfbd a949 01bf 87a7 4bbe
00000190: 7766 b0be bf47 953e b95f aa3e b139 2abd
000001a0: 22de 61be b254 593e fafb 0ebe 30e5 07bf
000001b0: f21c 2b3f b2d9 92be c85a 07bf 078e 8fbe
000001c0: 0397 84bd 0761 2d3e de7f d9bd 4672 de3d
000001d0: ae55 2abe 6b35 143f b02a 093f e83f 5fbd
000001e0: 1e6a a3be 90f9 9c3d 938c d6bd 0740 0b3e
000001f0: 495f a63e bac0 b3be cb8e 8d3d 9eb2 543e
00000200: d53b 24bd c200 1b3e ebdf b23e 822b d7bd
00000210: 3ca1 99be d30d 90be 378a 473e c3f2 c4be
00000220: 6be2 e33e 76ec 543f f263 22bf ec05 7c3d
00000230: 63ad 543e ac19 233f e27a 103e f8d6 ba3e
00000240: c4fb a63e b33c c8be 4c07 00bf 849c 0abd
00000250: 179d 8bbd cce2 dabe fce9 2cbd 5a0e a43d
00000260: a44f 06bf eadd 87be 1a44 cbbd 7967 933d
00000270: 16a1 1c3f 5ac1 0fbd 7ccc 9ebe a6cd 853e
00000280: ccb8 98be f3fb 31be 0f63 abbe 9e89 373e
00000290: 174e 4d3e 888d 54bd caee 5a3d d249 bbbe
000002a0: b4be 5dbd 1ed2 0cbe b049 e8be 6b5a 733e
000002b0: 104e 633d 6570 8bbe f9db 81be 27dd 01be
000002c0: 9e52 223f df4a abbe e45c 1bbe a3f1 b9be
000002d0: 6ffd 1fbd 87d9 e33d 770f 4ebe c35f 943e
000002e0: 4adb 9d3e 8883 a73c ba5c 32be 8f67 87bd
000002f0: 066a 2f3f 5abf c1be 3f2e 9e3e 1f7e e03c
00000300: 348e 073f 6af5 dabd a2f5 31bf 9467 dabe
00000310: ff32 e13e d8ac 4abe 7051 b73e 9915 88be
00000320: 13d3 dc3e c893 39be 6cf0 163d 80a2 c6bd
00000330: 8288 523e 1bf5 64be de8a bf3d 437d 543e
00000340: bd8b 1e3e 5f9b 813e f51d 08bb a85e 9a3e
00000350: b865 513e ef32 14bf 3740 053e 2a3b 323f
00000360: 30a1 6dbe 83d7 59be d0c4 85bd 6b35 613f
00000370: 3bff 253e 9a36 b53e 4691 023e 3816 85be
00000380: 7b9a b63c 2c5e e13d 2362 173f 2b33 aebd
00000390: efe0 5cbe b99e 1ebf 2ca2 8b3e 6450 4f3e
000003a0: 8ec0 0dbd fa72 a9be 1e26 2d3f f8bc a9be
000003b0: 9e9d d33e fbce 993d e2d5 883d 5a48 843e
000003c0: 8c4b 41be f4b7 e6be 362f c2bc 8d0a 8fbe
000003d0: 3c38 703e 06b7 9abe ec90 dfbe e6e8 02be
000003e0: 6ef1 8abd 862c 37bd 9a0a 1a3e c084 cc3e
000003f0: 04da d13e 2b8f 8abd 54d8 2e3e 8359 f9bc

network_body.linear_encoder.seq_layers.2.bias f4 [128]
0.0 0.0 0.0 0.0 0.0 0.0 0.0 0.0
0.0 0.0 0.0 0.0 0.0 0.0 0.0 0.0
0.0 0.0 0.0 0.0 0.0 0.0 0.0 0.0
0.0 0.0 0.0 0.0 0.0 0.0 0.0 0.0
0.0 0.0 0.0 0.0 0.0 0.0 0.0 0.0
0.0 0.0 0.0 0.0 0.0 0.0 0.0 0.0
0.0 0.0 0.0 0.0 0.0 0.0 0.0 0.0
0.0 0.0 0.0 0.0 0.0 0.0 0.0 0.0
0.0 0.0 0.0 0.0 0.0 0.0 0.0 0.0
0.0 0.0 0.0 0.0 0.0 0.0 0.0 0.0
0.0 0.0 0.0 0.0 0.0 0.0 0.0 0.0
0.0 0.0 0.0 0.0 0.0 0.0 0.0 0.0
0.0 0.0 0.0 0.0 0.0 0.0 0.0 0.0
0.0 0.0 0.0 0.0 0.0 0.0 0.0 0.0
0.0 0.0 0.0 0.0 0.0 0.0 0.0 0.0
0.0 0.0 0.0 0.0 0.0 0.0 0.0 0.0
00000000: 0000 0000 0000 0000 0000 0000 0000 0000
00000010: 0000 0000 0000 0000 0000 0000 0000 0000
00000020: 0000 0000 0000 0000 0000 0000 0000 0000
00000030: 0000 0000 0000 0000 0000 0000 0000 0000
00000040: 0000 0000 0000 0000 0000 0000 0000 0000
00000050: 0000 0000 0000 0000 0000 0000 0000 0000
00000060: 0000 0000 0000 0000 0000 0000 0000 0000
00000070: 0000 0000 0000 0000 0000 0000 0000 0000
00000080: 0000 0000 0000 0000 0000 0000 0000 0000
00000090: 0000 0000 0000 0000 0000 0000 0000 0000
000000a0: 0000 0000 0000 0000 0000 0000 0000 0000
000000b0: 0000 0000 0000 0000 0000 0000 0000 0000
000000c0: 0000 0000 0000 0000 0000 0000 0000 0000
000000d0: 0000 0000 0000 0000 0000 0000 0000 0000
000000e0: 0000 0000 0000 0000 0000 0000 0000 0000
000000f0: 0000 0000 0000 0000 0000 0000 0000 0000
00000100: 0000 0000 0000 0000 0000 0000 0000 0000
00000110: 0000 0000 0000 0000 0000 0000 0000 0000
00000120: 0000 0000 0000 0000 0000 0000 0000 0000
00000130: 0000 0000 0000 0000 0000 0000 0000 0000
00000140: 0000 0000 0000 0000 0000 0000 0000 0000
00000150: 0000 0000 0000 0000 0000 0000 0000 0000
00000160: 0000 0000 0000 0000 0000 0000 0000 0000
00000170: 0000 0000 0000 0000 0000 0000 0000 0000
00000180: 0000 0000 0000 0000 0000 0000 0000 0000
00000190: 0000 0000 0000 0000 0000 0000 0000 0000
000001a0: 0000 0000 0000 0000 0000 0000 0000 0000
000001b0: 0000 0000 0000 0000 0000 0000 0000 0000
000001c0: 0000 0000 0000 0000 0000 0000 0000 0000
000001d0: 0000 0000 0000 0000 0000 0000 0000 0000
000001e0: 0000 0000 0000 0000 0000 0000 0000 0000
000001f0: 0000 0000 0000 0000 0000 0000 0000 0000

network_body.linear_encoder.seq_layers.2.weight f4 [128, 128]
0.028125763 -0.015807908 0.10714868 0.12457538 0.043700267 0.08294921 0.11102446 -0.1156525
-0.037497837 0.08946511 0.010645934 -0.07265569 0.06761346 -0.03459498 0.038877778 -0.102018714
-0.0073980363 -0.0042213774 -0.03716386 -0.088398755 -0.08298815 -0.11975517 0.01583063 -0.026242701
0.009040577 0.024454953 0.084933124 0.034586217 -0.03259779 0.0056815553 0.119301714 -0.090836816
0.045253456 -0.013135441 -0.050309986 -0.17008346 0.01150116 0.11086365 0.06541456 -0.19423267
0.1832884 0.009146095 0.004975373 0.08541983 0.012413321 0.027210888 -0.17843473 -0.04748577
-0.026557334 -0.03232109 -0.027036412 0.044621047 -0.051607255 0.060953863 0.043013394 0.015884101
-0.15611634 -0.092650406 -0.064549275 -0.017325304 0.123138875 0.049822923 -0.047957264 -0.073325336
-0.06974195 0.056398664 0.07509583 -0.102294624 0.10362189 -0.06186857 0.035332 -0.10375596
0.03358045 0.12674694 0.00029057777 0.009067633 -0.028292188 0.092342965 -0.0653292 0.05758111
-0.13367434 -0.03273459 -0.07446939 0.048162673 -0.056401566 -0.0136345 0.07183288 -0.05204228
0.06293178 -0.00054622267 -0.08308556 0.092850834 0.043744948 -0.04329159 -0.051596694 -0.033704177
-0.082926355 0.051231977 0.024421092 0.017281052 -0.013377782 0.07349581 -0.09816788 0.051302783
0.24177831 -0.122517966 -0.14195468 0.117491774 -0.045587737 -0.16255908 -0.03056246 -0.156779
-0.11348457 0.1031054 -0.08331979 0.049960162 -0.054386634 0.010589916 -0.0449219 -0.043514345
0.032103367 0.037554607 0.10869238 -0.26019713 0.081128575 -0.0061096167 -0.09706363 -0.029413013
0.09771179 -0.01993846 -0.04754587 0.03908914 0.17768334 -0.12208929 -0.17367229 -0.11782801
-0.046342146 -0.05417756 0.12506874 0.051945586 0.15988924 -0.14805037 -0.11503452 0.111432195
0.03560021 0.08119729 0.015563786 0.026178725 0.07664356 -0.024362577 0.046266418 0.07921803
-0.10223576 -0.13813217 0.077702135 0.03439016 0.12466734 0.052712373 -0.20060684 0.03878717
0.11174238 -0.04557447 -0.040764958 0.013301275 0.056708906 0.16038856 0.05206764 -0.026242683
0.14374532 -0.016014867 -0.11249293 0.18048774 0.08726106 -0.12545736 0.072976254 -0.16500372
-0.06853125 0.14454143 -0.20276004 0.18679434 -0.07207315 -0.17319569 0.10857842 -0.016657686
0.12481753 0.060147535 0.055595674 -0.0051747714 0.047745798 -0.055768747 -0.032560572 -0.028106391
0.036488507 -0.058555122 -0.13276105 -0.00037423492 -0.09314942 0.044759303 0.06744759 -0.07234903
0.049772467 0.10131178 0.009869825 -0.13422762 -0.02772425 -0.026347117 0.06998811 -0.08452263
0.107290335 0.08104552 -0.122396626 0.049878377 -0.10860938 0.0071203853 -0.03176284 0.21479018
0.07391968 0.044860452 -7.173915e-05 0.11544939 -0.04484645 0.108622886 0.019662725 0.10821168
0.08106016 -0.026851445 0.03440636 -0.04815615 -0.15253569 0.05412672 0.072621755 -0.14826128
0.13314882 -0.1046277 0.08629088 -0.016931228 -0.01675557 -0.039536376 0.015405832 -0.0007678897
-0.10086531 0.009276461 0.042098172 -0.014339546 0.048558705 0.1755317 -0.061166324 -0.046614703
0.19564813 -0.10147249 -0.08760078 -0.043045513 -0.107254036 0.03583332 -0.057625476 -0.075640686
00000000: 0068 e63c 967f 81bc c470 db3d 6021 ff3d
00000010: 0dff 323d 47e1 a93d cb60 e33d 38db ecbd
00000020: 5597 19bd 7c39 b73d 496c 2e3c 82cc 94bd
00000030: ed78 8a3d 77b3 0dbd 4e3e 1f3d 30ef d0bd
00000040: 3a6b f2bb 7b53 8abb 2239 18bd 680a b5bd
00000050: b1f5 a9bd 3342 f5bd 3daf 813c effa d6bc
00000060: ee1e 143c c155 c83c 6bf1 ad3d 47aa 0d3d
00000070: 4385 05bd 572c ba3b 7554 f43d a708 babd
00000080: b05b 393d 0836 57bc d811 4ebd 5c2a 2ebe
00000090: 5d6f 3c3c 7b0c e33d 12f8 853d eee4 46be
000000a0: f4af 3b3e 81d9 153c 7408 a33b 98f0 ae3d
000000b0: 3e61 4b3c 5ee9 de3c 98b7 36be 7080 42bd
000000c0: c48e d9bc 1f63 04bd 777b ddbc 8fc4 363d
000000d0: 2162 53bd c2aa 793d d02e 303d 601f 823c
000000e0: f6dc 1fbe 7fbf bdbd 6932 84bd cced 8dbc
000000f0: 3c30 fc3d 1f13 4c3d d66e 44bd 982b 96bd
00000100: ded4 8ebd 4902 673d d8cb 993d d87f d1bd
00000110: b737 d43d e669 7dbd 4ab8 103d 017e d4bd
00000120: a78b 093d f3c9 013e b058 9839 6990 143c
00000130: 05c5 e7bc 4f1e bd3d 51cb 85bd 2cda 6b3d
00000140: ede1 08be b514 06bd 6883 98bd 3946 453d
00000150: 5405 67bd 3d63 5fbc 1e1d 933d 492a 55bd
00000160: 61e2 803d 6230 0fba c328 aabd 9428 be3d
00000170: e72d 333d 8652 31bd 0e57 53bd 640d 0abd
00000180: 4bd5 a9bd 9fd8 513d be0e c83c fe90 8d3c
00000190: 7c2e 5bbc f984 963d 3e0c c9bd de22 523d
000001a0: bc94 773e b3ea fabd 915c 11be 879f f03d
000001b0: 35ba 3abd e375 26be 205e fabc ad8a 20be
000001c0: 996a e8bd ed28 d33d 91a3 aabd 07a3 4c3d
000001d0: 85c4 5ebd 5481 2d3c 0700 38bd 193c 32bd
000001e0: d27e 033d dcd2 193d 1c9a de3d 8f38 85be
000001f0: bd26 a63d 2e33 c8bb 4cc9 c6bd 8ff3 f0bc
00000200: 1e1d c83d fb55 a3bc 75bf 42bd ef1b 203d
00000210: 9ff2 353e f309 fabd 26d7 31be d04f f1bd
00000220: 43d1 3dbd 4ae9 5dbd 0512 003e e5c4 543d
00000230: 01ba 233e 849a 17be 3897 ebbd 9036 e43d
00000240: 87d1 113d c44a a63d 40ff 7e3c c474 d63c
00000250: 4cf7 9c3d 0794 c7bc db81 3d3d 103d a23d
00000260: fb60 d1bd 8572 0dbe 4c22 9f3d b2dc 0c3d
00000270: 9751 ff3d eee8 573d e16b 4dbe 4cdf 1e3d
00000280: 30d9 e43d 4cac 3abd 28f9 26bd 97ed 593c
00000290: 9947 683d e63c 243e e144 553d e5fa d6bc
000002a0: f931 133e 9c31 83bc b162 e6bd c7d1 383e
000002b0: edb5 b23d e577 00be 9374 953d bcf6 28be
000002c0: 1d5a 8cbd ab02 143e 54a0 4fbe 0447 3f3e
000002d0: 169b 93bd 365a 31be 5d5e de3d b375 88bc
000002e0: 55a0 ff3d 435d 763d 4ab8 633d 2191 a9bb
000002f0: 1991 433d c56d 64bd 3c5e 05bd 603f e6bc
00000300: f974 153d 7fd7 6fbd 83f2 07be f634 c4b9
00000310: 20c5 bebd 8855 373d f621 8a3d ba2b 94bd
00000320: 37de 4b3d 8d7c cf3d 0cb5 213c f772 09be
00000330: f71d e3bc e9d5 d7bc ed55 8f3d 331a adbd
00000340: 09bb db3d 32fb a53d 15ab fabd 454d 4c3d
00000350: 986e debd 1f52 e93b c019 02bd f5f1 5b3e
00000360: 3463 973d 98bf 373d aa72 96b8 bb70 ec3d
00000370: e9b0 37bd ad75 de3d b913 a13c 169e dd3d
00000380: df02 a63d 90f7 dbbc afed 0c3d 623f 45bd
00000390: 5132 1cbe fbb3 5d3d b7ba 943d ced1 17be
000003a0: 2a58 083e 0c47 d6bd 46b9 b03d 5cb3 8abc
000003b0: fa42 89bc e5f0 21bd be68 7c3c 354c 49ba
000003c0: 7992 cebd 4cfc 173c 226f 2c3d 6af0 6abc
000003d0: 7ee5 463d 95be 333e 8a89 7abd 0fef 3ebd
000003e0: fc57 483e cfd0 cfbd 0a68 b3bd 7e50 30bd
000003f0: 01a8 dbbd f6c5 123d b108 6cbd 81e9 9abd
