Unity/results/ScoreGoal0/My Behavior/My Behavior-12862.pt (torch, 452255 bytes, 36 tensors)

network_body.linear_encoder.seq_layers.0.weight f4 [128, 9]
-0.057447497 -0.6805473 -0.052415 0.2614228 -0.28768432 0.06994228 -0.06119164 -0.24173161
-0.15958206 0.004822278 -0.29402363 -0.15424575 -0.003290962 -0.11416574 -0.084049106 -0.23226318
0.51727927 0.5392884 0.35261798 -0.68272203 -0.123363815 0.013020824 -0.13671559 0.37851638
-0.500846 0.36738595 0.08607089 -0.40581432 -0.4841018 -0.2885287 -0.04415517 0.12503147
-0.1290716 -0.079400785 -0.31347647 -0.5295504 0.24798316 0.55263793 -0.67279905 -0.1746972
0.09447322 0.3003783 0.13909365 -0.03892248 -0.16452374 0.24706738 -0.2894142 0.76763463
-0.3970435 0.88656354 -0.32420778 0.22244444 -0.17409599 -0.05257168 0.341629 0.5546052
-0.26556626 0.36650392 0.3657608 -0.018180143 -0.09726892 0.40611395 -0.65090954 0.10624295
0.64410686 0.40366328 -0.34505844 0.6880741 0.23157188 0.14045957 0.22854443 -0.43140414
0.18673392 -0.04393965 1.075008 -0.18604416 -0.109131716 0.36912656 0.72021294 -0.61326003
-0.16408966 -0.21457882 -0.2679847 0.04987858 -0.18429554 0.20737793 0.18982726 -0.22431366
0.10633589 0.5302034 0.25413495 0.41694078 0.19918814 -0.28726813 -0.23021239 0.16826326
-0.549344 -0.201927 0.015316239 -0.20615253 0.02275288 -0.09661899 -0.31938693 0.4604379
0.7292878 0.37283975 -0.12733522 0.23700146 -0.004893442 0.053982504 -0.34709555 0.26179647
0.41597492 0.019798655 -0.37536538 -0.5294148 -0.76862645 -0.12576151 -0.02909858 -0.22999483
-0.20837808 -0.7738006 -0.051902052 -0.23721834 -0.114696 -0.30765355 0.12755242 -0.39162573
-0.0019748434 -0.11860453 -0.031207178 -0.13760431 -0.45800576 0.18195859 0.49422866 0.37744865
0.14472273 -0.053835656 -0.22538304 -0.27687395 -0.4263359 -0.35838732 0.46716568 -0.07179213
-0.42954582 0.7155413 -0.7181884 -0.3973129 0.34674382 -0.077544644 0.0296945 -0.3815602
0.27162048 -0.14387837 -0.10309138 0.20210859 -0.45236164 0.36260527 -0.42426273 -0.6165869
-0.09064348 -0.32535335 -0.001044061 -0.33360726 -0.10036037 0.13721131 -0.21642873 0.09920295
-0.21155065 0.9404578 -0.3240026 -0.19318035 -0.17909664 -0.013043167 0.42639333 -0.6054224
-0.11042578 0.19485013 0.024885137 -0.12998776 -0.3754203 -0.09214463 0.43105495 -0.17118743
-0.1095222 0.5986891 0.06939821 -0.13196503 0.5586673 0.026208142 0.122179545 0.120188534
0.0027379354 0.1409895 0.037244335 -0.10621771 0.1863777 0.07048985 -0.27638453 -0.13899119
0.13905346 0.054172017 0.011509347 -0.2772466 -0.48872668 -0.002183589 -0.22468698 -0.07179493
-0.07637973 -0.66018367 -0.28015932 0.58571696 0.08864378 -0.15590118 -0.2501545 0.54327875
0.3749201 0.66523767 0.17472945 -0.1379892 0.30549464 -0.05184501 0.44837615 -0.042121366
-0.2780988 0.090248995 -0.17263536 -0.2772842 0.1301841 -0.3582688 -0.08578552 -0.65869033
-0.69734764 0.26901302 0.1854294 0.091038376 0.019525617 -0.6679513 -0.09888003 0.07263367
0.23959386 -0.33124268 0.1170278 0.091082625 0.30488434 0.049398653 -0.44453284 0.06400138
0.23092446 0.12162681 0.3978827 -0.15115348 0.22020592 -0.18614203 0.025801284 0.36485252
00000000: 114e 6bbd 5938 2ebf 1cb1 56bd 36d9 853e
00000010: 5c4b 93be e63d 8f3d 16a4 7abd 7e88 77be
00000020: 7b69 23be 3304 9e3b 448a 96be 99f2 1dbe
00000030: 2ead 57bb bacf e9bd f021 acbd 66d6 6dbe
00000040: 6a6c 043f ce0e 0a3f 588a b43e dfc6 2ebf
00000050: 2ba6 fcbd 4b55 553c 2cff 0bbe e6cc c13e
00000060: 7237 00bf 031a bc3e ef45 b03d e5c6 cfbe
00000070: 31dc f7be 09ba 93be 0ddc 34bd 4008 003e
00000080: 582b 04be e19c a2bd fd7f a0be 9d90 07bf
00000090: 4cef 7d3e ae79 0d3f 8f3c 2cbf d3e3 32be
000000a0: 2d7b c13d 2fcb 993e 916e 0e3e 2e6d 1fbd
000000b0: e978 28be 3bff 7c3e 192e 94be b483 443f
000000c0: 4949 cbbe d4f5 623f 90fe a5be 7ac8 633e
000000d0: 3846 32be 6755 57bd ffe9 ae3e 9bfa 0d3f
000000e0: 4df8 87be 67a6 bb3e 0045 bb3e 86ee 94bc
000000f0: ed34 c7bd 2bee cf3e 02a2 26bf e795 d93d
00000100: 30e4 243f f4ac ce3e 80ab b0be a025 303f
00000110: 2e21 6d3e a2d4 0f3e 8d07 6a3e 01e1 dcbe
00000120: 2d37 3f3e 10fa 33bd dd99 893f 5c82 3ebe
00000130: 7380 dfbd 28fe bc3e e05f 383f 9cfe 1cbf
00000140: 1f07 28be 8dba 5bbe 4a35 89be 7b4d 4c3d
00000150: f8b7 3cbe e15a 543e 1462 423e 7bb2 65be
00000160: a2c6 d93d 69bb 073f fa1d 823e 4379 d53e
00000170: faf7 4b3e cf14 93be ccbc 6bbe 344d 2c3e
00000180: cfa1 0cbf f4c5 4ebe f6f0 7a3c a619 53be
00000190: 3f64 ba3c 2de0 c5bd af86 a3be 84be eb3e
000001a0: 9bb2 3a3f dae4 be3e 2a64 02be 83b0 723e
000001b0: 2b59 a0bb c21c 5d3d 82b6 b1be 300a 863e
000001c0: aafa d43e ca30 a23c e42f c0be ba87 07bf
000001d0: b4c4 44bf a0c7 00be 2560 eebc c483 6bbe
000001e0: 1061 55be cc17 46bf 3f97 54bd 5de9 72be
000001f0: bde5 eabd c484 9dbe 1a9d 023e 2b83 c8be
00000200: 606c 01bb efe6 f2bd 32a6 ffbc 25e8 0cbe
00000210: bb7f eabe 5a53 3a3e 8a0b fd3e f340 c13e
00000220: 3232 143e c782 5cbd d0ca 66be 6cc2 8dbe
00000230: b348 dabe 8b7e b7be 5730 ef3e c107 93bd
00000240: 6eed dbbe b72d 373f 32db 37bf 996c cbbe
00000250: 6888 b13e bacf 9ebd e141 f33c dc5b c3be
00000260: d711 8b3e da54 13be 9321 d3bd 8ef5 4e3e
00000270: f29b e7be 66a7 b93e f738 d9be a4d8 1dbf
00000280: 4aa3 b9bd b794 a6be e0d8 88ba 92ce aabe
00000290: bd89 cdbd 1f81 0c3e 7e9f 5dbe eb2a cb3d
000002a0: bca0 58be d8c1 703f abe3 a5be 12d1 45be
000002b0: 1c65 37be 02b3 55bc 3a50 da3e f6fc 1abf
000002c0: e926 e2bd cb86 473e eadb cb3c 831b 05be
000002d0: 1737 c0be 53b6 bcbd 3cb3 dc3e c24b 2fbe
000002e0: 2d4d e0bd b043 193f a620 8e3d d721 07be
000002f0: d204 0f3f 75b2 d63c 4539 fa3d 6825 f63d
00000300: ef6e 333b 8d5f 103e 848d 183d ac88 d9bd
00000310: ccd9 3e3e fc5c 903d 4682 8dbe b553 0ebe
00000320: 0864 0e3e 7ae3 5d3d b391 3c3c 44f3 8dbe
00000330: 623a fabe 8b1a 0fbb 5814 66be 3809 93bd
00000340: fa6c 9cbd cc01 29bf 0b71 8fbe 8cf1 153f
00000350: df8a b53d 8fa4 1fbe 4014 80be 5114 0b3f
00000360: 87f5 bf3e 044d 2a3f 47ec 323e 0a4d 0dbe
00000370: cb69 9c3e 6f5b 54bd 8f91 e53e 7487 2cbd
00000380: f762 8ebe 77d4 b83d 53c7 30be 32f8 8dbe
00000390: fb4e 053e 026f b7be 52b0 afbd ee9f 28bf
000003a0: 6085 32bf 13bc 893e 34e1 3d3e 5472 ba3d
000003b0: 30f4 9f3c dbfe 2abf 9d81 cabd f6c0 943d
000003c0: 1858 753e a498 a9be 45ac ef3d 8789 ba3d
000003d0: cd19 9c3e 3e56 4a3d cf99 e3be 2813 833d
000003e0: 7677 6c3e 7a17 f93d 48b7 cb3e fac7 1abe
000003f0: a97d 613e 049c 3ebe 375d d33c f3cd ba3e

network_body.linear_encoder.seq_layers.0.bias f4 [128]
-4.5659603e-05 -6.275325e-09 -5.900785e-30 -0.00011047101 -0.00020762275 -0.00280246 -0.0005742327 -0.0006525783
-0.00025778424 0.00043368398 -3.1817324e-31 -4.8017286e-05 -9.5550526e-11 8.1759565e-05 -2.4603276e-28 -2.946557e-22
8.5186926e-05 1.409075e-29 6.369255e-06 5.9493934e-05 -0.00010783223 0.0018705224 -2.507511e-13 -0.00021276725
-8.4646126e-05 -1.7936617e-35 -0.00046461434 -0.00068352674 -0.0009465525 -1.9196102e-07 0.004848303 -0.0032400733
-6.953278e-05 -1.7859965e-10 8.5713844e-21 0.00026675547 -4.7662496e-10 -4.304589e-08 0.0005636348 -0.0003755611
-9.494615e-05 -0.000163364 1.1680906e-22 9.846677e-05 -0.00041272698 -1.4347273e-24 -3.1227897e-05 0.00018688379
0.00097208086 -3.9085207e-06 0.00017602561 -0.0013308561 0.00018546366 0.00031746321 -0.00060062425 2.715505e-20
0.0 -4.4218413e-07 2.0644706e-05 -6.1225355e-06 1.1962885e-33 -0.00023739466 -0.00013295133 -3.4253382e-05
8.446938e-08 3.2202446e-12 0.000948548 0.0002652778 -0.00025579147 -0.0015900817 -0.00014734961 4.2189982e-05
1.5799432e-12 -7.753536e-05 -0.00018235503 0.0013638828 7.1539035e-31 -0.00017877195 -0.0025763495 0.0
-5.160673e-05 -0.0018860307 0.0033345565 1.7749727e-12 -0.0014592245 -9.7413553e-17 0.000108291264 -9.297467e-05
0.0003374584 8.817824e-08 -8.247332e-05 -0.0006984601 -0.0005079996 -2.1245488e-21 -2.2673915e-14 6.368559e-11
0.0008367369 -0.00067035697 -2.2719173e-07 -0.00010229721 -0.00044831622 0.0010346596 6.0492353e-17 1.0273854e-08
-0.00013834477 -6.933941e-05 -2.9640974e-05 -0.00024802575 -0.00013350318 -0.0009149733 -0.0003970875 0.00024461912
5.59608e-05 -9.216333e-05 -0.00012259196 0.0003664274 -0.0007213581 0.0 -0.00019030248 -6.7360904e-21
0.0007911134 -1.6656516e-16 0.00015696714 -2.3434247e-06 7.4987456e-06 -0.00032996043 -0.00013896747 0.0
00000000: a082 3fb8 589e d7b1 415d ef8e acac e7b8
00000010: 4fb5 59b9 7aa9 37bb 1b88 16ba ca11 2bba
00000020: 3727 87b9 1460 e339 9981 ce8c 2b66 49b8
00000030: 2a1e d2ae 5576 ab38 19f1 9b91 c31b b29b
00000040: 62a6 b238 aee5 8e0f 7cb7 d536 2089 7938
00000050: fd23 e2b8 512c f53a 0b29 8daa 461a 5fb9
00000060: 0b84 b1b8 1ebc be85 7b97 f3b9 b42e 33ba
00000070: 1022 78ba d81d 4eb4 83de 9e3b 6957 54bb
00000080: 21d2 91b8 555f 44af ace8 211e 50db 8b39
00000090: 8003 03b0 75e1 38b3 e4c0 133a f5e6 c4b9
000000a0: d31d c7b8 b14c 2bb9 a736 0d1b f27f ce38
000000b0: 4763 d8b9 6703 de97 b3fa 02b8 3cf6 4339
000000c0: 3ed3 7e3a f025 83b6 8493 3839 1f70 aeba
000000d0: 0679 4239 3171 a639 3673 1dba 713c 001f
000000e0: 0000 0000 5365 edb4 2b2e ad37 2e70 cdb6
000000f0: 7cc4 c608 25ed 78b9 da68 0bb9 4aab 0fb8
00000100: 8865 b533 c59a 622c fba7 783a fc14 8b39
00000110: c01b 86b9 4a6a d0ba dc81 1ab9 26f5 3038
00000120: 745b de2b 7b9a a2b8 8e36 3fb9 50c4 b23a
00000130: 4e28 680d bb74 3bb9 f9d7 28bb 0000 0000
00000140: 4e74 58b8 b034 f7ba 9388 5a3b 22ce f92b
00000150: 7343 bfba d09e e0a4 6e1a e338 65fb c2b8
00000160: e6ec b039 805c bd33 87f5 acb8 dd18 37ba
00000170: 472b 05ba c086 209d 7d3a cca8 cd0b 8c2e
00000180: 7658 5b3a e5ba 2fba fdf1 73b4 6588 d6b8
00000190: fc0b ebb9 6a9d 873a 627c 8b24 e380 3032
000001a0: a410 11b9 506a 91b8 82a5 f8b7 7409 82b9
000001b0: fdfc 0bb9 d2da 6fba 2f30 d0b9 3940 8039
000001c0: 74b7 6a38 d047 c1b8 078c 00b9 0e1d c039
000001d0: 8619 3dba 0000 0000 ef8b 47b9 787b fe9d
000001e0: b962 4f3a 5c09 40a5 8c97 2439 bb43 1db6
000001f0: bc9d fb36 8afe acb9 ccb7 11b9 0000 0000

network_body.linear_encoder.seq_layers.2.weight f4 [128, 128]
-0.07117377 -0.08817275 -0.047253106 0.059177548 0.07990714 -0.08409767 0.07006177 0.038653914
-0.0016413179 -0.0007494532 -0.038107503 0.046110738 0.11655085 0.06376657 0.005820523 -0.05034341
0.055668592 0.06361763 -0.018653091 0.03406934 0.07333863 -0.058228534 -0.054889187 -0.022136768
-0.00033636155 -0.048101943 -0.02927658 0.13711113 0.093844615 -0.017309504 -0.0035519272 0.0013466466
-0.1426122 -0.23446606 0.036383297 0.076546885 -0.026524292 0.21835008 0.048436496 0.098373115
-0.058727384 -0.03065971 0.06770656 0.11731566 0.05153668 -0.091393046 0.08612985 0.039920844
0.0008442592 0.028750539 0.13569264 0.07693366 0.07806282 -0.023891106 -0.039917856 0.058317367
0.05915036 0.0062520546 -0.12805524 0.00383534 -0.11011038 0.10991716 0.038330548 0.056977175
-0.07399374 -0.09478549 0.022843732 0.033182304 -0.0075544068 0.07151577 0.121288195 0.04146794
0.019667244 -0.02981998 0.040318403 0.10974746 0.20394868 -0.022948135 -0.040847223 0.17414092
0.06329253 -0.026869848 0.119096465 -0.0004742339 0.07885783 -0.05788406 -0.014173285 0.10917555
0.10610316 0.0797045 0.0064537106 -0.31396812 0.028868977 -0.009262325 -0.060327075 0.11543538
0.021609535 -0.18253085 0.18556403 -0.07994158 0.020169094 -0.07275786 -0.026979951 -0.006380771
-0.10652108 -0.08098865 0.10976045 -0.06435612 0.0860939 0.07844743 0.0089987535 0.07981984
-0.05815442 -0.056107204 -0.05818005 0.029782394 0.040392827 0.07169876 -0.04840683 -0.035183225
0.109148845 -0.09365743 -0.028821452 0.027348198 -0.13909416 -0.20755006 -0.1369135 0.08600561
0.035698965 0.028499374 -0.111283496 0.05102333 -0.12295844 0.1581442 0.03649057 0.11229721
0.04155797 -0.09808356 -0.08745521 0.042711224 0.058644116 0.03357933 -0.015680546 0.08086623
0.066689536 0.07097825 0.03815603 -0.07730677 0.032623373 0.11082858 -0.03809563 -0.046221346
-0.03518957 0.09327333 0.0026429784 0.04095296 0.025853163 -0.10020029 -0.028952308 0.09807387
0.017461268 0.11835559 0.06791941 -0.057636023 0.022798058 0.07809266 0.06462804 0.08901075
-0.09250448 0.06486564 0.08410429 -0.072439946 0.1056478 -0.057806384 0.14879757 0.02503005
0.023315402 0.03404169 -0.054263566 -0.0959286 -0.06269295 0.08883379 -0.12358653 -0.051135484
-0.058269404 -0.12744088 -0.09810584 0.15940692 0.10124309 0.01057096 0.059548266 -0.14502151
-0.031503715 0.108823396 -0.014475345 -0.0783336 0.13241185 0.000733761 0.15457268 -0.09041557
-0.05854636 0.02975302 -0.03450163 0.02124478 0.03331331 0.04240422 0.14174592 -0.03531166
-0.031364556 0.060586326 -0.07145988 -0.15168677 0.10468754 -0.07506346 -0.049582504 0.19985348
-0.020107925 0.07809086 0.099776775 0.048213203 -0.023412 0.013577313 -0.007920013 0.2722435
0.024992255 -0.066511944 -0.005572768 0.056574147 -0.050609823 -0.031766117 -0.07852392 -0.005714198
0.07760016 0.03314767 0.19299711 0.010715927 -0.015156929 0.055720285 -0.035835236 -0.030121317
0.058731187 0.06928943 0.008678401 0.039495334 -0.0053654276 0.03700473 0.03390993 -0.17281976
0.037353802 -0.084898226 -0.049901843 0.028478196 0.019304551 -0.07966333 -0.123425245 0.16104898
00000000: 8ec3 91bd ea93 b4bd 798c 41bd 2864 723d
00000010: 5ba6 a33d 663b acbd 8c7c 8f3d 9153 1e3d
00000020: 7d21 d7ba f476 44ba 9d16 1cbd 9dde 3c3d
00000030: 36b2 ee3d 0c98 823d 16ba be3b e434 4ebd
00000040: c004 643d f649 823d 5ece 98bc 4b8c 0b3d
00000050: 9032 963d 0b81 6ebd 7cd3 60bd 2b58 b5bc
00000060: af59 b0b9 8b06 45bd 70d5 efbc dc66 0c3e
00000070: 9b31 c03d a9cc 8dbc 73c7 68bb f681 b03a
00000080: ef08 12be df17 70be a706 153d 9dc4 9c3d
00000090: 7949 d9bc 2a97 5f3e 5965 463d d877 c93d
000000a0: 208c 70bd 122a fbbc bda9 8a3d 3143 f03d
000000b0: 2018 533d 472c bbbd d964 b03d 0a84 233d
000000c0: 4751 5d3a 4086 eb3c 03f3 0a3e 658f 9d3d
000000d0: 66df 9f3d 48b7 c3bc e880 23bd 31de 6e3d
000000e0: a647 723d 09de cc3b ea20 03be 545a 7b3b
000000f0: 8d81 e1bd 3f1c e13d 7e00 1d3d e660 693d
00000100: 088a 97bd e51e c2bd c722 bb3c 2bea 073d
00000110: f58a f7bb dc76 923d f265 f83d 49da 293d
00000120: 331d a13c 0849 f4bc e924 253d 47c3 e03d
00000130: ecd7 503e bafd bbbc 6b4f 27bd ff51 323e
00000140: 849f 813d 281e dcbc d9e8 f33d 99a2 f8b9
00000150: 3780 a13d d617 6dbd 1137 68bc 6e97 df3d
00000160: 9d4c d93d 1d3c a33d a679 d33b 6ec0 a0be
00000170: a27e ec3c 02c1 17bc 8619 77bd 6269 ec3d
00000180: 7b06 b13c 5ee9 3abe 7f04 3e3e 69b8 a3bd
00000190: a839 a53c 1302 95bd 0f05 ddbc c915 d1bb
000001a0: b927 dabd 61dd a5bd 16ca e03d 24cd 83bd
000001b0: 0052 b03d 0ca9 a03d 826f 133c 9678 a33d
000001c0: 5433 6ebd abd0 65bd 344e 6ebd 35fa f33c
000001d0: f372 253d cdd6 923d 3d46 46bd 491c 10bd
000001e0: 6e89 df3d 77cf bfbd f71a ecbc 5409 e03c
000001f0: b36e 0ebe 0188 54be 0d33 0cbe b623 b03d
00000200: 1439 123d 8577 e93c 9ae8 e3bd d7fd 503d
00000210: a2d1 fbbd 8ef0 213e 2377 153d 14fc e53d
00000220: b138 2a3d 09e0 c8bd b81b b3bd f7f1 2e3d
00000230: d034 703d 7b8a 093d 7d74 80bc 329d a53d
00000240: 8694 883d 0b5d 913d 7f49 1c3d 0353 9ebd
00000250: 16a0 053d 18fa e23d 2a0a 1cbd 9852 3dbd
00000260: f022 10bd 1606 bf3d d235 2d3b 4abe 273d
00000270: 03ca d33c cf35 cdbd 642d edbc f4da c83d
00000280: ef0a 8f3c 6a64 f23d 5519 8b3d c013 6cbd
00000290: fec2 ba3c 0bef 9f3d b55b 843d 454b b63d
000002a0: fd72 bdbd 47d8 843d df3e ac3d 655b 94bd
000002b0: e05d d83d 63c6 6cbd 645e 183e d20b cd3c
000002c0: f1ff be3c 4d6f 0b3d 7943 5ebd 3776 c4bd
000002d0: 2965 80bd 7dee b53d ef1a fdbd 7173 51bd
000002e0: e6ab 6ebd dd7f 02be b7eb c8bd 913b 233e
000002f0: 8a58 cf3d d231 2d3c e2e8 733d 8580 14be
00000300: 0a0a 01bd cdde de3d ff29 6dbc 5e6d a0bd
00000310: f996 073e de59 403a 4d48 1e3e cc2b b9bd
00000320: 4fce 6fbd 9bbc f33c 9551 0dbd 8809 ae3c
00000330: 8a73 083d 0cb0 2d3d d825 113e f6a2 10bd
00000340: 1f78 00bd 5e29 783d 8f59 92bd c753 1bbe
00000350: 6c66 d63d dfba 99bd 0617 4bbd 64a6 4c3e
00000360: 60b9 a4bc 1aee 9f3d c457 cc3d 357b 453d
00000370: 86ca bfbc 6173 5e3c f1c2 01bc 8063 8b3e
00000380: 8fbc cc3c 6a37 88bd c49b b6bb 4bba 673d
00000390: 3f4c 4fbd 301d 02bd 26d1 a0bd 2b3e bbbb
000003a0: d5ec 9e3d dac5 073d 09a1 453e db91 2f3c
000003b0: c554 78bc f43a 643d f8c7 12bd fbc0 f6bc
000003c0: 1d90 703d 9ee7 8d3d da2f 0e3c dcc5 213d
000003d0: 78d0 afbb 4692 173d 24e5 0a3d aaf7 30be
000003e0: 4d00 193d 1fdf adbd e065 4cbd 1b4b e93c
000003f0: 9424 9e3c 8726 a3bd 60c6 fcbd 06ea 243e

network_body.linear_encoder.seq_layers.2.bias f4 [128]
0.00024678902 -1.8391485e-05 1.4948222e-05 -0.00068969105 0.00011512849 -2.2868455e-05 9.7925746e-05 -6.560795e-05
0.002143776 -0.00032806507 -0.0002666808 -0.00036305116 -0.00015002966 0.00015571075 -2.7683698e-05 -0.00065199746
6.6885076e-26 -6.237031e-05 -1.4126009e-05 -0.00039557 4.4424942e-07 -9.9048644e-05 -0.00018676669 0.00022373273
-0.00033120715 -7.1614722e-06 5.324988e-05 -0.0024591626 -0.00034140417 -0.00077184243 0.0012107769 -0.00014643952
-0.0005690209 -0.00029064223 0.00014341058 -4.9442824e-05 -0.00060782896 -0.00056334556 -6.877478e-05 0.0032304185
6.420427e-17 2.3452969e-05 9.945954e-05 -0.0013980945 0.00032482843 -3.0777854e-05 7.733332e-07 6.4970277e-15
2.283408e-09 -3.1653333e-05 -0.00025835942 -4.8747028e-05 -8.026375e-05 -9.138513e-05 1.8594586e-07 -0.0005266042
0.00011143491 1.9779372e-05 -0.00027119784 -3.932313e-08 0.0005018022 2.0664902e-06 2.4674126e-05 -0.00045129887
0.000117060554 6.0259074e-05 -1.8723621e-10 -0.00066027674 -1.1913369e-09 -0.0010700929 -0.00022733776 -2.0693338e-05
-0.000102011894 7.307652e-05 0.00046616714 -0.00038284503 8.916565e-16 9.081248e-06 -0.00017488822 -3.70243e-05
-0.0006728683 3.6114772e-05 -1.9445195e-05 -1.2505638e-16 -0.00041649476 0.0001041463 7.444465e-09 9.775433e-09
-0.0016763667 -0.00041441762 -1.2329161e-05 -7.135036e-05 -0.00012589202 -0.00023390767 -9.987971e-05 -0.0013177696
-1.6868804e-05 -0.0005382906 -0.001280646 -3.2222913e-05 -0.00038432557 -0.00020761775 3.169455e-05 6.0998398e-05
-0.0011538332 -0.00014666966 -0.000444284 -0.00036104582 -0.00049942936 -0.00045887183 -0.0014106613 7.818012e-11
0.0003447451 8.390278e-06 0.00028710184 1.0332342e-14 -5.6776706e-05 -0.0015143747 4.1338928e-05 0.0003240024
-6.391999e-05 -6.435837e-05 -0.00058813277 -9.6285126e-05 6.258825e-06 0.0001123927 -8.5576045e-05 -0.00032386836
00000000: 7663 8139 6a47 9ab7 20ca 7a37 62cc 34ba
00000010: 2371 f138 a2d5 bfb7 7c5d cd38 0097 89b8
00000020: 987e 0c3b 2600 acb9 4bd1 8bb9 e757 beb9
00000030: 4851 1db9 4946 2339 4a3a e8b7 cfea 2aba
00000040: 7499 a515 cecc 82b8 bffe 6cb7 8264 cfb9
00000050: 2d81 ee34 56b8 cfb8 cdd6 43b9 cc99 6a39
00000060: dfa5 adb9 944c f0b6 a058 5f38 e729 21bb
00000070: 7efe b2b9 7855 4aba eeb2 9e3a 8f8d 19b9
00000080: 592a 15ba 5761 98b9 7c60 1639 d460 4fb8
00000090: b656 1fba 7bad 13ba 2e3b 90b8 6eb5 533b
000000a0: 830b 9424 debc c437 ef94 d038 4440 b7ba
000000b0: bc4d aa39 7817 01b8 0e97 4f35 8114 ea27
000000c0: 23ea 1c31 82c3 04b8 6a74 87b9 b975 4cb8
000000d0: 4653 a8b8 05a6 bfb8 69a8 4734 cf0b 0aba
000000e0: 29b2 e938 e1eb a537 8f2f 8eb9 3de4 28b3
000000f0: 608b 033a 08ae 0a36 48fb ce37 4f9c ecb9
00000100: 687e f538 b0be 7c38 4fde 4daf 6c16 2dba
00000110: 71bc a3b0 5c42 8cba 8461 6eb9 9b96 adb7
00000120: 38ef d5b8 a840 9938 e567 f439 97b8 c8b9
00000130: 5280 8026 aa5b 1837 3362 37b9 8a4a 1bb8
00000140: 6d63 30ba f179 1738 3d1e a3b7 212e 10a5
00000150: fb5c dab9 1e69 da38 35ca ff31 cff0 2732
00000160: 88b9 dbba 3146 d9b9 58d9 4eb7 efa1 95b8
00000170: e201 04b9 1d45 75b9 8376 d1b8 03b9 acba
00000180: 7b81 8db7 121c 0dba 59db a7ba 1727 07b8
00000190: 4e7f c9b9 f7b3 59b9 c4ef 0438 88d8 7f38
000001a0: 383c 97ba 56cb 19b9 caee e8b9 c04a bdb9
000001b0: 23ec 02ba bc94 f0b9 f0e5 b8ba 7feb ab2e
000001c0: e7be b439 f8c3 0c37 2886 9639 8421 3a28
000001d0: 8623 6eb8 fc7d c6ba 5663 2d38 dede a939
000001e0: c90c 86b8 23f8 86b8 ec2c 1aba afec c9b8
000001f0: e602 d236 5fb4 eb38 4a77 b3b8 e0cc a9b9

action_model._continuous_distribution.log_sigma f4 [1, 5]
0.0023559746 0.0024140906 -0.0018913203 -0.0019791354 0.001596874
00000000: b266 1a3b b835 1e3b 2ee6 f7ba 62b4 01bb
00000010: 334e d13a

action_model._continuous_distribution.mu.weight f4 [5, 128]
0.008318374 -0.037454054 0.0008921159 0.0047715255 -0.009852946 -0.004582184 0.011875253 0.004298989
-0.038628966 -0.019478293 -0.03622252 -0.007033221 0.040341828 0.0035839877 -0.00903931 -0.0008568616
0.019661874 0.009138779 0.004761955 -0.00028131058 0.00488657 -0.01465215 -0.011106406 0.0066301622
0.001218174 -0.014345931 -0.0024662833 0.003141561 -0.03537434 -0.025609458 0.01637155 0.010711872
0.022789253 0.0112286825 0.0113273095 -0.033365384 0.01122264 -0.008771132 -0.005429528 0.014731765
0.019172734 -0.009796103 0.017517792 -0.0064527714 0.018581394 -0.024872314 0.0014242275 -0.012734641
0.018679544 -0.015740722 -0.005645317 0.02065601 -0.008770474 -0.003048801 -0.0095330905 0.029126002
-0.023503741 -0.025624728 0.005462928 0.018521367 0.0038235385 -0.007313971 -0.008569081 -0.03932833
-0.017925026 0.015047843 0.0062208287 -0.0052469685 -0.001367367 -0.035249677 -0.00061256764 0.01033691
0.02263623 -0.010099283 -0.025395662 0.02712489 -0.015512544 -0.04034617 0.020260977 0.03388432
0.01320508 0.012119659 -0.0103242025 0.0059744604 0.003984378 0.016457964 -0.014557462 0.024608834
-0.017856838 -0.023516387 0.028258549 -0.015319987 0.0012540104 -8.9193054e-05 0.03199842 0.006053888
-0.019911744 0.020654678 -0.0007657332 -0.008508721 0.007139005 -0.0152828675 -0.022302996 0.02314612
-0.012039571 -0.016176412 0.014152036 0.033372827 0.02787365 0.03314407 -0.018880254 0.009684936
0.003485046 -0.05406861 -0.009845211 0.0016040661 -0.010668644 -0.012039767 -0.012528656 -0.025245383
-0.040305678 0.009110213 0.008276068 0.026053961 2.2539149e-05 -0.011324251 -0.013687523 -0.004329264
0.0135390805 0.008387801 -0.017233202 0.01227892 -0.014473686 -0.031609077 0.0047836252 -0.034186974
0.01635936 -0.00616156 -0.020586153 -0.009900164 0.012873748 -0.005831753 -0.016153954 -0.0020728908
-0.059610482 -0.027796904 0.016069394 0.0049426006 -0.0033421349 0.01950146 -0.03237416 -0.0015891761
0.002040885 -0.04451827 -0.033501443 0.004992397 0.03257391 -0.017510602 -0.004985002 -0.0006872614
0.0037290135 0.0032769474 -0.008410933 0.038401995 -0.016822716 -0.018213913 -0.0031120465 -0.009724469
-0.025178377 0.0045087854 -0.014173795 -0.022117529 -0.00270974 -0.0005419909 0.0022829259 -0.002234003
0.0084343515 0.025454348 -0.017506275 -0.018334715 0.0033701286 0.008800289 -0.007540195 -0.017985826
0.00815473 -0.006843531 -0.019549385 -0.0028025962 0.015246211 -0.017597318 0.0017063353 -0.0046794326
0.011480657 -0.018059393 0.02903348 -0.0057595484 -0.016223632 0.0072152046 -0.014966657 -0.01144487
0.011941445 0.040698208 0.0027765718 -0.007977139 -0.006099579 0.0049822475 -0.018603776 -0.019622581
-0.003381169 0.017129872 -0.022278666 -0.011805969 0.003050123 0.016552407 0.0007613892 -0.0031265307
-0.025957301 -0.0077497484 -0.004763852 0.006780551 0.013101423 -0.012176425 -0.0034836398 -0.010868569
0.0008615502 -0.0075984662 0.0014896904 -0.009313414 0.009792926 -0.018116344 0.0033367055 0.017955244
0.020583743 -0.004880949 -0.0051949127 -0.013103488 0.003265685 0.022367883 0.002957074 -0.011938378
0.022013493 0.0050668255 0.010108987 0.016834935 0.030888539 -0.02888103 -0.0006235964 0.00024373506
-0.0069139553 -0.023816885 0.0024689273 -0.018299231 0.012833687 0.016253965 -0.011094937 0.003659598
00000000: ca49 083c 6c69 19bd e2dc 693a 755a 9c3b
00000010: 406e 21bc 2526 96bb 6c90 423c 89de 8c3b
00000020: 6839 1ebd f190 9fbc 115e 14bd ef76 e6bb
00000030: 793d 253d 56e1 6a3b 9d19 14bc 029f 60ba
00000040: f011 a13c d1ba 153c 2c0a 9c3b de7c 93b9
00000050: 851f a03b 920f 70bc a5f7 35bc d541 d93b
00000060: 23ab 9f3a 320b 6bbc 5ea1 21bb a6e2 4d3b
00000070: afe4 10bd edca d1bc a11d 863c d980 2f3c
00000080: 87b0 ba3c 82f8 373c 2e96 393c 24aa 08bd
00000090: 2adf 373c cbb4 0fbc 2fea b1bb 805d 713c
000000a0: 2310 9d3c d67f 20bc 7981 8f3c c571 d3bb
000000b0: 0238 983c 06c1 cbbc 25ad ba3a f5a4 50bc
000000c0: d805 993c b0f2 80bc 5afc b8bb cb36 a93c
000000d0: 09b2 0fbc 65ce 47bb ae30 1cbc a799 ee3c
000000e0: eb8a c0bc f3ea d1bc 5d02 b33b 1fba 973c
000000f0: 5594 7a3b 09aa efbb 5565 0cbc be16 21bd
00000100: 81d7 92bc 3a8b 763c 18d8 cb3b c3ee abbb
00000110: 3939 b3ba f761 10bd b894 20ba 255c 293c
00000120: 9d6f b93c 7777 25bc 900a d0bc 0435 de3c
00000130: 5328 7ebc 0742 25bd 59fa a53c 49ca 0a3d
00000140: 1f5a 583c 8991 463c d826 29bc 68c5 c33b
00000150: 638f 823b dad2 863c 6c82 6ebc 7798 c93c
00000160: 8148 92bc 70a5 c0bc 797e e73c af00 7bbc
00000170: 9b5d a43a 280d bbb8 c610 033d b15f c63b
00000180: f41d a3bc 0034 a93c 7cbb 48ba 2a68 0bbc
00000190: 51ee e93b fe64 7abc c6b4 b6bc ef9c bd3c
000001a0: 9f41 45bc 6584 84bc f1dd 673c f2b1 083d
000001b0: 4857 e43c 14c2 073d c3aa 9abc 91ad 1e3c
000001c0: 5f65 643b 0c77 5dbd cf4d 21bc 873f d23a
000001d0: 89cb 2ebc 7142 45bc fe44 4dbc 68cf cebc
000001e0: 9117 25bd 0143 153c 5898 073c 1e6f d53c
000001f0: 7412 bd37 5a89 39bc a241 60bc 80dc 8dbb
00000200: 05d3 5d3c fd6c 093c a52c 8dbc 862d 493c
00000210: 0a23 6dbc 8578 01bd f5bf 9c3b a407 0cbd
00000220: 1104 863c e9e6 c9bb 4ba4 a8bc 4c34 22bc
00000230: 6aec 523c 4a18 bfbb 4c55 84bc 56d9 07bb
00000240: 1f2a 74bd 55b6 e3bc f6a3 833c 8af5 a13b
00000250: b807 5bbb 87c1 9f3c c49a 04bd e74b d0ba
00000260: 5ec0 053b ca58 36bd cf38 09bd 4397 a33b
00000270: 386c 053d 6572 8fbc 3a59 a3bb 5529 34ba
00000280: 7762 743b 0ec2 563b 03ce 09bc 694b 1d3d
00000290: cbcf 89bc 5835 95bc 7af3 4bbb 6153 1fbc
000002a0: e242 cebc 6fbe 933b 3439 68bc d22f b5bc
000002b0: e595 31bb 6514 0eba 249d 153b 5a68 12bb
000002c0: 3c30 0a3c a385 d03c 5269 8fbc af32 96bc
000002d0: 60dd 5c3b 162f 103c bd13 f7bb 0357 93bc
000002e0: 6b9b 053c b33f e0bb 0826 a0bc c3ab 37bb
000002f0: 3ecb 793c 4028 90bc 1da7 df3a ed55 99bb
00000300: 5e19 3c3c 4bf1 93bc 9fd7 ed3c 98ba bcbb
00000310: 6ce7 84bc 866d ec3b b636 75bc 4483 3bbc
00000320: 0da6 433c 2ab3 263d 25f7 353b 8cb2 02bc
00000330: fade c7bb 1f42 a33b f266 98bc 89bf a0bc
00000340: 9a96 5dbb f253 8c3c c081 b6bc d36d 41bc
00000350: 93e4 473b ea98 873c f797 473a 7be6 4cbb
00000360: 68a4 d4bc 9af1 fdbb 161a 9cbb 622f de3b
00000370: 5aa7 563c a17f 47bc c74d 64bb 1512 32bc
00000380: a8d9 613a 8efc f8bb b741 c33a 4a97 18bc
00000390: 8272 203c ba68 94bc a1ac 5a3b e016 933c
000003a0: 3d9f a83c 5ef0 9fbb 163a aabb 03b0 56bc
000003b0: 1a05 563b da3c b73c 78cb 413b 3099 43bc
000003c0: a455 b43c 9d07 a63b 2aa0 253c 6be9 893c
000003d0: f609 fd3c e997 ecbc d978 23ba 2293 7f39
000003e0: 768e e2bb a11b c3bc bacd 213b 45e8 95bc
000003f0: 6244 523c 0927 853c 8ac7 35bc ded5 6f3b

action_model._continuous_distribution.mu.bias f4 [5]
-4.5572528e-05 2.5302854e-05 0.00027825753 -0.00037612996 5.4670923e-05
00000000: 2125 3fb8 7741 d437 18e3 9139 4f33 c5b9
00000010: 754e 6538

critic.network_body.linear_encoder.seq_layers.0.weight f4 [128, 9]
-0.39360318 -0.2298527 0.4009398 0.43809718 -0.31503063 -0.33204898 0.32190436 0.06406427
-0.30787626 0.34818158 -0.3582182 -0.20985574 -0.14374165 0.13126908 -0.17101619 0.10139163
0.14937739 0.037853017 0.20855898 -0.27348167 -0.1757667 -0.13400196 -0.25949854 0.35955387
0.2360402 -0.194675 -0.3532179 -0.8471546 0.47566268 -0.08366421 -0.1355616 0.09143208
0.26783976 0.25471017 -0.3660033 -0.14512935 -0.7460123 -0.42839223 -0.09511137 0.1127933
0.09294377 0.2846037 0.15222083 -0.06202613 -0.16460608 0.0050263335 -0.095364064 0.11869261
-0.58529276 0.43148747 0.008232119 -0.15044355 -0.25245532 -0.07898783 -0.006184185 -0.25548348
0.0831223 0.04315759 0.9163608 0.1548932 0.09455022 0.39838675 0.33763814 -0.13279945
0.47500762 0.23644234 -0.20037343 -0.117082454 -0.31185627 0.00882236 0.13289893 -0.28968486
-0.096776195 0.29638025 0.6676625 -0.38027722 -0.20635976 0.06139031 -0.24748325 -0.23927563
0.38175824 0.1807191 0.033510868 0.23967266 0.40742704 0.041438453 -0.109740496 0.2766733
0.5685346 -0.39510822 -0.07967795 0.28768316 -0.16746062 -0.3307709 -0.8642583 -0.005294451
-0.10446761 -0.037237402 0.28418577 0.04266479 -0.40567896 -0.12742378 0.45359197 0.041285496
-0.15087555 -0.092489 -0.5506216 0.13146825 -0.055336814 -0.36203226 -0.735174 -0.1726856
-0.108203806 0.27087626 -0.23142353 0.39105242 -0.2153403 0.06618491 -0.018266007 -0.19068052
0.0072016213 0.3259944 0.27079916 0.4925192 -0.16045421 0.13963225 0.3462647 -0.58726555
0.31206945 0.10914065 0.32779706 0.2786756 -0.09806726 0.07413494 0.21701708 0.017137008
0.25097337 -0.13400392 -0.16330327 0.29278648 -0.28028166 0.10734812 0.632048 -0.17739163
-0.346145 -0.08053013 -0.23252307 0.41113055 0.4906214 -0.22357056 -0.15902364 0.14485699
-0.024110142 0.0489945 -0.11484202 0.16403827 0.15866856 -0.48753953 0.42327818 0.29054558
-0.41343984 -0.49253008 0.10951196 -0.09585516 0.40506718 0.26760405 -0.03139951 -0.11247602
-0.32774225 -0.39720535 -0.33796927 0.18323718 0.07569498 0.40642324 0.22127563 0.03994725
0.3517008 0.1736094 -0.86420995 -0.28036097 -0.015550274 -0.23807454 -0.5487926 -0.019722952
0.0080734715 0.15553904 -0.8311806 -0.43587312 0.02703818 0.43056235 0.042677507 0.14077587
0.1342609 -0.1492708 -0.47704405 -0.16631572 -0.01417377 0.12186146 -0.18070269 -0.38201502
0.4657359 -0.22281541 0.024099942 0.45020005 0.8081068 -0.49693954 -0.2202047 0.29318094
-0.39437446 -0.2041534 0.025639316 0.11464127 -0.5521494 0.14381726 0.25797275 -0.34986323
0.53194535 -0.19548525 0.16130808 0.08289737 -0.19207339 -0.19574341 -0.14006062 -0.1569006
-0.61743426 0.21516538 -0.02270276 -0.12638377 0.17973691 -0.18737842 -0.071875654 -0.07073198
0.18861783 0.618097 0.054481726 -0.80458117 -0.5999953 0.10595794 -0.22332692 -0.09792759
-0.119235665 0.10360837 0.34466502 -0.7129326 0.023680998 -0.10537659 -0.049118184 0.2735518
-0.28991428 -0.11940937 0.32349145 0.12485426 0.59686524 -0.18626353 -0.013220481 0.29197553
00000000: 5b86 c9be 825e 6bbe fb47 cd3e 464e e03e
00000010: b24b a1be 5302 aabe a6d0 a43e 2134 833d
00000020: f5a1 9dbe db44 b23e 6068 b7be 6ce4 56be
00000030: 0331 13be 676b 063e de1e 2fbe 6aa6 cf3d
00000040: 63f6 183e c40b 1b3d 7c90 553e ca05 8cbe
00000050: 30fc 33be cf37 09be fedc 84be 7217 b83e
00000060: 86b4 713e e258 47be fad8 b4be 20df 58bf
00000070: 0f8a f33e 2458 abbd a9d0 0abe be40 bb3d
00000080: 4b22 893e 5f69 823e c964 bbbe ca9c 14be
00000090: a9fa 3ebf 3a56 dbbe c0c9 c2bd 2c00 e73d
000000a0: 4e59 be3d 93b7 913e c7df 1b3e 1c0f 7ebd
000000b0: 7f8e 28be f1b3 a43b 3c4e c3bd 1c15 f33d
000000c0: bfd5 15bf edeb dc3e 02e0 063c e00d 1abe
000000d0: d341 81be 5fc4 a1bd b4a4 cabb bbce 82be
000000e0: 063c aa3d 03c6 303d 9f96 6a3f 539c 1e3e
000000f0: 8ca3 c13d 59f9 cb3e e8de ac3e 94fc 07be
00000100: 3334 f33e f11d 723e b12e 4dbe edc8 efbd
00000110: a0ab 9fbe a98b 103c a816 083e 9351 94be
00000120: 9932 c6bd 27bf 973e eeeb 2a3f b2b3 c2be
00000130: f94f 53be 6874 7b3d 406c 7dbe ac04 75be
00000140: d175 c33e 6e0e 393e b142 093d c06c 753e
00000150: 479a d03e 5ebb 293d a0bf e0bd 1fa8 8d3e
00000160: 7c8b 113f a04b cabe 312e a3bd 354b 933e
00000170: cc7a 2bbe ce5a a9be 0840 5dbf 137d adbb
00000180: 1df3 d5bd 3f86 18bd cc80 913e 46c1 2e3d
00000190: 27b5 cfbe 617b 02be 353d e83e fb1a 293d
000001a0: 1f7f 1abe df6a bdbd 8af5 0cbf 9d9f 063e
000001b0: dba8 62bd 4b5c b9be 5d34 3cbf 7ed4 30be
000001c0: f599 ddbd 4bb0 8a3e 4afa 6cbe 0638 c83e
000001d0: 2b82 5cbe f48b 873d 98a2 95bc c141 43be
000001e0: 94fb eb3b bde8 a63e 30a6 8a3e 7a2b fc3e
000001f0: 1c4e 24be c2fb 0e3e 9b49 b13e 0957 16bf
00000200: 91c7 9f3e 2285 df3d 04d5 a73e 91ae 8e3e
00000210: 7dd7 c8bd 0fd4 973d ba39 5e3e e962 8c3c
00000220: 957f 803e 5338 09be f938 27be 1ce8 953e
00000230: 1481 8fbe 55d9 db3d e6cd 213f 27a6 35be
00000240: eb39 b1be fbec a4bd 871a 6ebe b47f d23e
00000250: ba32 fb3e aeef 64be 18d7 22be 6455 143e
00000260: a282 c5bc 75ae 483d 4b32 ebbd a6f9 273e
00000270: 037a 223e c89e f9be ebb7 d83e 64c2 943e
00000280: 63ae d3be e72c fcbe ce47 e03d b64f c4bd
00000290: f764 cf3e 6603 893e c69c 00bd d459 e6bd
000002a0: d5cd a7be 805e cbbe 4f0a adbe 87a2 3b3e
000002b0: f805 9b3d b516 d03e 1496 623e ba9f 233d
000002c0: 2112 b43e aac6 313e dd3c 5dbf 798b 8fbe
000002d0: 94c6 7ebc d0c9 73be ac7d 0cbf 0792 a1bc
000002e0: 9846 043c a045 1f3e 40c8 54bf c32a dfbe
000002f0: 2c7f dd3c ab72 dc3e 9cce 2e3d 8d27 103e
00000300: b07b 093e 72da 18be 1e3f f4be ab4e 2abe
00000310: 1a39 68bc 8092 f93d 200a 39be 7997 c3be
00000320: f074 ee3e b929 64be 3e6d c53c 9f80 e63e
00000330: 16e0 4e3f dc6e febe 577d 61be d01b 963e
00000340: 73eb c9be 970d 51be 8b09 d23c 0bc9 ea3d
00000350: aa59 0dbf d544 133e 0115 843e 4621 b3be
00000360: 922d 083f 492d 48be f22d 253e 19c6 a93d
00000370: e3ae 44be f670 48be 0d6c 0fbe 8daa 20be
00000380: 2c10 1ebf 5054 5c3e 23fb b9bc bf6a 01be
00000390: f40c 383e 21e0 3fbe 8b33 93bd eedb 90bd
000003a0: 0825 413e 9b3b 1e3f 3b28 5f3d 08f9 4dbf
000003b0: 4b99 19bf 7a00 d93d d0af 64be 438e c8bd
000003c0: d431 f4bd a030 d43d ef77 b03e c082 36bf
000003d0: a7fe c13c aecf d7bd 2630 49bd fb0e 8c3e
000003e0: a56f 94be e68c f4bd aca0 a53e 97b3 ff3d
000003f0: 29cc 183f debb 3ebe b79a 58bc d17d 953e

critic.network_body.linear_encoder.seq_layers.0.bias f4 [128]
-0.00018061881 -0.0007094996 -0.00027721174 -0.00041007856 -0.00028172275 -0.00033572494 -0.00031545074 -0.00022643141
-0.0016827281 -0.00013141586 -5.4914646e-05 -0.0046883533 -0.0011951092 0.00025403762 -0.0015793479 6.845959e-05
-0.00064364227 0.00019724778 3.402787e-06 0.0005968707 2.1874273e-33 -7.2712304e-05 0.00021988834 -0.0006734358
-0.00012258049 -0.003144937 0.00018125582 0.00011232012 1.5845355e-27 -6.5423825e-05 -8.813496e-06 -0.0011601128
-0.00027601764 -0.0007294382 -0.003629476 -0.0002657817 -0.0001862733 -0.00021211713 -0.00037290197 -0.00067364465
-1.7186398e-10 -0.0016232465 0.00012562478 -9.9517034e-05 -0.00023035007 -6.942356e-05 -0.0016761065 0.0010573909
7.117365e-07 -0.0012296203 -0.00014780622 -0.00035301113 -0.0034425603 -1.0684e-09 -0.0004683802 -0.00030914962
1.3556383e-08 -0.00030964715 -4.172545e-13 9.857672e-05 -2.9012998e-15 -0.0002750025 -0.0016501823 -7.026895e-13
0.00016286127 -0.0024630865 -0.00069666357 -0.0013096593 -0.0011201476 0.00013251363 -0.0028644847 -0.0011882882
-7.213379e-07 -1.5899545e-07 6.398292e-05 -0.0005186486 -0.00034327016 -0.0004106192 0.00031389087 -0.0005045626
1.1860808e-05 5.23656e-10 -0.0008545277 -0.00013797174 3.6679076e-12 0.0011117952 0.0033507324 -0.0009161076
-0.00028234112 -0.0017080411 5.7511857e-05 -8.195135e-06 0.00011418044 0.0016355936 -8.303547e-18 0.0015932624
7.756702e-06 -9.8423725e-06 -0.0004258446 -0.0014973589 -0.0012938323 0.0024369506 -0.0016245376 -0.00017511327
0.00016451956 6.5116066e-05 0.0002363068 -0.00024902332 -0.00025193274 0.00014955917 -0.00037513708 0.00089777645
-0.0008442647 -0.0030125408 -0.00053003355 -0.0009445402 0.00026746013 5.0079805e-05 -0.0026789524 -0.00025200425
-1.5244376e-18 0.0012454933 -0.0032316346 0.0 -0.0003751378 2.6902658e-16 0.003348372 -0.0017586496
00000000: 7e64 3db9 b6fd 39ba bb56 91b9 d0ff d6b9
00000010: 30b4 93b9 3d04 b0b9 1563 a5b9 386e 6db9
00000020: fc8e dcba adcc 09b9 2754 66b8 c2a0 99bb
00000030: 36a5 9cba 5a30 8539 1f02 cfba f691 8f38
00000040: 1aba 28ba 4cd4 4e39 6f5b 6436 5177 1c3a
00000050: 6fb9 3509 1f7d 98b8 d491 6639 8389 30ba
00000060: f388 00b9 4a1b 4ebb 7d0f 3e39 688d eb38
00000070: 6514 fb12 2634 89b8 addd 13b7 ed0e 98ba
00000080: 76b6 90b9 c537 3fba 81dc 6dbb 9e58 8bb9
00000090: 5c52 43b9 c26b 5eb9 0e82 c3b9 8797 30ba
000000a0: 69f7 3caf 1dc3 d4ba 25ba 0339 cdb3 d0b8
000000b0: 208a 71b9 7d97 91b8 cdb0 dbba 2798 8a3a
000000c0: 290e 3f35 362b a1ba 6efc 1ab9 5a14 b9b9
000000d0: 949c 61bb fcd6 92b0 ed90 f5b9 5c15 a2b9
000000e0: 9ae5 6832 2358 a2b9 b6e4 eaaa f9ba ce38
000000f0: 890f 51a7 362e 90b9 ee4a d8ba 1dca 45ab
00000100: bdc5 2a39 bc6b 21bb 4da0 36ba e0a8 abba
00000110: ebd1 92ba 5bf3 0a39 14ba 3bbb 56c0 9bba
00000120: f7a1 41b5 56b8 2ab4 922e 8638 ebf5 07ba
00000130: f1f8 b3b9 6048 d7b9 b891 a439 9f44 04ba
00000140: c8fd 4637 04f1 0f30 6202 60ba 82ac 10b9
00000150: 930d 812c a8b9 913a f697 5b3b f126 70ba
00000160: 2f07 94b9 59e0 dfba e338 7138 d67d 09b7
00000170: 2874 ef38 6a61 d63a 642c 19a3 04d5 d03a
00000180: c822 0237 ab20 25b7 e543 dfb9 0743 c4ba
00000190: cf95 a9ba 3fb5 1f3b 70ee d4ba 9c9e 37b9
000001a0: e282 2c39 ec8e 8838 20c9 7739 588f 82b9
000001b0: d715 84b9 fcd2 1c39 0cae c4b9 c258 6b3a
000001c0: a551 5dba 0c6e 45bb f3f1 0aba 059b 77ba
000001d0: e439 8c39 c80c 5238 5d91 2fbb 701f 84b9
000001e0: a0f7 e0a1 d23f a33a d5c9 53bb 0000 0000
000001f0: 25ae c4b9 5115 9b25 5c70 5b3b 7d82 e6ba

critic.network_body.linear_encoder.seq_layers.2.weight f4 [128, 128]
-0.028598903 -0.11674624 -0.08542012 -0.2150245 0.078987174 -0.049308773 -0.13975058 -0.07168611
0.106282905 0.058621325 0.071459875 -0.018969279 0.08531405 0.12857042 0.044558972 0.042280942
-0.03749518 0.04566313 0.054478236 -0.16658542 -0.012749056 -0.027124489 0.04805691 -0.06880178
-0.276885 0.12315941 -0.030937316 0.07065327 0.052580554 -0.050559543 -0.16035795 -0.09335292
-0.06057398 -0.05155192 -0.13736355 0.105464436 -0.0031658625 0.05791262 -0.033915117 0.10021737
0.00501183 0.025213763 0.12461672 0.15359317 0.032599974 0.11353808 0.1560506 -0.109732136
-0.020366805 -0.040178493 -0.03696813 -0.016301489 -0.16220796 -0.02101843 -0.0019455194 -0.09575013
-0.056972798 -0.063870445 0.1116279 0.12152943 -0.049969412 0.053063266 0.039870255 0.13558099
0.05207638 -0.099031836 0.040315233 0.069497496 -0.012101666 -0.059937865 0.058003917 0.11050543
0.05456709 0.059669185 0.087013826 0.069689915 0.07277809 0.02266225 0.050254676 0.1315657
-0.056937512 -0.050539706 -0.0811925 -0.05941874 0.07447938 -0.022386134 0.038197007 0.08554907
0.108084336 -0.0402385 -0.13232143 0.02654114 -0.0011955585 -0.037709482 0.08997205 0.034180786
-0.019060185 -0.03162003 0.0043788995 0.008408557 -0.14668228 -0.013232259 -0.09310947 0.055778433
0.101413384 0.061281133 0.22345866 -0.034903247 0.1376191 -0.16060285 0.12363846 -0.09765753
-0.06888667 -0.09465696 0.08802526 0.08945911 0.013554292 -0.17077686 0.20420437 -0.044507045
-0.033590715 -0.01168531 0.08011258 -0.02139197 -0.12085966 -0.013758189 0.11429621 0.016903063
0.15966965 -0.17547724 0.017157737 -0.15940991 0.33185315 -0.07426536 0.07033904 0.11842853
0.17361726 0.1677124 -0.020853732 -0.061088614 0.018040277 -0.057285152 -0.26022634 -0.045032877
-0.11924324 0.0035589484 0.05813369 0.0053796186 -0.0096766185 0.04724176 0.08609457 0.035764236
0.026912961 -0.124961056 -0.051754486 0.13002731 0.03700715 0.07443671 -0.06069725 -0.12760003
0.035799373 -0.054516144 0.065304995 0.07138729 0.10379588 -0.02062986 0.111014955 0.04579797
0.0062089395 0.078390695 0.14008151 -0.070771925 0.018234273 0.036670092 -0.05436331 -0.05219983
0.039547414 -0.047974925 -0.109934 0.016738666 0.017812865 0.03099181 -0.08260127 0.17101617
0.010795806 0.017138902 0.09515938 -0.07882836 -0.045993812 0.060590662 -0.13046816 -0.056390233
-0.037109293 -0.06858026 -0.019644562 0.092325546 0.039406992 0.17238857 0.1686192 -0.036119927
-0.1619478 -0.0057955976 -0.10135329 -0.006371984 -0.10282006 0.06918034 -0.26242435 -0.09042418
0.031644322 -0.0768217 -0.008699125 -0.077131495 0.10519561 0.054980878 0.038845904 0.021717023
-0.0041074315 -0.004111783 -0.12461133 -0.0053374157 -0.058630906 -0.0093068285 -0.11315983 -0.09214519
-0.022461778 0.114121795 0.120614536 -0.09574252 -0.036612887 -0.07308558 -0.0071833134 -0.1269518
0.1319968 -0.025568387 0.028391274 -0.021280872 -0.023641592 0.021522297 0.02391732 0.029037995
0.036612794 0.060771108 0.02911173 -0.04475252 -0.18485552 0.03895121 0.0087842485 -0.0286472
-0.108710155 0.06724478 -0.112577334 0.077140056 0.054814268 0.022008862 -0.13718255 0.12995988
00000000: 3f48 eabc a718 efbd bef0 aebd 622f 5cbe
00000010: 07c4 a13d fff7 49bd c71a 0fbe 2bd0 92bd
00000020: daaa d93d ea1c 703d 8e59 923d 7665 9bbc
00000030: 22b9 ae3d f7a7 033e 7883 363d c82e 2d3d
00000040: 8c94 19bd 4309 3b3d 9224 5f3d 5e95 2abe
00000050: 6be1 50bc 2d34 debc 53d7 443d f3e7 8cbd
00000060: dfc3 8dbe 003b fc3d 4170 fdbc a9b2 903d
00000070: b55e 573d 8617 4fbd e034 24be d12f bfbd
00000080: 6c1c 78bd 1b28 53bd 08a9 0cbe bdfd d73d
00000090: 5c7a 4fbb c935 6d3d 94ea 0abd c43e cd3d
000000a0: 473a a43b 188d ce3c 0d37 ff3d 8747 1d3e
000000b0: 8d87 053d a786 e83d bacb 1f3e 3ebb e0bd
000000c0: 49d8 a6bc 3492 24bd e56b 17bd b38a 85bc
000000d0: d819 26be d82e acbc cc00 ffba a518 c4bd
000000e0: 4f5c 69bd 82ce 82bd 2b9d e43d 6ce4 f83d
000000f0: baac 4cbd de58 593d fe4e 233d bed5 0a3e
00000100: 0b4e 553d 34d1 cabd 9621 253d b454 8e3d
00000110: 1146 46bc 6881 75bd 8495 6d3d ac50 e23d
00000120: be81 5f3d ad67 743d 4e34 b23d 96b9 8e3d
00000130: ae0c 953d 2fa6 b93c d9d7 4d3d 29b9 063e
00000140: 4f37 69bd b902 4fbd 4148 a6bd 1161 73bd
00000150: a588 983d 2063 b7bc 7774 1c3d 5a34 af3d
00000160: 525b dd3d 20d1 24bd 457f 07be ce6c d93c
00000170: 49b4 9cba 4275 1abd 4443 b83d 2701 0c3d
00000180: 1b24 9cbc 0184 01bd df7c 8f3b 0bc4 093c
00000190: e133 16be 1ecc 58bc 2eb0 bebd ed77 643d
000001a0: d2b1 cf3d ed01 7b3d 59d2 643e b5f6 0ebd
000001b0: 05ec 0c3e 1375 24be 2936 fd3d ac00 c8bd
000001c0: 7414 8dbd 82db c1bd 9646 b43d 5636 b73d
000001d0: d212 5e3c 21e0 2ebe f31a 513e 054d 36bd
000001e0: 6b96 09bd be73 3fbc 1012 a43d 363e afbc
000001f0: 4585 f7bd 076a 61bc 2214 ea3d 4b78 8a3c
00000200: 7180 233e 4eb0 33be 628e 8c3c 5a3c 23be
00000210: a8e8 a93e 7018 98bd ea0d 903d a88a f23d
00000220: b9c8 313e cdbc 2b3e 72d5 aabc 0e38 7abd
00000230: 34c9 933c d6a3 6abd 633c 85be 6574 38bd
00000240: cd35 f4bd 3f3d 693b 981d 6e3d 8347 b03b
00000250: ae8a 1ebc 9380 413d 5a52 b03d 857d 123d
00000260: 9278 dc3c 95eb ffbd 83fc 53bd e125 053e
00000270: cf94 173d 4672 983d ae9d 78bd 95a9 02be
00000280: 5da2 123d 524c 5fbd a0be 853d 8033 923d
00000290: ef92 d43d f4ff a8bc cf5b e33d a796 3b3d
000002a0: 5c74 cb3b 4d8b a03d 8771 0f3e dff0 90bd
000002b0: 0b60 953c 6133 163d 10ac 5ebd 7dcf 55bd
000002c0: 78fc 213d 5b81 44bd 1425 e1bd 871f 893c
000002d0: 49ec 913c 89e2 fd3c db2a a9bd dd1e 2f3e
000002e0: e4e0 303c e266 8c3c ece2 c23d c370 a1bd
000002f0: 0264 3cbd ea2d 783d 7299 05be 72f9 66bd
00000300: eaff 17bd cf73 8cbd a2ed a0bc 2d15 bd3d
00000310: 3a69 213d a186 303e 83aa 2c3e 7df2 13bd
00000320: a5d5 25be ffe8 bdbb 5092 cfbd 13cc d0bb
00000330: 5393 d2bd 6cae 8d3d 7c5c 86be 5030 b9bd
00000340: 7a9d 013d b254 9dbd c686 0ebc 1ef7 9dbd
00000350: cc70 d73d a133 613d e21c 1f3d e6e7 b13c
00000360: a297 86bb 23bc 86bb 3a34 ffbd 7de5 aebb
00000370: f626 70bd ab7b 18bc 57c0 e7bd 9eb6 bcbd
00000380: c301 b8bc b0b8 e93d c104 f73d a814 c4bd
00000390: 65f7 15bd e4ad 95bd 0062 ebbb a7ff 01be
000003a0: 2b2a 073e cb74 d1bc d194 e83c 3955 aebc
000003b0: 03ac c1bc 874f b03c 41ee c33c 17e1 ed3c
000003c0: 4cf7 153d 20eb 783d b97b ee3c 6b4e 37bd
000003d0: c44a 3dbe 4e8b 1f3d cfeb 0f3c 88ad eabc
000003e0: 6ea3 debd a2b7 893d f28e e6bd 9bfb 9d3d
000003f0: ed84 603d ee4b b43c 9579 0cbe 3414 053e

critic.network_body.linear_encoder.seq_layers.2.bias f4 [128]
8.0595695e-05 -0.00023886347 0.003505026 -0.00018624509 0.00022721621 0.0002025967 -0.00023830886 8.241262e-05
-0.00027017941 -0.0016689784 -6.822736e-05 5.909996e-05 0.00022539777 0.0016229344 -0.00023817837 -0.0005587074
0.0006903309 -0.0009803437 -0.0005487734 -0.0027907847 -0.00024629655 0.0002271064 -8.7123617e-16 -0.001465952
-0.001663179 0.00018921231 0.00015346093 -0.00024047522 2.1874565e-10 -0.0003130852 1.8596838e-05 -1.0612915e-07
-0.00024526467 -0.00023857543 0.00022621645 -0.00023853329 -5.3278858e-05 0.0027771257 -0.00017655657 -0.00023851714
3.1277552e-05 3.6940496e-18 -7.394307e-19 0.0013968229 -0.0002435299 -0.0012677473 -0.00023830438 -0.0020058786
0.00021840571 -0.00030926408 -0.00024230349 -4.562183e-05 0.00020717981 -0.000349922 -0.0016028903 -6.430093e-28
-2.9456073e-06 0.00022664247 -0.0015301803 0.00022672467 -0.00023320927 -0.0012819449 0.00022756786 0.00022237594
-0.00087752286 -0.00024467238 0.00022429001 -8.396596e-11 -0.00025812964 -0.0009969295 -0.00024550248 -0.00024795713
-0.00025040287 -1.9169256e-21 -0.00014518529 -0.0005804254 3.042991e-22 -0.0013443982 0.00015015282 -0.0012866872
-0.00011375342 -0.00022982506 8.783463e-15 -0.00023840327 -9.222645e-05 -5.5987277e-18 -0.00025460514 0.00094263465
-0.0016110282 -0.0020269386 1.3272569e-25 -0.00022691466 -0.00024074122 -0.00030461806 -0.0002508198 -0.0016764024
-4.8792297e-31 0.001974631 7.0937924e-05 0.00022609612 2.3871366e-05 -0.0018342444 0.0002366475 -5.521864e-09
-0.00024167942 -6.740821e-05 -0.0002470638 0.00019934551 0.0046819774 1.113663e-07 0.0020996048 -0.00022699963
-0.0015057651 0.00022369598 -0.0016459005 -0.0005607549 -0.0012212535 0.00022295181 -0.00028096896 -0.00015083024
-0.00026683364 -0.0002390062 -3.8140864e-05 -0.0017205304 -0.00016410579 0.0043551535 -0.00024216242 -7.363842e-06
00000000: 7c05 a938 6d77 7ab9 94b4 653b c94a 43b9
00000010: e340 6e39 2370 5439 8ce2 79b9 f0d4 ac38
00000020: dea6 8db9 9fc1 daba 4915 8fb8 19e2 7738
00000030: c158 6c39 a4b8 d43a 85bf 79b9 3876 12ba
00000040: 53f7 343a e07e 80ba 8fdb 0fba 99e5 36bb
00000050: 5d21 81b9 6923 6e39 e21d 7ba6 3025 c0ba
00000060: 07ff d9ba 4b67 4639 5bea 2039 1328 7cb9
00000070: 6d83 702f 9625 a4b9 6800 9c37 1ee9 e3b3
00000080: de96 80b9 1b2a 7ab9 8434 6d39 cb1e 7ab9
00000090: bd77 5fb8 7000 363b 0b22 39b9 751a 7ab9
000000a0: 0430 0338 5049 8822 ce3d 5aa1 9915 b73a
000000b0: 0f5c 7fb9 8a2a a6ba 58e1 79b9 0f75 03bb
000000c0: d603 6539 b924 a2b9 d912 7eb9 115a 3fb8
000000d0: 683e 5939 bc75 b7b9 1318 d2ba 1dc7 4b92
000000e0: 26ad 45b6 e0a6 6d39 5590 c8ba f1bc 6d39
000000f0: a389 74b9 ef06 a8ba 489f 6e39 962d 6939
00000100: 9009 66ba 5f47 80b9 642f 6b39 a2a4 b8ae
00000110: 9355 87b9 67ab 82ba c9b6 80b9 3e00 82b9
00000120: 8148 83b9 bcd6 109d e13c 18b9 b027 18ba
00000130: 01f0 b71b 8536 b0ba 5772 1d39 0fa6 a8ba
00000140: e78e eeb8 32fd 70b9 933a 1e28 e4fb 79b9
00000150: b369 c1b8 7d8e cea2 867c 85b9 241b 773a
00000160: 2329 d3ba 63d6 04bb 734e 2416 f1ef 6db9
00000170: 7b6f 7cb9 25b5 9fb9 7780 83b9 bbba dbba
00000180: 0e57 1e8d d068 013b 82c4 9438 3714 6d39
00000190: 5e3f c837 076b f0ba 9424 7839 d4ba bdb1
000001a0: 536b 7db9 825d 8db8 5888 81b9 6707 5139
000001b0: 466b 993b 4528 ef33 8699 093b c006 6eb9
000001c0: 185d c5ba ef8f 6a39 42bb d7ba a0ff 12ba
000001d0: 7812 a0ba 2cc8 6939 044f 93b9 2f28 1eb9
000001e0: cee5 8bb9 bd9d 7ab9 71f9 1fb8 6c83 e1ba
000001f0: d013 2cb9 adb5 8e3b fbec 7db9 ec16 f7b6

critic.value_heads.value_heads.extrinsic.weight f4 [1, 128]
0.006795921 -0.17329337 0.007339773 0.0550169 0.20092715 -0.06499652 -0.18300107 0.03383511
-0.03216791 -0.16323271 -0.19160265 0.19633561 0.14519359 -0.203338 -0.19815871 0.025143892
-0.16225654 0.2057841 0.0148192365 -0.0026721244 -0.07873093 0.15991697 0.010473579 0.1376389
0.011925369 0.025745278 0.012961175 -0.14103433 -0.18337177 0.18655469 -0.13524069 0.07915
-0.08363569 -0.19353324 0.1832665 -0.19581583 0.1031273 -0.028968936 -0.06827085 -0.21358575
0.14244822 -0.10396753 0.12169203 0.0033926219 -0.105301365 -0.058280785 -0.20050302 -0.029814698
0.073161826 -0.019940026 -0.12077506 0.05992726 0.045707285 -0.014909075 0.013804767 0.024143487
0.20058377 0.16503665 0.10908291 0.17583798 -0.1367082 0.19938289 0.20301983 0.10684761
-0.089128844 -0.08705502 0.1274146 0.055112213 -0.044883434 -0.061342973 -0.07947546 -0.074832104
-0.06497673 0.14840272 -0.20016702 -0.09932314 -0.2124149 0.2030039 0.013041957 0.058023166
-0.1816038 0.14787199 -0.17137095 -0.19617318 0.028952273 0.12288275 -0.05051925 0.013620759
0.16901016 -0.18092586 -0.21326214 0.13598533 -0.13687457 0.053740013 -0.06105172 0.17731023
0.15188491 0.18619524 -0.0756081 0.17381595 -0.07126494 -0.12770623 0.08183085 0.01575724
-0.12606184 -0.12932953 -0.09229801 0.031752 0.08649648 -0.21301544 0.1851332 -0.062873825
0.19267185 0.20099661 -0.15657237 -0.14478733 0.091914296 0.102785 -0.20535958 -0.19794236
-0.005968467 -0.18686038 -0.13014519 0.1095478 -0.040196892 0.13795973 -0.1124374 -0.019365791
00000000: 51b0 de3b d173 31be 7a82 f03b 6759 613d
00000010: d9bf 4d3e e51c 85bd a264 3bbe af96 0a3d
00000020: 80c2 03bd 7a26 27be 7c33 44be 340c 493e
00000030: a1ad 143e d637 50be 1eea 4abe 90fa cd3c
00000040: 9426 26be 11b9 523e 62cc 723c cf1e 2fbb
00000050: af3d a1bd 46c1 233e 6099 2b3c 36f1 0c3e
00000060: 9f62 433c c3e7 d23c 1c5b 543c 4e6b 10be
00000070: cfc5 3bbe 3108 3f3e 897c 0abe 6519 a23d
00000080: 3049 abbd 942d 46be 37aa 3b3e f283 48be
00000090: 6834 d33d 4350 edbc 96d1 8bbd 39b6 5abe
000000a0: f2dd 113e eeec d4bd ac39 f93d c056 5e3b
000000b0: 3ea8 d7bd d5b7 6ebd aa50 4dbe f43d f4bc
000000c0: ded5 953d 4459 a3bc ea58 f7bd 4976 753d
000000d0: 9037 3b3d 3145 74bc 642d 623c 90c8 c53c
000000e0: d565 4d3e 5eff 283e dc66 df3d df0e 343e
000000f0: 3cfd 0bbe 072b 4c3e 6ee4 4f3e ebd2 da3d
00000100: 2f89 b6bd e749 b2bd f978 023e 58bd 613d
00000110: b1d7 37bd c542 7bbd 08c4 a2bd 9341 99bd
00000120: 8512 85bd e2f6 173e 95f8 4cbe ee69 cbbd
00000130: 4b83 59be 41e0 4f3e efad 553c b3a9 6d3d
00000140: 59f6 39be c16b 173e de7b 2fbe 9fe1 48be
00000150: 512d ed3c f4a9 fb3d 46ed 4ebd 9b29 5f3c
00000160: 0011 2d3e a144 39be 6461 5abe bd3f 0b3e
00000170: d928 0cbe 7d1e 5c3d 5e11 7abd d090 353e
00000180: b887 1b3e f7a9 3e3e 6bd8 9abd cffc 313e
00000190: 5af3 91bd 6cc5 02be ef96 a73d 5415 813c
000001a0: 5b16 01be f66e 04be bd06 bdbd 630e 023d
000001b0: 1125 b13d b820 5abe 8f93 3d3e fec3 80bd
000001c0: c54b 453e 0ed2 4d3e 8254 20be 2143 14be
000001d0: 903d bc3d f180 d23d c849 52be 67b1 4abe
000001e0: 2193 c3bb 5458 3fbe c844 05be 995a e03d
000001f0: 7fa5 24bd 5145 0d3e 9445 e6bd 02a5 9ebc
