Unity/results/ScoreGoal0/My Behavior/My Behavior-1792.onnx (onnx, 75988 bytes, 7 tensors)

action_model._continuous_distribution.log_sigma f4 [1, 5]
00000000: 0000 0000 0000 0000 0000 0000 0000 0000
00000010: 0000 0000
0.0 0.0 0.0 0.0 0.0

action_model._continuous_distribution.mu.bias f4 [5]
00000000: 0000 0000 0000 0000 0000 0000 0000 0000
00000010: 0000 0000
0.0 0.0 0.0 0.0 0.0

action_model._continuous_distribution.mu.weight f4 [5, 128]
00000000: 2b1e 89bc e6de 823c e78f 4abc f932 a33b
00000010: 1b7f 2b3c be60 bf3c c886 8bbc ff0e f43c
00000020: 7023 da3b 85ad 4b3d d273 1b3d a775 09bc
00000030: 0afb acbc ebeb df3b f036 5dbc 169e 063d
00000040: f34d b93b 79a2 a5bb c25b 783c 56f5 863c
00000050: 12df 4d3c 9392 96bc aa8c a23c 965d c23c
00000060: b87c 3b3c ad9c 5dbc 3b60 913c b31a 593c
00000070: 6207 bf3b 0bc2 623c 8f3c fb3b 1002 823c
00000080: 82b7 1c3c e975 833c b0cd babc 227c 7dbc
00000090: 7fe0 103c 429a a83c 1b79 bcbc 2723 44bb
000000a0: 5742 a4bb c8ef 783c 84c8 9e3b 4762 d1bc
000000b0: e75e d23c 1279 d5bb 6f68 ce3c 4b18 403c
000000c0: 6aff d53c d61a 9e3b 3f83 3e3c fa67 8fbc
000000d0: bf8f e9bc f503 3fbb 5c58 0cbc e3a6 303c
000000e0: 0f6d 9cbc d634 893c 407c 6dba a78d 483c
000000f0: aca4 093c 7ae6 113c cf02 d1bc 2993 c83b
00000100: a6d1 a73c 7a41 633c 9f9f 533c b4d9 8dbb
00000110: 88ce 323c e743 5abc df9a db3c 3127 903c
00000120: cc91 3b3c b02d 53bc 347b 09bc 0dc2 f93c
00000130: ddc7 9b3c f3f1 eb3b 3fab f73b e150 c23c
00000140: f0b7 1d3c c3bc 88bc 9ddf 403b 6e72 3fbc
00000150: 660f 913c c83e 9cbc 83a9 123c 1a31 b3bb
00000160: 82b9 2f3b 0094 b13b e677 833b 55f8 e6bc
00000170: 4312 8a3b a57f 58bc cf28 0dbc 5df5 753c
00000180: 0a3b ba3c 716c 0fbd fdba 023d 6ea5 99bb
00000190: 8735 563c db47 5c3b c248 d23b 372d dc3b
000001a0: daad 213c 87f7 b73c e471 20bc a36a d6bc
000001b0: 7f8e 0abc 941a 833c c219 f53c a141 9bbc
000001c0: 0277 5b3c ca77 823c 25d3 273d 75e7 dd3c
000001d0: df87 8fbc dae7 87bb 3766 8c3c 13b4 133d
000001e0: d712 84bb 9b9a da3c 4389 1f3d 2ddf b73c
000001f0: 0fd2 383c 3749 6b3c 97c8 a4bc ffde c73c
00000200: 9842 dbbb 0776 a9bc d06a b4bb c338 893c
00000210: fdc7 5d3b 48c3 78bc 9cb3 95bb 9d5c 65bc
00000220: 23c2 213a 8250 06bc ce94 28bc 58f5 463c
00000230: 4622 023d 4913 17bc ba30 873b edd4 b3bc
00000240: 904c 4a3c 80e1 dd3b 3479 333d 34cf c53a
00000250: 05a3 f83c 57ef e73a 82a4 f53c c0e6 e93c
00000260: b68b 2d3c 7b7a 80bc ccbf c0bc 680a 0e3c
00000270: 154d 1dbd c65f 1f3b b75e 7d3b 9381 f13b
00000280: 4f76 c83a 01bd 90bc 4b06 ae3c 8fb5 25bc
00000290: ed65 913c f7a7 c7bb 1af1 f03c b577 553b
000002a0: c61c a4bb 1a19 bdba 3220 21bb 3f52 323d
000002b0: faa9 c93a 644e 813c bd26 ac3c 50b6 153c
000002c0: bd9c 67bc 46d7 9c3b 303f 07bd 20b3 82bc
000002d0: b7d7 43bc d323 eabb b62b bdbb b073 1ebc
000002e0: 0987 05bd ec3c 2dbc 8a41 693c 0821 e9bb
000002f0: 3168 8bbc d3d0 80bc 85a7 47bc 554e d8bc
00000300: 9b9e a1bc 4996 2e3d 0ba5 0dbc 3230 1f3c
00000310: 8add d03c 08cc 9a3c efd0 cd3c c6ea 97ba
00000320: f3e3 2dbc f7ef f6bc 2789 073c 79f2 983c
00000330: c26a 283c 65fe 0ebc be15 ad3b c77b 2a3b
00000340: 1993 1abb 30b5 e83c 3a5b 5dbc 450d 2e3c
00000350: 23d4 823c 33ad d43a 7055 c93b 785a 3a3b
00000360: 7aaf 57bc 755d b4bc b63f 16bc 8ff3 e43b
00000370: 4a66 e23b 1bc2 9dbc 6746 1b3d 8bb5 433d
00000380: 639d 343c 9780 80bc 7f2b 5b3c 399d 9a3b
00000390: e67b 013c 63e1 193a 25e6 11bc db07 8cbc
000003a0: 2c2b cabb 03d1 f73c 7bed 4e3c a575 973c
000003b0: 8d71 093c 9c13 83bc 90d0 e63b a7e6 103c
000003c0: 47c6 74bc c011 ad39 a1d2 95bb 6c80 163d
000003d0: 07ca cabb 2b2e 1c3c 6fab 703a 38cd b73c
000003e0: 77f9 0c3b b506 72bc 74a0 913c 0942 883c
000003f0: 9ee1 3f3b 8552 63bc 13bf 76bc 8f43 033d
-0.016738018 0.015975427 -0.012363411 0.0049804416 0.010467316 0.02336156 -0.017032042 0.029792307
0.0066570565 0.049726028 0.03795225 -0.008389867 -0.021115799 0.0068335435 -0.013501868 0.032865606
0.005655044 -0.0050547686 0.0151585955 0.016474407 0.012565391 -0.018380439 0.019842464 0.023726266
0.0114433095 -0.013526124 0.017746082 0.0132509945 0.0058297375 0.013840209 0.0076671313 0.015870124
0.009565236 0.016047435 -0.022803158 -0.01547149 0.008842587 0.020581368 -0.023006966 -0.002992818
-0.005012791 0.015193887 0.0048456807 -0.025559558 0.025680019 -0.006514677 0.025196282 0.011724542
0.026122767 0.0048249764 0.011627971 -0.017505635 -0.028510926 -0.0029146646 -0.008565988 0.010781976
-0.019094972 0.016748827 -0.0009059347 0.012240804 0.008401077 0.008905048 -0.025514035 0.0061210585
0.02048571 0.013870591 0.012916475 -0.0043289308 0.010913499 -0.013321853 0.026807247 0.017596813
0.011448335 -0.012889311 -0.00839119 0.030488038 0.0190162 0.0072004735 0.007558256 0.023720207
0.009626374 -0.016691571 0.002943016 -0.011684997 0.017707538 -0.019072905 0.008951548 -0.0054685
0.0026813452 0.0054192543 0.0040120957 -0.028194586 0.0042136027 -0.013214027 -0.008615687 0.015012112
0.02273323 -0.035015527 0.031916607 -0.00468891 0.013074285 0.0033612165 0.006417365 0.006719257
0.00986811 0.022456897 -0.009792779 -0.026173895 -0.008456825 0.016003884 0.029919509 -0.018952193
0.013395073 0.01592626 0.040972847 0.027087906 -0.017520843 -0.004147512 0.017138584 0.036060404
-0.004030566 0.02668505 0.038949262 0.022445286 0.011280551 0.0143607175 -0.02011518 0.024398325
-0.006691288 -0.020686163 -0.005505897 0.016750699 0.0033841126 -0.015183277 -0.0045685302 -0.0139991315
0.0006170591 -0.0081979055 -0.010289384 0.012143455 0.031770967 -0.0092209065 0.0041256817 -0.021952117
0.0123473555 0.0067712665 0.04381676 0.0015091659 0.030351171 0.001769523 0.02998567 0.028552413
0.010592392 -0.015683403 -0.023528956 0.008669473 -0.03840359 0.002431856 0.003866119 0.007370183
0.0015294048 -0.01766825 0.021243235 -0.010114088 0.017748797 -0.006093021 0.029411841 0.0032572572
-0.005008313 -0.0014427037 -0.002458584 0.043535467 0.001538574 0.01578445 0.021014566 0.009137705
-0.01413649 0.004786405 -0.033019245 -0.015954554 -0.011953286 -0.007145384 -0.005773033 -0.009671137
-0.032599483 -0.010573607 0.014236817 -0.0071145333 -0.017017456 -0.015724575 -0.012185936 -0.02640454
-0.01972895 0.04262379 -0.008645306 0.0097160805 0.025496263 0.018896118 0.025124041 -0.0011590354
-0.010613429 -0.030143721 0.008272446 0.018670307 0.010279359 -0.008727645 0.005282133 0.0026013718
-0.0023586212 0.02840671 -0.01351052 0.010623281 0.015970295 0.0016225934 0.006144218 0.0028435271
-0.0131643955 -0.02201722 -0.009170463 0.0069870423 0.0069091665 -0.019257596 0.037908938 0.047780555
0.011023852 -0.015686316 0.0133770695 0.0047184494 0.007903075 0.0005870072 -0.008904968 -0.01709359
-0.0061696973 0.030251032 0.012629862 0.018488714 0.008388889 -0.016000561 0.0070439056 0.008844054
-0.014939851 0.00033010356 -0.004572228 0.036743566 -0.0061886343 0.009532492 0.0009180819 0.022436723
0.0021510997 -0.014772107 0.017776705 0.01663305 0.0029278765 -0.013874655 -0.015060204 0.03204685

network_body.linear_encoder.seq_layers.0.bias f4 [128]
00000000: 0000 0000 0000 0000 0000 0000 0000 0000
00000010: 0000 0000 0000 0000 0000 0000 0000 0000
00000020: 0000 0000 0000 0000 0000 0000 0000 0000
00000030: 0000 0000 0000 0000 0000 0000 0000 0000
00000040: 0000 0000 0000 0000 0000 0000 0000 0000
00000050: 0000 0000 0000 0000 0000 0000 0000 0000
00000060: 0000 0000 0000 0000 0000 0000 0000 0000
00000070: 0000 0000 0000 0000 0000 0000 0000 0000
00000080: 0000 0000 0000 0000 0000 0000 0000 0000
00000090: 0000 0000 0000 0000 0000 0000 0000 0000
000000a0: 0000 0000 0000 0000 0000 0000 0000 0000
000000b0: 0000 0000 0000 0000 0000 0000 0000 0000
000000c0: 0000 0000 0000 0000 0000 0000 0000 0000
000000d0: 0000 0000 0000 0000 0000 0000 0000 0000
000000e0: 0000 0000 0000 0000 0000 0000 0000 0000
000000f0: 0000 0000 0000 0000 0000 0000 0000 0000
00000100: 0000 0000 0000 0000 0000 0000 0000 0000
00000110: 0000 0000 0000 0000 0000 0000 0000 0000
00000120: 0000 0000 0000 0000 0000 0000 0000 0000
00000130: 0000 0000 0000 0000 0000 0000 0000 0000
00000140: 0000 0000 0000 0000 0000 0000 0000 0000
00000150: 0000 0000 0000 0000 0000 0000 0000 0000
00000160: 0000 0000 0000 0000 0000 0000 0000 0000
00000170: 0000 0000 0000 0000 0000 0000 0000 0000
00000180: 0000 0000 0000 0000 0000 0000 0000 0000
00000190: 0000 0000 0000 0000 0000 0000 0000 0000
000001a0: 0000 0000 0000 0000 0000 0000 0000 0000
000001b0: 0000 0000 0000 0000 0000 0000 0000 0000
000001c0: 0000 0000 0000 0000 0000 0000 0000 0000
000001d0: 0000 0000 0000 0000 0000 0000 0000 0000
000001e0: 0000 0000 0000 0000 0000 0000 0000 0000
000001f0: 0000 0000 0000 0000 0000 0000 0000 0000
0.0 0.0 0.0 0.0 0.0 0.0 0.0 0.0
0.0 0.0 0.0 0.0 0.0 0.0 0.0 0.0
0.0 0.0 0.0 0.0 0.0 0.0 0.0 0.0
0.0 0.0 0.0 0.0 0.0 0.0 0.0 0.0
0.0 0.0 0.0 0.0 0.0 0.0 0.0 0.0
0.0 0.0 0.0 0.0 0.0 0.0 0.0 0.0
0.0 0.0 0.0 0.0 0.0 0.0 0.0 0.0
0.0 0.0 0.0 0.0 0.0 0.0 0.0 0.0
0.0 0.0 0.0 0.0 0.0 0.0 0.0 0.0
0.0 0.0 0.0 0.0 0.0 0.0 0.0 0.0
0.0 0.0 0.0 0.0 0.0 0.0 0.0 0.0
0.0 0.0 0.0 0.0 0.0 0.0 0.0 0.0
0.0 0.0 0.0 0.0 0.0 0.0 0.0 0.0
0.0 0.0 0.0 0.0 0.0 0.0 0.0 0.0
0.0 0.0 0.0 0.0 0.0 0.0 0.0 0.0
0.0 0.0 0.0 0.0 0.0 0.0 0.0 0.0

network_body.linear_encoder.seq_layers.0.weight f4 [128, 9]
00000000: bae1 26be 1cd6 993e fbdf b23d 1e3a 313d
00000010: d21d d63e 0373 3a3e 4a17 33bd 5c5e 18bf
00000020: d7da 7a3e 4bf0 61be 542c 2cbe 7225 45be
00000030: ec2a acbe 1364 f0be 51b7 1abf 9330 ba3e
00000040: f799 763e 6203 c7be f02f f03e 9915 803c
00000050: 38a9 e13e b4fc f7bd 3e27 bdbe ea11 adbe
00000060: 3807 633e f6c1 7e3e 5aa0 d6be 6c4a 723e
00000070: ad0e 823e 176f b93c a2f2 21bf bc29 34be
00000080: 8307 573e a4e5 13bf 92f4 283e 1041 433e
00000090: ce21 c9be abd8 69be fa42 f7be 98e4 7b3e
000000a0: 5f63 1abe 5e21 6dbe e661 bb3d e78f e63d
000000b0: 8574 9a3f 49c9 063f 9eb6 6fbe 7e75 eb3e
000000c0: 562c d5be 4b23 c73d 0a1f c83d 2425 21be
000000d0: d4d6 4cbe 6a07 65be 9a13 49be 9099 da3c
000000e0: 084e 3ebe 9e65 e83e 6da1 8dbe 2692 af3e
000000f0: c275 cf3d 3cc8 173e 3e77 513d 3e53 703e
00000100: a873 053f 45f2 0c3f c472 013e 7ee8 1abf
00000110: 5faf a13d 28c0 fd3e c758 b43e 8657 263d
00000120: 0cf2 273e 4e85 ccbe 3a2a 603e fa5a a43e
00000130: 0cc7 24be b8f8 f8be 3ab3 3bbd 573d d3be
00000140: 7443 de3d e236 f03c 2f6a e83e 469f 0cbe
00000150: d51d 933e ea88 bfbd 3ded 273e a27e 4bbe
00000160: 58cd eb3d ce27 bb3e 4268 dd3e 40c4 ed3e
00000170: a214 843d f71e 2cbe 5a5a fdbe 0fa0 96bd
00000180: 8c6b bbbd 8e21 c0be 0acf 9dbe 6b9b f53d
00000190: c09f 8f3f 7b0b 85bd e601 c9bd 35d4 04bf
000001a0: 1e3e 893d fe18 44be 6455 ca3e 9eca 37bb
000001b0: 605f ec3e 1fd1 5abd 28b0 2dbe e657 273f
000001c0: 4f3f 29bd 1bcd 0f3d 2dbe 28be 8ac8 8a3e
000001d0: dafa 2e3d d625 4dbf 5e84 92be 4637 6b3e
000001e0: 2f81 e1bd 802d 333c 4730 84be 7da0 0abf
000001f0: a7c6 cf3e dcc1 adbd affd c3be 22ec f43e
00000200: 22c8 3abe 5a00 cc3e ca04 a2be a053 b8bd
00000210: 8e6a 88bd a46e 7a3c afc3 103d 2d8b 083f
00000220: 7c20 003f e76d ef3d 183b 9d3d 4ed3 073e
00000230: c47e 9fbe 07f6 5c3d 6efb 26be a671 90be
00000240: a34f 743d 77e3 5d3e e346 5e3e 645d 19be
00000250: 5c30 c8bd 2622 bb3e e568 0f3f ae92 173f
00000260: a2f5 913b ca2d 373e 683c 843d eb13 6fbe
00000270: 1ba6 bebd 4435 973e 1133 0bbf 4e19 a93d
00000280: dece 113e 847e eabd 7b99 343e 5700 c33e
00000290: 8fcb bc3d 8dad 1b3f 0e6f a0be 660f 19bf
000002a0: 47cb aabe d339 053e d806 d03c 0296 db3d
000002b0: b62c 873e 95b3 13be 36aa 473e ae25 323e
000002c0: d8ac 823d 356c 053f aa09 c13d 1230 3b3e
000002d0: 6ad0 44bf 8448 16bf c761 f8be 17b0 8f3d
000002e0: d40b 76be 7a27 433e 1770 50bf 08b0 ddbe
000002f0: 1d8b 823d e0a2 1abe 94f3 76bf 7070 56bf
00000300: d83c f23e a459 933e aa4e a63c 2b9a 563e
00000310: 3609 883e 5dbb 843f 20d2 40be be95 2a3f
00000320: 5330 f5bd 461b 093e 0f38 b5be 76ba acbe
00000330: f0b6 ea3e ae82 433f a699 583d 700c 9e3e
00000340: 3b16 483e 6352 483f 3276 aabe 1a99 56be
00000350: 8dfb 953e e8c3 96bd 6692 a7be feaa a33e
00000360: 18c8 bcbe c7cb 6e3e 005f a03d 6755 4cbc
00000370: ee84 e53d 241d 57be ec6d a2be c3a7 d1be
00000380: 02da 2e3e 92da 923d 3cf4 eb3d fa0e 7d3e
00000390: 4c47 0d3f 3041 ffbe 28c5 843e 69c0 8a3d
000003a0: 7d96 0a3f 4ba4 03be 8f35 c03d f49d 52be
000003b0: 27d4 45be a4c8 d33d 67a4 363e 8e2b 4dbe
000003c0: 780f 46be c4ca 60bf 2e00 003d 3bc9 c23d
000003d0: 96d0 c53e d184 1dbf bf4a ba3d 625f e23e
000003e0: 5446 0ebe 74a1 333e ac7d 373e 8a17 483f
000003f0: e034 423e bb08 b1be bf0e 31bf 6053 1ebe
-0.16297045 0.30046165 0.08734127 0.043268315 0.41819626 0.18207936 -0.043723382 -0.5951898
0.24497543 -0.2206432 -0.16813785 -0.19252566 -0.33626497 -0.4695135 -0.6043597 0.36365184
0.2408217 -0.38869768 0.46911573 0.015635299 0.44074416 -0.12108746 -0.36944002 -0.3380273
0.22170722 0.24878678 -0.41919214 0.23661202 0.25401822 0.02263598 -0.63260853 -0.17594045
0.20998959 -0.5777228 0.16499546 0.19067788 -0.39283603 -0.22836559 -0.48293287 0.2459892
-0.1507697 -0.2315726 0.09149532 0.11257916 1.2066809 0.52650887 -0.23409507 0.45988077
-0.41635388 0.097235285 0.09771545 -0.15736824 -0.20003825 -0.2236611 -0.19636384 0.026684552
-0.18584454 0.45390028 -0.2766222 0.3429119 0.101298824 0.14822477 0.05113911 0.23469254
0.521296 0.55057174 0.12641436 -0.60511005 0.078947775 0.49560666 0.35223982 0.040610813
0.16400927 -0.39945453 0.21891108 0.3210066 -0.16091555 -0.48627257 -0.04582522 -0.41257736
0.108527094 0.029323045 0.45393512 -0.13732633 0.28733698 -0.09352286 0.16399093 -0.19872525
0.115137756 0.36553806 0.43243605 0.4643879 0.06449248 -0.16808687 -0.49482995 -0.073547475
-0.09151372 -0.375256 -0.3082202 0.11992534 1.1220627 -0.0649633 -0.09814815 -0.518863
0.06701301 -0.19150159 0.39518273 -0.0028044353 0.46166515 -0.05342209 -0.1696173 0.653685
-0.04132014 0.035107713 -0.16478796 0.27106124 0.0427197 -0.8013586 -0.28616613 0.22970304
-0.11010968 0.010936141 -0.25818083 -0.54151136 0.40581247 -0.08484241 -0.38279483 0.47836405
-0.18240407 0.39844018 -0.3164428 -0.09000325 -0.06660949 0.015285168 0.03534287 0.53337365
0.5004957 0.11690884 0.07677287 0.132642 -0.31151402 0.053945567 -0.1630685 -0.28211707
0.05964626 0.21668802 0.21706729 -0.14977032 -0.09774849 0.3654949 0.5601943 0.5920819
0.0044543305 0.17888561 0.06456834 -0.23347442 -0.09309026 0.29532826 -0.54374796 0.082567796
0.1423907 -0.11449912 0.17636673 0.38086197 0.09218513 0.6081169 -0.31334728 -0.5978912
-0.33358213 0.1301034 0.025393888 0.10721971 0.264013 -0.14423974 0.19498524 0.17397186
0.063806236 0.52118236 0.094256714 0.18280056 -0.76880515 -0.587044 -0.48512098 0.07016008
-0.2402795 0.19058028 -0.81421036 -0.43298364 0.0637419 -0.15101194 -0.9646542 -0.83765316
0.47312045 0.28779328 0.020301182 0.20957248 0.26569527 1.0369679 -0.18830156 0.6663474
-0.11972108 0.1338931 -0.35394332 -0.33736008 0.45842695 0.76371276 0.052880906 0.30868864
0.1953973 0.7825071 -0.332933 -0.20956841 0.2929348 -0.07361585 -0.3272888 0.31966394
-0.3687141 0.23319922 0.0783062 -0.012471533 0.11206995 -0.2100721 -0.3172449 -0.40948305
0.17075351 0.07170595 0.115211934 0.24712744 0.55186915 -0.49854422 0.25931668 0.067749806
0.54135877 -0.12855642 0.093852155 -0.20568067 -0.19319211 0.103410035 0.17836152 -0.20036146
-0.19341838 -0.87809396 0.03125017 0.09511038 0.386357 -0.61530787 0.09096288 0.44213396
-0.13894016 0.17542058 0.17919034 0.7816092 0.18965483 -0.34576973 -0.69163126 -0.15461493

network_body.linear_encoder.seq_layers.2.bias f4 [128]
00000000: 0000 0000 0000 0000 0000 0000 0000 0000
00000010: 0000 0000 0000 0000 0000 0000 0000 0000
00000020: 0000 0000 0000 0000 0000 0000 0000 0000
00000030: 0000 0000 0000 0000 0000 0000 0000 0000
00000040: 0000 0000 0000 0000 0000 0000 0000 0000
00000050: 0000 0000 0000 0000 0000 0000 0000 0000
00000060: 0000 0000 0000 0000 0000 0000 0000 0000
00000070: 0000 0000 0000 0000 0000 0000 0000 0000
00000080: 0000 0000 0000 0000 0000 0000 0000 0000
00000090: 0000 0000 0000 0000 0000 0000 0000 0000
000000a0: 0000 0000 0000 0000 0000 0000 0000 0000
000000b0: 0000 0000 0000 0000 0000 0000 0000 0000
000000c0: 0000 0000 0000 0000 0000 0000 0000 0000
000000d0: 0000 0000 0000 0000 0000 0000 0000 0000
000000e0: 0000 0000 0000 0000 0000 0000 0000 0000
000000f0: 0000 0000 0000 0000 0000 0000 0000 0000
00000100: 0000 0000 0000 0000 0000 0000 0000 0000
00000110: 0000 0000 0000 0000 0000 0000 0000 0000
00000120: 0000 0000 0000 0000 0000 0000 0000 0000
00000130: 0000 0000 0000 0000 0000 0000 0000 0000
00000140: 0000 0000 0000 0000 0000 0000 0000 0000
00000150: 0000 0000 0000 0000 0000 0000 0000 0000
00000160: 0000 0000 0000 0000 0000 0000 0000 0000
00000170: 0000 0000 0000 0000 0000 0000 0000 0000
00000180: 0000 0000 0000 0000 0000 0000 0000 0000
00000190: 0000 0000 0000 0000 0000 0000 0000 0000
000001a0: 0000 0000 0000 0000 0000 0000 0000 0000
000001b0: 0000 0000 0000 0000 0000 0000 0000 0000
000001c0: 0000 0000 0000 0000 0000 0000 0000 0000
000001d0: 0000 0000 0000 0000 0000 0000 0000 0000
000001e0: 0000 0000 0000 0000 0000 0000 0000 0000
000001f0: 0000 0000 0000 0000 0000 0000 0000 0000
0.0 0.0 0.0 0.0 0.0 0.0 0.0 0.0
0.0 0.0 0.0 0.0 0.0 0.0 0.0 0.0
0.0 0.0 0.0 0.0 0.0 0.0 0.0 0.0
0.0 0.0 0.0 0.0 0.0 0.0 0.0 0.0
0.0 0.0 0.0 0.0 0.0 0.0 0.0 0.0
0.0 0.0 0.0 0.0 0.0 0.0 0.0 0.0
0.0 0.0 0.0 0.0 0.0 0.0 0.0 0.0
0.0 0.0 0.0 0.0 0.0 0.0 0.0 0.0
0.0 0.0 0.0 0.0 0.0 0.0 0.0 0.0
0.0 0.0 0.0 0.0 0.0 0.0 0.0 0.0
0.0 0.0 0.0 0.0 0.0 0.0 0.0 0.0
0.0 0.0 0.0 0.0 0.0 0.0 0.0 0.0
0.0 0.0 0.0 0.0 0.0 0.0 0.0 0.0
0.0 0.0 0.0 0.0 0.0 0.0 0.0 0.0
0.0 0.0 0.0 0.0 0.0 0.0 0.0 0.0
0.0 0.0 0.0 0.0 0.0 0.0 0.0 0.0

network_body.linear_encoder.seq_layers.2.weight f4 [128, 128]
00000000: 25a1 583e 73b7 c93c 1e37 3a3d 41c2 aabd
00000010: b889 1abd 233a b1bd eb95 bcbb b219 783d
00000020: 055c 983c aac5 bb3c 906e 173d 121b a23b
00000030: 15ee 03be 7b1a 07bd e183 cabd a058 c4bd
00000040: b970 a53d 34db 123c 8c51 6b3a 9802 bc3d
00000050: d6a3 6bbd 2061 1dbc 3a9d 643b 16b1 de3d
00000060: 4f7a 233d aea9 df3b b32b 433d 653b ddbd
00000070: 91d1 0dbd 4ae3 ea3d 5050 bb3d 30d8 97bd
00000080: 0a0a aabd e4da e4bd 9908 be3d c970 be3d
00000090: e590 97bb bf5d 9c3d 3a2b 893a 5832 49bd
000000a0: e74b 6dbb 3b63 0bbe 9903 0cbd f30a 963d
000000b0: eca6 a0bc cf94 a6bd c5cb 86bd 60d4 e3bd
000000c0: 0b4c a03d c89a 41be d4a0 263e 2db7 7a3d
000000d0: d20f a5bd e114 9cbd 9b40 b63b 7630 2bbe
000000e0: 1324 ac3d 4551 513d dd4b 59bd 680c 14be
000000f0: c6c0 17be 1dc9 9bbd b7f6 81bd 08e1 473d
00000100: 38c3 27bd 87c7 2abd 8cb8 64bc cde1 9f3e
00000110: d1d5 afbc a587 a63d 07e8 9dbb 78b5 d5bd
00000120: edd8 743d 1a59 293e f000 8dbd 6916 c8bd
00000130: c958 c23c 0d59 5b3d fd1c 91bd 2e25 393d
00000140: 6eb1 a0bd 909e 99bd 034d 2abd af1b fabd
00000150: 6d9b 38bd f240 09be a1b2 7d3c 630c 0d3d
00000160: a554 ccbd bd75 9e3d 013d cd3d 73e4 59bd
00000170: 143f bebd e1d3 d13d 5559 b63d a5ec a23d
00000180: 1a0b edbd cb36 8b3d 541b cf3d 33ec 1fbd
00000190: ab40 66bd 48d7 003e 7979 1e3e 2d12 083d
000001a0: 9a8e 42bd 0dba 6d3e 5904 873d 5d51 303e
000001b0: 37e6 043a 0feb 233e 70ff 8d3d 5afc 19b8
000001c0: ae48 7b3c 1680 ae3d 6932 ebbd c7ad fa3d
000001d0: 5a2a abbd 3004 903d eaf9 d4bd 74f2 d53b
000001e0: 7fcb 18bc 60b5 583e fc49 973c 0241 aebd
000001f0: 9e70 89bc 67ad a5bd 81f4 c73d 51d0 433e
00000200: 080a ee3d 5836 cc3a 6719 17be 767a 163d
00000210: c4a0 b53c 3ab8 f1bc 3d96 00bc f391 423d
00000220: f2af 1dbb c585 82bc 6da0 1abd 9c3e a43b
00000230: 4fa8 073d 98b5 5dbd 22a1 a3bd 8002 c43d
00000240: 7762 ab3c b8d4 df3d 29cd de3c 3da2 863c
00000250: 85e7 26be 5809 aebd d9b2 30be 9902 97bd
00000260: 6171 1cbd e64e 553e 0a93 453d 6cab 24bd
00000270: 73e1 2abd f5b5 da3c f8ea 1d3e c4f8 9cbc
00000280: 9c3a 143d 6121 a4bd 52fd 8dbd 8824 b83c
00000290: 802b 7c3d 4bcb 04be 246c 5bbd 78c3 efbc
000002a0: c219 e6bd 42ef 523d a548 37bc e3d3 bd3d
000002b0: fc00 883d 46c4 153e b9af 713d b90a 13bd
000002c0: fe38 08bd bc29 59bc 60ef c83c cd04 38bc
000002d0: 322a a2bd b46c 91bd fe04 b73d ebac b33c
000002e0: 1a56 b2bd 2617 b73d 2fc4 1e3d 4464 013d
000002f0: e32c d93d 4939 cc3c d17d adbd c509 083c
00000300: e1ba 4a3c 26f4 3ebc a6fd 433e 65e6 233d
00000310: e3ed c7bd 2af2 a1bc 5dc7 57bd e89f fdbb
00000320: 2002 4abd 5861 d4bd 6e99 cdbc 6c9d cf3d
00000330: de66 1fbe 758e 983d fbc3 57bd 1074 a239
00000340: 7aea c9bd 1e67 1b3b ee7c f0bb 9955 4dbd
00000350: 0971 68bd a12d 20bd 8f1e 353d 4531 033c
00000360: 292f 173d 8806 3dbd 5d84 99bd 1451 133e
00000370: 72bb d63b 575f f9bc 4f38 acbd e9e4 babb
00000380: 8c2b 9c3d d6e1 363c 9bd4 833d 9041 7b3d
00000390: 3a7c 1abd 22b5 81bc d003 873d 1c4d c13d
000003a0: b0df 5a3e 7a1a df3d 5e46 62bc d14b 74be
000003b0: d106 07bd d409 e7bd 8d20 43b9 7eec 903d
000003c0: 2fc1 113d 0fc6 333d 163b ccbc 70f7 92be
000003d0: 7d1d 9bbd 9919 543d 2599 a93d a64d 913d
000003e0: acf5 31be 5a15 f5bd 027c 4b3d b7c3 8e3c
000003f0: 80eb 2abe 1c96 263e fdbf 443d 5bdd 253d
0.21155222 0.024623608 0.04546272 -0.08337832 -0.037728995 -0.08653667 -0.0057551763 0.06057138
0.018598566 0.022921402 0.036970675 0.0049470747 -0.1288379 -0.032984238 -0.09888435 -0.095872164
0.08078141 0.008963395 0.000897669 0.09180182 -0.057529293 -0.009605676 0.0034883753 0.1087362
0.039911564 0.0068256473 0.047649097 -0.10802344 -0.034623686 0.11469133 0.09146178 -0.07414281
-0.08302696 -0.111745626 0.092789836 0.09298856 -0.004625427 0.07635068 0.0010465153 -0.049120277
-0.0036208571 -0.13612072 -0.03418312 0.07326307 -0.019610845 -0.08133852 -0.06581835 -0.11124492
0.07827004 -0.189067 0.16272289 0.061209846 -0.08059658 -0.0762117 0.005561901 -0.16717705
0.08405318 0.051102895 -0.053050864 -0.14457858 -0.14819631 -0.07606719 -0.06345885 0.04879859
-0.04095766 -0.04169419 -0.013960015 0.3122696 -0.02146426 0.08131341 -0.0048189196 -0.10435003
0.05977719 0.16537896 -0.068849444 -0.097698994 0.023723977 0.053551722 -0.07085607 0.045201473
-0.07846342 -0.075009465 -0.04157735 -0.122123115 -0.0450701 -0.13403681 0.015484483 0.03443564
-0.09977082 0.077373005 0.10021401 -0.05319638 -0.09289375 0.10245491 0.089037575 0.079552926
-0.11574383 0.0679756 0.10112634 -0.039043617 -0.056214016 0.12582123 0.15476026 0.03322046
-0.047499277 0.23215504 0.06592626 0.17218538 0.0005069705 0.16007636 0.069334865 -3.6713063e-05
0.015337152 0.08520524 -0.11484224 0.12240177 -0.08357687 0.07032049 -0.1039923 0.006529147
-0.009325861 0.21162939 0.018467896 -0.08508493 -0.016777333 -0.080897145 0.09763432 0.19122435
0.11623007 0.001558016 -0.14755784 0.03673788 0.022171386 -0.029506791 -0.00784832 0.04750247
-0.002406117 -0.015932927 -0.03775065 0.0050123464 0.033119496 -0.05412826 -0.07989718 0.09570789
0.020920975 0.10929245 0.027197437 0.016434783 -0.16299255 -0.08497876 -0.17255725 -0.07373542
-0.038194064 0.20830879 0.04823593 -0.040202543 -0.04171891 0.026698092 0.15421665 -0.01916159
0.036188707 -0.08014179 -0.06933083 0.022478357 0.061564922 -0.12968175 -0.053569928 -0.029268011
-0.11235382 0.051497705 -0.011186753 0.0926893 0.06640813 0.14625654 0.059005473 -0.035898898
-0.033257477 -0.013254579 0.024528205 -0.011231613 -0.07918204 -0.071008116 0.08936499 0.02193304
-0.08707829 0.08939962 0.038761314 0.03158976 0.106042646 0.02492966 -0.08471263 0.0083031105
0.012373657 -0.011654889 0.19139728 0.040014643 -0.0976217 -0.019768793 -0.052680362 -0.0077400096
-0.049318433 -0.10370129 -0.025097575 0.10137448 -0.15566584 0.074490465 -0.052677136 0.0003098552
-0.09859176 0.0023712586 -0.0073391115 -0.05013046 -0.056748424 -0.039106015 0.044218596 0.008007352
0.03691021 -0.046148807 -0.074959494 0.14386398 0.006553107 -0.03044097 -0.084091775 -0.0057035577
0.076254934 0.011162242 0.06437036 0.061341822 -0.037716128 -0.015833441 0.06592524 0.094385356
0.21374393 0.10893722 -0.013810722 -0.23857047 -0.032965485 -0.112811714 -0.00018608775 0.07076357
0.035584625 0.043890055 -0.024930518 -0.28704405 -0.07573984 0.051782224 0.08281163 0.070948884
-0.17378873 -0.11966963 0.04967881 0.017427308 -0.16691399 0.162682 0.048034657 0.040494304
