Unity/results/ScoreGoal0/My Behavior/My Behavior-1920.onnx (onnx, 75988 bytes, 7 tensors)

action_model._continuous_distribution.log_sigma f4 [1, 5]
000000 00 00 00 00 00 00 00 00 00 00 00 00 00 00 00 00
       0.0 0.0 0.0 0.0
000010 00 00 00 00
       0.0

action_model._continuous_distribution.mu.bias f4 [5]
000000 00 00 00 00 00 00 00 00 00 00 00 00 00 00 00 00
       0.0 0.0 0.0 0.0
000010 00 00 00 00
       0.0

action_model._continuous_distribution.mu.weight f4 [5, 128]
000000 74 34 27 bc e1 de 95 bb e7 c8 5a 3c cd 9a 22 ba
       -0.010205377 -0.0045736884 0.013353563 -0.00062028767
000010 1d d0 df ba 93 53 2f 3c dd 96 53 bc 60 b8 10 3c
       -0.0017075572 0.010701078 -0.012914387 0.008833021
000020 c7 78 70 bc 59 8d 8d 3a 9e d1 a2 3c b2 ab 57 3b
       -0.014677233 0.0010799571 0.019875344 0.0032908735
000030 d4 af a1 3c 1f fb a0 bc 80 21 0c bc 67 9a 41 3c
       0.019737162 -0.019650994 -0.008552909 0.011816598
000040 7b f8 a7 bc b8 04 f5 bb 32 06 47 bc ef c9 5a 3c
       -0.020504227 -0.007477369 -0.012147473 0.013353809
000050 f0 3b cc bc 21 67 18 3d 07 be af bb cb cc 3c bc
       -0.024930924 0.037207726 -0.005363229 -0.011523436
000060 67 65 75 bb ed e4 3a 3c 03 20 2a 3c cf e2 04 bd
       -0.0037444474 0.011407119 0.010383609 -0.032442864
000070 63 2a 04 3d 14 25 97 bc c2 cf 25 bb 20 97 b2 3c
       0.032266986 -0.018450297 -0.0025300835 0.021800578
000080 48 11 d1 3b a3 74 f2 3c 57 fc 27 3c ab d5 78 bc
       0.006380234 0.029596632 0.010253034 -0.015187661
000090 3e a2 a7 bc 39 a8 cc 3c 0f ea 7c bc 75 5a d4 bb
       -0.020463105 0.024982559 -0.015436663 -0.00648051
0000a0 60 47 7b bc 5c ee 4b 3c 7f bd 03 bc 14 21 cb bc
       -0.015336841 0.012446966 -0.008040785 -0.024796046
0000b0 88 a2 97 3b 0b 61 52 bb d6 c1 9b 3c 47 2f b0 bc
       0.0046275295 -0.00321013 0.019013327 -0.021506919
0000c0 ea 92 9b 3b a8 b2 63 bc 6a f1 09 bd 6a 46 b8 3c
       0.004747738 -0.013897575 -0.033677496 0.022494514
0000d0 f2 51 60 3c 39 c0 3e 3b 20 0d bc 3c 8f 15 40 3a
       0.013691412 0.0029106273 0.022955477 0.0007327431
0000e0 da 3c c4 3c aa 5e ed 3a 0a f6 7d bc 25 39 e0 bb
       0.023954798 0.0018109877 -0.015500555 -0.0068427497
0000f0 98 f5 d7 3c 7d a4 9e 3c 85 42 53 bc 83 5a ac 3c
       0.026362225 0.019365543 -0.012894277 0.021039253
000100 9d 3c 66 bc 63 3c 41 bc e3 7f b2 3b 91 90 3c 3a
       -0.014052537 -0.0117941825 0.005447374 0.0007193173
000110 3a 67 c3 3c da 0d d0 3c b3 66 17 bd 0d 5a ce bb
       0.023852933 0.02539723 -0.036963176 -0.006297356
000120 7d 7d 98 bb b7 f2 c6 bc cd 36 8a bb 07 de e8 ba
       -0.0046536312 -0.024285657 -0.0042179585 -0.0017766365
000130 63 c0 06 3d 7b 7e 64 3b e8 70 ea 3a d5 be e2 bb
       0.032898318 0.0034865427 0.0017886432 -0.0069197216
000140 8b 57 94 bc da 5e 10 bb 63 2b a5 bb 3c 7d 4c bb
       -0.01810815 -0.0022029192 -0.0050405725 -0.0031202575
000150 fb 5e 12 3c e7 9e b4 3b 15 2c 7a 3c d2 36 a5 3b
       0.008933778 0.0055121067 0.015269299 0.0050419355
000160 cf 6c ca 3b c8 97 f6 bc 2b a8 4f 39 ed 43 5e bb
       0.006177522 -0.030101672 0.00019803706 -0.0033914999
000170 51 ae 02 3c ff 1b 87 3c e7 0c cb 3c 18 b5 c5 3c
       0.007976131 0.016492842 0.024786426 0.024134204
000180 73 f4 62 bc ef a1 c3 bb 73 ef b1 bb f8 cc 8b bc
       -0.013852227 -0.0059702317 -0.005430156 -0.01706551
000190 1f 3a 34 bc bd 7c bc bb 49 d2 9c 3c d2 dc f8 3c
       -0.011000185 -0.0057521746 0.01914324 0.030378733
0001a0 ba 99 c3 bc 02 fa dc 3c 60 c8 4a 3c a7 e0 d3 bb
       -0.023877013 0.026974682 0.012376875 -0.0064659896
0001b0 4a cf 87 bc a4 a1 15 3d 02 2e 39 3c b7 62 82 bc
       -0.016578335 0.036531106 0.011302473 -0.015916212
0001c0 ed 1e 69 3c f3 4c 1b 3c 5f 87 45 bb 68 c8 54 3c
       0.014228565 0.009478795 -0.0030140502 0.012987234
0001d0 62 27 69 bc 58 2e 07 3b 92 66 fc bc a0 8d 01 3b
       -0.014230581 0.0020626988 -0.030810628 0.0019768253
0001e0 f7 99 32 3c cb a6 27 bc a8 b9 99 3b be ef 90 bc
       0.010900966 -0.010232638 0.0046913214 -0.017692443
0001f0 7d 40 d9 bc e1 67 80 3c ca eb f3 bb 75 42 dc bc
       -0.026520008 0.015674533 -0.0074438797 -0.026887158
000200 5a bd 7d bb af e3 5f 3c 0b d2 0b 3d f6 d4 4a 3c
       -0.0038717599 0.013665124 0.03413586 0.012379875
000210 ba 2f de bb 14 2a a2 ba 07 1d 6e 3b 42 29 00 3c
       -0.006780592 -0.0012372159 0.003633322 0.007822337
000220 00 8b f1 3c f1 32 46 3c ed bf d3 3c e4 6a b3 bc
       0.029485226 0.012097106 0.025848353 -0.021901555
000230 37 24 3f bc be ca aa 3c ae 7e b8 bc ed c3 4b bb
       -0.011666349 0.020848628 -0.022521343 -0.0031092123
000240 b1 89 2f 3c 4d dc d5 3c 95 5e 38 bc 70 30 d5 3c
       0.0107139805 0.026106024 -0.011253019 0.026024073
000250 47 e9 24 bd 8a 81 06 3c 4c 4b 2f bc 67 71 13 bc
       -0.040261533 0.008209595 -0.0106991045 -0.008999205
000260 9d 1f 69 3b 15 bf e9 3c b1 44 21 bb 6f 5a 2a bc
       0.0035571821 0.028533498 -0.0024607594 -0.010397538
000270 65 78 55 3d f7 9a 61 bc bb 9d cc bc be df 86 3b
       0.05211677 -0.013769857 -0.024977555 0.0041160276
000280 3d cc 0e 3d c9 3a c8 bc bb 28 cd 3c f9 7d a2 bc
       0.034862746 -0.024442093 0.025043836 -0.019835459
000290 17 05 4e 3c 20 ad d9 3c 90 eb 02 bc b2 61 bb bb
       0.012574456 0.02657181 -0.007990733 -0.0057184333
0002a0 96 22 26 3d 60 00 7d bc 81 92 b1 3c f2 32 24 3c
       0.040560327 -0.015441984 0.021676304 0.010021912
0002b0 ff af af 3b 5d c2 f1 bc 19 40 10 bd 49 70 06 3c
       0.0053615565 -0.029511625 -0.03521738 0.008205482
0002c0 27 ff 22 3d 28 47 fa 3c 9e 34 3d bc 6b e5 68 bb
       0.039794113 0.030551508 -0.011548189 -0.0035537134
0002d0 4f d3 82 bc cf 13 b8 3b 21 44 0e bc d3 3d 1a 3c
       -0.0159699 0.0056175957 -0.008683235 0.009414154
0002e0 8f b4 86 3c f6 d7 c9 3c 69 09 0d bc 9f 16 67 bc
       0.016443519 0.024639111 -0.008608201 -0.014104514
0002f0 74 e1 9e 3b bb 26 99 3c fa ba 67 bb 54 47 87 bc
       0.0048486535 0.018695226 -0.003535925 -0.016513504
000300 28 42 c8 bb 00 d3 de ba ad 5f dd 3a 05 e7 98 bc
       -0.006111402 -0.0017000139 0.0016889476 -0.018664846
000310 27 ac 9b 3c 43 6c 18 bd da 4a 80 bc 6f 38 20 3c
       0.019002987 -0.03721262 -0.015660692 0.00977908
000320 2b 20 ac 3c ad fc 0e 3d 30 75 df bc d7 86 e3 bb
       0.021011433 0.03490894 -0.027277559 -0.0069435644
000330 cb 89 93 bb 6a 15 52 bc 0b 70 01 bd 02 7a f7 bc
       -0.00450251 -0.012822488 -0.031600993 -0.030209545
000340 5b 25 05 bd 82 bb d7 bc 1d 49 05 bd f4 1e 84 bc
       -0.032506328 -0.026334528 -0.03254043 -0.01612804
000350 c0 a0 22 3b 23 d1 02 3d 3d 88 75 3c 10 57 71 3b
       0.0024815053 0.03193773 0.014986095 0.0036825575
000360 60 fe 13 bc 30 e2 a9 bc 5c 3b 83 3b 4a e4 96 bb
       -0.009032816 -0.020737737 0.004004879 -0.004604851
000370 1e cb c1 bb f8 61 ff 3b 90 41 7b 3c 63 d9 5e bb
       -0.005914106 0.007793661 0.015335456 -0.0034004084
000380 fd bf 0f bc a8 ac 0b 3c 82 c1 87 3b 97 ae 8f 3c
       -0.008773801 0.008525051 0.004142941 0.017539306
000390 88 f3 17 bc c0 13 e2 3c 3a b2 78 bb cd 4d d4 3c
       -0.009274371 0.027597308 -0.0037948028 0.025916005
0003a0 51 08 21 3b 54 e3 b2 bc 6e d3 4b 3c 7b b3 a4 bc
       0.0024571607 -0.021836914 0.0124405455 -0.020105114
0003b0 68 ca 61 bc c0 2f 54 3c c0 ac 53 bb 3d 4c ad 38
       -0.013781168 0.012950838 -0.0032299012 8.263483e-05
0003c0 62 00 47 3c aa 89 b9 bb 83 5d 93 3a 93 4a 03 3d
       0.012146087 -0.005662163 0.0011243079 0.03205354
0003d0 a6 5f 94 3a fd f3 ad 39 62 9a d3 bb 81 66 30 bb
       0.0011320009 0.00033178917 -0.006457613 -0.0026916566
0003e0 1f 0b 46 3c 34 26 0e 3d 1b 7f ba bc 13 ab ba 3b
       0.012087612 0.034704402 -0.022765687 0.005696663
0003f0 81 8c 8f 3c 2a ac f8 bb 3b 72 a6 3c 87 64 97 3b
       0.017523052 -0.007588883 0.020318141 0.004620138

network_body.linear_encoder.seq_layers.0.bias f4 [128]
000000 00 00 00 00 00 00 00 00 00 00 00 00 00 00 00 00
       0.0 0.0 0.0 0.0
000010 00 00 00 00 00 00 00 00 00 00 00 00 00 00 00 00
       0.0 0.0 0.0 0.0
000020 00 00 00 00 00 00 00 00 00 00 00 00 00 00 00 00
       0.0 0.0 0.0 0.0
000030 00 00 00 00 00 00 00 00 00 00 00 00 00 00 00 00
       0.0 0.0 0.0 0.0
000040 00 00 00 00 00 00 00 00 00 00 00 00 00 00 00 00
       0.0 0.0 0.0 0.0
000050 00 00 00 00 00 00 00 00 00 00 00 00 00 00 00 00
       0.0 0.0 0.0 0.0
000060 00 00 00 00 00 00 00 00 00 00 00 00 00 00 00 00
       0.0 0.0 0.0 0.0
000070 00 00 00 00 00 00 00 00 00 00 00 00 00 00 00 00
       0.0 0.0 0.0 0.0
000080 00 00 00 00 00 00 00 00 00 00 00 00 00 00 00 00
       0.0 0.0 0.0 0.0
000090 00 00 00 00 00 00 00 00 00 00 00 00 00 00 00 00
       0.0 0.0 0.0 0.0
0000a0 00 00 00 00 00 00 00 00 00 00 00 00 00 00 00 00
       0.0 0.0 0.0 0.0
0000b0 00 00 00 00 00 00 00 00 00 00 00 00 00 00 00 00
       0.0 0.0 0.0 0.0
0000c0 00 00 00 00 00 00 00 00 00 00 00 00 00 00 00 00
       0.0 0.0 0.0 0.0
0000d0 00 00 00 00 00 00 00 00 00 00 00 00 00 00 00 00
       0.0 0.0 0.0 0.0
0000e0 00 00 00 00 00 00 00 00 00 00 00 00 00 00 00 00
       0.0 0.0 0.0 0.0
0000f0 00 00 00 00 00 00 00 00 00 00 00 00 00 00 00 00
       0.0 0.0 0.0 0.0
000100 00 00 00 00 00 00 00 00 00 00 00 00 00 00 00 00
       0.0 0.0 0.0 0.0
000110 00 00 00 00 00 00 00 00 00 00 00 00 00 00 00 00
       0.0 0.0 0.0 0.0
000120 00 00 00 00 00 00 00 00 00 00 00 00 00 00 00 00
       0.0 0.0 0.0 0.0
000130 00 00 00 00 00 00 00 00 00 00 00 00 00 00 00 00
       0.0 0.0 0.0 0.0
000140 00 00 00 00 00 00 00 00 00 00 00 00 00 00 00 00
       0.0 0.0 0.0 0.0
000150 00 00 00 00 00 00 00 00 00 00 00 00 00 00 00 00
       0.0 0.0 0.0 0.0
000160 00 00 00 00 00 00 00 00 00 00 00 00 00 00 00 00
       0.0 0.0 0.0 0.0
000170 00 00 00 00 00 00 00 00 00 00 00 00 00 00 00 00
       0.0 0.0 0.0 0.0
000180 00 00 00 00 00 00 00 00 00 00 00 00 00 00 00 00
       0.0 0.0 0.0 0.0
000190 00 00 00 00 00 00 00 00 00 00 00 00 00 00 00 00
       0.0 0.0 0.0 0.0
0001a0 00 00 00 00 00 00 00 00 00 00 00 00 00 00 00 00
       0.0 0.0 0.0 0.0
0001b0 00 00 00 00 00 00 00 00 00 00 00 00 00 00 00 00
       0.0 0.0 0.0 0.0
0001c0 00 00 00 00 00 00 00 00 00 00 00 00 00 00 00 00
       0.0 0.0 0.0 0.0
0001d0 00 00 00 00 00 00 00 00 00 00 00 00 00 00 00 00
       0.0 0.0 0.0 0.0
0001e0 00 00 00 00 00 00 00 00 00 00 00 00 00 00 00 00
       0.0 0.0 0.0 0.0
0001f0 00 00 00 00 00 00 00 00 00 00 00 00 00 00 00 00
       0.0 0.0 0.0 0.0

network_body.linear_encoder.seq_layers.0.weight f4 [128, 9]
000000 86 68 82 be be 0e 90 bd c4 2a de 3e b2 61 7e 3e
       -0.2547037 -0.07034062 0.43392003 0.24841955
000010 b0 ed ae 3d 66 85 26 3f ae 28 96 bd 9e 85 2e be
       0.08541429 0.650473 -0.07331978 -0.17043158
000020 89 e9 04 3d 04 ce 1e bf ce 7a 9e bd 22 8c 2b 3e
       0.03244928 -0.62033105 -0.07738267 0.16752675
000030 6a 00 76 3e c8 45 06 be 04 f6 a4 3d dc c9 14 3f
       0.24023595 -0.13112557 0.08054736 0.5812051
000040 86 7d 6e be f0 78 e2 3e 7e 7d d6 be be 75 1c bd
       -0.23290071 0.44232893 -0.41892618 -0.038198225
000050 3f 17 a1 be a6 ee 26 3f a6 53 f9 3d 98 6a 77 3d
       -0.31463048 0.652079 0.12174158 0.06040439
000060 fb 94 72 bd 60 d0 7e 3e 78 ca b5 be 07 55 48 3d
       -0.05922411 0.24884176 -0.35506034 0.048909213
000070 12 bb 7a be ae e5 cc 3d 34 e4 bd bd 34 58 0e 3e
       -0.24485424 0.100047454 -0.09272042 0.13900834
000080 7e f0 16 be 1f 61 3e 3e 4b a4 07 bf aa 37 e9 bd
       -0.14740178 0.18591736 -0.52985066 -0.1138757
000090 98 8c 1b be d0 21 77 3e 47 9f f5 3e 62 1b 68 bd
       -0.15190351 0.24133992 0.4797308 -0.05666674
0000a0 4b 80 4d bc 26 d4 84 be fe 3c ee bd 7c 32 35 3a
       -0.012542794 -0.25943106 -0.11632727 0.0006912125
0000b0 72 d5 d5 3e 6e 2f 25 bf c6 b8 39 bf 1a bc ea 3e
       0.41764408 -0.64525497 -0.72547567 0.45846635
0000c0 1e 85 79 3e e0 e1 55 3e 86 0a 3c be 2b c2 a5 3e
       0.24367186 0.20886946 -0.1836339 0.323747
0000d0 7f fd ea be 57 a7 02 3f 37 74 11 3e d0 e1 07 3e
       -0.45896527 0.5103659 0.14204489 0.13269734
0000e0 24 3b 42 3e 47 8b 66 be ca d3 19 bf ae 11 f5 3d
       0.18967873 -0.22514068 -0.6008879 0.11966263
0000f0 e0 58 11 3e 97 79 c8 3e 24 01 8f be 15 60 1a 3f
       0.1419406 0.39155266 -0.27930558 0.6030286
000100 5f e8 c5 be 73 04 db be 7c ae ce 3d 33 b1 6a bc
       -0.38653848 -0.42776832 0.10091874 -0.014324474
000110 df 98 a6 3e 0f c1 c7 bd 4f 82 66 bd 18 95 67 be
       0.32538506 -0.0975362 -0.056276616 -0.22615469
000120 23 d0 d2 3e 3e c2 92 be d0 3e 4e 3e ea b5 87 bd
       0.4117442 -0.2866382 0.20141149 -0.06626494
000130 42 d9 dc 3d 72 a8 84 3e 16 65 89 3e 7b 50 f5 be
       0.10783626 0.25909764 0.26834935 -0.47912964
000140 fc 84 3e 3e 56 63 62 3e d3 ce da be 37 a7 97 be
       0.18605417 0.22108206 -0.4273592 -0.29619762
000150 8c 40 68 3e e8 40 eb 3e 14 1b 0f be 77 a8 e9 bd
       0.22680873 0.45947957 -0.13975173 -0.11409085
000160 54 29 e9 be c6 84 85 3d 88 9c 04 bf 13 ce fc be
       -0.45539343 0.06519465 -0.5180135 -0.49375972
000170 de 3d 11 be 27 1f 9a 3e a1 6a 8a 3e 53 4a 34 3c
       -0.14183757 0.30101892 0.27034476 0.011004048
000180 38 b0 8b 3e de 64 ae be 7a 68 1a 3f b2 a5 02 3f
       0.27282882 -0.3406133 0.6031567 0.5103408
000190 96 63 9f 3d 47 bb 98 3e 5a 9e 73 3e e6 9f 5e bd
       0.077826664 0.2983038 0.23790875 -0.05435171
0001a0 e7 17 ce be 88 50 49 3e c7 bc ec bb 8e 39 87 3e
       -0.4025261 0.19659626 -0.0072246525 0.26411098
0001b0 82 29 d5 be 66 77 82 3d 34 03 a9 3e 79 f5 91 bd
       -0.4163323 0.0637043 0.33010256 -0.07126898
0001c0 8c 67 95 3e c4 8b e1 3e 8c 4f cd 3e 12 9d 8f 3e
       0.29180562 0.44051945 0.40099752 0.28049523
0001d0 8e dd 4a bd 1a de 1c 3d 7a f7 70 be a7 31 ce 3e
       -0.049527697 0.03829775 -0.23531905 0.40272257
0001e0 66 4f 22 3f a8 c5 99 be 7b 4a ec bc d1 52 8d 3e
       0.634024 -0.30033612 -0.028844109 0.27602246
0001f0 a6 48 af 3e 78 fd 0f bd 80 a8 a9 3d 43 57 5a be
       0.34235114 -0.035153836 0.08284092 -0.2132235
000200 32 90 5e be e6 7d 08 be a6 71 01 bf 68 98 71 3d
       -0.21734694 -0.13329276 -0.5056404 0.058983237
000210 1f 8a f1 3d 74 12 6d 3e 64 16 b7 3e 02 b1 fe bc
       0.11793923 0.2315157 0.3575927 -0.031090263
000220 10 6d a6 3a 4e ca 3c bc 90 a9 b8 3e 06 fd 8f be
       0.0012697298 -0.011522843 0.36066866 -0.2812273
000230 30 f9 c5 bd 3d d4 1b 3f 2c a4 50 3e 64 ae 6e 3c
       -0.09666669 0.60870725 0.20375127 0.014567945
000240 7f 2b bf bb 0c db b0 bd a4 21 67 bf d6 52 fc 3d
       -0.0058340426 -0.0863553 -0.90285707 0.12320487
000250 2e 25 87 be d3 8d 0c bf 66 95 27 bf 7a 6e 5a 3e
       -0.26395553 -0.54903907 -0.6546234 0.21331206
000260 d5 b6 0b 3e 8c ef 92 3d 8c c3 81 3d 2e 3d f1 3e
       0.13643964 0.07174596 0.06336126 0.4711699
000270 cc fe 27 3e 02 d1 5f 3e bd cb a2 be 23 81 46 3f
       0.16405791 0.21857074 -0.31796065 0.77540797
000280 16 ae d7 3d 8c fc b8 be 13 f1 10 be 83 fd 07 3f
       0.10531251 -0.36130178 -0.14154463 0.53121203
000290 73 22 cc bd be 5a d4 bc c2 a0 2a bf b8 88 9d bd
       -0.09967508 -0.025922175 -0.66651547 -0.07692093
0002a0 39 c4 25 bf 6e b7 eb 3d 3b 0c be be a3 b8 4b 3e
       -0.64752537 0.11509596 -0.37118706 0.19894652
0002b0 92 41 58 3e 4b b8 1c 3e 00 7a 0e 3f c6 6b 34 3f
       0.21118763 0.15304677 0.5565491 0.7047695
0002c0 7f 92 8e bd 78 a6 3a 3d 90 03 0d be 88 85 54 3e
       -0.06961536 0.045568913 -0.1377089 0.20754063
0002d0 88 b3 46 3c a0 5a cb 3e 7e 0b d8 3d 04 aa b5 bc
       0.0121277645 0.3971758 0.10549067 -0.022175796
0002e0 44 ae 10 bf 76 3a b3 3e b0 d0 72 3d 0a 54 c5 3c
       -0.5651591 0.3500554 0.05928105 0.024087925
0002f0 9e 7e 09 be 07 8c b3 be 9a 46 ca 3c 8f 51 ec 3d
       -0.13427207 -0.3506777 0.024691869 0.115389936
000300 ae 2b ae 3e f4 b6 56 be 4e c1 d1 3e 42 92 ea be
       0.340177 -0.20968229 0.40967792 -0.4581471
000310 8c a3 85 3e 4c 67 a1 be f3 1e 80 3e d3 21 2c 3f
       0.2610134 -0.31524122 0.25023612 0.6723911
000320 14 7e dc bd 61 f8 98 bd 1e 24 75 be a8 51 49 3d
       -0.10766235 -0.074692495 -0.23939559 0.04915014
000330 17 da 1b be 35 7b 92 bd f7 20 2b bf 4f a7 4e be
       -0.15219913 -0.07152406 -0.66847175 -0.2018101
000340 f2 2f 4d be bf 36 c9 3e 64 f5 e7 be 80 fd 93 3e
       -0.20037821 0.3929958 -0.45304406 0.28904343
000350 24 19 83 3e 50 51 d4 be 66 f5 2f 3e 5e a3 42 bd
       0.25605118 -0.41468287 0.17183456 -0.04751908
000360 77 8e 38 3f 1d 91 0d bf b4 04 b1 3d f0 e5 8d 3e
       0.72092384 -0.5529955 0.08643475 0.2771449
000370 8c 9c a7 bd 74 8d 37 3c 3e 8b 4e bd 4e f8 05 3f
       -0.08184156 0.011203159 -0.05042576 0.5233201
000380 77 df 5d be c7 41 88 bd 27 6c 49 3f bc 79 cc bd
       -0.21667276 -0.06653171 0.7868065 -0.099841565
000390 2e 6e a2 be 75 35 8c be 18 b0 1b bf 1a 04 50 be
       -0.31724685 -0.27384534 -0.6081557 -0.20314065
0003a0 cc c3 43 3b 28 ca c5 3d 7c 5a 37 be 88 ba 99 3e
       0.0029871343 0.09657699 -0.17905611 0.30025125
0003b0 22 4f ae be 9a 8f ed 3e a7 ef 6e 3d d6 7e aa be
       -0.3404475 0.46398622 0.05833402 -0.33299893
0003c0 38 06 f3 be 8a 17 71 be 3b 41 d3 3e f3 ec a8 bd
       -0.47465682 -0.23544136 0.41260704 -0.082483195
0003d0 2e 6e 45 be 9a 4f 83 3d f6 32 e2 be 86 8f a1 3e
       -0.19280311 0.06411667 -0.44179505 0.31554812
0003e0 cf 5d 48 be da 8d 68 be 98 32 fb be 54 35 c6 be
       -0.19567035 -0.22710362 -0.49062037 -0.3871256
0003f0 47 3e 5c bf 3c 36 aa 3d de 7f 07 3f 0b d6 4f 3e
       -0.8603253 0.08311126 0.52929485 0.20296495

network_body.linear_encoder.seq_layers.2.bias f4 [128]
000000 00 00 00 00 00 00 00 00 00 00 00 00 00 00 00 00
       0.0 0.0 0.0 0.0
000010 00 00 00 00 00 00 00 00 00 00 00 00 00 00 00 00
       0.0 0.0 0.0 0.0
000020 00 00 00 00 00 00 00 00 00 00 00 00 00 00 00 00
       0.0 0.0 0.0 0.0
000030 00 00 00 00 00 00 00 00 00 00 00 00 00 00 00 00
       0.0 0.0 0.0 0.0
000040 00 00 00 00 00 00 00 00 00 00 00 00 00 00 00 00
       0.0 0.0 0.0 0.0
000050 00 00 00 00 00 00 00 00 00 00 00 00 00 00 00 00
       0.0 0.0 0.0 0.0
000060 00 00 00 00 00 00 00 00 00 00 00 00 00 00 00 00
       0.0 0.0 0.0 0.0
000070 00 00 00 00 00 00 00 00 00 00 00 00 00 00 00 00
       0.0 0.0 0.0 0.0
000080 00 00 00 00 00 00 00 00 00 00 00 00 00 00 00 00
       0.0 0.0 0.0 0.0
000090 00 00 00 00 00 00 00 00 00 00 00 00 00 00 00 00
       0.0 0.0 0.0 0.0
0000a0 00 00 00 00 00 00 00 00 00 00 00 00 00 00 00 00
       0.0 0.0 0.0 0.0
0000b0 00 00 00 00 00 00 00 00 00 00 00 00 00 00 00 00
       0.0 0.0 0.0 0.0
0000c0 00 00 00 00 00 00 00 00 00 00 00 00 00 00 00 00
       0.0 0.0 0.0 0.0
0000d0 00 00 00 00 00 00 00 00 00 00 00 00 00 00 00 00
       0.0 0.0 0.0 0.0
0000e0 00 00 00 00 00 00 00 00 00 00 00 00 00 00 00 00
       0.0 0.0 0.0 0.0
0000f0 00 00 00 00 00 00 00 00 00 00 00 00 00 00 00 00
       0.0 0.0 0.0 0.0
000100 00 00 00 00 00 00 00 00 00 00 00 00 00 00 00 00
       0.0 0.0 0.0 0.0
000110 00 00 00 00 00 00 00 00 00 00 00 00 00 00 00 00
       0.0 0.0 0.0 0.0
000120 00 00 00 00 00 00 00 00 00 00 00 00 00 00 00 00
       0.0 0.0 0.0 0.0
000130 00 00 00 00 00 00 00 00 00 00 00 00 00 00 00 00
       0.0 0.0 0.0 0.0
000140 00 00 00 00 00 00 00 00 00 00 00 00 00 00 00 00
       0.0 0.0 0.0 0.0
000150 00 00 00 00 00 00 00 00 00 00 00 00 00 00 00 00
       0.0 0.0 0.0 0.0
000160 00 00 00 00 00 00 00 00 00 00 00 00 00 00 00 00
       0.0 0.0 0.0 0.0
000170 00 00 00 00 00 00 00 00 00 00 00 00 00 00 00 00
       0.0 0.0 0.0 0.0
000180 00 00 00 00 00 00 00 00 00 00 00 00 00 00 00 00
       0.0 0.0 0.0 0.0
000190 00 00 00 00 00 00 00 00 00 00 00 00 00 00 00 00
       0.0 0.0 0.0 0.0
0001a0 00 00 00 00 00 00 00 00 00 00 00 00 00 00 00 00
       0.0 0.0 0.0 0.0
0001b0 00 00 00 00 00 00 00 00 00 00 00 00 00 00 00 00
       0.0 0.0 0.0 0.0
0001c0 00 00 00 00 00 00 00 00 00 00 00 00 00 00 00 00
       0.0 0.0 0.0 0.0
0001d0 00 00 00 00 00 00 00 00 00 00 00 00 00 00 00 00
       0.0 0.0 0.0 0.0
0001e0 00 00 00 00 00 00 00 00 00 00 00 00 00 00 00 00
       0.0 0.0 0.0 0.0
0001f0 00 00 00 00 00 00 00 00 00 00 00 00 00 00 00 00
       0.0 0.0 0.0 0.0

network_body.linear_encoder.seq_layers.2.weight f4 [128, 128]
000000 e4 8c e3 bd ff 89 9c bd 11 5a c7 bc 41 08 8f 3e
       -0.11110857 -0.07643508 -0.02433494 0.27935985
000010 31 1e 1c 3e e6 2d 71 be 83 1e eb 3d e0 66 a3 3a
       0.15245892 -0.23552665 0.11480429 0.0012466572
000020 bb dd 2c 3e db 2b a8 bd e7 94 c0 3d be 3e fd 3b
       0.16881458 -0.0821149 0.09403401 0.0077284267
000030 da 97 9e bc b4 4a 04 bd b8 73 65 3d 6d af f9 3d
       -0.019359518 -0.032297805 0.05601856 0.12191663
000040 d3 b4 6f bd dc ee 8d 3d 71 5c 4a 3c 37 be 1d 3e
       -0.058522057 0.069303244 0.012351141 0.15404592
000050 db bb 07 bc e8 38 02 3e ff af 2f 3c 19 61 e7 3d
       -0.008284534 0.1271702 0.010723113 0.11297817
000060 08 42 df 3c 4a 4b 9f 3d 63 92 c3 bc 56 2e ea bc
       0.027253166 0.07778032 -0.023873514 -0.028586548
000070 a5 b3 05 be 8f 71 ac bd 2f b8 24 be b5 42 a8 3c
       -0.1305681 -0.08420097 -0.16085885 0.02053962
000080 c7 a6 29 bd 49 23 1c bb 1c 81 39 be 3f d4 c5 3d
       -0.041418817 -0.0023824743 -0.18115658 0.09659623
000090 60 e7 89 bd 53 b0 50 bd c9 a7 e5 bd 6b 73 db bc
       -0.067335844 -0.050949406 -0.11213643 -0.026788434
0000a0 e2 64 0d 3b 1e 96 e8 3d ac 82 e3 3c 49 b9 b6 3d
       0.0021575023 0.113567576 0.02777227 0.08922059
0000b0 0b fa 1f 3d c0 a2 a5 3c 5a 76 74 bb 2b 2e 0b bc
       0.03905682 0.020219207 -0.0037301988 -0.008494894
0000c0 1a f9 76 3d 9f c3 78 bc 19 4f 34 bc 0b 85 21 bd
       0.060296156 -0.015183358 -0.0110051865 -0.03943352
0000d0 51 f7 00 3c 53 62 87 bc c7 77 b4 bc 49 bd 8b 3d
       0.007871465 -0.016526377 -0.02202977 0.06823213
0000e0 88 bb 05 bd ed af 44 be 30 4f 2c bd 30 2b 92 bc
       -0.032649547 -0.19207735 -0.042067707 -0.017842859
0000f0 7e 31 73 3e fc 67 99 3d 46 9a 29 3d bd 73 5e 3d
       0.23749349 0.074905366 0.041406892 0.054309595
000100 e2 1c bf 3c a9 a1 e6 bb e9 34 de 3d 2c b2 f2 3d
       0.023329202 -0.0070383144 0.108499356 0.1185039
000110 00 5c 37 bd 9c c3 ef ba db 39 5b be 59 f9 b5 bb
       -0.044765472 -0.0018292549 -0.21408789 -0.005553406
000120 5f fd 68 bd 7f cf 87 3e c4 5a 0f 3e a5 17 03 be
       -0.05688226 0.26525494 0.13999468 -0.12801988
000130 31 d1 73 bc 9a be da 3c cd 58 43 be 54 c9 98 bd
       -0.014881418 0.026702214 -0.19076844 -0.07460275
000140 be f0 0b bd 9f 99 1c 3d 50 ae 06 3e 90 50 29 3d
       -0.034165137 0.038232442 0.13152432 0.041336596
000150 0c 24 f2 3d b1 1d 1e bd 9e c4 d3 3b d8 0f fa 3b
       0.11823282 -0.038602535 0.0064626476 0.0076312833
000160 64 77 a8 3c ba 2c 38 3d c2 fe 21 3d 41 fb b1 bd
       0.020564742 0.04496453 0.039549597 -0.08690501
000170 4d 92 38 3d 89 2e d4 bc 84 dd 69 bb 4a ef 76 3d
       0.0450614 -0.025901096 -0.0035685012 0.060286798
000180 c6 76 51 3d b5 7f 76 bd 76 6c 95 bd 54 ad 91 bd
       0.05113866 -0.060180385 -0.07296078 -0.07113138
000190 f4 07 72 be cd 84 ee 3d e0 2d 69 bd 24 66 25 be
       -0.23635846 0.116464235 -0.056928515 -0.16152245
0001a0 a0 b7 27 3e 58 29 14 3d da f9 da 3d 3e 31 cb bd
       0.16378641 0.03617224 0.10692187 -0.099215016
0001b0 c7 42 85 bd a5 03 8d 3d 36 1b ab 3d 00 c5 f2 3c
       -0.065068774 0.06885461 0.083547994 0.029634953
0001c0 ab 79 80 bd 57 9b 2a 3d d3 3b 18 3d c4 6a b2 3d
       -0.06273206 0.04165205 0.037166428 0.0871177
0001d0 0d 28 82 bd e9 0e a6 bb 93 77 00 be 5d 52 3b bd
       -0.06355295 -0.0050676954 -0.12545614 -0.045732845
0001e0 28 e3 9f bb 33 11 08 bd 1d 9c 04 be f6 b0 6d bc
       -0.004879374 -0.033219527 -0.12950177 -0.014507523
0001f0 0c 22 3c 3d b7 05 0b 3c 35 b6 71 bd ed 7f e0 3d
       0.045930907 0.008485249 -0.059011657 0.109619
000200 c3 5c a2 bc 76 d2 06 3d 9e e6 88 bc b0 51 3b 3d
       -0.019819623 0.032915555 -0.01671153 0.0457322
000210 d1 7b e0 3b 10 9e 0b bd d0 96 51 bd 15 39 e5 3c
       0.0068506976 -0.034086287 -0.051169217 0.02798132
000220 b1 c0 a7 bd 75 c3 01 3e 4b 3a 0a 3d 76 b9 90 bc
       -0.0819105 0.12672217 0.033747 -0.01766656
000230 8d 9d a4 bd d9 fd cf bb fe 28 06 bd cb e1 86 bc
       -0.08037863 -0.0063473997 -0.032753937 -0.016465088
000240 ef 3f 8d 3d e7 9b 2d 3e ee 93 9d bd ef 05 82 bd
       0.0689696 0.16954003 -0.07694231 -0.06348788
000250 89 b5 f7 bc 86 6a b1 bd 76 7c ca 3c 66 c8 4d 3d
       -0.03023793 -0.08662896 0.02471755 0.050239943
000260 c2 fa 07 bd 66 8a 42 3b b0 8d 90 3d fe 1f 15 be
       -0.033198126 0.0029684543 0.07058275 -0.14562985
000270 3a b8 00 bd b5 7c 54 bc 94 f2 39 be 31 38 8d bd
       -0.031425692 -0.012969186 -0.18158942 -0.06895483
000280 d8 a8 a9 3d 92 7b d9 bc 69 92 0f 3e 1f 79 c0 3d
       0.082841575 -0.02654818 0.14020695 0.09398102
000290 31 2d 95 bd 8d 67 17 3c c8 e8 db 3d 84 7c 83 bd
       -0.0728401 0.009240997 0.10737759 -0.06420234
0002a0 9e d5 c1 3d 50 f7 45 3e d6 1f 44 bd 44 9e dd bd
       0.09464572 0.19332623 -0.047881924 -0.108212024
0002b0 f4 74 dd bc a1 0b e6 3c 8a b9 89 bd bd 46 f9 bc
       -0.027033307 0.028081717 -0.06724842 -0.030429238
0002c0 17 0b 9d 3d 33 4b 04 3d bc 8e ad bd 3d 7b d5 bd
       0.07668131 0.032298278 -0.0847449 -0.104238965
0002d0 49 ba 3e bd fc cc e0 bc eb 6e a7 bd 02 97 15 bd
       -0.046564374 -0.027441494 -0.08175453 -0.036520965
0002e0 c3 f7 b3 3d 9b 17 e1 bd a8 d9 9e ba 2e 60 8a bd
       0.08787491 -0.109908305 -0.001211931 -0.06756626
0002f0 e1 c6 d9 bc 22 f6 26 3d 8e 58 f0 bd 18 e7 bc bc
       -0.02658409 0.040762074 -0.117356405 -0.023059413
000300 2a f2 b4 3d 3e ad 84 3d 9d 7a e8 bc e1 c6 70 3d
       0.08835252 0.06478356 -0.028378779 0.058783416
000310 0c 9d 21 bd 00 7a bb bc 1f a9 fa 3c e9 52 37 3c
       -0.039456412 -0.022885323 0.030598221 0.011189201
000320 1c 94 3f bd f6 75 69 3d fa af e7 bd 7c 4a fb 3d
       -0.046772107 0.056997262 -0.11312862 0.12270066
000330 d0 fc b9 3d 15 e7 25 3d 4f aa f3 3b f0 51 aa 3b
       0.09081423 0.04050358 0.007436074 0.005197756
000340 35 6d 15 3e e1 b1 2e 3d d1 af 84 bd f3 18 5f bd
       0.1459244 0.042650107 -0.06478847 -0.054467153
000350 82 7b 39 3d e3 11 09 bd 49 f9 24 bd 85 fd ee 3c
       0.0452838 -0.033464324 -0.0402768 0.029173622
000360 3b da 6e 3d f4 c6 ce 3c db d1 34 3e 1d 5c d8 bb
       0.05831359 0.025241353 0.17658179 -0.0066027776
000370 67 e5 ca 3c af 40 f7 bd e7 e0 a0 bc 4b 85 eb bb
       0.02476759 -0.12072884 -0.019638492 -0.0071875206
000380 7f 3a 4d bc 8b 31 b9 3b ef ce 0e be 5a 10 74 3d
       -0.012526154 0.005651658 -0.13946126 0.059585907
000390 66 3b 99 3d 2a 8e 87 be 57 cd 22 3d 20 02 c1 bd
       0.074820325 -0.2647565 0.03974661 -0.094242334
0003a0 f3 95 c0 3c 57 9e 43 bb dd 92 97 bd 7e 01 00 3e
       0.023509001 -0.0029849017 -0.07401059 0.12500569
0003b0 e3 e4 12 bd 0d 45 10 bd 36 79 1e bd 8d 1d 80 bc
       -0.035862815 -0.035222102 -0.038689815 -0.01563909
0003c0 e1 57 17 3d fb 67 0e bc 9c 97 3a bd d0 d0 c7 bd
       0.036949042 -0.008691783 -0.045554742 -0.09756625
0003d0 a8 4b 96 bd 11 d1 9b 3c 5d 2c 7e 3e eb 8a 05 be
       -0.07338649 0.019020589 0.24821611 -0.13041274
0003e0 0d aa 6b bd ee 31 ea 3d 43 f8 a0 bc 2b 71 51 bd
       -0.05753522 0.114353046 -0.01964963 -0.051133316
0003f0 95 3b 63 3d e1 e6 09 3d ec 1e 1d 3d c1 b2 0f 3e
       0.055476744 0.03366745 0.038359568 0.14033033
