Unity/results/ScoreGoal0/My Behavior/My Behavior-25887.onnx (onnx, 75988 bytes, 7 tensors)

action_model._continuous_distribution.log_sigma f4 [1, 5]
0	0xbb10cf26	-0.0022096126
1	0x3b3985c5	0.0028308493
2	0x39c54fbe	0.0003763418
3	0x3bbf19e6	0.0058319448
4	0x3a160dbb	0.0005724092

action_model._continuous_distribution.mu.bias f4 [5]
0	0x392a3040	0.00016230438
1	0x37185299	9.079137e-06
2	0x3862a152	5.403284e-05
3	0x3814e1c1	3.54962e-05
4	0x3881051a	6.1521496e-05

action_model._continuous_distribution.mu.weight f4 [5, 128]
0	0x3cdcf05d	0.026970083
1	0xbc3bbbf5	-0.011458387
2	0x3b81236e	0.003940991
3	0x3bc2f2ac	0.005949339
4	0xbca50716	-0.02014498
5	0xbb4e5c9b	-0.0031488303
6	0x3c160f17	0.009158871
7	0x3b883b40	0.004157454
8	0xbc25985f	-0.010107129
9	0x3c9499bf	0.018139718
10	0xbc27181f	-0.010198622
11	0xbc8a907f	-0.016914604
12	0xb9ec47f4	-0.00045067037
13	0xbc78fb90	-0.015196696
14	0xba38f1cf	-0.0007055075
15	0xbb1c9a78	-0.0023895781
16	0xbb094e79	-0.0020951314
17	0xbbd87580	-0.006605804
18	0xbcd0058e	-0.025393274
19	0xbc8b89b4	-0.017033435
20	0x3ca3041f	0.019899426
21	0x3b56dea5	0.0032786515
22	0xbc84d0a0	-0.016212761
23	0xbc29df50	-0.010368183
24	0xbaf0c3e5	-0.0018368928
25	0xbd0d6c5c	-0.034527168
26	0x3c0480a9	0.008087316
27	0x3bbe3fce	0.005805946
28	0xbc6a5cce	-0.014304353
29	0x3c669921	0.014074595
30	0xbbbd7684	-0.0057819504
31	0x3b816af3	0.003949517
32	0x3c944d36	0.018103223
33	0x3b8f86a6	0.004380065
34	0xbb919a5a	-0.004443449
35	0x3d27b413	0.040943217
36	0xbcf0bc57	-0.029386682
37	0x3b364448	0.0027811695
38	0x3c423f29	0.011855879
39	0xb975eddb	-0.00023453629
40	0xbcde0886	-0.027103674
41	0xbcbefce4	-0.023313947
42	0xbce7f6b6	-0.028315883
43	0xbc3c1543	-0.011479679
44	0xbb703361	-0.0036651718
45	0xbc0939f7	-0.008375636
46	0xbcbd8d0c	-0.023138545
47	0xbc8d9c3d	-0.017286414
48	0x3ab98bd3	0.0014156051
49	0xbb17f0ee	-0.0023184377
50	0x3ca74ba2	0.020421807
51	0x3bddf57b	0.0067736483
52	0x3c8e98db	0.017406872
53	0x3caecfa8	0.021339253
54	0xbcb688d7	-0.022282047
55	0xbc8b47eb	-0.017002067
56	0xbc5f817c	-0.013641711
57	0xbb9bc537	-0.0047537345
58	0xbcadf617	-0.021235509
59	0xbc6f560f	-0.01460792
60	0xbca8dd62	-0.020613376
61	0x3c01e479	0.007928007
62	0x3bdafbaf	0.006682835
63	0x3c930adf	0.01794952
64	0xbcec5969	-0.028851228
65	0xbc848203	-0.016175276
66	0x3c9bcb28	0.01901777
67	0x3c2a6579	0.0104001695
68	0xbc32dd55	-0.0109170275
69	0xbbe559a7	-0.006999213
70	0xbd06d56e	-0.032918386
71	0xbc325d4a	-0.0108865
72	0x3b4e5632	0.0031484482
73	0xbc05f001	-0.008174897
74	0x3c628604	0.013825897
75	0x390fbef8	0.00013708684
76	0x3a2b19e9	0.0006526993
77	0x3d05088d	0.032478858
78	0xbc557a4b	-0.013029645
79	0x3c96eca3	0.018423384
80	0xbcc0ed5e	-0.023550685
81	0x3badeb38	0.0053075813
82	0xbc133e3e	-0.008987008
83	0x3cc1e22a	0.023667414
84	0x3cf3390d	0.02969029
85	0x3cca168a	0.02466895
86	0xbb990281	-0.004669488
87	0xbc67c5f1	-0.014146314
88	0x3b99e701	0.0046967273
89	0xbc6edefc	-0.014579531
90	0x3c2809af	0.010256215
91	0xbbf1d967	-0.0073806527
92	0xbcea1c3c	-0.028577916
93	0x3cb6a7e9	0.022296863
94	0xbc175a9f	-0.009237914
95	0xbba7be8e	-0.0051191514
96	0x3c808323	0.01568753
97	0x3c81be3c	0.015837781
98	0xbce41d8d	-0.027846122
99	0x3bfdcaa7	0.0077451053
100	0x3d11260e	0.035436682
101	0x3b2d3ad5	0.0026432772
102	0xbc4ddd08	-0.012564905
103	0x3bc6a9ca	0.006062721
104	0xbc805301	-0.01566458
105	0xbcda5340	-0.026651025
106	0xbca1daef	-0.019757716
107	0xbc55e90b	-0.01305605
108	0xbc161768	-0.009160854
109	0xbcf8ef64	-0.030387588
110	0x3bb39d31	0.005481385
111	0xbcb75f3a	-0.022384275
112	0x3b9713fe	0.0046105376
113	0x3bf6e9fb	0.007535217
114	0xbafd359d	-0.0019318346
115	0xbc5b85ff	-0.013398646
116	0x3ad72c2c	0.0016416362
117	0xbbe8c2ea	-0.0071033137
118	0xbc0680ba	-0.008209402
119	0xbbfe7188	-0.007764999
120	0xbd0ecf5b	-0.03486572
121	0xbd157d8b	-0.03649668
122	0x3bf8eb52	0.0075964117
123	0x3c7f4aa5	0.0155817615
124	0x3cb1f19d	0.021721656
125	0xbc271a93	-0.010199207
126	0xbb1678fa	-0.0022960291
127	0xbca7cfdc	-0.020484857
128	0xbc7750de	-0.015094964
129	0x3c583fb3	0.013198781
130	0x3c50e1e9	0.012749174
131	0xbb950323	-0.004547493
132	0x3cace72b	0.021106323
133	0x3aedea82	0.0018151554
134	0xbcc7b0fe	-0.024376389
135	0x3c066d00	0.008204699
136	0xbb8679b1	-0.004103862
137	0xbc43c87f	-0.011949657
138	0xbc1c4d47	-0.009539909
139	0x3cc8842f	0.024477093
140	0xbce4dcbf	-0.027937291
141	0x3b453f01	0.0030097368
142	0xba1339aa	-0.00056161976
143	0xbbe5cc3a	-0.007012871
144	0x3c404328	0.011734761
145	0x3c2e2a1b	0.010630156
146	0x3c121443	0.008915964
147	0xbba11b83	-0.0049166097
148	0xbb146fa8	-0.002264956
149	0xbc09e169	-0.008415558
150	0x3c0e81ff	0.008697986
151	0xbc8ea84f	-0.01741424
152	0xbca99f02	-0.020705704
153	0xbb519be9	-0.0031983799
154	0x3baa6841	0.0052004163
155	0x3cc4e3c6	0.024034392
156	0xbc98e970	-0.018666
157	0x3d153c1c	0.036434278
158	0xbc525545	-0.012837713
159	0x3d00ee82	0.03147746
160	0x3ae6bfd5	0.0017604778
161	0x3d2d8df8	0.04237172
162	0xbbc360ac	-0.005962452
163	0x3bcd1c20	0.0062594563
164	0x3c6a104a	0.01428611
165	0x3b85cea0	0.0040834695
166	0xbbeb46dc	-0.007180078
167	0xbd13b4cc	-0.036061093
168	0x3bd04f4b	0.0063571087
169	0xbb0ff8a8	-0.002196828
170	0xbce9886d	-0.028507436
171	0x3c006f71	0.00783907
172	0xbc91a00c	-0.017776512
173	0x3baacfa4	0.005212741
174	0x3b3c0794	0.002869104
175	0x3cce9680	0.025218248
176	0xbd008d76	-0.031384908
177	0x3d224c2a	0.039623417
178	0xbc52c3d0	-0.012864068
179	0xbc7f6a60	-0.015589327
180	0x3c9d9ca2	0.019239727
181	0x3a02c94b	0.00049891014
182	0xbb7c4703	-0.0038494475
183	0xbcaf4f04	-0.021399982
184	0xbc75958d	-0.014989269
185	0x3c45e34e	0.012078119
186	0xbc4a184f	-0.012334897
187	0xbc3669ec	-0.011133652
188	0xbcef79b6	-0.029232841
189	0x3c4fd525	0.012685095
190	0x3c963310	0.018334895
191	0xbbaee186	-0.005336943
192	0x3c2eb017	0.0106621
193	0xbc1dc2f7	-0.009629003
194	0xbd23c1d7	-0.039979782
195	0x3c031d58	0.008002602
196	0xbc5c2f5a	-0.013439024
197	0xbc242b9c	-0.010020163
198	0x3c4d7493	0.0125400005
199	0x3b70c7cb	0.003674018
200	0x3b8e97b5	0.004351581
201	0xbceb2c8d	-0.028707767
202	0x3b8358ac	0.0040083732
203	0x3c60ab02	0.013712646
204	0xbd03bd2b	-0.032162827
205	0x3c820b2e	0.015874472
206	0x3ce3f280	0.027825594
207	0xbc2c3cbb	-0.010512526
208	0x3c940926	0.018070769
209	0x3bb28c00	0.005448818
210	0x3b450cac	0.0030067367
211	0xbcb849a6	-0.022496056
212	0xbc831e00	-0.016005516
213	0x3c7e3970	0.015516624
214	0xbbdc37c0	-0.006720513
215	0x3b08da95	0.0020882238
216	0x3c648148	0.013946839
217	0x3bab6699	0.0052307365
218	0xbbc03cb8	-0.0058666132
219	0x3b1c5cc0	0.0023858994
220	0x3bf954d2	0.0076089883
221	0xbc17c836	-0.009264043
222	0x3c3fd995	0.01170959
223	0xbcac8302	-0.021058563
224	0xbd087be6	-0.033321284
225	0x3b58e61b	0.0033096138
226	0x3cfede31	0.031111808
227	0xbaf36584	-0.0018569683
228	0x3c56869e	0.013093619
229	0x3d0a6cbd	0.033795107
230	0x3c0489ee	0.008089526
231	0x3cc2d778	0.023784384
232	0x3c27ef71	0.010249958
233	0xbd04e500	-0.032444954
234	0x3b59597a	0.0033164904
235	0xbb9d1362	-0.0047935704
236	0xbc38bbe0	-0.011275262
237	0x3aae6b50	0.0013307128
238	0xbccf81ab	-0.025330385
239	0xbb888ddc	-0.0041673016
240	0xbb425289	-0.0029651246
241	0xbcf589b2	-0.029972885
242	0xba658ffe	-0.0008757113
243	0xbcb1181e	-0.021617945
244	0xbb9b7d91	-0.0047451933
245	0x3c3a6f5d	0.01137909
246	0xbbd3c170	-0.0064622685
247	0x3c703e66	0.014663314
248	0x3aa84763	0.0012838658
249	0x3c891e0f	0.016737966
250	0x3c87c7a7	0.016574694
251	0xbc9b0cae	-0.018926945
252	0x3c679fa2	0.0141371805
253	0x3c65d412	0.014027612
254	0x3c9d0e14	0.019171752
255	0xbc4eec9a	-0.012629652

network_body.linear_encoder.seq_layers.0.bias f4 [128]
0	0x3af82928	0.0018933164
1	0xbb0b5676	-0.0021261252
2	0xb8e8038e	-0.00011063284
3	0xba8fb7e5	-0.0010964839
4	0xb9ad08f2	-0.00033003796
5	0x3a7ec33e	0.00097184244
6	0x3a89ca62	0.0010512585
7	0xba6eb31c	-0.0009105669
8	0x39741be4	0.00023280043
9	0x39c4c276	0.00037528918
10	0x3a987986	0.0011632896
11	0x3a2d78b9	0.00066174153
12	0xbb375233	-0.0027972579
13	0xbae8da6c	-0.001776529
14	0xba7e237e	-0.000969462
15	0x3a865165	0.0010247646
16	0xb7a4a8e6	-1.9628973e-05
17	0xbaa45389	-0.0012537102
18	0xb276dfdc	-1.4369984e-08
19	0xb95d7972	-0.00021121444
20	0x39911398	0.00027671154
21	0xba396896	-0.00070727745
22	0xbb31fc60	-0.0027158484
23	0xba0e4237	-0.0005426737
24	0xb8205fc9	-3.823618e-05
25	0x3a215fae	0.000615592
26	0x3a719586	0.0009215701
27	0xa9acacff	-7.6683444e-14
28	0xb9435386	-0.00018627764
29	0xb7038f6d	-7.841602e-06
30	0x2e0cdae0	3.2026715e-11
31	0x3a4bf500	0.00077803433
32	0x3a313aae	0.0006760758
33	0x2f34dd94	1.6449625e-10
34	0xb9833def	-0.0002503241
35	0xa9239b5f	-3.6328034e-14
36	0xba291aea	-0.0006450849
37	0x378c4ddc	1.6725557e-05
38	0xba3755d7	-0.0006993687
39	0xb990caff	-0.00027617064
40	0xb65c4154	-3.282058e-06
41	0xb9ff702c	-0.00048720965
42	0x3a2eebd8	0.00066727167
43	0x39a24af8	0.00030954904
44	0x3a5dad72	0.00084563263
45	0x3a30eca5	0.000674913
46	0xb8cc18e3	-9.7321135e-05
47	0xb7c5dc6a	-2.3586868e-05
48	0xb9a76eae	-0.00031935185
49	0xb7a03b86	-1.9101204e-05
50	0x39112f74	0.00013845955
51	0x397a6e07	0.00023882846
52	0xbad46d8c	-0.0016206964
53	0xb9035590	-0.00012525008
54	0xbabc2b15	-0.0014356101
55	0xba3456e9	-0.00068794057
56	0x3945bafa	0.00018857038
57	0x39c4672f	0.0003746091
58	0x3b31da5d	0.0027138211
59	0xba4f4c2e	-0.0007907775
60	0x396825d9	0.00022139343
61	0xb9c43a03	-0.00037427255
62	0x39593c29	0.00020717144
63	0x39882910	0.00025970535
64	0xba171692	-0.0005763556
65	0xb9d326f1	-0.0004027407
66	0x3a5529e7	0.0008131549
67	0x39ab333d	0.00032653837
68	0x3384a04d	6.1758875e-08
69	0xb7c855e1	-2.3881848e-05
70	0xb918bcf1	-0.00014566236
71	0x3abfef4f	0.0014643463
72	0xba4f70d9	-0.0007913239
73	0x397f301a	0.00024336614
74	0xba1f4ea3	-0.00060770864
75	0xb9ef1fff	-0.0004560947
76	0x3a6c455e	0.0009013022
77	0xb991b54e	-0.00027791638
78	0x3716fde8	8.999814e-06
79	0xba45393d	-0.0007523483
80	0xb9af0e6e	-0.00033389352
81	0xba7cdf70	-0.0009646332
82	0x3a8b1d36	0.0010613564
83	0x38236dd5	3.8964517e-05
84	0xb9df672a	-0.00042610738
85	0xb9685e97	-0.00022160482
86	0xbb4fbb77	-0.003169743
87	0x38b9cd4a	8.8597255e-05
88	0x2cdce170	6.2778047e-12
89	0x384c32a6	4.868456e-05
90	0xb8117b24	-3.4685378e-05
91	0x3992371c	0.0002788835
92	0xba8abac8	-0.001058423
93	0xba5a6ef4	-0.00083325733
94	0x396deed5	0.00022691053
95	0xbaaf9a2f	-0.0013397391
96	0x38846dc1	6.314694e-05
97	0xb9d9c9ba	-0.00041539763
98	0x3ab6e9b9	0.0013955153
99	0xb712a1c7	-8.739945e-06
100	0x3b678e97	0.0035332793
101	0x3ac88a25	0.0015299959
102	0xb8cc9c68	-9.756611e-05
103	0xb9e396dc	-0.00043409213
104	0x263ff8a1	6.660339e-16
105	0x3a46cc62	0.0007583556
106	0x39e44dc3	0.00043545486
107	0xb9d49311	-0.00040545364
108	0xba1273ae	-0.00055866956
109	0xbaa242ba	-0.0012379505
110	0xba246488	-0.0006271084
111	0x3b682e3a	0.0035427944
112	0xb03d7e2b	-6.8937095e-10
113	0x385d5cd3	5.2776955e-05
114	0xb9b8664f	-0.0003517144
115	0xb96c3771	-0.00022527367
116	0x3a568f09	0.0008184766
117	0x3957c348	0.00020576746
118	0x3ab965b2	0.0014144687
119	0xbb83a411	-0.004017361
120	0x3acec590	0.0015775431
121	0xba2b5c28	-0.00065368647
122	0xba074ca3	-0.0005161261
123	0xba2b98d6	-0.00065459067
124	0xb980955b	-0.0002452534
125	0x375320e1	1.2584235e-05
126	0xbabbadf7	-0.0014318813
127	0xb99000b7	-0.00027466353

network_body.linear_encoder.seq_layers.0.weight f4 [128, 9]
0	0xbeb57843	-0.35443315
1	0x3e89e513	0.26932582
2	0xbf36dd6b	-0.71431607
3	0xbf7b9b93	-0.9828426
4	0x3eabaed6	0.33531827
5	0xbe873021	-0.26403907
6	0xbedc845c	-0.43069732
7	0x3f016989	0.5055166
8	0x3f1a9681	0.603859
9	0xbe1961dd	-0.14978738
10	0xbef09973	-0.46992072
11	0xbe8e82a0	-0.27834034
12	0x3dce5435	0.10074655
13	0x3e4c6ebe	0.1996412
14	0x3dc44e03	0.09585192
15	0xbe10aa7b	-0.14127533
16	0x3f2efd13	0.6835491
17	0x3eacb895	0.33734575
18	0xbdae66a3	-0.0851567
19	0xbed48604	-0.41508496
20	0x3e3c9cb6	0.18419155
21	0x3ed5a027	0.4172375
22	0x3c38b286	0.011273032
23	0xbeea9b81	-0.45821765
24	0x3ed8f0b0	0.4237113
25	0xbe1cbdda	-0.15306798
26	0x3ea1d10e	0.3160481
27	0xbe968d52	-0.29404694
28	0xbf4f65f9	-0.8101497
29	0x3e89fb95	0.26949754
30	0x3dab5fed	0.08367906
31	0xbea35d2a	-0.31907016
32	0x3e340bf4	0.17582685
33	0xbc14ef72	-0.009090291
34	0xbe17a483	-0.1480885
35	0xbd2bf52b	-0.041981857
36	0xbda9e180	-0.08294964
37	0x3f1006cb	0.56260365
38	0xbe984e48	-0.29747224
39	0x3ed1c1a5	0.40968052
40	0xbe3ef0ff	-0.1864662
41	0x3e34fd45	0.1767474
42	0xbe551588	-0.20808995
43	0x3ee206bf	0.44145772
44	0x3eb5262d	0.35380688
45	0xbeb68867	-0.35650942
46	0x3d18e460	0.03732717
47	0xbe9ab44a	-0.30215675
48	0x3e08939c	0.13337559
49	0x3e5e7656	0.21724829
50	0x3e25bf4b	0.16186254
51	0x3d7d86fd	0.061896313
52	0x3dfb4207	0.12268453
53	0x3ed35ea1	0.41283134
54	0xbe3cd8d9	-0.18442096
55	0xbea8a6e7	-0.32939836
56	0x3f0abe5f	0.54196733
57	0xbda0ccbc	-0.0785155
58	0x3c23074e	0.009950472
59	0x3e8e1a9e	0.27754682
60	0xbee5b4a2	-0.44864374
61	0x3e200706	0.15627679
62	0x3ec124cd	0.3772339
63	0x3f065243	0.5246927
64	0x3e970fae	0.2950415
65	0x3e140114	0.14453536
66	0xbdc97832	-0.098373786
67	0xbe80471a	-0.25054246
68	0xbdb81689	-0.08988673
69	0xbeb19d8c	-0.3469051
70	0x3eceb278	0.40370536
71	0x3edb9a62	0.42891222
72	0xbe6e1026	-0.23248348
73	0x3dc73f85	0.09728912
74	0xbf225da7	-0.6342415
75	0x3e6ea168	0.23303759
76	0xbdbeb29b	-0.0931141
77	0x3bb8548a	0.005625312
78	0x3e5a9d1a	0.21348992
79	0xbe90d580	-0.28287888
80	0x3a218b30	0.0006162403
81	0xbc9a75db	-0.018855026
82	0xbe599b93	-0.21250753
83	0x3eaf4570	0.34232664
84	0x3e8f023f	0.279314
85	0x3e443668	0.1916138
86	0xbd930bec	-0.07180008
87	0xbd745e0a	-0.059659995
88	0xbdebd33a	-0.11514898
89	0xbf46ddc2	-0.77682126
90	0x3ab91e45	0.0014123401
91	0xbe63e857	-0.222566
92	0x3c99c091	0.01876858
93	0xbf10dc91	-0.5658656
94	0xbe45ac55	-0.1930402
95	0x3e244fe1	0.16046096
96	0xbf084a10	-0.5323801
97	0xbe9cb7ac	-0.3060888
98	0x3f181511	0.59407145
99	0x3d30eb36	0.043193065
100	0xbe8ee41a	-0.27908403
101	0xbe99eca9	-0.3006337
102	0xbf1c220f	-0.6098947
103	0x3e52857f	0.20558737
104	0x3c2c7a3c	0.01052719
105	0xbe300c70	-0.17192245
106	0xbe6f3ccb	-0.23363034
107	0x3e771985	0.24130829
108	0x3eaa5206	0.33265704
109	0xbed4943b	-0.4151934
110	0x3f01d453	0.50714606
111	0xbeacd969	-0.3375962
112	0xbb6b98a0	-0.0035949126
113	0x3e148884	0.14505202
114	0xbe8b8d48	-0.27256227
115	0x3dd9803c	0.10620162
116	0x3eba7d04	0.36423504
117	0x3e4622b7	0.1934918
118	0xbeaccad2	-0.3374849
119	0x3ccb442e	0.024812784
120	0xbebd4fc7	-0.36974928
121	0xbe692626	-0.22768459
122	0xbcc6446b	-0.024202546
123	0x3f1ab976	0.6043924
124	0xbd6d5972	-0.05794663
125	0xbe8cf263	-0.27528676
126	0xbdad71e2	-0.08468987
127	0xbe740bad	-0.23832579
128	0xbeac2bca	-0.33627158
129	0x3d0a657a	0.03378818
130	0x3d7df4c1	0.062000994
131	0xbd151537	-0.036397185
132	0xbcdf8065	-0.027282903
133	0xbf0a1120	-0.5393238
134	0x3e12a730	0.1432159
135	0xbe76c9cc	-0.24100417
136	0x3ec31cf0	0.38108015
137	0x3e40b0e1	0.18817474
138	0x3eeb3be9	0.45944145
139	0x3ea07ce3	0.3134528
140	0x3d221a04	0.03957559
141	0xbd622de3	-0.055219542
142	0xbdb87c95	-0.09008137
143	0x3ec8e9f6	0.39240998
144	0xbe01bbca	-0.12669292
145	0xbe8f5894	-0.27997267
146	0x3e71f57e	0.23628804
147	0xbd97d910	-0.07414448
148	0xbeadadbf	-0.3392162
149	0xbe0914b9	-0.13386811
150	0x3f90cf41	1.1313249
151	0x3ee0e4e3	0.43924627
152	0x3d5dabb3	0.054118823
153	0xbe7d6dbc	-0.24748892
154	0x3eaca43e	0.33719057
155	0x3eb08d72	0.34482914
156	0xbe3d2b0f	-0.18473457
157	0xbe1a1464	-0.15046841
158	0x3e56d066	0.20977935
159	0x3e4f1e19	0.20226325
160	0xbeaeec27	-0.34164545
161	0xbdf5e149	-0.1200586
162	0xbdf0d988	-0.11760241
163	0xbd717be4	-0.058956042
164	0x3ed3b324	0.4134761
165	0xbd004c0a	-0.031322517
166	0x3eca3649	0.3949454
167	0x3d44d7a7	0.048057225
168	0xbed9b4d4	-0.42520773
169	0x3f5ae29b	0.8550202
170	0xbebe0123	-0.37110242
171	0xbea512d5	-0.3224093
172	0xbf23890d	-0.63881
173	0xbccbf0c1	-0.024895074
174	0x3e009780	0.12557793
175	0xbe56666b	-0.20937507
176	0x3f0b08c3	0.54310244
177	0xbc1a2628	-0.009408511
178	0x3ee23529	0.44181183
179	0x3edc7e30	0.43065023
180	0x3eb34f00	0.3502121
181	0xbda68da9	-0.08132488
182	0x3de898b6	0.11357252
183	0xbda4b45a	-0.08042212
184	0xbe9d06ee	-0.3066935
185	0x3e4ebb3e	0.20188615
186	0x3d55374e	0.052054696
187	0x3ed1fa23	0.41011152
188	0x3d9fb540	0.077982426
189	0xbee2cf89	-0.44298962
190	0xbedfadc1	-0.4368725
191	0x3e2bd443	0.1678019
192	0xbf332479	-0.6997753
193	0x3e1b972b	0.15194385
194	0x3f0ef735	0.5584596
195	0x3e4738cb	0.19455259
196	0x3ea76821	0.32696632
197	0xbd2c135d	-0.042010654
198	0xbee1484b	-0.44000468
199	0xbe93c38e	-0.28860134
200	0x3e5d1683	0.21590619
201	0xbe46e308	-0.19422543
202	0xbe4f868c	-0.2026617
203	0xbec2354b	-0.37931284
204	0xbe49e20e	-0.1971514
205	0xbea184da	-0.3154667
206	0xbd8de966	-0.06929283
207	0x3e81c796	0.25347584
208	0xbea62c47	-0.32455656
209	0xbd0968f4	-0.033547357
210	0xbeeed0a3	-0.46643552
211	0x3d2c40bf	0.042053934
212	0x3df21f5b	0.11822387
213	0x3e2c995c	0.16855377
214	0x3f20d0b9	0.62818485
215	0xbebd2416	-0.36941594
216	0x3e073fa4	0.1320787
217	0x3d4297a9	0.047507916
218	0xbeac056c	-0.33597887
219	0x3eee624d	0.46559373
220	0x3e765637	0.24056326
221	0xbeadb648	-0.33928132
222	0x3e21b48a	0.15791526
223	0x3e4cbb6e	0.19993374
224	0x3e045afa	0.1292533
225	0xbe39836a	-0.18116537
226	0xbebf516c	-0.37366807
227	0x3ee69a12	0.4503942
228	0x3f03d6be	0.51499546
229	0xbe5d76fa	-0.21627417
230	0x3d3f406d	0.0466923
231	0xbe82ad9e	-0.25523084
232	0x3ef85d32	0.48508602
233	0xbe5af985	-0.21384247
234	0x3dd514a4	0.104043275
235	0x3f09aee5	0.5378249
236	0xbed14729	-0.40874603
237	0x3e900e2c	0.28135812
238	0x3ea65c40	0.32492256
239	0x3c488721	0.0122392485
240	0xbe59c781	-0.21267511
241	0xbef04341	-0.4692631
242	0xbe9fc5aa	-0.31205493
243	0xbe399922	-0.18124822
244	0xbf12ac63	-0.5729429
245	0xbeb6f7ab	-0.3573583
246	0x3e3e9d3e	0.1861467
247	0x3e8800de	0.26563162
248	0xbe09cea6	-0.13457736
249	0xbf073c30	-0.52826214
250	0xbe9142a2	-0.2837115
251	0x3f26fe63	0.65231913
252	0xbe962249	-0.29323032
253	0xbf01a479	-0.5064159
254	0xbeaf71fa	-0.34266645
255	0x3ebfbb60	0.37447643

network_body.linear_encoder.seq_layers.2.bias f4 [128]
0	0xba5c2013	-0.00083971134
1	0xb9ed332e	-0.00045242294
2	0xb803c38c	-3.141495e-05
3	0xba48c45c	-0.00076586544
4	0xb8ed5b10	-0.00011318002
5	0xbabbfbe3	-0.0014342036
6	0xb975e632	-0.00023450775
7	0xba3032bb	-0.00067214266
8	0x97a2f4f4	-1.0530839e-24
9	0xba94aace	-0.0011342408
10	0xb930e1bb	-0.00016868759
11	0x96a53903	-2.6693167e-25
12	0xb188a471	-3.9768158e-09
13	0x2df9583f	2.8347212e-11
14	0xbb49fb35	-0.0030819897
15	0x2bac70dc	1.225266e-12
16	0xb97ce680	-0.0002411846
17	0xa04c0653	-1.7281565e-19
18	0xb9632127	-0.00021660757
19	0xb9455abc	-0.00018821185
20	0xb9445de2	-0.0001872699
21	0x377f0fa6	1.5202828e-05
22	0xb931fa0b	-0.00016973184
23	0xb8c32dc4	-9.306849e-05
24	0xb99d36e0	-0.0002998626
25	0xb98bf831	-0.00026697063
26	0x3a78140e	0.00094634376
27	0xba5102ee	-0.0007973154
28	0xbaa3a4e1	-0.0012485051
29	0xb914822e	-0.00014162876
30	0xbb0b4c93	-0.0021255359
31	0xb8ae7155	-8.318076e-05
32	0xb8a6ae62	-7.947978e-05
33	0xb90a4f21	-0.00013190183
34	0xba0be76c	-0.0005336914
35	0x38710b80	5.7469588e-05
36	0xb96f6306	-0.00022829705
37	0x3a091178	0.00052287383
38	0xba74f424	-0.0009344241
39	0xba620890	-0.0008622492
40	0x39a362a6	0.00031163282
41	0xba261c80	-0.00063366443
42	0xb958929d	-0.00020653983
43	0xb9e0c81c	-0.00042873702
44	0xba2cc16a	-0.00065901
45	0x39c7ebe9	0.00038132005
46	0xbaad54fe	-0.0013224182
47	0xb98e5db3	-0.00027154162
48	0x39eba331	0.0004494428
49	0x3974d3ad	0.00023348509
50	0xbaa88b23	-0.0012858849
51	0xba6a28f3	-0.00089324935
52	0x3930d915	0.00016865537
53	0x38b8f647	8.8196764e-05
54	0xa66eea68	-8.2890517e-16
55	0xb9aadabe	-0.00032587902
56	0xba3609d3	-0.0006944213
57	0xba2bea43	-0.000655804
58	0xb90a8c46	-0.00013212961
59	0xb951c202	-0.00020004067
60	0xb8423c97	-4.6309633e-05
61	0xb9e215d1	-0.00043122334
62	0xb4ec1520	-4.3973796e-07
63	0xbb3c1e9e	-0.0028704773
64	0xba26228f	-0.0006337547
65	0x3a6b5efa	0.0008978691
66	0xb904d19f	-0.00012666591
67	0x390f4d59	0.00013666357
68	0x3a2110a1	0.00061441405
69	0xbb204922	-0.0024457653
70	0x2aca3384	3.5918154e-13
71	0xb96f33b4	-0.00022812077
72	0xba01f98b	-0.0004958144
73	0xb9f43fc6	-0.00046586822
74	0x3781d3b7	1.5476586e-05
75	0xa8dcc533	-2.4510428e-14
76	0xba52bf31	-0.0008039354
77	0xb91399be	-0.00014076286
78	0xba7f825d	-0.00097469037
79	0xb8e3dfec	-0.00010865912
80	0xb9adf02f	-0.00033176082
81	0xbb0c0e3e	-0.0021370794
82	0xba546a04	-0.0008102956
83	0xb91eb77c	-0.00015136407
84	0x37f92d06	2.9704079e-05
85	0x3a00b847	0.0004910272
86	0xba601d7d	-0.0008549316
87	0xba1cae6c	-0.00059769186
88	0xb7d355fc	-2.51932e-05
89	0x39dfd002	0.00042688852
90	0x3a054470	0.00050837453
91	0xba6fb6aa	-0.00091443455
92	0x31ace006	5.0313274e-09
93	0xb80b2647	-3.317583e-05
94	0xba32c54d	-0.0006819561
95	0x3a880551	0.0010377561
96	0xb8bf69d2	-9.1273e-05
97	0xba554639	-0.0008135769
98	0xb905987d	-0.00012740675
99	0xbac830ae	-0.0015273297
100	0xb8eb894c	-0.00011231247
101	0xb9193e03	-0.00014614318
102	0xb97c4a85	-0.00024060353
103	0x39f7d608	0.00047270977
104	0x39cd893f	0.00039202903
105	0x371de4d4	9.411207e-06
106	0x39896796	0.00026207854
107	0xb986cbcf	-0.0002571032
108	0x395dfd0a	0.00021170467
109	0xb8ac29ba	-8.209371e-05
110	0xa98aaaee	-6.158083e-14
111	0x3ab991b9	0.0014157809
112	0xb9e3bd7a	-0.00043437985
113	0xbaf6e247	-0.0018835746
114	0xb89c7618	-7.460656e-05
115	0xb8340ccf	-4.2927273e-05
116	0x38d8dbf3	0.00010340651
117	0xb907e79e	-0.00012960887
118	0xba85a525	-0.0010196312
119	0xba9176a4	-0.001109798
120	0xbb867ab3	-0.0041039824
121	0x395fa8b9	0.00021329791
122	0xb931e191	-0.00016964065
123	0xb93dfda6	-0.00018118936
124	0x1cbcd702	1.2496375e-21
125	0x2b544005	7.5406375e-13
126	0xb9878c06	-0.00025853532
127	0xb91355c2	-0.0001405096

network_body.linear_encoder.seq_layers.2.weight f4 [128, 128]
0	0x3bf882f3	0.0075839697
1	0xbd08932b	-0.033343475
2	0xbbc7e8a7	-0.0061007324
3	0x3d75ebdc	0.060039386
4	0xbd1c7591	-0.038198058
5	0x3c65012a	0.013977328
6	0xbe419877	-0.18905817
7	0x3cd6ea2b	0.026234707
8	0xbde2aa49	-0.110676356
9	0x3e0fc5b1	0.14040257
10	0xbd682c20	-0.056682706
11	0xbce48241	-0.027894141
12	0x3d2e8c2c	0.042614147
13	0x3bd5c49f	0.006523683
14	0xbd018205	-0.031618137
15	0x3e07208a	0.13196006
16	0xbc614f3b	-0.0137518
17	0xbdd493eb	-0.103797756
18	0x3db1c1db	0.08679553
19	0xbd6ac62f	-0.05731791
20	0xbc8a1e0f	-0.016860036
21	0x3d693957	0.05693945
22	0xbd2c4b0d	-0.04206376
23	0x3cace57f	0.021105526
24	0x3d74a03f	0.059723135
25	0x3e3a1376	0.18171486
26	0x3d689601	0.05678368
27	0xbde9d12a	-0.11416848
28	0x3d3fa4e1	0.0467881
29	0x3b927d37	0.004470493
30	0xbc2b97ca	-0.010473201
31	0xbb874356	-0.0041279
32	0xbb266361	-0.0025388824
33	0x3d97dac1	0.07414771
34	0x3d83bfd5	0.064330734
35	0xbc268b88	-0.010165103
36	0xbc9f144b	-0.019418856
37	0x3d6a7c44	0.057247415
38	0x3d03ca51	0.032175366
39	0xbdf27043	-0.118378185
40	0xbc04a2ac	-0.008095425
41	0xbcbaf342	-0.022821072
42	0xbd2b5790	-0.041831553
43	0x3dfe92a8	0.12430316
44	0x3ccaf8b3	0.024776792
45	0x3c2011e1	0.009769888
46	0xbce33521	-0.027735295
47	0xbdf1dc34	-0.118095785
48	0xbd2cb5e6	-0.04216566
49	0xbd6dcea3	-0.058058392
50	0xbdfa2e89	-0.12215907
51	0xbe83feb1	-0.25780252
52	0xbd70c8d9	-0.058785293
53	0xbdaacd4c	-0.083399385
54	0x3c4f2726	0.012643611
55	0x3dc656f3	0.09684553
56	0x3d759b03	0.059962284
57	0xbd7dac4e	-0.0619319
58	0x3dac8698	0.08424109
59	0x3e52168d	0.20516415
60	0x3d0f177c	0.034934506
61	0x3d0c5848	0.03426388
62	0x3d9a86a3	0.07545211
63	0xbe1de58c	-0.15419596
64	0xbdad8433	-0.084724806
65	0xbd7ca3a7	-0.06167951
66	0xba972e5e	-0.0011534204
67	0x3d86b3fc	0.06577298
68	0x3ca4326e	0.020043578
69	0x3d98eae5	0.074666776
70	0x3c2a2653	0.010385114
71	0xbc89d687	-0.016825927
72	0xbd15e4a2	-0.036594994
73	0x3c0e6dac	0.00869314
74	0xbd04043a	-0.032230593
75	0x3d777172	0.060410924
76	0x3d401389	0.04689363
77	0x3ddc9ee4	0.107724935
78	0xbe4a811c	-0.19775814
79	0xbc935216	-0.017983478
80	0x3d7facbd	0.062420595
81	0x3e6358fa	0.2220191
82	0xbd16f0e1	-0.036850814
83	0x3dfed5f2	0.124431506
84	0xbe317362	-0.17329171
85	0x3d817d78	0.063227594
86	0xbd9bc03b	-0.076050244
87	0x3cb2d698	0.021830842
88	0xbd5600b3	-0.05224676
89	0xbe0014a2	-0.12507871
90	0x3e051d82	0.12999538
91	0xbd6bef12	-0.057601042
92	0xbdbdaee6	-0.09261875
93	0xbc82defa	-0.015975464
94	0xbdbfaa6e	-0.09358679
95	0xbd5cec15	-0.053936083
96	0xbdd88f47	-0.10574203
97	0x3e037153	0.12836199
98	0x3d9d187e	0.07670687
99	0x3d02cd3c	0.031934008
100	0x3e76d424	0.24104363
101	0xbd49ce5f	-0.049269076
102	0xbd47692a	-0.048684277
103	0xbd39f91b	-0.04540358
104	0x3dba6641	0.09101535
105	0xbdd5f17b	-0.10446449
106	0x3dab0b3d	0.08351753
107	0x3e32309a	0.17401353
108	0x3dc42afa	0.0957851
109	0x3e2a1570	0.1660974
110	0xbe135309	-0.14387144
111	0xbd5867cf	-0.052833375
112	0x3d9c4087	0.07629495
113	0xbdb37a86	-0.08763604
114	0xbe267e82	-0.16259196
115	0x3de8ea60	0.113728285
116	0x3d532cdb	0.05155645
117	0xbd8d4ba8	-0.06899196
118	0x3d4a4007	0.049377467
119	0xbd8008a9	-0.06251652
120	0xbc553f27	-0.013015545
121	0x3d97a8b7	0.07405227
122	0xbc095690	-0.0083824545
123	0x3db0df01	0.086362846
124	0x3d6bcd5d	0.057568897
125	0xbe80b3ee	-0.25137275
126	0xbbcecbcf	-0.006310917
127	0x3d2e77e0	0.04259479
128	0x3e1b8cc7	0.15190421
129	0x3db6d43b	0.089271985
130	0xbbde123e	-0.006777077
131	0x3d3ff837	0.046867575
132	0xbc4c3b21	-0.012465269
133	0xbd88c2db	-0.06677791
134	0x3d3ff24d	0.046861935
135	0x3d8a87ff	0.067642204
136	0x3e0a5fb8	0.13513076
137	0x3c37e12f	0.011223122
138	0x3e04d27e	0.12970921
139	0x3da4952e	0.08036266
140	0x3e418303	0.18897633
141	0x3d4dbe04	0.05023004
142	0x3ce022a5	0.02736027
143	0xbd4df31e	-0.050280683
144	0x3cff79b0	0.031185955
145	0xbd1e4c3b	-0.038646918
146	0x3aa0e543	0.0012275357
147	0x3e4ea647	0.20180617
148	0xbd5dcf55	-0.054152805
149	0xbe45ad37	-0.19304357
150	0x3cd7f6a1	0.026362719
151	0xbdae5dba	-0.08513971
152	0x3d47aa42	0.048746355
153	0xbd3eb6f1	-0.046561185
154	0xbd0ad894	-0.03389795
155	0xbd5a4308	-0.053286582
156	0x3d12803a	0.035766818
157	0x3d36dc48	0.04464367
158	0xbcd2dd30	-0.025740236
159	0x3e02ca37	0.12772451
160	0xb9413c92	-0.00018428479
161	0xbd937de8	-0.07201749
162	0x3de50ee2	0.11184479
163	0x3d7abda5	0.061216015
164	0x38fcc5ac	0.00012053116
165	0x3d99c3ba	0.07508035
166	0xbd8e5ed7	-0.06951683
167	0xbdc248ee	-0.094865665
168	0xbd30b5b7	-0.043142047
169	0xbdda77bb	-0.10667368
170	0xbd812190	-0.0630523
171	0x3e1788fa	0.14798346
172	0xbd2cc42d	-0.042179275
173	0xbe33eb0e	-0.17570135
174	0xbd2b49a2	-0.04181827
175	0x3de0aac7	0.10970073
176	0x3cfbdafd	0.03074407
177	0x3c8dc293	0.017304694
178	0xbdb8fe4b	-0.090328775
179	0x3e32a96e	0.17447445
180	0xbd40d011	-0.047073428
181	0x3d1bd1d4	0.038041905
182	0x3d685059	0.05671725
183	0xbce57667	-0.02801056
184	0xbd03006a	-0.031982817
185	0xbe0d284e	-0.13784906
186	0x3e503a49	0.20334734
187	0x3e0ea5e3	0.13930468
188	0xbdfe9413	-0.12430587
189	0xbb010560	-0.0019687042
190	0xbdf45e9f	-0.1193211
191	0xbe4a7029	-0.19769348
192	0xbdb24d37	-0.08706134
193	0x3d691619	0.05690584
194	0xb9b84fc6	-0.0003515465
195	0x3ad2f563	0.001609486
196	0x3d5d077f	0.053962227
197	0x3d223901	0.039605144
198	0x3d1c37cc	0.03813915
199	0x3d8d6e04	0.069057494
200	0xbe0b9c53	-0.13633852
201	0x3c8a5574	0.01688645
202	0x3ce78fe9	0.028266864
203	0xbd159fc5	-0.03652932
204	0xbdf38695	-0.11890904
205	0x3db075cd	0.08616219
206	0xbda44885	-0.080216445
207	0xbb3008cf	-0.002686072
208	0xbc168740	-0.00918752
209	0x3c28e523	0.010308537
210	0xbe08f5d1	-0.13375022
211	0x3ccde49b	0.025133422
212	0xbdbcaea4	-0.092129976
213	0x3cc5be84	0.024138696
214	0xbd6be2c4	-0.057589307
215	0xbd5c4f39	-0.05378649
216	0xbdbc651a	-0.09198971
217	0xbc5a36cc	-0.013318729
218	0xba3d4811	-0.00072205166
219	0xbd48fa5e	-0.049066894
220	0x3d2cd236	0.04219266
221	0x3e22bc97	0.15892254
222	0xbe221c7b	-0.15831177
223	0xbd90d938	-0.07072681
224	0xbdd5b7cd	-0.10435448
225	0x3c9a6f5a	0.018851925
226	0x3bf9e901	0.007626653
227	0xbb241d2e	-0.0025041807
228	0xbe2fabe2	-0.17155412
229	0x3dd1e7a6	0.102492616
230	0x3d921d75	0.07134525
231	0xbda8fe32	-0.08251609
232	0xbde167e0	-0.11006141
233	0xbc30af99	-0.010784053
234	0x3db0e969	0.086382695
235	0xbcf96f26	-0.030448508
236	0x3cdd3b40	0.027005792
237	0x3d933630	0.0718807
238	0xbd5c6459	-0.053806636
239	0xbd5109f7	-0.051034894
240	0xbdc39c2a	-0.0955127
241	0xbd911a86	-0.07085137
242	0xbd5b6d3c	-0.05357097
243	0x3d8670a2	0.06564452
244	0x3e0a7470	0.1352098
245	0xbdf4fe52	-0.1196257
246	0x3d871968	0.06596643
247	0xbd9c10a4	-0.076203614
248	0x3c13c25b	0.009018506
249	0xbc6e0a83	-0.014528873
250	0x3c8d8f23	0.017280167
251	0xbd5ccaf9	-0.053904507
252	0x3e29731d	0.16547818
253	0x3ddb37ae	0.107039794
254	0x3d54225f	0.05179059
255	0xbd42bee4	-0.04754533
