Unity/results/ScoreGoal0/My Behavior/My Behavior-2000.pt (torch, 153807 bytes, 12 tensors)

network_body.linear_encoder.seq_layers.0.weight f4 [128, 9]
000000 78 bd e8 3e 49 28 11 3f ca f3 d7 be 10 d4 34 3e
       0.45457053 0.56702095 -0.42178184 0.1765902
000010 44 77 cf 3e 19 fb 02 3f 10 da 7c be dc fe 05 3f
       0.4052068 0.51164395 -0.24692559 0.5234201
000020 64 dd cf be 44 fd 8b 3d 26 03 c9 3c 4c 78 d9 bd
       -0.40598595 0.06835416 0.024537634 -0.10618648
000030 b8 29 d3 be 66 13 52 be 2c 01 20 3f 6f 1a 7c be
       -0.41242766 -0.20515212 0.6250179 -0.24619459
000040 77 ee 60 be 42 58 a5 be 9c a1 0d 3e c7 90 48 3f
       -0.21965967 -0.32293898 0.1383118 0.7834591
000050 14 ae 11 bf c2 03 b4 be da 5b 1a 3f f0 94 ef be
       -0.5690625 -0.35159117 0.60296404 -0.46793318
000060 cc 97 f2 bd d8 bc d9 bd d2 3c ed bd f8 2b 23 3e
       -0.11845359 -0.10631722 -0.11583866 0.15934741
000070 ff 09 1f 3f a4 5e b4 be 06 0c 04 3e 8a 00 8b be
       0.6212463 -0.35228455 0.12895212 -0.2714885
000080 3b fe f7 3a 2a 73 7f 3e 1b 9b 8b 3e f8 90 a0 3e
       0.0018920371 0.24946275 0.27266774 0.31360602
000090 0e 61 19 3f 61 b3 1d 3e 9e 42 12 bd 33 d4 f5 be
       0.5991372 0.15400459 -0.035708062 -0.48013458
0000a0 56 2b bc bc 4e bc 9f 3e 72 f0 ef bc 8e 33 d9 bd
       -0.022969883 0.31198353 -0.029289458 -0.106055364
0000b0 25 dc 84 bf a9 ef 21 3e c6 76 a3 be 96 b2 be 3e
       -1.0379683 0.1581408 -0.31926554 0.37245625
0000c0 93 bb fe 3d 8e 9a 31 3e b2 02 6d 3e a9 66 86 3d
       0.12438121 0.17344114 0.2314556 0.065625496
0000d0 73 42 38 be e6 e1 13 bf a2 1f 2d 3f 88 8d a7 be
       -0.17994098 -0.5776657 0.6762639 -0.32725167
0000e0 1a 9d 6c 3b 74 3d 02 3c e0 71 a5 be 02 1d af 3e
       0.0036104382 0.007949222 -0.32313442 0.3420182
0000f0 d8 6f de bd c7 61 ac be 03 24 8d 3e f8 e3 f0 3e
       -0.10861176 -0.33668348 0.27566537 0.47048926
000100 3a c0 a0 be a3 b5 f7 3d b4 ac 3a bf 0c a8 2a 3e
       -0.31396657 0.12095191 -0.72919774 0.16665667
000110 84 e6 ea 3e 4b 70 3a be 4f a8 7f 3e 1e 39 cc 3e
       0.45878994 -0.18206899 0.24966548 0.39887327
000120 c4 4b fb 3e cb d9 60 bd 02 9f c1 be f6 72 a4 3e
       0.49081242 -0.054895204 -0.37816626 0.32118958
000130 88 b5 01 be 0c 76 21 3e f0 d0 05 bf ab f6 ae be
       -0.12666905 0.15767688 -0.5227194 -0.34172568
000140 d8 9d e6 3e 51 ef 9b 3d 4f a7 20 bf cf 5a cc 3e
       0.450423 0.07614005 -0.6275529 0.3991303
000150 6f 09 8c be 15 d3 89 be f8 57 4c 3e db f1 4c 3e
       -0.27350947 -0.26918855 0.19955432 0.20014136
000160 48 f6 40 3e 14 55 15 3f 4e 52 b7 3d c4 2d 62 3d
       0.18843949 0.58332944 0.08951245 0.055219427
000170 c0 3f d9 be 6a 54 b7 bd 84 68 d5 3c cc bc ac be
       -0.4243145 -0.089516476 0.026050813 -0.3373779
000180 2c d5 68 bd c4 7c 02 bf 4c 81 13 3e 1e e3 d7 3b
       -0.05684392 -0.5097163 0.14404792 0.006588354
000190 30 e9 d3 be 7b 39 08 3e 86 61 ca be d7 ba c6 3e
       -0.41388845 0.13303177 -0.3952753 0.38814422
0001a0 70 90 18 3e 48 c6 0a 3f a7 95 76 bd 07 ce 6f be
       0.14898849 0.54208803 -0.060201313 -0.23418437
0001b0 c6 ac 60 be 38 02 89 bd 6e 3d 6a 3e db fe 57 3e
       -0.21940908 -0.06689876 0.22874996 0.21093313
0001c0 3a eb 3b bf b7 93 5e 3d 85 5b 1c 3e 88 92 ba bd
       -0.734058 0.05434009 0.15269287 -0.0910998
0001d0 3f e3 d9 3b e2 6a 4d be 8a f9 43 3e 3c f3 09 bc
       0.0066494043 -0.20060304 0.1913816 -0.008419808
0001e0 c3 01 27 be d0 1f f8 bc be 05 dd 3e 11 db 98 3e
       -0.16309266 -0.030288607 0.43168443 0.29854634
0001f0 1a 9d 85 3e 02 18 e4 bd 4b 48 e7 be dc a2 41 3f
       0.2609642 -0.111373916 -0.45172343 0.7563913
000200 2c ef 4a be 1e 18 0e 3e ea c2 46 3d 3a 56 99 3d
       -0.198178 0.13876387 0.04852573 0.074871495
000210 8a ff d5 3e 58 75 32 3e 99 a6 a1 be 64 21 9f be
       0.41796523 0.17427576 -0.31572416 -0.31080163
000220 84 74 06 be 6c 82 ec bd 7e 77 3a bf da 67 85 be
       -0.13130385 -0.115483135 -0.7283858 -0.26055795
000230 46 29 93 3e be e2 ec 3e 74 c9 a3 be 07 8a 33 3e
       0.28742427 0.4626674 -0.31989634 0.17533122
000240 26 dc ba be 3a 43 0f be 0c 81 41 be 2f 1d 31 be
       -0.36496085 -0.13990489 -0.18896884 -0.17296289
000250 1f 5a e7 3d 8f 6f 1c be 5b c5 2e be c2 b1 f8 3d
       0.11296486 -0.15276931 -0.17067473 0.121432796
000260 24 6c 96 be 4a 1c f5 be a7 ca 4c bd 97 55 73 3e
       -0.2937938 -0.47873145 -0.04999795 0.23763119
000270 3b 24 e1 3d 36 90 31 bf eb 04 1a be 18 32 38 3e
       0.109932385 -0.69360673 -0.15040939 0.17987859
000280 7c 7f c7 3e fa bc 78 bd 06 68 6d be 7f b5 55 be
       0.3896445 -0.060727097 -0.23184213 -0.20870017
000290 bf 13 d7 be cd 4f 26 3e 22 9d be be c7 8b 20 be
       -0.42007253 0.16241379 -0.37229258 -0.15678321
0002a0 67 14 c8 3d 9a 84 86 3d 83 b4 aa bd 06 a5 86 3c
       0.097695164 0.065682605 -0.08335211 0.016436111
0002b0 92 2a 12 bd 36 6f d0 be a3 4f ca be 2b d2 08 3f
       -0.03568513 -0.40709847 -0.39513883 0.5344569
0002c0 86 35 d2 be 2f a5 1d bf f8 92 d0 be 00 17 c4 bd
       -0.4105646 -0.61580175 -0.40737128 -0.095746994
0002d0 d6 41 b2 3e 96 d3 8d bc c2 cb bd be 6a cc 9e ba
       0.34815854 -0.017312806 -0.37069517 -0.0012115363
0002e0 50 c4 aa bc c8 3e 0c bf 68 e7 4c bf 7f 41 5e 3d
       -0.020845562 -0.54783297 -0.800406 0.05426168
0002f0 4a 23 45 3e 5a 57 fe bd 88 42 38 3d 0a 37 ea bd
       0.19251743 -0.12419005 0.044985324 -0.11436279
000300 7f 75 de 3e e4 ce 24 be 03 4c 8b 3e af ac 36 3e
       0.43449017 -0.16094548 0.2720643 0.17839311
000310 2f 1e 36 bd ab 28 4c bc d6 2c 6d 3c 30 72 c7 be
       -0.04446238 -0.012460868 0.014476022 -0.38954306
000320 87 ab 63 3e 05 a3 09 be d7 2e 1b be 60 64 12 3e
       0.22233401 -0.13441093 -0.15154587 0.14296103
000330 80 06 17 3f eb 78 79 3d bf b9 f0 be 4a 7b 05 3e
       0.58994293 0.060906332 -0.47016713 0.13035312
000340 7e cd 77 bc 23 5a 49 bd 80 6b 8c 3e 70 2e 8c 3e
       -0.015124677 -0.049158227 0.27425766 0.2737918
000350 58 8d 48 3e 30 be 8a be f4 49 90 3e af 33 64 be
       0.19585168 -0.27098227 0.28181422 -0.2228534
000360 d4 da 3a bf ff aa 46 be 70 c1 65 be 73 18 fd 3e
       -0.72990155 -0.19401167 -0.22437072 0.49432716
000370 4d 68 8a be f6 33 61 3d f0 4e 7e bd 37 8c ae 3b
       -0.270327 0.054981194 -0.062087 0.0053267735
000380 32 5c e3 3e 4f 90 76 bd c8 7b dd 3e 67 fd 54 3e
       0.44406277 -0.060196217 0.432585 0.2079979
000390 d2 45 d5 3e 1f b5 e3 3d f6 74 79 3e 26 13 15 bf
       0.4165483 0.111185305 0.24361023 -0.58232343
0003a0 22 42 b2 be 30 12 81 3e f4 c5 44 3d c7 72 b7 3e
       -0.3481608 0.25209188 0.048040345 0.35829756
0003b0 3a 94 80 3d b2 33 5e 3c d0 aa 30 3e aa 52 27 3e
       0.06278272 0.01356213 0.1725266 0.16340128
0003c0 74 88 d2 3e eb c4 55 3e 18 48 a4 3d d8 44 25 be
       0.4111973 0.208759 0.08021563 -0.16139543
0003d0 6c 4e af be 44 92 ec 3d 62 a3 80 3e 2a 58 0a be
       -0.3423952 0.115513355 0.2512465 -0.13510194
0003e0 7e 35 ba be eb aa 4c be 4e b0 84 3e 68 2b 9c be
       -0.36368936 -0.19987075 0.2591576 -0.30501866
0003f0 da 4f 26 be 83 36 d0 be c2 90 9e 3c 3c 41 4b be
       -0.16241398 -0.4066659 0.019356135 -0.19849104

network_body.linear_encoder.seq_layers.0.bias f4 [128]
000000 00 00 00 00 00 00 00 00 00 00 00 00 00 00 00 00
       0.0 0.0 0.0 0.0
000010 00 00 00 00 00 00 00 00 00 00 00 00 00 00 00 00
       0.0 0.0 0.0 0.0
000020 00 00 00 00 00 00 00 00 00 00 00 00 00 00 00 00
       0.0 0.0 0.0 0.0
000030 00 00 00 00 00 00 00 00 00 00 00 00 00 00 00 00
       0.0 0.0 0.0 0.0
000040 00 00 00 00 00 00 00 00 00 00 00 00 00 00 00 00
       0.0 0.0 0.0 0.0
000050 00 00 00 00 00 00 00 00 00 00 00 00 00 00 00 00
       0.0 0.0 0.0 0.0
000060 00 00 00 00 00 00 00 00 00 00 00 00 00 00 00 00
       0.0 0.0 0.0 0.0
000070 00 00 00 00 00 00 00 00 00 00 00 00 00 00 00 00
       0.0 0.0 0.0 0.0
000080 00 00 00 00 00 00 00 00 00 00 00 00 00 00 00 00
       0.0 0.0 0.0 0.0
000090 00 00 00 00 00 00 00 00 00 00 00 00 00 00 00 00
       0.0 0.0 0.0 0.0
0000a0 00 00 00 00 00 00 00 00 00 00 00 00 00 00 00 00
       0.0 0.0 0.0 0.0
0000b0 00 00 00 00 00 00 00 00 00 00 00 00 00 00 00 00
       0.0 0.0 0.0 0.0
0000c0 00 00 00 00 00 00 00 00 00 00 00 00 00 00 00 00
       0.0 0.0 0.0 0.0
0000d0 00 00 00 00 00 00 00 00 00 00 00 00 00 00 00 00
       0.0 0.0 0.0 0.0
0000e0 00 00 00 00 00 00 00 00 00 00 00 00 00 00 00 00
       0.0 0.0 0.0 0.0
0000f0 00 00 00 00 00 00 00 00 00 00 00 00 00 00 00 00
       0.0 0.0 0.0 0.0
000100 00 00 00 00 00 00 00 00 00 00 00 00 00 00 00 00
       0.0 0.0 0.0 0.0
000110 00 00 00 00 00 00 00 00 00 00 00 00 00 00 00 00
       0.0 0.0 0.0 0.0
000120 00 00 00 00 00 00 00 00 00 00 00 00 00 00 00 00
       0.0 0.0 0.0 0.0
000130 00 00 00 00 00 00 00 00 00 00 00 00 00 00 00 00
       0.0 0.0 0.0 0.0
000140 00 00 00 00 00 00 00 00 00 00 00 00 00 00 00 00
       0.0 0.0 0.0 0.0
000150 00 00 00 00 00 00 00 00 00 00 00 00 00 00 00 00
       0.0 0.0 0.0 0.0
000160 00 00 00 00 00 00 00 00 00 00 00 00 00 00 00 00
       0.0 0.0 0.0 0.0
000170 00 00 00 00 00 00 00 00 00 00 00 00 00 00 00 00
       0.0 0.0 0.0 0.0
000180 00 00 00 00 00 00 00 00 00 00 00 00 00 00 00 00
       0.0 0.0 0.0 0.0
000190 00 00 00 00 00 00 00 00 00 00 00 00 00 00 00 00
       0.0 0.0 0.0 0.0
0001a0 00 00 00 00 00 00 00 00 00 00 00 00 00 00 00 00
       0.0 0.0 0.0 0.0
0001b0 00 00 00 00 00 00 00 00 00 00 00 00 00 00 00 00
       0.0 0.0 0.0 0.0
0001c0 00 00 00 00 00 00 00 00 00 00 00 00 00 00 00 00
       0.0 0.0 0.0 0.0
0001d0 00 00 00 00 00 00 00 00 00 00 00 00 00 00 00 00
       0.0 0.0 0.0 0.0
0001e0 00 00 00 00 00 00 00 00 00 00 00 00 00 00 00 00
       0.0 0.0 0.0 0.0
0001f0 00 00 00 00 00 00 00 00 00 00 00 00 00 00 00 00
       0.0 0.0 0.0 0.0

network_body.linear_encoder.seq_layers.2.weight f4 [128, 128]
000000 0f 2b 31 3e ee d3 b2 3b e1 f1 cd 3d b9 6f 58 bd
       0.17301582 0.005457393 0.100559 -0.052840922
000010 59 86 af 3d 7e c1 08 b9 a7 6a 05 bd 14 09 69 3c
       0.08570547 -0.00013042052 -0.032572415 0.014223356
000020 7c 18 70 bd f4 d2 e7 bd 56 52 77 bc e1 ed aa bd
       -0.0586171 -0.11319533 -0.015095314 -0.08346153
000030 45 17 38 3e 65 c5 4b 3d f9 82 82 bd d5 20 38 3d
       0.17977627 0.049748797 -0.06372637 0.044953186
000040 15 74 22 3d 4f 83 30 be e2 0e ad 3d 2e cb e9 3d
       0.039661486 -0.1723759 0.08450104 0.114157066
000050 3b 9c c0 bd 3e ea 7f 3d 56 20 08 bd a6 32 a0 bd
       -0.094047986 0.06247925 -0.033233963 -0.078221604
000060 2d ce ce 3d bd 26 3c bd 95 59 d3 3d 06 43 00 be
       0.10097919 -0.04593538 0.10319821 -0.12525567
000070 34 23 ba bd c3 eb 67 bd 14 6b 56 3d d6 b8 db 3d
       -0.09088746 -0.056621324 0.05234821 0.10728614
000080 d2 5d 95 3d 23 b7 e3 bc 91 cb 94 bd a1 3f 28 3d
       0.072932854 -0.027797287 -0.0726539 0.041076306
000090 36 72 82 bd 4c 74 04 be 56 16 2f bd c5 f5 65 bd
       -0.0636944 -0.12934989 -0.04274591 -0.056142587
0000a0 7a 47 d3 3d b4 1f ff bb 20 32 89 bd 20 77 9c 3c
       0.103163674 -0.0077857617 -0.06699014 0.019099772
0000b0 38 9a be bd 17 68 d6 3c 27 f8 9a 3d 8e 7a 07 3c
       -0.09306759 0.02617268 0.075668626 0.008268965
0000c0 2c 46 bf bb 49 7a 89 3d 8b a8 9e bd 44 d1 65 3d
       -0.0058372226 0.06712777 -0.07746991 0.056107774
0000d0 71 91 00 bd fb aa 10 bd 2e 67 24 bd 0e 55 3b bd
       -0.031388704 -0.03531931 -0.040137462 -0.04573541
0000e0 a4 71 25 be bb cd 0f bc 5c 7e c4 bb 45 f0 2f bd
       -0.16156632 -0.008777077 -0.0059965085 -0.04295375
0000f0 48 1d 84 bd 72 3b 06 be 0d 44 c1 3d ed 00 a9 bd
       -0.064508975 -0.13108614 0.09436808 -0.0825213
000100 d9 a4 e9 bc 37 bb dc 3d 0f ee 60 bd 93 cf 96 3c
       -0.028520988 0.10777896 -0.05491453 0.018409526
000110 c1 9b a7 bd e5 c4 85 bb ff a1 ac bb 1e 3d 4e bc
       -0.081840046 -0.0040823095 -0.005268335 -0.012587814
000120 ea b6 f4 3c db 14 b2 3d 24 40 e9 bc 25 17 b4 bd
       0.029872376 0.08695384 -0.028472967 -0.08793477
000130 01 85 9e 3b 73 77 c0 3d 87 e4 4f bd 08 9a d2 3c
       0.0048376326 0.09397783 -0.05075505 0.025708213
000140 92 9e 13 be b8 67 3f bd 5f 14 f9 3c 1d 53 db bd
       -0.14415959 -0.046729773 0.030405222 -0.10709212
000150 a5 dc 44 3d 01 09 9d bd 79 16 b0 3d 74 95 29 bd
       0.048061986 -0.07667733 0.08598036 -0.041402295
000160 0d 8f da 3d c8 9b b1 3b 43 7d 97 bd c1 96 ee bd
       0.10671816 0.005420182 -0.07396939 -0.11649848
000170 fc df da 3d e7 ec 44 3d 57 86 39 bd 96 01 dc 3b
       0.10687253 0.04807749 -0.045294132 0.0067140562
000180 6c a7 54 bd 0b 63 12 3c 0a 5d 0e 3e dd 77 8a bd
       -0.05191748 0.0089347465 0.13902679 -0.06761143
000190 70 86 2f 3c 27 d7 a1 3d 94 72 e3 bc 30 92 36 bd
       0.010713205 0.07902365 -0.027764596 -0.04457301
0001a0 f6 9c f6 bd 3d 62 34 bd 38 f4 2f bd c2 14 c5 bc
       -0.12041657 -0.044039 -0.042957515 -0.02405775
0001b0 73 fc 2b bd 18 fa 5c 3d dc cb 5b bc 16 ca 45 3c
       -0.0419888 0.053949445 -0.013415303 0.012072107
0001c0 46 24 f5 3d 91 6c 20 be 59 e0 ae bb e7 4c 93 bd
       0.11969809 -0.15666415 -0.005336803 -0.07192402
0001d0 65 2c 1a 3c 96 8a b5 bd 40 4a e8 3d f6 2d 8f bc
       0.009409999 -0.08864324 0.11342287 -0.01747797
0001e0 63 68 4b bd 87 0e eb 3d 5e 3f fc 3c 40 a2 f7 3d
       -0.049660098 0.1147738 0.030791935 0.120914936
0001f0 4b 55 d7 3d 9c 02 52 be 44 37 87 bd 74 06 a0 bd
       0.10514315 -0.20508808 -0.06602338 -0.07813731
000200 9e 52 cb 3d 51 06 a8 3d dc 93 3e bd 11 c7 ef 3d
       0.09927867 0.0820433 -0.04652773 0.11707891
000210 ec a8 3a 3d 19 5b 96 bd 83 fb 7a bc aa 4d 98 bd
       0.045571253 -0.07341594 -0.015318754 -0.07436688
000220 08 8a 01 3e fd a0 3a 3e ab 47 ac 3d 17 92 89 bc
       0.12650311 0.18225475 0.08412107 -0.016793294
000230 87 cf 58 bc 10 9f 2e be 56 7d a4 3d 3b da 47 3d
       -0.013233072 -0.17052865 0.080317184 0.048792105
000240 a8 db 45 3d a6 38 1b 3e ca c7 2b be 1c bb 69 3d
       0.048305184 0.15158328 -0.16775432 0.057063207
000250 04 73 37 3e 5d 0f 1f 3e 87 26 d4 3c bf 0a 84 bc
       0.17914969 0.15533204 0.025897278 -0.016118405
000260 82 fe 26 be 44 0b 64 bd 82 9f 15 3d 8b 22 a3 bd
       -0.16308025 -0.055674806 0.03652907 -0.07965573
000270 36 77 16 bc 3b df 60 3d cc e0 67 3c 01 26 eb bd
       -0.009183696 0.05490039 0.014152717 -0.11481858
000280 23 b4 c0 3b bd d2 df bd 42 e8 5f bd 22 36 61 3d
       0.005880849 -0.10928867 -0.054664858 0.054983266
000290 30 c5 86 3d 4a 60 de bb 6c 0e 58 bd 56 69 6b 3d
       0.06580579 -0.006786381 -0.05274813 0.057473503
0002a0 89 a2 f4 3c 5d e3 01 3c fa 25 e8 bc b8 c6 f7 3c
       0.029862659 0.007927743 -0.028338421 0.030246124
0002b0 2b 54 df bd 42 d5 1b bd 51 f9 2f 3c 1f e4 15 bd
       -0.10904726 -0.038045175 0.010740594 -0.036594506
0002c0 48 11 7c 3d c7 92 8a bd 68 2e d0 3d d9 6e 12 3d
       0.06153992 -0.06766277 0.10165101 0.035750244
0002d0 4b 6d b6 3d 89 0c 8f bd 16 dc 37 3d 87 0b 7b bd
       0.08907565 -0.06984813 0.044887625 -0.06129029
0002e0 e9 1f e5 3b ef 96 2f 3d 9b 35 df 3d d1 2d 84 3d
       0.0069923294 0.04286855 0.10898896 0.06454051
0002f0 8d 1b f2 3d dc 83 a0 3b 28 f9 94 3d 7b a6 10 bd
       0.11821661 0.0048985314 0.07274085 -0.03531502
000300 02 62 07 be c3 30 05 3e 47 5e 81 3c b4 f9 8b 3a
       -0.13220981 0.13006882 0.015792025 0.0010679276
000310 a1 6e c5 bd 4b 57 d6 bd 7e f8 62 3b 63 79 91 bd
       -0.096402414 -0.104658686 0.0034632976 -0.07103231
000320 b3 de db bb 37 99 47 3c 13 65 2c 3d 41 5f 90 3d
       -0.0067098974 0.012182525 0.04208858 0.07049418
000330 5a 47 89 bd d6 0a 55 3d 28 a8 b4 3c 36 1f 90 bc
       -0.06703062 0.052012287 0.02205284 -0.017593008
000340 3d 76 6c bd ed 7c 82 bd fe d4 43 bd 95 b7 1a bd
       -0.05772995 -0.06371484 -0.047810547 -0.037772734
000350 07 c0 03 bc 8a 4e 29 bd c6 8b d3 bd 21 99 83 3e
       -0.008041388 -0.041334666 -0.10329394 0.25702766
000360 0f bc 1b 3d d9 f6 a2 3d 78 53 bf 3b 18 56 67 3d
       0.038021144 0.07957239 0.0058388077 0.05647859
000370 3c 83 b2 3d 40 3a 17 3d af fd c0 3d 9a 82 98 bd
       0.08716437 0.036920786 0.09423386 -0.07446785
000380 a1 b2 b6 3c cd b1 81 bd 02 49 0a 3e cc fe 3a bd
       0.022301974 -0.06332741 0.13504413 -0.04565315
000390 19 69 e8 bc ff b5 9f 3d f1 c7 a8 bd eb c1 f0 bd
       -0.028370427 0.07798385 -0.08241261 -0.11755737
0003a0 ec 69 e3 3d e1 72 6c bd 08 66 b6 3c d2 e9 b8 bd
       0.11104187 -0.057726745 0.02226545 -0.09028973
0003b0 a1 09 36 3d 4c 6d cb 3c 03 a3 91 bd fe c0 f9 bc
       0.044442777 0.02483239 -0.0711117 -0.030487534
0003c0 71 3f 9e 3d 94 da 97 bd 74 86 fa bd 47 4d ab 3d
       0.07726944 -0.07414737 -0.12232676 0.08364349
0003d0 83 cc 04 be 0d 93 c6 3c af ad 91 bd 18 b4 80 3d
       -0.1296864 0.024240041 -0.07113206 0.0628435
0003e0 4d c1 64 bd 8d c6 42 3e 2f 2d 72 bd dc 7c 11 3d
       -0.05584841 0.19021054 -0.05912512 0.035519466
0003f0 7a 97 05 3e 56 a9 18 3c f9 c1 43 bc 49 4e 89 3d
       0.13046065 0.009317717 -0.011948102 0.06704385

network_body.linear_encoder.seq_layers.2.bias f4 [128]
000000 00 00 00 00 00 00 00 00 00 00 00 00 00 00 00 00
       0.0 0.0 0.0 0.0
000010 00 00 00 00 00 00 00 00 00 00 00 00 00 00 00 00
       0.0 0.0 0.0 0.0
000020 00 00 00 00 00 00 00 00 00 00 00 00 00 00 00 00
       0.0 0.0 0.0 0.0
000030 00 00 00 00 00 00 00 00 00 00 00 00 00 00 00 00
       0.0 0.0 0.0 0.0
000040 00 00 00 00 00 00 00 00 00 00 00 00 00 00 00 00
       0.0 0.0 0.0 0.0
000050 00 00 00 00 00 00 00 00 00 00 00 00 00 00 00 00
       0.0 0.0 0.0 0.0
000060 00 00 00 00 00 00 00 00 00 00 00 00 00 00 00 00
       0.0 0.0 0.0 0.0
000070 00 00 00 00 00 00 00 00 00 00 00 00 00 00 00 00
       0.0 0.0 0.0 0.0
000080 00 00 00 00 00 00 00 00 00 00 00 00 00 00 00 00
       0.0 0.0 0.0 0.0
000090 00 00 00 00 00 00 00 00 00 00 00 00 00 00 00 00
       0.0 0.0 0.0 0.0
0000a0 00 00 00 00 00 00 00 00 00 00 00 00 00 00 00 00
       0.0 0.0 0.0 0.0
0000b0 00 00 00 00 00 00 00 00 00 00 00 00 00 00 00 00
       0.0 0.0 0.0 0.0
0000c0 00 00 00 00 00 00 00 00 00 00 00 00 00 00 00 00
       0.0 0.0 0.0 0.0
0000d0 00 00 00 00 00 00 00 00 00 00 00 00 00 00 00 00
       0.0 0.0 0.0 0.0
0000e0 00 00 00 00 00 00 00 00 00 00 00 00 00 00 00 00
       0.0 0.0 0.0 0.0
0000f0 00 00 00 00 00 00 00 00 00 00 00 00 00 00 00 00
       0.0 0.0 0.0 0.0
000100 00 00 00 00 00 00 00 00 00 00 00 00 00 00 00 00
       0.0 0.0 0.0 0.0
000110 00 00 00 00 00 00 00 00 00 00 00 00 00 00 00 00
       0.0 0.0 0.0 0.0
000120 00 00 00 00 00 00 00 00 00 00 00 00 00 00 00 00
       0.0 0.0 0.0 0.0
000130 00 00 00 00 00 00 00 00 00 00 00 00 00 00 00 00
       0.0 0.0 0.0 0.0
000140 00 00 00 00 00 00 00 00 00 00 00 00 00 00 00 00
       0.0 0.0 0.0 0.0
000150 00 00 00 00 00 00 00 00 00 00 00 00 00 00 00 00
       0.0 0.0 0.0 0.0
000160 00 00 00 00 00 00 00 00 00 00 00 00 00 00 00 00
       0.0 0.0 0.0 0.0
000170 00 00 00 00 00 00 00 00 00 00 00 00 00 00 00 00
       0.0 0.0 0.0 0.0
000180 00 00 00 00 00 00 00 00 00 00 00 00 00 00 00 00
       0.0 0.0 0.0 0.0
000190 00 00 00 00 00 00 00 00 00 00 00 00 00 00 00 00
       0.0 0.0 0.0 0.0
0001a0 00 00 00 00 00 00 00 00 00 00 00 00 00 00 00 00
       0.0 0.0 0.0 0.0
0001b0 00 00 00 00 00 00 00 00 00 00 00 00 00 00 00 00
       0.0 0.0 0.0 0.0
0001c0 00 00 00 00 00 00 00 00 00 00 00 00 00 00 00 00
       0.0 0.0 0.0 0.0
0001d0 00 00 00 00 00 00 00 00 00 00 00 00 00 00 00 00
       0.0 0.0 0.0 0.0
0001e0 00 00 00 00 00 00 00 00 00 00 00 00 00 00 00 00
       0.0 0.0 0.0 0.0
0001f0 00 00 00 00 00 00 00 00 00 00 00 00 00 00 00 00
       0.0 0.0 0.0 0.0

action_model._continuous_distribution.log_sigma f4 [1, 5]
000000 00 00 00 00 00 00 00 00 00 00 00 00 00 00 00 00
       0.0 0.0 0.0 0.0
000010 00 00 00 00
       0.0

action_model._continuous_distribution.mu.weight f4 [5, 128]
000000 13 e3 a1 bc e0 e3 62 3b 78 35 d0 3b a0 71 e5 bb
       -0.019761598 0.0034620687 0.00635403 -0.0070020705
000010 60 94 7c bb cb 73 1d 3d ac d6 11 bc 4a a2 03 3d
       -0.0038540587 0.038440507 -0.008901279 0.032137193
000020 19 5f 03 3c 05 32 2b 3c 20 80 65 3c d3 82 6b 3c
       0.0080182785 0.010448937 0.014007598 0.014374453
000030 58 23 49 3c 84 57 bd bb de 9e 20 3c d3 ec ff 3c
       0.012276493 -0.005778255 0.009803502 0.031240856
000040 59 52 9f bc 33 77 99 bd 37 69 15 bd ab 7c 11 bd
       -0.019448446 -0.074934386 -0.036477294 -0.035519283
000050 de b0 4a 3c 98 fa f5 3b 43 07 cc bc 81 44 37 bd
       0.01237127 0.0075066797 -0.024905806 -0.044743065
000060 da 9c a3 3a e6 3b a2 3c b6 47 b3 3c 2a 32 2d 3c
       0.0012482658 0.019803952 0.02188478 0.010571042
000070 3f fd da bc 73 37 b4 3c 0f 5d 18 3d 1c 97 80 bb
       -0.026732085 0.021999096 0.037198123 -0.0039242636
000080 3e a0 bd 3a f3 95 87 bc 3f b7 a3 bc 9a 4b ae bc
       0.0014467312 -0.016550994 -0.01998484 -0.021276284
000090 1e 38 a2 3b a0 e6 82 bc 4b 9f 98 bb 62 98 36 b9
       0.0049505373 -0.015979111 -0.004657661 -0.0001741364
0000a0 52 22 7b 3c 77 c5 d3 bb 9c a7 1d 3c 57 e7 8f 3b
       0.015328007 -0.0064627486 0.009622481 0.0043915915
0000b0 cd c1 bf 3b 92 11 83 39 72 1f 25 3d 4f b2 03 bd
       0.0058519603 0.00024999358 0.04031319 -0.03215247
0000c0 61 f3 28 bb d9 98 9d bc f9 8b 2b bb db 08 8d 3b
       -0.002577983 -0.019237923 -0.002617596 0.004304034
0000d0 bf 2c db 3b ee c3 32 bc d7 a1 59 bc 97 2a 7e 3c
       0.0066886838 -0.010910971 -0.0132832145 0.015513084
0000e0 9f 0c 16 bd 99 f9 82 bc b7 69 35 3a 0a 8d 38 3c
       -0.03663313 -0.015988158 0.0006920355 0.011264095
0000f0 71 2e a4 3c 1f 2c b8 bb b3 99 ce bc 07 1f 16 bb
       0.020041676 -0.005620494 -0.025219774 -0.0022906677
000100 00 95 ee 3c 27 d1 34 bd 95 28 f4 bb 22 40 51 bc
       0.029123783 -0.044144776 -0.007451127 -0.012771638
000110 6d 43 3e 3c eb 16 e7 3c 6b d8 4d bc b3 37 79 3c
       0.011612755 0.02820917 -0.012563805 0.015211034
000120 43 bd bf bc 2c c9 af 39 b8 72 c3 bc 56 ca 86 bc
       -0.023405677 0.00033528486 -0.023858413 -0.016453903
000130 80 b9 7a bc 3f d4 13 3d b2 c3 56 3c 2a bb 9b ba
       -0.015303016 0.036091086 0.013108181 -0.0011881341
000140 4f 58 7a bb 8a af 97 bc d0 ce ad 3c bd 6a 21 3c
       -0.0038199609 -0.01851632 0.02121678 0.009852109
000150 43 74 93 3c 0e a0 2f 3c bf c4 ab bb 20 fb 38 3c
       0.017999774 0.010719312 -0.00524196 0.011290342
000160 55 58 10 bc 5d 73 6d 3c c3 cd 95 3c b4 49 b5 bc
       -0.0088101225 0.014492837 0.018286591 -0.022129871
000170 78 08 9d 3b aa 91 b2 bc 4a 16 0d bd 3b c1 ce bc
       0.0047922693 -0.021797974 -0.034445085 -0.025238624
000180 8f 89 5b bc 4f 86 0a b8 b3 24 cd 3c 88 61 df 3c
       -0.013399496 -3.302685e-05 0.025041914 0.027268186
000190 3c 63 86 3b d3 59 44 bc 77 b1 97 3c 50 8e d9 bc
       0.004101185 -0.011984306 0.018517239 -0.026557118
0001a0 c8 9e a9 bc 3a 10 3e 3c cd 36 b4 3c ab 63 2c 3c
       -0.020705596 0.011600548 0.021998787 0.01052181
0001b0 83 80 77 3c bb 27 eb bb 95 a1 2d 3c 0d b9 8b bc
       0.015106323 -0.007176367 0.010597606 -0.017056013
0001c0 4c a7 15 3c cc 4c 08 3c f7 a5 30 3c 92 ad 52 3b
       0.009134125 0.008319091 0.010781757 0.0032146913
0001d0 48 94 51 bc f7 73 26 bc 12 a6 84 3c b0 7e 29 bc
       -0.012791701 -0.010159484 0.01619247 -0.010345146
0001e0 85 2a 94 3a 0f 09 a5 bc f5 0e b9 3c 38 e9 74 3c
       0.0011304176 -0.020145921 0.02259014 0.014948182
0001f0 7f 47 3a bc fd c9 b6 bc bf ce 7c bc 5d c0 b1 3c
       -0.011369585 -0.022313112 -0.0154301515 0.021698171
000200 1b d1 48 3c 11 93 98 3c 31 b3 a5 3b 65 1f 95 ba
       0.012256886 0.018624814 0.0050567617 -0.0011377154
000210 a7 15 78 3b 9d fb f0 3c 74 11 25 bc c7 9a 0a 3c
       0.0037854703 0.029416854 -0.010074962 0.008459753
000220 01 32 05 3c e1 69 05 3d a3 9a 41 bc 07 0a 0b 3c
       0.008129598 0.032571677 -0.011816653 0.008486277
000230 12 4a c6 3c b2 06 0b bc 99 1e 02 bc 8d 66 3d 3d
       0.024205241 -0.008485483 -0.007941865 0.04624038
000240 40 ec cc 3c dd d0 5b 3c 37 37 2e bc ef e7 d9 bb
       0.025014997 0.013416496 -0.010633281 -0.006649963
000250 94 68 17 bb 6c e9 89 bc 55 b1 bb 3c 4f 42 9c 3c
       -0.0023103105 -0.016834937 0.022911707 0.019074587
000260 a3 88 e3 bb 83 76 f0 bc 27 ec b3 bc 6b 0d 33 39
       -0.0069437786 -0.029353386 -0.021963192 0.00017075769
000270 f5 98 2d 3c dd 78 7d 3c 9f c0 8d 3b 63 1e f2 3b
       0.01059555 0.015470711 0.0043259407 0.0073888763
000280 0b b1 50 bc 56 64 98 bc 14 cd 3e bc d7 6a 87 3b
       -0.012737523 -0.018602531 -0.011645574 0.0041326093
000290 84 f0 48 bc 6d e4 de bb ec 20 0c 3d f8 4a 04 3c
       -0.012264375 -0.006802133 0.034211084 0.008074515
0002a0 52 2e 97 bc 30 0d d7 bb 05 08 cf bc db 76 e6 3b
       -0.018454704 -0.0065628514 -0.025272379 0.0070332116
0002b0 ed 7c ea bc 72 fe c9 bc 1d 49 db 3b 22 a5 dd bc
       -0.028624022 -0.024657462 0.0066920654 -0.02705628
0002c0 32 a6 82 bc bf ad 84 ba e5 c4 4b bc fb cc 43 3c
       -0.015948389 -0.0010122581 -0.01243708 0.011950727
0002d0 5e 68 38 bc 9f eb 08 bc 07 93 e1 3b 4f c2 0d 3c
       -0.011255352 -0.008356958 0.006883982 0.008652284
0002e0 8d 89 f1 3b b8 ef 6b 3a 4e 5d 33 3a 0b d4 80 3b
       0.0073711337 0.00090002595 0.00068422116 0.0039315275
0002f0 23 f0 38 bc 5f 6d 47 3b 0b 86 a3 3c b7 b4 72 bc
       -0.011287722 0.003043018 0.019961378 -0.014813594
000300 eb 91 18 bc e9 e4 b4 3c e4 43 a4 ba 65 03 b4 bc
       -0.009312133 0.02208181 -0.001253244 -0.021974275
000310 88 a1 dc bc e5 e5 65 3c ff 43 ba 3c 08 7e 35 bc
       -0.026932493 0.014031862 0.022737501 -0.0110774115
000320 3f 54 b1 3b f2 01 50 3c 37 85 31 bc 6b e3 86 bb
       0.0054116542 0.012695776 -0.010834984 -0.004116466
000330 cf ca 2e 3c b0 e0 f2 bb 94 6a c4 bc f3 77 0d 3d
       0.0106684705 -0.0074120387 -0.023976602 0.03453822
000340 0f c1 76 3b 25 44 77 bc 9f ba 0a 3d 6f 2b 85 bb
       0.0037651693 -0.0150919305 0.033869382 -0.0040640156
000350 5f 3b 48 bc 0b 9a 20 bc f7 7b 93 bc fb 85 6e bc
       -0.012221186 -0.009802352 -0.018003447 -0.014558311
000360 6f ce 4d 3c dd 2c c3 3c 07 2b 8e bc a8 c8 ee ba
       0.012561425 0.023825103 -0.017354501 -0.0018217759
000370 f2 18 4d bc 97 dc 05 bc 8b 9b 3b bc 68 cd 14 bb
       -0.012518154 -0.0081702685 -0.011450659 -0.002270544
000380 ef 71 96 bc b2 69 bc bc e5 d1 73 3b 47 a8 7f 3c
       -0.018364875 -0.022999618 0.0037203964 0.015604085
000390 25 15 9c bc 93 e6 ef 3a 8b 14 ae bb 07 55 de 3a
       -0.019053051 0.0018302969 -0.0053125075 0.0016962596
0003a0 9f 7a 7f 3c af 05 1a ba f8 56 fb 3c 07 d9 d7 3c
       0.0155932 -0.0005875481 0.030681118 0.026348604
0003b0 9b a9 20 b8 5e e4 42 3c fe d0 0c bd eb 21 94 bc
       -3.830493e-05 0.011895267 -0.034378998 -0.01808258
0003c0 c0 ff a6 bc 5f 0a 85 bc a3 12 9c 3c 9d 34 f0 bc
       -0.020385623 -0.016240297 0.019051855 -0.029321963
0003d0 e0 9e 9d 3b 3d 16 b5 3c dd 8c 09 bd bd 65 ee 3a
       0.004810199 0.02210533 -0.033581603 0.0018188279
0003e0 08 d1 a4 bb 5e 16 82 bc 62 45 ff bb ff d5 9e bb
       -0.0050298013 -0.015879806 -0.0077902535 -0.0048472877
0003f0 6b 0f be bb ce 64 88 bc 2a 5a ff bb ff f4 07 bd
       -0.005800178 -0.01664963 -0.007792731 -0.03319263

action_model._continuous_distribution.mu.bias f4 [5]
000000 00 00 00 00 00 00 00 00 00 00 00 00 00 00 00 00
       0.0 0.0 0.0 0.0
000010 00 00 00 00
       0.0

critic.network_body.linear_encoder.seq_layers.0.weight f4 [128, 9]
000000 6a 81 f6 bd 18 d0 1c be 40 b6 4b be b3 12 6b 3e
       -0.120364025 -0.15313756 -0.19893742 0.22956352
000010 48 2b 94 3d 9b 54 e0 be 14 6f 14 3c a0 38 67 3e
       0.07234818 -0.4381455 0.009059686 0.22580194
000020 82 cb 56 3d 53 e1 e3 bd a0 09 f9 be 87 d8 aa be
       0.052440174 -0.111269616 -0.48640156 -0.33368322
000030 9b c6 d2 3e e6 19 d9 bc 80 71 17 be 83 9f 80 be
       0.4116715 -0.026501607 -0.1478939 -0.25121698
000040 5a 70 da 3d 31 06 8a 3e a3 14 9a be 76 94 87 be
       0.106659606 0.2695785 -0.3009387 -0.26480454
000050 cc 72 4a bf ba 85 ad bd ba 80 35 3d ba 47 90 3d
       -0.79081416 -0.08472772 0.044312216 0.07044931
000060 fa e9 54 be 52 94 72 3e 5a e0 d8 3e bb b5 ea 3e
       -0.2079238 0.23689392 0.42358667 0.45841774
000070 68 ae 08 bf 2c d5 c7 bc 3e a8 00 be d4 4f df bd
       -0.5339112 -0.02439364 -0.1256418 -0.10903898
000080 2e 25 b6 bd 33 c2 34 3f 9f 0c bb bd 06 19 9d be
       -0.0889381 0.70608824 -0.09133267 -0.30683154
000090 54 40 1e bf 4a b2 01 be fe 27 05 bf 50 f1 8f be
       -0.61816907 -0.12665668 -0.5201415 -0.28113794
0000a0 8f 5c 94 be 03 5e f1 3c 80 f7 f5 be f0 65 92 be
       -0.28976867 0.029463774 -0.4804039 -0.28593397
0000b0 ce b1 67 3e a8 b8 ea bb 3c ad bf 3d 8f 0a 9a be
       0.22626421 -0.007163126 0.09359214 -0.3008618
0000c0 b0 83 a7 3d 0c 38 6d bd 7e 25 9a be 10 80 2d 3d
       0.08179414 -0.05791478 -0.3010673 0.042358458
0000d0 2f 0e 49 3e be 9d 08 be a6 67 8f be 9b b7 0f be
       0.19634317 -0.13341424 -0.28008765 -0.14034884
0000e0 78 33 2e bf 8c 0d 14 be ec 51 97 3d f4 77 23 3e
       -0.68047285 -0.14458293 0.07388672 0.15963727
0000f0 0b 43 69 3e 11 f5 23 3e 4d 30 20 bd bd 55 82 bf
       0.22779481 0.16011454 -0.039108563 -1.0182415
000100 5f 6e 77 bd 0e ef d7 3e 97 1e c4 3e e6 b5 dc 3e
       -0.060407992 0.42174572 0.38304588 0.43107527
000110 af b0 52 3d 6f 23 d1 be 63 d7 3a be f2 11 67 3d
       0.05143803 -0.40847346 -0.18246226 0.0564136
000120 14 c8 09 bf 00 86 aa bd f3 bf db be bb db d5 be
       -0.5382092 -0.0832634 -0.42919883 -0.41769204
000130 26 0c 04 be c8 5f 64 3d d4 78 88 bd a4 db 9f be
       -0.1289526 0.055755407 -0.06663671 -0.3122226
000140 6a b9 ab 3c a4 c1 3e 3e b6 5c ac 3c 14 7b 96 3e
       0.020962436 0.18628556 0.021040302 0.29390776
000150 8d 30 04 3e 1a 6b 82 3e d0 77 d5 3e 2c 87 60 bf
       0.12909146 0.25472337 0.41692972 -0.87706256
000160 7c 1b 9b be 17 8f 6f be af 32 ca bd 9e 4c 50 be
       -0.30294406 -0.23394428 -0.098729484 -0.20341727
000170 e2 4c 0a 3e 54 1a cd bd 4c 13 b0 3e f5 7b 8d bd
       0.13505891 -0.10014787 0.34389722 -0.069084086
000180 c9 ac 0a 3e 7b b3 97 be 20 02 91 3d e2 97 60 bd
       0.13542475 -0.2962912 0.070804834 -0.054832347
000190 b6 f2 cf be 12 9e 15 3d 8a 50 00 3f 31 22 09 bf
       -0.4061486 0.0365277 0.5012289 -0.53567797
0001a0 54 8f 9a 3e ae 4f 88 be 7a 9f 54 bd be 16 c0 3e
       0.30187476 -0.2662329 -0.0519099 0.3751735
0001b0 df 44 b5 be 64 44 aa 3e a2 08 94 3d ef cb a0 be
       -0.35404107 0.33255303 0.07228209 -0.3140559
0001c0 22 3d a1 bd 2f 29 8a 3b 46 93 04 bf c9 94 88 be
       -0.07872988 0.0042163352 -0.5178722 -0.26676014
0001d0 ba aa f0 3c 52 7b 37 3e 93 19 da be d6 b3 49 be
       0.029378284 0.17918137 -0.42597637 -0.19697508
0001e0 d8 5f 84 bd 22 dc 1a bf 13 8f 2f bf 40 b9 b6 bd
       -0.06463593 -0.60492146 -0.6857769 -0.089220524
0001f0 65 74 9f 3e 2e 03 97 be 47 ce 26 3d 51 02 0c 3f
       0.3114349 -0.29494613 0.040724065 0.54691035
000200 80 0b 61 3e 37 1c bd 3d 72 8d 41 be d0 db 40 3e
       0.21977043 0.09233897 -0.18901613 0.18833852
000210 b6 48 78 be 6e 73 78 be 86 5c 78 be 0a 40 c3 3e
       -0.24246487 -0.24262783 -0.24254045 0.38134795
000220 60 e8 37 be 78 9a 12 bc 12 92 80 be 10 0f 65 bc
       -0.17959738 -0.008947961 -0.25111443 -0.013980642
000230 5f 44 dd be 32 f0 d2 3e ee 06 a0 3c 2c ae 20 3e
       -0.43216226 0.4119888 0.019534554 0.15691441
000240 82 ed a7 3e 96 b7 fb bd 22 a7 cb bd 6c 49 1f bf
       0.32798392 -0.122908756 -0.099439874 -0.6222141
000250 8c 0f 00 3f 5e 47 58 3f 97 ce 10 bf 67 ec 38 3e
       0.5002372 0.844839 -0.5656523 0.1805893
000260 57 9b 1d be 04 0c 97 3d f8 95 5b be 84 75 03 bf
       -0.15391289 0.07375339 -0.21443927 -0.5135119
000270 60 eb b6 3e 65 1d 0c 3f a0 c9 82 be db 93 17 3f
       0.35726452 0.5473235 -0.25544453 0.59209985
000280 b9 10 a8 3d 18 f3 15 bf dd db 1b 3f 6b 05 b6 be
       0.082063146 -0.58574057 0.6088236 -0.3555101
000290 42 9c 49 be 7b 8d 03 3f 5a ce 96 3e 0e b1 18 3f
       -0.19688514 0.5138776 0.2945431 0.59645164
0002a0 6c 02 ca be ca fd 76 3c 07 16 b1 be 8b 18 31 be
       -0.39454973 0.015075156 -0.34587118 -0.17294519
0002b0 aa 4f 99 b8 bc 60 92 be 60 6a c5 bd d7 83 89 bd
       -7.310447e-05 -0.28589427 -0.0963943 -0.067145996
0002c0 73 31 c4 be 57 ad 48 be 58 9c cc be 52 f0 d6 3e
       -0.38318977 -0.19597374 -0.3996303 0.41980225
0002d0 77 4d 5c be 3b e7 ac 3e ea ef 6d be f6 c0 b6 3e
       -0.21513925 0.33770165 -0.23236051 0.35694093
0002e0 b2 14 b0 3e b6 94 92 3c d6 30 44 be 8c 56 cb 3e
       0.3439079 0.017893177 -0.19159254 0.39714468
0002f0 ef b5 bc 3e fe d9 01 3f 4c 61 80 3d fc 18 3a 3e
       0.36857554 0.50723255 0.06268558 0.18173593
000300 ce 4c 50 bf 22 19 bd bd c3 ce 47 3d 06 d9 d2 3e
       -0.81367195 -0.09233309 0.048781168 0.411812
000310 9b 93 e0 bd a8 14 31 bf 40 37 45 be e4 60 cb be
       -0.109656535 -0.69172144 -0.19259357 -0.3972236
000320 0a d0 1f 3e e2 f6 97 bd 5e 40 f8 3e 47 f8 b1 be
       0.15606704 -0.07420136 0.48486608 -0.34759733
000330 a7 0a 39 3d 04 f4 58 3e 8e 47 75 be e3 26 28 be
       0.045176174 0.21186835 -0.23953077 -0.16421084
000340 5e 91 b8 3e 10 29 19 3e b4 08 6f 3e fa 36 cf 3d
       0.36048406 0.1495707 0.23343164 0.10117908
000350 bf 09 35 bc 63 70 05 3f 3e ae d4 3e d7 95 52 3e
       -0.011049687 0.52124614 0.41539186 0.20564972
000360 0e 27 e7 3e be 67 2b 3e ba 25 2d be b6 51 be 3e
       0.45146984 0.16738793 -0.16908923 0.37171715
000370 ca 5b 53 be da 80 07 3e 2e 01 52 3d 07 1b 82 bd
       -0.20640483 0.13232747 0.051270656 -0.06352811
000380 63 27 7f bb e2 0c f8 be 0e 1e 62 3e cb d9 16 3c
       -0.0038933388 -0.4844733 0.22081777 0.009207199
000390 de ed 75 be fe 7e ae be d0 5f cc be 8b 31 cc 3e
       -0.2401652 -0.34081262 -0.3991685 0.39881548
0003a0 eb 0c ef 3d 80 3c af bd 97 be 69 be 7b f2 3a bd
       0.11672386 -0.08556461 -0.2282661 -0.045641404
0003b0 7f 35 0f 3f 00 d0 4f 3f 1f a9 62 bd d0 38 35 3e
       0.55941004 0.8117676 -0.055337068 0.17697453
0003c0 50 ea f0 3d 44 3f f2 3e 1e a9 dd bd 26 84 ba 3b
       0.117634416 0.47313893 -0.10823272 0.005692023
0003d0 c2 71 56 3e 88 99 84 3d 03 c4 8f 3e 65 a1 11 be
       0.20941833 0.06474596 0.28079233 -0.14221723
0003e0 07 86 af be bf 1d b0 3e a6 32 b5 bd b8 dc 38 3d
       -0.34281942 0.34397694 -0.08847551 0.04513237
0003f0 db 38 7d 3e f6 fb 1f 3f fb 46 3c 3d ee 58 81 3c
       0.2472872 0.62493837 0.04596613 0.015789475

critic.network_body.linear_encoder.seq_layers.0.bias f4 [128]
000000 00 00 00 00 00 00 00 00 00 00 00 00 00 00 00 00
       0.0 0.0 0.0 0.0
000010 00 00 00 00 00 00 00 00 00 00 00 00 00 00 00 00
       0.0 0.0 0.0 0.0
000020 00 00 00 00 00 00 00 00 00 00 00 00 00 00 00 00
       0.0 0.0 0.0 0.0
000030 00 00 00 00 00 00 00 00 00 00 00 00 00 00 00 00
       0.0 0.0 0.0 0.0
000040 00 00 00 00 00 00 00 00 00 00 00 00 00 00 00 00
       0.0 0.0 0.0 0.0
000050 00 00 00 00 00 00 00 00 00 00 00 00 00 00 00 00
       0.0 0.0 0.0 0.0
000060 00 00 00 00 00 00 00 00 00 00 00 00 00 00 00 00
       0.0 0.0 0.0 0.0
000070 00 00 00 00 00 00 00 00 00 00 00 00 00 00 00 00
       0.0 0.0 0.0 0.0
000080 00 00 00 00 00 00 00 00 00 00 00 00 00 00 00 00
       0.0 0.0 0.0 0.0
000090 00 00 00 00 00 00 00 00 00 00 00 00 00 00 00 00
       0.0 0.0 0.0 0.0
0000a0 00 00 00 00 00 00 00 00 00 00 00 00 00 00 00 00
       0.0 0.0 0.0 0.0
0000b0 00 00 00 00 00 00 00 00 00 00 00 00 00 00 00 00
       0.0 0.0 0.0 0.0
0000c0 00 00 00 00 00 00 00 00 00 00 00 00 00 00 00 00
       0.0 0.0 0.0 0.0
0000d0 00 00 00 00 00 00 00 00 00 00 00 00 00 00 00 00
       0.0 0.0 0.0 0.0
0000e0 00 00 00 00 00 00 00 00 00 00 00 00 00 00 00 00
       0.0 0.0 0.0 0.0
0000f0 00 00 00 00 00 00 00 00 00 00 00 00 00 00 00 00
       0.0 0.0 0.0 0.0
000100 00 00 00 00 00 00 00 00 00 00 00 00 00 00 00 00
       0.0 0.0 0.0 0.0
000110 00 00 00 00 00 00 00 00 00 00 00 00 00 00 00 00
       0.0 0.0 0.0 0.0
000120 00 00 00 00 00 00 00 00 00 00 00 00 00 00 00 00
       0.0 0.0 0.0 0.0
000130 00 00 00 00 00 00 00 00 00 00 00 00 00 00 00 00
       0.0 0.0 0.0 0.0
000140 00 00 00 00 00 00 00 00 00 00 00 00 00 00 00 00
       0.0 0.0 0.0 0.0
000150 00 00 00 00 00 00 00 00 00 00 00 00 00 00 00 00
       0.0 0.0 0.0 0.0
000160 00 00 00 00 00 00 00 00 00 00 00 00 00 00 00 00
       0.0 0.0 0.0 0.0
000170 00 00 00 00 00 00 00 00 00 00 00 00 00 00 00 00
       0.0 0.0 0.0 0.0
000180 00 00 00 00 00 00 00 00 00 00 00 00 00 00 00 00
       0.0 0.0 0.0 0.0
000190 00 00 00 00 00 00 00 00 00 00 00 00 00 00 00 00
       0.0 0.0 0.0 0.0
0001a0 00 00 00 00 00 00 00 00 00 00 00 00 00 00 00 00
       0.0 0.0 0.0 0.0
0001b0 00 00 00 00 00 00 00 00 00 00 00 00 00 00 00 00
       0.0 0.0 0.0 0.0
0001c0 00 00 00 00 00 00 00 00 00 00 00 00 00 00 00 00
       0.0 0.0 0.0 0.0
0001d0 00 00 00 00 00 00 00 00 00 00 00 00 00 00 00 00
       0.0 0.0 0.0 0.0
0001e0 00 00 00 00 00 00 00 00 00 00 00 00 00 00 00 00
       0.0 0.0 0.0 0.0
0001f0 00 00 00 00 00 00 00 00 00 00 00 00 00 00 00 00
       0.0 0.0 0.0 0.0

critic.network_body.linear_encoder.seq_layers.2.weight f4 [128, 128]
000000 d9 29 86 3d e9 84 24 3c 90 de e8 3d 40 b8 10 3e
       0.065509506 0.010041454 0.113705754 0.14132786
000010 89 40 1e bb 13 50 d1 3c b9 c3 fa 3c 94 cf 44 39
       -0.0024147353 0.025550878 0.030610906 0.00018769345
000020 77 2e cb 3d 13 ed 9f bd 88 9d ca 3c e3 73 1e 3d
       0.09920972 -0.0780889 0.02473332 0.038684737
000030 f9 3b f2 bc a0 67 b4 3d 3e 3d 1e be b7 37 13 3e
       -0.029569613 0.088088274 -0.1545305 0.14376722
000040 a0 e6 a1 bd 77 2f 8d 3d 31 cb be 3c cb 8b 97 bc
       -0.07905316 0.06893819 0.023290249 -0.018499276
000050 cd 66 27 3c 6a fb ee 3d 1e 86 ce bd ab c0 20 bc
       0.010217381 0.11669047 -0.100841746 -0.009811561
000060 c9 01 00 3c ba 92 3f be ec ff 04 be b8 b2 02 3d
       0.007812926 -0.18708315 -0.12988251 0.03190872
000070 ea f4 36 3b 1e 2d e3 bd 9d 19 ea 3d 2a 69 35 3d
       0.0027916976 -0.1109259 0.114306666 0.044289745
000080 ac f8 91 3d 00 ad 43 be 83 f4 14 be 32 7b 8c bc
       0.071275085 -0.19108963 -0.14546399 -0.017148588
000090 80 a7 48 bc 3b 3e 78 bd 7a b0 8d 3d 11 a0 76 bd
       -0.012246966 -0.060606223 0.06918426 -0.060211245
0000a0 9b 59 66 3d fe 44 9c bc e3 85 29 3e 88 82 ee bd
       0.0562378 -0.019075867 0.1655498 -0.116459906
0000b0 0a 69 9f bd 37 b9 02 be 1a 72 51 bd ff c0 d9 3c
       -0.077837065 -0.12765966 -0.051134206 0.026581286
0000c0 24 cd 92 bd f0 a7 c6 bc 56 28 9f bd e3 3f e9 3c
       -0.07168034 -0.02425 -0.07771365 0.028472846
0000d0 5c fc cd 3d 99 0d 7f 3c b9 ca df 3d 2c ab cd 3d
       0.10057899 0.015567207 0.10927338 0.10042414
0000e0 08 a6 1b be 0e 07 f8 bc 94 12 73 bd 94 05 17 3d
       -0.15200055 -0.030276801 -0.05934389 0.036870554
0000f0 b7 6b 7f 3d ba f9 37 be a2 b8 64 3b 5b 6f 1c 3d
       0.062358584 -0.17966357 0.0034900089 0.038192134
000100 ec c2 94 3d 11 8b 1e 3e 06 cb ce bd 69 44 11 3d
       0.07263741 0.15482737 -0.100973174 0.03546563
000110 04 57 15 bd 39 5a 94 38 a6 3d 9c 3d 7e 73 57 bc
       -0.036459938 7.073995e-05 0.07628946 -0.013150094
000120 ba 47 21 bd 9f a3 10 3e 60 b7 e6 bd c8 6a 7c bd
       -0.039375044 0.14124916 -0.11265445 -0.061625272
000130 1d aa 9f bd 1b 5c 85 3c a1 f7 84 bd 28 ef ef 3c
       -0.077961184 0.01627927 -0.06492544 0.029288843
000140 16 76 c7 bd 8a f9 d3 bd 25 ce 19 be 66 c2 af 3d
       -0.0973932 -0.1035033 -0.15020044 0.085820004
000150 ec 30 b9 bd 08 bb c1 bc fa 3d 62 3d d5 48 0c bc
       -0.09042534 -0.023648754 0.055234887 -0.008562286
000160 c7 a8 11 bd 9b 8f 00 bd 27 2e ae bd 1d 85 e5 3d
       -0.03556135 -0.031386953 -0.085048966 0.1120703
000170 5e 8a e5 bd d6 97 9d 3d 9a f7 44 3d 2d e5 9a 3c
       -0.11208032 0.07694976 0.048087694 0.018908108
000180 ed fb a3 bc ea 62 05 3d 51 51 05 be b6 6a 18 be
       -0.020017589 0.032565035 -0.13019301 -0.14884457
000190 c4 f4 f9 bc 40 ac 23 be 8e 7e 2e be 35 bc ce bd
       -0.030512221 -0.15983677 -0.17040464 -0.100944914
0001a0 07 a2 7c 3d a3 13 87 3d 11 76 26 bd b1 ab fa bd
       0.06167796 0.06595542 -0.04063994 -0.12239779
0001b0 ce 75 0e 3e 67 1f bc 3d 54 96 e2 3c c3 b6 7c 3c
       0.13912126 0.09185677 0.027659573 0.015424433
0001c0 76 4f 2b bd ac 26 96 3d ab 6e 38 be 34 ae 71 bd
       -0.041823827 0.07331595 -0.18010966 -0.059004024
0001d0 d5 7c c8 3d 18 46 0d 3d ae 2f 06 bd ca 31 7d 3c
       0.09789435 0.034490675 -0.032760315 0.015453765
0001e0 b2 8e a0 3a db a5 2a bd 13 7b 9b 3d 94 49 bc 3d
       0.0012249558 -0.04166208 0.07591834 0.091937214
0001f0 b7 07 92 3d fe 77 a7 3c 64 f8 f8 3d ff 66 8e bd
       0.07130378 0.020442959 0.12156752 -0.06953239
000200 58 49 58 bd 7b 18 13 3d 0b c7 fc 3c 84 ff 80 bd
       -0.05280432 0.03591202 0.03085663 -0.06298736
000210 b0 c9 07 bd d1 55 a1 bd a1 c7 18 be 79 10 c4 bc
       -0.03315133 -0.07877696 -0.14919902 -0.023933636
000220 ea 68 e5 bd ed a6 0d be a1 08 f6 3c d7 9f 0e 3d
       -0.112016514 -0.13833208 0.030033411 0.034820404
000230 00 a8 39 bb 5b dc 92 bb c4 8f 19 3c 6f 85 00 be
       -0.0028328896 -0.004481835 0.009372655 -0.12550901
000240 fb f4 18 be a4 d3 e7 3c 18 a9 eb 3c 23 3e 00 be
       -0.14937203 0.02829916 0.028767154 -0.12523703
000250 f7 20 39 3d 24 9e 29 3d 12 f8 01 3e 3d 25 11 bd
       0.045197453 0.04141058 0.12692288 -0.035435904
000260 85 b6 d8 bd 99 97 94 bd 04 8d f0 bc 73 35 06 be
       -0.10581688 -0.072554775 -0.029364116 -0.13106327
000270 f9 28 dd 3c 91 f4 15 3e 82 ba bf 3d 4e c1 a9 bd
       0.026997076 0.14644076 0.093617454 -0.08288823
000280 46 88 67 be f0 c5 c3 3d 52 22 36 3d b7 68 1d 3e
       -0.22610578 0.09559238 0.044466324 0.15371977
000290 18 4f 1f 3d 24 26 62 3e 1c 21 10 3d 5c 1d f3 bc
       0.03889379 0.22084862 0.035187826 -0.029677086
0002a0 d6 6c 0b 3e de ab 39 bd 7f fb 69 bd 05 0d 2b be
       0.13615736 -0.04532992 -0.05712461 -0.16704185
0002b0 5b e8 f0 3c ad c4 db bc 13 c1 2f 3e 6b 3b a5 bd
       0.02940767 -0.02682718 0.17163496 -0.08067974
0002c0 ea ad 23 be 77 8d d7 bd 07 71 4c 3e f8 1f 3a 3d
       -0.15984312 -0.10525029 0.19964992 0.045440644
0002d0 c9 00 7c bd 73 7d c3 3d e3 92 25 bc 7a 4c 59 3d
       -0.061524186 0.09545412 -0.010105821 0.05305145
0002e0 6b fb bb 3d d2 ef a3 3d 09 4e a5 3c 4f 5f a0 3d
       0.091788135 0.080047265 0.020178812 0.07830679
0002f0 34 d5 db bd 52 37 7a 3c e5 99 e1 3d 20 40 a5 3c
       -0.10734025 0.015271978 0.11015681 0.020172179
000300 30 bb 08 3d e7 d8 01 bd f3 a3 9f 3b 0b b9 bd bd
       0.03338164 -0.031700995 0.004871839 -0.0926381
000310 36 4a 96 bd da 21 c4 3d ce e2 97 bd ea 1a 12 be
       -0.07338373 0.09576769 -0.074163064 -0.1426808
000320 1a 4a 0d be e3 d4 5b bd b4 d1 10 b8 20 be 9a bd
       -0.13797799 -0.05366982 -3.4527577e-05 -0.07555795
000330 81 c5 5f bd 7a 6c ae 3d 8a 89 5e 3d 63 31 de bd
       -0.054631714 0.08516784 0.054330386 -0.108492635
000340 84 44 02 bb be 27 ba bc d8 b1 8b 3d d5 47 c9 bd
       -0.0019877264 -0.022724029 0.068210304 -0.09828154
000350 1f 9f 14 3b 6a c4 cc bd 2e a9 f1 3c 2c c1 9a bd
       0.0022677851 -0.099984005 0.029499616 -0.07556376
000360 10 e0 7e 3d f6 3a 64 bc ad 5d 64 3b eb 76 13 be
       0.0622254 -0.013930073 0.0034845874 -0.14400832
000370 f5 7f 0f bd b0 55 92 3d a1 c4 2c 3b f2 9e 48 3c
       -0.03503414 0.0714525 0.0026362317 0.012244927
000380 b6 14 0b bd 1f a8 84 3d 60 c4 44 bc c3 56 b1 bc
       -0.0339553 0.06477379 -0.01200971 -0.021647817
000390 b8 d7 0f 3c bb 9d 4a bc c2 c2 0c be 6c 1c 0f be
       0.008779459 -0.012366707 -0.13746169 -0.13975686
0003a0 e4 0f 53 bd ac 4c 79 3d 08 ef 17 3d f0 9f 2d be
       -0.051528826 0.060864136 0.037093192 -0.16955543
0003b0 10 61 68 3d c5 23 24 3d 4a 43 69 3c 5b 2e c0 bd
       0.05673319 0.040073175 0.014237234 -0.093838416
0003c0 fb 1b 47 bd bd 22 00 bd 98 e4 ef 3d 9b 34 13 3b
       -0.04861067 -0.03128313 0.11713523 0.0022461775
0003d0 68 0b 9a bd 95 56 02 bd bd 59 8f bd f8 26 c0 3d
       -0.07521707 -0.031820852 -0.06999538 0.09382433
0003e0 a3 7f 24 3c f7 1b 31 be 14 71 98 3d a6 ad 05 3c
       0.010040197 -0.17295824 0.07443443 0.008159077
0003f0 9c 3a 3b 3e a9 e6 b0 3d 7a 43 05 be 13 ca e8 bc
       0.18284076 0.08637745 -0.13014022 -0.028416669

critic.network_body.linear_encoder.seq_layers.2.bias f4 [128]
000000 00 00 00 00 00 00 00 00 00 00 00 00 00 00 00 00
       0.0 0.0 0.0 0.0
000010 00 00 00 00 00 00 00 00 00 00 00 00 00 00 00 00
       0.0 0.0 0.0 0.0
000020 00 00 00 00 00 00 00 00 00 00 00 00 00 00 00 00
       0.0 0.0 0.0 0.0
000030 00 00 00 00 00 00 00 00 00 00 00 00 00 00 00 00
       0.0 0.0 0.0 0.0
000040 00 00 00 00 00 00 00 00 00 00 00 00 00 00 00 00
       0.0 0.0 0.0 0.0
000050 00 00 00 00 00 00 00 00 00 00 00 00 00 00 00 00
       0.0 0.0 0.0 0.0
000060 00 00 00 00 00 00 00 00 00 00 00 00 00 00 00 00
       0.0 0.0 0.0 0.0
000070 00 00 00 00 00 00 00 00 00 00 00 00 00 00 00 00
       0.0 0.0 0.0 0.0
000080 00 00 00 00 00 00 00 00 00 00 00 00 00 00 00 00
       0.0 0.0 0.0 0.0
000090 00 00 00 00 00 00 00 00 00 00 00 00 00 00 00 00
       0.0 0.0 0.0 0.0
0000a0 00 00 00 00 00 00 00 00 00 00 00 00 00 00 00 00
       0.0 0.0 0.0 0.0
0000b0 00 00 00 00 00 00 00 00 00 00 00 00 00 00 00 00
       0.0 0.0 0.0 0.0
0000c0 00 00 00 00 00 00 00 00 00 00 00 00 00 00 00 00
       0.0 0.0 0.0 0.0
0000d0 00 00 00 00 00 00 00 00 00 00 00 00 00 00 00 00
       0.0 0.0 0.0 0.0
0000e0 00 00 00 00 00 00 00 00 00 00 00 00 00 00 00 00
       0.0 0.0 0.0 0.0
0000f0 00 00 00 00 00 00 00 00 00 00 00 00 00 00 00 00
       0.0 0.0 0.0 0.0
000100 00 00 00 00 00 00 00 00 00 00 00 00 00 00 00 00
       0.0 0.0 0.0 0.0
000110 00 00 00 00 00 00 00 00 00 00 00 00 00 00 00 00
       0.0 0.0 0.0 0.0
000120 00 00 00 00 00 00 00 00 00 00 00 00 00 00 00 00
       0.0 0.0 0.0 0.0
000130 00 00 00 00 00 00 00 00 00 00 00 00 00 00 00 00
       0.0 0.0 0.0 0.0
000140 00 00 00 00 00 00 00 00 00 00 00 00 00 00 00 00
       0.0 0.0 0.0 0.0
000150 00 00 00 00 00 00 00 00 00 00 00 00 00 00 00 00
       0.0 0.0 0.0 0.0
000160 00 00 00 00 00 00 00 00 00 00 00 00 00 00 00 00
       0.0 0.0 0.0 0.0
000170 00 00 00 00 00 00 00 00 00 00 00 00 00 00 00 00
       0.0 0.0 0.0 0.0
000180 00 00 00 00 00 00 00 00 00 00 00 00 00 00 00 00
       0.0 0.0 0.0 0.0
000190 00 00 00 00 00 00 00 00 00 00 00 00 00 00 00 00
       0.0 0.0 0.0 0.0
0001a0 00 00 00 00 00 00 00 00 00 00 00 00 00 00 00 00
       0.0 0.0 0.0 0.0
0001b0 00 00 00 00 00 00 00 00 00 00 00 00 00 00 00 00
       0.0 0.0 0.0 0.0
0001c0 00 00 00 00 00 00 00 00 00 00 00 00 00 00 00 00
       0.0 0.0 0.0 0.0
0001d0 00 00 00 00 00 00 00 00 00 00 00 00 00 00 00 00
       0.0 0.0 0.0 0.0
0001e0 00 00 00 00 00 00 00 00 00 00 00 00 00 00 00 00
       0.0 0.0 0.0 0.0
0001f0 00 00 00 00 00 00 00 00 00 00 00 00 00 00 00 00
       0.0 0.0 0.0 0.0

critic.value_heads.value_heads.extrinsic.weight f4 [1, 128]
000000 a6 00 3b 3e fc 5f c0 3d 78 84 32 bd 38 7d cc 3d
       0.18261966 0.093933076 -0.043583363 0.09984821
000010 98 f8 3a 3d 16 42 2f be 20 db 59 3c 80 4c e4 bc
       0.045647234 -0.17115054 0.013296872 -0.02786851
000020 40 e8 52 bb c8 3e e8 3d c0 3b ab 3b 54 d1 4f 3e
       -0.0032181889 0.113400996 0.0052256286 0.20294696
000030 88 96 bd 3d 40 56 9e 3d 80 63 f5 3b b0 ad 22 3d
       0.09257227 0.07731295 0.007488668 0.039716423
000040 9f ff 19 be 40 3f b5 3c 38 d7 de bc 94 1d dd 3d
       -0.15038918 0.022124887 -0.027202234 0.10796657
000050 50 a2 a8 3c ee 45 45 3e a8 b5 df 3c dd f1 4d be
       0.02058521 0.19264957 0.0273083 -0.20111795
000060 14 91 89 bd ee 9c b7 bd b0 f6 72 3d f0 ea 46 3e
       -0.067171246 -0.08965479 0.05931729 0.19425559
000070 f8 45 07 be b0 92 15 3c 20 b5 8d 3b b2 34 5c be
       -0.13210285 0.009129211 0.0043245703 -0.21504477
000080 76 3d ce bd c0 aa 53 be c7 38 f5 bd 90 d6 c1 3d
       -0.100703165 -0.20670605 -0.1197372 0.09464753
000090 28 61 a1 3d 79 ed 29 be 14 7c d8 3d 78 05 2f 3d
       0.07879859 -0.16594495 0.10570541 0.042729825
0000a0 00 1c 17 bb c4 a3 58 bd ee 6b f5 bd b8 bf 42 3e
       -0.002305746 -0.052890554 -0.119834766 0.19018447
0000b0 83 be bb bd bc 41 cb 3d 3a 28 84 bd 50 33 6b 3c
       -0.091671966 0.09924647 -0.06452985 0.014355496
0000c0 72 65 53 3e 63 69 55 be 48 8c fc 3d 1f dc 59 be
       0.20644167 -0.20840983 0.12331444 -0.21275376
0000d0 52 b1 3e be f0 f1 8c bc f0 88 8f 3d 7c 53 ec 3d
       -0.1862233 -0.017205209 0.07008541 0.11539361
0000e0 b6 6d 41 3e 24 5d 92 bd e0 da fb 3c be 63 a5 bd
       0.18889508 -0.071466714 0.030744016 -0.08075665
0000f0 a2 87 33 3e 08 e8 b5 3d 74 8f 3b be 80 95 0e 3d
       0.17532209 0.08882147 -0.18316442 0.034810543
000100 f4 37 0e bd 30 d3 a6 bd 6b 68 d9 bd 1c 05 03 3d
       -0.03472133 -0.081457496 -0.10615619 0.031987295
000110 39 02 35 be 82 1b 57 be 75 60 d0 bd 30 4a 2d 3e
       -0.17676629 -0.21006587 -0.10174648 0.16922832
000120 eb b1 ce bd b0 6e da 3d af ff e0 bd a0 54 f8 bd
       -0.10092529 0.10665643 -0.10986268 -0.12125516
000130 72 4f 04 be a0 10 7e 3d 40 b4 05 3e da e4 08 be
       -0.12920931 0.062027574 0.13057041 -0.1336855
000140 c0 6f d6 bd f8 7a 10 bd 04 86 0a 3d c4 f9 f1 bd
       -0.10470533 -0.035273522 0.033819214 -0.11815217
000150 a8 59 fc 3c 00 0d 6c 3a 1b 62 30 be 60 50 b2 bd
       0.03080447 0.00090046227 -0.17224924 -0.087067366
000160 54 f2 37 bd a4 a3 b1 3d 20 fc 2f 3e 78 d8 1a be
       -0.044908836 0.0867379 0.17186022 -0.15121639
000170 10 fc 7c bd 28 e3 1c bd 28 4a 20 3e 3e 34 38 3e
       -0.061763823 -0.03830257 0.15653288 0.17988679
000180 be 01 4e be cc 2b 4f 3e cd c6 d3 bd 40 6f e3 3b
       -0.20117852 0.20231551 -0.103406526 0.0069407523
000190 b4 97 ba 3d 0a 6b 9d bd ae a2 0f 3e a6 07 ef bd
       0.09110966 -0.07686432 0.14026901 -0.11671381
0001a0 00 b3 b6 ba 04 e9 97 bd 28 12 85 3d 98 d8 3f 3e
       -0.0013938844 -0.07417491 0.06497604 0.18734968
0001b0 3c f1 07 3e bb 77 51 be fc 9a 61 bd 75 b2 58 be
       0.13275617 -0.2045583 -0.055079445 -0.21161826
0001c0 70 78 75 3d b0 06 8f 3c 08 a3 bb 3d f6 c2 24 3e
       0.05992931 0.017459244 0.09161955 0.16089997
0001d0 00 59 eb 3d 3c 27 13 3e f8 e0 ab 3d 30 d7 55 bd
       0.11491585 0.14370435 0.08392519 -0.052207172
0001e0 14 4c 3f be 20 b1 f4 3d b4 65 e1 3d 6c 70 41 3e
       -0.18681365 0.119478464 0.110057265 0.18890542
0001f0 84 02 0a bd b8 c3 74 bd 4c 90 85 3d ca 9f 1e be
       -0.033693805 -0.059756964 0.06521663 -0.15490642
