Unity/results/ScoreGoal0/My Behavior/My Behavior-20595.onnx (onnx, 75988 bytes, 7 tensors)

action_model._continuous_distribution.log_sigma f4 [1, 5]
00000000: 92a4 dcba 032d c83a ff34 95ba 61b3 913b
00000010: 1fee 573b
-0.0016833714 0.0015272204 -0.0011383592 0.0044464325 0.0032948328

action_model._continuous_distribution.mu.bias f4 [5]
00000000: 37d4 cfb9 b66a 0739 c6ae 6d37 00c4 0cb6
00000010: 502e e038
-0.0003964023 0.00012914356 1.4166993e-05 -2.0975713e-06 0.00010689779

action_model._continuous_distribution.mu.weight f4 [5, 128]
00000000: 9a50 b53c 197a 993c 70be 163d 0587 0cbc
00000010: 4f39 15bc bcf0 473d 60dd fdbc 1284 203c
00000020: b51e 15bc c7ee 283b 120b 23bc 16d6 b0b8
00000030: c5ea 27bb 8eb0 d73b f8b6 00bc cfa0 b8bb
00000040: 8d5a 4fbc af55 2ebc f675 a93b 1179 61bb
00000050: f0c4 363c 2ccd 703c fe08 643b c701 0dbc
00000060: f60d b53c 8119 043d 8059 f23b b4ab 34bb
00000070: 312f 98bc 6ee7 a2b9 ffda 643c 858b 513c
00000080: cc51 99ba d04f 423b 7028 a83c dd12 9dbc
00000090: 99ce e03b 4d29 203c 2869 b8ba 24a6 56bc
000000a0: 879b a4bc 46de a5bc 3ca8 5c3c 5f48 f33c
000000b0: afcf 773c afc2 9f3c 641f 16bd a073 a739
000000c0: e2c2 cebc 32ce 863c e3d3 47bc aab1 ce3c
000000d0: 496f 903c 3fc5 febb 28b9 75bc 05f5 9dbb
000000e0: e1c6 bcbb b67c 67bc b554 ec3c f3a9 9b3c
000000f0: f671 f1bc fbda 20bc cc18 9bbc fdb9 cebc
00000100: d1ab ba3b d985 18bc 7d4e a1bc 10b8 c63c
00000110: b0fa f33c e990 9abc 2905 953c eaec 67bc
00000120: ddfc 0c3c a4be 5abb 8a5e 1e3b 1583 6b3d
00000130: 6c2c 7ebb 6898 9a3c 57c0 54bc 4f78 f93c
00000140: b1f1 a2bc bf09 66bc d2cf 73bc af4d 003c
00000150: f17b 493c 5594 d63b 788b 30bb af75 db3b
00000160: b396 e9bc 8606 0cbd c7da ba3c 4ad7 103d
00000170: c804 6cbc 8749 9bbc 97a7 33bc 0bbf e4bb
00000180: 46ac 413c 25db 0dbc bc2d b8bc e053 cbbb
00000190: 1da8 54bc 22fd 5a3a 5e41 66bc bbc4 efbc
000001a0: b58c aabb ad53 b5bc ce83 10bc d4d9 bcbc
000001b0: 223c 973c c73a b3bb 9e4e 013d 6d13 8fbc
000001c0: 8ffa 1cbc 8f97 e73c 0899 1c3d 7589 cfbc
000001d0: 337c 7c3b 712d c23b fde4 ae3c 492b 7fbc
000001e0: edb0 05bc d9f7 2b3d eaed 383c caa9 82bc
000001f0: 699e 943b 9ac4 433c e6c6 e43c a636 843b
00000200: c365 bf3c f6dc 063c 8083 d3bb c474 8abb
00000210: 56e7 e13c 203c b1bc d245 0a3c a68d 89bc
00000220: ef38 08bd 0d3e 15bb 27cc 473c dae6 79ba
00000230: effc 68bc 200e 483c fd59 b13c 9638 6d3c
00000240: 4bbf c43b a8c2 20bd c803 0c3c 5eff 86bc
00000250: eee9 2a3b 12cb 8c3a c33f 2d3c 42bb f93b
00000260: 7fcc bbb9 ff62 feba 9840 c23c ac3a c0ba
00000270: 418d bdbc 4c0c 6439 5929 d23b b0ab e73c
00000280: 45d9 fc3b ad53 ddbb 8274 abbc 5dc4 8b3c
00000290: dc7d 77bb e04c 4f3b 3b7e 51bd d6ac e739
000002a0: 2519 073d 4d77 f43b 35c7 94bc 7f1e e8bb
000002b0: 76d8 0a3c 9132 29bd e888 e6b9 7823 b6bc
000002c0: fe59 a4bc ee87 913b e222 ddb9 e879 bf3b
000002d0: 9b71 79bc a241 61bc 8452 c0bc 04c5 7cbc
000002e0: 8e5d a23c dbdd 023c c1f4 9dbc da4b abbb
000002f0: 4fd7 c1bc 2940 0ebd fff3 8a3c 0bab 8cbc
00000300: e7c3 593c 5e02 f23b b476 04bc ccf6 f83b
00000310: cb27 eabc 3bd5 083c d8d2 1fbc e48d 9abc
00000320: 11f3 07bd 4a28 b73c 7396 86bc 05a0 c8bb
00000330: 977a d2bc d53c 50bc 1f5a 6fba ba3c 21bc
00000340: ab87 ab3c 8220 e6bc a6fb f23b f773 6dbc
00000350: 9510 dd3c 21f8 94bc cc46 ac3c 4aa3 08bd
00000360: 93ab 113d 5f5c 4c3b 5aba d03c e4f3 b6bc
00000370: 9087 32bc ecc0 debc 712e 123d 0548 eb3b
00000380: 7c06 0dbc 81ec acbc 353e 4abc 8132 6bbc
00000390: 33ae 683b 222e 8bbb b00b b5bb 4bfd 2dbc
000003a0: 6fa9 4bbc c184 e1bb ea10 b0bc 5cbf 8c3c
000003b0: 4e19 20bb 7146 133c 9b5a 8f3c 1616 84bc
000003c0: fdae 77bb 54c7 753c dd98 0a3c a2bd 6cbb
000003d0: dcb6 d0bb de81 823c ca9d 533b 525c c9bc
000003e0: c574 3abc 34d9 84bb 9c89 cdbc 66e6 4b3d
000003f0: 86b5 b93c c21e 2f3b a9fa 003b 649b 93bc
0.02213316 0.018734979 0.03680271 -0.008577113 -0.009107902 0.048813567 -0.030989349 0.009797113
-0.009101559 0.0025777088 -0.00995137 -8.4322106e-05 -0.0025622111 0.0065823263 -0.007856123 -0.0056344043
-0.012655866 -0.010640546 0.0051715327 -0.0034404437 0.011155352 0.014697354 0.0034795399 -0.008606381
0.022101384 0.032250885 0.007395923 -0.0027568163 -0.01857719 -0.00031071476 0.013968228 0.012789612
-0.0011697351 0.0029649623 0.020527095 -0.019174034 0.006860566 0.009775472 -0.0014069425 -0.013101134
-0.020093692 -0.02024759 0.013467845 0.029697595 0.015125199 0.019502012 -0.03665103 0.0003193887
-0.025239412 0.016455743 -0.012196514 0.025231201 0.01763119 -0.0077749784 -0.014997758 -0.0048204684
-0.005761013 -0.0141288545 0.028848985 0.019001937 -0.029473286 -0.009817834 -0.018932723 -0.02523517
0.0056967516 -0.0093092555 -0.019690746 0.02425769 0.029782623 -0.018867927 0.018190937 -0.014155606
0.008605209 -0.003337779 0.0024165236 0.057498056 -0.0038783802 0.018871501 -0.0129853105 0.030452875
-0.019890638 -0.01404041 -0.014881091 0.007831021 0.012297616 0.0065484443 -0.0026938599 0.0066973786
-0.028514242 -0.03418591 0.0228094 0.035361566 -0.014405437 -0.018955959 -0.0109652495 -0.006980782
0.011820858 -0.008658205 -0.022482745 -0.006205067 -0.012979534 0.000835376 -0.014053671 -0.029268613
-0.005204762 -0.022134626 -0.008820487 -0.023053087 0.01846129 -0.0054696533 0.031569116 -0.017465318
-0.009581222 0.028270511 0.03823188 -0.0253341 0.0038526177 0.005925827 0.021349424 -0.015574285
-0.008159858 0.041984413 0.011287192 -0.015950102 0.0045354855 0.011948729 0.027926873 0.004034835
0.023363953 0.008231392 -0.006454885 -0.0042253453 0.02757613 -0.021635115 0.008439498 -0.016791176
-0.03325742 -0.002277258 0.01219467 -0.0009532996 -0.01422046 0.012210399 0.021649355 0.014478823
0.006004249 -0.03924814 0.008545823 -0.01647919 0.0026079374 0.0010741672 0.010574284 0.0076212
-0.0003581978 -0.0019408165 0.023712441 -0.0014665923 -0.023138644 0.00021748355 0.0064136204 0.02828011
0.0077163302 -0.0067543597 -0.020929579 0.017061407 -0.0037764227 0.0031631514 -0.051145773 0.00044188526
0.032982964 0.007460511 -0.018161396 -0.0070837135 0.00847446 -0.04130799 -0.00043971022 -0.02223371
-0.020062443 0.004441253 -0.00042178395 0.00584339 -0.01522484 -0.013748558 -0.023476847 -0.015427832
0.019820001 0.007987465 -0.019281747 -0.005227548 -0.023662237 -0.034729157 0.01696205 -0.017171403
0.013291336 0.007385536 -0.008084942 0.00759778 -0.028583428 0.008351619 -0.009754859 -0.018866487
-0.03319079 0.022358079 -0.016429162 -0.0061225914 -0.025693221 -0.012709816 -0.00091305556 -0.0098411385
0.020938715 -0.028091673 0.0074152527 -0.01449298 0.026985446 -0.018184723 0.021029852 -0.03335885
0.035564017 0.0031182987 0.025479484 -0.022333093 -0.010896578 -0.027191602 0.03568882 0.0071802163
-0.008607503 -0.021108868 -0.012343933 -0.014355303 0.0035504221 -0.004247443 -0.005525075 -0.010619472
-0.012430533 -0.0068822806 -0.02149244 0.017181091 -0.0024429145 0.0089889625 0.017499259 -0.016123813
-0.003779351 0.015001137 0.008459297 -0.0036123772 -0.006369455 0.015931066 0.0032290095 -0.024580155
-0.011380379 -0.004054213 -0.025090031 0.049780272 0.022669565 0.0026721214 0.0019680655 -0.018018432

network_body.linear_encoder.seq_layers.0.bias f4 [128]
00000000: ca31 2bbb f390 2037 111d d43a 5635 b9b9
00000010: 62c2 6cba 3bb7 70ba 7424 bbba b5fa fbb9
00000020: d077 0cba 3576 a5b9 7bce 23b9 0f16 abba
00000030: 39bb 25b8 fef7 beb9 2a8e 1bba 5919 42b8
00000040: f7fb fbb8 9afd 01b9 ef4d 4eba e7f2 d2b9
00000050: 02a5 d7b9 c143 ca38 684a 96ba a439 18b9
00000060: f846 a829 8e81 3d38 8206 8637 d10a 613b
00000070: 820c 0a3a ae70 22b9 c999 809c c723 94ba
00000080: f1d5 3f3a 325b ef37 145f 7fb9 2ffb f5b9
00000090: 8a19 2ab7 bf0d c0b9 800e 48b9 79bd 97b9
000000a0: f4ff c4b9 6bde 193b f6b6 4537 cedf 4cb9
000000b0: 1f3f ccb8 5dbf 31ba 7592 1538 1447 2a39
000000c0: bc86 88b9 65c6 64b9 a65a d9b9 38ac 10ba
000000d0: 1d55 79b9 1e3a 4413 b85e 0339 0d9d f5b8
000000e0: 719c a3b9 7159 17bb 5b83 36b9 267d 833a
000000f0: 699a 8b39 8b18 68b9 6c50 703b ff5a 17b9
00000100: 6ded 143b fc97 9b32 f851 d9b9 32bb 84ba
00000110: 4e75 b438 87be 9339 7da6 7fb7 380e f18f
00000120: 7972 673a c73b 91b8 d649 41b9 c9a2 b21e
00000130: b417 91b9 b0e2 573b 80d7 62ba 437b 1b3b
00000140: 0311 c5b9 0a00 a63a 909d c038 fc5a d3b9
00000150: 2f33 a737 ec83 45b9 eb35 24b8 7bcd 85b9
00000160: 8038 afb9 eeae 0a10 8981 0eb9 359b 90ba
00000170: d911 9dba 5422 3332 eae6 0b39 00f2 6038
00000180: 6b05 6539 c8b7 bfb9 fdc7 1199 5870 38ba
00000190: 851e 90a9 fa00 98b9 6d66 5631 792d 60b9
000001a0: dfda 35ba 9796 b4b9 9ab2 79ba 1301 76ba
000001b0: ddee c739 5d3e cd39 fa6b cab9 ce44 efb8
000001c0: 43c3 30b9 98d1 52b9 e76a 9539 a730 3439
000001d0: 0e63 58b9 25c3 2eb9 2e05 983a d0e8 b33a
000001e0: 1624 343b 99f4 03b7 fc87 ab39 d868 3fbb
000001f0: ba69 ef39 4366 ce38 7f28 f013 661d b432
-0.0026122206 9.570492e-06 0.0016182979 -0.00035325688 -0.0009031651 -0.0009182577 -0.0014277832 -0.00048061242
-0.00053584296 -0.00031559324 -0.00015621811 -0.0013052839 -3.951343e-05 -0.00036424393 -0.0005933965 -4.627681e-05
-0.00012015545 -0.00012396873 -0.00078698894 -0.00040235298 -0.00041130936 9.644731e-05 -0.0011466267 -0.00014517322
7.47301e-14 4.518177e-05 1.5977075e-05 0.0034338722 0.0005266146 -0.000154915 -8.510082e-22 -0.0011302166
0.00073179515 2.8533486e-05 -0.00024354114 -0.00046917188 -1.0138736e-05 -0.00036631335 -0.00019078888 -0.00028942132
-0.00037574733 0.0023478519 1.1784714e-05 -0.0001953833 -9.739235e-05 -0.00067805295 3.5660767e-05 0.00016238942
-0.00026040326 -0.00021817682 -0.00041457004 -0.00055188267 -0.00023778198 2.4767332e-27 0.00012528419 -0.00011711763
-0.0003120634 -0.0023094083 -0.00017405806 0.0010031804 0.0002662719 -0.00022134387 0.003666903 -0.00014434381
0.0022724525 1.811349e-08 -0.00041450537 -0.0010126589 8.6049185e-05 0.0002817998 -1.5237948e-05 -2.3769912e-29
0.00088290084 -6.925273e-05 -0.0001843342 1.891381e-20 -0.00027674215 0.0032941513 -0.0008653328 0.0023724593
-0.00037587443 0.0012664807 9.184622e-05 -0.00040312845 1.9931786e-05 -0.00018836529 -3.9150862e-05 -0.00025520832
-0.00033420697 2.7350462e-29 -0.00013590431 -0.0011032583 -0.0011983468 1.0426977e-08 0.00013342095 5.363114e-05
0.0002184116 -0.00036567287 -7.536712e-24 -0.00070357835 -6.400179e-14 -0.00028992427 3.119932e-09 -0.00021379245
-0.00069372164 -0.00034444474 -0.000952521 -0.00093843153 0.00038134205 0.0003914711 -0.0003860889 -0.00011409224
-0.00016857409 -0.0002010524 0.00028499143 0.00017184262 -0.00020636266 -0.0001666663 0.0011598223 0.0013726
0.002748733 -7.865158e-06 0.00032716978 -0.002920678 0.00045664405 9.841893e-05 6.062445e-27 2.0968127e-08

network_body.linear_encoder.seq_layers.0.weight f4 [128, 9]
00000000: 31c1 b8bd 546c 70bd dee0 1b3c 0e21 a3be
00000010: 3491 4b3e c0f4 353b 7720 253c a9ae abbe
00000020: 3838 b1be 976e f3be 52da 1bbd 486d 263f
00000030: 74d4 f03e 47ed 26be 5681 1ebe d0fc 65b6
00000040: 41d8 fc3e 124a 8b3e f6c9 7f3e 6183 bcbc
00000050: 511d f93c 0708 43bf e71f 35be 70db 513d
00000060: a60d 1d3e 2382 3bbf 6c34 7fbe 5974 803e
00000070: 825c 8e3d 7ff3 bd3d 96a9 313f bd7b 963e
00000080: f80d a5bd c00f 37be 3722 ecbe 308d e8be
00000090: 8069 8dbd 760c fc3d 7367 c23c c673 193e
000000a0: c6c2 16bf daec c73d 15d1 b93e ffe1 a8bd
000000b0: 5163 8f3d 1bdc 273f c600 a4be d8e7 983e
000000c0: af96 32bf a528 10be 025e 81be 6514 0abe
000000d0: 5c64 0ebf 2695 d33d a26e 333e 3d59 9b3e
000000e0: a3f9 e53e 2809 a33e 84e2 033f 21fc 353e
000000f0: f796 093e a01c a63d d229 dcbe 2e0b 45be
00000100: 6fd4 18be 3f13 35be d53f 993e 8269 64be
00000110: 2b3e c4be 8a6f e03b 0af9 ebbd 7c26 c33d
00000120: abf2 debe d839 56be fb55 2b3d 62ec 073e
00000130: 898b 75bb 0a22 073e 38a1 dc3c 2135 fc3d
00000140: 371a 65bd a04b 943e 1c6a 1abe e376 cbbe
00000150: eb2a 0e3f d35d a7bd 30ad fabe 38d6 0fbf
00000160: a025 873e ec67 a0be 05f2 1bbe b5ca c7be
00000170: 268c 753e 784b 2bbd 7853 963e 57c0 83bd
00000180: 914d ba3c 9c52 793e ef10 b0bd 5659 5fbe
00000190: b66a 48bd 5f29 2abe 81ff 5f3d d159 483e
000001a0: ba61 993d 8722 cdbc d3ee cf3e dcdb 6a3b
000001b0: a6af 82bd 91ad 3a3d b21b 463e 3582 c53e
000001c0: be5e 043f 4a48 80be ac88 c93e e741 0c3d
000001d0: e720 74be 0db4 4cbe 9aa4 b6bd a90c 3a3e
000001e0: c304 d1be 7729 443f 1490 dd3d 4795 bd3e
000001f0: 3347 26bf dc22 353e 285c 003e e4d6 023f
00000200: 908b 633e c1db cc3d 0dd9 3ebe 45cb 43bf
00000210: cea8 edbd 2227 11be f081 14be 955e c43e
00000220: be00 b63e 3a45 3bbe 41db fabd f0dc c23d
00000230: cb41 cd3d 5d91 7dbe 49f8 01bf 6281 19bf
00000240: b6de 07bf f967 123e bd3c fd3d 2c64 2f3e
00000250: 6413 e6be d548 af3e 00e7 77be 513c e03e
00000260: 86b6 303e 85e8 dd3d 798f 253e 31a7 31be
00000270: af8b 103f deed 91be 2c6f 13be 723e 29bd
00000280: aead 07bf 1f57 51be eb42 fa3e fb96 883e
00000290: e4d8 6a3e f8fa 3bbd 6cad ff3d d700 5dbe
000002a0: 6e75 9f3e f918 a33e 22ef 8f3d f24e 37be
000002b0: fa53 f5be 900d a93d 43d2 95be 8cf3 c4bb
000002c0: 2f0d 87be bc04 143f 3ab2 9ebd 1aa2 75be
000002d0: fa3a af3e 6399 c43e 5e39 ad3e f4c8 083f
000002e0: 3399 65be dccc aebd bc4f bc3e e66f d33d
000002f0: b6f9 30be 6c06 9d3e 4191 2a3d 6c73 0ebf
00000300: e62a 97be 2bab 2b3f f0d1 e93d a144 873d
00000310: 0748 fb3e ce17 cd3d d628 263c ca70 f43e
00000320: c5b5 17bf f1cb a03c 87fb 4dbe 6491 003f
00000330: d740 db3b 1500 343e 9698 b1be f681 fd3e
00000340: 3c43 a43e 9597 79be 6bd6 f2bb 662f 05bf
00000350: 49e7 fd3d c41a e23d d1b2 933e a697 fd3e
00000360: 3272 4c3e 9cd2 673e 7325 9b3d b353 7dbe
00000370: 9f19 b4be e6f4 c1bd 301c 99be 04d7 ee3e
00000380: 34a3 16bf 7aae 84be 8956 81bf 147d f2bd
00000390: 2481 603e 4b49 893e 995d 12be a1d0 a13d
000003a0: ffeb e33d baed cfbe 1f60 99bd 5405 5f3e
000003b0: 1c43 553e c3ef c5bd 73c0 babe 2b8b 1d3e
000003c0: b052 d53c 99b4 cc3e 54eb 59bf e215 1ebf
000003d0: 2f70 f73e 308a ecbd 6e47 87be 8f19 13bc
000003e0: 1d5d 06bf dec7 4bbe dc4f ddbe 84d0 8d3e
000003f0: 429a 7c3e 186f 96bc f970 66bd c6b8 3b3e
-0.09021223 -0.05869706 0.009514062 -0.31861156 0.1987961 0.002776429 0.010078541 -0.33531693
-0.34613204 -0.4754531 -0.038050003 0.650105 0.4703709 -0.16301452 -0.15479025 -3.4270815e-06
0.4938374 0.2720495 0.24979386 -0.023011865 0.030409487 -0.76184124 -0.17687951 0.051234663
0.15337238 -0.7324545 -0.24922341 0.25088766 0.06951238 0.09274959 0.6939939 0.2939128
-0.08059305 -0.17877102 -0.46119854 -0.45420218 -0.06904888 0.12307064 0.023730969 0.1498557
-0.5889095 0.09761973 0.3629233 -0.0824623 0.07001365 0.6557023 -0.3203184 0.29864383
-0.69761175 -0.14078005 -0.25267035 -0.13484342 -0.55621886 0.10331182 0.17522672 0.3034152
0.4491702 0.31842923 0.5151751 0.17771961 0.13436495 0.081109285 -0.43000656 -0.19242546
-0.14924787 -0.17683123 0.29931512 -0.22305873 -0.3832868 0.006849234 -0.1152211 0.09528825
-0.43544516 -0.20920503 0.041830044 0.13273767 -0.0037467203 0.13196579 0.026932344 0.12314821
-0.055933204 0.28963947 -0.1507954 -0.3973914 0.5553424 -0.081721924 -0.48960257 -0.56186247
0.26395893 -0.31329286 -0.15229042 -0.3902184 0.23979244 -0.04182002 0.29360557 -0.0643317
0.022742065 0.24347919 -0.0859698 -0.21811423 -0.048929892 -0.16617344 0.054687027 0.19565512
0.07489343 -0.025040878 0.40611896 0.0035836613 -0.063811585 0.045575682 0.19346502 0.38575903
0.51707065 -0.25055152 0.39362085 0.034242537 -0.23840676 -0.19990559 -0.08918114 0.18168892
-0.40823945 0.7662577 0.10818496 0.37027952 -0.6495239 0.17689079 0.12535155 0.5110915
0.22221208 0.10002852 -0.18637486 -0.7648204 -0.116044626 -0.14175084 -0.14502692 0.3835341
0.3554744 -0.18288127 -0.122488506 0.09514797 0.10022315 -0.24762483 -0.5076948 -0.5996305
-0.53074205 0.14297475 0.123651005 0.17128056 -0.4493667 0.34235254 -0.24209213 0.43796018
0.17257127 0.10835365 0.16168012 -0.17348935 0.5646314 -0.2850179 -0.14397877 -0.041319318
-0.5299939 -0.2044339 0.4887918 0.2667769 0.229343 -0.04589364 0.124842495 -0.21582352
0.3114428 0.3185499 0.07028033 -0.17901209 -0.47915632 0.0825454 -0.2926198 -0.0060104784
-0.26377246 0.57819724 -0.07748838 -0.23987618 0.34224683 0.38398275 0.3383283 0.5343163
-0.22421722 -0.085351676 0.36779583 0.10324077 -0.17282757 0.30668962 0.04164243 -0.5564487
-0.29524916 0.67058057 0.114169955 0.06604887 0.4907839 0.10014306 0.010141572 0.477423
-0.59261733 0.019628497 -0.20115481 0.5022185 0.006691079 0.17578156 -0.34686726 0.49513215
0.32082546 -0.2437423 -0.0074108145 -0.5202545 0.1239763 0.110402614 0.28847364 0.4952976
0.19965437 0.22638935 0.07575502 -0.2473896 -0.35175797 -0.09470539 -0.29904318 0.4664842
-0.5884278 -0.25914365 -1.0104533 -0.11840263 0.21924263 0.2681373 -0.14293517 0.07901121
0.11128997 -0.40611058 -0.07489037 0.21779376 0.20826381 -0.096648715 -0.36474952 0.1538512
0.026040405 0.39981535 -0.8512471 -0.6175214 0.48327777 -0.11549795 -0.26421684 -0.008978262
-0.5248583 -0.19900462 -0.4322499 0.27698147 0.2466822 -0.01836352 -0.056260083 0.18332204

network_body.linear_encoder.seq_layers.2.bias f4 [128]
00000000: 0427 c2b8 ac0d 803a 49c9 9ab5 3f69 f2b9
00000010: 9a64 fab8 24b4 3eb8 ea1b cd3a fa3b 2cb8
00000020: cce4 1b28 715d 27b9 38d2 cf37 c7d9 10af
00000030: e858 feb9 7232 a6b9 e280 1739 7ac5 0fb9
00000040: 9cf2 00b8 424c 3ab9 522e 1938 d09f d0b7
00000050: 6b62 fab9 3261 b035 fa52 1bb9 2267 9232
00000060: db79 9fba 7eee 003a 7f7e 09b8 fd04 f8b8
00000070: 2042 6939 c4ac 7aba 2485 a3b8 6976 59ba
00000080: d672 80ba c1b8 10b9 0c6a 10b9 cd2b 423b
00000090: 3611 b7b9 f89f 06bb 1dbf 5f13 36da 9133
000000a0: 6116 1238 e5c7 f339 27bd ebba 4c2d 01ba
000000b0: d430 04ba 00dc 0ab3 a982 d5a6 5f91 93b8
000000c0: f156 edb8 d48b bcb8 9cb6 9aba 1262 9a98
000000d0: 64a4 c036 50dc d6b9 cfcd 923a ff15 8239
000000e0: a68a 3c34 acc1 26ba c26b 59b8 e089 04b9
000000f0: df1d 8fb9 89ea 9c39 caf6 b139 5cff d638
00000100: 226a 0dba a254 253a 97bd 3dba e8c0 3eb9
00000110: 070a 77b9 eb70 91ba 1361 213a 9a61 92b8
00000120: 9edc 15b9 7226 e5b9 706b b8b9 869e b2b9
00000130: e5cb 9db8 2b4f d538 7fda 0cb1 aef5 f1b9
00000140: 8b27 c439 deb5 35b9 b8c2 8ab8 45ba 4139
00000150: b59c e4b9 7582 79b9 58a3 b3b9 9ef2 6ab9
00000160: 14ca a0b8 172a 8939 84b5 c334 0033 b838
00000170: 8d0e bfba 333f a4b9 f7cb 9bb9 9c3b ff38
00000180: 93eb 1bb1 d7a3 ffb3 2b42 d0b9 5daf 7aba
00000190: bec0 2eb9 94c9 2039 6ee7 0f3a cab0 a0b8
000001a0: 1216 a6b7 d1fc d1ba 0072 9e39 df4d 4c3a
000001b0: bb0a 76b8 3e61 2cba 6604 c738 d524 5639
000001c0: 0ccc 07b9 25be 1b39 3ead ffb9 6ca8 0a36
000001d0: 5075 173b 6f1c 86b9 ffa8 45bb 9489 d939
000001e0: cf20 0730 88c4 01bb 2dee 08b9 1448 6139
000001f0: d384 7cba 60e3 1bba 7c8f feb9 efce be38
-9.257908e-05 0.00097697 -1.1532476e-06 -0.0004623625 -0.000119396675 -4.54673e-05 0.0015648578 -4.1063853e-05
8.653841e-15 -0.0001596117 2.4774214e-05 -1.3174094e-10 -0.00048512896 -0.00031699572 0.00014448495 -0.00013711108
-3.0743526e-05 -0.0001776675 3.652118e-05 -2.486995e-05 -0.00047757043 1.3141309e-06 -0.00014812863 1.7043536e-08
-0.0012167053 0.00049183506 -3.2781154e-05 -0.00011826491 0.00022245245 -0.0009562487 -7.797245e-05 -0.00082955376
-0.0009799849 -0.00013801736 -0.00013772416 0.0029628158 -0.00034917303 -0.0020542126 2.8240783e-27 6.791781e-08
3.4829955e-05 0.00046497505 -0.0017985449 -0.0004927709 -0.00050426763 -3.2330718e-08 -1.481526e-15 -7.036584e-05
-0.00011317235 -8.9905836e-05 -0.0011803689 -3.9907093e-24 5.7411835e-06 -0.00040981406 0.0011200252 0.0002481192
1.7559304e-07 -0.0006361257 -5.183719e-05 -0.00012639863 -0.0002729734 0.0002992938 0.00033943943 0.000102518796
-0.0005394538 0.0006306862 -0.0007238029 -0.00018191675 -0.00023559491 -0.0011096274 0.0006156128 -6.980002e-05
-0.00014291934 -0.00043706928 -0.00035175262 -0.00034068915 -7.524322e-05 0.00010171378 -2.0496882e-09 -0.00046150148
0.00037413495 -0.00017329256 -6.616622e-05 0.00018475305 -0.00043604305 -0.0002379509 -0.0003426324 -0.00022406361
-7.6670345e-05 0.00026162036 3.645365e-07 8.783303e-05 -0.001457648 -0.00031327605 -0.0002971587 0.00012170451
-2.2689377e-09 -1.1904165e-07 -0.0003972215 -0.00095628743 -0.00016665735 0.00015333883 0.0005489503 -7.662324e-05
-1.979902e-05 -0.001602078 0.00030221045 0.0007793586 -5.8660964e-05 -0.00065757695 9.489879e-05 0.00020422351
-0.00012950617 0.00014852786 -0.00048766466 2.0661637e-06 0.0023110695 -0.00025579656 -0.0030160544 0.0004149197
4.915934e-10 -0.001980098 -0.00013058698 0.00021484523 -0.00096328295 -0.0005946662 -0.0004855356 9.0984504e-05

network_body.linear_encoder.seq_layers.2.weight f4 [128, 128]
00000000: dd06 67bd f2f7 063d b84a 063d 4ec6 22bd
00000010: 3530 3f3e 90c5 febc 8713 173e ed5f 06be
00000020: 107f 34be 1965 f13d f2f2 72be 3970 d7bd
00000030: 3369 9f3d e64b 5e3d db6b 093e f1ee d23c
00000040: c650 12be 91a4 c93d f06a e23c 73f1 a03d
00000050: 0e3b 393e 044e cfbc 2168 463e bdb0 c6bb
00000060: 010b adbd a314 6bbd 0bb6 5b3d 748c e73d
00000070: b099 b93d 05dc 06be c46b 29bd 875b 6ebd
00000080: 2eba 5ebd 8e8f b43d 7771 ab3d 5aa3 8fbd
00000090: 1dd8 8ebd ffce 7a3d 71f7 abbd 14e7 3f3d
000000a0: 6ef7 e7bd ed9a dabb 9e61 3fbc 36db 423d
000000b0: a596 4b3d 3abf afbd 4bbf 31be 3701 023e
000000c0: a75d 253d 7ae4 11bc a958 b73d 8168 4a3d
000000d0: 8ea6 903a 3e9b 10be 9c4e 6a3d 3c41 9bba
000000e0: e780 24bd 3deb 043d cb7a b33d 3649 143b
000000f0: 694d 06be 9a8e aebd 8349 51bc 9242 acbd
00000100: 4400 4c3e ac8e e6bc 71dc 21bd 5857 443d
00000110: bd12 87bb e38e 063c 91f1 d2bc 7bec c4bd
00000120: d28b b33d 049d 05bd 69ad cb3d 32f3 dfbd
00000130: 9943 3ebc fbbc b03c 431a 503e 7738 0d3c
00000140: 086d bbbd d689 58bd 01d7 1b3d f931 bbbd
00000150: 891a e9bd d934 123d 0391 4b3d b53b dd3c
00000160: e5d5 05be a854 6b3d ab00 89bd de51 053e
00000170: 66d1 353d 66e2 ccbc 3185 41be ebc4 373d
00000180: 5f9e 4e3c 03ad c1bd 19db 83ba 8b21 9a3d
00000190: a83b 8abc fd54 0ebd 023b a63d ddb5 673c
000001a0: 270b cabd 1bc3 3f3c c0e0 5dbe 6270 893d
000001b0: e397 cd3d 9e08 213e f742 a9bc 76c8 bc3d
000001c0: 73a4 f33c 9cf7 f1bd 72d6 cd3d a57c 26bb
000001d0: ba82 843d bfb6 f2ba 9b87 07bd 5fb0 d33d
000001e0: b269 bebd 0cf9 de3d d7d2 f7bd 9567 fdbd
000001f0: c28e 98bc 7080 ecbd 2988 4a3e 816a 0f3d
00000200: 775e 093d 8085 113d 764f 943d 1aef 99bd
00000210: 7de7 9dbd 5219 023e da21 203d 9c35 19be
00000220: 3cf6 533d 74be 223e a74d c13d 8a40 86bd
00000230: 19dc d0bd 6a56 d1bd 2ee5 983a b774 6cbd
00000240: 3b60 79bd bcce 7f3d cbe7 10be a460 32bc
00000250: e97a 88be 6ef6 2d3d 28da fdbd 275c f83b
00000260: 6cc7 64bd 40de 16be f857 80bc 3ae8 24be
00000270: 5b20 be3d 5edc 64bc 27ea b3bd af88 173e
00000280: be49 093c ed2e 123e 548f 663b e54f 0cbe
00000290: 5f32 68bd fc8e 8a3c 98e0 c93c 2aa9 cebd
000002a0: f211 fc3c 022c c73d 46a5 a13d eb5a 05bd
000002b0: 7722 603d 1c09 973d e51c 60bd a94d ab3c
000002c0: 2d93 1f3c 7b05 c03d 1d93 10be e211 4a3e
000002d0: ceba 0a3e dec7 0dbe f26d 81bd 04f3 9cbd
000002e0: f79f fb3a e87e b93c 8e59 8b3a 7bf5 cabc
000002f0: d2c3 773d 0fc3 463c 4f55 d8bd d7e7 983b
00000300: fe08 06be ca85 413d 8f38 0fbd d439 d13d
00000310: 0055 1fbe 013f 82bd 36e1 a8bd 9d0b 21bc
00000320: c414 b9bc 3884 adbc e5fa 0d3e 9225 263c
00000330: f622 8dbc dcca 213d e7b1 7f3d f6e7 dbbc
00000340: 5823 393d 6fcf e7bc 39c0 9c3c aef0 a23c
00000350: ce36 3abb ccc5 b8bb 12e2 aa3d b41b 53be
00000360: c129 933e 3793 aabc 5cd2 c03d 0579 0b3d
00000370: 3e8c 143d ceb7 053c e537 a03d f033 93bd
00000380: d852 bebd 4d4e 39bd a247 773d 93ba bdbc
00000390: 7205 c43d cad6 23be ef06 b43b f0a7 03bd
000003a0: d6ad d23c 4370 9b3d c3b5 e2bd 549d b43c
000003b0: a771 c7bb f642 74bd f142 87bd e630 153d
000003c0: 2502 1f3d 5744 be3d ea03 5a3c fb7b f8bc
000003d0: b8d4 0cbd a921 413e 48bd 82bd da30 ca3c
000003e0: ad6a 88bd 2bc8 283d 7174 a3bd f8bf 513d
000003f0: c27c 6bbe 035b 023e a3e7 81bd ea1c 1d3e
-0.05640303 0.032951303 0.0327861 -0.0397399 0.18670733 -0.031100065 0.14753543 -0.1312253
-0.17626595 0.11786861 -0.23725489 -0.10519452 0.07783737 0.0542716 0.1342005 0.025748702
-0.14288625 0.09845842 0.027638882 0.07858553 0.18088934 -0.025305755 0.1937566 -0.0060635493
-0.084493645 -0.057392728 0.053640407 0.11306086 0.09062517 -0.13169868 -0.04136254 -0.058192756
-0.054376774 0.088164434 0.08371251 -0.07013579 -0.06974814 0.061232563 -0.08396805 0.046851233
-0.1132649 -0.0066713006 -0.011680989 0.047572337 0.049704213 -0.085813954 -0.17358129 0.12695776
0.040372517 -0.008904571 0.089524575 0.04941607 0.0011035965 -0.1412172 0.057203874 -0.0011845003
-0.040161993 0.032450903 0.08763655 0.0022626645 -0.13115467 -0.08523293 -0.012773874 -0.08411135
0.19921976 -0.028144203 -0.03951687 0.04793486 -0.004122107 0.008212778 -0.025749953 -0.096154176
0.08766903 -0.032620445 0.09945185 -0.10935058 -0.011612796 0.021574488 0.20322518 0.008619419
-0.091516554 -0.052865826 0.03804684 -0.09140391 -0.11382014 0.03569493 0.04969884 0.02700601
-0.13069876 0.05745378 -0.066895805 0.13019511 0.04438915 -0.025010299 -0.18898465 0.04486553
0.012611001 -0.094568275 -0.0010059803 0.07525929 -0.01687415 -0.03474902 0.081167236 0.014142481
-0.098654084 0.011704232 -0.21667767 0.067108884 0.10038736 0.15725943 -0.020661814 0.092179224
0.029741501 -0.11814806 0.10050668 -0.0025403884 0.064702466 -0.0018517597 -0.033088308 0.103363745
-0.092975035 0.10887346 -0.121007614 -0.12373272 -0.01862276 -0.11547935 0.19778503 0.03501368
0.033537354 0.035527706 0.072417185 -0.07516308 -0.077101685 0.12704971 0.039094783 -0.14961857
0.0517485 0.15892965 0.09438639 -0.065552786 -0.1019823 -0.1022156 0.001166498 -0.057728495
-0.06088279 0.062453017 -0.14150922 -0.010887299 -0.26656273 0.04247134 -0.12395126 0.007579345
-0.055854246 -0.14733219 -0.015666947 -0.16104212 0.09283515 -0.013968555 -0.087848954 0.14798234
0.008379398 0.14275713 0.0035180645 -0.13702352 -0.056688663 0.016913883 0.024643227 -0.10090859
0.030770276 0.09725191 0.078928515 -0.03255741 0.05472037 0.07374784 -0.054715056 0.020911055
0.009739679 0.09376045 -0.1411862 0.19733384 0.13547823 -0.13845775 -0.063197985 -0.07663539
0.0019197454 0.022643521 0.0010631548 -0.024775257 0.060489483 0.0121314665 -0.10563146 0.0046663093
-0.13089368 0.04724673 -0.034966048 0.10216108 -0.15559769 -0.06359673 -0.082460806 -0.009829429
-0.02259291 -0.02118121 0.1386524 0.010140793 -0.017228585 0.039500102 0.06242552 -0.026844006
0.045199722 -0.028297154 0.019134628 0.019890156 -0.0028414014 -0.0056388136 0.08343901 -0.20616037
0.28742793 -0.02082215 0.09415123 0.03405096 0.036266558 0.008161498 0.07823161 -0.07187641
-0.09293145 -0.04524069 0.06037105 -0.023160255 0.09571351 -0.15999904 0.0054939906 -0.03214258
0.025717657 0.075897716 -0.110698245 0.022047676 -0.0060865465 -0.05963417 -0.06604565 0.036423586
0.038820405 0.092903785 0.013306597 -0.030332556 -0.034382552 0.18860497 -0.06383759 0.024681497
-0.06660972 0.04120652 -0.07981194 0.051208466 -0.2299681 0.1273003 -0.06343009 0.15343061
