Unity/results/ScoreGoal0/My Behavior/My Behavior-377474.onnx (onnx, 75988 bytes, 7 tensors)

action_model._continuous_distribution.log_sigma f4 [1, 5]
000000 90 55 d9 bc 12 1f be bc 32 06 0b bd 76 9f 0e bd
       -0.026530057 -0.023208175 -0.033941455 -0.034820043
000010 88 be 80 bc
       -0.015715852

action_model._continuous_distribution.mu.bias f4 [5]
000000 ac f7 2f 39 ff 9f 27 39 67 f1 22 b9 07 ba b5 39
       0.00016781566 0.00015985964 -0.00015539453 0.0003466161
000010 ea 58 f8 b8
       -0.00011842123

action_model._continuous_distribution.mu.weight f4 [5, 128]
000000 39 77 35 3b 12 35 26 3d 18 08 4e bc d3 08 c6 3a
       0.002768947 0.040577956 -0.012575172 0.0015108831
000010 2d 54 20 bc 5d b1 f3 3b 4e c3 bd bc 75 b1 20 bc
       -0.009785694 0.007436915 -0.023164418 -0.009807934
000020 ea e6 fe 3c 55 60 01 3c b3 f0 62 3c 21 ce 09 bc
       0.031115968 0.0078965025 0.0138513325 -0.008410961
000030 a6 10 25 3c 9d 68 ed 3c 82 79 25 bc f2 40 15 3d
       0.01007477 0.028980548 -0.0100997705 0.03643889
000040 73 03 49 bc fd 4b 98 3b 89 c4 94 3b 61 07 cf 3c
       -0.012268889 0.0046477304 0.0045400304 0.025272073
000050 63 56 4b 3c 56 5c 93 3c 10 5b a9 3c 63 83 7f bb
       0.012410733 0.017988365 0.020673305 -0.0038988225
000060 f8 38 8e ba 57 c2 47 bb 0b f1 3c 3c e1 34 c9 3b
       -0.0010850718 -0.0030480826 0.0115320785 0.006140337
000070 98 cc ae bc d5 d8 1b 3b 1e 4b a7 3c 68 47 89 ba
       -0.021337792 0.0023780365 0.02042156 -0.0010473551
000080 3b 87 7d bc c6 35 8d 3c 48 f3 3e bb 02 95 95 3b
       -0.015474136 0.017237555 -0.0029136706 0.0045648823
000090 6f 88 55 bb 25 11 47 ba 89 cb cb bc 55 cf e9 3b
       -0.0032582541 -0.00075938023 -0.024877327 0.0071353116
0000a0 db cc c3 3c c1 50 31 3c 46 0a 39 bc 2e ba 0c 3d
       0.023901394 0.010822476 -0.011293953 0.034357242
0000b0 1f 59 b1 bc fa da 73 3c 7b 1b d2 3a ad 0f cf bc
       -0.021648942 0.014883751 0.0016029918 -0.02527603
0000c0 43 8b 0c bd ff 3c 3f 3c c1 89 2b 3a 0f ce 0c 3c
       -0.034312498 0.011672257 0.0006543659 0.00859405
0000d0 16 a5 be 3c 85 a1 4c bb 1d 56 37 3c 53 67 05 bc
       0.023272078 -0.0031224203 0.011189965 -0.00814231
0000e0 e3 49 1a bd 4f 62 1e bb dc a9 81 bc 92 d3 9a 3a
       -0.03766812 -0.0024167483 -0.015828066 0.001181232
0000f0 7d a0 53 3b 60 1f de 3c cb b3 af 3c 74 c7 19 bc
       0.0032291703 0.02711457 0.021448037 -0.009385932
000100 ed 5c 28 bd 12 88 b8 3c ee 08 09 3c 8c 7d cb bc
       -0.041104246 0.02252582 0.008363945 -0.024840139
000110 21 3c 75 bc ba 95 82 bc 73 6d b8 bc 55 32 76 3c
       -0.014967949 -0.015940536 -0.022513127 0.0150266485
000120 4a c7 64 bc a0 30 87 3c 88 e0 21 bc a6 5b 49 3b
       -0.01396353 0.016502678 -0.009880193 0.0030724793
000130 b3 be da bb a0 13 97 3a 50 51 b0 bc be 25 7e 3b
       -0.006675565 0.0011526234 -0.021523148 0.003877982
000140 0f 09 9e 3b 88 85 45 3c 74 ce 0e 3c 40 df ab bc
       0.004822857 0.012055762 0.008716214 -0.020980477
000150 9d 71 bc 3c 73 6a db 3c 21 97 64 3c e7 5b 28 bb
       0.023003394 0.026784157 0.013952048 -0.0025689544
000160 89 5b 9b 3b 95 c2 2c 3d 24 79 e8 bc 8c b8 15 bc
       0.0047411365 0.042177755 -0.028378077 -0.009138238
000170 07 ce 45 3c b9 1f a3 3c 76 6a 10 bd 89 77 97 3b
       0.0120730465 0.019912587 -0.03525778 0.004622404
000180 9d b4 de 3c 1f cb ab 3c 09 12 37 3c 88 6c fe 3c
       0.027185732 0.02097088 0.0111737335 0.031057611
000190 e5 70 97 bb f9 65 19 bc e4 23 90 3b 61 ed fd bb
       -0.0046216124 -0.009362691 0.0043988097 -0.007749245
0001a0 0e 22 9e 39 23 79 09 3b 21 e9 46 b9 5f d9 9b 3c
       0.0003016148 0.0020976744 -0.00018969599 0.019024549
0001b0 11 4e 06 bc 6a b9 09 bc 3e f3 6e bc 1e d2 ae bb
       -0.008197323 -0.008406023 -0.014584361 -0.0053351065
0001c0 d7 d5 b2 bc 33 37 05 bd 4d 14 fe 3b 29 f8 ff 3c
       -0.021830482 -0.032523345 0.007753885 0.031246262
0001d0 79 50 5e 3b 89 65 8d 3c c7 46 36 bc 63 01 59 bc
       0.0033922477 0.01726033 -0.011125273 -0.0132449595
0001e0 c9 6f df bb 69 df c8 3c 5e 75 92 3a 24 b7 89 bc
       -0.0068187458 0.024520593 0.0011173894 -0.016810961
0001f0 9b 62 d9 3b 9f 8b 60 3c 04 5b a5 3c 9b 4f 34 ba
       0.006634069 0.013705163 0.020185001 -0.0006878317
000200 eb e2 fd bb f9 81 4e 3c c7 4e 15 3c d3 b0 41 bc
       -0.007747998 0.01260423 0.00911302 -0.011821943
000210 0f 13 c5 bc 36 e4 29 bc 37 04 ed 3b 54 e3 03 3d
       -0.02405694 -0.010369351 0.0072331685 0.03219922
000220 b6 37 cd 3c 6d 9d 5d bb 95 70 0a 3c 8a 80 c8 3c
       0.02505098 -0.0033815757 0.008449693 0.024475355
000230 57 18 12 3d a8 14 c4 3c dd 40 d2 bc 7f f0 f0 ba
       0.035667744 0.02393563 -0.025665695 -0.001838222
000240 8d 6e 96 3a 8e 9f 53 bc b0 79 35 bc 84 55 dd bb
       0.0011477038 -0.012916459 -0.011076376 -0.006754579
000250 ea e6 80 bc 9e f1 c3 bc b0 55 a2 3b 37 8c 08 3b
       -0.015735108 -0.023918923 0.0049540624 0.0020835528
000260 c3 25 08 bd 1f 10 f8 3b c2 24 49 3b 62 ff 93 bb
       -0.033239137 0.007570281 0.0030692075 -0.004516528
000270 d8 9d 03 3d a2 3b 9c bc 6b 84 6a bc ea c8 8b bc
       0.032132953 -0.019071404 -0.0143137975 -0.017063577
000280 b6 96 cf bb 25 af bc 3b f1 08 9d ba 77 50 4a 3d
       -0.006335105 0.0057581835 -0.0011980814 0.049393144
000290 24 f8 0f bc e5 85 39 3c df 63 ef bc 27 b2 d2 bb
       -0.008787189 0.011323427 -0.029222427 -0.006429929
0002a0 c9 ff 79 3c af 20 3c 3c 52 ae d1 bb 05 44 e4 3c
       0.015258738 0.011482402 -0.0063989544 0.027864465
0002b0 c6 40 72 bc ca cd ab 3b 6a bd 23 3d d9 0c 99 bc
       -0.014785951 0.005243038 0.03997556 -0.018682884
0002c0 f8 ae fa bc 22 13 e2 3c 9b 1a 17 bd 09 0f 49 bc
       -0.03060101 0.027597014 -0.036890607 -0.012271651
0002d0 6a 9e bd bc 7b 20 c6 3c 83 0a 93 3a 11 80 cf 3c
       -0.023146827 0.02418541 0.0011218343 0.025329622
0002e0 5a cc f7 ba d0 58 8e bc 1c de b0 3b 64 ea 9f bb
       -0.0018905506 -0.017376333 0.0053975713 -0.0048802365
0002f0 8f af 09 3c 61 72 8e ba 1f 61 d1 3c 20 9c f4 3b
       0.008403673 -0.0010867828 0.025559006 0.0074649006
000300 00 61 12 bc e5 12 05 bc f9 09 f0 bc fe d4 93 3c
       -0.008934259 -0.008122181 -0.02930163 0.018045899
000310 ee 8a 35 bb 08 9f 25 bc 9c 9b 7f bc 68 75 b4 39
       -0.0027701217 -0.010108717 -0.015601065 0.0003441975
000320 28 8e 02 3c 89 6b 24 bb d2 0a 68 bc 86 c9 9f bc
       0.007968463 -0.002508851 -0.014162736 -0.019505274
000330 d3 d0 08 3c 70 32 af bc 59 28 8b bc f8 de f4 bc
       0.008350569 -0.021386355 -0.016987013 -0.029891476
000340 c9 59 d7 ba 7d 62 22 bd d4 1c 1d bd 12 27 48 3c
       -0.0016429956 -0.039644707 -0.03835757 0.012216346
000350 bd e6 d9 3b e0 02 9f ba 7a 08 0f 3d 8d 98 5c 3c
       0.0066498206 -0.0012131594 0.034920193 0.013464105
000360 32 86 b6 3b 6c 7f b1 39 65 c4 f9 bc 62 e0 ea 3c
       0.0055701965 0.00033855007 -0.030489156 0.028671447
000370 79 68 03 3c 0e 9d bf bb 1b 5f 98 bb 25 55 33 bc
       0.008020514 -0.00584758 -0.0046500093 -0.010945593
000380 0a eb e3 bb fa 4a bf bb 7b fc f3 3b 93 87 58 bc
       -0.006955509 -0.0058377953 0.0074458695 -0.013215917
000390 99 95 bb bb f6 b0 e0 3c 14 bd dd bc 26 4a 20 3a
       -0.0057246205 0.027428132 -0.027067699 0.00061145646
0003a0 6f 21 9d 3b ef 33 af 3c 01 eb 92 3b ef 91 8c 3c
       0.0047952454 0.021387069 0.004483581 0.01715943
0003b0 5b 03 1c bc 6d f6 00 bc 94 45 3c 3c cd 39 46 bd
       -0.009522284 -0.0078712525 0.011491198 -0.048394967
0003c0 55 4d 17 3b 46 83 5d bb bd e6 a7 b9 5d 62 12 3b
       0.0023086865 -0.003380017 -0.00032024636 0.002233646
0003d0 28 15 76 bc b7 2c 6f bc 06 18 8f 3c 97 dd ab 39
       -0.0150196925 -0.014598063 0.01746751 0.0003278076
0003e0 ab b9 51 ba e1 15 58 bb a6 1d f4 bb 52 05 87 bc
       -0.0008000384 -0.0032972025 -0.0074498234 -0.01648203
0003f0 7a fc 0f bd de 19 d1 3a cd c7 bc b9 43 f4 16 3c
       -0.03515289 0.0015953144 -0.00036007017 0.00921351

network_body.linear_encoder.seq_layers.0.bias f4 [128]
000000 de 25 bd bb b6 dc b0 ba 0d 4f 4c bb 67 06 d7 bb
       -0.0057723364 -0.0013493511 -0.0031175048 -0.0065620425
000010 23 bb 30 a8 ff 43 34 bb 35 fd b2 ba b1 ac cb ba
       -9.8105414e-15 -0.002750635 -0.0013655784 -0.0015539137
000020 9f 47 fa b9 07 c5 e8 3a 2a 84 55 ba 3c 4a 43 bb
       -0.00047737078 0.0017758914 -0.0008144999 -0.0029798886
000030 0e 3f 0d 3c 7a f0 95 bb 8c e1 e2 ba 4e c6 b6 3c
       0.00862099 -0.004575786 -0.001730965 0.022311356
000040 48 87 2e bb 69 23 7c ba 89 fa 1d 3a d3 78 a3 ba
       -0.0026630927 -0.00096183136 0.00060264074 -0.0012471922
000050 ea 7b 8c 3b 25 0d e1 3a bf 23 30 b9 ea c4 0d bb
       0.0042872326 0.0017170055 -0.00016797984 -0.0021632263
000060 14 08 3a 3a 43 5a 44 bb 51 a5 d1 ba 93 13 0c bb
       0.00070965406 -0.0029961027 -0.0015994703 -0.0021373972
000070 03 a9 88 bc 60 41 5f bb 15 94 dd b9 fe a5 18 3b
       -0.016682154 -0.0034066066 -0.00042262734 0.0023292298
000080 bd 01 0a ba b0 36 84 ba a6 87 16 bb 17 a8 57 3a
       -0.0005264541 -0.0010087099 -0.0022969036 0.00082266465
000090 b2 c5 f1 38 d7 01 f4 39 b2 59 88 26 27 87 08 bb
       0.00011528599 0.00046540677 9.461208e-16 -0.002083251
0000a0 9b c8 10 b1 4d 36 27 b8 67 e3 06 bb 7e e6 99 bb
       -2.106879e-09 -3.9866474e-05 -0.002058232 -0.0046966663
0000b0 30 9b 28 b9 da c8 bd 39 d8 50 48 bb ca 8f ac bb
       -0.0001607954 0.00036198535 -0.0030565765 -0.0052661644
0000c0 22 64 f6 39 10 c4 35 39 a9 a7 b5 39 ef 10 8a 3b
       0.0004699538 0.00017334544 0.00034647927 0.0042134444
0000d0 88 60 b7 ba 9a 21 ee ba f9 c3 0b bb 0d d0 bc 3a
       -0.001399056 -0.0018167973 -0.0021326526 0.0014405266
0000e0 f2 64 1e b0 6b be 9d 3a 87 91 f3 ba af 22 0a bb
       -5.7623517e-10 0.0012034898 -0.0018582799 -0.0021077802
0000f0 de bd c3 bb ec d4 58 b8 03 06 85 ba c3 d5 80 bb
       -0.0059735617 -5.1696712e-05 -0.0010148886 -0.0039317324
000100 29 1f 07 bb 5f 72 91 3a d0 72 47 bb 6d a2 17 3c
       -0.0020617938 0.0011096707 -0.0030433424 0.009255034
000110 75 03 0c ba 64 66 fe 3a f0 03 e6 bb bc 0f c7 29
       -0.00053410913 0.0019409177 -0.0070195124 8.840105e-14
000120 9e d5 ab 3b 03 ff 33 3a dc 22 6f bb 5d dc 32 3b
       0.005243971 0.0006866308 -0.0036489284 0.0027291991
000130 f5 57 fa ba 09 1c 42 bb 96 2e 22 3b ec ef 8e 3a
       -0.00190997 -0.002961876 0.0024747006 0.0010905243
000140 e9 a3 3e 3c ae 20 e1 b9 4a 82 91 bb dd 1f 38 bb
       0.011635759 -0.00042939693 -0.0044405805 -0.0028095164
000150 28 fa 7b bb aa 6a 95 bb ea 4d 12 bb c4 d4 2d bb
       -0.0038448665 -0.0045598345 -0.0022324272 -0.0026524523
000160 31 af 66 ba 68 f1 86 3b 3d 2d a4 ba a2 43 29 3b
       -0.0008799909 0.0041181333 -0.0012525689 0.0025827666
000170 83 6a 8e bb 00 00 00 00 dd 40 50 ba 24 8b c0 ba
       -0.0043461933 0.0 -0.00079442357 -0.0014689905
000180 43 15 8f 3b db 28 9a b1 41 ba 86 ba 1a 79 39 3b
       0.0043665483 -4.4866346e-09 -0.0010278897 0.0028300942
000190 d0 2b 5d 3a 51 36 d4 a4 84 41 a2 b9 de d7 4b bb
       0.00084370095 -9.203236e-17 -0.0003094786 -0.0031104009
0001a0 ef 4f 36 ba 83 49 05 bb 69 b7 8b 3b 26 af 6b ba
       -0.000695466 -0.0020338006 0.0042638076 -0.0008990638
0001b0 e6 25 11 0b f0 e0 0c ba af 0f ce bb 70 25 3f bc
       2.7954496e-32 -0.00053740945 -0.0062884907 -0.011666641
0001c0 0e 2a f2 0b c5 a3 94 ba 28 65 0a 88 ac 83 4c a0
       9.3278286e-32 -0.0011340311 -4.1646773e-34 -1.7323039e-19
0001d0 74 11 40 3c ad d2 7f ba 00 00 00 00 9b 85 98 3b
       0.011722911 -0.0009758871 0.0 0.004654599
0001e0 a8 cf 96 ba ec 19 8d ba 5b 7f aa ba cf 46 a7 ba
       -0.0011505978 -0.0010765172 -0.0013007926 -0.0012762191
0001f0 a8 ae c2 b8 60 ce ae b9 82 da f0 bb e5 ae 0a bc
       -9.283173e-05 -0.00033341628 -0.007350267 -0.00846455

network_body.linear_encoder.seq_layers.0.weight f4 [128, 9]
000000 eb e4 0b bf 0b e6 99 bd 70 52 cb 3e 36 ba 25 3f
       -0.54646176 -0.0751458 0.39711332 0.6473726
000010 65 d1 3d 3d 9b 70 1b 3c d9 dc 9d be 98 a4 39 3e
       0.046342272 0.009487296 -0.30832556 0.18129194
000020 84 c3 9b 3e 18 d4 b5 3e b8 e1 0f 3f 12 9b 8d 3e
       0.30422604 0.35513377 0.56203794 0.27657372
000030 9c 87 b8 3e 5d 8e 24 3f 83 80 c7 3e aa 1f 91 3d
       0.36040962 0.6427973 0.38965234 0.070861176
000040 8a 56 f6 3e 2b fb 29 3f 51 d5 88 be 22 da 57 3e
       0.481129 0.66398877 -0.26725248 0.21079305
000050 2f db bf 3e 3c a4 22 3f 34 ad 02 be 44 a0 6a 3e
       0.3747191 0.6353185 -0.12761384 0.22912699
000060 6a 13 69 be 96 a0 cf be 63 6c cb 3c ce b8 cd 3e
       -0.22761312 -0.40552205 0.024831956 0.40180057
000070 14 ce 02 be 2c ef 39 bf 02 88 02 bf fe 08 2e be
       -0.12773925 -0.7263057 -0.5098878 -0.16995618
000080 74 08 68 bc ef 60 8b 3d 7f c9 30 3e d2 8b 21 be
       -0.014162172 0.06805598 0.17264365 -0.15775993
000090 ec 96 93 3d 67 ac d2 3e ca eb 0a 3e c6 36 58 bf
       0.072065204 0.41147158 0.13566509 -0.8445858
0000a0 00 31 8f 3e ac ba 22 be e0 62 8b be 76 c3 1d bf
       0.27967072 -0.15891522 -0.27223873 -0.61626375
0000b0 ca 91 8a be 6c 8f 42 be e1 18 bf 3e 20 e1 1e 3e
       -0.27064353 -0.19000024 0.3732367 0.15515566
0000c0 ad 61 66 be 86 d6 af be e3 52 8f 3e 00 e0 df bc
       -0.22498198 -0.34343356 0.27992925 -0.027328491
0000d0 1a 49 3b 3e 55 2a 9b 3a d0 9c af 3e 20 86 63 bd
       0.18289605 0.0011838177 0.34299326 -0.055547833
0000e0 8b ad 8b bd 64 f1 ff bd f5 f9 66 bf dd 2d fa 3d
       -0.0682021 -0.124972135 -0.90225154 0.12215779
0000f0 3c 54 56 be 92 40 08 3e 14 9c 1e bf 06 b7 15 bd
       -0.2093057 0.13305882 -0.61956906 -0.036551498
000100 0f 09 d4 be 4a f2 cf bd 31 a1 70 be ab eb 18 3e
       -0.4141316 -0.10153635 -0.2349899 0.1493365
000110 ef a7 cf be 37 51 74 bc 33 bc 26 3c 3b 61 7d 3d
       -0.4055781 -0.014911941 0.010176706 0.061860304
000120 63 82 90 3e a8 47 4d 3b b7 59 8a bf 4a 57 79 be
       0.28224477 0.0031323228 -1.0808629 -0.24349704
000130 22 37 c3 3e 50 e7 52 3e 2c 8d 28 3f a1 39 27 be
       0.38128 0.20596051 0.6584041 -0.16330577
000140 4b 2a 08 3e b3 7f 4b be aa 69 13 be c1 a7 28 3d
       0.13297383 -0.19872932 -0.14395776 0.041175608
000150 ab de f1 bd de 34 f3 3d 70 19 ca bd 01 c2 4d 3e
       -0.11810049 0.11875318 -0.09868133 0.20093538
000160 06 4a 2b 3e ab 5c 04 3f e4 8a db bd a7 ab a7 3e
       0.16727456 0.517039 -0.10719851 0.32748148
000170 86 28 87 be c6 1d a2 bd 1f eb d4 be 30 5b c1 be
       -0.26398104 -0.07915835 -0.41585633 -0.37764883
000180 fa 97 e3 3e 18 e3 a7 3e b5 23 40 3f 67 4e df 3e
       0.44451886 0.32790446 0.75054485 0.43614504
000190 fb 0a 3c 3e 84 3a f7 3e e1 8b 34 3e 27 7f 02 bd
       0.18363564 0.4828683 0.17631485 -0.031859543
0001a0 bc 68 56 be 47 54 89 3e 85 42 93 be 2a 2a d0 be
       -0.2093839 0.2682211 -0.28761688 -0.4065717
0001b0 c0 68 3c be 38 fc 12 bd 64 7a 78 bd c0 3c 1f 3e
       -0.18399334 -0.035885066 -0.060663596 0.15550518
0001c0 53 ae ab bc e9 27 76 3e 91 1f 9b be 9d e6 91 3d
       -0.020957148 0.24038662 -0.3029752 0.07124064
0001d0 ff 31 33 bd 91 0d 48 be 55 8c 61 be 8e f6 77 be
       -0.043748852 -0.19536425 -0.22026189 -0.24215147
0001e0 46 05 e9 3e 0b 01 bb be 25 a1 bc bc de f4 1f bd
       0.45511836 -0.36524233 -0.023026058 -0.039051883
0001f0 54 08 81 3e e4 03 91 3c af 26 db 3d 59 81 cf be
       0.25201666 0.01770205 0.10700738 -0.40528372
000200 85 7a 18 be e9 45 27 3f c1 f7 6b 3e 36 65 ad 3e
       -0.14890487 0.6534105 0.2304373 0.3386628
000210 8c 27 81 3e b8 39 8e bd 29 c3 82 be e6 02 34 bd
       0.25225484 -0.06944603 -0.2553952 -0.043948077
000220 a9 5a 9a be 72 d7 14 be 90 63 0f 3f a6 94 2b bf
       -0.30147293 -0.14535311 0.56011295 -0.67023695
000230 42 15 0d bd d6 c9 f4 be dd d4 9a be 86 64 0a 3f
       -0.0344441 -0.4781024 -0.30240527 0.54059637
000240 73 eb 3b bf e3 84 bb 3e c4 69 ec bc 42 d2 11 bf
       -0.7340614 0.36624822 -0.028859027 -0.5696145
000250 7f 8e 2e 3f e6 c6 f3 3d f6 ef 00 be 38 5a dd 3d
       0.6818618 0.11903171 -0.12591538 0.108082235
000260 88 19 3e be a8 32 3e 3d 49 71 81 be 5e bc 70 be
       -0.18564427 0.04643503 -0.25281742 -0.23509356
000270 a2 b7 58 3e a3 4e 83 bf 6a 7e 6f 3e da 74 bc 3e
       0.211638 -1.0258373 0.23388067 0.368079
000280 c1 f6 09 bf 82 69 a1 be b6 b4 a3 3e ff 14 81 3e
       -0.5389214 -0.3152581 0.3197381 0.2521133
000290 d8 a7 b4 3e e6 ff cc bd 61 f5 d6 3e 1a b8 68 3e
       0.35284305 -0.10009746 0.41984084 0.22726479
0002a0 79 04 d2 3e d5 15 c3 be ac dd c2 3d 28 c0 c4 3d
       0.41019037 -0.38102594 0.09514937 0.096069634
0002b0 20 5c 12 3e 30 7a 14 be 67 03 d8 3e a6 23 41 bf
       0.14292955 -0.14499736 0.42190096 -0.7544502
0002c0 36 4b b2 3e 34 ac 6d bc 75 11 ef be cd e6 62 be
       0.34823006 -0.014506388 -0.46693006 -0.22158356
0002d0 51 bc 5f be dc 1b 84 be 67 81 0b 3f 1c c7 80 be
       -0.21849181 -0.25802505 0.5449433 -0.25151908
0002e0 b6 fd 00 3f bb a6 d2 be 18 ee f1 bd eb bc d5 be
       0.5038713 -0.4114283 -0.11812991 -0.41745695
0002f0 41 17 80 3e be 16 16 3d 29 46 82 3e 09 ad 11 bf
       0.2501774 0.036642782 0.25444153 -0.56904656
000300 ef 3e b8 bd 1b ac ab bc 0b 2f 2b bf 9d 71 f1 3c
       -0.08996379 -0.02095609 -0.66868657 0.02947312
000310 8a a1 98 be 46 38 c0 bd 9d fb f7 be e3 e3 de 3e
       -0.29810745 -0.09385733 -0.48434153 0.4353324
000320 7d ac 85 3e 58 58 d7 3e e5 28 cc 3e b4 25 d3 3e
       0.2610816 0.42059588 0.3987495 0.41239703
000330 88 43 ca be 81 3a 87 bd 7e ea 6f 3c 0c b6 3b 3e
       -0.39504647 -0.066029556 0.01464331 0.18331164
000340 7d fb 6c 3e cd e5 92 bd 94 8b 2f 3f 2d d9 3b be
       0.2314281 -0.07172737 0.68572354 -0.18344565
000350 a1 2e 25 bf 74 8a 62 be 56 0a 90 be 0d 85 e2 3e
       -0.64524275 -0.22123128 -0.28132886 0.44242135
000360 da 7a c4 3d f9 7a 2d bf 0c 33 af 3e 02 e3 4e 3e
       0.095937446 -0.67765766 0.34218633 0.20203784
000370 3c b3 c9 3e 85 ce 98 3d d2 01 04 be 21 20 e8 3e
       0.39394557 0.074612655 -0.1289132 0.45337012
000380 27 8d 37 bf 97 40 c3 3d 42 74 64 3e 6e 8c 15 be
       -0.71699756 0.09533804 0.22309974 -0.14604351
000390 a0 b7 24 be c6 8d 04 be 05 58 36 be a9 1c a0 3e
       -0.16085672 -0.12944707 -0.17807014 0.31271866
0003a0 6b 30 49 3f 9b e9 9c bd ff 89 8b 3e ba dc b9 3e
       0.78589505 -0.07661744 0.2725372 0.36301214
0003b0 5b 1a bd 3d 24 0d 0d 3e 55 2f a7 3d ea da 54 bc
       0.092335425 0.13774544 0.08163325 -0.012991646
0003c0 31 90 ee 3d 28 38 bc be 36 48 bb 3e 4a 4f a1 be
       0.11648596 -0.36761594 0.3657853 -0.31505805
0003d0 ef 32 95 be c7 15 33 3e b9 37 a5 3e 3a c3 48 3e
       -0.29140422 0.17488776 0.32269076 0.19605723
0003e0 b4 27 01 be 77 00 ef bd 2e 1e 82 3e 04 ad 86 3d
       -0.12612802 -0.116700105 0.2541365 0.06575969
0003f0 3a ec 94 be 80 9e 9b be 93 d9 df be 8b 23 01 be
       -0.29086477 -0.30394363 -0.43720683 -0.12611215

network_body.linear_encoder.seq_layers.2.bias f4 [128]
000000 2d 64 39 ba 31 8a b4 b9 50 bd 17 bb 33 0a cf ba
       -0.00070721173 -0.00034435236 -0.002315361 -0.0015795886
000010 3f 3b 25 ba 8a ba b0 ba 3c 21 72 b3 c7 2c d1 b9
       -0.0006303079 -0.0013483327 -5.6375242e-08 -0.00039896948
000020 d1 0b f8 b9 cb 8b 61 b8 83 28 21 bb 62 38 97 39
       -0.0004731105 -5.3774373e-05 -0.0024590797 0.00028842973
000030 64 61 48 bb 1f eb 7f ba f7 a3 b3 b9 71 a9 0c ba
       -0.0030575627 -0.0009762514 -0.00034263704 -0.0005365825
000040 b4 10 98 ba a4 3a e6 b9 1c 3a 33 b9 ca 4e 1c bb
       -0.0011601658 -0.0004391271 -0.00017092418 -0.0023850673
000050 c2 f0 53 ba 73 d5 40 ba 23 37 11 bb f8 3d 14 bb
       -0.0008084887 -0.0007356025 -0.0022158108 -0.0022619944
000060 6c 07 17 16 f8 41 0f ba 57 3e d6 bb 33 dd 28 3a
       1.2200025e-25 -0.0005464847 -0.006538193 0.00064416527
000070 9f 37 f2 39 17 37 17 bb 7b 5f 38 ba ff 04 29 ba
       0.00046199278 -0.0023073608 -0.00070332707 -0.0006447583
000080 d2 e6 67 39 42 03 a2 b7 f8 e5 63 ba 2a 92 ae ba
       0.00022115864 -1.9313422e-05 -0.0008693631 -0.0013318707
000090 7b 14 95 ba 3c 8e 4e ba 3a bc 04 b9 43 84 65 b9
       -0.0011373902 -0.0007879471 -0.00012658621 -0.00021888413
0000a0 d6 20 af bb 0f d4 49 39 50 a5 90 b9 5d d5 c7 b9
       -0.0053444905 0.00019247852 -0.00027588988 -0.00038115206
0000b0 ef 62 fe b9 d1 22 f2 39 7f f8 d0 b9 ff b6 3f 39
       -0.00048520367 0.00046183777 -0.00039857996 0.00018283351
0000c0 57 e7 c3 2a fc 73 97 b9 4a 74 47 24 09 a7 15 ba
       3.4799483e-13 -0.0002888738 4.3249747e-17 -0.0005708789
0000d0 c7 86 bc bb b4 2a 6f bb 78 08 05 ba 22 c8 36 b9
       -0.0057533714 -0.003649396 -0.00050748093 -0.00017431428
0000e0 35 53 a9 b9 87 35 9f 2d a2 a3 c2 ba 88 fd e2 ba
       -0.00032296186 1.8099978e-11 -0.0014849792 -0.001731799
0000f0 ba 4f 69 ba 78 2b e2 ba aa 75 57 ba 51 5f 0a 3b
       -0.0008900125 -0.0017255386 -0.00082191324 0.0021113942
000100 dd 48 1f 39 43 96 83 ba fa 41 3d ba e6 80 18 3a
       0.00015190565 -0.0010039288 -0.0007219609 0.0005817547
000110 dd c8 8a ba 16 b4 ef ba c3 01 bf b9 bf 2c ac b9
       -0.0010588426 -0.0018287923 -0.00036431671 -0.00032839735
000120 bf 28 b8 ba 29 bf 93 b9 ce e9 11 ba ef eb 4b ba
       -0.0014050229 -0.0002818045 -0.00055661506 -0.00077789923
000130 65 23 07 bb c3 63 09 ba 91 20 1c 39 0b bb aa b9
       -0.0020620462 -0.0005241001 0.00014889451 -0.00032564285
000140 d2 d8 0f bb e0 ca b6 38 b2 6f 6a ba bf 99 4d ba
       -0.0021949303 8.716225e-05 -0.00089430355 -0.00078430393
000150 36 8d 28 35 44 f9 85 bb b3 a2 1d bb 5c 1b 32 a8
       6.2790366e-07 -0.0040885527 -0.0024053275 -9.8869175e-15
000160 66 22 dc 3a 36 37 3a b9 bd 0a 55 3b d9 57 91 ba
       0.001679492 -0.0001775891 0.0032507621 -0.0011088803
000170 d4 55 b4 bb 0e 2a a0 39 33 5f b7 3a 08 8e 94 ba
       -0.0055033956 0.0003054891 0.0013990164 -0.0011333833
000180 0c 4b 1f 3b 67 95 01 bb fa e7 db ba 52 66 02 3a
       0.0024306206 -0.0019772889 -0.0016777508 0.00049743534
000190 70 00 72 39 1a 4d 8f ba a5 87 fa 39 43 a6 d7 3a
       0.00023079081 -0.0010933012 0.0004778478 0.0016452748
0001a0 33 c0 18 bb 49 54 d3 b9 c7 fc af 38 e6 a7 a7 ba
       -0.002330792 -0.00040307853 8.391734e-05 -0.0012791127
0001b0 ee 03 06 3b 62 78 6d b9 be 4b 35 34 d1 25 fe 3a
       0.002044912 -0.00022646927 1.6884493e-07 0.0019389932
0001c0 3e 65 53 ba 23 b4 77 3a fe c2 7e ba b8 b9 bc b8
       -0.00080640975 0.00094491447 -0.0009718387 -8.9991314e-05
0001d0 85 7d c5 3a a4 f1 3b b9 fe dc 91 3a 07 8c 1e bb
       0.0015067315 -0.00017923728 0.0011128483 -0.002419235
0001e0 1b db 0c ba 31 c5 2c ba 98 fa b9 ba f3 56 14 bb
       -0.00053732254 -0.0006590663 -0.0014189063 -0.0022634834
0001f0 8b 6d 70 3b 52 5f 6b ba 3a dc c3 b9 e3 1b 91 ba
       0.0036686386 -0.00089787424 -0.0003735738 -0.0011070933

network_body.linear_encoder.seq_layers.2.weight f4 [128, 128]
000000 81 2e cc 3d ea 09 9b 3d 30 9d e6 bd 02 23 bf 3c
       0.099698074 0.0757025 -0.1126045 0.023332123
000010 1c 95 f4 bc d1 c5 d5 bc 2b b1 dc bd 1c b6 30 3d
       -0.029856257 -0.026095303 -0.107759796 0.043142423
000020 87 d3 86 bd 01 93 42 3d 2e c0 47 bd 72 46 c3 3d
       -0.065833144 0.047503475 -0.04876726 0.09534921
000030 4a b3 64 3d 60 41 88 3c a2 7d 0d bc 7d 71 4d 3e
       0.055835046 0.016632736 -0.00863591 0.20062824
000040 ed 23 03 be b9 3e d6 bc 40 b8 af bc de da e9 bc
       -0.12806673 -0.026152955 -0.021450162 -0.028546747
000050 3e fa ef 3b aa 59 8c bd 34 19 89 bc 6d 9d 00 be
       0.0073235324 -0.068530396 -0.01673565 -0.12560053
000060 ee 64 03 be 87 58 67 3d 01 6e f3 bd 77 bd 08 be
       -0.1283147 0.05648091 -0.11886216 -0.13353525
000070 e6 bd 69 bd 78 5d 09 3d 3e 17 aa bc f1 82 a6 3d
       -0.057065867 0.033536404 -0.020763036 0.08130444
000080 21 b1 57 3d 3b 7a eb 3b 75 4b 42 3e 2c d4 46 3e
       0.052659158 0.007186202 0.18974097 0.19416875
000090 03 2b 88 bd e3 a5 82 3d 1d cc 62 bd f4 b7 18 bd
       -0.06648829 0.06379297 -0.05537044 -0.037284806
0000a0 6c 8a 31 bd e1 95 f0 3d 08 9c 1b 3c cb 32 a6 3d
       -0.0433449 0.11747337 0.00949765 0.08115157
0000b0 b8 7a 88 3d 8d 3b 91 bd e3 66 e9 3d df 2e d0 bd
       0.06664032 -0.070914365 0.11396577 -0.1016519
0000c0 03 43 65 bc bb 40 b0 3c 90 93 89 be 72 50 b9 bd
       -0.013993028 0.02151524 -0.26870394 -0.09048547
0000d0 8b 82 ac bd 05 63 07 be b9 a2 19 3c 12 2a 5f bd
       -0.084233366 -0.13221367 0.009377175 -0.05448348
0000e0 04 73 e4 3c 1f fb 1e bd ba 47 36 3d b5 61 c6 bd
       0.027886875 -0.038813706 0.044501998 -0.09686605
0000f0 37 e1 c5 bd f6 78 12 3d 34 b6 0d be dc 02 fb bb
       -0.09662097 0.03575989 -0.13839036 -0.007660253
000100 8b cb 38 bd c7 30 f7 3a 5a d6 6f bb a9 f5 a6 3d
       -0.04511599 0.0018859141 -0.003659627 0.08152325
000110 fe 9d 24 be 1f 64 4e bd f1 e7 e0 bd 20 22 33 3d
       -0.16075894 -0.05038845 -0.10981739 0.043733716
000120 af bb 2e 3d 04 9e d9 bd 41 a1 05 bc 7e 11 5d bd
       0.042659458 -0.10625842 -0.008156122 -0.05397176
000130 c3 3c 3b bc c4 84 f0 3d 0b d8 1b 3b d6 1b ee 3c
       -0.011428061 0.11744073 0.0023779895 0.029066008
000140 94 70 2f bd 74 0b f8 3d fc 3b 84 3d 9d e6 1e 3e
       -0.042831972 0.121115595 0.064567536 0.1551766
000150 5f 57 10 3e 60 4a c2 bd 5e b3 00 3e 18 99 50 bd
       0.1409583 -0.09486842 0.12568423 -0.05092725
000160 b3 2a 67 3d 1a 4c 53 3d db c5 ce 3d ee 5c e3 3d
       0.056437206 0.051586248 0.10096332 0.11101709
000170 41 70 a7 3d df cd 5b 3d 5d 82 e3 3d f8 a3 c8 3d
       0.081757076 0.05366313 0.11108849 0.097968996
000180 7f ea b9 bd e5 9f 4b bd 55 b2 29 3a 8e 9a d3 3d
       -0.0907793 -0.049713034 0.0006473412 0.10332213
000190 4b d5 20 3e 52 02 9c 3c 8a 47 ad bd 35 4d ce 3c
       0.15706365 0.019044075 -0.084609106 0.0251833
0001a0 65 eb 3f be df 67 84 bc 88 b0 89 3d 15 3e 52 3d
       -0.1874214 -0.01616281 0.06723124 0.051328737
0001b0 1a 31 e3 3d 39 95 5d 3c bf 0b d6 3d ce 20 a3 3c
       0.1109335 0.013524347 0.10451459 0.019913103
0001c0 5f 17 ff 3c c1 95 90 bc f0 5c 0e 3e ef 88 bd bd
       0.031139074 -0.017649533 0.1390264 -0.09254634
0001d0 49 b0 fd 3d 8b 95 dc 3c 28 44 bf bd fb ba 49 3d
       0.12387139 0.026926776 -0.09339172 0.049250584
0001e0 0b d4 46 be 41 d8 48 3d 94 07 09 bd b2 32 9a 3c
       -0.19416825 0.04903436 -0.033454493 0.018823002
0001f0 1b 90 41 3d 89 e9 06 be a4 bf a8 bd b4 ce a5 3c
       0.04725657 -0.13175024 -0.082396775 0.020240165
000200 d8 b5 f8 3d 11 fb 84 3d a2 64 e5 bd e5 67 f2 3d
       0.12144059 0.064931996 -0.11200835 0.118362226
000210 d8 a3 05 be e9 e3 2d be 6c 4f 07 3d d4 ec 25 be
       -0.13050783 -0.16981472 0.033034727 -0.16203624
000220 25 e9 1c be 74 72 87 bd a8 4c 18 bd df f6 49 3d
       -0.15323313 -0.06613627 -0.03718248 0.0493077
000230 b6 7a 12 bc f7 fa 5f 3d df f5 d8 3d c6 cd 84 bd
       -0.008940389 0.054682698 0.10593771 -0.06484561
000240 07 83 22 3e a1 b5 af 3d 52 56 10 bd db b6 12 3b
       0.15870295 0.08579565 -0.03523857 0.0022386822
000250 ba 8c 0f be dd 1b 84 bd 4d be 88 bd 87 b0 be 3b
       -0.14018527 -0.06450627 -0.06676922 0.0058193835
000260 b9 c9 4c 3e f1 e7 cf bd c6 a9 e0 bc c6 0d 25 3d
       0.19998826 -0.10151661 -0.027424704 0.04029634
000270 51 ff 8f bc 08 41 b6 bd 47 d5 93 bd a4 9e df 3c
       -0.017577799 -0.088991225 -0.07218414 0.027297325
000280 da d6 d0 bc 76 2c c7 3d e0 85 bb bc b6 9e 15 be
       -0.025493074 0.09725277 -0.022890985 -0.14611325
000290 3a a5 c3 3c 34 d7 4e 3d da ee de 3d dc 12 11 3e
       0.023882497 0.050498202 0.10885401 0.1416735
0002a0 dc ff a8 bd 94 7d e3 bc f5 53 07 3e ce 89 64 be
       -0.08251926 -0.027769841 0.13215621 -0.22318193
0002b0 d2 64 26 3e e1 e2 ce bc b2 4f 10 3d a2 8e 01 be
       0.16249397 -0.025254669 0.035232253 -0.12652066
0002c0 47 8f 43 bd 1e d8 00 3d 9d 57 38 3d ad 21 4a bc
       -0.04774406 0.031456105 0.04500543 -0.0123371305
0002d0 c3 b3 4a be 04 ed 65 3a 21 16 26 3e 04 0e 8a bd
       -0.19795136 0.0008770975 0.16219379 -0.067409545
0002e0 16 35 3e bd 31 54 f4 bb 8b 9e a2 be 6f 03 61 3b
       -0.046437345 -0.0074563255 -0.31761584 0.0034334322
0002f0 5b 16 61 3d 80 bf 74 3d e0 31 ec 3d 35 4a 65 bb
       0.05495296 0.05975294 0.115329504 -0.0034986858
000300 62 c4 0f be 5d ce 00 be 03 e6 86 3d 2b 13 d4 3d
       -0.14039758 -0.12578721 0.0658684 0.103552185
000310 41 d8 df 3d 72 f3 98 3d f8 c8 b2 3c d7 ca 0f bc
       0.10929919 0.074683085 0.021824345 -0.008776388
000320 7f 30 f8 3c b1 01 b5 bd ce 3a a1 3d 62 b3 c1 3c
       0.030296562 -0.08838213 0.07872544 0.023645107
000330 d7 53 88 3d 15 66 2d be 52 d9 e0 3d be e9 7c bb
       0.06656616 -0.16933472 0.109789506 -0.003859147
000340 03 85 51 3c 8c 96 90 bd 13 14 32 be 86 03 93 bd
       0.01278806 -0.070599645 -0.1739047 -0.071784064
000350 2b c8 dd 3c b8 19 3a bc 61 72 4a 3c 2c 0e 38 bd
       0.027072987 -0.011358671 0.012356372 -0.04493539
000360 31 91 54 3e 62 f0 76 3d f7 b3 26 be 45 40 44 bd
       0.20758511 0.06028784 -0.16279589 -0.047912855
000370 6c ca 00 bd f2 ba 70 3c e8 31 16 be 43 ed 08 3d
       -0.031443045 0.014693009 -0.14667475 0.033429395
000380 fe b7 f5 3a cf 61 14 bd bb cf f9 3c 47 14 3d 3d
       0.001874685 -0.03622609 0.030494561 0.046161916
000390 35 e8 8c bd 0f c4 09 be d1 be 08 be 9e 8a 42 3d
       -0.068802275 -0.13453697 -0.1335404 0.047495477
0003a0 d4 d9 f6 3d 91 9a 2b bd 69 3f ff bc be 8c 24 be
       0.12053266 -0.041895453 -0.031158166 -0.16069314
0003b0 1f c7 c7 3d 3e 75 67 3d 38 ff 99 3d 09 8d 25 bd
       0.09754776 0.056508295 0.07519382 -0.040417705
0003c0 36 74 b4 bd 20 10 b9 bc 18 cb dc 3d d8 ad 22 bd
       -0.08811228 -0.022590697 0.107809246 -0.03971657
0003d0 fd 5d fb bc 0b 4a 61 3e 70 99 69 bb b9 30 1b 3e
       -0.030684466 0.22000901 -0.0035644434 0.15155305
0003e0 71 8f 59 bc 26 30 4e 3e 06 d9 7b 3d 12 ec a0 bc
       -0.013278828 0.20135555 0.061486267 -0.019643817
0003f0 53 76 f3 3c a1 05 40 bd 36 9c c0 bc 29 0e 67 3c
       0.029719507 -0.04688037 -0.023511987 0.014102497
