Unity/results/ScoreGoal2/My Behavior/checkpoint.pt (torch, 453791 bytes, 36 tensors)

network_body.linear_encoder.seq_layers.0.weight f4 [128, 9]
000000 29 d8 12 bf 20 91 e0 be d2 81 63 3e 54 c5 d9 3d
       -0.57361084 -0.43860722 0.22217491 0.106333405
000010 2c 26 9c 3d ef 76 cb be 9d 2a 67 bd 0e 4f 02 bf
       0.07624468 -0.39739177 -0.056437124 -0.5090188
000020 f1 af 94 be 31 ea 1e be 3e 74 c9 bd c4 80 41 3e
       -0.29040483 -0.15519024 -0.098366246 0.18896776
000030 98 cf be 3e 85 68 a7 bd 42 10 a4 3c a0 8a ec 3d
       0.37267756 -0.081742324 0.020027284 0.11549878
000040 f4 ae e2 bc ba f8 a0 bc e0 94 64 bf 42 d6 d4 3d
       -0.027671315 -0.019649852 -0.89289665 0.10392429
000050 91 61 d7 be d3 f0 0a 3e f2 0e 6c bc 6c 75 f7 3e
       -0.42066625 0.1356843 -0.01440786 0.48331773
000060 bb e3 43 3e 5a 38 50 bf fa 16 56 3e aa c6 bb bc
       0.19129841 -0.81335986 0.20907202 -0.022921879
000070 32 cb 41 3f e7 fc 12 bf e8 d0 93 bd 48 e1 a1 be
       0.75700676 -0.5741715 -0.0721758 -0.31617188
000080 03 f6 e5 3d 67 87 1a be 32 d9 4f be ac b6 ae 3e
       0.11228564 -0.15090714 -0.20297697 0.34123743
000090 d5 a5 7f 3c 0a 5c 38 be 33 3e c6 3e 2e da 74 3e
       0.015603502 -0.1800386 0.3871933 0.23911354
0000a0 fd 71 10 3e c9 f9 02 3e d5 8f 4d 3e 5d 53 08 3e
       0.14105983 0.12790598 0.20074399 0.1331305
0000b0 d1 10 10 be 08 af 98 3e 84 bb 5d 3d cb d9 24 3d
       -0.14068915 0.29821038 0.054133907 0.040246766
0000c0 42 70 47 3d ef fb 5b bc 91 86 71 bf c0 13 42 bd
       0.04869104 -0.013426765 -0.9434596 -0.047382116
0000d0 ab ac 36 3d 6d a8 02 be 05 6e 68 bb 52 da 9e 3a
       0.044598263 -0.12759562 -0.0035465967 0.0012119508
0000e0 e5 2a dc 3d f0 88 56 3f ce 45 e3 be 23 66 a9 3d
       0.10750369 0.838027 -0.44389194 0.08271434
0000f0 9d c6 1c be fc b0 b6 3e f4 f9 07 bf de 26 68 bd
       -0.1531014 0.35681903 -0.53115773 -0.05667769
000100 dc 0d 9d bd 2b 5b 63 3e e1 45 04 3f 26 62 0c bf
       -0.07668659 0.22202747 0.51669127 -0.5483726
000110 33 c1 8e 3f 33 d3 83 3d 91 46 20 be 0e 97 a8 3e
       1.115271 0.064367674 -0.15651919 0.32927746
000120 d7 a1 6a bd 32 89 18 be 3a b9 be 3e 06 49 a3 be
       -0.05728325 -0.14896086 0.37250692 -0.3189165
000130 60 c5 b4 be 06 9a 0f 3e 99 d3 10 be fb bb 46 bd
       -0.35306835 0.14023599 -0.14143218 -0.048519116
000140 6d a1 5c 3f c7 ab 48 bd b7 d1 40 be de 53 8b be
       0.86183816 -0.048991945 -0.1883 -0.27212423
000150 45 df 5e 3e dc 78 ef 3c 40 8b 45 bd 16 9a 91 be
       0.21764858 0.029232435 -0.048228502 -0.2843787
000160 a7 fb 8b 3d a0 bb ac 3e e7 f0 5b 3e 75 30 cf be
       0.06835108 0.33736897 0.21478616 -0.40466657
000170 4d 3a e1 3d 51 ae a3 be 6e 9f af be d4 4c 6c 3f
       0.10997448 -0.3196893 -0.34301323 0.9230473
000180 1f be 61 be 91 ae e7 3e 97 8d e0 3c 69 d2 45 3e
       -0.22045182 0.4525037 0.027411265 0.19318546
000190 50 3f 9a be 1b 07 94 3e c0 51 12 3f 8b db a7 3d
       -0.3012643 0.2891167 0.5715599 0.081961714
0001a0 e2 92 d2 bd 47 98 76 3d 3e ea e3 bd 08 c8 52 3d
       -0.10281922 0.060203817 -0.111286625 0.051460296
0001b0 cc 05 85 be a4 ba 8f 3e 8c 96 37 3f 88 d2 be be
       -0.25980985 0.28072083 0.7171409 -0.37269998
0001c0 ff 98 79 3e 9a 23 a3 3e d8 f2 89 be 6b 8f bd 3e
       0.2437477 0.318631 -0.26943088 0.37023482
0001d0 ce dd b5 3e 51 91 34 3e bc d0 99 be bb fe e3 3e
       0.35520786 0.17633559 -0.30042064 0.4453028
0001e0 50 3d 1c bf 36 45 1a 3e 32 66 71 3e 27 a3 0a be
       -0.61031055 0.15065464 0.2357414 -0.135388
0001f0 c2 ab d5 be 85 06 b9 3e 7d 26 3f 3e 97 b6 e9 bd
       -0.41732603 0.36137787 0.18667026 -0.114117794
000200 bf c9 f1 bd 42 59 85 bd 40 af 5f be 26 07 02 be
       -0.11806058 -0.06511165 -0.21844196 -0.1269804
000210 c8 14 8e be 8f 25 35 be 4e aa b5 be 9b de 38 3f
       -0.2775023 -0.17690109 -0.35481495 0.7221467
000220 2a 1f 01 bc 42 82 5e 3e 9c c9 8b 3e 92 8b 22 3e
       -0.007880965 0.21729377 0.27302253 0.15873554
000230 2c 34 f9 3e 34 04 06 bf d6 7f 09 bf 67 5f 2c 3f
       0.48672616 -0.52350163 -0.5371069 0.6733307
000240 ce ed ec 3e d5 55 95 be 3c cc 17 bf db d3 67 3d
       0.4627518 -0.29167047 -0.5929601 0.056598525
000250 0d a4 09 be ed a1 db be 5f 96 01 be 9c 3e 95 3e
       -0.13441487 -0.42896977 -0.12655018 0.2914933
000260 25 90 d3 3e 3b 8f 08 3f b4 1d a8 be 68 a2 fe 3d
       0.4132091 0.5334355 -0.32835162 0.1243332
000270 62 a4 fd be dd a1 e0 be 66 36 39 be b9 c7 c3 3d
       -0.49539477 -0.43873492 -0.18087158 0.095595784
000280 4d ce cd 3d 04 a4 a6 3e 02 92 be be e2 9c aa be
       0.100491144 0.3254701 -0.3722077 -0.33322817
000290 f2 ad 9a bd 0d c0 e1 3e 17 12 85 3d f4 11 4d 3e
       -0.07552709 0.44091836 0.06497591 0.2002638
0002a0 63 8d 98 3e 42 12 83 be a7 00 a1 3e e5 a8 7f 3e
       0.2979537 -0.25599867 0.3144581 0.24966772
0002b0 a7 db d4 be 6d 7d 32 3e 32 3c e4 bd 62 f3 f2 3e
       -0.4157383 0.17430659 -0.11144294 0.4745131
0002c0 7b 82 11 3e bb fa 25 3f fb 3f 42 bf a2 c5 c7 bc
       0.1420993 0.6483571 -0.75878876 -0.02438623
0002d0 21 4b b2 3e f0 f3 4c be b1 93 36 be 8d f0 03 bd
       0.34822944 -0.2001493 -0.17829777 -0.03221183
0002e0 4e 1c 5b bf fa ce 19 be 9c 5e ab be bd ec b1 bd
       -0.85590065 -0.15020362 -0.3347062 -0.08687732
0002f0 03 79 e9 3e 58 a9 2c 3f ee e6 dc be 05 b6 a5 bd
       0.45600137 0.674459 -0.43144935 -0.08091358
000300 00 82 f7 3e 3b 96 8d be 40 50 0c 3e af 1d 34 3b
       0.4834137 -0.2765368 0.13702488 0.0027483513
000310 9c e0 5a be 45 c5 9c 3e e6 d2 e5 3e f4 15 b3 be
       -0.21374744 0.30619255 0.44887465 -0.34977686
000320 df 10 74 be e6 79 87 3e 3d be ae bd f9 4d 4b 3c
       -0.23834561 0.2646019 -0.08532379 0.012408727
000330 e2 dc af 3e 64 9a 41 3e 01 dd 38 3e 70 2c 27 3e
       0.34348208 0.18906552 0.18053056 0.16325545
000340 17 b8 08 be 89 03 cc be 05 21 ec bd 16 76 73 3e
       -0.13351475 -0.39846447 -0.115297355 0.23775515
000350 39 b1 39 be 16 4d e1 3e f6 74 68 3d 41 86 a0 be
       -0.18134011 0.44004124 0.056752168 -0.31352428
000360 d3 fb 70 be 9d 64 bb 3d f0 81 45 3e 8b 3f 7b 3e
       -0.23533563 0.0915005 0.19287848 0.24535958
000370 50 8e 51 3d dc dc 6f 3e 47 c1 c7 3e 9a 70 55 be
       0.05116111 0.23424095 0.39014646 -0.20843735
000380 6d a0 58 be 9f f9 09 3d cf 34 aa 3e 78 05 38 3f
       -0.21154948 0.033685323 0.33243415 0.71883345
000390 42 08 ac be a7 ed 8b 3e 5a 96 b8 3e 1c a7 0a be
       -0.3360005 0.27329752 0.3605221 -0.1354031
0003a0 0e 5d 61 3e 3b e9 8f 3e 8f 63 8d be 50 62 bf 3e
       0.22008154 0.28107628 -0.2761502 0.37379694
0003b0 4f f0 d6 bd 00 6e 59 be 14 35 9b bd 08 f2 ee 3d
       -0.10495054 -0.21233368 -0.07578483 0.116672575
0003c0 31 87 02 3e 84 9f a7 be c9 a2 c3 3d a9 20 95 3e
       0.12746884 -0.32738888 0.09552533 0.2912648
0003d0 97 3e b1 be 1d bf ca 3e f2 17 ef bb 96 07 e5 be
       -0.34618065 0.39598933 -0.0072965557 -0.4473235
0003e0 56 01 1a 3e f8 1c 81 3e 75 3d 6f 3d f2 a2 17 bd
       0.15039572 0.25217414 0.05840822 -0.03702063
0003f0 0b ab 1a 3f ea 94 79 3e 8a 19 db bd 5b 9d 72 be
       0.6041724 0.24373212 -0.106982306 -0.23692839

network_body.linear_encoder.seq_layers.0.bias f4 [128]
000000 51 7f dc 3b cd 9c 5c ba cc 18 fe 3a 16 5d c4 3b
       0.0067290445 -0.0008415699 0.0019386052 0.005992542
000010 4a 80 bc ba b8 ed 7c 36 c2 c2 9a ba 88 d4 08 ba
       -0.0014381495 3.7689297e-06 -0.001180731 -0.0005219658
000020 33 b1 a4 37 5a cc 26 b9 16 a8 4f b8 be a7 6d ba
       1.9632838e-05 -0.0001590712 -4.9509188e-05 -0.0009065828
000030 af 47 5f 3b 0b 65 ad 3b 7d 23 43 bb 99 09 fc ba
       0.0034069826 0.0052915863 -0.0029775791 -0.0019228935
000040 88 91 f9 b9 d6 ab e1 38 b5 f0 61 b9 73 68 1e ba
       -0.0004760141 0.00010760843 -0.00021547342 -0.0006042786
000050 f2 fe 08 bc 46 93 e2 ba 57 17 9d 38 f3 2d 3d ba
       -0.008361565 -0.0017286323 7.490691e-05 -0.0007216625
000060 84 e6 62 3a be 5f 69 ba ba 5c 82 b7 16 51 84 ba
       0.00086555653 -0.00089025113 -1.5540387e-05 -0.0010094966
000070 1f c3 4b ba 3f f1 2c 3b 2f 34 45 3a 9e 5c 68 ba
       -0.0007772911 0.002638891 0.00075227296 -0.00088638987
000080 f1 62 00 bb ce fa 2f ae 1e a6 de ba 3e eb 1c 39
       -0.0019590224 -4.0013153e-11 -0.0016986763 0.00014964954
000090 4e 57 a3 ba a8 d3 91 ba 70 c1 2b ba 4e 95 57 bb
       -0.0012461932 -0.00111257 -0.0006551957 -0.003289539
0000a0 be 53 9c b9 00 df 37 ba c1 c8 30 bb d1 57 74 bb
       -0.00029817031 -0.00070141256 -0.0026975127 -0.0037283788
0000b0 e8 18 1f b9 d3 24 88 ba 9e b5 38 bb f8 7a b5 3b
       -0.000151727 -0.0010386951 -0.0028184424 0.0055383407
0000c0 9b 25 31 ba b1 2d 1c ba e4 5e 85 bb ed 13 c8 b9
       -0.0006757618 -0.0005957736 -0.0040701497 -0.00038161819
0000d0 57 e6 13 bb b1 d6 26 3a 78 ed 65 b9 be 4f 75 38
       -0.0022567713 0.0006364389 -0.00021927606 5.8486818e-05
0000e0 de de 77 b9 dd a6 12 ba 7e d9 d7 bb f1 42 42 3a
       -0.0002363878 -0.00055943226 -0.0065872064 0.0007410488
0000f0 a6 5c 42 bb b6 0b 0d 3a 32 82 d1 3a 42 fe 87 ba
       -0.0029657274 0.0005380468 0.0015984236 -0.0010375457
000100 31 78 ec 3a 0e 67 a7 ba 37 fc 42 3a 3e 67 59 3b
       0.0018041191 -0.0012771802 0.00074380956 0.003317311
000110 9d 48 cb b9 80 c2 6b b9 00 bd a7 b8 f3 09 6d 3a
       -0.00038773278 -0.00022483803 -7.9983845e-05 0.0009042315
000120 11 10 20 bb 28 09 00 bc a5 e3 7d ba 8c 3e 06 b2
       -0.0024423639 -0.007814683 -0.0009685106 -7.814048e-09
000130 e1 e9 28 ba cc 43 31 bc 56 f0 d1 ba 43 6b 09 39
       -0.0006443542 -0.010819387 -0.001601706 0.00013105296
000140 af 5d 6d ba c3 07 07 ba cb eb b7 bb 28 ff 38 3a
       -0.00090547925 -0.0005150998 -0.0056128255 0.0007057064
000150 0c d2 95 ba 6a af ca ba 00 79 aa ba fa 6d 84 ba
       -0.0011430397 -0.0015463654 -0.0013006032 -0.0010103576
000160 00 00 00 00 fa 62 bc ba b8 6c ee b9 8d 54 ec 3b
       0.0 -0.0014372759 -0.000454759 0.0072122277
000170 00 1c 5d b9 46 2b c9 3b 08 8f 18 37 e0 39 84 3a
       -0.00021086633 0.006139192 9.093208e-06 0.0010088049
000180 ca 54 8b bb 44 db 2a bc f8 b1 8a ba 15 60 94 aa
       -0.004252051 -0.010428254 -0.0010581603 -2.6356752e-13
000190 00 92 2d ba 08 05 c5 b4 5f 82 4c ba 0d 00 11 ba
       -0.0006621182 -3.669777e-07 -0.0007801409 -0.00055313186
0001a0 64 5c 36 3c 87 e9 d7 ba 96 05 a3 ba 85 54 ca 3a
       0.011130426 -0.0016472795 -0.0012437578 0.0015436566
0001b0 ff b2 f7 bb a2 f3 44 bb 7f 22 a2 bb 12 c8 a2 ba
       -0.00755918 -0.0030052443 -0.00494796 -0.0012419245
0001c0 7b 1c a3 ba f8 9d 9d ba 7e 32 40 ba d8 15 a5 ba
       -0.0012444401 -0.0012025228 -0.00073317427 -0.0012595011
0001d0 d9 74 e8 3b 04 f5 f3 3b 80 be aa ba d6 88 ee 3b
       0.0070940075 0.0074449796 -0.0013026744 0.0072794957
0001e0 5b 1a 4e ba 4e 93 cb 39 11 9c 25 bb eb 63 81 ba
       -0.00078622036 0.00038828928 -0.0025270025 -0.0009871697
0001f0 ed eb 86 ba 8a 82 a3 ba a5 b5 c8 ba 58 a5 f9 ba
       -0.00102937 -0.0012474817 -0.0015312923 -0.0019046469

network_body.linear_encoder.seq_layers.2.weight f4 [128, 128]
000000 68 81 6f 3d 7e b6 fd 3c 3b 0c 42 3e da 39 f3 bc
       0.05847302 0.030970808 0.18949978 -0.029690672
000010 b3 b8 bf bc 77 f5 bd bd ab b6 27 3d 10 d9 26 bc
       -0.023403501 -0.09275334 0.04094569 -0.010183588
000020 90 b5 10 be 3a 53 1d 3e 70 66 35 bc 8f 94 35 bd
       -0.1413176 0.1536378 -0.011071786 -0.04433113
000030 a3 f6 f5 3d 75 86 85 3d 5f 75 34 be 8a 62 14 3e
       0.12009933 0.06519786 -0.17622899 0.14490715
000040 b2 fb cd bd cd 3c 29 be 59 98 09 bc 4c c0 b4 3d
       -0.10057773 -0.165271 -0.008398139 0.0882574
000050 de 03 20 be 28 b4 32 be 78 fb 03 3e 25 9d b4 3d
       -0.15626475 -0.17451537 0.12888896 0.088190354
000060 f0 b3 82 bd a5 1d 9f bd 18 38 55 3c 37 a1 2b be
       -0.063819766 -0.07769326 0.013013862 -0.16760717
000070 ab bc f8 bd 09 d5 95 3d b7 7a 0a be 83 fd 44 3d
       -0.121453606 0.07316024 -0.13523374 0.04809333
000080 e6 e8 b5 bd b8 97 01 3e ed 12 9b 3d 25 2c 62 3c
       -0.088823125 0.12655532 0.07571969 0.01380447
000090 ea 8e 03 3b 31 bd 85 bc f7 9e a9 bb 26 89 46 bd
       0.0020074197 -0.016325565 -0.005176421 -0.04847064
0000a0 b3 b3 68 3d 8b 60 2b 3d ea 32 26 bd da ac fb 3d
       0.056812 0.041840117 -0.0405759 0.12288828
0000b0 68 37 4d bd 57 70 29 3e ae b0 25 3d 70 04 3f 3d
       -0.050101668 0.1654676 0.040451698 0.04663509
0000c0 95 64 84 3d 8a 61 26 bd 60 08 aa bd d9 79 97 bc
       0.06464497 -0.040620364 -0.08302379 -0.018490719
0000d0 76 a5 e4 3c 0d 70 db 3d d8 42 28 be 6c ff d5 3d
       0.02791093 0.10714731 -0.16431749 0.104491085
0000e0 b5 6d 80 3d 58 c1 79 bd 99 42 91 3d b1 89 71 bd
       0.06270925 -0.060975403 0.070927806 -0.058969203
0000f0 9f c0 f2 bb a9 05 46 3c 4f 15 e3 bd 0b e6 dd 3d
       -0.007408216 0.01208631 -0.11088049 0.10834893
000100 ce ee 59 be 98 59 86 be 6e 2d 99 bd 2b d5 f6 bc
       -0.21282503 -0.2624023 -0.07479368 -0.030130943
000110 00 8a 2b bd 4e c5 2f be 4b ad bf ba 19 2e 5b 3d
       -0.041879654 -0.1716511 -0.0014623789 0.05351076
000120 64 5f 99 bd 01 e5 ad 3d 22 0b 1f bb e4 e6 48 be
       -0.074888974 0.08490945 -0.002426811 -0.19619328
000130 49 7b be bd bd c2 a8 bd 02 38 b9 bc 5c 58 e6 3d
       -0.093008585 -0.082402684 -0.022609714 0.11247322
000140 86 8b 87 bc ad 8d f9 3d 8e dc e1 bc 09 a6 10 bd
       -0.016546022 0.12185226 -0.027570989 -0.035314593
000150 91 14 35 be 37 42 37 3e 7f ef 33 bd 23 87 3c 3a
       -0.17683627 0.17896353 -0.043929573 0.0007191768
000160 2f cb 78 bd 2e 32 36 be d5 62 7c 3d 40 9d ca 3d
       -0.060740646 -0.1779258 0.06161769 0.09893274
000170 6e 72 21 bd ec 83 52 bc 82 70 74 bc d3 6e 9a 3d
       -0.03941577 -0.012848835 -0.014919402 0.07540669
000180 45 12 28 bb 21 53 8f 3d 4d 76 f5 3c fb 66 bd bd
       -0.0025645655 0.069982775 0.029963637 -0.092481576
000190 df fb 85 3d db 70 2f be f7 ca da bb 12 cf 3a 3d
       0.06542181 -0.17132895 -0.0066770273 0.045607634
0001a0 27 f7 2d bd d2 f1 49 3d 1f ee 36 bd 63 2c 06 be
       -0.04247203 0.049302883 -0.044660684 -0.1310287
0001b0 f6 99 f4 3c 62 33 6a 3b 2f 32 13 be e1 7f 0d 3e
       0.02985857 0.0035736193 -0.14374612 0.13818313
0001c0 ad 84 d1 3c 70 b9 43 3d ee 8f 54 3d b4 60 dd 3d
       0.02557596 0.04778427 0.051895075 0.1080946
0001d0 1c 39 0c be 8c fa fb 3d 12 ba 04 3e 78 67 18 bc
       -0.1369366 0.123036474 0.12961605 -0.009302013
0001e0 d8 69 dc 3d 2e f0 12 3d fc ec ee bd 0c a3 60 be
       0.107623756 0.035873584 -0.11666295 -0.21937197
0001f0 a0 02 3f 3b b7 83 e7 3c 85 04 d6 bd 22 f8 54 3c
       0.0029145852 0.028261049 -0.10450081 0.012998613
000200 48 7f cf bd 1b 38 64 3d 31 bb 67 3e 2c b5 33 be
       -0.10131699 0.05571757 0.22630002 -0.1754958
000210 6a 9d cf 3d f0 8b 26 3d 1c d0 ee bc 74 af aa 3d
       0.10137446 0.0406608 -0.029151969 0.08334246
000220 19 11 db 3c 77 c1 02 3e 3d 9c a5 bd d9 d2 0d bd
       0.026741551 0.12769113 -0.08086441 -0.034624908
000230 f6 b7 54 bd 38 7f 8f bc 1d 56 64 3d 16 d0 22 3e
       -0.05193325 -0.017516717 0.055746187 0.15899691
000240 88 51 35 be f9 3f ae 3d 48 56 be bc 7c ed f8 3d
       -0.17706883 0.085082956 -0.023234501 0.121546715
000250 21 36 e1 3c ad 8d 99 3c c9 03 97 3b 03 dd ca bd
       0.027491631 0.018744314 0.0046086055 -0.09905436
000260 d6 db f0 bc a2 74 77 3d 46 4e 92 3d ec 83 23 bd
       -0.029401701 0.060413964 0.07143836 -0.039920732
000270 10 0a 84 be fb 11 25 3e 2d 2a 2f be 4d ef e0 bd
       -0.25788927 0.1612014 -0.17105933 -0.10983143
000280 1c 1f e0 3d 17 e8 cc bd ca 44 0e be a1 d2 c7 bc
       0.10943434 -0.10005205 -0.13893428 -0.024392428
000290 ed b8 08 be 98 17 0d bd 3f b8 ba 3d 17 93 b1 bb
       -0.13351794 -0.03444633 0.091171734 -0.005419146
0002a0 28 3a 04 be 59 87 f0 3d 52 f0 ac 3d fe 47 b6 3d
       -0.1291281 0.117445655 0.08444275 0.0890045
0002b0 c6 d8 0c 3e d8 37 7a bd c7 91 d9 3b f9 83 b1 bd
       0.13754568 -0.061088413 0.0066396925 -0.0866775
0002c0 be 33 a5 3c 69 d2 33 bd 94 a7 90 3d d1 31 52 3d
       0.020166274 -0.043901835 0.07063213 0.05131704
0002d0 02 ca 40 3d e1 02 f8 3b 02 5c d0 3d 64 02 e1 bd
       0.04706765 0.0075687026 0.10173799 -0.10986784
0002e0 29 99 19 3e 10 1f cd 3a 9b 77 47 bc 9b ec 9d ba
       0.14999832 0.0015649516 -0.012174512 -0.0012048663
0002f0 58 a8 f1 3b 9a 31 d7 3b 4f 3b 60 bb 92 bd ee 3d
       0.0073748045 0.0065671923 -0.0034215038 0.116572514
000300 63 b7 d6 3d ca 9e 0e 3c 82 ec 3b be 7b 3f 4a 3d
       0.10484197 0.00870485 -0.1835194 0.049376946
000310 cd f1 b4 3d 82 99 f0 3d 8e 37 9b 3d 60 b8 2d ba
       0.08835182 0.11748029 0.075789556 -0.00066269
000320 d1 66 df bd e7 5c 1b 3e c0 0d 39 be 5d bd 85 3c
       -0.109082825 0.15172158 -0.18071651 0.016325647
000330 30 5f 0c bd 0f d0 3a 3d 0a 5b 56 bd 71 a9 e3 3b
       -0.034270465 0.045608576 -0.052332915 0.006947689
000340 b0 f3 d9 bc aa 6a 54 be 8a b2 65 3c bc 50 78 3a
       -0.026605457 -0.20743814 0.014019618 0.00094724796
000350 2f ff 0f 3e 95 d5 7d bd 74 19 b9 bd 46 8e d3 bb
       0.14062189 -0.061971266 -0.09038058 -0.0064561693
000360 cd 5f 84 3c 38 38 7b bb c7 5a 53 bd 11 34 eb bc
       0.016158963 -0.003833307 -0.051600244 -0.02871135
000370 38 e7 29 bd 0a af 8e 3c 5a 45 90 bc e2 0d ef bb
       -0.041480273 0.01741745 -0.017611194 -0.007295356
000380 05 fb 0e 3d 9b 52 a5 3c 04 39 4d bd 46 4b 3c bd
       0.03490736 0.02018099 -0.050103202 -0.045970224
000390 d5 7f f5 3d 79 fe bd bc cc 23 a1 3d 5e 8d 91 bd
       0.11987273 -0.023192631 0.07868156 -0.07107042
0003a0 3c 18 da 3d 52 e0 ad bd b1 c8 94 3d 65 a6 41 3d
       0.106491536 -0.08490051 0.07264841 0.047277827
0003b0 8e 13 c8 3d e2 af 97 3c 23 9a f9 bc bd 5e 4c 3e
       0.09769355 0.018516485 -0.030469006 0.19958015
0003c0 a0 bd c1 bd a5 eb 77 bd 40 0e f6 3c 76 16 31 bd
       -0.09459996 -0.060527463 0.030036092 -0.04323431
0003d0 55 88 fb 3d 68 f2 a5 3d c8 6c af bc 00 9f 14 3d
       0.12281863 0.08102876 -0.021414176 0.036284447
0003e0 93 bf 74 bd 19 cd fc bc f7 6f 4f be 62 40 a8 3d
       -0.059753012 -0.030859517 -0.20257555 0.08215405
0003f0 2c 9c cd 3d 0d 6f 88 3d 9f ef c4 3d 97 27 20 3e
       0.10039553 0.06661806 0.096160166 0.15640102

network_body.linear_encoder.seq_layers.2.bias f4 [128]
000000 0f 7a 2b ba 20 e0 b7 36 ca 20 9f ba 07 3c 81 b9
       -0.00065413205 5.4799166e-06 -0.0012140509 -0.0002464952
000010 f5 cd bf ba d5 ec a1 b9 0f 5c f4 39 90 df 53 39
       -0.0014633524 -0.00030884767 0.00046607896 0.00020205812
000020 a7 65 86 b9 9b cc 36 b9 3c 67 ea b9 27 15 1b 3a
       -0.0002563421 -0.00017433094 -0.00044708874 0.00059159327
000030 b0 af ac ba 8b c0 ab b9 97 5e a3 ba 0f bc 0c bb
       -0.0013174918 -0.00032759117 -0.0012464103 -0.0021474396
000040 75 d1 0a ba bb 62 30 b9 b8 da 91 38 0f 04 55 ba
       -0.0005295494 -0.00016821448 6.954878e-05 -0.000812591
000050 d2 d7 10 ba 61 ea d0 b9 7b 26 e7 ad 3a 15 b1 ba
       -0.0005525324 -0.00039847477 -2.6278748e-11 -0.0013510354
000060 bd 63 d1 ba e8 e5 95 ba 1c 50 83 bb a7 6a 3c ba
       -0.0015975159 -0.0011436315 -0.0040073525 -0.00071875233
000070 eb 00 25 bb 27 d2 ca ba b8 e0 0a b9 dc 88 b9 ba
       -0.002517755 -0.0015474007 -0.0001324442 -0.0014155167
000080 46 e6 6a b9 1e 3c f5 b9 77 ae 18 ba 65 dc 44 bb
       -0.00022401763 -0.00046774832 -0.0005824337 -0.0030038592
000090 f9 f4 4f ba be ef 3c ba eb ad b3 33 27 e9 e5 b9
       -0.0007932927 -0.0007207355 8.3669725e-08 -0.00043851996
0000a0 45 e1 8e b7 cb d1 0d 3a 39 fd 1e ba 9e c5 8b b8
       -1.7032618e-05 0.0005409985 -0.0006064955 -6.6648456e-05
0000b0 b2 f2 2a ba a0 7c ba b9 f0 a2 39 bb b9 c8 7d 39
       -0.000652115 -0.00035569537 -0.0028325878 0.00024202735
0000c0 c5 4d 86 ba a3 94 88 ba 73 58 a9 ba 70 0c 5f ba
       -0.0010246566 -0.0010420274 -0.0012920037 -0.0008508628
0000d0 fc ae c4 ba d2 18 98 ba a4 bb 30 38 7d 81 3d ba
       -0.0015005763 -0.0011604077 4.2136424e-05 -0.0007229073
0000e0 52 cb d3 3a 00 b5 37 ba fd c7 7b ba 1b 56 7d b9
       0.0016158617 -0.0007007867 -0.0009604691 -0.00024160037
0000f0 0a 2c 96 2c 9d af 40 b4 d7 61 69 bb 90 e4 67 bb
       4.2681457e-12 -1.7945281e-07 -0.0035611296 -0.0035384037
000100 6e e0 de b8 f1 c3 15 bb 15 25 e3 2e bc fb 55 ba
       -0.00010627588 -0.0022852386 1.0329352e-10 -0.00081628165
000110 74 96 23 25 aa 14 91 ba 59 4c ba 3a 29 da 79 ae
       1.4188972e-16 -0.001106878 0.0014213427 -5.680981e-11
000120 52 aa ca b9 3b 7d 6e ba ad 46 95 3a ae d0 9e ba
       -0.0003865534 -0.000909764 0.0011388861 -0.0012116635
000130 30 da 99 39 68 d9 f9 b8 48 69 c3 ba 7a 71 53 ba
       0.00029344996 -0.0001191374 -0.0014908696 -0.00080659206
000140 e4 2a 49 ba 93 fc 9e b9 da b8 a6 b7 80 cd 90 ba
       -0.00076739327 -0.0003032429 -1.987482e-05 -0.0011047572
000150 33 1a 67 39 a6 2b 44 ba 7a c1 a3 39 44 08 c4 39
       0.00022039637 -0.0007483311 0.00031233934 0.00037390192
000160 5b 9f 27 3b 4e be e5 38 3a ea 41 bb b2 df 93 ba
       0.002557716 0.00010955018 -0.0029589073 -0.0011281876
000170 4e 02 c1 ba fb 23 93 b8 0f 89 93 ad 41 e0 50 b9
       -0.0014725418 -7.016208e-05 -1.6772831e-11 -0.00019919967
000180 c3 11 81 39 90 4a f0 b9 6d 51 40 ba ab 58 99 b8
       0.0002461803 -0.0004583192 -0.0007336352 -7.312124e-05
000190 d8 18 7a ba e0 54 67 ba 9c d9 02 bb 2a 4f c8 b9
       -0.0009540445 -0.0008824598 -0.001996613 -0.00038205954
0001a0 e2 4c eb b9 37 2d 6d ba 30 b2 62 bb bf b8 cd b9
       -0.00044879975 -0.000904757 -0.0034591071 -0.00039238294
0001b0 f0 db 65 35 72 6d da b9 7e 58 e7 b5 e1 78 79 bb
       8.56292e-07 -0.00041661743 -1.7236596e-06 -0.0038066434
0001c0 fd f2 8b b9 36 ab 84 ba d7 61 ac bb 83 63 53 b9
       -0.00026693186 -0.0010121826 -0.005260687 -0.00020159599
0001d0 7f 89 6d ba 7e 2c 26 ba d4 1d 14 b9 dc 0b e2 ba
       -0.0009061321 -0.00063390273 -0.00014125492 -0.0017245966
0001e0 ee a4 17 b9 c5 89 6b ba 04 d8 8b b9 17 74 30 ba
       -0.00014461923 -0.0008985068 -0.0002667309 -0.0006731166
0001f0 fd 46 f4 b2 85 48 73 ba df a6 80 ba e8 d4 2b ba
       -2.843762e-08 -0.00092805206 -0.0009815356 -0.0006554858

action_model._continuous_distribution.log_sigma f4 [1, 6]
000000 6a 4b 8e 3a 26 41 3d bb 2a 79 3d ba 64 8f 80 bb
       0.0010856215 -0.0028877943 -0.00072278327 -0.0039233435
000010 8d f9 75 bb bd 0e 4c 3c
       -0.0037532777 0.012454686

action_model._continuous_distribution.mu.weight f4 [6, 128]
000000 29 7e 06 3b a4 f9 c0 bc dc 02 fb 3b dc 8b 10 bb
       0.0020521975 -0.023556538 0.007660253 -0.002205602
000010 22 61 a1 3c e7 14 76 3c 34 1d e1 3b 58 63 b9 bc
       0.019699637 0.015019632 0.0068699364 -0.022630379
000020 53 70 f2 bb 4f 12 a4 ba 28 0d 44 bc 1f a6 a6 3c
       -0.007398644 -0.0012517663 -0.011966027 0.020342885
000030 4c 7e 92 3b 7e 90 df bc 7c 7d 9c 3c a4 55 0e bc
       0.004470622 -0.027290579 0.019102804 -0.0086874105
000040 b8 18 e3 3c de dd 9c 3c 79 4e f4 3b 95 d5 56 3b
       0.027721748 0.019148763 0.0074556437 0.0032781113
000050 1c 0f 39 3c d5 ba a4 bc b0 1e 4b 3c 72 95 97 bc
       0.011295106 -0.02010862 0.012397453 -0.018503878
000060 e7 d2 a5 bb 7b aa ef 3c 1e 3b e7 bb c6 da bf bc
       -0.005060542 0.029256096 -0.007056608 -0.023419749
000070 cd 1e c5 bc ce 63 17 bc 67 79 8d bc b1 9d 6b 3b
       -0.024062539 -0.009240104 -0.017269803 0.0035952146
000080 39 da 23 3b 45 35 81 3c c7 27 ad bc cd 1b a6 3c
       0.0025001897 0.015772471 -0.021137131 0.020276928
000090 92 4f de bc 31 c8 53 bc 0a 6b 8c 3a a0 99 a4 3c
       -0.027137551 -0.012926147 0.0010713052 0.020092785
0000a0 14 8d 24 bb 7c b1 c8 3b a8 a5 72 bc 5e fe 52 bb
       -0.0025108503 0.0061246734 -0.014810003 -0.0032195072
0000b0 07 b1 22 bc 5c 1f 80 bc 77 10 99 3c f0 5c ac 3b
       -0.009929902 -0.015639953 0.018684609 0.0052601025
0000c0 ec a1 90 bb d6 08 90 bb 2e 7d 85 3c ef d5 b6 3b
       -0.004413834 -0.0043955846 0.016295042 0.005579702
0000d0 2e 9a c7 bc 37 b8 8b 3c ca 36 49 3c 6a cf 78 3c
       -0.02436551 0.017055614 0.012281129 0.01518617
0000e0 a1 87 26 bc f5 8b 7a 3b 9d f6 e9 3c e3 a1 5e 3c
       -0.010164172 0.0038230394 0.028559977 0.0135884015
0000f0 7d b8 a0 3c a1 d1 02 bb ac 0a 02 3c 57 71 9e 3c
       0.01961922 -0.0019961374 0.007937115 0.019341154
000100 77 37 ae bb 68 8f 09 3c fb 87 1f 3c 36 93 a6 3b
       -0.0053166705 0.008396007 0.00973701 0.005083467
000110 dc d5 49 bd 86 ec 85 bc 93 ff 81 bb 37 b9 b4 bc
       -0.049276218 -0.016348135 -0.0039672344 -0.022060974
000120 ea 48 b5 bc f3 a5 a1 3c 34 69 21 bd e7 79 0f bd
       -0.022129495 0.019732451 -0.03940697 -0.035028365
000130 fd be 89 bc 8a e3 b3 bb 55 6e b0 bc 5c 9a 4e 3c
       -0.016814703 -0.0054897713 -0.021536985 0.012610044
000140 88 6b 10 bc d6 4f bf 3b 23 4b 48 bc 25 b5 a2 bc
       -0.0088147 0.0058383746 -0.012224945 -0.019861767
000150 e1 5a ed bb 4e 58 06 3c 9e 79 8d 3c 8d 94 50 bc
       -0.0072434996 0.008199764 0.017269906 -0.01273073
000160 9c dd fd 3b a1 e0 b4 bc 45 4e 70 bc 0f 5d 00 bc
       0.007747365 -0.022079768 -0.014667098 -0.007834687
000170 1f 45 99 ba ec 8e e5 bc 3d 92 aa ba bf 2d 38 3c
       -0.0011693573 -0.028022252 -0.0013013553 0.0112413755
000180 3f 54 1d 3c a2 ff b2 3c 75 81 3c 3c 19 e6 77 bc
       0.009602605 0.02185041 0.011505474 -0.015130543
000190 69 ed d8 bc 11 1c 3d bb e8 ab 6e bc 84 51 6f 3c
       -0.026480393 -0.002885584 -0.014567353 0.014606837
0001a0 88 38 11 bc c0 62 0d bd fc ec 7c bc 4d 7d 17 bc
       -0.008863576 -0.034518003 -0.015437361 -0.009246183
0001b0 ad 5d 9f bc bb 9a 1e bd 1d 95 ba 3c 9f 27 4b bc
       -0.019453848 -0.03872178 0.02277618 -0.012399583
0001c0 52 77 82 bb 2a b1 dd bb b7 34 58 3c 92 35 94 bc
       -0.0039815092 -0.0067655044 0.013196162 -0.01809195
0001d0 0f 54 ae 3c 9c f6 de 3c 41 cf c3 bb f1 56 2c 3c
       0.021280317 0.027217202 -0.0059756343 0.010518775
0001e0 20 34 2c bc 28 9c 45 bb 96 01 03 bc 05 d8 55 bc
       -0.010510474 -0.003015289 -0.007995984 -0.013051991
0001f0 4c 85 00 3d 60 4e 82 3c 47 1f e4 3c 6d 62 bd 3c
       0.03137712 0.015906513 0.027846945 0.023118222
000200 0f b7 88 bb 12 66 7a bc 2f 7a af bb c3 40 3f bc
       -0.004172213 -0.0152831245 -0.0053551416 -0.011673155
000210 28 c5 be 3c b0 6c e2 3b 76 35 85 3c bd 5b 3d bc
       0.02328737 0.006909929 0.016260844 -0.011557517
000220 cc d1 06 3c 15 c3 07 bd 23 9a ae bc 5a d1 38 3c
       0.00822873 -0.03314503 -0.021313732 0.011280382
000230 ec 3e c4 3b 5e f4 28 3c 6a 84 cd bb 1b 76 a0 bb
       0.005988946 0.010312168 -0.0062718885 -0.004896892
000240 50 d3 2e 3b cf bd 9a 3b c8 14 aa 3c 14 f5 49 3c
       0.0026676245 0.004722334 0.020761862 0.012326498
000250 1d d3 48 bc f8 52 93 3b ad 64 88 3b 26 60 9e 3a
       -0.012257365 0.0044959746 0.004162392 0.0012083098
000260 3b 4d 4d bb 81 15 32 bd cc 8a 59 3b 8f 5e ab bb
       -0.003132655 -0.04347754 0.0033194302 -0.005229778
000270 94 ca a6 3c c5 b3 07 3c e6 39 95 3b 72 1d c2 bc
       0.020360269 0.0082826065 0.004554021 -0.023695681
000280 cc 1e 8d 3c 59 52 ae 3b f7 25 35 3c 8a d8 5d bb
       0.0172266 0.005319875 0.011056415 -0.0033850991
000290 07 9a d3 bc d7 56 00 3c a0 f1 1e bc 66 2b fa b9
       -0.025830282 0.007833204 -0.009701163 -0.0004771605
0002a0 66 ee 5a 3c f8 93 b6 3b 61 5b 80 bb e1 01 40 3c
       0.013362503 0.0055718385 -0.003917143 0.011719198
0002b0 a0 7c 50 bc 51 77 f2 3b ea 42 0a 3c 3e fd 85 3c
       -0.012725025 0.0073994775 0.008438805 0.016356107
0002c0 ec 8d 83 bc 48 71 1e 3b 01 ff 0c bb 7e 95 5c bc
       -0.016058885 0.0024176408 -0.00215143 -0.013463376
0002d0 06 dc 1b 3c 49 8f 7f 3b 7a 74 6e 3d 85 e1 64 3c
       0.009512907 0.0038995317 0.05821655 0.013969784
0002e0 97 3e b4 3c 2b 2a 05 3c 1b e5 e7 bb cd 6a df 3c
       0.022002501 0.008127729 -0.007076872 0.027272606
0002f0 0d b6 a7 3c eb c6 a3 bc 78 36 dc 3c 24 4f a0 bc
       0.02047255 -0.019992312 0.026881441 -0.019568987
000300 cf cd 96 bc c3 a4 65 bc 7e d8 d3 3a e1 6f 15 bd
       -0.018408684 -0.014016333 0.0016162542 -0.03648365
000310 bb 46 4e 3c 22 88 06 3b f5 c7 b2 bc dc 7a 99 3c
       0.012590106 0.0020527919 -0.021823863 0.018735342
000320 1a 9d f0 bb ac 6f f0 3b a5 2e 4f bb 56 d4 c1 bb
       -0.0073429467 0.007337531 -0.0031613496 -0.005915205
000330 96 c8 2e 3c 99 93 99 bc 2f a5 d3 3b dd 63 86 bc
       0.010667941 -0.018747138 0.0064589004 -0.01640504
000340 45 f9 4f bb c2 61 9c 3c 1f c2 bc bc 9e be 99 3c
       -0.003173427 0.019089583 -0.023041783 0.018767651
000350 e9 96 c4 bc 32 a8 b0 bc 58 9c 6e 3c ce cc 19 bc
       -0.02399774 -0.021564577 0.014563642 -0.009387208
000360 35 86 5c bc 15 76 b5 ba 33 df b1 bc e4 53 a3 3c
       -0.013459732 -0.0013844395 -0.021712875 0.019937463
000370 2a d0 8a bc 1a ee 9d bc 9f 81 85 bc 8e 0f 20 3d
       -0.016944963 -0.019278575 -0.01629716 0.039077334
000380 6c de 86 bb 2b 8f 8b bc b8 f3 4d bb dd fc 45 bc
       -0.00411587 -0.017036041 -0.0031425785 -0.012084213
000390 53 79 3c bb b2 da 78 3b b0 c6 db bc 00 94 05 bc
       -0.0028758838 0.003797215 -0.02682814 -0.008152962
0003a0 64 ba aa bb e6 e4 8a 3c 3c 91 61 3b 56 cd 03 3c
       -0.005210208 0.01695485 0.0034418842 0.008044561
0003b0 47 55 9b 3c b1 a9 5b 3c 67 cb 9c 3c f9 06 47 3c
       0.018961562 0.013407157 0.019139959 0.0121476585
0003c0 83 b6 cc 3b d0 9a 41 bc 53 0b 2c 3c 74 e5 44 3c
       0.006247343 -0.011816695 0.010500747 0.0120175965
0003d0 f0 fa 6b 3a b4 43 d7 3b 6b ce 93 bb 19 83 88 bb
       0.0009001931 0.00656935 -0.004510691 -0.0041660187
0003e0 fe 28 68 bd e3 05 98 bc e2 98 ab 3c 69 a8 cc 3b
       -0.05667972 -0.018557495 0.020946924 0.006245662
0003f0 c3 02 48 3a ec 0b 9e ba 88 99 0d 3c cc 61 05 bd
       0.0007629806 -0.0012057996 0.008642562 -0.03256397

action_model._continuous_distribution.mu.bias f4 [6]
000000 7b 65 8f b9 c9 42 71 39 aa 49 87 b9 6e 84 6c 39
       -0.00027350694 0.0002300843 -0.0002580409 0.00022556048
000010 52 ec 65 b9 26 32 86 b9
       -0.00021927178 -0.00025595835

critic.network_body.linear_encoder.seq_layers.0.weight f4 [128, 9]
000000 ab 20 5a bc 4a 0c a8 bc aa 8b 5d be be b3 dc be
       -0.013313453 -0.020513672 -0.21635309 -0.43105882
000010 49 23 b2 3d a3 9f 7f be 4e b3 30 3e dc ea 9f be
       0.08698136 -0.2496324 0.172559 -0.3123387
000020 1e 94 d6 3d d4 e8 06 be 0a 24 11 bf 80 b1 25 3e
       0.1047747 -0.13174754 -0.56695616 0.16180992
000030 36 e7 69 3e 45 a9 46 be 51 ab ef 3e 54 58 fe bd
       0.22842106 -0.19400509 0.46810392 -0.12419191
000040 d3 04 b9 3e c4 8d ed 3d 9d a1 ff 3e 65 c5 8f 3e
       0.36136493 0.11599305 0.4992799 0.28080288
000050 b9 90 cd 3d 89 23 81 3e af 72 6c bd 26 3b ea bc
       0.10037369 0.25222424 -0.05772656 -0.028592657
000060 14 93 83 be 08 41 e6 3e 6e a8 a0 be 16 47 47 bd
       -0.2569815 0.4497149 -0.31378502 -0.048651777
000070 c1 7d c3 bd 1e 35 77 be 6b 54 d9 3d 12 a4 46 3f
       -0.0954547 -0.24141356 0.106118046 0.775941
000080 ab 80 c6 be be ae dd be 33 2b 26 3f 83 bb db bd
       -0.3877004 -0.4329738 0.64909667 -0.107291244
000090 9e 54 cc be 31 5c 84 3e e4 b4 2e be 53 dc b3 3e
       -0.39908308 0.25851586 -0.17061192 0.35129032
0000a0 8b d8 a3 be 77 95 d7 3e f2 35 5e be 5b 97 be 3e
       -0.32001147 0.4210622 -0.21700266 0.3722485
0000b0 6b 97 fc 3c 1f 27 7f bd 1b 3a d0 be 4d 1a ec 3e
       0.03083392 -0.06229317 -0.4066933 0.46113816
0000c0 33 06 4e 3f ca 7f 8a bd f4 63 d9 3e c9 7b 2e 3e
       0.8047821 -0.06762655 0.4245907 0.17039408
0000d0 85 1a 06 3c c8 58 df bd 39 a5 bb 3e 83 8a 81 3d
       0.008185034 -0.109056056 0.36649492 0.06325247
0000e0 60 28 77 3e be 53 cb be a9 9e 1e 3f 07 1d 9b 3d
       0.24136496 -0.39712328 0.61960846 0.07573896
0000f0 46 96 3a 3d a5 d5 0b bf c7 51 eb 3d e7 00 5a b9
       0.04555347 -0.5462287 0.11490207 -0.00020790436
000100 d5 c2 b5 bd ee 6e 27 be 19 3f ef 3e 8e 54 a8 3d
       -0.08875052 -0.1635091 0.46727827 0.082192525
000110 52 e5 21 3f d6 84 e9 3e 34 2e 16 3f f0 eb 20 3d
       0.6324054 0.45609158 0.5866425 0.039287508
000120 f8 2f 06 3e 71 dc b6 be d9 88 23 bf 22 f3 09 be
       0.13104236 -0.35715058 -0.6388069 -0.13471654
000130 53 5c 87 3e 9e eb a5 be 46 a1 49 bd 42 82 49 be
       0.26437625 -0.32406324 -0.049226068 -0.19678596
000140 0b dc 09 bf ff 90 18 bd aa a1 98 3d c5 96 bd be
       -0.53851384 -0.037247654 0.0745271 -0.3702909
000150 72 ef 14 3f 51 e9 57 3f 5d 67 a3 3d 36 41 08 3f
       0.58177865 0.8434039 0.07978699 0.53224504
000160 72 b1 de be 5c 3a 6c be 04 c7 b8 3c ed 5e 31 bf
       -0.43494755 -0.23069137 0.022555836 -0.6928547
000170 29 6e fb 3e b0 e2 9b 3d 77 e7 19 3e 70 d9 0c 3f
       0.49107483 0.076115966 0.15029703 0.55019283
000180 74 b6 5f 3e 87 d1 fd 3e f4 1c 76 be 67 a1 01 bd
       0.21846944 0.4957392 -0.24034482 -0.031648066
000190 3f b0 0d be d8 1a 69 3e 7f 39 2d 3e a0 63 0f 3f
       -0.13836764 0.22764146 0.16916464 0.5601139
0001a0 ae 30 07 3e f0 7f 2f 3d a8 a9 a5 3e be 51 54 3d
       0.13202164 0.04284662 0.32356 0.051835768
0001b0 17 e0 a4 3e 03 ac 25 be 14 d9 18 be 01 a3 c7 3d
       0.32202217 -0.16178899 -0.14926559 0.097478874
0001c0 25 f5 c9 be 62 02 69 bd 4c 27 0b 3f b7 41 e7 3c
       -0.39444843 -0.056887038 0.5435684 0.028229577
0001d0 3f be d8 be 16 ff 3d be 3e 5f 57 be e6 d9 d2 3c
       -0.42332646 -0.18554339 -0.21032426 0.025738668
0001e0 25 c9 aa bd d8 01 f8 be 2f fe 9c be d3 f2 8f 3e
       -0.083391465 -0.48438907 -0.30662677 0.28114948
0001f0 e5 33 e3 be 10 a7 80 be e5 c2 74 3d d1 b7 5e be
       -0.4437553 -0.2512746 0.05975618 -0.21749808
000200 f1 73 7d 3c 16 8d 15 bf 90 58 06 be 17 d7 94 be
       0.015469537 -0.58418405 -0.13119721 -0.2907035
000210 54 29 a8 bd 15 ce b7 be 59 36 e6 3c 31 a2 ef bd
       -0.08211008 -0.35899416 0.028102087 -0.117008574
000220 bb cd 20 3e 57 76 5f 3e c2 79 ef 3d ad ef 9b 3e
       0.1570348 0.21822487 0.11693145 0.30456296
000230 e0 13 79 bc ec be ea 3d 30 29 ec be c7 6d 6b be
       -0.0152024925 0.11462197 -0.46125174 -0.22991095
000240 c3 b9 5f 3e e9 f2 67 3c df 9b ef be 2c fa a0 3e
       0.21848206 0.014157035 -0.46798608 0.31440866
000250 4c b2 a4 bd a6 cb 6c bb 07 e3 aa be 75 60 06 3b
       -0.0804182 -0.0036132126 -0.33376333 0.002050427
000260 9b 73 3d be d2 d7 08 be 4b b2 84 3e ce e7 28 3d
       -0.18501131 -0.13363579 0.25917277 0.04123669
000270 da 6c a5 3d 0f ed 67 bd fa b5 6e 3e 54 65 33 bf
       0.080774024 -0.05662256 0.23311606 -0.7007649
000280 53 f7 88 be 27 53 fc be 13 19 02 3f ac 68 b1 bd
       -0.26751193 -0.4928219 0.5081951 -0.08662543
000290 79 6e 4c 3c 48 e0 2e bf 82 ae c6 be bd 4c d5 be
       0.012477511 -0.68310976 -0.38805014 -0.4166011
0002a0 25 c5 b2 be d6 84 8c be 2c c2 e6 3d d1 bd ca 3e
       -0.34916034 -0.27445096 0.11267504 0.39597943
0002b0 55 70 88 be 6e 96 f7 3d 3c c6 83 3c e1 4c 57 bb
       -0.26648203 0.12089239 0.016085736 -0.003285222
0002c0 f3 39 9b be 4b 3c 96 3e 1d 25 43 be b5 39 ab 3c
       -0.3031765 0.29342875 -0.19057126 0.02090154
0002d0 1c 9e 9f be 8b 4e ad bd 63 c7 fd 3d 4e 16 20 3e
       -0.31175315 -0.084622465 0.123915456 0.15633509
0002e0 15 2c cb bd 64 6f 1f be 04 22 8d be d9 d4 4a 3f
       -0.09920517 -0.15569836 -0.27565014 0.7923103
0002f0 78 59 f6 3e cb 28 2f 3e 53 66 a8 3e 8f d6 72 be
       0.48115134 0.17105405 0.32890567 -0.2371466
000300 c7 0b e6 3c c4 21 cf 3d 60 09 ba be ad 54 fc 3e
       0.028081788 0.10113862 -0.36335278 0.49283352
000310 e1 ae ee be 20 96 11 be 1b 89 9b 3e 04 e9 f2 3e
       -0.46617797 -0.14217424 0.3037804 0.47443402
000320 bb 02 5f bd 3b 6c a1 3d b2 a9 33 be 6b b2 b7 3d
       -0.054445963 0.078819714 -0.17545202 0.089695774
000330 90 68 95 be a9 c6 0e 3e 56 cb 9d bd ce 78 ea bc
       -0.29181337 0.1394297 -0.07704799 -0.028622057
000340 00 7a e5 bd 9f 80 b5 be 74 ba b7 3e 2c 60 3d 3e
       -0.1120491 -0.35449693 0.3588444 0.18493718
000350 cb 89 83 be 20 2c dd bd 7d fa 12 3e d7 78 dd 3e
       -0.25691065 -0.10799432 0.14353366 0.43256256
000360 3c 0e fb 3e 7f c4 af be ef 42 95 bd 5d 45 35 3d
       0.49034297 -0.34329602 -0.07288157 0.044255603
000370 2a 44 a2 3d 38 e8 6e be cc 51 62 3d 12 de c8 be
       0.079231575 -0.23330772 0.05525379 -0.39231926
000380 c5 d4 9f 3d 24 51 84 be 95 8c ad be e9 0f 3c be
       0.078042544 -0.25843155 -0.33896318 -0.18365444
000390 12 80 eb 3e e1 d5 21 be 77 94 bd 3c 64 3f c6 3e
       0.45996147 -0.15804245 0.023142083 0.38720238
0003a0 91 22 f1 3e 24 b7 8c 3e 39 18 94 be cc 84 be 3d
       0.47096685 0.27483475 -0.2892473 0.09302673
0003b0 d9 02 57 3c 94 0f 99 3e 5c 6f 93 3b 4e 62 33 be
       0.0131232375 0.29894698 0.004499359 -0.17517969
0003c0 2c da cc 3e e6 10 e7 3d 63 26 69 3e 0e 6e fa be
       0.40010202 0.1128252 0.2276855 -0.4891209
0003d0 9e 2a d1 3e b8 96 71 3e 0a f2 03 bd 27 22 0c be
       0.40852827 0.23592651 -0.03221325 -0.13684903
0003e0 d0 eb 53 3f a6 6d 41 bf 98 e7 f8 be c0 26 36 3e
       0.82781696 -0.75557935 -0.48614192 0.1778822
0003f0 a4 59 18 3d 61 fc 4c bd 68 10 cd 3d 94 f2 93 be
       0.037194863 -0.050045375 0.10012895 -0.2889601

critic.network_body.linear_encoder.seq_layers.0.bias f4 [128]
000000 c6 85 1c 3b 45 81 14 3c c1 d4 16 ba 41 4b 0d bb
       0.0023883446 0.009064023 -0.00057537487 -0.0021559747
000010 62 04 3e b9 07 0c 09 bb 65 2c f7 bb 4d 96 ef 39
       -0.00018121445 -0.002091171 -0.007543134 0.00045697615
000020 69 8b 9c 3a cd ea 91 ba 5d 43 d8 3a f4 2a a6 3a
       0.0011943403 -0.0011132598 0.0016499568 0.0012677596
000030 cd cb d0 3a 12 e8 cc 3a 61 21 c5 3b 0a e0 25 bb
       0.0015929878 0.0015633127 0.006015942 -0.002531054
000040 31 99 1c bb bd 32 18 8c 40 f6 db bb 64 bc 58 ba
       -0.002389502 -1.1724923e-31 -0.006712705 -0.00082678185
000050 1a 68 18 bb 3b d3 7a 3b f5 25 78 39 68 94 80 ba
       -0.0023255409 0.0038272876 0.00023665263 -0.0009809854
000060 ad 2a d7 3b 8b 16 10 bb a5 17 81 ba 9a ff a6 18
       0.0065663666 -0.0021986093 -0.0009848966 4.3168086e-24
000070 81 50 cc bb 57 e7 41 37 fc 8a c8 ba 86 5c 5e bc
       -0.0062351828 1.1557559e-05 -0.001530021 -0.013571864
000080 47 77 20 bc 82 8f 3f 3b a9 e5 2a 3a b8 77 a8 38
       -0.009794063 0.0029229824 0.00065192074 8.0331636e-05
000090 61 82 dc bb 0b 20 0b 3a 62 25 61 3b 3c b2 9b b9
       -0.0067294096 0.0005307204 0.0034354557 -0.000296967
0000a0 6e 33 1c 3c 21 a2 53 3a 71 fd 32 3b e2 ce 76 3b
       0.009533746 0.00080731703 0.0027311707 0.0037659933
0000b0 0f 9c a7 bb 7b 93 21 37 58 d1 6a 3a 58 5c 86 b9
       -0.005115039 9.630686e-06 0.0008957586 -0.00025627273
0000c0 57 08 c8 38 eb 7f 08 39 2e 6f 50 3b dc 64 73 3b
       9.5382966e-05 0.00013017624 0.003180455 0.0037138974
0000d0 db e1 23 bb f0 74 fb 3a 72 1e 26 b0 3e 50 4a 3b
       -0.0025006447 0.001918463 -6.0433714e-10 0.0030870582
0000e0 b8 48 b3 3b 9c 29 db 3b cb ff 06 3c bd 31 60 3b
       0.0054713152 0.00668831 0.008239697 0.0034209334
0000f0 06 1c 81 39 76 66 fc bb 8f 88 22 bb c1 dc 17 3c
       0.00024625676 -0.007702644 -0.0024800634 0.00926894
000100 e9 53 76 bb 95 b9 a0 3b d8 dc 62 39 bb 6b bc bb
       -0.0037586635 0.0049049356 0.0002163531 -0.005750147
000110 c6 83 b5 b8 63 be cb 25 fd e9 c8 3a 22 8b 6d ba
       -8.655297e-05 3.5343898e-16 0.0015328523 -0.0009061565
000120 e1 91 c9 3a a4 1e 93 3b 6a ff 7c 3a 1a 3c 21 3b
       0.0015378558 0.0044897366 0.0009651097 0.0024602474
000130 89 76 36 39 db bc 14 3c ea 5c 6f ba 2d fb 52 39
       0.0001740103 0.00907823 -0.0009130972 0.00020120731
000140 56 98 a9 ba 36 17 09 85 3a 39 78 bb fe 77 24 bb
       -0.0012939076 -6.445972e-36 -0.0037875907 -0.0025095935
000150 c5 b8 b8 3a bb 39 af ba da 9a f8 ba dc ea 17 ba
       0.0014093152 -0.0013368645 -0.0018967048 -0.00057951896
000160 9b ea 49 a8 66 16 2c ba ce 04 ba 3c 03 af aa b5
       -1.1208613e-14 -0.0006564617 0.02270737 -1.2716922e-06
000170 ec a6 76 b5 34 19 5b 20 29 5b 5f 3a 11 ec 35 bb
       -9.1885045e-07 1.855836e-19 0.0008520359 -0.0027759115
000180 21 eb 0c bc c4 74 93 bb da 35 27 ba c4 a1 22 bb
       -0.008600981 -0.0045000035 -0.0006378569 -0.0024815658
000190 46 25 9e b9 56 bb 3c b9 a3 82 e2 3a 76 af 41 ba
       -0.0003016388 -0.00017998865 0.0017281364 -0.00073885114
0001a0 60 f7 bc a5 84 46 05 bb 9f 84 3e b9 70 22 a2 ba
       -3.278043e-16 -0.002033622 -0.00018169217 -0.0012369882
0001b0 08 4a 0c bb 8b 9a 95 bb 3e d3 27 3a ce 07 77 39
       -0.002140643 -0.004565542 0.0006402022 0.00023558663
0001c0 b2 e7 05 ba 98 0f 1a 39 42 14 79 b1 84 5f 96 3a
       -0.00051080727 0.00014692394 -3.6245784e-09 0.0011472558
0001d0 58 d8 b2 39 a2 46 54 3c 1d 07 f0 ba 00 00 00 00
       0.00034111994 0.012956293 -0.0018312667 0.0
0001e0 75 90 41 ab 70 2f cf ba 52 83 5b 3c cb 35 51 3b
       -6.876785e-13 -0.0015806984 0.013398008 0.0031922932
0001f0 d2 bb 81 b8 ec 6f 20 b9 83 aa 40 3b 21 d6 8b b9
       -6.1861836e-05 -0.00015300483 0.0029398508 -0.00026671684

critic.network_body.linear_encoder.seq_layers.2.weight f4 [128, 128]
000000 b5 64 c5 bd 06 a2 2a bd 90 74 c7 3d ce 9e 01 3e
       -0.09638349 -0.041658424 0.097390294 0.12658235
000010 d5 d5 20 3d af b7 84 3d 7f 73 3f 3d 10 73 b5 bc
       0.039266426 0.06480347 0.046741005 -0.022149593
000020 aa 17 11 bb ca d6 f2 bc ee c8 c2 3c 2a 46 0b be
       -0.002213935 -0.029643435 0.023777451 -0.13600984
000030 34 92 27 3c 1e d3 b7 bd 14 2e 0f 3d 4a 43 79 bd
       0.010227729 -0.08975814 0.034956053 -0.060855187
000040 23 86 33 3e 46 fc 2f bd e4 49 95 bd 63 cd 78 bd
       0.17531638 -0.042965196 -0.07289484 -0.060742747
000050 53 0e ab 3c 44 93 ad bd b2 b8 43 bd ec 89 e7 3d
       0.020880854 -0.08475354 -0.04778356 0.113056034
000060 dd 2e 5f 3d f8 69 c9 bc 87 7b 82 3d 31 18 1f bd
       0.05448805 -0.024586663 0.06371217 -0.03884143
000070 c2 35 45 3b 75 d5 16 be 4b f3 02 be 9e cd c4 3d
       0.0030091857 -0.14729865 -0.12788121 0.09609531
000080 01 3e 69 bd 00 59 07 3c c7 39 23 be 88 d3 35 3c
       -0.056943897 0.008260965 -0.15940009 0.011097796
000090 b8 f8 06 3d c0 c6 79 3c c6 c0 70 3d aa e9 9f 3d
       0.03295204 0.01524514 0.058777593 0.0780824
0000a0 f6 8d 9b 3c 21 3b ea 3d ae df b3 bd f3 5d 2a 3d
       0.01898859 0.11437059 -0.08782898 0.041593503
0000b0 f7 44 3b bd a0 4f 98 3d b7 a6 fc 3d bf c4 4b 3e
       -0.045720067 0.07437062 0.12336486 0.19899271
0000c0 48 8c 2d bd 03 fc 50 bd eb 1c 89 3d c6 1d 96 3d
       -0.04237011 -0.051021587 0.06694969 0.073298976
0000d0 c9 42 a4 3d 05 04 a6 3b 9e 15 bd bd de cd 75 be
       0.08020551 0.005066397 -0.09232639 -0.24004313
0000e0 3b b4 bb bd b9 5b df 3c 4c 97 0c 3e bf dd 19 3d
       -0.091652356 0.027265416 0.1372959 0.03756499
0000f0 94 c8 d8 bc 66 61 df 3d ba f4 0d bc 71 27 f4 3c
       -0.02646283 0.10907249 -0.008664304 0.029803963
000100 70 82 6f bd 6f ce a2 3d 3f 9f ba bc f8 c8 aa 3d
       -0.058474004 0.0794953 -0.022781013 0.08339113
000110 ed 69 1a 3d 88 2c 9d bd a3 fb 40 3e 10 1a 80 3c
       0.037698675 -0.07674509 0.18845992 0.015637428
000120 29 2c 64 bd fc f0 ce 3c ff d0 21 3e d7 d2 cc 3c
       -0.055706177 0.025261395 0.15802382 0.02500288
000130 dd 10 13 3d 8a ef 36 be b3 de c8 3d c8 0b e4 3c
       0.035904754 -0.17864814 0.098081015 0.027837649
000140 da 62 83 3d e1 a5 4c 3c 2b 50 36 3e 90 02 5c ba
       0.06415339 0.0124907205 0.17804019 -0.0008392716
000150 eb eb d5 3c 74 2e c1 3d c6 63 fa bd 10 9c be 3d
       0.026113471 0.09432688 -0.122260615 0.0930711
000160 f1 a6 0b be 30 d0 4d 3d 5d 44 7c bd 1d f4 39 bd
       -0.13637902 0.05024737 -0.061588634 -0.04539882
000170 44 01 34 bd 22 93 0b 3e 81 2e 0a bc 6d 27 7a 3d
       -0.04394652 0.13630345 -0.008433939 0.061072756
000180 ff 77 d2 3c a9 7e 94 3d ed e7 8b 3c f0 a4 cf 3d
       0.025691984 0.07250721 0.017078364 0.10138881
000190 72 c8 f9 bd 6d 7e eb bc 7c 83 20 3d 38 25 a8 bd
       -0.12196435 -0.028746808 0.039187893 -0.08210224
0001a0 77 e2 78 3c cd df 32 3d 75 83 9c 3c d7 c5 90 bd
       0.015190712 0.043670464 0.019105652 -0.07068985
0001b0 7a 69 7b bd b0 49 f4 bb 26 84 9c bc cc b4 c1 3b
       -0.061379887 -0.0074550733 -0.019105982 0.0059114452
0001c0 55 db fc 3c 76 de 87 3b 79 47 28 bd 88 b9 01 bd
       0.030866304 0.0041463925 -0.041083787 -0.031671077
0001d0 3b a9 24 3e e7 2e cc 3d 92 99 03 3a ea f4 ea 3c
       0.16080181 0.099698834 0.0005020137 0.028681237
0001e0 b7 96 65 3c 73 9e 2c bd 44 7f fe 3d 6e 26 d2 3d
       0.014012984 -0.042143296 0.12426618 0.10261236
0001f0 3b 95 df 3d 1b a6 07 3e 88 2f 16 3e 16 13 ac bc
       0.10917135 0.13246958 0.14666569 -0.021005195
000200 57 5a aa bc 9b 61 b1 3d 8d a2 93 bd 63 53 3e bb
       -0.02079503 0.08661195 -0.072087385 -0.0029041402
000210 74 4b 30 bd 33 68 22 3d cc 13 a3 3c 97 86 d9 3d
       -0.043040708 0.039650153 0.0199069 0.10621374
000220 37 27 e1 bc cb 6d d2 ba 2a d4 f6 bd 0f 2a 89 bd
       -0.02748452 -0.0016054449 -0.12052186 -0.06697475
000230 3b df 65 3e e1 35 6d bd 50 4f e9 3c df 95 e9 bd
       0.22448437 -0.05791271 0.028480202 -0.11405539
000240 fb 16 c6 3d 28 41 15 3e a5 0c fe 3d 9f 38 79 bd
       0.09672352 0.14575636 0.124047555 -0.060845014
000250 06 5b 54 3e 3e eb c9 bd d3 92 41 3d 77 c3 9e bd
       0.20737848 -0.09859322 0.047259163 -0.07752126
000260 d7 a6 42 bd 75 c5 2d bd 86 e7 a2 3c cb ea b8 3b
       -0.047522392 -0.042424638 0.01988579 0.005643224
000270 76 f0 a3 3d 57 a6 cc 3c 96 53 1b bd 5d ea 06 3d
       0.08004849 0.02498166 -0.03792151 0.03293835
000280 6f fd e0 3c b3 51 c6 bd b2 b5 18 bd 9a 9e b2 3d
       0.027464597 -0.09683552 -0.037282653 0.08721657
000290 00 d1 6d bc 37 d4 0a 3d df e0 23 3b a1 81 0c 3c
       -0.0145151615 0.03389379 0.002500586 0.008575828
0002a0 47 5d 10 3d 07 5b 26 3d 40 8d eb bd e7 9b f4 3d
       0.035245206 0.040614154 -0.11501551 0.119437985
0002b0 09 06 85 3d 3e 2c 89 bd 9c 0c 31 bd 7a f2 09 bd
       0.06495292 -0.06697892 -0.043224916 -0.03367851
0002c0 e8 01 88 3d 84 ec ab 3c 92 58 8c bd 3a 55 5d 3e
       0.066409886 0.020986803 -0.06852831 0.21614543
0002d0 8a 67 4a 3d 76 e0 c2 3a 53 0f 15 be 8b 69 a3 bc
       0.04941515 0.001486792 -0.14556627 -0.019947788
0002e0 e7 65 7d 3d fb b9 9e bc 91 05 ee 3b 35 97 e0 3c
       0.06186476 -0.019375792 0.007263847 0.027415851
0002f0 c0 e0 ce bc bd 6b b1 3d 0b 84 77 be 32 e7 1e 3c
       -0.025253654 0.086631276 -0.24171464 0.009698676
000300 08 26 24 3d 76 d7 83 bc c5 8f cd bc 12 27 88 3c
       0.040075332 -0.01609395 -0.025092969 0.016620193
000310 1a 1e 43 3e fc 9e 97 bc 31 c1 9b bd d7 13 2d 3e
       0.19054452 -0.018508427 -0.07605208 0.169021
000320 46 0a d4 bc d3 67 bf bd 2a 0b ed bd 08 4f ee bd
       -0.025883805 -0.09345975 -0.11574395 -0.11636168
000330 19 9f 9c bd 49 66 d0 bd d4 5c b9 3d 83 a8 47 3d
       -0.07647533 -0.10175759 0.09050909 0.04874469
000340 e0 f8 a2 bc 90 3e ee bc 53 5d a1 bc f9 35 3d be
       -0.019894063 -0.029082566 -0.01969782 -0.1847762
000350 79 8f c6 3d 3d 36 91 3d d1 7f a5 3c 70 a4 5f be
       0.09695334 0.07090423 0.02020255 -0.21840072
000360 2a 20 15 be e0 33 03 be d4 9a 7e bc 62 19 ce 3c
       -0.14563051 -0.12812757 -0.015539844 0.025158588
000370 92 a7 74 3e 76 f9 06 be c9 02 2d 3d 03 c9 02 be
       0.23892048 -0.131811 0.042238984 -0.12771992
000380 9f 0a a6 3c d5 03 aa bd 9f 3b 2e 3d b9 71 c1 bc
       0.020268736 -0.08301512 0.042537328 -0.023613798
000390 bb 28 55 bd 4b 65 bb 3d 91 99 c6 3c 5b 03 01 3e
       -0.052040797 0.091501795 0.024243148 0.12598936
0003a0 75 58 a2 3d 7b b7 39 bc 9a 87 9f 3d 85 9c 9c 3c
       0.07927028 -0.011335249 0.07789536 0.019117603
0003b0 d7 8b d2 bb 9b 45 11 3e 97 6b ea bc 87 72 12 3c
       -0.0064253616 0.14186709 -0.028615756 0.008938438
0003c0 e5 89 85 3c 6e 9d 60 3d 84 30 a4 bd 13 47 07 3d
       0.016301105 0.054837637 -0.08017066 0.033026766
0003d0 02 da 91 bd 11 0d 85 3c e8 c4 54 3d aa 6e 14 be
       -0.0712166 0.016241582 0.051945597 -0.1449534
0003e0 d3 0c 68 bd b3 dd 44 bd 3a fd d7 3d d7 d7 4a bd
       -0.056652855 -0.04806299 0.10546346 -0.049522247
0003f0 c5 e4 63 3e 88 f4 a9 3c 53 59 f0 bb 46 2a 01 3e
       0.22255237 0.020746484 -0.007334867 0.12613782
